trained_data/ddpg/nowalls/actor_ddpg.pth (torch, 504034 bytes, 10 tensors)

fc1.weight f4 [400, 6]
0.06466476 -0.045883216 0.08858857 0.26659083 0.107389525 0.07082949 -0.011107754 0.041784663
0.33603778 0.012336185 0.38771906 0.35306814 0.014312413 0.012528158 0.45899156 -0.141714
0.07970325 0.48166585 0.0339353 -0.0035455462 0.4027405 -0.15467429 0.31268194 0.42048228
0.021700379 0.008978542 -0.24165593 -0.029624633 -0.26567796 -0.03492257 0.045693133 -0.02144099
-0.22915854 -0.16479161 -0.24582914 -0.0020448277 0.014997357 0.024395106 0.23035143 -0.39341408
0.3084515 0.24358805 0.001766532 0.038034808 0.27065217 -0.23640573 0.07497234 0.6055709
0.0015526665 0.035278995 -0.078307316 0.05475696 -0.17202026 -0.1305979 -0.024750426 0.05731662
0.24158235 -0.16869989 0.28925455 0.19777171 0.010681993 0.014008425 0.17072903 0.060754698
0.22137545 0.62165093 0.017849064 0.010480494 -0.39844987 -0.09508127 0.025498224 -0.081530064
0.01849555 0.009634307 0.43570012 -0.19169185 0.07407061 0.28971472 0.04948645 -0.0048441426
-0.0844138 -0.1938044 0.09005124 0.5079618 0.03458281 -0.010114841 -0.560231 0.041445028
-0.23328555 -0.24344261 0.052695107 -0.023058146 -0.31762567 0.018816307 -0.3357313 -0.46573305
0.05889251 -0.036404382 -0.10076608 0.08951893 0.045184545 0.08413929 0.011328856 0.023681238
-0.103416614 0.071001664 -0.3813872 -0.046781447 0.017880315 0.009740724 0.1497155 -0.34343964
-0.08772613 0.30150712 0.03914002 -0.07939607 -0.2344143 0.15112978 -0.36928388 -0.09841367
-0.033082586 0.067524366 0.28016484 -0.14825594 0.42097837 0.17273964 0.019376809 0.014083988
0.19098969 -0.340866 0.010901402 0.2509344 0.007210623 0.016332703 0.04540098 0.38451654
-0.13555433 -0.2076285 0.011659842 0.029830655 0.10271204 0.36167887 0.32564 0.110549614
0.043152608 -0.01269451 -0.08272664 0.099723026 -0.17562862 -0.14218965 0.033134956 -0.013710022
0.5022678 -0.23750907 0.2686171 0.53353447 0.02481531 0.004573458 -0.29630837 -0.14652103
0.0121362815 0.22219284 0.026105955 -0.0026671665 0.51628417 -0.20695871 0.13660522 0.5260299
0.019956658 0.0135429185 0.037957698 -0.009382325 -0.24828582 0.138716 0.043157175 -0.005273229
-0.0756873 -0.16463359 -0.2549819 0.038405508 0.03446238 -0.008466112 0.25939342 -0.5050608
-0.07515162 0.47749543 0.057843838 -0.025077991 -0.14794098 -0.09554846 -0.42732558 -0.5768559
0.0085951295 0.021171222 0.3066879 -0.113279454 0.23870327 0.3930945 0.017667498 0.016571462
0.3048325 -0.4500104 -0.0006888859 -0.05632984 0.037231483 -0.0037662755 -0.07927892 -0.14031398
0.010719683 0.4666848 0.012307608 0.022654358 -0.12920764 -0.030661544 -0.3205984 -0.26927108
0.018973444 0.006481966 -0.36032945 0.22323492 -0.22396812 -0.6341591 0.059845053 -0.03600664
-0.19773111 -0.0073898127 -0.37767556 -0.36870736 0.011163963 0.022902882 0.23258488 -0.309153
-0.0077766143 0.40850148 0.060467396 -0.037702072 -0.25484818 -0.026328865 -0.3640832 -0.2977112
0.024181692 -0.008410817 -0.22212379 -0.19015254 -0.298379 -0.030209927 0.029434327 0.008746941
-0.15233381 -0.15833056 0.098609574 0.50849 0.039010853 -0.019678926 0.15523271 0.20394869
00000000: f56e 843d 0af0 3bbd ed6d b53d 987e 883e
00000010: 0aef db3d 0d0f 913d 4cfd 35bc 6526 2b3d
00000020: 250d ac3e b61d 4a3c 1d83 c63e 59c5 b43e
00000030: 9c7e 6a3c e742 4d3c f100 eb3e 7a1d 11be
00000040: 753b a33d e89c f63e beff 0a3d 655c 68bb
00000050: 0134 ce3e f062 1ebe d917 a03e 7449 d73e
00000060: fec4 b13c bc1a 133c a774 77be 5caf f2bc
00000070: f106 88be f80a 0fbd b928 3b3d 04a5 afbc
00000080: 89a8 6abe 22bf 28be a2ba 7bbe 8402 06bb
00000090: 79b7 753c 3fd8 c73c 3fe1 6b3e 926d c9be
000000a0: 5bed 9d3e 256f 793e fa8a e73a 63ca 1b3d
000000b0: ec92 8a3e 5814 72be 198b 993d b206 1b3f
000000c0: d882 cb3a b580 103d 965f a0bd d648 603d
000000d0: 1426 30be 75bb 05be 68c1 cabc d5c4 6a3d
000000e0: 5d61 773e aabf 2cbe 2c19 943e ab84 4a3e
000000f0: 8703 2f3c 9883 653c 97d3 2e3e ebd9 783d
00000100: 3fb0 623e 8424 1f3f 3338 923c 61b6 2b3c
00000110: 9f01 ccbe f8b9 c2bd a7e1 d03c 3cf9 a6bd
00000120: fb83 973c 36d9 1d3c 1614 df3e de4a 44be
00000130: 55b2 973d 7d55 943e 4eb2 4a3d 9dbb 9ebb
00000140: 24e1 acbd a974 46be c96c b83d c909 023f
00000150: b4a6 0d3d b8b8 25bc 4c6b 0fbf 43c2 293d
00000160: 68e2 6ebe 0549 79be d3d6 573d 70e4 bcbc
00000170: d59f a2be a824 9a3c f9e4 abbe 9074 eebe
00000180: 4639 713d c31c 15bd 725e cebd b355 b73d
00000190: 6e13 393d 3851 ac3d ab9c 393c 28ff c13c
000001a0: 17cc d3bd 5269 913d 2f45 c3be e79d 3fbd
000001b0: bd79 923c 8f97 1f3c 054f 193e 52d7 afbe
000001c0: c2a9 b3bd 245f 9a3e 4951 203d 689a a2bd
000001d0: 4d0a 70be c4c1 1a3e c712 bdbe 1b8d c9bd
000001e0: 9b81 07bd 374a 8a3d c471 8f3e 68d0 17be
000001f0: 7a8a d73e a9e2 303e 1dbc 9e3c 87c0 663c
00000200: cd92 433e fd85 aebe cb9b 323c 797a 803e
00000210: 1747 ec3b 29cc 853c 61f6 393d 5adf c43e
00000220: c1ce 0abe 919c 54be ec08 3f3c 6b5f f43c
00000230: b15a d23d f92d b93e 49ba a63e d667 e23d
00000240: cac0 303d a2fc 4fbc 966c a9bd 963b cc3d
00000250: fdd7 33be 2a9a 11be 85b8 073d 00a0 60bc
00000260: 9f94 003f 9435 73be 2e88 893e b795 083f
00000270: 7a49 cb3c f2dc 953b bbb5 97be 9c09 16be
00000280: 41d7 463c 8586 633e 28dc d53c a1cb 2ebb
00000290: 332b 043f fcec 53be 3de2 0b3e e5a9 063f
000002a0: 257c a33c 1ee3 5d3c 8879 1b3d 53b8 19bc
000002b0: a33e 7ebe 910b 0e3e 94c5 303d 0dcb acbb
000002c0: f101 9bbd b595 28be fd8c 82be 184f 1d3d
000002d0: 6d28 0d3d 73b5 0abc 37cf 843e aa4b 01bf
000002e0: 18e9 99bd 487a f43e a9ed 6c3d 5c70 cdbc
000002f0: d77d 17be e9ae c3bd 6bca dabe d4ac 13bf
00000300: 96d2 0c3c 456f ad3c 3206 9d3e 0fff e7bd
00000310: a16e 743e af43 c93e 6ebb 903c e0c0 873c
00000320: 0113 9c3e c367 e6be 5a96 34ba 1eba 66bd
00000330: 0a80 183d 9ed3 76bb fd5c a2bd 78ae 0fbe
00000340: 9ca1 2f3c 4ff1 ee3e d9a5 493c a295 b93c
00000350: 024f 04be eb2d fbbc 7925 a4be e6dd 89be
00000360: 326e 9b3c ac66 d43b 1a7d b8be b297 643e
00000370: e657 65be 4058 22bf 1620 753d b37b 13bd
00000380: 067a 4abe 3e26 f2bb b15e c1be 36c7 bcbe
00000390: 0ee9 363c d39e bb3c bb2a 6e3e 4d49 9ebe
000003a0: f8d2 febb 1b27 d13e a9ac 773d 7d6d 1abd
000003b0: 767b 82be a2af d7bc 1d69 babe 9a6d 98be
000003c0: af18 c63c 86cd 09bc 6b74 63be 59b7 42be
000003d0: 22c5 98be cf7a f7bc 4220 f13c 544f 0f3c
000003e0: 65fd 1bbe 6821 22be d1f3 c93d 672c 023f
000003f0: d8c9 1f3d b335 a1bc 53f5 1e3e edd7 503e

fc1.bias f4 [400]
-0.17524713 -0.25391805 0.0058466657 -0.1404682 0.006890784 0.1008747 0.011631395 -0.16954967
-0.111970134 -0.029612951 -0.20927328 0.30159098 -0.09474134 -0.30105436 0.23847967 -0.1359856
-0.27618518 0.19787852 0.17873862 0.03192143 -0.13452762 0.25982478 0.026171368 -0.13205048
-0.015904704 0.04092225 -0.0016871326 0.24103115 -0.07439437 -0.44629332 0.017404245 0.15700185
-0.21871257 0.07625338 -0.37279215 0.052324235 0.3429796 0.11711409 0.091543876 0.08678065
-0.12624028 -0.37545717 -0.13258193 -0.046190493 -0.11716533 -0.011396771 0.2100794 0.25264892
0.21843506 0.11746704 0.02292179 -0.25182855 0.06331968 -0.18704265 -0.03966682 0.0013089293
-0.055084992 0.036234915 -0.35613498 0.014378261 0.16195388 -0.0552083 -0.02802195 -0.06942774
-0.1317658 -0.07148652 0.007837423 -0.20097554 0.011460045 0.01692918 -0.055283956 -0.12296037
-0.054197785 -0.38920823 -0.06045869 -0.050501864 -0.020397168 -0.3351078 -0.29549855 0.13437402
-0.26881433 -0.115355 -0.2256914 -0.037506975 -0.36254698 0.0893473 -0.054698057 -0.036027115
0.15295346 -0.1837216 -0.20179868 -0.12237398 0.04379287 -0.0029948805 0.13720237 -0.16757886
-0.15572312 -0.24188079 0.055339772 0.23169312 -0.103185825 0.032476198 0.23181109 -0.16263567
0.16984199 -0.2649809 -0.015861016 -0.06377055 0.21495597 0.17190509 0.22492483 0.32100427
-0.16069588 -0.15606946 -0.32849705 0.036068253 -0.0873094 -0.2917593 0.03466047 0.012421258
0.002358214 -0.03704313 -0.3786556 -0.34507027 -0.08615089 0.2263589 0.017185321 -0.21895808
0.12636712 0.109954834 -0.1726735 -0.10038721 -0.17318872 -0.29857627 -0.12787706 0.29473096
0.12695122 0.20030141 -0.10078822 -0.15415609 -0.03715623 0.094030604 -0.113715835 -0.12187678
-0.15719403 0.046578445 -0.03820346 0.012580938 -0.12368361 0.21001989 -0.11506869 0.09134457
0.21766688 0.16297656 0.1120015 -0.13183673 -0.04594833 -0.13720188 0.05148176 -0.22099207
0.1110498 -0.0037253127 -0.015349262 -0.25316474 0.016556602 -0.19893676 -0.15966514 0.03257034
0.024073698 -0.08372136 0.05861383 -0.22548121 -0.11233126 -0.051804528 0.085399635 -0.005928628
-0.17668453 0.031197539 0.16286077 -0.15151127 0.1840132 -0.059255857 -0.07178677 -0.089304514
0.13967897 -0.036881942 -0.06977756 0.11602906 -0.08870293 -0.2396125 -0.11460569 -0.118089154
0.02770854 -0.33433682 -0.15213342 -0.091354564 -0.011023931 -0.0046234797 0.009772503 0.099784225
-0.19033349 -0.20906766 -0.11640151 -0.2488976 0.24252774 0.062445737 0.18351588 0.008550268
0.03049306 -0.2364609 0.17706683 -0.2594031 0.013216509 0.10509492 0.06345882 0.23146437
-0.06724028 -0.22990723 0.004995605 0.02213078 -0.22627708 0.020440124 -0.12122552 0.157247
-0.0430261 -0.21989352 -0.19497411 0.06621211 0.22376621 -0.30342177 -0.23956864 0.07045106
-0.04383449 -0.2861151 0.13720673 -0.10113604 0.12996691 -0.10055457 0.008145612 -0.2052827
-0.21406472 -0.17459719 0.054529056 -0.29911053 0.31121916 -0.108636394 0.20599043 -0.06796961
0.122616485 -0.11337983 0.1807157 -0.07883211 0.008426892 0.1753444 0.09727237 0.033714354
00000000: fc73 33be 8c01 82be 6395 bf3b e5d6 0fbe
00000010: 16cc e13b 6597 ce3d 9b91 3e3c 6e9e 2dbe
00000020: 9950 e5bd dc96 f2bc bc4b 56be 226a 9a3e
00000030: bf07 c2bd cc23 9abe 0434 743e cf3f 0bbe
00000040: 2568 8dbe aba0 4a3e 4207 373e 0cc0 023d
00000050: 9cc1 09be c107 853e 5665 d63c 3e38 07be
00000060: 954a 82bc 179e 273d c722 ddba dfd0 763e
00000070: 135c 98bd 8f80 e4be 5993 8e3c 18c5 203e
00000080: 30f6 5fbe bb2a 9c3d 9dde bebe f051 563d
00000090: 069b af3e 83d9 ef3d 5b7b bb3d 0eba b13d
000000a0: 2245 01be ec3b c0be 8fc3 07be 3e32 3dbd
000000b0: 60f4 efbd 86b9 3abc 0e1f 573e 335b 813e
000000c0: 71ad 5f3e 8f92 f03d 7ac6 bb3c acef 80be
000000d0: c0ad 813d 1c88 3fbe ad79 22bd 6190 ab3a
000000e0: cda0 61bd 106b 143d 5357 b6be cc92 6b3c
000000f0: 3dd7 253e 1922 62bd 4a8e e5bc 2230 8ebd
00000100: 9ded 06be 8667 92bd 8968 003c 88cc 4dbe
00000110: eac2 3b3c 10af 8a3c 6e71 62bd a5d2 fbbd
00000120: 7ffe 5dbd 4d46 c7be 88a3 77bd 0bdb 4ebd
00000130: f617 a7bc 4093 abbe 964b 97be 5899 093e
00000140: 08a2 89be 3e3f ecbd a51b 67be eaa0 19bd
00000150: c29f b9be b8fb b63d 120b 60bd 2b91 13bd
00000160: d59f 1c3e 8421 3cbe 50a4 4ebe 369f fabd
00000170: 2760 333d c245 44bb c77e 0c3e cb99 2bbe
00000180: e275 1fbe 99af 77be f5ab 623d f640 6d3e
00000190: 1753 d3bd c305 053d e35f 6d3e f789 26be
000001a0: 0feb 2d3e 94ab 87be f6ee 81bc 229a 82bd
000001b0: 6b1d 5c3e e307 303e b252 663e ac5a a43e
000001c0: 768d 24be acd0 1fbe c430 a8be 4ebc 133d
000001d0: 45cf b2bd 7a61 95be 23f8 0d3d 8882 4b3c
000001e0: 448c 1a3b 89ba 17bd 26df c1be 0dad b0be
000001f0: e16f b0bd a1ca 673e 3bc8 8c3c 8c36 60be
00000200: 6266 013e 0030 e13d 52d1 30be cf97 cdbd
00000210: 6258 31be fdde 98be 34f2 02be fae6 963e
00000220: 80ff 013e d01b 4d3e 0e6a cebd 18db 1dbe
00000230: 2231 18bd 1e93 c03d d9e3 e8bd 899a f9bd
00000240: 79f7 20be 0ac9 3e3d 3b7b 1cbd 4720 4e3c
00000250: d54d fdbd 740f 573e 22a9 ebbd dd12 bb3d
00000260: 11e4 5e3e 54e3 263e 0b61 e53d 3500 07be
00000270: 5134 3cbd a67e 0cbe 8ade 523d bf4b 62be
00000280: 146e e33d 6024 74bb 797b 7bbc cf9e 81be
00000290: b6a1 873c 14b6 4bbe 427f 23be 7a68 053d
000002a0: 3436 c53c 1b76 abbd 0e15 703d 8ce4 66be
000002b0: ef0d e6bd fc30 54bd 01e6 ae3d f044 c2bb
000002c0: caec 34be fb91 ff3c f9c4 263e c525 1bbe
000002d0: f56d 3c3e 45b6 72bd f104 93bd 49e5 b6bd
000002e0: 0108 0f3e 8511 17bd 8ae7 8ebd a5a0 ed3d
000002f0: e2a9 b5bd fb5c 75be 63b6 eabd bad8 f1bd
00000300: 05fd e23c 322e abbe ddc8 1bbe 1a18 bbbd
00000310: b89d 34bc 8f80 97bb d91c 203c ac5b cc3d
00000320: c8e6 42be d515 56be ea63 eebd 03df 7ebe
00000330: 3159 783e 1ac7 7f3d 96eb 3b3e 6c16 0c3c
00000340: 95cc f93c ce22 72be 0251 353e 7cd0 84be
00000350: 0e8a 583c 013c d73d b3f6 813d ff04 6d3e
00000360: 46b5 89bd cd6c 6bbe 2cb2 a33b 9c4b b53c
00000370: 2eb5 67be 0c72 a73c 1645 f8bd 5c05 213e
00000380: 233c 30bd c42b 61be 4ba7 47be 379a 873d
00000390: f822 653e 195a 9bbe 7b51 75be a548 903d
000003a0: cb8b 33bd ae7d 92be ec7f 0c3e 6a20 cfbd
000003b0: 0c16 053e 8eef cdbd 2c75 053c a135 52be
000003c0: c833 5bbe 9bc9 32be dc59 5f3d 0425 99be
000003d0: 1e58 9f3e c27c debd 28ef 523e a733 8bbd
000003e0: 5a1e fb3d af33 e8bd 890d 393e bb72 a1bd
000003f0: f210 0a3c 7b8d 333e bc36 c73d 1018 0a3d

fc2.weight f4 [300, 400]
0.01498903 0.008221356 -0.034809645 -0.011845828 0.0631305 0.045528255 0.15306672 -0.03857775
0.041475452 0.008285004 0.007578095 -0.0025197305 0.00037611023 -0.04287941 -0.08259558 -0.065389805
0.03291271 -0.042352926 0.10251982 -0.07405795 0.029277267 0.0068242275 0.07883722 -0.034497082
0.09562196 0.020336162 0.089156255 0.042963546 0.017951006 0.053637158 0.02945985 0.050729353
-0.08711562 0.039994977 0.06353234 -0.03603456 0.039313637 0.018006964 -0.045422442 -0.014947054
-0.00041777818 0.00049872487 -0.0076962574 0.11981521 0.020425498 0.068812214 0.07323449 0.10517061
0.06830752 -0.009850087 0.06500493 0.050925594 -0.021913163 -0.004069775 0.0016881616 0.004772803
-0.018592129 -0.00095030834 -0.007245316 0.17189437 0.061527796 -0.056108043 -0.016835049 0.20061688
-0.08086233 0.07149538 -0.06573692 0.08806114 -0.08817748 0.077975646 0.029085448 0.068535306
0.006677399 0.002824834 -0.021029375 0.029798906 -0.054467093 -0.015866505 -0.024628446 -0.07368682
0.047786318 0.0049848882 0.006928922 0.04108692 0.01113619 0.09200761 0.19125758 -0.05556074
0.095815524 0.0018651262 0.078965515 0.056100715 0.07513998 -0.084783636 0.056041032 -0.04351975
0.006432923 -0.008573541 0.1388219 0.16789791 -0.055476584 0.10142472 0.09101142 -0.03536351
0.097803295 0.0055098096 -0.04591858 0.058531985 -0.054766893 -0.01727647 0.1188827 0.03656434
0.06652882 0.05007621 0.060942817 0.06890245 0.020014327 0.05406206 -0.046607208 -0.08138861
0.018991988 -0.086333476 0.0341365 0.011726036 0.010096472 0.06026526 0.076230995 0.051837157
-0.06658238 -0.029645436 -0.15026696 0.021990819 0.07241862 0.040647395 0.048219845 -0.007992984
0.06948206 0.1217527 0.042195767 -0.05807778 -0.09294096 0.07791539 0.10438801 -0.025264135
-0.051254693 -0.090073034 0.057619587 0.13539425 0.015675223 0.026850726 0.008090651 -0.024041383
0.022095792 -0.059731513 0.021621268 0.023654342 0.1127726 -0.05376803 0.07082764 -0.049499523
0.04295287 -0.019869734 -0.0013938047 0.065665565 -0.05381804 -0.06951118 -0.0074896216 -0.08724207
0.09037059 0.030438438 0.05751488 0.027729528 -0.057620037 0.16232744 0.0007834145 -0.056512382
0.049361415 0.033637606 -0.06840648 -0.0534329 0.095708564 0.09738698 0.041188635 -0.20053339
0.14370549 -0.052686393 0.0032032584 -0.021072878 0.08910394 -0.031136498 -0.0062922714 0.10828968
0.016167168 0.05157438 0.007217828 -0.044134084 0.08977607 0.025380658 0.035848837 0.059055798
-0.0151911285 0.037867717 0.03828743 0.06419281 -0.00036965744 0.120147 0.04514159 0.045725033
0.098826416 -0.047366675 0.0014399246 -0.037565973 0.022811953 -0.21224615 -0.06230895 -0.018990003
0.03739949 0.023139112 -0.0023604725 -0.022751847 -0.02515744 0.020923326 0.022968082 0.047517348
0.06421017 0.010677565 -0.022546355 0.005697888 0.04458319 0.09176069 -0.023134898 -0.0341256
-0.020159911 -0.010013428 0.08362502 0.050024696 0.03592522 0.014414003 0.15318197 -0.094920106
0.038496893 0.031363174 0.008080631 0.04963949 0.05040193 0.0058907834 0.08935892 0.0824817
-0.03041582 0.10582856 0.0154313855 -0.038981378 0.012283635 0.09272351 0.052085795 0.030495945
00000000: 8c94 753c deb2 063c 8f94 0ebd 0115 42bc
00000010: 904a 813d d67b 3a3d 86bd 1c3e b403 1ebd
00000020: 2ae2 293d d3bd 073c ab51 f83b 1022 25bb
00000030: a930 c539 52a2 2fbd df27 a9bd 17eb 85bd
00000040: 7acf 063d 437a 2dbd e9f5 d13d b2ab 97bd
00000050: e1d6 ef3c c59d df3b 6975 a13d d04c 0dbd
00000060: 72d5 c33d 0698 a63c 8e97 b63d 8bfa 2f3d
00000070: fd0d 933c a3b2 5b3d c955 f13c 95c9 4f3d
00000080: ad69 b2bd c6d1 233d 3e1d 823d fa98 13bd
00000090: 5607 213d 5783 933c e20c 3abd 7de4 74bc
000000a0: 3d09 dbb9 dcbc 023a e330 fcbb ad61 f53d
000000b0: 6053 a73c 6bed 8c3d f7fb 953d b063 d73d
000000c0: d0e4 8b3d 4262 21bc 4e21 853d 5b97 503d
000000d0: 3c83 b3bc bf5b 85bb 4e45 dd3a 2c65 9c3b
000000e0: 854e 98bc 1d1e 79ba 1e6a edbb 1405 303e
000000f0: 9204 7c3d 8cd1 65bd a8e9 89bc 836e 4d3e
00000100: 269b a5bd 2b6c 923d 14a1 86bd 6659 b43d
00000110: 6596 b4bd b2b1 9f3d 9b44 ee3c 3d5c 8c3d
00000120: 15ce da3b da20 393b cc45 acbc d61c f43c
00000130: e318 5fbd 79fa 81bc 98c1 c9bc 1ee9 96bd
00000140: 96bb 433d 4658 a33b 030c e33b c24a 283d
00000150: 9174 363c 7c6e bc3d 07d9 433e a993 63bd
00000160: ee3a c43d 4077 f43a acb8 a13d ddc9 653d
00000170: fde2 993d 0ba3 adbd 488b 653d c441 32bd
00000180: 45cb d23b 0a78 0cbc 5427 0e3e 6eed 2b3e
00000190: 6a3b 63bd c3b7 cf3d 3264 ba3d 54d9 10bd
000001a0: 184d c83d a28b b43b 1f15 3cbd 3cbf 6f3d
000001b0: 4053 60bd 6287 8dbc c678 f33d 7dc4 153d
000001c0: 4340 883d b61c 4d3d 2d9f 793d ba1c 8d3d
000001d0: 16f5 a33c 2e70 5d3d 33e7 3ebd 12af a6bd
000001e0: 1695 9b3c 9bcf b0bd b7d2 0b3d 8f1e 403c
000001f0: ac6b 253c b5d8 763d ff1e 9c3d 3353 543d
00000200: 585c 88bd fcda f2bc 95df 19be 1726 b43c
00000210: 3750 943d e27d 263d 2c82 453d 01f5 02bc
00000220: 9c4c 8e3d 7b59 f93d 78d5 2c3d f7e2 6dbd
00000230: d457 bebd 1b92 9f3d 62c9 d53d bbf6 cebc
00000240: 71f0 51bd 3678 b8bd 8402 6c3d caa4 0a3e
00000250: 5369 803c 0ef6 db3c a68e 043c 6ff2 c4bc
00000260: 3c02 b53c 08a9 74bd 161f b13c c0c6 c13c
00000270: 52f5 e63d de3b 5cbd 150e 913d 03c0 4abd
00000280: 59ef 2f3d dac5 a2bc 53b0 b6ba ab7b 863d
00000290: 4e70 5cbd e15b 8ebd 806b f5bb f8ab b2bd
000002a0: 3714 b93d 085a f93c b994 6b3d 0929 e33c
000002b0: fd02 6cbd 2a39 263e 0f5e 4d3a 8779 67bd
000002c0: 322f 4a3d 96c7 093d b218 8cbd 75dc 5abd
000002d0: da02 c43d d372 c73d 6ab5 283d a058 4dbe
000002e0: 8827 133e b0cd 57bd c2ed 513b 07a1 acbc
000002f0: 207c b63d f811 ffbc 662f cebb fbc6 dd3d
00000300: 0271 843c a83f 533d 8883 ec3b f1c5 34bd
00000310: 84dc b73d 19eb cf3c 3bd6 123d 7ee4 713d
00000320: 36e4 78bc 2e1b 1b3d 48d3 1c3d 8577 833d
00000330: 95ce c1b9 a10f f63d 63e6 383d 2c4a 3b3d
00000340: 8165 ca3d 8f03 42bd dabb bc3a c7de 19bd
00000350: 22e0 ba3c 0e57 59be ab37 7fbd ec90 9bbc
00000360: 3530 193d 3c8e bd3c 28b2 1abb 1562 babc
00000370: fa16 cebc 6567 ab3c 8f27 bc3c 8da1 423d
00000380: 9f80 833d f4f0 2e3c 22b3 b8bc 59b5 ba3b
00000390: dd9c 363d 07ed bb3d 6685 bdbc 49c7 0bbd
000003a0: 6626 a5bc 5c0f 24bc 9843 ab3d b2e6 4c3d
000003b0: 5326 133d b628 6c3c bcdb 1c3e 7965 c2bd
000003c0: ebae 1d3d ac76 003d 9f64 043c c752 4b3d
000003d0: 4172 4e3d 7907 c13b cf01 b73d 2aec a83d
000003e0: 992a f9bc a5bc d83d ecd3 7c3c f0aa 1fbd
000003f0: 4d41 493c d3e5 bd3d ea57 553d a2d2 f93c

fc2.bias f4 [300]
0.026222738 0.05532985 0.0035857768 -0.014202041 -0.0249271 -0.018369231 0.039770577 0.06224995
0.09103399 -0.03537594 -0.010271597 0.009261856 0.028243022 0.10115738 0.052656375 -1.5782636e-05
0.025979858 0.017789999 0.050498173 0.017497681 -0.012122698 0.044083055 -0.0059519624 0.04870792
0.012302783 0.0017946368 -0.017801622 -0.00770786 0.031502362 0.015660986 0.015916595 0.061730273
0.0067134835 0.074351616 0.08632568 -0.045130823 -0.010575572 0.048966274 -0.03584551 -0.04285986
0.025125094 0.05176354 0.07500825 -0.015078389 -0.020162398 0.03091437 0.07093162 0.051867418
0.039603997 0.025725503 -0.035767473 -0.012706171 0.027159898 0.07763651 -0.03726969 0.04572998
-0.04305035 0.034088556 0.0017518211 -0.006412478 0.0013360594 -0.03647324 -0.0153303435 -0.0022704718
0.01823304 0.0029909245 0.058093194 -0.016346218 -0.034022108 0.013634094 0.0042963 0.026559677
-0.035173625 0.018479222 -0.04103456 -0.020262156 -0.02188189 0.05545208 -0.026901763 0.039977614
0.05543424 0.07764847 0.04789304 0.039290793 -0.011246719 -0.019406283 0.012973056 0.025418147
0.026809737 -0.011521022 0.019223707 -0.017487206 -0.038928997 -0.003541463 0.012601613 -0.0068016974
-0.00653506 0.025746586 0.015749441 0.03406532 0.061088063 -0.053032335 0.003266925 0.07897795
0.060498565 -0.004208254 0.024302883 0.033481766 0.04409089 -0.027684558 0.02868452 0.04794455
-0.013704114 0.038764216 0.07797093 -0.013556673 0.08974639 0.06972044 0.061878234 -0.040371
-0.021390423 -0.02129623 0.03388769 0.050258473 0.050703727 0.017518952 -0.019397955 -0.018292122
0.047128 0.054436523 0.02887875 -0.037231874 -0.049557656 0.09071542 0.039307207 0.025749471
0.0028677355 0.0273205 0.082373485 -0.010152564 0.025011145 0.009823892 0.010697401 0.029601825
-0.017097095 -0.0022731188 -0.029036604 -0.008813712 0.023008619 0.030560369 0.021798477 -0.011064263
0.03281353 0.048600797 0.026682368 -0.009253745 0.0046950006 -0.03350508 0.05772313 0.03568026
0.0073953844 -0.00024634792 0.03320943 0.021623876 0.009821677 0.03885215 0.005434325 -0.0014581989
-0.03945572 -0.001520703 0.07828656 -0.040122487 0.032799244 0.03620959 0.0053977873 -0.010970778
0.015087089 0.034815643 0.02663303 0.015340841 0.04624813 0.029154241 0.0070645674 -0.005749698
-0.004743696 0.034770552 0.039640587 0.029637687 0.038057648 0.0036873939 0.040235218 0.057700574
0.051131148 0.0067267464 0.01671791 0.08427346 0.0141493045 -0.0061198603 -0.017129181 -0.033090923
0.04834738 0.044719536 -0.06242639 -0.015915453 -0.02301047 -0.026162887 0.02514566 0.07315537
0.05919162 0.025646945 0.023337813 0.030863632 -0.0076800543 0.08734309 0.0027278084 0.08006373
-0.048383493 -0.015330944 0.05501213 0.032646436 0.008839577 0.076282956 0.051434796 -0.0004196284
0.025708776 -0.029464664 0.09528736 0.0012571968 0.07576692 -0.01536678 0.0051291888 -0.030862859
-0.024917152 0.051088948 0.01381749 0.0012117237 0.08688226 -0.03111348 0.06146241 0.052266393
0.0597874 0.041421503 0.06390739 0.022579536 0.0047130077 -0.015449155 0.0014495035 0.020754743
0.0066859857 -0.013774577 0.033440854 0.03531629 -0.013925376 0.015266089 -0.05124373 -0.058026932
00000000: 11d1 d63c 8ea1 623d 5aff 6a3b adaf 68bc
00000010: eb33 ccbc 127b 96bc 79e6 223d cef9 7e3d
00000020: 0770 ba3d 5de6 10bd 334a 28bc 0abf 173c
00000030: e95d e73c 9a2b cf3d 36ae 573d f464 84b7
00000040: b6d3 d43c 55bc 913c 2cd7 4e3d 4c57 8f3c
00000050: 489e 46bc 6f90 343d ae08 c3bb f581 473d
00000060: 9d91 493c 053a eb3a b5d4 91bc 3792 fcbb
00000070: 9f08 013d 784b 803c 8563 823c e2d8 7c3d
00000080: c8fc db3b a945 983d 85cb b03d 19db 38bd
00000090: 2a45 2dbc dc90 483d bed2 12bd d28d 2fbd
000000a0: 24d3 cd3c 0106 543d ed9d 993d 590b 77bc
000000b0: 9d2b a5bc 2240 fd3c 9944 913d ee72 543d
000000c0: cd37 223d 4abe d23c ea80 12bd 8b2d 50bc
000000d0: 6f7e de3c e4ff 9e3d 1aa8 18bd 5c4f 3b3d
000000e0: 9055 30bd 71a0 0b3d 5d9d e53a c41f d2bb
000000f0: b71e af3a f764 15bd 1f2c 7bbc 32cc 14bb
00000100: 755d 953c 6303 443b 21f3 6d3d 81e8 85bc
00000110: c45a 0bbd 8961 5f3c fac7 8c3b ae93 d93c
00000120: 3812 10bd bd61 973c db13 28bd d2fc a5bc
00000130: a641 b3bc b821 633d 1661 dcbc 91bf 233d
00000140: 030f 633d 2906 9f3d 7e2b 443d 62ef 203d
00000150: 2944 38bc edf9 9ebc f18c 543c b839 d03c
00000160: 18a0 db3c abc2 3cbc 097b 9d3c 5441 8fbc
00000170: 0374 1fbd e417 68bb ff76 4e3c c6e0 debb
00000180: 0e24 d6bb 81ea d23c f904 813c 1488 0b3d
00000190: 7a37 7a3d 6f38 59bd e819 563b 31bf a13d
000001a0: 58cd 773d 65e5 89bb d716 c73c 2d24 093d
000001b0: a698 343d baca e2bc ccfb ea3c 8161 443d
000001c0: 3887 60bc 3ac7 1e3d 39af 9f3d cf1c 5ebc
000001d0: f5cc b73d 97c9 8e3d 0874 7d3d 105c 25bd
000001e0: f83a afbc 6e75 aebc d2cd 0a3d d4db 4d3d
000001f0: b6ae 4f3d e883 8f3c 76e8 9ebc 5cd9 95bc
00000200: 4a09 413d d5f8 5e3d 2193 ec3c 7380 18bd
00000210: f8fc 4abd 02c9 b93d 9800 213d 8ef0 d23c
00000220: 9ef0 3b3b 3ecf df3c 6eb3 a83d f156 26bc
00000230: 2ce4 cc3c 64f4 203c 2744 2f3c 877f f23c
00000240: 350f 8cbc 9bf8 14bb 2cde edbc 6367 10bc
00000250: 927c bc3c bd59 fa3c b892 b23c e246 35bc
00000260: 7b67 063d a111 473d fb94 da3c 059d 17bc
00000270: 85d8 993b 9f3c 09bd 176f 6c3d 7725 123d
00000280: fb54 f23b 4228 81b9 9c06 083d 8e24 b13c
00000290: 19eb 203c 6f23 1f3d 6c12 b23b 0921 bfba
000002a0: 529c 21bd 5352 c7ba b454 a03d 7a57 24bd
000002b0: 8058 063d 8250 143d ecdf b03b c7be 33bc
000002c0: d62f 773c d99a 0e3d 832d da3c 2758 7b3c
000002d0: ae6e 3d3d e0d4 ee3c e37d e73b f667 bcbb
000002e0: 0271 9bbb 916b 0e3d 2b5e 223d bcca f23c
000002f0: 56e2 1b3d 34a8 713b afcd 243d 7057 6c3d
00000300: e56e 513d 0a6c dc3b 00f4 883c 9097 ac3d
00000310: 7cd2 673c 1c89 c8bb 7f52 8cbc 598a 07bd
00000320: e707 463d d52b 373d d0b2 7fbd 2061 82bc
00000330: 7480 bcbc 8d53 d6bc 45fe cd3c 7cd2 953d
00000340: ea72 723d 8b19 d23c f12e bf3c bad5 fc3c
00000350: f7a8 fbbb efe0 b23d 08c5 323b 74f8 a33d
00000360: c52d 46bd a42e 7bbc 6654 613d 45b8 053d
00000370: e0d3 103c 3d3a 9c3d 4bad 523d 9201 dcb9
00000380: 369b d23c e15f f1bc 0526 c33d 86c8 a43a
00000390: b02b 9b3d f2c4 7bbc c112 a83b 1bd4 fcbc
000003a0: 0e1f ccbc a542 513d c162 623c b3d2 9e3a
000003b0: 54ef b13d b2e1 febc 02c0 7b3d 4915 563d
000003c0: a2e3 743d 98a9 293d e1e1 823d b8f8 b83c
000003d0: 936f 9a3b 741e 7dbc 44fd bd3a da05 aa3c
000003e0: 1d16 db3b c3ae 61bc 47f9 083d d0a7 103d
000003f0: 4327 64bc 9e1e 7a3c f2e4 51bd a6ad 6dbd

bn1.weight f4 [400]
1.0613818 1.0859529 0.9114976 0.9891227 0.9571729 0.99988914 1.0769142 0.90576637
0.9626434 1.1054806 0.9143079 1.0480622 1.0387652 0.835716 1.0652611 1.0099736
0.9621459 1.0685103 1.0687417 1.2975684 1.1113988 0.9537255 1.070069 1.0792184
1.0538996 1.0659266 1.0872544 1.0857128 1.0050197 0.8167824 1.1228194 0.95585907
0.8044478 1.0968478 0.82005906 1.0545021 1.141251 1.0202097 0.87689996 1.0309979
1.0875758 0.7886892 1.0523461 1.1579807 0.919454 1.0818644 1.1641201 1.2062644
1.0878577 1.0850883 0.9278876 1.2191197 1.1732932 0.85898715 1.0602777 0.8927281
1.0026833 1.2190671 0.89314896 1.1463249 1.1750128 1.0705334 1.082311 1.1797978
1.0823742 1.0059136 1.3607348 0.94106525 1.3725654 0.9973985 1.0088692 0.9888736
1.0033205 0.8995082 1.0960795 0.9109677 1.0248761 0.9302411 1.0057136 1.0218637
0.8467672 1.1252844 1.0350174 1.1001896 0.87545556 1.1912063 1.1696393 1.1856997
1.1572825 0.8507989 1.0069771 1.044496 1.0992078 1.1011813 1.0482571 0.8747483
0.8508721 1.0242286 1.0531813 1.1572288 1.037203 1.07185 1.2438397 0.9102943
1.1704024 0.9861228 0.89835954 0.9092206 0.9139809 1.146487 1.129553 1.0159463
1.0156593 0.9645589 0.8589274 0.9382523 0.9586002 1.0741578 0.9128753 1.0688298
1.0883402 0.9537315 1.0568676 0.91345483 1.010575 1.1409848 1.0190631 0.8735475
1.1624545 1.0055587 1.0975612 0.9258667 0.9254556 0.80875385 0.993049 1.1974597
1.0992174 1.0477763 0.9533651 0.8507135 1.0340487 1.1644812 1.0205371 0.8678191
0.984671 1.1607373 1.0244187 1.0968244 0.9034522 1.1824751 0.96386915 0.96762776
0.9652857 1.0913085 0.96140105 0.86890936 1.1329247 1.0744869 0.9801927 0.96015394
1.0324452 0.9560654 1.0705436 0.94517696 1.1433976 0.7979717 0.9020034 1.4066836
1.0237054 0.98613876 1.0714781 0.9944498 0.8062781 1.1243588 1.0229098 1.2280923
0.85884404 1.0197597 1.1245763 0.9564621 1.1734767 0.9962956 1.021783 1.0548725
1.1702291 1.0618345 0.9165134 0.94667405 0.8778856 1.0219176 1.1479912 1.0385816
1.3644071 0.9618829 1.065374 1.0185406 1.1973767 1.3037512 0.9990011 1.1882052
1.0728433 0.8965363 1.1049854 1.0532703 1.188321 0.97973037 1.2255411 1.0652964
1.1642423 0.8083461 0.97426057 0.8565648 0.9449435 1.3244244 0.8894053 1.1244274
0.9296414 0.94615316 1.1609571 0.89922625 1.0442486 0.9083782 1.111097 1.0838252
1.0281974 1.0143129 1.057649 1.2075444 1.0535119 0.8921943 0.957397 0.95880353
1.1130172 0.9818441 1.0733602 0.95731145 1.2106992 0.9633644 1.0813398 0.92407894
0.9407245 0.95245814 1.4790092 1.0475537 1.1952381 1.1254019 1.1734749 1.1100224
1.0075674 1.09296 1.2351127 1.2754744 1.1242527 1.2122346 1.1599292 1.0447682
00000000: 5cdb 873f 8100 8b3f e857 693f 2537 7d3f
00000010: 4809 753f bcf8 7f3f 53d8 893f 4ee0 673f
00000020: cc6f 763f 6380 8d3f 1510 6a3f e726 863f
00000030: 42f6 843f 7cf1 553f 7a5a 883f d146 813f
00000040: 324f 763f f2c4 883f 87cc 883f b916 a63f
00000050: 5142 8e3f 5b27 743f 05f8 883f d423 8a3f
00000060: 2fe6 863f 4870 883f 272b 8b3f a3f8 8a3f
00000070: 7ca4 803f a718 513f 8cb8 8f3f 2eb3 743f
00000080: 4bf0 4d3f 8265 8c3f 64ef 513f edf9 863f
00000090: 8314 923f 3b96 823f 847c 603f bdf7 833f
000000a0: af35 8b3f 89e7 493f 47b3 863f b638 943f
000000b0: 5661 6b3f 887a 8a3f e301 953f df66 9a3f
000000c0: ec3e 8b3f 2ce4 8a3f 0b8a 6d3f 1d0c 9c3f
000000d0: 792e 963f 95e6 5b3f 2eb7 873f d489 643f
000000e0: ed57 803f 640a 9c3f 69a5 643f c6ba 923f
000000f0: d266 963f 3d07 893f 2b89 8a3f 9d03 973f
00000100: 3d8b 8a3f c7c1 803f 8f2c ae3f a7e9 703f
00000110: 39b0 af3f 8255 7f3f a022 813f d226 7d3f
00000120: ce6c 803f 2b46 663f 554c 8c3f 2e35 693f
00000130: 242f 833f 4824 6e3f 39bb 803f 6ecc 823f
00000140: bcc5 583f 5209 903f 737b 843f 03d3 8c3f
00000150: db1d 603f 7379 983f beb6 953f 02c5 973f
00000160: d521 943f f5cd 593f a0e4 803f 0cb2 853f
00000170: d7b2 8c3f 82f3 8c3f 4a2d 863f 81ef 5f3f
00000180: c1d2 593f ec19 833f a5ce 863f 1320 943f
00000190: 11c3 843f 6132 893f 2436 9f3f 0c09 693f
000001a0: bfcf 953f 8b72 7c3f e4fa 653f aec2 683f
000001b0: a7fa 693f 16c0 923f 3195 903f 870a 823f
000001c0: 2001 823f 55ed 763f abe2 5b3f 4d31 703f
000001d0: d366 753f 017e 893f 32b2 693f 6acf 883f
000001e0: bb4e 8b3f bf27 743f 7047 873f 2dd8 693f
000001f0: 865a 813f ca0b 923f a970 823f cfa0 5f3f
00000200: 4fcb 943f 26b6 803f e37c 8c3f 9a05 6d3f
00000210: a8ea 6c3f 7e0a 4f3f 7638 7e3f 5c46 993f
00000220: 28b3 8c3f 891d 863f bc0f 743f 5cc8 593f
00000230: b55b 843f b80d 953f f6a0 823f 6429 5e3f
00000240: 6613 7c3f 0a93 943f 2720 833f be64 8c3f
00000250: a548 673f 585b 973f 21c0 763f 74b6 773f
00000260: f71c 773f ffaf 8b3f 611e 763f d870 5e3f
00000270: ad03 913f c988 893f e9ed 7a3f a6cc 753f
00000280: 2a27 843f b4c0 743f 9307 893f 1ef7 713f
00000290: da5a 923f e047 4c3f b2e9 663f 350e b43f
000002a0: c708 833f 9773 7c3f 3226 893f 4394 7e3f
000002b0: 3e68 4e3f fdea 8f3f b5ee 823f 2132 9d3f
000002c0: 34dd 5b3f 7c87 823f 1ef2 8f3f b3da 743f
000002d0: 7c34 963f 3a0d 7f3f c9c9 823f 1006 873f
000002e0: 11ca 953f 31ea 873f 9fa0 6a3f 3b59 723f
000002f0: 1cbd 603f 32ce 823f 60f1 923f 3ef0 843f
00000300: e4a4 ae3f f53d 763f 2d5e 883f 8a5f 823f
00000310: a443 993f 52e1 a63f 89be 7f3f 1c17 983f
00000320: ee52 893f 6783 653f 2970 8d3f 90d1 863f
00000330: e71a 983f 9ccf 7a3f 88de 9c3f a25b 883f
00000340: e405 953f c5ef 4e3f 2469 793f d547 5b3f
00000350: d1e7 713f bd86 a93f 11b0 633f 3ded 8f3f
00000360: fbfc 6d3f 1837 723f 3e9a 943f b133 663f
00000370: f0a9 853f 798b 683f 6d38 8e3f c9ba 8a3f
00000380: f99b 833f 01d5 813f 0b61 873f d190 9a3f
00000390: 7ad9 863f d866 643f f817 753f 2674 753f
000003a0: 5977 8e3f 235a 7b3f de63 893f 5d12 753f
000003b0: 31f8 9a3f 0d9f 763f 5869 8a3f 7090 6c3f
000003c0: 52d3 703f 4cd4 733f 2c50 bd3f 3d16 863f
000003d0: 90fd 983f 2b0d 903f 6d34 963f 3715 8e3f
000003e0: f8f7 803f 1de6 8b3f 2c18 9e3f bf42 a33f
000003f0: 83e7 8f3f 812a 9b3f 8f78 943f f7ba 853f

bn1.bias f4 [400]
-0.033275705 -0.02672425 -0.05091618 -0.1130873 -0.14070791 -0.029794514 0.0073841563 -0.08411459
-0.11662035 0.025448468 -0.07644762 -0.058624413 -0.05563294 -0.16737217 -0.060123775 -0.074265435
-0.12432819 -0.05259244 -0.06361992 -0.03593074 0.0054445677 -0.15029347 -0.0465925 0.019517744
-0.054857094 -0.063654974 -0.057970632 -0.07128495 -0.10035195 -0.20226784 -0.05419882 -0.10632199
-0.20232408 -0.07517917 -0.20129047 -0.07255068 0.0025487149 -0.09474304 -0.13182561 -0.09952702
-0.08870373 -0.20696278 0.105798885 -0.0031398758 -0.12706469 -0.054641247 -0.012696204 -0.008215739
-0.032813836 -0.05447294 -0.106565565 -0.042035166 -0.035606384 -0.1747608 -0.0964734 -0.136316
-0.1203478 0.061033577 -0.16777755 0.07950028 -0.0075820256 -0.004800698 -0.012605134 -0.07068971
0.06906071 -0.09317593 -0.00845081 -0.12000976 -0.006524165 -0.08447886 -0.11889994 -0.12572671
-0.098175555 -0.180391 -0.12463709 -0.17322151 -0.074688114 -0.10220323 -0.024739856 -0.0878914
-0.15623276 -0.015848713 -0.044496387 0.0248807 -0.11367071 0.07941778 -0.05872135 0.020749398
-0.07508937 -0.10906609 -0.026922345 -0.07180157 0.037135713 -0.06979788 -0.06509457 -0.08348915
-0.1868531 -0.09175631 -0.067882136 -0.049833674 -0.04982854 -0.11538412 -0.0030440735 -0.076039165
0.0003101467 -0.07074537 -0.07244253 -0.11915941 -0.17038096 -0.06829355 -0.08917756 -0.10095587
-0.09150916 -0.107270524 -0.13120231 -0.07245644 -0.09634632 -0.044556268 -0.089473374 -0.042663552
-0.0055441833 -0.085970476 -0.05743005 -0.14896189 -0.11749316 -0.05536722 -0.0058136233 -0.11796235
-0.014132242 -0.08165129 0.014041816 -0.03832215 -0.13563362 -0.1807508 -0.017477598 -0.051636882
-0.061462115 -0.09519842 -0.15148559 -0.10202482 -0.11691747 -0.056724116 -0.10496257 -0.09869289
-0.042253055 -0.051268138 -0.11159082 0.013058755 -0.17495073 -0.013165268 -0.10901513 -0.06535247
-0.10137821 -0.068458155 -0.022469552 -0.18048221 -0.044447284 -0.047228687 -0.11010578 0.047329836
-0.026382992 -0.04851113 0.04036733 -0.10858881 -0.040623527 -0.20729724 -0.084001444 0.0029842625
-0.026471524 -0.13624166 0.007666446 -0.10808463 -0.24349128 0.029507507 -0.0870152 -0.043061905
-0.16877203 -0.11584682 -0.06954417 0.08972368 -0.044835046 -0.011328387 -0.07680098 -0.022641396
0.025200274 0.008828929 -0.12726247 -0.12925233 -0.04780565 0.073269844 -0.0014133087 -0.046632048
-0.010169396 -0.116333745 -0.009532557 0.041111078 -0.008750425 -0.029344093 -0.08192479 0.024488777
0.012268571 -0.20025165 0.01015829 -0.022820577 0.019152319 -0.10878869 -0.0019208665 -0.003087082
-0.054404825 -0.16084889 -0.107943 -0.09619568 -0.10518456 0.070809945 -0.11023888 -0.07522122
-0.129065 -0.06205241 -0.004747025 -0.12828583 -0.10147223 -0.08403545 0.0044022114 -0.105457634
-0.051435757 -0.08464554 -0.050556347 0.03739362 -0.09011647 -0.16965908 -0.055207837 -0.12090558
0.017015923 -0.11289924 -0.045207027 0.08519228 0.0045314324 -0.07912431 0.022760166 -0.062781125
-0.14073712 -0.105189055 0.043581735 -0.08484745 -0.026201326 0.020677468 -0.027686263 -0.023995847
-0.041016534 0.038757194 0.009747799 0.019180728 -0.011185369 -0.071195535 -0.03654881 -0.11005805
00000000: 1b4c 08bd d0ec dabc 7c8d 50bd 509a e7bd
00000010: bc15 10be a013 f4bc cbf6 f13b 4544 acbd
00000020: a6d6 eebd 4e79 d03c 9290 9cbd 2720 70bd
00000030: 5edf 63bd 9c63 2bbe 5944 76bd 7a18 98bd
00000040: c79f febd 2c6b 57bd 294b 82bd 1d2c 13bd
00000050: 5868 b23b 88e6 19be c7d7 3ebd ade3 9f3c
00000060: d5b1 60bd 8a5d 82bd 9d72 6dbd d8fd 91bd
00000070: 5385 cdbd 4d1f 4fbe 95ff 5dbd 58bf d9bd
00000080: 0b2e 4fbe 89f7 99bd 171f 4ebe 7395 94bd
00000090: 5708 273b a408 c2bd 4bfd 06be d2d4 cbbd
000000a0: 4daa b5bd 0dee 53be 16ad d83d 60c6 4dbb
000000b0: 3f1d 02be 80cf 5fbd bd03 50bc 4f9b 06bc
000000c0: cd67 06bd 041f 5fbd 0c3f dabd 112d 2cbd
000000d0: 00d8 11bd 7ff4 32be d993 c5bd 6c96 0bbe
000000e0: e878 f6bd 58fe 793d e1cd 2bbe 0bd1 a23d
000000f0: a472 f8bb 2c4f 9dbb c485 4ebc c4c5 90bd
00000100: b46f 8d3d 06d3 bebd 4475 0abc adc7 f5bd
00000110: aac8 d5bb 4103 adbd d081 f3bd 81be 00be
00000120: 4410 c9bd 6bb8 38be bb41 ffbd fb60 31be
00000130: 15f6 98bd ed4f d1bd 3dab cabc 6800 b4bd
00000140: 7bfb 1fbe 29d5 81bc d841 36bd 9cd2 cb3c
00000150: 30cc e8bd caa5 a23d cc85 70bd a4fa a93c
00000160: 75c8 99bd 0b5e dfbd 408c dcbc b40c 93bd
00000170: 9e1b 183d 31f2 8ebd 4d50 85bd 5cfc aabd
00000180: 6b56 3fbe bbea bbbd ca05 8bbd 651e 4cbd
00000190: 0319 4cbd 824e ecbd 147f 47bb 6cba 9bbd
000001a0: 2f9b a239 f3e2 90bd c05c 94bd d909 f4bd
000001b0: 5978 2ebe 7ddd 8bbd b9a2 b6bd f3c1 cebd
000001c0: 2869 bbbd a6b0 dbbd e659 06be 0b64 94bd
000001d0: 3851 c5bd a280 36bd d13d b7bd fabf 2ebd
000001e0: fbab b5bb 4a11 b0bd c63b 6bbd 7789 18be
000001f0: 41a0 f0bd bdc8 62bd 3580 bebb 3f96 f1bd
00000200: eb8a 67bc cb38 a7bd a50f 663c b0f7 1cbd
00000210: 8ae3 0abe bd16 39be 2e2d 8fbc 3281 53bd
00000220: b3bf 7bbd 64f7 c2bd 0a1f 1bbe 64f2 d0bd
00000230: 6d72 efbd 8c57 68bd 9ef6 d6bd 7f1f cabd
00000240: 8a11 2dbd 8afe 51bd ba89 e4bd 63f4 553c
00000250: 4926 33be 23b3 57bc 5343 dfbd 84d7 85bd
00000260: 619f cfbd ca33 8cbd 1112 b8bc 54d0 38be
00000270: 5b0e 36bd de72 41bd 247f e1bd eedc 413d
00000280: 2521 d8bc 9bb3 46bd 3758 253d cf63 debd
00000290: db64 26bd ba45 54be f308 acbd 9e93 433b
000002a0: cfda d8bc ef82 0bbe cf36 fb3b 795b ddbd
000002b0: c755 79be bab9 f13c 0635 b2bd ae61 30bd
000002c0: 93d2 2cbe 1941 edbd 2c6d 8ebd 0cc1 b73d
000002d0: f4a4 37bd b39a 39bc d549 9dbd 737a b9bc
000002e0: ce70 ce3c 36a7 103c 1851 02be b95a 04be
000002f0: dbcf 43bd 800e 963d c53e b9ba 3f01 3fbd
00000300: 8a9d 26bc 6340 eebd 712e 1cbc 1764 283d
00000310: f15d 0fbc 0663 f0bc 2fc8 a7bd b09c c83c
00000320: 1e02 493c c50e 4dbe f56e 263c 38f2 babc
00000330: 53e5 9c3c 9bcc debd 96c5 fbba a450 4abb
00000340: 98d7 5ebd 92b5 24be 3811 ddbd 3e02 c5bd
00000350: 016b d7bd ce04 913d ecc4 e1bd 950d 9abd
00000360: 9e29 04be ab2a 7ebd ef8c 9bbb 5c5d 03be
00000370: acd0 cfbd c71a acbd 6d40 903b 2cfa d7bd
00000380: 4dae 52bd a45a adbd 2c14 4fbd 0d2a 193d
00000390: fc8e b8bd 1cbb 2dbe 9d21 62bd 589d f7bd
000003a0: fa64 8b3c b737 e7bd 012b 39bd 4a79 ae3d
000003b0: 697c 943b ed0b a2bd 8773 ba3c 6493 80bd
000003c0: 641d 10be 5c6d d7bd c382 323d 80c4 adbd
000003d0: 2aa4 d6bc cb63 a93c 4dce e2bc f092 c4bc
000003e0: f400 28bd ddbf 1e3d 3bb5 1f3c e720 9d3c
000003f0: d742 37bc f7ce 91bd 34b4 15bd 1d66 e1bd

bn2.weight f4 [300]
1.1457758 0.98273915 1.1389642 1.0853825 0.9286234 0.8889563 1.143037 1.1139827
1.2278658 1.2311089 1.1708616 1.1906574 1.256657 0.96525824 1.252325 1.0858612
1.1492529 0.78062725 1.0711011 1.1016382 1.0407646 0.86744684 1.0240756 1.0679882
0.72217065 1.0201397 1.1360106 1.0574247 0.836242 1.1769552 1.1161321 1.0164027
1.2477273 0.87026334 0.7993401 1.1269939 0.90375495 1.3100582 0.88187444 1.0320705
1.0977184 1.0883484 1.1399741 1.0760398 1.0675846 0.78363436 0.8587936 0.7817726
1.0514965 1.2582855 0.8856063 1.1653588 1.0785652 1.0425534 1.078226 1.295794
1.1477283 1.0186659 1.1318489 0.94180447 1.030006 0.9836987 1.0167723 1.2379941
0.940088 0.89725393 1.0081141 1.1325887 1.1426125 0.94090825 1.1410927 0.9000896
1.1039635 0.96510667 0.7832283 1.0855303 1.1207043 0.8462361 1.203389 0.80543786
1.0743449 0.80686605 1.1929375 1.3142868 1.0360541 1.0780569 0.83055085 0.7944942
1.0868661 1.0733781 0.91208214 1.1149273 1.061209 1.0775632 0.76997393 1.1078008
1.015736 0.81263024 1.0779741 1.0863365 0.8782301 1.2109413 1.1407728 1.2409354
0.94338006 1.026317 0.953297 1.075203 1.0994334 1.0932976 1.0861452 1.1169301
1.0314941 1.0970572 0.8339803 1.3856792 1.188611 0.83026063 1.0456576 1.151439
0.92114854 0.98521644 0.80063385 1.040415 0.91169643 1.0467576 1.3026707 1.0472164
1.0334638 1.0615964 1.2034495 1.1132466 1.1231871 1.14116 1.185782 1.083478
1.1528468 1.1922698 0.8085343 1.1034878 1.0789472 0.9828658 0.85995454 1.0902247
1.0853231 1.1643821 1.1702034 1.0642579 1.1134735 0.7913485 1.0766184 0.82789415
1.0655317 1.1329904 1.2043043 1.2338713 1.0813806 1.2417451 0.853709 0.9201722
0.821549 1.1039151 1.2753991 0.96850896 1.0093304 1.0956175 0.9794691 1.0828786
1.092145 1.3106322 0.90803725 1.1415505 0.94295037 1.1109341 0.87592334 0.93172157
1.0084625 1.1475867 1.152066 1.090211 1.1116967 1.2266011 1.3294604 1.0393534
0.823656 1.227352 0.9115465 1.0926245 0.98796844 0.9237271 0.7580311 0.96967465
0.9064262 1.0303687 0.86501545 0.8466475 1.0624194 1.0408365 0.82911277 1.1255533
1.1034573 1.1889428 1.1252958 0.96905893 0.82198757 1.0751698 1.0013849 0.72201645
1.3059841 1.13637 1.0570365 1.1815279 0.9750295 1.067671 1.1405078 1.0469527
1.1300718 0.9148867 1.0584339 0.9628788 1.2242831 0.7816125 1.3751032 1.232812
1.1085334 1.0374314 0.8220181 1.1455351 1.1136597 1.0467774 0.90107757 0.9892047
1.2182156 0.8130568 1.0461566 1.0242044 1.2137772 1.0820142 0.99237174 1.1250625
0.9403934 1.064004 1.1847984 0.82898647 1.2023605 1.0693507 1.1202823 1.0715266
1.1237192 1.0847112 1.0962613 1.048213 1.0286906 1.1152593 1.2912389 1.1291018
00000000: c8a8 923f cb94 7b3f 94c9 913f d0ed 8a3f
00000010: 43ba 6d3f a492 633f 094f 923f fc96 8e3f
00000020: b52a 9d3f fa94 9d3f cbde 953f 7667 983f
00000030: 23da a03f 2a1b 773f 304c a03f 80fd 8a3f
00000040: b81a 933f 30d7 473f d719 893f 7b02 8d3f
00000050: c637 853f ff10 5e3f e914 833f d6b3 883f
00000060: 2de0 383f f093 823f cc68 913f b159 873f
00000070: f513 563f 78a6 963f 6bdd 8e3f 7c19 823f
00000080: 87b5 9f3f 94c9 5e3f 8ea1 4c3f 5641 903f
00000090: 7c5c 673f fdaf a73f 86c2 613f e31a 843f
000000a0: 0982 8c3f 004f 8b3f acea 913f acbb 893f
000000b0: 9da6 883f 439c 483f e6d9 5b3f 4022 483f
000000c0: 7097 863f 800f a13f 18b7 623f 7a2a 953f
000000d0: 6d0e 8a3f 6472 853f 4f03 8a3f 94dc a53f
000000e0: c3e8 923f a563 823f 6de0 903f 191a 713f
000000f0: 3dd7 833f aed3 7b3f 9825 823f 9776 9e3f
00000100: 9ba9 703f 6fb2 653f e209 813f abf8 903f
00000110: 2041 923f 5ddf 703f 530f 923f 466c 663f
00000120: ad4e 8d3f 3b11 773f a681 483f a8f2 8a3f
00000130: 3d73 8f3f eea2 583f a708 9a3f 2d31 4e3f
00000140: 2284 893f c68e 4e3f 2db2 983f 8d3a a83f
00000150: 6c9d 843f c5fd 893f fb9e 543f f963 4b3f
00000160: 6e1e 8b3f 7464 893f 377e 693f f0b5 8e3f
00000170: b2d5 873f 97ed 893f 031d 453f 6bcc 8d3f
00000180: a303 823f 8908 503f 0efb 893f 130d 8b3f
00000190: b0d3 603f 2000 9b3f d804 923f f9d6 9e3f
000001a0: 5b81 713f 5b5e 833f 460b 743f 40a0 893f
000001b0: 3cba 8c3f 2df1 8b3f ce06 8b3f 91f7 8e3f
000001c0: 0008 843f 5f6c 8c3f bc7f 553f f05d b13f
000001d0: 6824 983f f68b 543f 1cd8 853f 5a62 933f
000001e0: 64d0 6b3f 2537 7c3f 57f6 4c3f 522c 853f
000001f0: f064 693f 27fc 853f eabd a63f 300b 863f
00000200: 8b48 843f 64e2 873f a20a 9a3f dd7e 8e3f
00000210: 98c4 8f3f 8811 923f b4c7 973f 68af 8a3f
00000220: 7c90 933f 4c9c 983f 1bfc 4e3f 173f 8d3f
00000230: f11a 8a3f 189d 7b3f fb25 5c3f 7c8c 8b3f
00000240: deeb 8a3f 790a 953f 3ac9 953f 9a39 883f
00000250: 4d86 8e3f d195 4a3f a2ce 893f dff0 533f
00000260: 5863 883f d405 913f a526 9a3f 7fef 9d3f
00000270: ae6a 8a3f 81f1 9e3f ac8c 5a3f 6890 6b3f
00000280: 0951 523f 174d 8d3f 4740 a33f 34f0 773f
00000290: bd31 813f 323d 8c3f 7dbe 7a3f c49b 8a3f
000002a0: 68cb 8b3f ccc2 a73f 2175 683f 541e 923f
000002b0: 3265 713f 1733 8e3f 833c 603f 4e85 6e3f
000002c0: 4d15 813f 1fe4 923f e676 933f 098c 8b3f
000002d0: 144c 8e3f 4401 9d3f c22b aa3f 8809 853f
000002e0: 1fdb 523f df19 9d3f 1d5b 693f 1fdb 8b3f
000002f0: 80eb 7c3f 6179 6c3f 530e 423f 993c 783f
00000300: 8c0b 683f 1fe3 833f a771 5d3f e4bd 583f
00000310: 5cfd 873f 213a 853f bc40 543f 2112 903f
00000320: 173e 8d3f 472f 983f b109 903f 3f14 783f
00000330: c76d 523f 2a9f 893f 612d 803f 12d6 383f
00000340: 7d2a a73f 9274 913f f94c 873f 4e3c 973f
00000350: 899b 793f 71a9 883f 29fc 913f 8c02 863f
00000360: 31a6 903f 0436 6a3f c37a 873f 3a7f 763f
00000370: 4fb5 9c3f c217 483f 6203 b03f c9cc 9d3f
00000380: 6ce4 8d3f 8dca 843f c76f 523f e5a0 923f
00000390: 678c 8e3f cdfc 853f 05ad 663f 853c 7d3f
000003a0: 7dee 9b3f 7e24 503f 76e8 853f 2119 833f
000003b0: 0d5d 9b3f 717f 8a3f 130c 7e3f 0c02 903f
000003c0: 9fbd 703f 4831 883f 79a7 973f 7538 543f
000003d0: f3e6 993f 7ce0 883f 6965 8f3f c927 893f
000003e0: 08d6 8f3f d1d7 8a3f 4a52 8c3f d82b 863f
000003f0: 22ac 833f d1c0 8e3f 5147 a53f 6886 903f

bn2.bias f4 [300]
-0.024780378 -0.10316504 -0.057062566 -0.08350123 -0.0628434 -0.1008966 -0.03793187 -0.09707495
-0.0725244 -0.045103006 -0.06821528 0.0033683877 -0.06399118 -0.14342172 0.010449723 -0.06472757
-0.04462372 -0.20586678 -0.0005141455 -0.0028139814 -0.009084534 -0.09496708 -0.03376006 -0.05243557
-0.2434282 -0.032683335 -0.06995094 0.0011084095 -0.14881504 -0.09891943 -0.048480913 -0.017607508
-0.031273227 -0.11976577 -0.15193488 -0.01959369 -0.09703521 -0.09323783 -0.11164144 -0.01908801
-0.026012078 -0.078143656 -0.09032357 -0.038807124 0.0013847029 -0.20530565 -0.1476061 -0.21499996
-0.0022637928 -0.049883146 -0.13705207 -0.025654325 0.002079682 -0.051872306 -0.03908695 -0.064959995
-0.031542674 -0.039438132 -0.016705291 -0.04916489 -0.044584457 -0.076797105 -0.010779105 -0.11495336
-0.046105012 -0.14573687 -0.025371592 -0.12323881 -0.066056214 -0.10619923 -0.07783079 -0.10552221
0.0025539547 -0.080714874 -0.18695825 -0.07011869 -0.041725658 -0.12775029 -0.11649782 -0.17574365
-0.050391696 -0.17985074 -0.04034109 -0.07564278 -0.12084402 -0.041839045 -0.18163364 -0.18975642
-0.05402009 -0.06127819 -0.08872616 0.0006837189 -0.0039121606 -0.09228145 -0.18194667 -0.0038245295
-0.1350931 -0.15887381 -0.09266735 -0.056884017 -0.1393916 0.0014487396 -0.066205174 -0.014463776
-0.023374842 0.029705796 -0.022427965 -0.028491937 -0.048206877 -0.040588535 -0.06287387 -0.009373839
-0.050512556 -0.112128 -0.12300417 -0.008200331 -0.031361263 -0.15439774 -0.1091541 -0.047586456
-0.046475425 -0.09038622 -0.18205127 -0.003099974 -0.08565278 -0.048783284 -0.045243632 -0.12519233
-0.02125376 -0.009477093 -0.057569176 -0.023545736 -0.037862945 -0.014628753 -0.095248975 -0.053327795
-0.042698506 0.010389821 -0.16916575 0.0016835887 -0.04120883 -0.0617747 -0.14964639 -0.031063365
-0.006483276 -0.11127157 -0.014146363 -0.047557343 0.0059591443 -0.18059285 -0.071145624 -0.15971507
-0.0062819924 0.018790353 -0.062063184 0.020104093 -0.050787926 -0.047721364 -0.14968342 -0.08710595
-0.13264914 -0.053577263 -0.09997971 -0.04649611 -0.17286983 -0.05140396 -0.012540468 -0.083245866
-0.069870315 -0.006324636 -0.07342726 -0.0694187 -0.13507196 -0.032798756 -0.14009564 -0.1145813
-0.017373068 -0.067017 0.018768998 -0.11523545 -0.049365543 -0.060950827 -0.044950206 -0.01732276
-0.16324168 -0.09527509 -0.121959224 -0.011446355 -0.12132067 -0.18438019 -0.20611797 -0.049208913
-0.13860796 -0.049974814 -0.13027133 -0.18611673 -0.030548278 -0.025543896 -0.15391885 -0.0051144236
0.0076112724 -0.039286654 -0.043884937 -0.06757925 -0.16644709 -0.026063165 -0.040809225 -0.26334655
-0.03051212 -0.0704018 -0.04457406 -0.008098804 -0.07793606 -0.1029618 -0.12699932 -0.117984354
-0.041250158 -0.13105352 -0.055399403 -0.13736199 -0.09916495 -0.20891805 0.02231711 -0.11869211
0.0029617678 -0.0628789 -0.15079236 0.014364245 0.027676847 0.004169498 -0.12039504 -0.039558657
0.015736071 -0.13467216 -0.036493693 -0.06842884 -0.042438064 -0.052684054 -0.020914195 -0.08614089
-0.06627542 -0.058556188 -0.03634834 -0.14735861 -0.042163156 -0.057932295 -0.036431465 -0.079481855
0.020162739 -0.10412618 -0.10512243 -0.122045934 -0.060223885 -0.071970426 -0.102698565 -0.058456488
00000000: 3800 cbbc 3148 d3bd 70ba 69bd b102 abbd
00000010: 0ab4 80bd e0a2 cebd 735e 1bbd 3bcf c6bd
00000020: ac87 94bd eebd 38bd 74b4 8bbd 2bc0 5c3b
00000030: cf0d 83bd 25dd 12be 5135 2b3c e38f 84bd
00000040: 5dc7 36bd bece 52be b8c7 06ba c66a 38bb
00000050: 4cd7 14bc 1a7e c2bd fd47 0abd aec6 56bd
00000060: 3e45 79be f6de 05bd 7042 8fbd 0d48 913a
00000070: f862 18be 4596 cabd ec93 46bd 9f3d 90bc
00000080: 5b18 00bd c247 f5bd d194 1bbe f282 a0bc
00000090: 65ba c6bd 7af3 bebd 44a4 e4bd 755e 9cbc
000000a0: 4817 d5bc c809 a0bd 90fb b8bd 38f4 1ebd
000000b0: eb7e b53a a53b 52be 0e26 17be f328 5cbe
000000c0: 245c 14bb 4552 4cbd 6157 0cbe 0529 d2bc
000000d0: 464b 083b 0e78 54bd a319 20bd bf09 85bd
000000e0: e432 01bd e189 21bd 89d9 88bc 2061 49bd
000000f0: 319e 36bd cd47 9dbd d89a 30bc ab6c ebbd
00000100: 9cd8 3cbd 0c3c 15be 16d8 cfbc a164 fcbd
00000110: 7b48 87bd fb7e d9bd c065 9fbd 071c d8bd
00000120: 4060 273b d74d a5bd fc71 3fbe 639a 8fbd
00000130: 86e8 2abd f9d0 02be 6996 eebd 25f6 33be
00000140: 8667 4ebd cb2a 38be b33c 25bd 9aea 9abd
00000150: 127d f7bd 6b5f 2bbd 2bfe 39be 824f 42be
00000160: 2b44 5dbd d7fe 7abd 10b6 b5bd 993b 333a
00000170: 9531 80bb 0ffe bcbd 3a50 3abe f5a4 7abb
00000180: d855 0abe d1af 22be 61c8 bdbd 37ff 68bd
00000190: acbc 0ebe a2e3 bd3a 9496 87bd 79f9 6cbc
000001a0: 997c bfbc 9259 f33c daba b7bc ec67 e9bc
000001b0: 9374 45bd 2a40 26bd 04c4 80bd bb94 19bc
000001c0: 41e6 4ebd 5da3 e5bd 9ce9 fbbd ae5a 06bc
000001d0: ab74 00bd 711a 1ebe 2f8c dfbd 04ea 42bd
000001e0: 045d 3ebd 691c b9bd a66b 3abe ef28 4bbb
000001f0: ba6a afbd fbd0 47bd 6351 39bd 6b32 00be
00000200: 5e1c aebc cf45 1bbc a8cd 6bbd fde2 c0bc
00000210: 2d16 1bbd 70ad 6fbc e511 c3bd 3f6e 5abd
00000220: a1e4 2ebd 113a 2a3c c939 2dbe ddab dc3a
00000230: 97ca 28bd 7807 7dbd e73c 19be 9978 febc
00000240: a971 d4bb 59e2 e3bd 26c6 67bc 7dcb 42bd
00000250: ed44 c33b 55ed 38be ccb4 91bd 598c 23be
00000260: 2cd9 cdbb 3aee 993c f735 7ebd 57b1 a43c
00000270: 0007 50bd 7a77 43bd 9c46 19be 9b64 b2bd
00000280: 2dd5 07be d573 5bbd 2ac2 ccbd b472 3ebd
00000290: ca04 31be f58c 52bd 8976 4dbc cf7c aabd
000002a0: 2b18 8fbd e43e cfbb 0861 96bd 642b 8ebd
000002b0: 4e50 0abe fd57 06bd 3b75 0fbe 9aa9 eabd
000002c0: f751 8ebc 3540 89bd 71c1 993c 9000 ecbd
000002d0: 8633 4abd 93a7 79bd b51d 38bd 76e8 8dbc
000002e0: d428 27be 961f c3bd c2c5 f9bd 7e89 3bbc
000002f0: f976 f8bd 29ce 3cbe 9710 53be 498f 49bd
00000300: 3fef 0dbe 64b2 4cbd d965 05be 6295 3ebe
00000310: 6240 fabc 6f41 d1bc e79c 1dbe e596 a7bb
00000320: fb67 f93b 0beb 20bd b1c0 33bd fd66 8abd
00000330: 1b71 2abe 6b82 d5bc 9327 27bd 5cd5 86be
00000340: 8ef4 f9bc d22e 90bd 4a93 36bd d9b0 04bc
00000350: f19c 9fbd a3dd d2bd 1c0c 02be c8a1 f1bd
00000360: edf5 28bd e532 06be 7cea 62bd 9fa8 0cbe
00000370: fe16 cbbd 9dee 55be 5fd2 b63c d914 f3bd
00000380: 381a 423b a7c6 80bd 5069 1abe 0358 6b3c
00000390: 8eba e23c 49a0 883b ad91 f6bd 4208 22bd
000003a0: efe8 803c 80e7 09be 697a 15bd 6b24 8cbd
000003b0: 89d3 2dbd 3ccb 57bd 3f54 abbc a36a b0bd
000003c0: 68bb 87bd 9dd8 6fbd ffe1 14bd 2de5 16be
000003d0: 46b3 2cbd 6a4a 6dbd 2939 15bd 62c7 a2bd
000003e0: 542c a53c 1b40 d5bd 6e4a d7bd 38f3 f9bd
000003f0: 52ad 76bd 3b65 93bd a053 d2bd 1270 6fbd
