trained_data/ddpg/nowalls/target_actor_ddpg.pth (torch, 504132 bytes, 10 tensors)

fc1.weight f4 [400, 6]
000000 f8 d0 82 3d e8 e0 3c bd 16 42 b8 3d ee 06 87 3e
       0.06387514 -0.046112925 0.0899698 0.26372474
000010 25 14 da 3d 0d e5 a1 3d e3 db 2b bc 3b 26 2b 3d
       0.106483735 0.07905016 -0.010489437 0.041784506
000020 8e 4f ab 3e 04 47 53 3c 5c 68 c6 3e 0d 7f a9 3e
       0.33459133 0.012895349 0.38751495 0.33104745
000030 ce 51 6a 3c c2 ad 52 3c 24 c0 e7 3e 21 f7 0e be
       0.01430173 0.01285881 0.4526378 -0.1396146
000040 c3 fa a6 3d 64 60 f5 3e 38 d1 0d 3d 63 dc 5a bb
       0.08153298 0.47925103 0.034623355 -0.003339552
000050 12 ca ca 3e 29 e0 1f be 4c 19 9f 3e db f5 cd 3e
       0.39607292 -0.15612854 0.31073987 0.40226635
000060 68 05 b1 3c 40 82 0a 3c 08 b5 6b be c9 f3 e6 bc
       0.021609023 0.008453906 -0.23018277 -0.028192418
000070 dd 6c 87 be b9 5c ea bc 0d c9 3a 3d cd 4c ad bc
       -0.26450244 -0.028608667 0.045601893 -0.021154786
000080 24 6a 61 be 7a d7 28 be 8c ec 80 be 6c 34 19 bc
       -0.22013146 -0.16488448 -0.2518047 -0.009350877
000090 a1 ae 7f 3c fd 99 ca 3c a6 dc 6c 3e 02 ec c7 be
       0.0156056 0.02473163 0.23131046 -0.39047247
0000a0 1c 0f 9e 3e 97 69 69 3e fe a9 fc 3a 6e 44 1a 3d
       0.30870903 0.22794186 0.0019276736 0.037662916
0000b0 b4 29 8b 3e 03 1a 71 be 9d 82 99 3d 3d 46 17 3f
       0.27180254 -0.23545079 0.07495616 0.5909155
0000c0 d0 0b 29 3b a4 4b 11 3d ed 74 9b bd 65 9c 5e 3d
       0.0025794394 0.035472527 -0.07590661 0.05434837
0000d0 4a 9e 2d be e0 06 03 be fa 63 c5 bc 33 ea 6b 3d
       -0.16954914 -0.12795591 -0.024095524 0.057596397
0000e0 93 9c 73 3e 8e 00 2b be ee 6c 94 3e 09 9e 40 3e
       0.23790197 -0.1669943 0.28989357 0.18810286
0000f0 8c 2e 3a 3c 7f 3d 6c 3c 54 62 32 3e 59 4f 73 3d
       0.011363637 0.014418959 0.17420322 0.059401844
000100 77 a9 62 3e 95 de 1b 3f 38 54 96 3c 1d 1e 27 3c
       0.22134958 0.6088651 0.018350706 0.010200051
000110 f6 ba c6 be 23 9c c2 bd 54 cf e5 3c 3f d0 9a bd
       -0.38814515 -0.09502437 0.028052963 -0.07559251
000120 11 d5 91 3c 9e 5e 1d 3c e0 bb dc 3e cc be 40 be
       0.017801793 0.009605078 0.43112087 -0.18822783
000130 bb 51 9d 3d dc 94 91 3e f7 55 4a 3d c6 f2 ac bb
       0.076816045 0.28433883 0.04939839 -0.0052779643
000140 ff d6 9f bd 82 2e 46 be 2c fc b3 3d 12 83 fd 3e
       -0.07804679 -0.19353679 0.08788332 0.4951406
000150 64 7c 0c 3d fe 0a 22 bc 0d e4 0d bf ff 14 28 3d
       0.034298316 -0.009890316 -0.554261 0.04103565
000160 21 d4 6f be ec 79 78 be 86 f8 55 3d 69 75 bc bc
       -0.23420765 -0.2426526 0.052238964 -0.023005204
000170 40 1a a1 be 0d 99 85 3c f1 74 ac be 99 8b e9 be
       -0.3146534 0.016308332 -0.3368297 -0.45614317
000180 84 50 6e 3d 7d d8 14 bd cc 8a c9 bd 69 b2 b4 3d
       0.058182254 -0.03633927 -0.098409265 0.088230915
000190 f0 fa 34 3d 68 91 bd 3d af 9d 35 3c 18 d2 c0 3c
       0.044184625 0.0925625 0.011084958 0.02353768
0001a0 b5 a8 c5 bd 53 ff 8b 3d 09 79 c0 be b9 8c 05 bd
       -0.09651319 0.068358086 -0.37592342 -0.032604907
0001b0 0d 7a 91 3c 24 d5 2e 3c ff 39 15 3e f4 46 af be
       0.017758394 0.010670934 0.14572905 -0.3423382
0001c0 67 a6 ae bd 6b 67 97 3e d9 ae 1d 3d db 6b a1 bd
       -0.085278325 0.2957109 0.038496826 -0.078819
0001d0 17 d1 71 be 27 99 1e 3e 6a 5c c1 be 34 ba bf bd
       -0.23614918 0.1548811 -0.3776582 -0.09361687
0001e0 f7 c9 04 bd 42 0d 8b 3d c1 68 8d 3e 09 aa 15 be
       -0.03241917 0.06789638 0.27618983 -0.14615645
0001f0 c9 7b d7 3e 1a be 21 3e 8d 22 a2 3c 3b 6b 72 3c
       0.42086628 0.15795174 0.019791866 0.014796074
000200 d1 56 3e 3e 50 5a ae be b9 ca 1b 3c 30 c1 75 3e
       0.18587805 -0.34053278 0.009508782 0.23999476
000210 72 de d2 3b 46 7c 81 3c 6a 5d 35 3d 26 64 c3 3e
       0.006435209 0.015806329 0.04427854 0.38162345
000220 dc d7 06 be 54 7d 46 be e5 ba 33 3c fc 51 ef 3c
       -0.13168281 -0.19383746 0.010969852 0.029213898
000230 32 96 ca 3d ae 88 b8 3e d8 ce a6 3e 4c 0f e3 3d
       0.09891929 0.36041778 0.32579684 0.11086902
000240 c4 ba 2e 3d fe da 51 bc 3e 6f a9 bd 7d ed c6 3d
       0.042658582 -0.012808559 -0.08273171 0.09713266
000250 59 1c 34 be 8d b7 0a be f2 f4 00 3d a5 76 6e bc
       -0.17588939 -0.13546582 0.031483598 -0.014554654
000260 b3 72 fe 3e 1f 41 6d be 58 b1 8a 3e a8 4a 07 3f
       0.49696884 -0.23169373 0.27088428 0.5284829
000270 55 5d c7 3c 05 55 59 3b 8b 74 95 be 0d b1 15 be
       0.024336496 0.0033162248 -0.29190478 -0.14618321
000280 dc 75 64 3c 1c ac 61 3e a3 cf ce 3c fa 99 3d bb
       0.0139441155 0.22038311 0.025245493 -0.0028930889
000290 b4 ec 02 3f e9 cf 4d be 6a e1 0d 3e fb 3f 04 3f
       0.5114243 -0.20098843 0.1385552 0.51660126
0002a0 52 21 97 3c 70 3c 4a 3c 8b 08 22 3d 09 af 0e bc
       0.018448506 0.012343511 0.03955893 -0.008708724
0002b0 07 5c 7b be 4c 91 13 3e 32 b3 36 3d b6 89 83 bb
       -0.24546824 0.14410895 0.044604488 -0.004014219
0002c0 49 bc 8c bd 22 20 26 be f9 2d 83 be 09 17 19 3d
       -0.0687185 -0.16223195 -0.25621012 0.037375484
0002d0 cc 4f 08 3d 69 dd 10 bc 7c d4 82 3e 6a 72 00 bf
       0.033279225 -0.008841851 0.25552738 -0.5017458
0002e0 45 a4 9b bd fc 25 f0 3e 37 a2 6c 3d ee f8 c6 bc
       -0.07599691 0.4690398 0.057771888 -0.02428862
0002f0 81 12 14 be bd 61 c5 bd aa f5 db be b7 bc 10 bf
       -0.14460184 -0.09637783 -0.42960864 -0.56537956
000300 b3 2a 18 3c 85 0c ab 3c 07 a5 9c 3e 2e ee e7 bd
       0.009287524 0.020879993 0.30594656 -0.11324726
000310 ef 2f 74 3e a7 9e c1 3e c3 af 91 3c d9 78 88 3c
       0.2384641 0.37816355 0.017784005 0.016659187
000320 e4 fb 99 3e d8 5b e5 be 1f 5e bb 39 38 00 63 bd
       0.3007499 -0.44796634 0.00035737545 -0.05542013
000330 0e 4a 18 3d 0d 01 79 bb e5 2f a3 bd 31 05 0e be
       0.03718 -0.003799501 -0.079681195 -0.13869168
000340 c9 81 d7 3b 7d c9 e6 3e cf 3d 44 3c 97 c8 b6 3c
       0.006576751 0.45075598 0.011977627 0.022312446
000350 ae e2 fd bd 16 7a 10 bd 6a c2 a1 be 3b 0c 81 be
       -0.12396751 -0.03527268 -0.3159364 -0.25204644
000360 06 f3 9d 3c 23 1e cf 3b 3d 16 bb be 0f 48 63 3e
       0.019280922 0.0063207312 -0.36540404 0.22195457
000370 3c b4 63 be d1 f9 1d bf ab ba 74 3d 01 ff 0f bd
       -0.22236723 -0.61709315 0.059748333 -0.0351553
000380 4d c8 44 be f5 74 f7 bb b3 67 c3 be 7b 06 bc be
       -0.19217034 -0.007551784 -0.38165054 -0.36723694
000390 6d 12 46 3c 32 4a bf 3c 7e e3 6d 3e 8c 5e 9d be
       0.012089354 0.023350809 0.23231313 -0.30736196
0003a0 b5 61 07 bc 65 4b cc 3e 16 9e 78 3d a5 62 15 bd
       -0.008263041 0.3990127 0.060697637 -0.036471028
0003b0 f0 b6 7c be 28 86 d2 bc 71 7d bc be 65 53 97 be
       -0.2467916 -0.025698736 -0.36814454 -0.29555812
0003c0 25 22 cf 3c 2d eb 07 bc 97 da 62 be e5 14 3d be
       0.025284836 -0.008295816 -0.22153698 -0.18465002
0003d0 36 29 9c be bb 58 19 bd 57 d0 f0 3c 4c 67 02 3c
       -0.3050019 -0.037438136 0.02939622 0.007959198
0003e0 3d 7b 16 be 83 27 23 be 2a 2a cc 3d 68 d6 fe 3e
       -0.14695449 -0.15933041 0.0996898 0.49772954
0003f0 5e dd 1e 3d 9e d3 9f bc 39 40 22 3e 16 62 4d 3e
       0.03878533 -0.019510087 0.15844811 0.20056948

fc1.bias f4 [400]
000000 df 6a 32 be ce dd 81 be c7 2a d9 3b f6 3e 0e be
       -0.1742358 -0.25364536 0.006627414 -0.13891205
000010 de ec ea 3b 15 13 cd 3d 93 79 3b 3c 52 f5 26 be
       0.00716935 0.10013405 0.01144256 -0.1630452
000020 fb 33 dc bd 50 33 0b bd 1b 96 52 be a1 99 96 3e
       -0.10752102 -0.033984482 -0.20565073 0.29414085
000030 cc 1c c0 bd d5 e5 95 be e6 33 71 3e 42 b7 09 be
       -0.093804926 -0.2927691 0.23554954 -0.13448814
000040 2b 18 8c be 4f c2 49 3e cf a8 37 3e 2e 60 02 3d
       -0.2736219 0.19703029 0.17935489 0.031830005
000050 d2 af 0a be f7 1c 82 3e 8a 9e 93 3c 65 56 01 be
       -0.13543633 0.25412723 0.018019933 -0.12630613
000060 a8 57 84 bc 7b 4c 2e 3d ac 04 81 39 12 61 74 3e
       -0.016155079 0.042553406 0.00024608278 0.23865154
000070 f0 49 96 bd 18 af dd be 43 da 8c 3c b2 a8 1d 3e
       -0.07338321 -0.43297648 0.017193919 0.15396383
000080 d7 b2 58 be a7 df 9a 3d 58 41 bb be 40 7b 59 3d
       -0.21161972 0.075621895 -0.3657329 0.053096056
000090 1f 6e ac 3e 84 2f e8 3d b5 6c c7 3d 91 39 af 3d
       0.33677766 0.11337188 0.09737531 0.08555902
0000a0 1e 15 fa bd dd 4a bb be ab a8 02 be df f2 61 bd
       -0.12211059 -0.36580554 -0.12759654 -0.05516326
0000b0 2d 61 eb bd 5a f6 30 bc eb c6 4d 3e 39 ff 78 3e
       -0.11493144 -0.010800922 0.20095412 0.2431611
0000c0 52 58 52 3e a6 4a ea 3d 41 8d c6 3c 35 15 7b be
       0.20541504 0.11440019 0.024237277 -0.24519809
0000d0 96 a9 8d 3d a4 53 3c be 97 a9 25 bd 7e 86 b1 3a
       0.069171116 -0.18391281 -0.040444937 0.001354411
0000e0 31 f3 64 bd 96 b2 0c 3d d5 7f b2 be 35 91 47 3c
       -0.055895988 0.03435 -0.34863153 0.012180616
0000f0 2c 01 21 3e 0e ae 56 bd cf f8 00 bd 27 6e 8c bd
       0.15723103 -0.052412085 -0.031487282 -0.068569474
000100 e5 00 04 be 49 69 97 bd c1 9c bd 3b 23 88 4b be
       -0.12890966 -0.073931284 0.005786509 -0.19876151
000110 71 d7 33 3c 85 8a 8a 3c e0 f3 4f bd 62 1f 02 be
       0.010976658 0.016911754 -0.050769687 -0.12707284
000120 4d 63 5d bd 7d d8 c3 be bb 2b 89 bd 3c d3 5b bd
       -0.05404978 -0.38251105 -0.06697794 -0.053668246
000130 81 d6 b0 bc a6 99 a9 be 26 c4 97 be de fe 08 3e
       -0.021586658 -0.33125037 -0.29641837 0.13378474
000140 08 e0 85 be 27 98 ed bd 16 7f 64 be 1f e4 0c bd
       -0.26147485 -0.116012864 -0.22314104 -0.03439724
000150 a7 ee b4 be 57 e2 ae 3d e3 d5 44 bd 9a 8e 17 bd
       -0.35338327 0.08539265 -0.04805554 -0.03700123
000160 16 e9 18 3e 5e ed 2d be 5a 82 4d be 4c 07 f6 bd
       0.14932665 -0.1698508 -0.20069256 -0.120131105
000170 2e e2 39 3d 75 fc b3 bb 38 2d 0a 3e 5c e4 23 be
       0.045381717 -0.0054927417 0.13493812 -0.16005081
000180 5c 5c 1d be 65 0c 76 be 31 45 5d 3d bd 76 6d 3e
       -0.15367264 -0.24028166 0.054021064 0.23189826
000190 c1 6d da bd 2d 01 cb 3c 39 8f 6b 3e d2 0e 20 be
       -0.10665465 0.024780834 0.23003854 -0.15630654
0001a0 88 fd 28 3e cc 07 85 be 4f bc e8 bb c6 29 86 bd
       0.16502964 -0.2598251 -0.0071025263 -0.065509364
0001b0 e2 39 57 3e e8 99 30 3e ce 83 62 3e 2b 83 9e 3e
       0.21018174 0.1724621 0.22120592 0.30959448
0001c0 9d 9b 1d be 55 58 1d be 4a 6e a3 be 14 b9 25 3d
       -0.15391393 -0.15365727 -0.3192008 0.040459707
0001d0 92 c7 aa bd ca 42 93 be 6b 97 27 3d ce c2 50 3c
       -0.08338846 -0.28761894 0.040915888 0.012741758
0001e0 7f cd bd 3a 71 2e 1e bd 08 55 be be 57 de ad be
       0.0014480798 -0.03861851 -0.3717425 -0.33958694
0001f0 88 df a7 bd 77 26 5c 3e 2a 5e 79 3c c6 e8 5c be
       -0.08196932 0.21499048 0.015220204 -0.21573171
000200 66 b0 03 3e 11 1a e6 3d 8f 42 30 be 45 66 bf bd
       0.1286026 0.112354405 -0.1721289 -0.09345678
000210 9a fb 2e be a6 3c 94 be 48 5e f3 bd 63 6b 94 3e
       -0.17088166 -0.2895252 -0.11883217 0.2898818
000220 98 af f3 3d 03 b7 49 3e b2 a9 c3 bd 8c fb 15 be
       0.11898726 0.1969872 -0.09553851 -0.14646739
000230 62 06 1b bd 67 b1 c2 3d 8b 4a e0 bd 94 04 f3 bd
       -0.037847884 0.09506493 -0.10951718 -0.118661076
000240 ca 0d 24 be 0b 9a 2b 3d 16 6a f8 bc cd 32 6d 3c
       -0.16020885 0.041894954 -0.030324023 0.014477444
000250 34 3e f8 bd 4f 41 57 3e f0 06 ea bd ec 89 b4 3d
       -0.12121239 0.21021007 -0.114271045 0.08815369
000260 ca 9a 5a 3e 5e 8f 22 3e b7 23 dc 3d 72 e6 04 be
       0.2134811 0.15875003 0.107489996 -0.12978533
000270 31 31 3e bd 3a 72 0d be 0a 3b 4c 3d 6f 03 5c be
       -0.04643363 -0.13813105 0.04986099 -0.21485685
000280 29 c5 da 3d e9 5d 2d 3a ca 2a 27 bc fe e7 7b be
       0.106821366 0.000661342 -0.010203073 -0.24600217
000290 21 82 55 3c 20 59 44 be d8 d5 1c be 48 7b 01 3d
       0.013031513 -0.19174623 -0.1531595 0.03161171
0002a0 a5 e8 d3 3c 3b 1e a7 bd ff 9e 7a 3d 0c 1d 65 be
       0.02586777 -0.08160063 0.061186787 -0.22374362
0002b0 16 8b ea bd 70 22 68 bd 78 e2 aa 3d ee 0c 1e bc
       -0.1145231 -0.056673467 0.08343977 -0.009646637
0002c0 9e f2 31 be 9b 33 c8 3c 1e ba 23 3e 31 85 13 be
       -0.17377707 0.02443867 0.15988967 -0.14406277
0002d0 ea 56 3a 3e e0 b1 5c bd 45 17 8f bd 40 16 b0 bd
       0.18197218 -0.053880572 -0.0698686 -0.08597994
0002e0 df 6a 14 3e 99 f8 24 bd ab 31 8f bd 44 a6 f5 3d
       0.14493893 -0.040276144 -0.06991895 0.11994603
0002f0 bd d7 b2 bd 9d fa 6c be 64 df e3 bd 39 c2 ff bd
       -0.08732555 -0.23142476 -0.11126593 -0.12488217
000300 75 a3 e7 3c 35 68 a9 be b0 41 1b be c8 56 b5 bd
       0.028276185 -0.33087316 -0.15161777 -0.08854443
000310 00 bc 09 bc cd 49 50 bb 3b 79 1b 3c 12 a4 c4 3d
       -0.008406639 -0.003178227 0.009489353 0.096016064
000320 82 ed 44 be 20 d4 58 be 9f ac f4 bd e4 15 7c be
       -0.19231227 -0.2117467 -0.11946987 -0.24617726
000330 45 79 76 3e 4a b3 8c 3d 81 e3 3b 3e 6a 89 01 3c
       0.24069698 0.06870134 0.18348505 0.007906297
000340 39 a5 11 3d 31 0a 68 be df 62 2e 3e f2 5c 80 be
       0.03555796 -0.22660138 0.17029904 -0.25070912
000350 76 32 8b 3c 13 6c d4 3d 23 b3 8b 3d 66 f6 68 3e
       0.016991835 0.10372176 0.06821277 0.22750244
000360 92 fc 85 bd 33 ff 64 be 17 9e c1 3b 8d de cd 3c
       -0.065423146 -0.22362976 0.0059087384 0.025130535
000370 74 1c 64 be eb c6 ac 3c 47 96 fa bd f0 77 16 3e
       -0.22276479 0.021090945 -0.122356944 0.1469419
000380 98 d0 36 bd 51 e4 5d be a6 84 46 be 68 4a 6e 3d
       -0.044632524 -0.21669127 -0.19386539 0.058176428
000390 cb 58 60 3e eb 69 98 be 95 23 6f be 92 26 8d 3d
       0.21908872 -0.2976831 -0.23353417 0.06892122
0003a0 f6 10 3b bd b6 a8 8f be 86 1c 06 3e 5b 45 c4 bd
       -0.045670472 -0.28058404 0.13096818 -0.09583541
0003b0 d1 81 01 3e 8b 91 ce bd 93 41 df 3a 01 64 49 be
       0.12647177 -0.10086354 0.0017033092 -0.19667055
0003c0 e8 a1 5a be fd 05 32 be 9a 6f 5c 3d f9 df 96 be
       -0.21350825 -0.17385097 0.05381737 -0.29467753
0003d0 8c c7 9d 3e 10 58 e3 bd 6e f7 4c 3e 42 60 89 bd
       0.30816305 -0.11100781 0.20016262 -0.06707813
0003e0 9a d9 e8 3d 13 ff e4 bd 98 5c 39 3e a5 03 99 bd
       0.11369629 -0.11181464 0.18101728 -0.07471398
0003f0 70 83 01 3c 79 25 28 3e 24 38 c6 3d eb c0 1a 3d
       0.007904872 0.16420545 0.09678677 0.037781637

fc2.weight f4 [300, 400]
000000 e6 7e 5f 3c 5a a4 0b 3c a7 69 f5 bc e2 b5 3d bc
       0.013641095 0.008523071 -0.029957606 -0.011579009
000010 d9 2c 7f 3d aa 19 34 3d f5 87 1a 3e cc e4 2d bd
       0.06229863 0.043969788 0.15090926 -0.042454526
000020 77 d1 27 3d fe 0b 9b 3b 35 2e 13 3c 55 3b d8 ba
       0.040971246 0.004731654 0.008983185 -0.0016497175
000030 89 ee 8b 3b 6d f4 3a bd e2 d9 a6 bd 15 20 89 bd
       0.004270379 -0.04564326 -0.081470266 -0.06695572
000040 23 f1 f4 3c b9 8c 2f bd 54 20 d1 3d 4c af 9d bd
       0.02990014 -0.042858813 0.10211244 -0.07699451
000050 ed 95 db 3c 0b 8d b1 3b a1 b4 95 3d ac ff 11 bd
       0.026804889 0.005418425 0.07309843 -0.03564422
000060 d5 d6 bf 3d 93 b1 ca 3c c5 15 b1 3d 30 67 40 3d
       0.09367148 0.024742877 0.0864673 0.046973407
000070 23 96 7d 3c df 32 50 3d 4e 13 ef 3c 6b bb 4b 3d
       0.01547769 0.050829764 0.02918401 0.049739283
000080 bd 93 a2 bd c9 c1 1e 3d 26 52 78 3d 2c 05 15 bd
       -0.07938335 0.038759027 0.060625218 -0.036381885
000090 5b be 31 3d 35 0a 8c 3c b3 13 43 bd a1 91 82 bc
       0.043394428 0.01709471 -0.04762621 -0.015938582
0000a0 65 eb 00 3b 0e f2 8b bb 46 25 bc bb 77 b3 df 3d
       0.0019671556 -0.0042707985 -0.005741748 0.10922902
0000b0 a9 6e 92 3c 51 89 8b 3d b9 f6 93 3d 7e 0c d6 3d
       0.017875032 0.068133004 0.07224793 0.104516014
0000c0 d0 c0 88 3d c9 50 20 bc de 94 84 3d 22 90 3c 3d
       0.06677401 -0.009784886 0.06473707 0.046035893
0000d0 25 cf c1 bc 21 7a ba bb 75 28 77 39 80 b0 49 3b
       -0.023658345 -0.0056908284 0.00023570827 0.0030775368
0000e0 b4 8b a3 bc f1 c1 d9 3a e5 53 0a bc 94 59 2f 3e
       -0.019964077 0.0016613585 -0.008442854 0.17124015
0000f0 9d 77 7b 3d 30 91 6a bd f9 e9 94 bc 74 80 49 3e
       0.06139337 -0.057267368 -0.018177973 0.19677907
000100 70 59 a1 bd 51 12 90 3d d1 c2 8c bd 95 ce b3 3d
       -0.07878387 0.070347436 -0.06873096 0.08779637
000110 82 fd b9 bd 0f 9c 9b 3d 80 18 f3 3c 3c 8b 94 3d
       -0.09081556 0.07598125 0.029674768 0.07253119
000120 14 09 87 3b ca 8f dc 3a 36 d6 bd bc 28 76 12 3d
       0.0041209552 0.001682752 -0.023173433 0.035757214
000130 8c e8 65 bd 4d 13 37 bc 24 8f ba bc 1c 34 8b bd
       -0.056129977 -0.011174035 -0.022773333 -0.067970484
000140 29 46 39 3d 09 bf a5 3b 14 7c ab 3b cc 8c 26 3d
       0.045232926 0.0050581736 0.005233297 0.040661618
000150 dd 99 0d 3c 06 9d bc 3d 25 df 40 3e 16 e6 67 bd
       0.008642641 0.09209637 0.18835123 -0.05661591
000160 a2 1f c5 3d 42 6f eb ba 7b 9a 9d 3d 3c 28 62 3d
       0.09625174 -0.0017962235 0.076954804 0.05521415
000170 74 92 95 3d 60 42 ad bd 01 a4 63 3d 34 ea 3d bd
       0.07303324 -0.08459926 0.05557633 -0.04636593
000180 c0 01 d5 3b 73 d3 2d bc 7f 8d 0c 3e e2 e4 2c 3e
       0.0065004528 -0.010609495 0.13725851 0.16884187
000190 c1 c8 5d bd b7 47 d2 3d f6 f9 bb 3d 6d 71 1c bd
       -0.054146532 0.10267585 0.09178536 -0.03819411
0001a0 9b 57 d1 3d f0 d9 87 3b bd fd 43 bd 42 bb 36 3d
       0.102217875 0.004145853 -0.047849406 0.044612177
0001b0 6e 66 64 bd c9 c7 87 bc b5 f9 fb 3d 4c 9f 14 3d
       -0.055761747 -0.016574757 0.12303487 0.03628473
0001c0 4b d6 8a 3d c4 7e 41 3d d4 28 69 3d 28 29 8e 3d
       0.067791544 0.047240034 0.056923702 0.06941444
0001d0 b1 56 9f 3c e0 b3 46 3d 4e 7f 48 bd 95 f9 a9 bd
       0.019450517 0.048511386 -0.048949532 -0.08299557
0001e0 ec b8 7a 3c 72 44 b0 bd ba 51 ed 3c 25 99 29 3c
       0.015302878 -0.08606805 0.028969634 0.010351454
0001f0 9a d1 02 3c a7 17 81 3d 6d 08 a2 3d 28 00 56 3d
       0.007984543 0.063033395 0.07911763 0.052246243
000200 7c 7d 84 bd a7 1d f2 bc d2 63 16 be 50 c2 9c 3c
       -0.06469247 -0.029555155 -0.14686516 0.019135624
000210 ce a9 91 3d 2c 80 19 3d 74 02 45 3d 84 39 60 bb
       0.07112466 0.03747575 0.048098043 -0.003421397
000220 4b 57 6c 3d 7f 2f 01 3e e8 8d 2a 3d a1 97 76 bd
       0.057700437 0.12615775 0.04163924 -0.0602032
000230 39 36 ae bd 43 a8 a0 3d 10 7a d1 3d 11 13 d7 bc
       -0.08506436 0.078445934 0.1022836 -0.026254209
000240 2d d9 2e bd 67 db b4 bd 4b 03 70 3d bb 71 08 3e
       -0.042687584 -0.0883091 0.05859689 0.13324635
000250 72 72 9e 3c ba 0b dd 3c f3 dc c2 3b ca dd cb bc
       0.019341681 0.02698313 0.0059467494 -0.02488603
000260 72 e8 ad 3c d6 f6 68 bd bd ce a6 3c df 98 ab 3c
       0.021229003 -0.056876026 0.020362252 0.020946918
000270 8d f4 eb 3d dd 6d 61 bd 8f bf 8f 3d a4 27 52 bd
       0.11521254 -0.055036414 0.07018959 -0.051307335
000280 dd d3 49 3d 6f f3 b5 bc 77 c5 53 bb aa 90 81 3d
       0.049274314 -0.022210805 -0.0032313743 0.063264206
000290 18 2a 41 bd e5 a8 88 bd d2 51 29 bc 7f 5a b8 bd
       -0.047159284 -0.06672839 -0.010334449 -0.09001636
0002a0 94 9c b5 3d 88 c8 fd 3c d5 d2 61 3d ca 82 d2 3c
       0.088677555 0.03097941 0.055132706 0.02569713
0002b0 22 4e 4e bd 9f 75 1a 3e ab 56 32 38 ac a4 71 bd
       -0.050367482 0.15083931 4.2519223e-05 -0.058994934
0002c0 19 eb 4e 3d 75 b5 13 3d 8e a8 87 bd eb ca 5b bd
       0.050517175 0.036061723 -0.06623946 -0.053660315
0002d0 89 0c c2 3d 18 ca c3 3d 98 68 26 3d e5 de 46 be
       0.09475047 0.09560031 0.040627092 -0.19420965
0002e0 14 c8 0d 3e f5 64 4a bd 85 33 46 3b 8e 67 a7 bc
       0.13845855 -0.049412686 0.003024311 -0.02043512
0002f0 4e 71 b0 3d 97 35 fc bc eb 17 37 bc 62 2d c1 3d
       0.08615361 -0.030787272 -0.011175136 0.09432484
000300 80 a1 58 3c 20 fd 47 3d fe e3 e8 3b 5b a3 3a bd
       0.013222098 0.048825383 0.007107257 -0.045565944
000310 d2 d6 a9 3d 73 92 b5 3c e3 b5 16 3d d1 ad 70 3d
       0.08292927 0.022164559 0.036794554 0.058759514
000320 56 f2 57 bc fa 2d 2f 3d 63 7f 11 3d bc 3f 7e 3d
       -0.013180336 0.042768456 0.035521876 0.0620725
000330 f9 6f 50 39 2b 93 f2 3d 3a 28 3c 3d 52 e6 36 3d
       0.00019878139 0.11844476 0.0459368 0.044653244
000340 68 59 c5 3d 70 50 4d bd 76 f7 d7 3a d7 f7 14 bd
       0.096361935 -0.05012554 0.0016476947 -0.03636917
000350 ae 15 b9 3c 33 b7 55 be f6 0e 84 bd 51 4a 97 bc
       0.022593345 -0.20870666 -0.06448166 -0.018468054
000360 44 4b 18 3d 51 c0 a3 3c e3 7d fc bb d6 40 bf bc
       0.037181154 0.019989165 -0.0077054366 -0.023346346
000370 c8 97 e8 bc 67 80 bf 3c 26 b4 ac 3c 7d 69 2f 3d
       -0.028392687 0.023376657 0.021081995 0.04282521
000380 ad 7b 8c 3d db 0d 16 3c 2a 19 cb bc 3b eb c7 3b
       0.06859527 0.009158577 -0.024792273 0.0061010397
000390 08 4f 36 3d b2 44 b9 3d 9a ba 92 bc ab 11 0a bd
       0.044508964 0.09046306 -0.017911244 -0.033708256
0003a0 24 0f a8 bc d8 67 47 bc d7 f8 a3 3d 79 3f 55 3d
       -0.020515032 -0.012170754 0.08006447 0.052062485
0003b0 81 9a 1b 3d a4 5a 6d 3c 6e 7a 0e 3e ae dc c6 bd
       0.037989143 0.014486942 0.1391389 -0.0971006
0003c0 a7 b0 12 3d 71 a1 f8 3c 13 89 ac 3b bc d7 31 3d
       0.035813 0.030350419 0.005265364 0.04341863
0003d0 7d 14 5a 3d d6 d0 a0 3b 29 06 b0 3d 94 cb 9d 3d
       0.053242195 0.0049077077 0.08594925 0.07704845
0003e0 11 3d d1 bc 67 f3 d3 3d fa 37 77 3c 80 41 2e bd
       -0.025541814 0.1034916 0.015089029 -0.042542934
0003f0 c9 91 4e 3c b4 fd b3 3d cf 5a 56 3d 63 8f e1 3c
       0.012608 0.087886244 0.052332696 0.027534192

fc2.bias f4 [300]
000000 32 05 ca 3c af 3b 61 3d 1e 41 61 3b f2 d2 73 bc
       0.02466068 0.05498856 0.0034371088 -0.014881836
000010 10 0e d3 bc 70 f3 9a bc 98 fb 1f 3d 53 93 7e 3d
       -0.025763541 -0.018914908 0.039058298 0.062152218
000020 81 70 b9 3d b8 e9 0a bd eb 48 0f bc 38 b8 00 3c
       0.090546615 -0.033914298 -0.008745412 0.007856421
000030 d1 d8 e5 3c 94 de ce 3d a8 d6 5b 3d 91 5e ec 38
       0.028057488 0.10101047 0.05367151 0.00011270971
000040 72 aa da 3c 09 9d 8f 3c 64 37 4a 3d ad af 8a 3c
       0.026692603 0.017530935 0.04936923 0.016929472
000050 36 c7 56 bc e8 7e 32 3d 7f f4 a7 bb 0e a7 46 3d
       -0.013109019 0.04357806 -0.0051255818 0.04849916
000060 cb d3 38 3c e6 06 cb 38 b1 f0 95 bc 8c f7 e7 bb
       0.011280964 9.681079e-05 -0.018303247 -0.0070790704
000070 0b 0a fe 3c 04 2e 70 3c 5d f9 82 3c 11 82 7f 3d
       0.031010648 0.0146594085 0.015988046 0.0623799
000080 1c cc e5 3b fd 9d 99 3d 29 84 af 3d 53 14 37 bd
       0.007012857 0.07500837 0.085701294 -0.044697117
000090 89 e6 47 bc 13 f1 48 3d 9c 7d 16 bd 97 25 2d bd
       -0.01220096 0.04905803 -0.036740884 -0.042272177
0000a0 68 06 c3 3c d5 79 58 3d 1d 9e 9c 3d 84 ba 7c bc
       0.023806766 0.052850563 0.07647345 -0.015425328
0000b0 6e 3f a2 bc 72 44 fb 3c a9 6d 90 3d ef 20 53 3d
       -0.019805636 0.030672286 0.07052166 0.05154508
0000c0 c6 6d 20 3d f1 2f d0 3c b9 df 12 bd ae 6b 61 bc
       0.039167188 0.025413485 -0.03585789 -0.013758583
0000d0 62 b3 db 3c 8e a3 9c 3d cb c4 14 bd 3e 5f 3d 3d
       0.026818935 0.07648383 -0.03632049 0.04623341
0000e0 4f 23 2d bd e9 8f 0f 3d c7 6c c1 3a 8f 79 f7 bb
       -0.04227 0.035049353 0.001475715 -0.0075523327
0000f0 ed 07 16 3a 73 39 16 bd 7c 2f 65 bc c5 6c b2 ba
       0.0005723227 -0.03667588 -0.013988372 -0.0013612738
000100 97 aa 90 3c 96 69 44 3b f5 03 6c 3d de 9a 81 bc
       0.017659469 0.002997016 0.05762096 -0.015820917
000110 a2 7f 10 bd ec f1 6d 3c f0 48 60 3b 62 39 dd 3c
       -0.03527797 0.014523011 0.0034223162 0.027004901
000120 3f d5 13 bd b9 5e a0 3c 44 c9 25 bd 05 39 a7 bc
       -0.03609204 0.019576417 -0.040475145 -0.020412931
000130 81 f1 a7 bc d5 eb 62 3d 4e 2f de bc b3 5d 22 3d
       -0.0205009 0.05540069 -0.027122166 0.03964014
000140 85 75 61 3d 72 56 9e 3d 67 1f 47 3d 90 06 1e 3d
       0.055043716 0.07731332 0.048613932 0.038580477
000150 70 ad 26 bc 96 5c 9b bc 93 d3 59 3c 52 c0 cd 3c
       -0.010173187 -0.018965047 0.013295072 0.02511612
000160 bd 9b d8 3c 78 e8 3b bc ff ab a2 3c 55 83 8c bc
       0.02644145 -0.011468999 0.019857405 -0.017152468
000170 a6 31 20 bd 5c a8 2e bb d6 8a 43 3c 5f 83 c1 bb
       -0.03910985 -0.0026650643 0.011934957 -0.0059055532
000180 44 5d bf bb 26 ca cd 3c 56 f0 5e 3c ac d6 07 3d
       -0.0058399756 0.025120806 0.013607105 0.03316371
000190 df d0 7c 3d ff 7e 59 bd a8 56 1d 3b 35 69 a1 3d
       0.061722632 -0.05309963 0.002400795 0.07881395
0001a0 c6 38 78 3d ef d1 b0 bb 02 7c ba 3c 25 a9 0c 3d
       0.06060102 -0.00539612 0.02276421 0.034340996
0001b0 96 b5 31 3d 30 08 de bc 42 bc e3 3c 7c 07 44 3d
       0.043386064 -0.027103513 0.02779973 0.0478587
0001c0 0c fc 77 bc c3 b4 1d 3d a9 6b 9e 3d c9 c6 68 bc
       -0.015135776 0.038502466 0.07735378 -0.01420755
0001d0 7f 18 b0 3d 99 31 8e 3d b7 fe 80 3d 53 6b 2e bd
       0.08598422 0.06943054 0.06298583 -0.04258282
0001e0 f1 d8 ad bc 27 8c a5 bc 41 be 0c 3d 81 3a 51 3d
       -0.02122161 -0.020208431 0.034361128 0.051081184
0001f0 ac 95 52 3d 4c 97 8b 3c b7 e8 9b bc 44 09 93 bc
       0.05141227 0.017039917 -0.019031866 -0.017948754
000200 95 4a 43 3d 26 22 64 3d 9e 1b e8 3c 56 c3 1f bd
       0.04767855 0.05569663 0.028333481 -0.039004646
000210 c9 45 49 bd b4 6d b6 3d 3d 5f 1c 3d e3 30 de 3c
       -0.049138818 0.08907643 0.038176764 0.02712292
000220 3c 6f 92 3b 1d c5 dd 3c 1e 09 aa 3d dd f4 28 bc
       0.0044688266 0.02707153 0.0830252 -0.010312286
000230 2c 0b cb 3c 9c 4a 17 3c 15 68 38 3c 46 fd f9 3c
       0.0247856 0.009234097 0.011255284 0.030516278
000240 60 56 95 bc e8 19 ec ba 97 42 f4 bc 17 05 cb bb
       -0.018229663 -0.0018013092 -0.029816909 -0.006195675
000250 1f 86 c1 3c 8c b4 f2 3c ba de b3 3c 98 bf 3e bc
       0.023623524 0.029627107 0.02195679 -0.011642359
000260 51 e9 0a 3d 43 a5 44 3d e6 86 d8 3c 28 8e 18 bc
       0.033913914 0.04800917 0.026431512 -0.009311236
000270 4b 03 d7 3b 3f 95 06 bd a7 fc 6c 3d 80 d0 14 3d
       0.006561672 -0.032857176 0.057858136 0.036331654
000280 9f 0d f7 3b f5 45 29 ba 17 c9 12 3d a5 dd b3 3c
       0.0075394656 -0.0006457263 0.035836305 0.021956274
000290 d1 e6 15 3c 3a 57 1a 3d 21 72 a7 3b 51 a7 ef ba
       0.009149269 0.037680842 0.005110041 -0.0018284117
0002a0 d5 19 21 bd fc 1a 05 bb 02 8a 9c 3d 02 ad 23 bd
       -0.039331276 -0.0020310273 0.076435104 -0.039959915
0002b0 e2 35 fe 3c cf ae 11 3d 18 f2 c4 3b cc c7 2e bc
       0.031031553 0.0355671 0.006010305 -0.0106677525
0002c0 6e 9b 75 3c c7 ce 16 3d d2 a7 d7 3c 74 b4 74 3c
       0.014990671 0.036818292 0.02632514 0.0149356015
0002d0 f3 db 45 3d 25 43 f1 3c 58 fa 04 3c 8a 1f c1 bb
       0.048305463 0.029450962 0.008116327 -0.0058936523
0002e0 fa 4a a7 bb af f4 0e 3d 23 15 26 3d b8 8c f5 3c
       -0.0051053734 0.034901317 0.0405475 0.029974326
0002f0 58 0d 24 3d 1e 22 37 3b 60 0b 20 3d 75 8b 72 3d
       0.040051788 0.002794392 0.039073348 0.059215028
000300 42 e6 49 3d 99 f3 f3 3b 9d e7 84 3c a2 60 a8 3d
       0.049291857 0.0074448106 0.016223723 0.08221556
000310 5f 47 61 3c f5 62 a1 bb 5c 6f 90 bc d8 43 07 bd
       0.013749926 -0.0049251267 -0.017631225 -0.033023685
000320 36 3d 45 3d 85 bb 36 3d 01 f7 7e bd 40 aa 76 bc
       0.04815408 0.044612426 -0.06224728 -0.015055239
000330 fb 1e c1 bc 3b 40 d0 bc b2 28 d4 3c 07 73 94 3d
       -0.023574343 -0.025421252 0.025898311 0.07248502
000340 46 e6 75 3d 16 40 d9 3c 79 1a c3 3c 71 7e fe 3c
       0.06003406 0.026519816 0.023816334 0.031066151
000350 81 fa f0 bb c3 ea b3 3d 3e b0 34 3b 8d 4b a6 3d
       -0.007354081 0.087850116 0.002757087 0.08119879
000360 63 44 48 bd e6 04 78 bc d5 82 61 3d fe 5a 0a 3d
       -0.048893344 -0.015137887 0.05505641 0.033778183
000370 0e 2c 1f 3c c5 e5 9b 3d 7e 5e 52 3d af 06 d3 3a
       0.009715093 0.076121844 0.051359646 0.0016100014
000380 28 fd ca 3c 1e 0b f7 bc 2d 46 c5 3d 01 fd 36 3a
       0.024778917 -0.030156668 0.096325256 0.00069804495
000390 68 88 99 3d 7a 65 82 bc d2 cf b5 3b c7 f4 f3 bc
       0.074967206 -0.015917528 0.0055484558 -0.029779805
0003a0 2a 52 d1 bc ce 06 4f 3d d2 0d 4a 3c 05 a2 90 3a
       -0.025551874 0.0505436 0.012332397 0.0011034614
0003b0 70 bc b2 3d 1c 9c ee bc 72 18 77 3d ae c0 52 3d
       0.08727348 -0.029127173 0.060326047 0.051453285
0003c0 c5 c4 77 3d df 4f 2a 3d d3 57 82 3d 50 8e b3 3c
       0.06049039 0.041580077 0.063644074 0.021918446
0003d0 c3 d6 d8 3b 2e 1c 8a bc 4d 55 22 3b d6 60 ad 3c
       0.0066173985 -0.01685914 0.0024770082 0.021164339
0003e0 cc d5 e2 3b 8f f2 50 bc 27 35 0c 3d c2 cd 13 3d
       0.006922459 -0.012753143 0.034230378 0.036084898
0003f0 98 5c 73 bc 1b f5 7e 3c 5c bc 51 bd c9 07 6d bd
       -0.014853619 0.015561367 -0.051205024 -0.057868753

bn1.weight f4 [400]
000000 8d 8a 87 3f 0c 04 8b 3f af 00 6a 3f fa 0a 7e 3f
       1.0589157 1.086061 0.91407293 0.992355
000010 d4 92 74 3f 2e 10 80 3f cd 02 8a 3f 2c 23 68 3f
       0.9553654 1.0004938 1.0782105 0.9067867
000020 a7 8e 76 3f a6 b3 8d 3f 03 17 6b 3f aa 2c 86 3f
       0.9631142 1.1070449 0.9183199 1.048238
000030 6f f3 84 3f ae 88 56 3f b0 42 88 3f 39 46 81 3f
       1.038679 0.83802307 1.0645351 1.0099555
000040 ee cb 75 3f db 6d 88 3f fa bf 88 3f 8f f3 a5 3f
       0.96014297 1.0658525 1.0683587 1.2964953
000050 4e 4c 8e 3f 16 99 74 3f 37 88 88 3f fb 36 8a 3f
       1.1117036 0.9554609 1.066657 1.0798029
000060 ad fc 86 3f fd ef 87 3f e8 92 8b 3f 08 86 8a 3f
       1.054586 1.0620114 1.0904207 1.0822153
000070 96 9c 80 3f 61 8d 52 3f 8c 41 8f 3f 86 2e 75 3f
       1.0047786 0.8224698 1.1191878 0.95774114
000080 53 7c 4e 3f b1 af 8c 3f 6c 2c 53 3f 4b 96 86 3f
       0.80658454 1.0991117 0.8248966 1.0514616
000090 f8 ea 91 3f 04 da 82 3f 5e 72 61 3f 3b 1a 84 3f
       1.1399832 1.0222783 0.88065135 1.0320505
0000a0 21 43 8b 3f 6c c0 4a 3f fa b6 86 3f d5 24 93 3f
       1.0879861 0.7919986 1.052459 1.1495615
0000b0 a0 b2 6b 3f 26 cc 89 3f 26 95 94 3f 31 05 9a 3f
       0.92069435 1.0765426 1.1608016 1.2032834
0000c0 20 d5 8a 3f da 5e 8a 3f cd 6f 6f 3f fa 72 9b 3f
       1.084629 1.0810196 0.9352997 1.2144463
0000d0 39 5d 96 3f e0 6f 5c 3f 7a 26 88 3f 9f d3 64 3f
       1.1747199 0.8610821 1.0636742 0.8938541
0000e0 f7 8a 80 3f b5 c3 9b 3f 2f 1e 65 3f dd b8 92 3f
       1.0042409 1.21691 0.8949918 1.1462666
0000f0 06 07 96 3f 69 03 89 3f 58 b9 8a 3f 07 6c 96 3f
       1.1720893 1.0704166 1.0837812 1.1751717
000100 39 7e 8a 3f 5f ea 80 3f 7e f1 ad 3f 03 fb 70 3f
       1.081977 1.0071524 1.3589323 0.94133013
000110 7a 49 af 3f 3f dd 7f 3f 8d 46 81 3f d0 96 7c 3f
       1.3694298 0.9994697 1.0099655 0.9866762
000120 23 a8 80 3f 46 a1 66 3f 4d 05 8c 3f 8d 58 69 3f
       1.0051311 0.90089834 1.0939118 0.9115074
000130 54 05 83 3f 57 28 6f 3f 71 44 81 3f 31 79 82 3f
       1.0236001 0.9342093 1.0099012 1.0193235
000140 52 6a 59 3f df 08 90 3f 15 55 84 3f 42 ef 8c 3f
       0.84927857 1.1252707 1.0338465 1.1010516
000150 85 92 60 3f f9 5d 98 3f aa 78 94 3f ab b6 97 3f
       0.8772357 1.1903678 1.1599324 1.1852621
000160 69 a4 93 3f e0 a9 5a 3f a4 d7 80 3f df ac 85 3f
       1.1534549 0.8541546 1.0065808 1.0443381
000170 74 d4 8c 3f 58 1e 8d 3f 5f 6c 86 3f ae 77 60 3f
       1.1002336 1.1024885 1.0501822 0.87682617
000180 ed 7c 5a 3f c4 14 83 3f 53 0d 87 3f fe 5a 93 3f
       0.8534687 1.0240712 1.0550941 1.1512144
000190 96 ef 84 3f 25 11 89 3f c0 6e 9f 3f df 58 69 3f
       1.0385616 1.0708357 1.2455673 0.9115123
0001a0 12 70 95 3f a2 eb 7c 3f 7c 64 66 3f ef 64 68 3f
       1.1674826 0.9879705 0.89997077 0.9077901
0001b0 98 b6 6a 3f ee a9 92 3f 2f 88 90 3f 5f 0f 82 3f
       0.91684866 1.1458108 1.129156 1.0160941
0001c0 a7 03 82 3f 34 f7 76 3f f6 89 5c 3f d5 d7 70 3f
       1.0157365 0.9647095 0.8614801 0.94079334
0001d0 b9 67 75 3f 6a 62 89 3f f2 88 6a 3f 65 e9 88 3f
       0.95861393 1.0733159 0.9161521 1.0696226
0001e0 10 30 8b 3f 1a a8 74 3f 5d 71 87 3f 07 e2 6a 3f
       1.0874043 0.95569 1.0581471 0.9175114
0001f0 03 3f 81 3f 49 32 90 3f fb 21 83 3f 2a c7 60 3f
       1.0097355 1.1265346 1.0244745 0.878039
000200 26 c4 93 3f c1 95 80 3f 33 db 8c 3f 10 40 6d 3f
       1.1544235 1.0045701 1.1004394 0.92675877
000210 e7 ba 6d 3f 79 0d 50 3f 6b 8d 7e 3f 9f 0d 99 3f
       0.92863315 0.8127056 0.99434537 1.1957282
000220 ae 17 8c 3f 85 23 86 3f 37 d4 74 3f 5f 4f 5a 3f
       1.0944726 1.047959 0.95636314 0.8527736
000230 fc 98 83 3f 93 ed 94 3f 69 03 83 3f 7f 15 5f 3f
       1.0281062 1.1635002 1.0235416 0.87142175
000240 5d c6 7c 3f 2b cd 94 3f a8 38 83 3f ed b0 8c 3f
       0.9874018 1.1625112 1.0251665 1.0991493
000250 a4 05 67 3f 5b 35 97 3f 4e cc 76 3f 53 0f 78 3f
       0.9024298 1.1813158 0.96405494 0.9689838
000260 31 3f 77 3f f7 2b 8b 3f 19 f0 76 3f 4b 9d 5e 3f
       0.965808 1.0872792 0.9646011 0.8695876
000270 a2 49 90 3f f9 3d 89 3f 13 f0 7b 3f dd ee 74 3f
       1.1272471 1.0722038 0.984132 0.95676976
000280 4d c8 83 3f 39 09 75 3f bc 2f 89 3f 5b 5f 72 3f
       1.0295502 0.957172 1.0717692 0.9467675
000290 ad ee 91 3f 22 1a 4d 3f f9 29 67 3f ad a1 b3 3f
       1.1400963 0.80118 0.9029842 1.4033715
0002a0 a9 3d 83 3f 0a 85 7b 3f 30 49 89 3f 34 6b 7e 3f
       1.0253192 0.98249876 1.072546 0.9938233
0002b0 0e 82 4e 3f 0f 0b 8f 3f 8c 13 83 3f 90 06 9d 3f
       0.806672 1.117525 1.024034 1.2267628
0002c0 02 1f 5c 3f b9 93 81 3f fc a0 8f 3f 6f 4a 75 3f
       0.85984814 1.0123206 1.1221004 0.958167
0002d0 ba b8 95 3f 48 2f 7f 3f a2 04 83 3f 2e 4b 87 3f
       1.1696999 0.9968152 1.0235789 1.0569818
0002e0 d1 f1 94 3f aa 48 88 3f 81 c7 6a 3f 9a 70 72 3f
       1.1636297 1.0647175 0.9171067 0.94703066
0002f0 ad c9 61 3f 71 01 83 3f 31 e9 92 3f 93 1d 84 3f
       0.8819836 1.0234815 1.1477414 1.0321525
000300 85 6e ae 3f bb c7 76 3f 99 43 88 3f 25 99 82 3f
       1.3627478 0.96398515 1.0645629 1.0202986
000310 82 97 98 3f 02 e8 a6 3f 89 de 7f 3f 78 fc 97 3f
       1.1921237 1.3039553 0.99948937 1.1873922
000320 a0 50 89 3f 62 51 65 3f 93 95 8d 3f d3 8d 86 3f
       1.072773 0.89577305 1.1061271 1.0512031
000330 7e ff 97 3f 2b 86 7b 3f f8 bf 9c 3f ba 43 88 3f
       1.1874845 0.982516 1.2246084 1.0645669
000340 cf bd 94 3f 61 84 4f 3f c7 34 78 3f 04 e9 5b 3f
       1.1620425 0.8106137 0.9695553 0.8590243
000350 2a 56 72 3f 68 be a8 3f b7 5f 64 3f dd e8 8f 3f
       0.94662726 1.3183107 0.8920855 1.1242939
000360 00 f3 6e 3f 5d 7e 72 3f 7b 69 94 3f fd 7b 67 3f
       0.9333954 0.94724065 1.159469 0.90423566
000370 1b 5d 85 3f 56 81 68 3f 49 4d 8e 3f 01 60 8a 3f
       1.0419039 0.9082235 1.1117336 1.0810548
000380 3a 43 83 3f c7 bd 81 3f a3 2f 87 3f 74 b8 9a 3f
       1.0254891 1.013604 1.0561413 1.2087541
000390 ee ed 86 3f f0 27 65 3f 29 10 75 3f bb 73 75 3f
       1.054136 0.89514065 0.95727783 0.95879716
0003a0 56 84 8e 3f 57 35 7b 3f d6 4b 88 3f cb 5e 76 3f
       1.1134136 0.98128265 1.0648143 0.9623839
0003b0 34 24 9a 3f 40 b7 76 3f 8f d0 89 3f de c2 6c 3f
       1.2042298 0.9637337 1.0766772 0.92484844
0003c0 47 b5 70 3f fc 80 73 3f 7c c9 bc 3f 8b 6b 86 3f
       0.9402661 0.9511869 1.4748988 1.050157
0003d0 77 14 99 3f d5 24 90 3f 5d 21 96 3f c2 c8 8d 3f
       1.195937 1.126124 1.1728932 1.1076891
0003e0 53 50 80 3f 2f b1 8b 3f 0f fc 9d 3f a6 40 a3 3f
       1.0024513 1.0913447 1.2342547 1.2754104
0003f0 26 0e 90 3f 50 bd 9a 3f c0 93 94 3f 4e 0e 86 3f
       1.1254318 1.2089024 1.160759 1.0473115

bn1.bias f4 [400]
000000 64 44 07 bd 2f 7a d8 bc 7a 53 4a bd 17 c4 e1 bd
       -0.033024207 -0.02642545 -0.049396016 -0.11023729
000010 00 48 0e be 3e ab e8 bc 14 52 f4 3b 22 25 ab bd
       -0.13894653 -0.028401967 0.0074560735 -0.08356692
000020 d8 8b ea bd 25 2e d3 3c 6e 0b 96 bd 08 25 69 bd
       -0.11452454 0.02577884 -0.07326399 -0.05692008
000030 00 be 5f bd fe 45 29 be 1a fb 73 bd 8a da 96 bd
       -0.054624557 -0.16530606 -0.05956564 -0.07365902
000040 e4 d9 fc bd 4a fd 56 bd db 3c 81 bd f4 d4 12 bd
       -0.12346247 -0.05248765 -0.063104354 -0.03584762
000050 40 d2 bd 3b d4 56 18 be e6 b3 45 bd b1 d4 9f 3c
       0.005792886 -0.14876872 -0.048267268 0.019510599
000060 44 c3 5f bd c2 49 84 bd 5c da 69 bd 90 6a 94 bd
       -0.05462958 -0.06459381 -0.05709301 -0.07246888
000070 fa 37 cc bd 94 c5 47 be 68 4d 60 bd 4d 20 d6 bd
       -0.09971614 -0.19508964 -0.05476132 -0.1045538
000080 45 88 4d be 58 87 99 bd 74 12 4a be 55 98 95 bd
       -0.20071514 -0.07496518 -0.19733602 -0.07304446
000090 87 11 19 3b 22 42 bf bd d7 c4 04 be 31 66 c8 bd
       0.0023356394 -0.09338786 -0.12965713 -0.097851165
0000a0 08 25 b0 bd ff 42 52 be 19 5e da 3d 4c 5f 8e bb
       -0.08600813 -0.2053337 0.10662479 -0.0043448564
0000b0 de 37 01 be 8c a4 62 bd 4f 2a 57 bc 30 bf 13 bc
       -0.12618968 -0.055332705 -0.013132646 -0.009017751
0000c0 d4 43 09 bd ef 14 5c bd d0 2c d4 bd aa d9 29 bd
       -0.03351195 -0.0537309 -0.1036011 -0.041467346
0000d0 f7 3f 0a bd 00 36 30 be dc 3d c4 bd 67 21 0a be
       -0.033752408 -0.172081 -0.09582111 -0.13489304
0000e0 07 de f3 bd 4e 05 7c 3d 4f 8b 27 be 20 8c a3 3d
       -0.11907583 0.061528496 -0.16361736 0.07985711
0000f0 1b 7a 17 bc e5 ea 97 bb 89 af 49 bc 1b 73 91 bd
       -0.009245421 -0.004636156 -0.012309917 -0.07102033
000100 b5 7a 8e 3d 6e 07 bc bd a4 3c 0d bc 88 0b f4 bd
       0.06956998 -0.091811046 -0.008620415 -0.11916262
000110 fd a9 ee bb 9d 82 a7 bd 28 58 f1 bd 11 01 ff bd
       -0.007283448 -0.081792094 -0.117843926 -0.12451375
000120 25 06 c8 bd 2f 78 33 be 7f d7 fe bd 44 3f 30 be
       -0.09766797 -0.17526315 -0.12443446 -0.17211634
000130 bd 4a 97 bd 8a d8 cd bd c5 cc c6 bc bb 63 b5 bd
       -0.07387302 -0.10051067 -0.024267564 -0.08856913
000140 28 3a 1d be 78 e0 7d bc 79 be 35 bd 2c a8 ce 3c
       -0.15354216 -0.015495412 -0.044371102 0.025226675
000150 8a a7 e5 bd 32 86 a2 3d e3 e6 73 bd 83 d7 ac 3c
       -0.11213596 0.07935752 -0.059546363 0.021098858
000160 7f 87 9a bd 8c 54 d9 bd 5e 63 dc bc fc 7f 8f bd
       -0.07545375 -0.10611829 -0.02690285 -0.07006833
000170 af 90 18 3d 93 b0 8e bd f7 fb 82 bd d2 42 a8 bd
       0.037247356 -0.069672726 -0.06395715 -0.0821587
000180 b0 07 3c be a7 75 ba bd 85 7e 8a bd a8 01 54 bd
       -0.18362308 -0.09104472 -0.06762413 -0.051759392
000190 5b f2 4a bd 85 e1 ea bd 7a c7 21 bb 5c 9d 9a bd
       -0.049547534 -0.11468796 -0.0024685548 -0.07549545
0001a0 e2 bc bc ba 72 aa 8e bd 5d 70 91 bd c5 4f f4 bd
       -0.0014399553 -0.069661036 -0.0710151 -0.11929277
0001b0 0d 45 2c be 4f d6 8b bd de e8 b5 bd 55 e2 cc bd
       -0.16823216 -0.068279855 -0.088823065 -0.10004107
0001c0 06 ca b1 bd 9a 78 d7 bd a1 c2 04 be 5a 89 8f bd
       -0.08681111 -0.1052105 -0.1296487 -0.070086196
0001d0 41 75 c4 bd 99 7f 32 bd 53 5a b4 bd 08 d2 2b bd
       -0.09592677 -0.043578718 -0.088062905 -0.04194835
0001e0 3f eb a1 bb 8a 15 ae bd d6 4b 68 bd 8a 45 16 be
       -0.0049413736 -0.08500202 -0.056712948 -0.14674965
0001f0 b3 13 ef bd 67 29 6f bd 40 75 b5 bb f5 18 ec bd
       -0.11673679 -0.058389094 -0.005537659 -0.11528198
000200 1d 64 7a bc 72 ac a3 bd e4 bc 71 3c 10 2d 1b bd
       -0.015282658 -0.07991876 0.014754508 -0.03788477
000210 dc c1 07 be 60 9e 35 be b6 d9 86 bc b4 73 53 bd
       -0.13257545 -0.17736197 -0.016461235 -0.051624015
000220 44 67 77 bd 5e 53 c3 bd 2e b5 18 be dd aa ce bd
       -0.060401216 -0.095373854 -0.14912865 -0.10091183
000230 82 3a f3 bd 46 4e 69 bd fe 14 d4 bd 56 c8 c6 bd
       -0.11876394 -0.056959413 -0.103555664 -0.0970618
000240 59 71 25 bd 56 ad 57 bd 02 fe df bd c9 19 60 3c
       -0.0403913 -0.05265554 -0.1093712 0.013678023
000250 e9 aa 30 be 1b 06 5f bc da 20 dc bd e4 ad 84 bd
       -0.17252697 -0.0136122955 -0.107484534 -0.064784795
000260 0b 6b ce bd 90 ef 8b bd 93 f7 af bc c0 a2 34 be
       -0.100790106 -0.06832802 -0.021480357 -0.17640209
000270 8d 68 38 bd 99 78 3f bd 2c 0c de bd d6 b6 48 3d
       -0.045021582 -0.04674587 -0.10842165 0.04900249
000280 fe 8c d7 bc 31 6b 45 bd 44 98 28 3d 1c dd d9 bd
       -0.026312348 -0.04819793 0.041160837 -0.106378764
000290 34 bb 26 bd 79 bf 50 be b2 22 ab bd 4c dc 12 3b
       -0.040705875 -0.20385541 -0.08356227 0.002240914
0002a0 f1 f1 d6 bc a8 ab 09 be b9 ef 09 3c 5d 4c da bd
       -0.026238414 -0.13444388 0.008418971 -0.106590964
0002b0 a2 c8 76 be 5c 8f f1 3c 91 21 b0 bd 19 6d 34 bd
       -0.24099973 0.029487304 -0.08600152 -0.044049356
0002c0 0d 5f 2a be 10 a2 e9 bd 11 a9 8e bd cd bf bb 3d
       -0.16637821 -0.11407864 -0.069658406 0.091674425
0002d0 8e f1 3a bd d5 2d 16 bc ce ac 9b bd f1 9d b8 bc
       -0.04564052 -0.009166201 -0.07601319 -0.02253625
0002e0 88 5c ca 3c f3 33 18 3c 78 c8 01 be 2f 8f 02 be
       0.024702325 0.009289729 -0.12674129 -0.12749933
0002f0 d6 22 38 bd be 62 98 3d ff fd 41 ba 85 c3 43 bd
       -0.044955097 0.074407086 -0.0007400214 -0.047793884
000300 21 f4 29 bc 45 8d eb bd 43 af 15 bc 33 df 28 3d
       -0.010373146 -0.115015544 -0.009136024 0.041228484
000310 0e 58 16 bc a6 db ef bc fb 16 a7 bd ca 3c c6 3c
       -0.009176267 -0.029279541 -0.0815868 0.024198908
000320 2c cc 51 3c 9a 42 4c be 57 a0 2b 3c 41 4e bc bc
       0.012805026 -0.19947281 0.01047524 -0.022986533
000330 d8 c1 9a 3c de e6 d9 bd 4a 15 14 bb 61 f3 13 bb
       0.01889126 -0.106397375 -0.0022595697 -0.0022575485
000340 a4 6b 67 bd fb 70 22 be ca ce db bd cd 97 c2 bd
       -0.05649914 -0.15863411 -0.10732801 -0.0950161
000350 f9 7c d0 bd 83 83 92 3d be d9 df bd b5 0d 9c bd
       -0.10180087 0.0715399 -0.10930203 -0.07619802
000360 03 b6 01 be 06 93 7b bd 75 3c 9a bb 7b d3 ff bd
       -0.12667088 -0.06141951 -0.004706914 -0.124915086
000370 23 9a cf bd 63 72 a9 bd 5d 03 9c 3b 36 80 d8 bd
       -0.10136821 -0.08273771 0.004761143 -0.10571329
000380 5a bb 58 bd cd 76 ad bd 3d c6 4c bd 1d b9 11 3d
       -0.052913047 -0.08469925 -0.049993742 0.03557693
000390 11 6e b7 bd 7b 55 29 be 77 5f 55 bd d8 e3 f3 bd
       -0.089565404 -0.16536514 -0.052092995 -0.11908692
0003a0 09 f5 8e 3c 71 70 e6 bd 4a ad 3f bd 95 a4 b2 3d
       0.017450826 -0.11251915 -0.04679612 0.08722798
0003b0 56 af 34 3b 6b 0f 9f bd b8 69 b0 3c fc bb 7e bd
       0.0027570329 -0.077666126 0.021534786 -0.062190995
0003c0 ce 2a 0f be 7b 30 d7 bd dd 07 2f 3d 8a eb aa bd
       -0.13981172 -0.10507294 0.04273211 -0.08345707
0003d0 28 d2 d7 bc 0b 7c ac 3c 28 4f eb bc 78 8c bf bc
       -0.026345327 0.021055242 -0.028724268 -0.02338241
0003e0 59 1d 28 bd 77 b0 20 3d 64 75 14 3c 1d fe a0 3c
       -0.041043613 0.03923079 0.009061191 0.01965242
0003f0 86 0a 39 bc 94 cf 94 bd 9a eb 15 bd 5c 98 de bd
       -0.011294013 -0.07266155 -0.03660164 -0.10868904

bn2.weight f4 [300]
000000 8a 56 92 3f 5d 7f 7a 3f 12 d2 91 3f cf 95 8b 3f
       1.143266 0.9785059 1.1392233 1.0905093
000010 3b 53 6e 3f a3 b2 63 3f ce 18 92 3f 07 d0 8e 3f
       0.9309575 0.88944453 1.141382 1.1157235
000020 c0 4f 9c 3f 20 f6 9c 3f 7c 70 95 3f 45 c6 98 3f
       1.2211838 1.2262611 1.1674953 1.1935507
000030 5b dc 9e 3f df 1e 76 3f 41 bb a0 3f 6c 65 8a 3f
       1.2410997 0.96140856 1.2557145 1.0812201
000040 2b 99 92 3f 8a 0c 48 3f 3c 22 89 3f f4 f3 8c 3f
       1.1452993 0.78144133 1.0713573 1.1011949
000050 46 55 85 3f f2 66 5e 3f d9 3c 83 3f 1e e9 88 3f
       1.0416648 0.8687583 1.0252944 1.0696142
000060 2e a8 39 3f 45 74 82 3f 25 7d 91 3f e9 1c 87 3f
       0.72522247 1.0191733 1.1366316 1.0555698
000070 cd 37 56 3f 40 67 96 3f ca a0 8e 3f 43 5c 81 3f
       0.83678895 1.1750259 1.1142819 1.0106281
000080 61 5d 9f 3f cf 58 5f 3f 49 ae 4c 3f 1c bf 90 3f
       1.2450372 0.87244886 0.7995344 1.1308322
000090 07 a6 67 3f 3e 97 a6 3f 19 f2 61 3f 65 76 84 3f
       0.9048771 1.3014905 0.88260037 1.0348631
0000a0 ad b6 8c 3f a3 70 8b 3f eb 36 92 3f 95 dd 89 3f
       1.0993248 1.0893749 1.142301 1.0770746
0000b0 d3 4d 88 3f 12 96 4b 3f 29 1c 5c 3f 74 67 49 3f
       1.064875 0.79525864 0.8598047 0.7867348
0000c0 16 03 86 3f cb 01 9f 3f 4d 38 63 3f b9 40 95 3f
       1.0469692 1.2422422 0.88757783 1.1660377
0000d0 70 c9 89 3f c6 76 85 3f 10 36 8a 3f 44 05 a5 3f
       1.0764599 1.0426872 1.0797749 1.2892232
0000e0 e3 51 92 3f 08 64 82 3f bf 11 91 3f 1d 92 71 3f
       1.143124 1.0186777 1.1333541 0.94363576
0000f0 8d 22 84 3f bd 24 7c 3f 3c 3f 82 3f 7e e5 9d 3f
       1.0323044 0.9849356 1.0175548 1.233566
000100 9f 61 71 3f 8c 32 66 3f f9 30 81 3f 48 42 90 3f
       0.9428958 0.8992088 1.009307 1.1270227
000110 cf 88 92 3f f7 49 71 3f e5 86 91 3f f9 e1 66 3f
       1.1448001 0.94253486 1.1369292 0.90188557
000120 91 5c 8d 3f 1f 79 77 3f f6 3f 49 3f 15 38 8a 3f
       1.1043874 0.9666919 0.7861322 1.0798365
000130 f5 92 8f 3f 2d c7 58 3f fa 83 98 3f db 5a 4f 3f
       1.1216723 0.8467892 1.1915276 0.8099801
000140 cb d0 88 3f ee e1 4e 3f 50 b8 97 3f dd 0d a8 3f
       1.0688719 0.8081349 1.1853123 1.3129231
000150 f7 ce 84 3f 91 93 89 3f 41 34 55 3f bb f6 4b 3f
       1.0375661 1.0748159 0.8328286 0.79673356
000160 bb fb 8a 3f 69 22 89 3f d9 00 6a 3f f7 ef 8e 3f
       1.0858072 1.0713626 0.91407543 1.1166981
000170 52 20 88 3f 4c fb 89 3f 56 2d 45 3f de 54 8c 3f
       1.0634863 1.0779815 0.770223 1.09634
000180 39 30 82 3f 08 23 50 3f f1 35 89 3f 07 1d 8b 3f
       1.0170966 0.81303453 1.0719587 1.0868233
000190 6d 56 61 3f 04 aa 9a 3f e7 0b 92 3f d1 28 9f 3f
       0.880225 1.2083135 1.1409882 1.2434331
0001a0 2f f6 71 3f f8 7f 83 3f ba a0 74 3f 8a e3 89 3f
       0.9451627 1.0273428 0.9555775 1.0772564
0001b0 47 df 8c 3f c9 20 8c 3f 54 a6 8b 3f da f1 8e 3f
       1.1005639 1.0947505 1.0910134 1.1167557
0001c0 04 25 84 3f c2 27 8c 3f a4 91 55 3f f5 25 b1 3f
       1.0323796 1.0949633 0.83425355 1.3839709
0001d0 d4 0a 98 3f 43 f3 54 3f 97 04 86 3f 22 0c 93 3f
       1.1878304 0.8318369 1.0470151 1.1488078
0001e0 2f 77 6c 3f 52 61 7c 3f ed c2 4d 3f cd 7b 85 3f
       0.9236936 0.98586 0.8037556 1.0428406
0001f0 a9 d4 69 3f 80 63 86 3f 36 c0 a5 3f ce c5 85 3f
       0.9134012 1.0499115 1.2949283 1.045099
000200 34 6d 84 3f 90 08 88 3f a9 9d 98 3f 55 b9 8e 3f
       1.0345826 1.0627613 1.1923114 1.1150309
000210 25 48 8f 3f 55 e3 91 3f 99 76 97 3f b7 d3 8a 3f
       1.1193892 1.1397501 1.1833068 1.084586
000220 79 1d 93 3f c3 cb 98 3f ef 90 4f 3f d4 96 8d 3f
       1.1493369 1.1937183 0.81080526 1.1061654
000230 5c 30 8a 3f d6 92 7c 3f 1c cd 5c 3f db ad 8b 3f
       1.0796008 0.98661554 0.8625047 1.0912431
000240 79 01 8b 3f 2c 38 94 3f d0 e0 95 3f 07 e0 88 3f
       1.0859824 1.1579642 1.1709232 1.0693368
000250 29 46 8e 3f 05 cf 4a 3f 60 b2 89 3f f8 19 54 3f
       1.1115161 0.79222137 1.0757561 0.82852125
000260 e4 72 88 3f b9 3e 91 3f 59 6e 99 3f 2c f8 9d 3f
       1.0660062 1.1347266 1.19868 1.2341361
000270 28 88 8a 3f 65 6e 9e 3f 39 47 5b 3f cf 13 6c 3f
       1.0822802 1.237744 0.8565555 0.92217726
000280 3c 54 52 3f e0 5f 8d 3f a0 87 a3 3f ef 43 78 3f
       0.8215978 1.1044884 1.2775764 0.9697866
000290 89 a3 80 3f b8 73 8c 3f b8 27 7b 3f bd 85 8a 3f
       1.0049907 1.0972815 0.9810748 1.0822064
0002a0 c8 47 8b 3f 3c b7 a7 3f ee c4 69 3f 54 15 91 3f
       1.0881281 1.3102794 0.91316116 1.1334634
0002b0 e8 3f 71 3f 86 69 8e 3f e6 cf 60 3f bd f1 6e 3f
       0.9423814 1.1125953 0.8781723 0.93337613
0002c0 d0 36 81 3f 19 a2 92 3f d5 60 93 3f 7d a6 8b 3f
       1.0094852 1.1455718 1.1513926 1.0910183
0002d0 22 7c 8e 3f 50 39 9c 3f 5e 50 a9 3f 0d 2e 85 3f
       1.1131632 1.220499 1.3227651 1.0404679
0002e0 6e 23 53 3f 9d d3 9c 3f 97 cc 69 3f 76 f5 8b 3f
       0.82475936 1.2252079 0.91327804 1.0934284
0002f0 6f 74 7d 3f 0e c9 6b 3f 66 a1 42 3f 5e 29 79 3f
       0.9900579 0.9210366 0.76027524 0.97328746
000300 89 a0 68 3f b7 56 84 3f c2 9c 5d 3f 33 2b 59 3f
       0.9086996 1.0338963 0.8656732 0.8483154
000310 35 3b 88 3f 53 b8 85 3f ee 76 54 3f 61 44 90 3f
       1.0643069 1.0446876 0.8299397 1.1270868
000320 a8 6e 8d 3f 61 42 97 3f 02 f4 8f 3f aa d4 78 3f
       1.1049395 1.1817132 1.124634 0.971995
000330 7e aa 52 3f a8 ff 88 3f 57 c1 7f 3f 29 ee 3b 3f
       0.822914 1.070302 0.9990439 0.7341028
000340 5d fd a6 3f ce a7 91 3f e2 aa 86 3f 43 49 97 3f
       1.304607 1.1379335 1.0520899 1.1819233
000350 9e e6 79 3f a4 d7 88 3f db 02 91 3f 79 34 86 3f
       0.9761752 1.0690808 1.1328996 1.0484763
000360 c0 ae 90 3f f6 91 6a 3f 42 a2 87 3f e9 30 77 3f
       1.130333 0.9162897 1.0596392 0.96559006
000370 47 d3 9b 3f 9e ce 48 3f ff b8 af 3f ab c8 9e 3f
       1.2173852 0.7844027 1.3728331 1.2404989
000380 2a 22 8e 3f b6 b6 84 3f 71 83 52 3f cc 0c 93 3f
       1.1104176 1.0368259 0.82231814 1.148828
000390 36 b9 8e 3f dc 21 86 3f 0a 38 67 3f ae 25 7e 3f
       1.1150272 1.0479083 0.90319884 0.99276245
0003a0 be 14 9c 3f 52 5c 50 3f ad fa 85 3f 4f 71 83 3f
       1.219383 0.8139087 1.0467125 1.0268954
0003b0 b1 96 9a 3f 31 b8 8a 3f 54 46 7e 3f c2 23 90 3f
       1.2077237 1.0837461 0.9932606 1.1260912
0003c0 38 50 71 3f 34 82 87 3f a2 5f 96 3f 5a 7e 54 3f
       0.9426303 1.058661 1.1747935 0.830053
0003d0 77 62 99 3f 54 b0 89 3f 7f be 8e 3f 5a 48 89 3f
       1.1983174 1.0756936 1.1151885 1.0725205
0003e0 4a 08 90 3f 80 5a 8b 3f 0f bc 8b 3f 79 52 86 3f
       1.125253 1.0886993 1.0916766 1.0493919
0003f0 08 e1 83 3f b1 29 8f 3f 27 4e a4 3f 24 c6 8f 3f
       1.0303049 1.1184598 1.283635 1.1232343
