trained_data/ddpg/walls_G_350_450/actor_ddpg.pth (torch, 504034 bytes, 10 tensors)

fc1.weight f4 [400, 6]
0.005427996 0.0047447416 -0.130583 0.061651822 0.16403586 -0.059975266 0.018992731 0.0018654685
-0.08433559 0.07272934 -0.08216686 0.11594986 0.0011106239 0.011113718 -0.06484518 0.011607635
0.09104543 -0.08837203 -0.0072573205 0.024457734 0.1461476 0.046650235 -0.01754024 -0.12582745
0.039205126 -0.02857724 0.0026774844 -0.031160185 -0.10038795 0.0071081147 -0.03250359 0.026721258
0.03815952 0.047496952 0.03260037 -0.023875536 0.0035936295 0.004266837 -0.0030304387 -0.13374625
0.0680672 -0.16252342 0.012834831 -0.0034551288 -0.10451967 -0.11040292 0.04583509 -0.12200453
-0.013820652 0.023349931 -0.09741817 0.08080492 0.093409374 -0.108483255 0.007560095 0.00086124294
-0.017920636 0.0641096 -0.0152018 0.29103088 0.024490004 -0.014712007 0.0025733225 0.008398853
0.0045556487 -0.10892346 0.007823376 0.0022259078 -0.007241929 0.0318352 0.09792836 -0.008220931
0.0038524808 0.011595838 -0.05260388 0.026871547 0.18473479 -0.0674356 0.0016610533 0.010977168
0.11910123 -0.14832985 0.19834627 0.14549923 0.021606945 -0.0005613596 -0.13557588 -0.02743573
-0.071828306 -0.11229348 0.0036500106 0.018604362 0.0969954 0.004053434 0.07124337 -0.092483915
0.0034486402 0.011243946 -0.08654537 0.03805144 0.11303493 -0.13650876 0.009017005 -0.030077735
-0.1865266 -0.028319249 -0.09523986 -0.036242727 0.013965063 -0.0135506885 -0.100898474 -0.033785723
-0.051270343 0.061191995 0.028464481 0.0014588935 0.003588802 -0.036633685 0.08806009 0.10269251
0.013652754 -0.04018286 -0.24492277 -0.05689146 -0.1280368 0.022918357 0.027802328 -0.017924687
0.076540194 0.012801331 -0.17943847 -0.023300158 -0.000602866 0.024096051 0.16788833 0.110230915
0.12116114 0.0608498 0.027772479 -0.012720585 0.012108768 -0.00056649995 0.037558436 0.07543335
-0.026443576 0.04161348 0.04496986 0.16112319 0.10719722 -0.058384474 -0.004792284 0.020030798
-0.079593115 -0.13609536 -0.07834766 -0.010463649 0.010383254 0.0075699654 0.07018159 -0.06205744
-0.16549379 -0.053194832 -0.006165979 0.01980129 -0.03904035 0.0680119 0.1219515 -0.10626335
-0.00043341194 0.003962137 -0.09520499 0.0133821685 0.11008698 -0.13211676 0.01610721 -0.0014786302
0.0380749 -0.020888899 -0.0527157 0.021745713 -0.02425836 0.060978357 0.112898566 0.060557485
0.02950948 0.004799092 0.0070980694 -0.0071265055 -0.08166594 0.08715351 0.12066152 -0.09877083
-0.01199346 0.018613223 -0.11115321 -0.010932011 0.15531784 -0.07251914 -0.013085268 0.040978063
-0.019767508 0.0514925 0.10041013 -0.043733988 0.00882605 -0.021404125 -0.19776648 0.059157826
0.031108676 0.009724087 0.0057222 0.011028901 0.18003471 0.04615493 0.007898715 -0.059414644
-0.026501803 0.041322257 -0.19549768 0.054701574 0.012050267 -0.09108106 0.0009151919 0.014625437
-0.025490945 0.04346557 0.28224352 -0.059992727 0.004669407 0.024347264 0.098822735 -0.028653838
-0.038428176 0.026341084 0.011573361 -0.02025749 -0.048031997 0.06846737 0.14431217 -0.0079134405
0.04009661 0.027075967 -0.08695678 -0.036018327 0.054539498 -0.17831738 0.015736876 -0.0025589059
-0.054180488 -0.03762454 0.009180501 -0.0399219 -0.019107455 0.032997444 -0.13046952 -0.033877984
00000000: 55dd b13b c779 9b3b 8db7 05be 9f86 7c3d
00000010: 04f9 273e a0a8 75bd a596 9b3c bc82 f43a
00000020: 23b8 acbd 1ff3 943d 1947 a8bd 1f77 ed3d
00000030: 5b92 913a 5016 363c 8dcd 84bd f32d 3e3c
00000040: 0776 ba3d 65fc b4bd d1ce edbb 965b c83c
00000050: b7a7 153e 5114 3f3d 8db0 8fbc e9d8 00be
00000060: 8e95 203d d11a eabc bc78 2f3b a543 ffbc
00000070: 3398 cdbd 30eb e83b 7c22 05bd 8ae6 da3c
00000080: 284d 1c3d 2a8c 423d f787 053d a196 c3bc
00000090: 1983 6b3b d3d0 8b3b 539a 46bb c7f4 08be
000000a0: d166 8b3d 8a6c 26be 2f49 523c 716f 62bb
000000b0: 690e d6bd ed1a e2bd 93bd 3b3d 83dd f9bd
000000c0: 0470 62bc 5b48 bf3c 2d83 c7bd 0d7d a53d
000000d0: 6a4d bf3d 782c debd acba f73b 09c5 613a
000000e0: 4cce 92bc e54b 833d f810 79bc 0002 953e
000000f0: 439f c83c a10a 71bc 30a5 283b 589b 093c
00000100: 8d47 953b 4313 dfbd 9e2d 003c 89e0 113b
00000110: b44d edbb a065 023d aa8e c83d 15b1 06bc
00000120: e779 7c3b 78fc 3d3c 2b77 57bd b821 dc3c
00000130: 1e2b 3d3e ad1b 8abd b3b7 d93a 94d9 333c
00000140: 58eb f33d c8e3 17be 491b 4b3e c0fd 143e
00000150: 0c01 b13c 3428 13ba 67d4 0abe e5c0 e0bc
00000160: b81a 93bd 20fa e5bd 0435 6f3b 2d68 983c
00000170: 86a5 c63d abd2 843b 0be8 913d 3568 bdbd
00000180: 9502 623b 8738 383c b33e b1bd d4db 1b3d
00000190: db7e e73d f4c8 0bbe 0fbc 133c 9565 f6bc
000001a0: d400 3fbe c5fd e7bc 1e0d c3bd 4173 14bd
000001b0: b8cd 643c b503 5ebc dca3 cebd e662 0abd
000001c0: da00 52bd 75a4 7a3d 582e e93c 5838 bf3a
000001d0: 1b32 6b3b 340d 16bd d958 b43d 7350 d23d
000001e0: cdaf 5f3c c896 24bd 09cd 7abe 0507 69bd
000001f0: 141c 03be 47bf bb3c b5c1 e33c cbd6 92bc
00000200: 1bc1 9c3d acbc 513c b8be 37be f9df bebc
00000210: a709 1eba 1565 c53c ebea 2b3e bfc0 e13d
00000220: 5523 f83d a43d 793d 1c83 e33c 006a 50bc
00000230: db63 463c 2b81 14ba e0d6 193d cd7c 9a3d
00000240: 33a0 d8bc e572 2a3d 5132 383d 7afd 243e
00000250: 378a db3d 8f24 6fbd 9808 9dbb a117 a43c
00000260: b701 a3bd 955c 0bbe bd74 a0bd ba6f 2bbc
00000270: 861e 2a3c 790d f83b 5ebb 8f3d f12f 7ebd
00000280: 3477 29be d3e2 59bd fb0b cabb 5136 a23c
00000290: c6e8 1fbd d349 8b3d b5c1 f93d 99a0 d9bd
000002a0: 913b e3b9 d0d4 813b d5fa c2bd e240 5b3c
000002b0: 4875 e13d 9e49 07be 45f3 833c 99ce c1ba
000002c0: 6df4 1b3d 321f abbc 6bec 57bd 1124 b23c
000002d0: 78b9 c6bc 71c4 793d 5d37 e73d 200b 783d
000002e0: ddbd f13c b441 9d3b ec96 e83b 7685 e9bb
000002f0: 7940 a7bd 8a7d b23d 631d f73d 5c48 cabd
00000300: 3880 44bc c27a 983c 4ba4 e3bd 2d1c 33bc
00000310: a40b 1f3e ea84 94bd 9863 56bc 9dd8 273d
00000320: 78ef a1bc cde9 523d d4a3 cd3d 6922 33bd
00000330: 239b 103c b457 afbc 4c83 4abe 7a4f 723d
00000340: 9fd7 fe3c c751 1f3c 4b81 bb3b 90b2 343c
00000350: 055b 383e f40c 3d3d 9d69 013c c55c 73bd
00000360: 4f1a d9bc 8741 293d 8b30 48be c20e 603d
00000370: 7c6e 453c b588 babd 7de9 6f3a 879f 6f3c
00000380: 63d2 d0bc f408 323d 3982 903e efba 75bd
00000390: d301 993b ea73 c73c 9363 ca3d 74bb eabc
000003a0: dd66 1dbd 42c9 d73c 329e 3d3c 09f3 a5bc
000003b0: 33bd 44bd 9f38 8c3d 92c6 133e 60a7 01bc
000003c0: 583c 243d 6bce dd3c 6516 b2bd f487 13bd
000003d0: cf64 5f3d d598 36be 9fea 803c 51b3 27bb
000003e0: 5cec 5dbd 311c 1abd d069 163c 2585 23bd
000003f0: 3d87 9cbc 5428 073d cd99 05be a4c3 0abd

fc1.bias f4 [400]
0.0752996 -0.1904571 0.047424804 0.03499474 0.07662532 -0.12618019 0.0010764009 0.23558089
0.0138446735 -0.072783396 -0.10943924 0.43489888 -0.00951687 -0.015969453 -0.12435009 -0.016801918
-0.015075787 0.049961522 0.23806554 -0.19975944 -0.079007536 0.029496055 -0.05754447 -0.3174279
-0.0040708315 -0.08179789 -0.3137463 0.101653256 0.035485964 -0.048376247 -0.26442906 0.049527004
-0.013674579 -0.17617941 0.1126941 0.38928947 -0.08772297 -0.03768418 -0.21271782 0.05543478
0.34044132 -0.12046138 0.027902339 -0.32501385 -0.01329534 -0.014843012 0.15832324 -0.21315295
0.028330594 -0.010406446 0.0439755 0.012978586 0.11741351 0.016870858 -0.260214 -0.13829276
-0.12139227 -0.40733913 0.13411723 0.108060166 -0.0050942153 -0.3032957 -0.1527296 -0.12809165
-0.0056395764 -0.05848155 -0.07287447 0.07458017 0.44501704 0.19780469 -0.03332932 -0.119030274
-0.33651835 -0.5199433 0.0034166416 -0.10657495 0.06677854 -0.097668976 0.022652848 -0.0020582972
0.39346048 -0.44067088 0.22850034 0.18098395 0.15582013 -0.023923585 -0.14310151 -0.15716358
0.04289582 -0.034074724 -0.028971508 -0.030097941 -0.013679403 0.0011258035 0.049925003 0.082139954
-0.08085293 -0.011164573 0.087742 0.106619775 0.5609462 0.028757848 0.21066748 0.10770705
-0.09447097 0.021609077 -0.04102877 0.05148304 0.0903183 -0.019086374 0.03597385 -0.51751006
-0.053682357 0.068290964 0.051258072 0.01083229 -0.5595568 -0.04059812 -0.014173652 0.11379868
-0.002730761 0.12711641 0.0011803702 -0.18500395 -0.07681202 0.0010808682 -0.35911912 0.14638086
0.01016919 -0.14150819 0.05512633 0.029068395 -0.08960801 0.07789404 -0.050013706 -0.12485014
-0.018537834 0.50650644 0.14609362 0.4907406 0.012783007 0.084132925 -0.3392869 -0.061017655
0.12010912 0.09082785 0.36003757 0.057359 0.038736407 0.04791634 0.050183095 -0.041968442
-0.015796669 0.05645066 -0.16830778 0.08161233 0.18010886 0.0032144983 0.38143304 0.064801276
-0.030045498 0.033382006 0.20968579 -0.05751433 0.016765188 -0.117631525 0.013276422 0.099367395
0.3300782 0.07404898 0.073727384 0.35131386 -0.25506064 0.21565016 -0.22424583 0.02860138
0.09069208 -0.009973952 0.08135194 0.20799308 -0.039711326 0.20693067 0.048194323 0.15641512
0.15434161 0.2788303 0.17716084 -0.3824472 -0.052699775 -0.06079511 -0.1927804 -0.045339916
0.20638002 -0.1043848 -0.05680938 0.41070613 -0.39665627 0.06410677 0.00018854172 -0.06587371
0.2870397 0.19102031 0.08024204 0.027884247 0.019359862 -0.20930117 0.12419362 -0.041093435
-0.010594573 0.2584377 0.1931568 0.17706811 -0.058517173 0.12499092 -0.44485176 -0.2521015
0.190247 -0.4065411 0.06597927 -0.097247 0.24531233 0.025692623 -0.06738297 0.05146874
-0.10170936 -0.04520778 -0.21853192 0.060445286 0.20356494 -0.51462454 -0.18234058 0.0798415
-0.03171701 -0.011995009 -0.3650348 0.0011611673 0.1045631 0.016666789 -0.017277563 0.055708483
0.12227425 0.0089086685 0.0032459057 -0.21787643 0.14109327 0.21067505 0.017841179 0.082694896
-0.012111982 0.17612423 0.12914687 0.10863534 -0.028295465 0.1255653 -0.0014265594 -0.12972072
00000000: ad36 9a3d 3007 43be 8340 423d a556 0f3d
00000010: bced 9c3d 6135 01be 0516 8d3a 1e3c 713e
00000020: c5d4 623c 760f 95bd ae21 e0bd 11ab de3e
00000030: a5ec 1bbc 5fd2 82bc 43ab febd 2da4 89bc
00000040: 6f00 77bc 74a4 4c3d 74c7 733e bd8d 4cbe
00000050: b4ce a1bd b6a1 f13c c0b3 6bbd e985 a2be
00000060: 9c64 85bb a785 a7bd 5ba3 a0be 952f d03d
00000070: bb59 113d 2c26 46bd 3f63 87be d4dc 4a3d
00000080: 570b 60bc 6068 34be 2acc e63d f350 c73e
00000090: 1aa8 b3bd ba5a 1abd b3d2 59be 940f 633d
000000a0: 534e ae3e 75b4 f6bd 7293 e43c 3768 a6be
000000b0: b3d4 59bc 1b30 73bc 7d1f 223e c444 5abe
000000c0: 9015 e83c cc7f 2abc a71f 343d 23a4 543c
000000d0: 7f76 f03d c134 8a3c c53a 85be 9e9c 0dbe
000000e0: 839c f8bd c18e d0be 0756 093e a64e dd3d
000000f0: 60ed a6bb 9349 9bbe 2665 1cbe 752a 03be
00000100: 32cc b8bb 5a8a 6fbd 363f 95bd 7dbd 983d
00000110: 46d9 e33e 508d 4a3e 5384 08bd 25c6 f3bd
00000120: 224c acbe 011b 05bf bce9 5f3b f843 dabd
00000130: 30c3 883d ac06 c8bd 7792 b93c 7fe4 06bb
00000140: a773 c93e 9d9f e1be fefb 693e db53 393e
00000150: 508f 1f3e 65fb c3bc 3489 12be 7def 20be
00000160: 87b3 2f3d f091 0bbd a855 edbc f58f f6bc
00000170: 931f 60bc b28f 933a 297e 4c3d fe38 a83d
00000180: 3996 a5bd 9deb 36bc 14b2 b33d 785b da3d
00000190: 2c9a 0f3f 9495 eb3c 37b9 573e 8495 dc3d
000001a0: ff79 c1bd 8505 b13c c90d 28bd e1df 523d
000001b0: cdf8 b83d 075b 9cbc 5159 133d 8a7b 04bf
000001c0: 08e2 5bbd 22dc 8b3d fcf3 513d eb79 313c
000001d0: 1d3f 0fbf 374a 26bd 9b38 68bc 480f e93d
000001e0: 91f6 32bb ce2a 023e a7b6 9a3a ad71 3dbe
000001f0: 9f4f 9dbd ebab 8d3a 76de b7be dde4 153e
00000200: ad9c 263c 86e7 10be 26cc 613d d820 ee3c
00000210: 6884 b7bd e986 9f3d 2cdb 4cbd 6eb1 ffbd
00000220: a8dc 97bc 68aa 013f 9199 153e 5a42 fb3e
00000230: d16f 513c e24d ac3d 03b7 adbe a6ed 79bd
00000240: c5fb f53d f403 ba3d d856 b83e 45f1 6a3d
00000250: 11aa 1e3d ed43 443d ca8c 4d3d 1ae7 2bbd
00000260: 0468 81bc cf38 673d e058 2cbe 5e24 a73d
00000270: 756e 383e 55aa 523b 314b c33e 88b6 843d
00000280: fa21 f6bc 92bb 083d dfb7 563e 2594 6bbd
00000290: 2657 893c cce8 f0bd 5a85 593c 2281 cb3d
000002a0: 0300 a93e fea6 973d 62fe 963d 69df b33e
000002b0: 4f97 82be 65d3 5c3e b3a0 65be 714d ea3c
000002c0: c5bc b93d c969 23bc d99b a63d 23fc 543e
000002d0: 58a8 22bd a2e5 533e 6967 453d 492b 203e
000002e0: ba0b 1e3e d8c2 8e3e a769 353e 1fd0 c3be
000002f0: b8db 57bd 4b04 79bd 3a68 45be 59b6 39bd
00000300: 4955 533e b3c7 d5bd f4b0 68bd 1348 d23e
00000310: 8816 cbbe 694a 833d 48b3 4539 cce8 86bd
00000320: def6 923e d49a 433e f055 a43d 816d e43c
00000330: 9398 9e3c 0c53 56be 3a59 fe3d 9751 28bd
00000340: dc94 2dbc f251 843e e5ca 453e 5851 353e
00000350: b4af 6fbd 3dfb ff3d 9cc3 e3be 7313 81be
00000360: 1cd0 423e 2826 d0be 2420 873d 6f29 c7bd
00000370: 2833 7b3e 5679 d23c 1500 8abd e3d0 523d
00000380: ff4c d0bd cb2b 39bd d5c6 5fbe 7a95 773d
00000390: 5473 503e 6fbe 03bf 7db7 3abe f183 a33d
000003a0: b2e9 01bd b786 44bc d7e5 babe 4f32 983a
000003b0: 2e25 d63d ca88 883c ad89 8dbc 942e 643d
000003c0: ec6a fa3d aaf5 113c 43b9 543b 001b 5fbe
000003d0: c17a 103e 33bb 573e aa27 923c f15b a93d
000003e0: 5671 46bc e959 343e 143f 043e 357c de3d
000003f0: e4cb e7bc 3194 003e 64fb baba 82d5 04be

fc2.weight f4 [300, 400]
0.022631552 0.0013956351 0.05281293 -0.025601612 -0.016651044 0.14686367 0.08513228 0.05449394
0.08049138 0.03289491 -0.01963876 -0.018084275 -0.0265142 -0.05640148 -0.05345312 -0.045455284
-0.046556253 -0.05045806 0.031928178 0.034548942 0.008124713 0.056033213 0.02141551 0.05193692
0.04922945 0.14842613 -0.03675963 0.00024925335 -0.054033473 -0.028647874 0.020171136 0.014989899
0.09964378 0.055057455 -0.073292166 0.05928786 0.036428213 0.026048679 -0.016216846 0.03571937
0.023719162 0.00421426 0.025630243 0.021031247 0.049882308 0.008947447 0.053206 0.028498782
-0.021926405 -0.079001114 0.010126903 -0.0034261076 0.09562861 -0.055402327 -0.039689425 0.048529543
-0.08212635 0.007433762 0.05011237 0.023430442 0.027145116 0.05338155 -0.01512174 0.1222874
0.04903257 0.012781989 0.013984141 -0.022878312 0.010631026 -0.04882431 0.07366238 0.014189138
-0.0006138393 0.041887954 -0.035285704 -0.055499714 -0.02840214 -0.05520896 0.112004206 -0.007763674
-0.03131343 0.002203874 0.05239324 0.035942346 -0.009592341 -0.051240068 0.075291194 0.053955864
-0.03806891 -0.031125477 0.11225575 -0.036892697 0.18465811 0.045448296 -0.04626513 0.011309064
0.16641273 -0.037092995 0.03228055 0.062650144 0.025558483 -0.0006499309 0.22340941 -0.042684007
0.041308474 -0.03377965 -0.036326736 0.061741594 -0.04392856 -0.037778873 -0.028135166 0.03642436
0.04814828 0.0037276857 0.0052049225 0.031915475 0.002851813 0.045690663 -0.05145055 -0.026071958
0.041186288 0.048652828 0.02652891 0.010284195 -0.056980375 0.0021305056 -0.025867306 0.03372759
-0.04175476 0.044084575 -0.05271056 0.029087618 0.022346249 -0.04563307 -0.039092045 0.056711208
-0.0015799386 0.073089555 -0.029643629 0.046542373 -0.012107341 -0.0060432586 -0.026861398 0.036106832
-0.08225356 -0.011754179 -0.022941198 0.06527171 0.06886761 0.054072555 0.0006054452 0.030686675
0.041130967 -0.042749796 0.04186071 0.041483507 -0.03751607 -0.049030736 0.028058589 0.010040056
0.03418942 -0.027969822 -0.013073045 0.08406001 0.056491815 -0.059643462 0.0036635327 -0.020220924
-0.048406966 0.016049925 -0.008780473 0.032247163 -0.017871294 0.08934038 0.03591832 0.050907057
0.04282892 -0.055539936 -0.05525006 -0.038216364 -0.14706543 0.06322277 -0.0146253845 -0.0118242195
0.05043121 -0.0066520246 0.047450025 -0.021981461 0.026585434 -0.01610922 -0.036026035 0.04795641
0.04274608 0.15154132 -0.06910771 0.04860931 -0.027846918 0.03249582 -0.028717725 -0.0448878
-0.016299991 0.009763705 0.04720331 0.06315233 0.051958516 0.025962457 -0.019323723 0.078759156
-0.018028773 -0.036993973 0.036165107 0.031573556 0.10861397 -0.035924107 -0.043317948 0.05592395
0.06313066 -0.0334744 -0.07014611 -0.0110274935 0.00443295 -0.036492523 0.026758032 0.050267786
0.04355979 -0.065252945 -0.007278796 -0.03409397 -0.002923621 -0.054555967 0.050653413 -0.024294818
0.05638554 -0.013716551 0.068470575 0.05215057 0.0028388437 0.01619137 0.05645979 0.015190783
0.0033196274 0.035816737 0.14969642 0.03661988 0.11221135 0.037010603 0.027371297 0.05870864
0.051436134 0.08409134 -0.044056743 0.051989242 0.00080462696 0.08988698 0.056268215 -0.02413505
00000000: ce65 b93c beed b63a 5f52 583d 79ba d1bc
00000010: c567 88bc 6e63 163e d559 ae3d 0a35 5f3d
00000020: aad8 a43d d0bc 063d 77e1 a0bc 7925 94bc
00000030: 4f34 d9bc 3d05 67bd a9f1 5abd 522f 3abd
00000040: c5b1 3ebd 1cad 4ebd 1fc7 023d 3183 0d3d
00000050: 841d 053c 1583 653d 946f af3c cfbb 543d
00000060: d2a4 493d 05fd 173e 4491 16bd 38ae 8239
00000070: 3452 5dbd f2ae eabc f03d a53c 3198 753c
00000080: 0a12 cc3d ed83 613d 341a 96bd d4d7 723d
00000090: c035 153d 0a64 d53c 31d9 84bc 794e 123d
000000a0: b04e c23c c617 8a3b 84f6 d13c b949 ac3c
000000b0: 6451 4c3d 5098 123c 89ee 593d 4776 e93c
000000c0: 019f b3bc 56cb a1bd 4feb 253c 8c88 60bb
000000d0: efd8 c33d 8ded 62bd 6191 22bd eac6 463d
000000e0: dc31 a8bd ea96 f33b a142 4d3d 33f1 bf3c
000000f0: 6f5f de3c 9da6 5a3d 2dc1 77bc d171 fa3d
00000100: 60d6 483d 8c6b 513c bd1d 653c 4c6b bbbc
00000110: c12d 2e3c 00fc 47bd 4ddc 963d 8f79 683c
00000120: 0fea 20ba b492 2b3d be87 10bd ab53 63bd
00000130: 9bab e8bc ca22 62bd 7662 e53d 6b66 febb
00000140: 8342 00bd df6e 103b 4b9a 563d 4838 133d
00000150: 3229 1dbc 1be1 51bd 4532 9a3d d300 5d3d
00000160: 25ee 1bbd dbfa febc 58e6 e53d cc1c 17bd
00000170: 0417 3d3e fe27 3a3d 8180 3dbd a749 393c
00000180: 1968 2a3e d3ee 17bd 9c38 043d b84e 803d
00000190: 0660 d13c 2060 2aba 70c5 643e 6dd5 2ebd
000001a0: 1333 293d 885c 0abd 58cb 14bd c1e4 7c3d
000001b0: 6fee 33bd 05be 1abd b87b e6bc b631 153d
000001c0: 2137 453d 304c 743b 0e8e aa3b cdb9 023d
000001d0: 7ce5 3a3b 2226 3b3d d0bd 52bd dc94 d5bc
000001e0: f4b2 283d 3048 473d 2853 d93c 0a7f 283c
000001f0: 4164 69bd f49f 0b3b ace7 d3bc f125 0a3d
00000200: 0a07 2bbd 0792 343d 07e7 57bd 2849 ee3c
00000210: 7b0f b73c bee9 3abd fb1e 20bd 034a 683d
00000220: f115 cfba faaf 953d 32d7 f2bc 37a3 3e3d
00000230: de5d 46bc 8706 c6bb 6f0c dcbc c2e4 133d
00000240: 8e74 a8bd 9a94 40bc 2eef bbbc 2dad 853d
00000250: 760a 8d3d 2f7b 5d3d bdb6 1e3a 9f62 fb3c
00000260: f278 283d 691a 2fbd 2376 2b3d 9cea 293d
00000270: 73aa 19bd 74d4 48bd 20db e53c 0c7f 243c
00000280: 350a 0c3d f820 e5bc 5330 56bc a827 ac3d
00000290: f663 673d b44c 74bd e117 703b 5aa6 a5bc
000002a0: 6246 46bd 227b 833c f9db 0fbc 9a15 043d
000002b0: d266 92bc 17f8 b63d 171f 133d eb83 503d
000002c0: 616d 2f3d d87d 63bd e34d 62bd c388 1cbd
000002d0: 5298 16be f17a 813d 4f9f 6fbc 5fba 41bc
000002e0: f590 4e3d 3af9 d9bb f55a 423d 7712 b4bc
000002f0: b2c9 d93c 7cf7 83bc 0990 13bd f16d 443d
00000300: 8316 2f3d a62d 1b3e 5888 8dbd 8e1a 473d
00000310: 381f e4bc 561a 053d 6f41 ebbc 45dc 37bd
00000320: 8f87 85bc f2f7 1f3c 4258 413d 0256 813d
00000330: 74d2 543d 38af d43c c94c 9ebc 7b4c a13d
00000340: 14b1 93bc fe86 17bd dd21 143d 4653 013d
00000350: 0071 de3d 2825 13bd 296e 31bd 8310 653d
00000360: a64a 813d 741c 09bd c4a8 8fbd a9ac 34bc
00000370: 4842 913b 2f79 15bd a933 db3c 98e5 4d3d
00000380: c06b 323d 56a3 85bd f782 eebb 1ea6 0bbd
00000390: 399a 3fbb 1476 5fbd f479 4f3d ed05 c7bc
000003a0: 86f4 663d 62bb 60bc 4d3a 8c3d d69b 553d
000003b0: e50b 3a3b c4a3 843c 6142 673d c3e2 783c
000003c0: 1b8e 593b 92b4 123d 054a 193e bafe 153d
000003d0: 10cf e53d 6e98 173d c539 e03c 7978 703d
000003e0: b2ae 523d 1538 ac3d d874 34bd acf2 543d
000003f0: 9aed 523a aa16 b83d 8079 663d deb6 c5bc

fc2.bias f4 [300]
-0.01668419 0.0050363103 0.051313043 0.022104591 0.058564793 0.0074684513 -0.01887389 0.07161214
0.019306595 -0.01528581 -0.04222702 0.06104859 0.0057507176 0.064786166 0.058239747 0.031016931
0.012239419 -0.008745852 0.0002614787 0.03250348 0.02098917 0.050397117 -0.031537186 -0.034501426
-0.016482638 0.014364051 0.036817376 -0.047754325 -0.033430256 -0.02898687 0.04880664 -0.020225348
0.021562798 0.0033262405 0.018925663 0.060715012 -0.008062063 0.02410631 0.041482396 0.0117742065
0.03798312 0.002038698 0.031674188 0.04296089 0.07047753 0.035021015 -0.030524017 -0.011894805
0.0057534026 -0.0028268723 -0.030525459 -0.017968927 0.013850463 -0.033811666 0.051412407 -0.0055559124
0.064508535 0.046208166 -0.01232271 -0.025740758 -0.038445976 0.0054610656 0.0010616507 -0.011812058
0.028199002 -0.021246474 0.04108947 0.022204269 -0.041185297 0.046213955 0.013629895 -0.010345578
-0.009495142 -0.050687607 -0.033090044 0.0007195975 -0.036698263 0.017284913 -0.017486447 0.023613399
-0.033931654 0.066029735 -0.037307076 -0.04580957 -0.027750453 -0.02038884 0.009977344 0.023288736
-0.0107989535 0.07075023 0.035517745 -0.00034974128 -0.027715674 -0.0074011935 0.044858452 -0.01563751
0.007333349 -0.036106583 -0.015275704 0.033958707 -0.018190973 0.043807264 -0.018771218 0.022914337
-0.0135348495 -0.005784703 -0.027387056 0.02614034 0.05402003 0.012160575 0.049057055 0.003174097
-0.05090832 0.0043608327 -0.02513102 -0.03910064 0.051779836 -0.050906226 0.03480518 0.05326943
-0.025308434 -0.040290073 0.02004995 -0.0063096904 0.027053023 -0.007123796 0.016615316 -0.02137652
-0.0029609865 -0.031747777 0.041110314 0.052328385 0.060605437 0.032478042 -0.019657953 -0.0063815266
-0.013422365 0.016044643 -0.022090202 0.033359278 0.022418642 0.014449123 0.044500645 0.036238324
-0.034224045 0.057327226 0.045896165 0.0030351963 0.05895882 0.017036414 -0.0047682486 0.016333496
0.041595533 -0.03684231 -0.036437333 -0.03521503 -0.02986126 0.034905653 0.045983408 0.028292164
-0.015594737 0.0454572 0.0046079303 -0.025203047 -0.032100193 0.04875817 0.009064507 -0.026442477
0.011065401 0.0640826 -0.014087321 -0.016260304 0.018542375 -0.035156623 -0.010831836 0.056961343
0.054905094 -0.01765716 -0.028167497 0.060956184 0.034249146 -0.025449917 0.031829886 -0.006879926
0.056488242 0.017670535 0.026613126 -0.050616644 0.060437478 0.0038442246 -0.0020198706 0.054099005
0.0226739 0.033384815 -0.039498914 -0.008612678 0.0655264 -0.032997772 -0.017977165 -0.049633656
0.01031461 -0.0289625 0.011865394 0.018369729 -0.040590383 -0.038849443 0.06826383 0.04122606
0.029815357 -0.012271797 0.001021204 -0.00613039 0.005119456 -0.009516023 -0.040694658 -0.039011594
0.016162772 -0.03124998 0.053583596 0.057934433 0.04907838 0.034675486 0.056345694 0.032061163
0.032249317 0.059904862 0.02562351 -0.0063177673 0.019840872 0.044205256 -0.007241051 0.068060495
-0.020352358 -0.046774857 0.0096469885 0.058633067 -0.0034417168 -0.03829593 0.061880298 0.05009793
-0.017880486 -0.045218028 0.017722167 0.0072550164 -0.04040706 0.017136639 0.06371383 0.008748034
0.062219508 0.025446177 0.030124214 -0.013492168 0.013605946 -0.03709142 -0.022730444 -0.0015884002
00000000: 48ad 88bc a207 a53b a02d 523d b014 b53c
00000010: a3e1 6f3d e9b9 f43b 6b9d 9abc 63a9 923d
00000020: dd28 9e3c 5671 7abc 3df6 2cbd 160e 7a3d
00000030: 8470 bc3b 9cae 843d cd8c 6e3d 3817 fe3c
00000040: d887 483c c34a 0fbc 1417 8939 5e22 053d
00000050: 7bf1 ab3c 356d 4e3d 232d 01bd 5e51 0dbd
00000060: 9906 87bc 3257 6b3c d1cd 163d 0a9a 43bd
00000070: 2aee 08bd df75 edbc 79e9 473d a1af a5bc
00000080: 77a4 b03c 0efd 593b fe09 9b3c 4eb0 783d
00000090: be16 04bc 997a c53c 72e9 293d 9ae8 403c
000000a0: 3094 1b3d ad9b 053b cbbc 013d c2f7 2f3d
000000b0: 8656 903d 3272 0f3d 810d fabc 6ee2 42bc
000000c0: 0a87 bc3b 0c43 39bb 8710 fabc 9233 93bc
000000d0: 0ded 623c 1a7e 0abd d195 523d 5f0e b6bb
000000e0: 0d1d 843d c644 3d3d 31e5 49bc 48de d2bc
000000f0: 8779 1dbd bdf2 b23b 1627 8b3a 5d87 41bc
00000100: 9801 e73c 160d aebc 6f4d 283d bae5 b53c
00000110: eab1 28bd d84a 3d3d ec4f 5f3c 8080 29bc
00000120: 8391 1bbc cf9d 4fbd 6d89 07bd 5fa3 3c3a
00000130: eb50 16bd 1799 8d3c bd3f 8fbc e370 c13c
00000140: ebfb 0abd 993a 873d 4ecf 18bd d1a2 3bbd
00000150: eb54 e3bc 7f06 a7bc 0478 233c 05c8 be3c
00000160: 18ee 30bc 7fe5 903d 0e7b 113d 7b5d b7b9
00000170: fb0b e3bc b685 f2bb 7fbd 373d 3c1a 80bc
00000180: 974c f03b 7fe4 13bd f246 7abc 4918 0b3d
00000190: 3c05 95bc 3f6f 333d 19c6 99bc d9b6 bb3c
000001a0: 46c1 5dbc 9b8d bdbb d25a e0bc 4424 d63c
000001b0: 1b44 5d3d 263d 473c 0df0 483d 8304 503b
000001c0: 3e85 50bd 51e5 8e3b 92df cdbc fe27 20bd
000001d0: 1817 543d 0c83 50bd e08f 0e3d 0c31 5a3d
000001e0: a253 cfbc 3407 25bd cb3f a43c 85c1 cebb
000001f0: 4d9e dd3c bb6e e9bb d81c 883c d01d afbc
00000200: 1c0d 42bb f509 02bd 4a63 283d 4a56 563d
00000210: 683d 783d b207 053d b709 a1bc 201c d1bb
00000220: 7be9 5bbc 0e70 833c 83f6 b4bc bda3 083d
00000230: 4da7 b73c 04bc 6c3c 4f46 363d a36e 143d
00000240: 832e 0cbd f4cf 6a3d 9efd 3b3d 25ea 463b
00000250: ce7e 713d f38f 8b3c f83e 9cbb d3cd 853c
00000260: 1460 2a3d f6e7 16bd 503f 15bd a33d 10bd
00000270: 9a9f f4bc 3bf9 0e3d 1959 3c3d f8c4 e73c
00000280: 1181 7fbc 5431 3a3d 1ffe 963b 9f76 cebc
00000290: 7e7b 03bd a6b6 473d 4c83 143c e59d d8bc
000002a0: a84b 353c bd3d 833d 82ce 66bc 5434 85bc
000002b0: 2ee6 973c 6400 10bd 0378 31bc 4c50 693d
000002c0: 2ae4 603d c0a5 90bc 86bf e6bc 31ad 793d
000002d0: d548 0c3d 587c d0bc 0e60 023d 0171 e1bb
000002e0: 3760 673d ccc1 903c c503 da3c 6653 4fbd
000002f0: 4a8d 773d 63ef 7b3b ce5f 04bb eb96 5d3d
00000300: 9dbe b93c 84be 083d 9dc9 21bd 311c 0dbc
00000310: b532 863d ac28 07bd d944 93bc a94c 4bbd
00000320: 9cfe 283c c442 edbc 1267 423c 1d7c 963c
00000330: 1a42 26bd 9820 1fbd e8cd 8b3d a8dc 283d
00000340: 563f f43c a60f 49bc ecd9 853a 70e1 c8bb
00000350: 1cc1 a73b 18e9 1bbc 71af 26bd 9fca 1fbd
00000360: ca67 843c f5ff ffbc 797a 5b3d a84c 6d3d
00000370: 6906 493d e207 0e3d beca 663d 9152 033d
00000380: dc17 043d cd5e 753d 65e8 d13c 4605 cfbb
00000390: 5389 a23c 9210 353d 5746 edbb 4d63 8b3d
000003a0: fdb9 a6bc fe96 3fbd 670e 1e3c 3a29 703d
000003b0: 6d8e 61bb 31dc 1cbd 3276 7d3d 7d33 4d3d
000003c0: 197a 92bc 8a36 39bd 142e 913c 7dbb ed3b
000003d0: e081 25bd 2362 8c3c 667c 823d ea53 0f3c
000003e0: e2d9 7e3d 8074 d03c 0ec7 f63c 410e 5dbc
000003f0: 79eb 5e3c 2ced 17bd 3235 babc de31 d0ba

bn1.weight f4 [400]
1.0769229 0.9744112 1.0065271 1.015831 0.9771954 1.1889101 1.0627351 1.0967394
1.0400552 0.97746867 0.9836812 1.1253968 1.059391 1.1818819 0.96889496 0.98376626
1.0108566 1.1593665 1.0025055 0.98344386 1.1281258 0.98260915 1.1061449 0.98570126
1.0694436 1.1412587 1.0072992 0.99838537 0.9994712 0.9833731 1.0275879 1.0362606
1.006158 1.0090734 1.0868101 1.1578296 1.0576906 1.0787969 0.9796025 1.0943482
0.9907137 1.0164016 1.032159 0.99334496 1.0467306 0.9719492 0.9799464 0.98894393
0.9887362 1.2034627 1.0782323 1.0063206 1.2204688 1.0862055 1.0672256 1.0085508
1.0973763 0.9937026 1.0125471 0.99142843 1.1436168 0.9776553 1.0335705 1.0872804
1.0293945 1.0995975 1.0109131 1.02658 1.0239904 0.98787016 1.1778107 1.161017
0.9808986 1.0537617 0.9812617 1.026602 0.9831208 1.0056096 1.0771745 1.0205492
1.1143575 1.026418 0.9777823 0.97500765 0.9713122 1.0771134 1.0800738 1.0172483
0.9722616 0.9772954 1.1136482 1.1278486 1.1179535 1.1399019 1.0672309 1.1009495
1.1338758 0.97455597 0.9954432 1.0493964 1.0695233 1.0707899 1.2097421 1.0019097
1.0727699 1.0185717 1.2508701 1.0736843 1.0083202 0.98277736 1.0585041 1.1928681
0.977694 1.0620455 1.0312345 0.99082625 1.166338 1.0056471 1.0963076 0.97351503
1.0316119 0.97171843 1.1420248 1.1444768 1.1955727 1.0214827 1.0646812 1.0366734
1.060815 0.9932481 1.023384 0.99742377 0.9769441 1.0010638 0.9868472 0.9798759
1.0334233 1.2355651 0.98486793 1.0457497 0.9900528 0.9719327 1.1601944 0.9661558
1.0782812 1.0035995 0.988784 1.0497339 1.011963 0.982512 1.0121752 1.0891677
1.0832262 1.0410182 0.98620844 0.9843298 0.9999517 1.0958923 1.0540365 0.9717891
0.9754116 1.1391785 0.99721223 1.0415941 0.99144614 1.4735806 0.9903974 1.1816227
0.9981452 1.0441748 1.0602165 0.9838059 0.9634927 1.0745308 0.98442453 1.0302515
1.023777 1.139854 0.99589765 0.9758551 1.1829855 1.0041761 0.9864232 0.9952848
0.9846632 1.027349 0.98918533 1.1183482 0.9785412 0.9876105 0.98963696 1.0001622
0.9886276 1.3153319 1.085371 1.0594578 0.98369026 1.0936364 1.1382948 1.0400862
1.0235176 0.98083 0.96946895 1.0216036 0.973843 0.98538053 1.0230812 1.1826484
1.0599866 0.98923445 0.99457985 0.9749593 1.0629758 1.1085557 1.009801 0.97768337
1.0619665 1.0840918 1.0054978 0.9792439 1.0221943 0.9656651 1.0711608 1.0481014
0.9867102 1.1972613 0.9858248 1.0615704 0.984294 1.2299663 0.99666184 1.002619
0.97019166 1.0026414 1.1682136 1.1755011 1.2079796 1.0107553 1.2573609 1.0845485
1.046047 0.99301267 1.1167852 0.99872935 1.1284629 0.9879643 1.010797 1.0043736
1.103103 1.2712177 1.0175081 1.0790033 0.97506213 1.0494145 1.0893564 1.0915686
00000000: 9cd8 893f 0373 793f e1d5 803f c006 823f
00000010: 7a29 7a3f 352e 983f b407 883f f561 8c3f
00000020: 8720 853f 633b 7a3f 88d2 7b3f 010d 903f
00000030: 209a 873f e847 973f 8009 783f 1bd8 7b3f
00000040: c063 813f 1f66 943f 1a52 803f fac2 7b3f
00000050: 6d66 903f 468c 7b3f 2896 8d3f eb56 7c3f
00000060: 87e3 883f c414 923f 2eef 803f 2f96 7f3f
00000070: 58dd 7f3f 57be 7b3f 0088 833f 30a4 843f
00000080: c9c9 803f 5129 813f 981c 8b3f c333 943f
00000090: 6862 873f 0416 8a3f 3bc7 7a3f 9a13 8c3f
000000a0: 6a9f 7d3f 7319 823f c91d 843f db4b 7e3f
000000b0: 45fb 853f aad1 783f c4dd 7a3f 6e2b 7d3f
000000c0: d11d 7d3f 110b 9a3f 8403 8a3f 1dcf 803f
000000d0: 5238 9c3f c808 8b3f d99a 883f 3118 813f
000000e0: d476 8c3f 4b63 7e3f 259b 813f 41ce 7d3f
000000f0: 0962 923f 9e47 7a3f 0a4c 843f 012c 8b3f
00000100: 33c3 833f 9cbf 8c3f 9a65 813f f966 833f
00000110: 1e12 833f 0fe5 7c3f 80c2 963f 349c 943f
00000120: 2c1c 7b3f aae1 863f f733 7b3f b267 833f
00000130: cead 7b3f d1b7 803f dbe0 893f 5ba1 823f
00000140: 44a3 8e3f aa61 833f f14f 7a3f 1a9a 793f
00000150: eba7 783f dade 893f dc3f 8a3f 3135 823f
00000160: 23e6 783f 0830 7a3f 068c 8e3f 585d 903f
00000170: 1a19 8f3f 4ee8 913f 069b 883f eaeb 8c3f
00000180: d822 913f 807c 793f 5ed5 7e3f 9f52 863f
00000190: 24e6 883f a50f 893f d4d8 9a3f 943e 803f
000001a0: 8650 893f 8f60 823f 831c a03f 7d6e 893f
000001b0: a310 813f 4c97 7b3f 107d 873f e7af 983f
000001c0: 274a 7a3f 1bf1 873f 7eff 833f caa6 7d3f
000001d0: 904a 953f 0bb9 803f cf53 8c3f 4838 793f
000001e0: dc0b 843f 8ac2 783f de2d 923f 377e 923f
000001f0: 8708 993f f2bf 823f 7947 883f b7b1 843f
00000200: c9c8 873f 8245 7e3f 3ffe 823f 2a57 7f3f
00000210: 0219 7a3f dc22 803f 05a2 7c3f 26d9 7a3f
00000220: 3747 843f ff26 9e3f 4e20 7c3f 20db 853f
00000230: 1a74 7d3f 95d0 783f 4081 943f fd55 773f
00000240: 1e05 8a3f f375 803f f320 7d3f ae5d 863f
00000250: 0188 813f e885 7b3f f58e 813f d969 8b3f
00000260: 28a7 8a3f 1640 853f 2878 7c3f 0afd 7b3f
00000270: d6fc 7f3f 3346 8c3f abea 863f 2cc7 783f
00000280: 93b4 793f 9ad0 913f 4d49 7f3f f552 853f
00000290: 6acf 7d3f 4a9e bc3f af8a 7d3f 6a3f 973f
000002a0: 7286 7f3f 85a7 853f 2db5 873f b4da 7b3f
000002b0: 75a7 763f 3a8a 893f 3f03 7c3f 48df 833f
000002c0: 200b 833f bce6 913f 26f3 7e3f a4d1 793f
000002d0: 126c 973f d888 803f 3b86 7c3f fcca 7e3f
000002e0: e312 7c3f 2c80 833f 403b 7d3f 0926 8f3f
000002f0: ad81 7a3f 0bd4 7c3f d958 7d3f 5105 803f
00000300: b316 7d3f cc5c a83f 70ed 8a3f 509c 873f
00000310: 20d3 7b3f 47fc 8b3f a5b3 913f 8b21 853f
00000320: a002 833f ad17 7b3f 1e2f 783f e8c3 823f
00000330: c64d 793f e641 7c3f 53f4 823f 0661 973f
00000340: a4ad 873f 783e 7d3f c99c 7e3f ef96 793f
00000350: 970f 883f 27e5 8d3f 2941 813f 7549 7a3f
00000360: 85ee 873f 85c3 8a3f 27b4 803f baaf 7a3f
00000370: 43d7 823f d435 773f cc1b 893f 3028 863f
00000380: 0a99 7c3f dc3f 993f 045f 7c3f 8ae1 873f
00000390: b1fa 7b3f 896f 9d3f 3b25 7f3f d255 803f
000003a0: 7b5e 783f 8e56 803f 0688 953f d276 963f
000003b0: 139f 9a3f 6e60 813f 34f1 a03f 7cd2 8a3f
000003c0: dee4 853f 1436 7e3f d1f2 8e3f baac 7f3f
000003d0: 7971 903f 3aeb 7c3f cc61 813f 508f 803f
000003e0: 7b32 8d3f 43b7 a23f b53d 823f c81c 8a3f
000003f0: ac9d 793f 3753 863f 0870 8b3f 85b8 8b3f

bn1.bias f4 [400]
-0.0016238398 -0.029222418 -0.003886381 0.0027659368 0.0061719595 -0.029128712 -0.03863171 0.0044388976
0.014910483 -0.016153252 0.0033889068 0.006344586 -0.0038423645 0.021300083 -0.031946696 0.0034227152
-0.00989299 0.0034842303 -0.010892014 -0.018205483 0.009549164 -0.005919947 0.019892825 -0.017486494
0.010731919 0.018373609 -0.01513458 -0.0014425447 -0.00094604376 -0.01247714 0.009041867 0.0010760482
-0.12103757 0.00033874094 -0.0023702153 0.0010981159 -0.008441583 0.012675558 -0.013682188 0.010070178
-0.013094903 0.008083113 -0.0010824075 -0.022446778 -0.048776865 -0.005952449 -0.0146564515 -0.012487849
-0.009207228 -0.003392842 0.0024797025 -0.0029608042 0.03933107 0.0056392285 0.010885833 0.010949453
0.009173692 -0.011718174 -0.0015213138 0.0017594375 0.04471948 -0.025860872 0.016255932 0.059777662
0.014901298 0.011710411 0.01887795 0.004483561 0.0011391267 -0.016061503 -0.041564375 0.0069262013
-0.019056821 -0.018870229 -0.015187085 -0.01591146 0.0008934592 -0.012593709 -0.045324307 0.049545854
0.00077302725 -0.014555658 -0.02502 0.009614174 -0.020166328 0.025608126 0.0011223314 0.0062208385
-0.026366707 -0.018505396 0.036630403 -0.00795545 -0.02050687 0.0038452453 0.007967213 0.007325997
-0.0059231524 -0.017834514 0.013725179 0.018352587 -0.00012577444 0.0027463438 0.018167153 0.0026595118
0.0029596984 0.006183827 0.032526363 0.015184279 -0.008238056 -0.009494546 -0.002337835 -0.014232737
-0.022164995 -0.00070523313 0.008952085 0.009390309 -0.0026580908 -0.012349097 -0.019864472 -0.02434245
-0.010873326 -0.025036009 0.009233669 0.032321867 0.008041474 -0.012543095 0.01549307 9.996331e-05
0.05641331 -0.016307898 -0.008798481 -0.0012369193 -0.021322811 0.0015935247 -0.001398248 -0.016211664
0.0024881866 0.008864814 -0.017141735 -0.007774489 -0.012571854 0.08163064 -0.0019017456 -0.03319513
-0.008634557 0.00040080148 -0.022092853 -0.027203226 -0.0012063334 -0.0062302677 -0.00017130576 -0.010034035
0.012375242 -0.05449541 -0.03554736 0.000936076 -0.0030478248 0.0068789567 -0.00943909 -0.015600217
-0.02254581 0.006682539 0.0027066434 -0.0032305978 -0.0051208115 0.012632487 -0.009650878 0.003105617
-0.014504937 0.062145606 0.018356916 -0.021720547 -0.0416731 -0.00065420446 -0.01672642 -0.008020236
0.00034786478 0.0025684042 -0.009578232 -0.02369487 0.005341629 0.0031843453 -0.012948569 -0.0029937422
-0.007579152 0.01268592 -0.012085426 -0.00029621963 -0.023364462 -0.007964085 -0.007966177 -0.011954861
-0.003268714 0.021489557 0.029972104 -0.02005409 -0.025701175 -0.028390775 -0.00399359 0.013504614
0.0015741712 -0.015033444 -0.032048754 -0.00079245307 -0.0037680918 -0.02091451 0.0018234258 0.015990723
-0.03469178 -0.016806504 0.012983302 -0.025505295 0.02917347 0.0061577926 -0.0035859998 -0.024919907
0.023271147 -0.010612415 -0.0155287385 -0.022062767 0.0013332694 0.091225415 0.008245534 -0.001926696
-0.0009778482 0.020042412 -0.016276047 0.022175437 -0.026096204 0.0017965797 -0.021035552 -0.0027063654
-0.015410179 -0.0015363528 -0.0071605165 0.022526652 0.03494971 -0.0021705886 0.008343295 0.0043197237
0.036949318 0.011137476 -0.008974671 -0.015869498 0.021563986 -0.01774969 -0.013277849 -0.0012095679
0.0044301366 0.0143690575 0.005561778 0.0012613238 -0.021633511 0.020230811 -0.022978567 -0.004895252
00000000: 06d7 d4ba da63 efbc a7b2 7ebb b844 353b
00000010: 263e ca3b 569f eebc 493c 1ebd 2c74 913b
00000020: 194b 743c d353 84bc 6c18 5e3b 3fe6 cf3b
00000030: 2ed0 7bbb 837d ae3c 8ada 02bd a24f 603b
00000040: 3516 22bc af57 643b 6b74 32bc aa23 95bc
00000050: 1974 1c3c 1dfc c1bb 47f6 a23c d63f 8fbc
00000060: eed4 2f3c 4084 963c 08f7 77bc c513 bdba
00000070: ecff 77ba eb6c 4cbc 5724 143c 300a 8d3a
00000080: 8ce2 f7bd 0a99 b139 9d55 1bbb a8ee 8f3a
00000090: 914e 0abc 25ad 4f3c 412b 60bc 63fd 243c
000000a0: 018c 56bc 086f 043c 92df 8dba 4ee2 b7bc
000000b0: 40ca 47bd c30c c3bb 9d21 70bc d699 4cbc
000000c0: ead9 16bc 715a 5ebb 8182 223b 0d0a 42bb
000000d0: 9e19 213d 47c9 b83b 7e5a 323c 5665 333c
000000e0: 414d 163c 96fd 3fbc d266 c7ba ed9c e63a
000000f0: c62b 373d 2eda d3bc 292b 853c 6cd9 743d
00000100: 9324 743c 06dd 3f3c eea5 9a3c d6ea 923b
00000110: c04e 953a 6a93 83bc 683f 2abd 30f5 e23b
00000120: 0d1d 9cbc bd95 9abc 40d3 78bc c058 82bc
00000130: 0837 6a3a d855 4ebc fba5 39bd 98f0 4a3d
00000140: fba4 4a3a db7a 6ebc bef6 ccbc c584 1d3c
00000150: db33 a5bc 22c8 d13c 311b 933a 2dd8 cb3b
00000160: fefe d7bc a198 97bc c309 163d 9357 02bc
00000170: 06fe a7bc 8300 7c3b ea88 023c eb0e f03b
00000180: 0117 c2bb b019 92bc 93df 603c 2a58 963c
00000190: 52e2 03b9 01fc 333b 48d3 943c 344b 2e3b
000001a0: 80f7 413b b3a1 ca3b 5d3a 053d 7bc7 783c
000001b0: e9f8 06bc 038f 1bbc 5d36 19bb 6d30 69bc
000001c0: 5d93 b5bc 65df 38ba c4ab 123c d0d9 193c
000001d0: 5d33 2ebb de53 4abc d1ba a2bc d169 c7bc
000001e0: 0926 32bc 5118 cdbc d148 173c ef63 043d
000001f0: 63c0 033c 8e81 4dbc a5d6 7d3c 65a3 d138
00000200: a511 673d 2498 85bc 8127 10bc 2020 a2ba
00000210: 2dad aebc d1dd d03a 6b45 b7ba 53ce 84bc
00000220: d810 233b ba3d 113c d36c 8cbc 24c1 febb
00000230: 2dfa 4dbc f72d a73d fe43 f9ba 9ef7 07bd
00000240: f577 0dbc aa22 d239 12fc b4bc 4dd9 debc
00000250: d51d 9eba 4627 ccbb 8aa0 33b9 cb65 24bc
00000260: 87c1 4a3c 9436 5fbd 1c9a 11bd ff62 753a
00000270: 04be 47bb df68 e13b 6aa6 1abc 0d98 7fbc
00000280: feb1 b8bc 33f9 da3b f161 313b 70b8 53bb
00000290: 7bcc a7bb 7ef8 4e3c b71e 1ebc 9b87 4b3b
000002a0: 1ea6 6dbc 648c 7e3d 3e61 963c 4aef b1bc
000002b0: 6ab1 2abd eb7e 2bba d805 89bc 4f67 03bc
000002c0: 9f61 b639 ac52 283b 04ee 1cbc be1b c2bc
000002d0: d508 af3b 73b0 503b 3c26 54bc a932 44bb
000002e0: 895a f8bb 9bd8 4f3c f301 46bc ed4d 9bb9
000002f0: d466 bfbc cb7b 02bc 9184 02bc 52de 43bc
00000300: ec37 56bb de0a b03c 0f88 f53c 7a48 a4bc
00000310: 458b d2bc c593 e8bc a9dc 82bb 7542 5d3c
00000320: 6c54 ce3a d64e 76bc 8e45 03bd a0bc 4fba
00000330: 17f2 76bb e854 abbc 0400 ef3a fafe 823c
00000340: f818 0ebd cbad 89bc eab7 543c 7bf0 d0bc
00000350: 33fd ee3c 4fc7 c93b 1803 6bbb d524 ccbc
00000360: 22a3 be3c b2df 2dbc 406c 7ebc fabc b4bc
00000370: 19c1 ae3a 64d4 ba3d 4718 073c 3189 fcba
00000380: 242b 80ba fc2f a43c 5855 85bc 43a9 b53c
00000390: b5c7 d5bc 367b eb3a c052 acbc 475d 31bb
000003a0: fa7a 7cbc 725f c9ba c4a2 eabb d089 b83c
000003b0: 6d27 0f3d 6f40 0ebb 51b2 083c 788c 8d3b
000003c0: 2b58 173d f679 363c 800a 13bc c000 82bc
000003d0: f5a6 b03c cc67 91bc 568b 59bc 5d8a 9eba
000003e0: ae2a 913b 326c 6b3c 933f b63b 0153 a53a
000003f0: c338 b1bc 16bb a53c 8c3d bcbc 5a68 a0bb

bn2.weight f4 [300]
1.027545 1.2789763 1.3559579 0.9734553 1.4329491 1.3549081 1.0278555 1.7009308
1.5182382 1.2213798 1.2189168 1.476072 1.1670588 1.2796077 1.3987566 1.3762678
2.0328963 1.0221883 1.152957 1.4219457 1.2784119 1.0802039 1.362884 1.099239
1.3248589 1.267207 1.3738225 1.2628036 1.2655925 1.3405088 1.3158869 1.3210415
1.0916154 1.6739321 1.2087085 0.9967366 1.5173097 1.1336509 1.1447482 1.4396311
1.569819 1.2012988 1.5025135 1.0305008 0.9904434 1.0818193 1.1983337 1.165728
1.3831731 1.2414352 1.3973924 1.0338995 1.0144082 1.1915308 1.2598326 1.1363075
0.9964042 1.7353922 1.3643104 1.3493184 1.1542655 1.1340551 1.332983 1.3460083
0.9438917 1.2857622 1.3045095 1.3739734 1.0921433 1.6352663 1.108994 1.2689315
1.1833327 1.4091202 1.1703279 0.97361845 1.4646177 1.0512005 1.7283593 1.353709
1.1883211 1.4649996 1.1527596 1.7444848 1.5393934 1.3039236 1.1251403 1.0428301
1.3292909 1.7613866 1.1818837 1.1779331 1.1091483 1.1330378 1.0007826 1.1702315
1.1032132 1.3475126 1.5647434 1.2345634 1.4297498 1.1054294 1.3891814 1.209674
1.1590817 1.0214089 1.2603407 1.3899903 1.3532561 1.279997 0.9952918 1.5645654
1.3890966 1.3780148 1.326155 1.8098441 1.2344556 1.5431205 1.0675828 1.2396295
1.1530317 1.059681 1.2223473 1.4746388 1.1450181 1.065323 1.5221753 1.3083212
1.017603 1.1970636 1.3381726 1.2600086 1.0969268 1.2643348 1.126124 1.2557518
1.1683334 1.1176646 1.3510209 1.0242733 1.1579355 1.0092163 1.2778717 1.0901611
1.09486 1.5716473 1.253325 1.1866677 1.1051553 1.0933046 1.0450778 1.0080718
1.4007239 1.4914806 1.4166762 0.98264736 1.0283899 1.558866 1.344879 1.1250068
1.2703626 1.3607237 1.068695 1.0124732 1.4969534 1.2534666 1.375237 1.5798242
0.99888146 1.2498832 1.0193073 1.2734376 1.1061695 1.4511417 1.1422629 1.4800452
1.4482677 1.0676084 1.1435477 1.0237577 1.3604919 1.1614748 1.2972602 1.1081516
1.307059 1.0063787 1.2782687 1.2746316 1.2978791 1.135386 1.0337932 1.248588
1.151092 1.4274621 1.186219 1.2544538 1.0681574 1.3065263 1.1916486 1.2419571
1.1728934 1.2930565 1.3377053 1.641096 1.0882413 1.2317209 1.1940283 1.0135736
1.1370776 1.2465675 1.1523268 1.0244558 1.5124288 0.9990809 1.2361176 1.3703562
1.0532793 1.196471 1.0946885 1.1230769 0.9908269 1.057206 1.2312369 1.0395987
1.1860393 1.7636737 1.498057 1.6318351 1.0012934 1.0066562 1.2890631 1.3838375
1.2376264 1.1559082 1.4318079 0.9895809 1.5958564 1.2493416 1.1882964 1.04403
1.1395636 1.1565506 1.5903864 1.3065809 1.0878696 1.3936167 1.318042 1.4777797
1.0646585 1.1070076 1.2162288 1.3841553 1.1541508 1.0686321 1.1437675 1.099044
00000000: 9886 833f 7fb5 a33f 0790 ad3f 5e34 793f
00000010: e06a b73f a16d ad3f c590 833f 1ab8 d93f
00000020: a155 c23f 2c56 9c3f 7705 9c3f edef bc3f
00000030: 2f62 953f 2fca a33f 750a b33f 8b29 b03f
00000040: f91a 0240 11d7 823f 1894 933f 5102 b63f
00000050: 00a3 a33f 1f44 8a3f fc72 ae3f ddb3 8c3f
00000060: fa94 a93f d733 a23f 6ad9 af3f 8ca3 a13f
00000070: effe a13f cb95 ab3f fb6e a83f e317 a93f
00000080: 0eba 8b3f 6843 d63f f6b6 9a3f 212a 7f3f
00000090: 3437 c23f 791b 913f 1c87 923f d545 b83f
000000a0: d4ef c83f 29c4 993f 5d52 c03f 73e7 833f
000000b0: b38d 7d3f 0e79 8a3f 0063 993f 9336 953f
000000c0: d10b b13f 59e7 9e3f c1dd b23f d256 843f
000000d0: 21d8 813f 1584 983f 3242 a13f 8672 913f
000000e0: 5814 7f3f 5521 de3f b9a1 ae3f 77b6 ac3f
000000f0: f9be 933f b828 913f 309f aa3f 004a ac3f
00000100: e3a2 713f db93 a43f 2bfa a63f 5cde af3f
00000110: 5acb 8b3f 6850 d13f 84f3 8d3f 596c a23f
00000120: 7277 973f 0d5e b43f 4ecd 953f 0f3f 793f
00000130: 9878 bb3f bd8d 863f e13a dd3f 5646 ad3f
00000140: e81a 983f 1b85 bb3f a08d 933f 474b df3f
00000150: d80a c53f f8e6 a63f 9904 903f 757b 853f
00000160: 3426 aa3f 1e75 e13f f747 973f 83c6 963f
00000170: 92f8 8d3f 6207 913f a519 803f 25ca 953f
00000180: 1736 8d3f 4b7b ac3f 8349 c83f 2c06 9e3f
00000190: 0b02 b73f b67e 8d3f b2d0 b13f 99d6 9a3f
000001a0: ca5c 943f 87bd 823f d852 a13f 34eb b13f
000001b0: 7f37 ad3f f1d6 a33f 72cb 7e3f ae43 c83f
000001c0: ebcd b13f ca62 b03f 72bf a93f f9a8 e73f
000001d0: a402 9e3f f984 c53f 8ea6 883f 2eac 9e3f
000001e0: 8b96 933f a1a3 873f e075 9c3f f7c0 bc3f
000001f0: f48f 923f 815c 883f a4d6 c23f 1277 a73f
00000200: d140 823f 6139 993f 3d49 ab3f f647 a13f
00000210: 1968 8c3f b9d5 a13f d524 903f 7abc a03f
00000220: f38b 953f a20f 8f3f 41ee ac3f 631b 833f
00000230: 3b37 943f 002e 813f 4d91 a33f 668a 8b3f
00000240: 5f24 8c3f bd2b c93f f46c a03f bae4 973f
00000250: bb75 8d3f 68f1 8b3f 1cc5 853f 7f08 813f
00000260: ec4a b33f d6e8 be3f a555 b53f c78e 7b3f
00000270: 48a2 833f ec88 c73f ff24 ac3f 3900 903f
00000280: 3e9b a23f 322c ae3f ffca 883f b998 813f
00000290: 2b9c bf3f 9871 a03f c407 b03f ae37 ca3f
000002a0: b2b6 7f3f 2cfc 9f3f a978 823f 0100 a33f
000002b0: f696 8d3f 03bf b93f ac35 923f 1f72 bd3f
000002c0: d660 b93f 64a7 883f c55f 923f 7e0a 833f
000002d0: 9924 ae3f 35ab 943f 9f0c a63f e9d7 8d3f
000002e0: b64d a73f 04d1 803f 4f9e a33f 2127 a33f
000002f0: e720 a63f 5454 913f 5653 843f bbd1 9f3f
00000300: fc56 933f 14b7 b63f 06d6 973f f191 a03f
00000310: 62b9 883f 413c a73f f187 983f 73f8 9e3f
00000320: 5f21 963f e082 a53f ed39 ab3f 6f0f d23f
00000330: 7e4b 8b3f 08a9 9d3f ebd5 983f c8bc 813f
00000340: c28b 913f 868f 9f3f 727f 933f 5e21 833f
00000350: 4497 c13f c4c3 7f3f 1a39 9e3f d567 af3f
00000360: dbd1 863f f625 993f c11e 8c3f fcc0 8f3f
00000370: d5a6 7d3f 8752 873f 2c99 9d3f 9211 853f
00000380: 23d0 973f 0fc0 e13f 55c0 bf3f f9df d03f
00000390: 622a 803f 1cda 803f 0500 a53f 9621 b13f
000003a0: 8b6a 9e3f cdf4 933f 7b45 b73f 2d55 7d3f
000003b0: 0645 cc3f 6dea 9f3f 191a 983f c6a2 853f
000003c0: 38dd 913f da09 943f c891 cb3f 0b3e a73f
000003d0: 503f 8b3f 0862 b23f 9ab5 a83f e327 bd3f
000003e0: bb46 883f 6db2 8d3f 63ad 9b3f 002c b13f
000003f0: 37bb 933f f0c8 883f f966 923f 79ad 8c3f

bn2.bias f4 [300]
-0.033235252 -0.019959686 -0.026955653 -0.11836996 0.06797455 -0.09667123 -0.0456003 -0.034533504
-0.19537818 -0.105663106 -0.10824247 -0.01989248 -0.14727975 -0.0715453 -0.24298605 -0.06768626
-0.21737924 -0.07139977 -0.18904783 -0.07954845 -0.12721471 -0.10325151 -0.012391184 6.136798e-05
-0.08244648 0.022352275 -0.0066207056 0.013221995 -0.065721825 -0.065393485 -0.12266025 0.0968021
0.058591876 -0.037998457 -0.07670142 -0.0648393 -0.097811155 -0.11263892 -0.054800656 -0.06437062
-0.13852996 -0.0023047787 -0.19402933 -0.10355518 -0.083720505 -0.13391827 -0.084441826 -0.11824451
0.011433231 -0.12344653 -0.12105853 -0.17792577 -0.0021760827 -0.10924229 0.045309097 -0.047696732
0.00088204513 0.010458569 -0.15001027 -0.034821365 -0.01652614 -0.10800104 -0.09868844 0.012557702
-0.10197019 -0.07727618 0.03880642 -0.09877655 -0.1250651 -0.14591897 -0.095923774 0.06582312
-0.02028905 -0.06621672 -0.06173654 0.018122647 -0.11177833 -0.056904115 -0.1834108 -0.0080031445
-0.11853248 -0.07243197 -0.11067136 -0.15025313 -0.07949161 0.09959638 0.0327657 -0.056597218
-0.09576139 -0.04004989 -0.13937902 -0.080288485 -0.07382255 -0.037082247 -0.08750472 -0.019943109
-0.14332806 0.099997714 -0.05356164 -0.062196165 -0.14569205 -0.10002275 0.026377756 -0.05031177
0.079823814 -0.17201307 -0.12293584 -0.13269256 -0.08294028 -0.06575569 -0.0034692169 -0.085521996
0.083818145 -0.051083617 -0.13056698 -0.03648216 0.028771061 -0.17221431 -0.105317645 -0.01285067
-0.009839095 -0.0020226166 0.009959772 -0.008573417 -0.14842045 -0.15487121 -0.027290547 -0.014747641
-0.09146234 -0.16085522 -0.17406186 0.023522064 -0.084239006 -0.079463065 -0.040332507 -0.122914486
-0.12616521 -0.14337239 -0.04729425 -0.005420959 -0.0060464353 -0.09597294 -0.034516394 -0.13440597
-0.075986005 -0.03889359 -0.038406294 -0.07300524 -0.10040546 0.069147475 -0.047272287 -0.07403869
-0.16999646 -0.10468822 -0.02218749 -0.02283829 -0.051610608 -0.19023591 -0.094200954 0.002811456
-0.08656334 -0.08390957 0.05696036 -0.22357202 0.05718093 -0.13777259 -0.08864918 -0.005770327
-0.10816694 -0.13919076 -0.007051102 -0.15502279 -0.0403098 -0.15497299 -0.009488344 -0.043115113
-0.043164067 -0.13433565 -0.1111369 -0.06487694 -0.059314843 0.03672495 -0.10432491 -0.0037455787
-0.13534388 0.068069786 -0.044174265 -0.12050519 -0.094457954 -0.114081964 0.065528564 0.074434735
-0.04536221 0.01070375 -0.057295635 -0.07113914 0.059028216 -0.0021455095 -0.2169011 -0.0018017078
0.021064166 -0.11943231 -0.15059374 -0.08603325 -0.05901239 -0.16564856 -0.093851626 -0.034008678
0.036493447 -0.07328129 0.10610602 -0.06071764 -0.018702015 -0.008015339 -0.20552815 -0.105620995
0.07069578 -0.11440384 -0.083324336 -0.102176644 0.045017537 -0.07384927 0.06458047 -0.011072044
-0.06158935 -0.033179067 -0.13503522 -0.020053219 -0.04784528 -0.046626307 -0.092843704 -0.11059261
-0.037941784 -0.13529542 -0.15961276 0.014981402 -0.047328833 -0.117153816 -0.13409849 -0.015442859
0.046435528 -0.04353226 -0.10155499 0.068926215 -0.102926604 0.06298193 -0.084047295 -0.07963434
-0.013915492 -0.077013604 -0.008606282 0.08714141 0.014491493 -0.0038218414 -0.08462883 0.033361487
00000000: b021 08bd 7f82 a3bc 1ad2 dcbc f36b f2bd
00000010: 3e36 8b3d 91fb c5bd 61c7 3abd 0173 0dbd
00000020: 3811 48be e665 d8bd 3aae ddbd 8ef5 a2bc
00000030: 81d0 16be 5886 92bd 56d1 78be 189f 8abd
00000040: aa98 5ebe 0b3a 92bd c195 41be 4cea a2bd
00000050: 9344 02be 8775 d3bd 6504 4bbc afb2 8038
00000060: b3d9 a8bd 1e1c b73c 81f2 d8bb 11a1 583c
00000070: 2a99 86bd 05ed 85bd 4c35 fbbd 2e40 c63d
00000080: 09fe 6f3d 45a4 1bbd a215 9dbd 78ca 84bd
00000090: 3751 c8bd 3caf e6bd a776 60bd bed4 83bd
000000a0: ccda 0dbe c50b 17bb a0af 46be bd14 d4bd
000000b0: a875 abbd df21 09be d6ef acbd 2d2a f2bd
000000c0: 7252 3b3c 89d1 fcbd 89ed f7bd 2c32 36be
000000d0: 9c9c 0ebb 6cba dfbd 0896 393d a65d 43bd
000000e0: 0c39 673a 6b5a 2b3c 4b9c 19be d9a0 0ebd
000000f0: d461 87bc a62f ddbd 2a1d cabd d2be 4d3c
00000100: bfd5 d0bd f942 9ebd 7bf3 1e3d 5c4b cabd
00000110: 1111 00be c86b 15be af73 c4bd 46ce 863d
00000120: 3935 a6bc a29c 87bd 74df 7cbd f275 943c
00000130: 09ec e4bd 4a14 69bd 0ad0 3bbe 9f1f 03bc
00000140: 28c1 f2bd 3657 94bd aaa7 e2bd f5db 19be
00000150: 7fcc a2bd 30f9 cb3d 5435 063d 7cd2 67bd
00000160: 8c1e c4bd 5a0b 24bd 60b9 0ebe 4a6e a4bd
00000170: 4730 97bd 8ee3 17bd ad35 b3bd bb5f a3bc
00000180: 97c4 12be 9acb cc3d 7363 5bbd 68c1 7ebd
00000190: 4c30 15be bad8 ccbd 2a16 d83c b713 4ebd
000001a0: ab7a a33d 3224 30be c9c5 fbbd 8fe0 07be
000001b0: 98dc a9bd ebaa 86bd cd5b 63bb 2826 afbd
000001c0: d9a8 ab3d 0e3d 51bd 5ab3 05be 516e 15bd
000001d0: 4ab1 eb3c f358 30be c7b0 d7bd 9e8b 52bc
000001e0: 2834 21bc e08d 04bb 502e 233c 8477 0cbc
000001f0: 88fb 17be 8f96 1ebe 6d90 dfbc 17a0 71bc
00000200: 9b50 bbbd 3bb7 24be 463d 32be 58b1 c03c
00000210: 8085 acbd 88bd a2bd b333 25bd 97ba fbbd
00000220: 7431 01be 36d0 12be 9eb7 41bd 4da2 b1bb
00000230: 2d21 c6bb 768d c4bd 1061 0dbd b8a1 09be
00000240: 8d9e 9bbd e34e 1fbd eb4f 1dbd c583 95bd
00000250: 61a1 cdbd 319d 8d3d 96a0 41bd 99a1 97bd
00000260: 8d13 2ebe c766 d6bd 8ac2 b5bc 5e17 bbbc
00000270: a565 53bd 34cd 42be 6eec c0bd 6840 383b
00000280: 1f48 b1bd c8d8 abbd 444f 693d 10f0 64be
00000290: 8d36 6a3d 4214 0dbe b48d b5bd 0315 bdbb
000002a0: a186 ddbd 0688 0ebe ee0c e7bb 4bbe 1ebe
000002b0: e41b 25bd 3db1 1ebe 0075 1bbc 7999 30bd
000002c0: cecc 30bd 498f 09be be9b e3bd 33de 84bd
000002d0: 1ff4 72bd e76c 163d 4ca8 d5bd 6278 75bb
000002e0: 9697 0abe 2c68 8b3d 13f0 34bd 6dcb f6bd
000002f0: 2c73 c1bd cea3 e9bd d733 863d 3d71 983d
00000300: bacd 39bd c85e 2f3c d4ae 6abd 66b1 91bd
00000310: 92c7 713d ad9b 0cbb 521b 5ebe 4827 ecba
00000320: c28e ac3c ed98 f4bd 3f35 1abe 3332 b0bd
00000330: fab6 71bd c79f 29be 4835 c0bd af4c 0bbd
00000340: 277a 153d 8014 96bd 1d4e d93d 0fb3 78bd
00000350: f834 99bc c552 03bc f975 52be d24f d8bd
00000360: f3c8 903d 8f4c eabd f3a5 aabd fd41 d1bd
00000370: 4f64 383d 493e 97bd c442 843d 8567 35bc
00000380: 1d45 7cbd c6e6 07bd ac46 0abe a646 a4bc
00000390: 6af9 43bd 3afb 3ebd d724 bebd 617e e2bd
000003a0: d868 1bbd e28a 0abe 8771 23be 8e74 753c
000003b0: e1db 41bd 57ee efbd 1d51 09be 0c04 7dbc
000003c0: 2e33 3e3d e24e 32bd 10fc cfbd 3029 8d3d
000003d0: 2fcb d2bd acfc 803d fd20 acbd 5417 a3bd
000003e0: cefd 63bc 4fb9 9dbd 5d01 0dbc 3277 b23d
000003f0: ba6d 6d3c dc77 7abb e151 adbd 0ea6 083d
