trained_data/ddpg/walls_G_350_450/critic_ddpg.pth (torch, 506930 bytes, 11 tensors)

fc1.weight f4 [400, 6]
0.08659623 0.06460642 0.021147538 -0.07606946 0.052339192 -0.0016588306 0.103228316 0.056002673
-0.00014899916 0.09467456 0.051899757 -0.0011223897 0.061657507 0.050705638 -0.6552006 0.09957977
0.022279508 0.047935747 0.046564702 0.08299179 -0.012878923 0.19546042 -0.12258718 -0.059410173
0.103239805 -0.027119083 -0.27948824 0.088498786 -0.042232238 -0.009064181 0.08475471 0.08691038
0.046754055 0.050761476 0.037719566 -0.0020069613 0.061176613 0.06785149 0.03398146 0.44597402
0.17688304 0.01973521 0.06852616 0.0741147 0.114934675 0.18284135 0.18362395 0.0021017021
-0.046625435 0.14740735 0.21978912 0.18582799 0.061655737 -0.008306263 0.06925205 0.07751539
0.029652381 0.1075633 0.08015855 -0.0023566713 0.058224406 0.14270003 0.013877041 0.065627284
0.04701944 -0.0034273346 0.06310867 0.09722047 0.49157822 0.22233793 0.22920729 0.18096222
0.08252293 0.059008054 0.0011900435 0.12849694 0.043201655 -0.0017688235 0.050367128 0.07472965
0.6396693 -0.07971697 0.2498001 0.014521601 0.03611934 0.08604101 -0.021114996 -0.029985107
0.037498783 -0.0034099864 0.041715562 0.10192886 0.07241043 -0.024459729 0.028478127 -0.0034037593
0.058265913 0.08367831 0.20010129 -0.14483167 0.4171456 0.034100488 0.10366633 0.054322444
-0.004249818 0.104169905 0.04976672 -0.0010911616 0.08598684 -0.020314908 -0.5597045 0.1702619
0.19844681 0.073062256 0.07483277 0.08220237 0.016160693 0.049539305 0.028113816 -0.0067189774
0.06548066 0.07075669 0.76619893 -0.47113577 0.19578348 0.17481573 0.06794392 0.09019001
-0.0005244643 0.049275793 0.077761896 -0.0025244849 0.08056604 -0.0022496614 0.420631 0.29099536
-0.964752 0.062995456 0.06740856 0.053791534 -0.03425347 0.020765651 -0.028535265 0.6042711
0.038551386 0.11505972 -0.18502332 -0.11765296 0.40085912 -0.022312015 0.08749022 0.080867946
0.004203495 0.11206682 0.044881642 -0.0018717371 0.0852257 0.09670057 0.2626527 -1.0949326
-0.53240496 -0.077748686 0.07234896 0.02705014 -0.6310703 -0.19629477 0.13947147 -0.041446507
0.08174755 0.07749061 0.06616384 0.06623381 -0.018440325 -0.0019013009 0.10501478 0.051100098
-0.0022875615 0.111543655 0.053656396 -0.0010175338 0.07780438 0.0059550414 0.030111335 0.06456997
0.041361775 -0.0014236214 0.074062824 0.06440911 0.33821818 -0.47335452 -0.4970644 -0.14891869
0.064101696 0.058082648 -0.061400417 0.40381777 0.18031654 0.69476736 0.083184816 0.07746393
0.0051577617 0.110384084 0.050275292 -0.0019482577 0.07510327 0.02575371 -0.385193 0.14589244
0.23618728 0.24951318 -0.055945173 0.13227919 0.2905809 -0.064068034 0.21691428 -0.037736543
0.071681246 0.06794829 -0.105708264 0.2533552 -0.5815656 -0.0053545358 0.08354249 0.10032731
0.0026388166 0.067087606 0.04828283 -0.0022049565 0.04946579 -0.020246495 0.13077725 -0.13946351
0.056821056 -0.0021469572 0.05907172 0.09578617 0.1776461 -0.25614315 -0.03906795 -0.0017014478
0.059975814 0.07426963 0.19278255 -0.16005181 -0.030808443 -0.0018601627 0.07598144 0.08244421
0.019301027 0.043844208 0.08456606 -0.002203927 0.10569908 0.049382895 0.0011644047 0.10246086
00000000: 5d59 b13d 5f50 843d 9a3d ad3c 4eca 9bbd
00000010: 9f61 563d 1e6d d9ba 5e69 d33d 0f63 653d
00000020: a83c 1cb9 bce4 c13d d794 543d 261d 93ba
00000030: 958c 7c3d b7b0 4f3d 3abb 27bf 7af0 cb3d
00000040: 8483 b63c 4658 443d a1ba 3e3d 99f7 a93d
00000050: 1e02 53bc c726 483e fd0e fbbd 1558 73bd
00000060: 646f d33d d728 debc 1519 8fbe da3e b53d
00000070: b6fb 2cbd ee81 14bc e193 ad3d 12fe b13d
00000080: 2e81 3f3d 44eb 4f3d d57f 1a3d 3987 03bb
00000090: 5494 7a3d b9f5 8a3d 2530 0b3d b556 e43e
000000a0: d420 353e bcab a13c 7257 8c3d 73c9 973d
000000b0: df62 eb3d c33a 3b3e eb07 3c3e b6bc 093b
000000c0: 50fa 3ebd f4f1 163e 6610 613e b149 3e3e
000000d0: ba8a 7c3d fe16 08bc 05d4 8d3d 64c0 9e3d
000000e0: 8de9 f23c 264a dc3d 2a2a a43d 6272 1abb
000000f0: b77c 6e3d f51f 123e 875c 633c 9967 863d
00000100: 7597 403d 229d 60bb 1e3f 813d 871b c73d
00000110: 24b0 fb3e 8eac 633e 51b5 6a3e 294e 393e
00000120: c801 a93d 6eb2 713d 3cfb 9b3a b494 033e
00000130: 38f4 303d ded7 e7ba c34d 4e3d dc0b 993d
00000140: 5ec1 233f a742 a3bd 99cb 7f3e 02ec 6d3c
00000150: e0f1 133d 4536 b03d 5bf9 acbc 54a3 f5bc
00000160: 5398 193d 147a 5fbb f0dd 2a3d 14c0 d03d
00000170: eb4b 943d c55f c8bc f64a e93c 9b11 5fbb
00000180: 3da8 6e3d 895f ab3d 5ae7 4c3e c14e 14be
00000190: 1c94 d53e f4ac 0b3d 034f d43d 3681 5e3d
000001a0: 0f42 8bbb 0857 d53d 30d8 4b3d 4f05 8fba
000001b0: de19 b03d 736b a6bc cb48 0fbf 2359 2e3e
000001c0: a435 4b3e aaa1 953d ec41 993d b759 a83d
000001d0: 6e63 843c bae9 4a3d f24e e63c de2a dcbb
000001e0: b91a 863d e2e8 903d 9d25 443f b538 f1be
000001f0: 777b 483e e502 333e 2f26 8b3d 8ab5 b83d
00000200: 347c 09ba 6ad5 493d a141 9f3d d471 25bb
00000210: cfff a43d 0e6f 13bb f25c d73e 58fd 943e
00000220: fdf9 76bf c303 813d 800d 8a3d 8354 5c3d
00000230: 5e4d 0cbd ba1c aa3c cac2 e9bc 83b1 1a3f
00000240: 0fe8 1d3d 6ea4 eb3d c176 3dbe 09f4 f0bd
00000250: 683d cd3e b0c7 b6bc 132e b33d 189e a53d
00000260: 79bd 893b 4a83 e53d d0d5 373d 1355 f5ba
00000270: d08a ae3d f30a c63d 6a7a 863e c026 8cbf
00000280: b14b 08bf b43a 9fbd b12b 943d 4198 dd3c
00000290: d38d 21bf 7f01 49be 9cd1 0e3e d0c3 29bd
000002a0: 426b a73d 66b3 9e3d e880 873d 97a5 873d
000002b0: 2a10 97bc 1235 f9ba fd11 d73d 564e 513d
000002c0: eaea 15bb 0071 e43d cfc6 5b3d c55e 85ba
000002d0: e757 9f3d 8222 c33b 0cac f63c 433d 843d
000002e0: f76a 293d cf98 baba 40ae 973d ece8 833d
000002f0: ef2a ad3e 865b f2be 3a7f febe 247e 18be
00000300: c047 833d 12e8 6d3d 017f 7bbd 34c1 ce3e
00000310: e6a4 383e 46dc 313f cd5c aa3d 69a5 9e3d
00000320: 7102 a93b 0d11 e23d 77ed 4d3d ae5c ffba
00000330: becf 993d 72f9 d23c 0438 c5be d464 153e
00000340: 14db 713e 6280 7f3e c426 65bd 3274 073e
00000350: 05c7 943e 1a36 83bd c71e 5e3e a291 1abd
00000360: 9ecd 923d 7928 8b3d 937d d8bd c6b7 813e
00000370: 7ce1 14bf 1a75 afbb 5318 ab3d 6878 cd3d
00000380: ffef 2c3b 3a65 893d 37c4 453d 0881 10bb
00000390: a49c 4a3d fadb a5bc 79ea 053e 86cf 0ebe
000003a0: 32bd 683d f7b3 0cbb 30f5 713d 8a2b c43d
000003b0: dce8 353e 3225 83be b705 20bd 1d03 dfba
000003c0: 33a9 753d ad1a 983d ca68 453e 9fe4 23be
000003d0: fd61 fcbc b4d0 f3ba 289c 9b3d 83d8 a83d
000003e0: 301d 9e3c fc95 333d f830 ad3d c26f 10bb
000003f0: c278 d83d b845 4a3d f09e 983a 00d7 d13d

fc1.bias f4 [400]
-0.17378406 -0.18974441 0.6729587 0.44472408 0.9105937 -0.20155045 -0.17937791 -0.16938858
-0.19034459 -0.19831249 -0.18147317 -0.24074884 -0.1974816 -0.22489083 -0.16338521 -0.14495705
-0.2361477 -0.18923208 -1.4190712 -1.4909767 -0.013456074 -0.17781718 0.17274728 1.541552
-0.4370362 -0.19211836 -0.41600582 -0.28630012 -0.2438422 -0.18918793 -0.03889359 -0.49345377
1.2264018 -0.20841603 1.1465266 -0.2867589 -0.68610764 -0.18408021 -0.22984456 -0.20946065
-0.19810228 -0.17520726 -0.18989925 -0.18959032 -0.13713835 -0.21966854 0.7110223 -0.18920298
-0.15601173 -0.63968736 1.0385075 -0.20421937 -0.19271885 1.3912345 -0.18989405 -1.2221212
-0.57776463 -0.27931064 -0.19548433 -0.030368494 0.7915829 -0.2963889 0.16887815 0.6824562
0.11215988 1.1327106 -0.38306367 -0.30514738 -0.19357081 -0.6682092 -0.1887997 -0.21370324
-0.17318378 -0.18844384 -0.16101097 -0.21058677 -0.13540731 -0.18993898 -0.18974319 -0.19911154
-0.12004913 -0.2045 1.0781256 -0.19121432 -0.1914179 -0.18939638 -0.17663908 -1.2611637
-0.38952222 -0.19034298 -0.15612002 -0.2254805 -0.19335712 -0.19902083 -0.19988693 -0.21305506
-0.18965295 -0.059989817 -0.17414258 0.17144175 -0.17985034 -0.19754982 -0.20824255 -0.16743962
-0.19368638 -0.19356777 -0.22617 -0.52075076 -0.19249168 -0.20995642 -0.19020164 -0.1887427
-0.18941805 -0.32242614 -0.1933915 -0.9878667 -0.18992665 -0.19006911 -0.119659446 -0.48629826
-0.20478654 -0.20026767 -0.19925955 -0.29159427 -0.3038235 -0.20585011 -0.18977341 -0.53277516
0.027908213 -0.19145495 -0.13455488 0.04981446 1.3451322 -0.20062856 -0.19407904 0.11820501
-0.9634789 -0.22143468 -0.12102356 -0.036024366 -0.11879495 -0.45446545 -0.18927847 0.82540345
-0.24968068 -0.20361191 -0.1915813 -0.18095541 -0.17343593 -0.22190681 -0.20868568 1.2374442
-0.012380901 -0.41053864 -1.6971033 -0.1610838 -0.26513284 -0.18914092 1.2258991 -0.041565236
-0.22885439 -0.05160482 -0.33434483 -0.18965386 -0.19151403 -0.21283242 -0.19007875 1.2544773
-0.19695842 -0.241495 -0.20226863 -0.21624844 -0.2036719 -0.87468493 -0.19539689 -0.36659995
-0.19765656 -0.47432956 0.6251266 -0.10296143 -0.19033036 -0.79589605 -0.18851721 -1.5801958
-0.18893737 -0.19168282 -0.18977629 -0.34897977 -0.1700078 0.7152044 -0.15725741 0.018287515
-0.27102202 -0.08877981 -0.18674086 -0.19284402 0.19772832 -0.18882003 -0.49929267 -0.19040458
-0.5272963 -0.18879154 -0.18750225 -0.18911594 -1.1986607 -0.092767514 0.020458767 -0.20837808
-0.1609802 -1.5821031 -0.20780943 -0.49766842 -0.15904571 -0.1907771 -0.08780884 0.9006353
-0.19406976 -0.17539571 -0.2674382 -0.19011904 0.111316584 -0.18402635 -0.026778689 -0.2706266
-0.20316325 -0.18920328 -1.4742972 -0.20912461 -0.1952468 -0.18991475 -0.18419307 0.9116441
0.0323675 -0.1925038 -0.32806203 -0.29668614 -0.44365337 1.3641323 -0.41514003 -0.1999028
-0.21947369 -0.16757919 -0.19104497 -0.20237811 0.75605285 -0.22975388 -0.18892029 -0.19002852
-0.34727514 -0.17044267 -0.18033971 0.61881095 -0.20924973 0.011228333 -0.3026565 -0.18748446
00000000: 73f4 31be 5c4c 42be 0547 2c3f e0b2 e33e
00000010: ab1c 693f 3e63 4ebe d8ae 37be 3374 2dbe
00000020: b1e9 42be 6e12 4bbe 1ad4 39be dd86 76be
00000030: 9e38 4abe c849 66be 744e 27be 9f6f 14be
00000040: b4d0 71be 0ec6 41be 20a4 b5bf 53d8 bebf
00000050: dd76 5cbc b515 36be aae4 303e 9351 c53f
00000060: 35c3 dfbe adba 44be b7fe d4be ee95 92be
00000070: c5b1 79be 7bba 41be e34e 1fbd f9a5 fcbe
00000080: bcfa 9c3f 036b 55be 62c1 923f 10d2 92be
00000090: c0a4 2fbf 867f 3cbe 5f5c 6bbe da7c 56be
000000a0: 53db 4abe 8869 33be f374 42be f723 42be
000000b0: ff6d 0cbe caf0 60be 8f05 363f 6dbe 41be
000000c0: 8ac1 1fbe 8dc2 23bf d0ed 843f e21e 51be
000000d0: 1758 45be f913 b23f 9673 42be 786e 9cbf
000000e0: 62e8 13bf ce01 8fbe 0b2d 48be 59c7 f8bc
000000f0: 2da5 4a3f 49c0 97be 65ee 2c3e 73b5 2e3f
00000100: 14b4 e53d a9fc 903f ec20 c4be 473c 9cbe
00000110: 6d37 46be c20f 2bbf b554 41be 06d5 5abe
00000120: 1757 31be 6cf7 40be 0fe0 24be 0fa4 57be
00000130: 37a8 0abe 5d7f 42be 0a4c 42be e5e3 4bbe
00000140: 51dc f5bd 7368 51be 0500 8a3f b0cd 43be
00000150: 0e03 44be 20f1 41be e0e0 34be d06d a1bf
00000160: 756f c7be 45e9 42be eddd 1fbe 5ce4 66be
00000170: 69ff 45be 1ecc 4bbe 29af 4cbe 1b2b 5abe
00000180: 6234 42be e2b7 75bd 6f52 32be 6d8e 2f3e
00000190: b02a 38be 804a 4abe 893d 55be 4b75 2bbe
000001a0: b955 46be a136 46be 1c99 67be ec4f 05bf
000001b0: 8a1c 45be d1fe 56be 38c4 42be c445 41be
000001c0: cef6 41be 0a15 a5be 6c08 46be d5e4 7cbf
000001d0: 227c 42be 7aa1 42be 0310 f5bd 16fc f8be
000001e0: 90b3 51be f812 4dbe b20a 4cbe d84b 95be
000001f0: c18e 9bbe 5fca 52be f653 42be f463 08bf
00000200: c49f e43c c40c 44be c1c8 09be 3f0a 4c3d
00000210: 4b2d ac3f 9371 4dbe a8bc 46be 7815 f23d
00000220: 8ea6 76bf c6bf 62be 33db f7bd 498e 13bd
00000230: c44a f3bd b2af e8be 37d2 41be a44d 533f
00000240: 4bac 7fbe a47f 50be e32d 44be 604c 39be
00000250: 3099 31be 8a3b 63be b3b1 55be 9264 9e3f
00000260: 43d9 4abc 1f32 d2be ae3a d9bf 27f3 24be
00000270: 7ebf 87be 28ae 41be 43ea 9c3f 4f40 2abd
00000280: ce58 6abe 935f 53bd 3f2f abbe 9f34 42be
00000290: 411c 44be bef0 59be 01a4 42be b692 a03f
000002a0: 78af 49be 774a 77be 821f 4fbe 3b70 5dbe
000002b0: 5e8f 50be 5aeb 5fbf 1f16 48be fdb2 bbbe
000002c0: 7b66 4abe 53db f2be 4c08 203f 71dd d2bd
000002d0: f6e5 42be d8bf 4bbf a80a 41be db43 cabf
000002e0: cc78 41be 8048 44be b754 42be 7aad b2be
000002f0: 8616 2ebe a317 373f 1608 21be b3cf 953c
00000300: 66c3 8abe 30d2 b5bd ff38 3fbe e778 45be
00000310: 4b79 4a3e 0a5a 41be 4aa3 ffbe 6bf9 42be
00000320: e4fc 06bf 9252 41be 9700 40be 9ca7 41be
00000330: b76d 99bf e5fc bdbd 2599 a73c 1061 55be
00000340: fed7 24be 5b82 cabf ffcb 54be 65ce febe
00000350: e1dc 22be 125b 43be 1fd5 b3bd 0990 663f
00000360: 39ba 46be ef9a 33be a9ed 88be 91ae 42be
00000370: f3f9 e33d 6771 3cbe fb5e dbbc 928f 8abe
00000380: 070a 50be 81be 41be c5b5 bcbf c324 56be
00000390: c7ee 47be 0379 42be 1c9d 3cbe 8261 693f
000003a0: c993 043d b71f 45be bff7 a7be 3fe7 97be
000003b0: 8926 e3be e39b ae3f 3c8d d4be 52b3 4cbe
000003c0: b6bd 60be e199 2bbe 4ba1 43be 353c 4fbe
000003d0: ae8c 413f 9a44 6bbe 5274 41be d696 42be
000003e0: 0cce b1be 8688 2ebe f9aa 38be 656a 1e3f
000003f0: 9045 56be 0bf7 373c cbf5 9abe edfb 3fbe

fc2.weight f4 [300, 400]
0.00075461733 -2.5157624e-27 0.06690337 -0.016327742 0.11431603 4.95e-43 -0.03789527 0.012971654
-0.043163545 -4.95e-43 4.92e-43 -0.025755526 4.93e-43 -0.020498192 -4.93e-43 -4.93e-43
0.033337843 0.0018916558 0.020065876 -0.12702058 0.08273285 4.93e-43 -0.021743052 0.22769783
0.026448816 -4.96e-43 -0.021795556 0.039736927 4.732153e-10 -1.4175627e-20 0.0002499279 -0.069942154
0.1598445 -4.93e-43 0.07835549 -0.0055996873 0.02547584 4.95e-43 -4.93e-43 0.108454406
1.5013502e-13 -4.95e-43 -0.00030242762 -1.1249396e-12 0.01707711 -7.445729e-06 -0.0011957383 -8.77855e-06
-0.0075667193 0.054965734 -0.08634178 -4.95e-43 -2.0589985e-13 0.039912023 -4.92e-43 -0.070191376
-0.0126829455 -0.070106484 -4.95e-43 -0.07891875 0.048207168 -0.030586094 -7.51878e-10 0.07258724
0.053713564 -0.03241915 0.00404074 0.06967947 0.083649494 -0.08342836 4.93e-43 4.95e-43
0.00019269461 0.008711774 -4.95e-43 -4.95e-43 0.019023286 4.93e-43 -5.965934e-27 -4.95e-43
0.023603627 -4.93e-43 0.092971794 -0.00050825 -0.0001517399 -0.000564419 -0.0065728556 -0.059015173
-0.010684957 -7.104706e-05 -9.347814e-18 0.0009091939 -0.00015630198 4.95e-43 4.93e-43 0.061763432
6.52885e-05 0.001924677 -0.00015925596 0.051276784 7.1432576e-30 -6.8034634e-16 -0.00018717443 1.1936438e-32
-4.93e-43 -0.0003176697 4.93e-43 -0.051052835 4.95e-43 0.001892764 4.95e-43 1.1187115e-09
-5.44e-43 0.009682344 4.96e-43 -0.04007238 0.0006306804 -0.001995675 0.019251864 -0.07217203
2.1080484e-06 5.02e-43 -1.0861562e-14 0.033736717 -0.023009669 4.93e-43 3.877425e-21 0.014240962
-1.3940412e-26 -4.93e-43 -0.0005473786 -0.021469753 -0.1721386 -4.95e-43 4.95e-43 0.003533641
-4.95e-43 0.090280384 -4.92e-43 -0.0098496 0.006279411 0.0020650898 9.552298e-05 0.11035557
-0.025165875 4.93e-43 0.0010619023 -4.93e-43 -0.0016342074 2.5153602e-07 2.1383471e-08 -0.057842918
-0.005154494 -0.0758384 -0.0014914058 0.053994834 4.96e-43 -1.3420256e-13 0.12513135 0.00046624136
4.93e-43 0.024780275 -0.0011340621 -4.93e-43 4.95e-43 1.9825556e-11 -4.92e-43 -0.08201104
4.95e-43 -0.018469274 4.93e-43 0.007903215 0.01514808 -0.10982961 -5.18e-43 0.0015254287
4.93e-43 0.02319579 0.012107832 -0.10325966 -4.92e-43 -0.04289461 -4.05e-43 -0.010811548
-4.96e-43 0.002703902 1.3948858e-33 0.0046827886 -0.031266917 0.050324887 -0.0005464361 0.026825035
-0.0040768455 -4.93e-43 4.93e-43 -4.93e-43 4.95e-43 4.95e-43 0.02746721 -7.096689e-24
-0.0016224124 7.791802e-23 4.95e-43 4.92e-43 -0.008915799 0.09331368 0.015642589 4.93e-43
-7.325549e-05 -0.027183322 -7.776439e-05 -0.111156315 0.008569809 5.483175e-06 -0.0154069 -0.020239683
1.1122016e-11 9.778407e-06 0.030975519 4.19441e-07 0.04121815 -4.93e-43 -0.0018005442 -0.004187364
-4.93e-43 -1.331869e-10 0.036842644 -4.95e-43 -4.92e-43 4.68281e-10 0.018086936 -0.014981659
0.0040182555 -0.0006592206 -0.020512208 0.00066834636 -0.10519464 0.07240177 -0.002080736 0.00075721653
0.011367914 2.4647051e-22 -4.92e-43 0.0001012154 0.035958547 0.0008841593 4.95e-43 1.0952804e-22
0.021548303 -4.92e-43 -0.0007758149 0.043728177 4.8522117e-11 0.016869456 0.01546927 4.95e-43
00000000: 83d1 453a b951 4793 a204 893d c2c1 85bc
00000010: 861e ea3d 6101 0000 1238 1bbd 0f87 543c
00000020: 42cc 30bd 6101 0080 5f01 0000 41fd d2bc
00000030: 6001 0000 d3eb a7bc 6001 0080 6001 0080
00000040: 438d 083d 70f1 f73a 3161 a43c af11 02be
00000050: d76f a93d 6001 0000 7c1e b2bc 9f29 693e
00000060: 30ab d83c 6201 0080 988c b2bc 30c3 223d
00000070: 9113 0230 90e2 859e c108 8339 d53d 8fbd
00000080: 47ae 233e 6001 0080 d878 a03d 957d b7bb
00000090: b5b2 d03c 6101 0000 6001 0080 581d de3d
000000a0: 7909 292a 6101 0080 268f 9eb9 3852 9eab
000000b0: 4ce5 8b3c 53d6 f9b6 52ba 9cba 9647 13b7
000000c0: 3ef2 f7bb c023 613d f6d3 b0bd 6101 0080
000000d0: 97d2 67aa ca7a 233d 5f01 0080 7fc0 8fbd
000000e0: 21cc 4fbc fd93 8fbd 6101 0080 27a0 a1bd
000000f0: e174 453d b08f fabc b6ac 4eb0 9ea8 943d
00000100: c102 5c3d f1c9 04bd 2f68 843b 1cb4 8e3d
00000110: 6d50 ab3d 7ddc aabd 6001 0000 6101 0000
00000120: 110e 4a39 d4bb 0e3c 6101 0080 6101 0080
00000130: b9d6 9b3c 6001 0000 c255 ec93 6101 0080
00000140: 655c c13c 6001 0080 ff67 be3d 153c 05ba
00000150: 5f1c 1fb9 85f5 13ba 1c61 d7bb e5b9 71bd
00000160: f50f 2fbc 1aff 94b8 ce6f 2ca3 f856 6e3a
00000170: fee4 23b9 6101 0000 6001 0000 a7fb 7c3d
00000180: 7feb 8838 7245 fc3a f2fd 26b9 9b07 523d
00000190: eae1 100f b318 44a6 4144 44b9 fee8 770a
000001a0: 6001 0080 e88c a6b9 6001 0000 c71c 51bd
000001b0: 6101 0000 9f16 f83a 6101 0000 29c1 9930
000001c0: 8401 0080 b2a2 1e3c 6201 0000 f022 24bd
000001d0: 3f54 253a dfc9 02bb 16b6 9d3c eece 93bd
000001e0: ff77 0d36 6601 0000 1daa 43a8 832f 0a3d
000001f0: c67e bcbc 6001 0000 277c 921d ed52 693c
00000200: 250f 8a94 6001 0080 f57d 0fba 56e1 afbc
00000210: 1a45 30be 6101 0080 6101 0000 a994 673b
00000220: 6101 0080 ece4 b83d 5f01 0080 3760 21bc
00000230: 84c3 cd3b 7556 073b 8253 c838 1a02 e23d
00000240: aa28 cebc 6001 0000 872f 8b3a 6001 0080
00000250: e732 d6ba d90a 8734 c0ae b732 b2ec 6cbd
00000260: 08e7 a8bb 2a51 9bbd 467b c3ba b029 5d3d
00000270: 6201 0000 4119 17aa 6f22 003e db71 f439
00000280: 6001 0000 0100 cb3c cfa4 94ba 6001 0080
00000290: 6101 0000 2f63 ae2d 5f01 0080 67f5 a7bd
000002a0: 6101 0000 e04c 97bc 6001 0000 7c7c 013c
000002b0: a72f 783c 59ee e0bd 7201 0080 e5f0 c73a
000002c0: 6001 0000 1905 be3c ee5f 463c cd79 d3bd
000002d0: 5f01 0080 42b2 2fbd 2101 0080 eb22 31bc
000002e0: 6201 0080 f333 313b e1c3 e708 1472 993b
000002f0: bd11 00bd 7821 4e3d b53e 0fba 2dc0 db3c
00000300: 0f97 85bb 6001 0080 6001 0000 6001 0080
00000310: 6101 0000 6101 0000 ea02 e13c 1a45 0999
00000320: 20a7 d4ba eb64 bc1a 6101 0000 5f01 0000
00000330: 9213 12bc 3e1b bf3d e324 803c 6001 0000
00000340: bea0 99b8 8faf debc 7015 a3b8 eca5 e3bd
00000350: 6268 0c3c 1dfc b736 396d 7cbc b1cd a5bc
00000360: 1ba9 432d f00d 2437 5fc0 fd3c 882f e134
00000370: 5dd4 283d 6001 0080 3d00 ecba 2836 89bb
00000380: 6001 0080 c870 12af 50e8 163d 6101 0080
00000390: 5f01 0080 59b8 0030 0e2b 943c a275 75bc
000003a0: 92ab 833b 8ccf 2cba 3809 a8bc f733 2f3a
000003b0: 4a70 d7bd 6147 943d f55c 08bb f17f 463a
000003c0: 7d40 3a3c 77fb 941b 5f01 0080 9b43 d438
000003d0: 4549 133d edc6 673a 6101 0000 4969 041b
000003e0: 1186 b03c 5f01 0080 0e60 4bba 511c 333d
000003f0: 0c67 552e d031 8a3c d272 7d3c 6101 0000

fc2.bias f4 [300]
0.013433182 0.055394474 0.028271155 0.04676837 0.061484348 0.03248081 0.039074004 0.03196553
0.060695134 0.0054521826 0.08972463 0.05693204 0.074370764 0.04544131 0.040582 -0.024823962
0.0015227636 0.06626855 -0.0043286267 0.03288225 0.020801172 0.032588366 0.01934111 0.054319706
0.0686043 0.040949464 0.12186791 0.040523656 -0.0066874526 0.03862126 0.02075355 0.0042920173
0.05332314 0.05440788 0.04860984 0.02334417 0.020819213 0.025054907 -0.03320627 0.060341984
0.030009737 0.04444136 0.04269753 0.04073984 -0.050574604 0.037063275 0.043251492 0.04784297
0.010343968 0.10566085 0.035870053 0.1329043 0.053675324 0.0029509875 0.04887908 -0.042769127
0.001137697 0.022146307 0.054421984 0.015814006 0.034696307 -0.007671316 -0.026890796 0.012184539
0.037828416 0.043696277 0.014142742 -0.007669914 0.043975864 0.00044349983 -0.0081577245 0.050824795
0.04341929 -0.011420783 0.09001269 0.035461754 -0.01429443 0.063504376 0.055318817 0.053665493
0.034645032 0.038564425 0.024208454 -0.032190464 0.059273113 -0.081410274 0.040024687 -0.0060851607
0.05687914 0.064056605 0.053788383 0.026918273 0.04146721 0.052289963 0.042736344 0.06505494
0.030462835 0.03370584 -0.071479104 0.01689625 0.044188015 0.03400134 -0.0011637391 0.046941236
0.037334975 0.069202 0.10075429 0.03861574 0.039416607 0.0538534 -0.06979017 0.042768713
0.044909284 0.046649333 0.03967833 -0.03787826 0.017280938 -0.03638563 0.04801237 0.009762463
0.054192428 0.03728696 0.040341437 0.019607784 0.038827416 0.029113581 -0.04634072 0.05474299
0.056670643 0.05039295 0.03864559 0.023358306 0.04622726 0.03970672 0.034056123 0.047891725
0.03581214 0.036370195 0.045377217 -0.028753243 0.024853075 0.0034802826 0.043331705 0.0526168
0.053346165 0.046629947 0.041485615 0.045054927 0.032392595 0.032756336 0.02019115 0.0646061
0.03547768 0.05401148 0.009917999 -0.007367999 0.035357587 0.025246006 0.03713202 0.02214153
0.023232238 0.061754458 0.027814662 0.07872822 0.025702337 0.040441763 0.034334324 0.02939584
-0.002482258 0.047258228 0.030854635 0.015099561 0.05227651 0.053237896 0.0017080487 0.034521796
0.036823038 0.053356864 0.049476553 0.020248955 0.03708234 0.045559764 0.037541863 0.034851618
0.04218836 0.039781906 0.04498248 0.04101061 0.026108831 0.041201703 0.009094908 0.057559572
0.029316448 0.04518168 0.046978246 0.0461151 0.05848692 0.05438858 0.09019421 0.049334176
0.06519001 0.0014189491 -0.03307995 0.064071685 0.05082578 0.03755743 0.022096947 0.057009257
0.04118816 0.03563883 0.061203655 0.033504106 0.057691008 0.034098744 0.06445545 0.07779723
0.035087846 0.037980705 0.04042763 0.037262004 0.045473695 -0.010032803 0.08304533 0.044391725
0.02225334 0.0694009 0.058532853 0.017363518 0.040960595 0.034849457 -0.020282026 0.037007157
0.04598512 0.07109013 0.049292196 0.043231547 0.057789467 0.0485649 0.027090298 0.054269414
0.05206134 0.03527163 0.031801943 0.0162194 0.033829495 0.026469586 0.04337567 0.05569441
0.090555824 0.041215632 0.05279932 0.03640493 0.045897312 0.023070809 -0.015981978 0.04038616
00000000: d916 5c3c 51e5 623d e998 e73c 3190 3f3d
00000010: 03d7 7b3d 990a 053d 100c 203d 4aee 023d
00000020: 769b 783d 39a8 b23b 8cc1 b73d 9231 693d
00000030: b34f 983d ab20 3a3d 5039 263d 9f5b cbbc
00000040: 7897 c73a ceb7 873d 27d7 8dbb 8aaf 063d
00000050: 3867 aa3c 617b 053d 3f71 9e3c 577e 5e3d
00000060: 6980 8c3d a0ba 273d e295 f93d 22fc 253d
00000070: 6b22 dbbb 5431 1e3d 5903 aa3c 0da4 8c3b
00000080: 5d69 5a3d ccda 5e3d 1d1b 473d 463c bf3c
00000090: 0e8d aa3c f33f cd3c 4c03 08bd 2829 773d
000000a0: fbd6 f53c 2508 363d 9be3 2e3d d2de 263d
000000b0: 5127 4fbd a9cf 173d 7a28 313d fdf6 433d
000000c0: bf79 293c b764 d83d 7aec 123d 1118 083e
000000d0: a8da 5b3d 5b65 413b 6e35 483d ae2e 2fbd
000000e0: c71e 953a 2c6c b53c 96e9 5e3d 608c 813c
000000f0: b71d 0e3d aa5f fbbb 164a dcbc a9a1 473c
00000100: f8f1 1a3d defa 323d f6b6 673c e753 fbbb
00000110: 0920 343d 8a85 e839 faa7 05bc a92d 503d
00000120: 6dd8 313d 3c1e 3bbc 9358 b83d 5840 113d
00000130: 2f33 6abc 950e 823d fc95 623d 59d0 5b3d
00000140: f3e7 0d3d bbf5 1d3d cf50 c63c 26da 03bd
00000150: 5dc8 723d 6eba a6bd edf0 233d 0766 c7bb
00000160: 1afa 683d 1c30 833d 3551 5c3d b683 dc3c
00000170: 85d9 293d 002e 563d 4e0c 2f3d 863b 853d
00000180: 328d f93c 230f 0a3d a363 92bd 016a 8a3c
00000190: 7efe 343d fd44 0b3d 9b88 98ba 7445 403d
000001a0: 8fec 183d c7b9 8d3d 4458 ce3d 8a2b 1e3d
000001b0: 4f73 213d 6295 5c3d 26ee 8ebd 3f2e 2f3d
000001c0: ccf2 373d 5f13 3f3d bf85 223d 3c26 1bbd
000001d0: c190 8d3c 1909 15bd 9ea8 443d bdf2 1f3c
000001e0: e1f8 5d3d 36ba 183d 103d 253d 81a0 a03c
000001f0: 7f09 1f3d 9b7f ee3c c4cf 3dbd 2f3a 603d
00000200: 7a1f 683d d768 4e3d d74a 1e3d eb59 bf3c
00000210: cc58 3d3d 83a3 223d 6f7e 0b3d 1d2a 443d
00000220: c0af 123d eaf8 143d 76dd 393d ec8b ebbc
00000230: ad98 cb3c 7415 643b 967c 313d b784 573d
00000240: 8281 5a3d 0bff 3e3d d2ec 293d 848b 383d
00000250: 19ae 043d 822b 063d e967 a53c 3450 843d
00000260: 0b51 113d 243b 5d3d 1a7f 223c 416f f1bb
00000270: 1ed3 103d b6d0 ce3c bf17 183d 2762 b53c
00000280: 8951 be3c 3ef2 7c3d 93db e33c 433c a13d
00000290: b58d d23c 43a6 253d 26a2 0c3d 8bcf f03c
000002a0: 61ad 22bb d891 413d dcc2 fc3c 2664 773c
000002b0: e51f 563d fb0f 5a3d 9be0 df3a ba66 0d3d
000002c0: c1d3 163d ba8c 5a3d eda7 4a3d 23e1 a53c
000002d0: a7e3 173d e09c 3a3d 7fc5 193d 92c0 0e3d
000002e0: b4cd 2c3d 5af2 223d 8d3f 383d befa 273d
000002f0: 30e2 d53c 1ec3 283d cf02 153c 96c3 6b3d
00000300: 0c29 f03c 6d10 393d 436c 403d 30e3 3c3d
00000310: fb8f 6f3d 8fc6 5e3d beb7 b83d a212 4a3d
00000320: 5782 853d 08fc b93a d77e 07bd 0438 833d
00000330: b12e 503d d2d5 193d a804 b53c 8a82 693d
00000340: ebb4 283d 06fa 113d afb0 7a3d 9a3b 093d
00000350: 684d 6c3d 20ab 0b3d 3801 843d 2754 9f3d
00000360: 46b8 0f3d a891 1b3d 7197 253d 0ba0 183d
00000370: a042 3a3d a060 24bc ac13 aa3d 19d4 353d
00000380: a34c b63c 0f22 8e3d 25c0 6f3d f03d 8e3c
00000390: 4cc6 273d 4ebe 0e3d 7e26 a6bc d194 173d
000003a0: e55a 3c3d b497 913d 9de6 493d 9013 313d
000003b0: a6b4 6c3d fdeb 463d 79ec dd3c 9b49 5e3d
000003c0: 463e 553d fc78 103d c142 023d 8cde 843c
000003d0: cc90 0a3d bfd6 d83c b0aa 313d d21f 643d
000003e0: 5575 b93d b9d1 283d 1a44 583d 561d 153d
000003f0: d2fe 3b3d fefe bc3c a3ec 82bc f56b 253d

bn1.weight f4 [400]
-0.0025082827 -7.546131e-21 0.72167414 0.5242595 0.6800591 -1.4176932e-10 0.17507325 0.19689555
0.66687816 -4.93e-43 -5.472759e-06 0.40877104 -0.00012226943 0.52002424 0.00019345299 0.00017911807
0.32849184 -0.0028365485 0.7216397 0.4582526 0.4678208 -6.84562e-14 0.5185466 0.9430182
0.4325219 -1.4901621e-09 0.20403317 0.41550466 -0.0011845843 -0.0011526134 0.0011566753 0.36344495
0.587637 5.9497317e-37 0.6058333 0.79398566 0.451872 -1.5454498e-05 5.110276e-05 0.23757699
0.025085783 -4.92e-43 -0.0022535557 -0.0017026255 0.23244703 -0.001028354 0.59874934 -0.001419005
0.4938547 0.53104067 0.67005306 -4.92e-43 -0.0012939111 0.42969856 -8.380743e-05 0.7289089
0.32651222 0.17835741 -4.522457e-12 0.6452666 0.66586673 0.31946614 0.0015106198 0.659392
0.39278275 0.6182654 0.2394687 0.28375977 0.5146783 0.5602569 -1.8183505e-29 -4.95e-43
0.0017008901 0.23355106 -7.608533e-05 -1.1606354e-15 0.689451 -1.0271067e-12 -0.0014345454 -8.6924736e-29
0.4092051 -4.95e-43 0.35817623 -0.0027117266 -0.0016872701 -0.002220809 0.0941527 0.47571176
0.31650856 -0.0016981893 0.0017725341 0.30234274 -2.6101881e-05 2.9739898e-30 -1.1075864e-16 0.26052147
-0.0028784499 0.6408243 -0.0019066234 0.95023644 -0.00041109344 -0.002225085 -0.0018636714 -0.0008274698
4.7187212e-11 -0.0037877453 4.93e-43 0.3832999 -2.3208876e-15 0.40315422 -3.376012e-05 -0.0027439226
-1.704643e-32 0.5448087 -8.451596e-06 0.62350345 -0.002963802 -0.0023113473 0.3032547 0.81647134
-0.0024770976 -4.811489e-09 -0.0004780317 0.2753102 0.4723752 7.1086046e-19 -0.0007147513 0.5066433
0.002955775 -4.619739e-05 0.12522982 0.42219222 1.4106326 -0.0005435108 -5.357768e-17 0.2449883
4.93e-43 0.3834141 0.00044738018 0.49284354 0.41529945 0.91652757 -0.003072172 0.3617869
0.21597904 5.700865e-07 0.0013896625 -5.8587234e-18 0.13373093 -0.00292087 -0.0037050222 0.6382895
0.53198266 0.23617548 0.8822111 0.40423083 4.93e-43 -3.283784e-12 0.44910365 0.05814602
4.3990443e-05 0.24608167 0.18038854 -2.1872673e-14 -0.00060122146 0.0009594743 6.0452056e-37 0.6981279
-2.1634007e-05 0.65401363 -0.00057026703 0.11579623 0.2256327 0.7069422 -8.023733e-12 0.0033869087
-0.00017498096 0.36027342 0.5913867 0.3070034 -6.7650036e-10 0.7349792 -0.00035156784 0.67942387
-1.5501421e-10 -0.0031462885 -0.0002819647 0.8890047 0.45214006 0.5440652 0.0049547125 0.51242054
0.1099133 6.8348585e-05 -0.00011619632 -2.2554545e-06 8.2971596e-13 -0.00013526696 0.44181788 -0.0021570579
0.088466324 -0.0013660867 -1.0750781e-07 -3.4383885e-07 0.6836563 0.5734213 0.2354244 -6.852897e-05
0.0012244823 0.94291484 0.0038635407 0.61775625 0.5996959 -0.00020705402 0.66191465 0.42563844
-0.0007810532 -0.005536861 0.271083 -0.0021463847 0.7443363 -2.073151e-18 0.22106582 0.28490016
1.3653357e-06 -0.0035360109 0.8528043 2.0415402e-16 -1.3191628e-27 -0.00091678416 0.35242197 0.7872016
0.7050877 0.00010912815 0.30895206 0.11285508 0.44816568 0.73864037 0.43051237 -0.0024171658
0.47650743 -4.789329e-10 0.0010070944 -0.002059383 1.1670868 0.3461876 -0.00023851366 -9.673759e-19
0.8000168 -1.7928157e-17 -0.0039340355 0.41316062 -0.002254252 0.3904936 0.5869927 -9.422001e-05
00000000: 0062 24bb da8a 0e9e a3bf 383f df35 063f
00000010: 5a18 2e3f 84e0 1baf 6746 333e fd9e 493e
00000020: 87b8 2a3f 6001 0080 a4a2 b7b6 704a d13e
00000030: 7335 00b9 4f20 053f a4d9 4a39 a4d1 3b39
00000040: 1530 a83e 63e5 39bb 61bd 383f 16a0 ea3e
00000050: 3586 ef3e 5026 9aa9 78bf 043f a469 713f
00000060: 8373 dd3e 6bce ccb0 12ee 503e 07bd d43e
00000070: 0e44 9bba 4a13 97ba 959b 973a 7515 ba3e
00000080: 616f 163f 7975 4a03 e417 1b3f a542 4b3f
00000090: c45b e73e 48a4 81b7 2c57 5638 6247 733e
000000a0: b380 cd3c 5f01 0080 64b0 13bb a22a dfba
000000b0: 9806 6e3e d6c9 86ba a347 193f e8fd b9ba
000000c0: 86da fc3e 48f2 073f 9988 2b3f 5f01 0080
000000d0: 7498 a9ba 7301 dc3e c5c1 afb8 c699 3a3f
000000e0: 9c2c a73e 53a3 363e ac1e 9fac 3130 253f
000000f0: 3e76 2a3f 1191 a33e fdff c53a eacd 283f
00000100: d21a c93e a446 1e3f 4837 753e f648 913e
00000110: f5c1 033f ff6c 0f3f 1467 b88f 6101 0080
00000120: 67f0 de3a 0228 6f3e 0090 9fb8 e343 a7a6
00000130: dc7f 303f 6b8d 90ab 5b07 bcba 6161 dc90
00000140: 5583 d13e 6101 0080 e062 b73e 39b7 31bb
00000150: 6427 ddba fe8a 11bb 21d3 c03d 7e90 f33e
00000160: 690d a23e c795 deba 6054 e83a abcc 9a3e
00000170: 5df5 dab7 5a47 710e 5c64 ffa4 1263 853e
00000180: 60a4 3cbb 100d 243f aae7 f9ba b242 733f
00000190: 0788 d7b9 bbd2 11bb 6f46 f4ba 8fea 58ba
000001a0: 1488 4f2e d23b 78bb 6001 0000 e23f c43e
000001b0: d23c 27a7 3b6a ce3e a799 0db8 62d3 33bb
000001c0: 2f05 b18a 9578 0b3f 54cb 0db7 ec9d 1f3f
000001d0: 593c 42bb f979 17bb 3344 9b3e 4404 513f
000001e0: cd56 22bb 4e52 a5b1 54a0 fab9 75f5 8c3e
000001f0: 2adb f13e 19cf 5121 265e 3bba 60b3 013f
00000200: adb5 413b 12c4 41b8 3f3c 003e 9429 d83e
00000210: 9c8f b43f 647a 0eba 5c15 77a4 37de 7a3e
00000220: 6001 0000 da4e c43e 5a8e ea39 fd55 fc3e
00000230: 21a2 d43e 8da1 6a3f 7e56 49bb 223c b93e
00000240: 9c29 5d3e 0c08 1935 5625 b63a 1426 d8a2
00000250: c3f0 083e 116c 3fbb f5cf 72bb f166 233f
00000260: 0430 083f fcd7 713e 96d8 613f 58f7 ce3e
00000270: 6001 0000 6513 67ac eaf0 e53e 852a 6e3d
00000280: 6182 3838 d5fc 7b3e c6b7 383e f302 c5a8
00000290: 4a9b 1dba 3b85 7b3a 2bb5 4d03 83b8 323f
000002a0: ad7a b5b7 706d 273f f97d 15ba 9326 ed3d
000002b0: 420c 673e 2afa 343f ae27 0dad e6f6 5d3b
000002c0: 187b 37b9 c275 b83e 1e65 173f 8d2f 9d3e
000002d0: 7bf4 39b0 9927 3c3f a352 b8b9 b9ee 2d3f
000002e0: 9f70 2aaf f631 4ebb a9d4 93b9 d095 633f
000002f0: e77e e73e db47 0b3f 245b a23b fe2d 033f
00000300: 391a e13d 5e56 8f38 6dae f3b8 6a5c 17b6
00000310: 568b 692b 73d6 0db9 f435 e23e 6d5d 0dbb
00000320: d52d b53d 430e b3ba 0bdf e6b3 da98 b8b4
00000330: 1904 2f3f bdcb 123f 1813 713e 36b7 8fb8
00000340: cf7e a03a de62 713f 7533 7d3b 4625 1e3f
00000350: ac85 193f a41c 59b9 3d73 293f 48ed d93e
00000360: 98bf 4cba 8e6e b5bb 64cb 8a3e 5caa 0cbb
00000370: d38c 3e3f b7f8 18a2 145f 623e 6fde 913e
00000380: 9440 b735 6bbc 67bb 6251 5a3f a25f 6b25
00000390: 9a07 d192 5854 70ba a770 b43e 0b86 493f
000003a0: a180 343f bbdb e438 f72e 9e3e 9020 e73d
000003b0: f975 e53e 8917 3d3f 1e6c dc3e 5069 1ebb
000003c0: c8f8 f33e e8a5 03b0 7b00 843a b7f6 06bb
000003d0: 1a63 953f 803f b13e 8619 7ab9 6ec2 8ea1
000003e0: e7cd 4c3f aa5b a5a3 15e9 80bb ca89 d33e
000003f0: 13bc 13bb c7ee c73e 2745 163f fc97 c5b8

bn1.bias f4 [400]
-0.0020535942 -1.0059626e-26 -0.0041101663 -0.031526 0.018306464 -3.304653e-09 -0.004230212 -0.049167916
-0.027193883 -6.671502e-19 -9.6506796e-05 -0.045518067 -0.0006329392 -0.022196472 -0.00013658301 -0.00038404518
-0.043878593 -0.0030091829 -0.08807166 -0.10220595 -0.058948774 -9.916175e-07 -0.00798817 0.03759028
-0.13850732 -7.0878254e-09 -0.17149556 -0.04406761 -0.0013421113 -0.001180197 -0.002758811 -0.048275586
0.058679044 -4.3313255e-22 -0.0379236 0.09254876 -0.048224494 -2.138353e-05 -4.1143876e-06 -0.05308122
-0.014438556 -8.093815e-25 -0.0028283282 -0.0012604953 -0.0006912812 -0.00026051587 -0.067479625 -0.0022126834
-0.0916543 -0.0927524 -0.005188647 -4.3879124e-34 -0.0016657051 -0.052056003 -4.9546812e-05 0.07010087
-0.09548897 -0.15545529 -3.805426e-09 -0.070801206 -0.018300684 -0.11687753 -0.0014584971 -0.07449468
-0.11296214 -0.000646612 -0.12655623 -0.07994061 -0.035357777 -0.039318662 -3.4535494e-24 -3.2537422e-09
-0.0018628296 -0.07035016 -0.00056196924 -3.192745e-08 -0.051507916 -6.3863307e-15 -0.0013276311 -1.994565e-09
-0.002865753 -5.0982592e-26 -0.01004926 -0.0018551685 -0.0015606539 -0.0022370163 0.010393105 -0.04049568
-0.13909186 -0.0022607688 -0.0014187485 -0.034982286 -7.559171e-05 -7.405414e-23 -9.0245053e-13 -0.17367332
-0.0029638605 -0.07466804 -0.0017634666 0.027750209 -0.00038719346 -0.0026434395 -0.0017142718 -0.001814638
-4.0274546e-05 -0.0039657652 -3.1272212e-26 -0.059639584 -3.307512e-10 -0.02164964 -0.00050720334 -0.0026513094
-1.5463436e-35 -0.009032164 -0.00011624978 0.08431433 -0.0031116013 -0.002383813 -0.07880646 0.06498364
-0.0023331633 -2.4797686e-07 -0.000117624295 -0.040350046 -0.06768323 -1.3884116e-05 -0.0007779906 -0.072417386
-0.0014420089 -0.00016244392 0.037955884 -0.039032508 0.027786285 -0.0014951894 -1.0327912e-14 0.015078314
-4.7359838e-14 0.007698399 -0.0009106581 -0.023082018 -0.087861486 -0.029835967 -0.003935639 -0.008345054
-0.1336056 -0.00017607307 -0.0013003723 -1.875261e-12 0.043020677 -0.0035949983 -0.004090496 0.0021308912
0.0035086372 -0.118719056 0.0049297097 -0.042139612 -7.6105394e-23 -3.3551037e-12 -0.05869815 0.021138145
-0.0018027333 0.047184307 0.0058463714 -7.3191854e-15 -0.0005729367 -0.0009118808 -1.5862905e-27 -0.025289368
-3.1432686e-05 0.014975158 -0.00062822475 0.040995672 0.015708653 -0.12502998 -4.37487e-23 -0.0037295658
-0.00035656663 -0.052205257 -0.060913146 -0.05877636 -4.5661256e-11 0.005673145 -0.0001329957 0.030603774
-1.6792808e-11 -0.003188607 -0.00033243722 0.044310376 -0.051265847 -0.067011304 0.0018594732 0.02693257
-0.02456466 -1.4296215e-05 -0.000981473 -1.8121248e-06 -4.4275494e-17 -0.00010092918 -0.108345635 -0.0018737145
0.005183972 -0.0014141239 -4.8538105e-08 -4.7902144e-08 -0.031679116 -0.10427501 0.01385785 -0.00038767018
-0.0009954204 0.054264434 -0.0047363304 -0.014755898 -0.03608842 -0.00058101286 0.063492745 -0.057004597
-0.0010370433 -0.00050933345 -0.07178982 -0.002095588 0.037709605 -1.2355769e-14 0.034165356 -0.052802727
-0.0010743217 -0.0041329744 -0.008301669 -4.130459e-08 -1.5574714e-18 -0.0012195695 -0.060192626 0.0258726
0.09778456 -0.00059005636 -0.07490884 -0.048803918 -0.04937546 0.06968473 -0.112652555 -0.003372001
-0.083994046 -7.2593855e-09 -0.00018212675 -0.0029870188 0.053564698 -0.038024995 -0.00017606195 -1.9826926e-18
-0.027402956 -3.1183404e-12 -0.00402379 -0.00424148 -0.002885982 -0.0092691025 -0.12948659 -4.3426535e-05
00000000: 9895 06bb 5d40 4794 93ae 86bb 6821 01bd
00000010: 70f7 953c 1218 63b1 979d 8abb 4c64 49bd
00000020: b5c5 debc 72e8 44a1 b163 cab8 2771 3abd
00000030: d5eb 25ba 60d5 b5bc b937 0fb9 ac59 c9b9
00000040: 0aba 33bd b635 45bb ea5e b4bd 5a51 d1bd
00000050: 4574 71bd b817 85b5 d0e0 02bc 44f8 193d
00000060: ddd4 0dbe 2c89 f3b1 889c 2fbe 3d80 34bd
00000070: c8e9 afba d7b0 9aba 2bcd 34bb 9fbc 45bd
00000080: 7059 703d 02e8 029c c755 1bbd 348a bd3d
00000090: 0c87 45bd c860 b3b7 520e 8ab6 b16b 59bd
000000a0: b18f 6cbc cf7d 7a97 795b 39bb 3437 a5ba
000000b0: 1937 35ba d995 88b9 c232 8abd ab02 11bb
000000c0: 40b5 bbbd f8f4 bdbd 8705 aabb 3bd0 1188
000000d0: ca53 daba ad38 55bd 7cd0 4fb8 0c91 8f3d
000000e0: b98f c3bd ac2f 1fbe e2c0 82b1 3900 91bd
000000f0: 51eb 95bc 7d5d efbd 0b2b bfba ab90 98bd
00000100: b258 e7bd 6681 29ba f597 01be e7b7 a3bd
00000110: 51d3 10bd 9b0c 21bd 4c9a 8598 7098 5fb1
00000120: 302a f4ba bf13 90bd 1e51 13ba 9a20 09b3
00000130: f7f9 52bd 8117 e6a7 e803 aeba c210 09b1
00000140: 5bcf 3bbb 1d74 7c95 a7a5 24bc 2029 f3ba
00000150: db8e ccba e89a 12bb d847 2a3c ccde 25bd
00000160: 196e 0ebe 6829 14bb 4df5 b9ba 9649 0fbd
00000170: fe86 9eb8 4b0d b39a 6a04 7eab 6bd7 31be
00000180: 543d 42bb 8feb 98bd 1f24 e7ba 6854 e33c
00000190: 3a00 cbb9 8e3d 2dbb 6bb1 e0ba 26d9 edba
000001a0: 77ec 28b8 40f3 81bb 3dda 1a95 a348 74bd
000001b0: 18d5 b5af 965a b1bc d7f5 04ba 97c1 2dbb
000001c0: 7a6f a485 a4fb 13bc 20cb f3b8 feac ac3d
000001d0: 02ec 4bbb bf39 1cbb 4865 a1bd 2516 853d
000001e0: fce7 18bb ae21 85b4 10ad f6b8 1746 25bd
000001f0: 819d 8abd d3ef 68b7 11f2 4bba 914f 94bd
00000200: ca01 bdba b555 2ab9 a177 1b3d 8de0 1fbd
00000210: 10a0 e33c 3bfa c3ba 160d 3aa8 080b 773c
00000220: 2d4a 55a9 da42 fc3b 3bb9 6eba 8016 bdbc
00000230: b9f0 b3bd 8f6a f4bc 88f6 80bb b2b9 08bc
00000240: e8cf 08be 41a0 38b9 4171 aaba b3f5 03ac
00000250: 7336 303d 109a 6bbb 9109 86bb 6ca6 0b3b
00000260: 2af1 653b fa22 f3bd 6789 a13b 969a 2cbd
00000270: f502 b89a 2d18 6cac 796d 70bd e729 ad3c
00000280: b149 ecba 5544 413d eb92 bf3b c9d9 03a8
00000290: 2231 16ba 490b 6fba 965b fb92 a62b cfbc
000002a0: 97d6 03b8 5d5a 753c 73af 24ba 14eb 273d
000002b0: 6faf 803c dc07 00be 448e 539a bb6b 74bb
000002c0: 90f1 bab9 2ed5 55bd 1080 79bd 7bbf 70bd
000002d0: 01d2 48ae cae5 b93b c374 0bb9 c4b4 fa3c
000002e0: 0bb6 93ad f3f7 50bb f84a aeb9 cc7e 353d
000002f0: 23fc 51bd 393d 89bd 91b9 f33a b1a1 dc3c
00000300: d33b c9bc c7d9 6fb7 c5a4 80ba 2238 f3b5
00000310: 472f 4ca4 f1a9 d3b8 51e4 ddbd 6d97 f5ba
00000320: 4fde a93b 205a b9ba 3678 50b3 f7bc 4db3
00000330: f6c1 01bd 238e d5bd 090c 633c 3640 cbb9
00000340: c478 82ba 6244 5e3d 3833 9bbb b9c2 71bc
00000350: 73d1 13bd 1d4f 18ba 7c08 823d a77d 69bd
00000360: 66ed 87ba ca84 05ba 8b06 93bd 2256 09bb
00000370: 6375 1a3d ed94 5ea8 f9f0 0b3d ac47 58bd
00000380: 41d0 8cba e76d 87bb b903 08bc e166 31b3
00000390: 9bd7 e5a1 f6d9 9fba 8b8c 76bd c6f2 d33c
000003a0: 4543 c83d 03ae 1aba ce69 99bd 9ee6 47bd
000003b0: ec3d 4abd deb6 8e3d 62b6 e6bd cafc 5cbb
000003c0: 1205 acbd 3b6e f9b1 47f9 3eb9 dcc1 43bb
000003d0: a866 5b3d 19c0 1bbd 459d 38b9 014c 12a2
000003e0: 2a7c e0bc 076f 5bac ffd9 83bb 1dfc 8abb
000003f0: be22 3dbb 6fdd 17bc 2298 04be e324 36b8

bn2.weight f4 [300]
0.8101535 1.2133883 1.5132567 0.09108745 0.758743 -1.4171047e-32 -8.0962115e-33 -0.00035944316
-5.5297005e-25 1.0997832 0.9729179 -1.1646856e-07 1.3585862 0.50260293 0.07072014 1.2835748
1.3653464 0.3583409 0.9005695 1.0461247 0.62376213 0.21545973 -0.636237 0.958518
0.9741843 2.314969e-15 1.4499092 1.1068387 1.0214814 -3.548449e-18 0.34452766 1.8353205
0.30423617 -4.93e-43 0.027932674 0.17813006 0.85518765 1.2345008 0.95012325 -1.7097657e-11
0.7278482 -1.7200167e-18 2.0484357 0.50873715 1.3912488 -0.00026206946 0.46123758 0.046871275
0.7662246 1.6535481 1.0516556e-08 1.4393089 -1.1630093e-05 1.7893311 7.010911e-09 1.218117
2.1207383 0.57951 -0.004261787 0.80662405 -2.635958e-21 1.2614958 1.1190741 0.22187302
0.8085593 0.4913631 0.9407988 1.113611 -2.7025592e-06 1.1630837 0.8291697 5.9896613e-14
-7.403344e-10 1.303941 0.6372767 -0.0017030605 0.97691596 0.0017094376 5.359838e-06 0.21347377
0.1650156 1.3393162 0.4653204 1.5391884 0.20286576 1.4226667 0.7525982 1.1624064
-2.8715897e-16 -0.04544054 2.730732e-07 0.7371857 -1.787822e-14 0.121569306 -0.2802647 0.944065
1.8885891 8.619901e-13 1.4959056 0.37590167 0.102147125 8.326744e-09 -0.29193795 0.83743066
0.34240538 1.1105756 1.198006 -5.744296e-07 -0.00271444 5.980766e-24 1.5237967 -1.1903031e-12
1.0341297 0.5459217 -1.3754412e-15 1.0096688 1.7887577 1.1904525 0.19421214 0.6907968
0.0031454654 0.39095694 2.355846e-06 0.0076261875 -1.7593234e-07 0.14158417 1.8555369 4.95e-43
0.720137 1.3155626 1.2045519 0.4925266 -5e-43 -4.4773788e-06 0.2843294 0.30300626
1.3151248 -3.4533273e-18 2.4104923e-17 1.8472797 -0.5130451 0.685358 -4.97e-43 0.13629025
-1.0420283 -1.9635351e-08 -0.00012292528 -4.9170495e-10 4.95e-43 0.28048706 0.21792026 1.0861732
-8.070923e-06 0.5665595 1.0022871 1.3595179 0.5659037 0.5547639 -4.99e-43 1.1543367e-08
0.339954 0.5961477 0.9001536 0.7960189 1.4425797 -0.00027783544 -2.339003e-11 0.36545283
1.1662848 -4.95e-43 0.76446795 0.5712045 -4.95e-43 0.7265339 0.9843732 0.6536294
-9.303967e-12 0.21407905 7.811e-42 2.1938026 -3.1439381e-27 0.42927745 0.9970082 1.8547194e-06
-1.5492127e-17 9.5363114e-32 1.700711e-09 3.2056949e-15 0.6483852 1.6581746e-12 2.4664865 3.6007655e-14
0.69681895 0.24643774 1.133119 0.10084374 0.7600048 0.008055644 0.588825 0.0054133013
0.979961 0.49531928 1.3139164 0.3671878 -3.956811e-24 -1.6403903e-05 0.3358054 0.07716522
0.51097596 0.9855772 -1.4154068e-24 0.26394126 0.13632827 1.7171246 4.92e-43 0.24053377
0.39482254 0.75612456 -3.632008e-05 6.5580197e-10 8.028318e-07 1.4258623 0.72833455 0.17925386
1.2752558 0.9736101 2.231386e-07 1.7736968 0.68571734 -1.5145418e-14 1.0861083 -1.0218418e-10
1.5336603e-06 0.06707025 -7.8545744e-24 0.18953061 0.0009048681 1.9832515e-12 0.83443683 -0.0027611386
0.16953173 1.0523356 0.014237672 0.9776818 -3.282186e-25 0.85687894 -8.374102e-13 -1.0968135e-09
0.95332825 5.162778e-07 0.91335434 0.1612547 4.93e-43 0.99902457 0.9654804 -9.178751e-06
00000000: 3866 4f3f 4f50 9b3f 65b2 c13f 0f8c ba3d
00000010: fb3c 423f 1b29 938a d826 288a a573 bcb9
00000020: cd22 2b97 b2c5 8c3f 2611 793f 451d fab3
00000030: 27e6 ad3f 96aa 003f b9d5 903d 2e4c a43f
00000040: acc3 ae3f 7578 b73e b98b 663f 6ae7 853f
00000050: e0ae 1f3f 7aa1 5c3e 6ee0 22bf 7061 753f
00000060: 2464 793f a4cf 2627 a096 b93f e4ac 8d3f
00000070: e7bf 823f 27ea 82a2 ee65 b03e c8eb ea3f
00000080: d8c4 9b3e 6001 0080 10d3 e43c ba67 363e
00000090: 94ed 5a3f 1f04 9e3f 473b 733f 8064 96ad
000000a0: 4254 3a3f 65d4 fda1 9219 0340 993c 023f
000000b0: 7114 b23f 5e66 89b9 5527 ec3e 18fc 3f3d
000000c0: 4c27 443f 77a7 d33f 4dac 3432 463b b83f
000000d0: de1e 43b7 cd08 e53f a0e4 f031 42eb 9b3f
000000e0: 2dba 0740 c45a 143f 76a6 8bbb ea7e 4e3f
000000f0: d82a 479d b278 a13f d23d 8f3f ae32 633e
00000100: befd 4e3f f293 fb3e 31d8 703f ce8a 8e3f
00000110: 9d5d 35b6 eddf 943f 7744 543f 0ce0 8629
00000120: 6780 4bb0 8ae7 a63f 9124 233f 3a39 dfba
00000130: 2a17 7a3f 350f e03a a8d8 b336 de98 5a3e
00000140: d9f9 283e b76e ab3f 7a3e ee3e 2004 c53f
00000150: 0bbc 4f3e f119 b63f 47aa 403f bcc9 943f
00000160: 2f89 a5a5 dc1f 3abd e59a 9234 34b8 3c3f
00000170: 5e08 a1a8 54f9 f83d db7e 8fbe 3eae 713f
00000180: 4abd f13f efa0 722b d679 bf3f 2f76 c03e
00000190: 8332 d13d 680d 0f32 e478 95be db61 563f
000001a0: c24f af3e 5727 8e3f 4358 993f 8032 1ab5
000001b0: bfe4 31bb a35e e718 c50b c33f 3085 a7ab
000001c0: 5d5e 843f 86c1 0b3f d338 c6a6 d43c 813f
000001d0: 03f6 e43f bf60 983f 8cdf 463e 0fd8 303f
000001e0: 2724 4e3b 822b c83e 2019 1e36 19e5 f93b
000001f0: eae7 3cb4 71fb 103e 3c82 ed3f 6101 0000
00000200: e65a 383f 5b64 a83f c22e 9a3f 722c fc3e
00000210: 6501 0080 643c 96b6 a093 913e a323 9b3e
00000220: 0256 a83f 82cf 7ea2 2454 de23 a973 ec3f
00000230: ec56 03bf 9f73 2f3f 6301 0080 ac8f 0b3e
00000240: 2f61 85bf 98aa a8b2 81e5 00b9 a928 07b0
00000250: 6101 0000 009c 8f3e 7d26 5f3e b907 8b3f
00000260: 5a68 07b7 0b0a 113f f24a 803f af04 ae3f
00000270: 11df 103f 0205 0e3f 6401 0080 4450 4632
00000280: 730e ae3e 239d 183f 7770 663f e5c7 4b3f
00000290: 74a6 b83f 71aa 91b9 aabd cdad a21c bb3e
000002a0: d248 953f 6101 0080 2cb4 433f 753a 123f
000002b0: 6101 0080 20fe 393f e2ff 7b3f 4254 273f
000002c0: 58ad 23ad 8a37 5b3e c615 0000 4367 0c40
000002d0: a416 7993 41ca db3e ee3b 7f3f acef f835
000002e0: c0e3 8ea3 a993 f70b 73be e930 a2fe 6627
000002f0: 93fc 253f 095e e92b eada 1d40 002a 2229
00000300: ba62 323f 2d5a 7c3e 0b0a 913f 2a87 ce3d
00000310: ad8f 423f d2fb 033c 3cbd 163f 1062 b13b
00000320: b9de 7a3f 7d9a fd3e 6a2e a83f 0a00 bc3e
00000330: 5c12 9998 1d9b 89b7 afee ab3e cd08 9e3d
00000340: 52cf 023f ca4e 7c3f 0a06 db97 4f23 873e
00000350: a399 0b3e bdca db3f 5f01 0000 7c4e 763e
00000360: 2e26 ca3e 6191 413f 6456 18b8 f643 3430
00000370: 2e82 5735 a882 b63f 2274 3a3f 538e 373e
00000380: 953b a33f 833e 793f df97 6f34 7f08 e33f
00000390: 2c8b 2f3f f56a 88a8 9905 8b3f 94b4 e0ae
000003a0: 2bd8 cd35 215c 893d f8ed 1799 5014 423e
000003b0: ac34 6d3a 158f 0b2c a79d 553f 38f4 34bb
000003c0: ba99 2d3e efb2 863f 2045 693c 5b49 7a3f
000003d0: 5028 cb96 6b5c 5b3f c4b5 6bab b2be 96b0
000003e0: 520d 743f 5796 0a35 97d1 693f f41f 253e
000003f0: 6001 0000 13c0 7f3f b929 773f 6ffe 19b7
