trained_data/ddpg/walls_G_350_450/target_actor_ddpg.pth (torch, 504132 bytes, 10 tensors)

fc1.weight f4 [400, 6]
00000000: 2800 af3b 55d1 993b 5e9a 05be a061 7a3d
00000010: b121 283e 0e23 71bd 34e0 9b3c 0dae f33a
00000020: 3a97 abbd b1ed 943d d3f2 a6bd 4119 ee3d
00000030: 9c0e 8c3a 9bb9 333c 0042 84bd 3021 433c
00000040: 6329 ba3d 06c6 b3bd 6054 f2bb 06c8 c73c
00000050: 0765 153e 38e3 3d3d 5ff9 8cbc 29d5 00be
00000060: 19c1 203d 84a0 e9bc e871 2f3b 58fa 00bd
00000070: 66f6 cdbd 6aea e83b 1b56 04bd 3ab8 dd3c
00000080: 975e 1b3d df79 413d acdf 043d 2027 c3bc
00000090: 7bdc 733b 4260 883b 9c25 32bb c900 09be
000000a0: ccf3 8a3d 4b43 26be 4646 523c 370b 5fbb
000000b0: 948e d6bd 23ce e1bd eb32 393d 6635 fabd
000000c0: bd56 61bc 2e9c bf3c 6260 c7bd ad62 a53d
000000d0: dbe1 bf3d 15f6 dcbd c988 f53b 0c27 2b3a
000000e0: dbc8 8fbc 5ea0 823d 352b 7bbc ca09 953e
000000f0: 744b c83c 28fe 73bc 6fd8 4d3b cae6 0b3c
00000100: a701 913b 5490 debd 46b5 003c 36c2 1c3b
00000110: 6b98 f0bb 58b6 013d 5702 c93d fce5 f4bb
00000120: 3414 7f3b f922 3c3c 532b 55bd 635a e03c
00000130: d465 3d3e 853d 88bd a37b e73a c16b 353c
00000140: 2cef f23d d54a 18be 2f1f 4b3e 22fc 143e
00000150: de02 b13c 3600 14ba eeba 0abe d942 e4bc
00000160: d7c0 92bd 1267 e7bd f7f9 7b3b 904b 983c
00000170: ac99 c53d ac47 7f3b ecf7 913d 7ba4 bcbd
00000180: 57a5 573b 0f80 363c 80f9 b0bd c73c 193d
00000190: c79f e73d af12 0cbe 2930 153c 38a6 f5bc
000001a0: d512 3fbe c79a e5bc 993b c2bd 8bdc 13bd
000001b0: df84 653c 3de3 5dbc 66c0 cebd 512f 0abd
000001c0: 8348 53bd 9dbd 783d 8c5d e93c b6cb b93a
000001d0: f2ea 5a3b 9178 16bd 4d21 b43d 1a1a d33d
000001e0: c8ec 623c 1081 23bd 7d79 7abe 4181 67bd
000001f0: 8381 03be ce7e cb3c 4cfe e23c a536 94bc
00000200: 6a12 9e3d 8acb 4c3c 7f1d 38be 28f9 c0bc
00000210: f9fa 2bba 814f c53c b843 2c3e f2b5 e03d
00000220: d8ae f83d 99e2 763d 74dc e33c 4c2a 4fbc
00000230: aff1 403c de2d f9b9 9794 193d 5f4c 9b3d
00000240: 5512 dbbc 6d4b 293d 1ce7 383d 4b95 243e
00000250: 7a93 db3d 0318 71bd 91b5 99bb e6c3 a43c
00000260: 7ad1 a2bd 5b5f 0bbe 7b3a a1bd b5e3 31bc
00000270: 184c 2a3c 79cf f63b 4e21 8f3d 48e0 7bbd
00000280: fabf 29be 38a3 57bd 015e cfbb d129 9f3c
00000290: 9cc4 1fbd e8fe 8a3d 4867 fa3d d704 d9bd
000002a0: 839b f6b9 32a4 7a3b 64a6 c2bd 7d4d 563c
000002b0: 0f6c e23d 28a9 06be e697 833c 24ab caba
000002c0: b8dd 1d3d ac49 a6bc cc0a 58bd cbe8 b13c
000002d0: 3980 c8bc 7c02 793d f0f2 e63d a747 763d
000002e0: a3e2 f53c f3ad 933b ae19 e83b 5dfe ecbb
000002f0: 7582 a6bd 224c b23d c71c f73d cf49 cbbd
00000300: 2f70 45bc 21b2 973c ff08 e3bd e1fb 35bc
00000310: 46f3 1e3e 2d69 93bd 6e1f 58bc 1857 273d
00000320: a204 a5bc da73 523d 9912 ce3d 55c8 34bd
00000330: b217 133c 186c adbc f4fd 4abe 4960 703d
00000340: a737 013d c49a 2d3c 371d bc3b 37da 353c
00000350: 08a2 373e 3611 3e3d 93c3 023c d904 74bd
00000360: 2d85 d8bc 9677 293d 732a 48be 8d06 603d
00000370: 5447 3c3c ed3f bbbd bc2d 6f3a a805 713c
00000380: 5277 d4bc a66e 313d 4980 903e 6999 76bd
00000390: 11a2 983b e4fe c63c e3bc c93d 064d eabc
000003a0: d168 1cbd 5b1a d73c 4733 3c3c cab2 a6bc
000003b0: 06de 48bd 432b 8c3d d47b 133e 3f17 e2bb
000003c0: 586c 243d 08af dd3c fcb3 b2bd 3c4e 14bd
000003d0: bcb3 603d 3151 37be 384f 813c ad85 26bb
000003e0: ed88 5dbd 08fe 1abd 49eb 153c a946 25bd
000003f0: 3892 9cbc 0425 073d 0fb4 05be 0436 0abd
0.005340595 0.004694144 -0.13047168 0.06112826 0.16419102 -0.05887132 0.019027807 0.00185913
-0.083784536 0.072718985 -0.08151784 0.116259106 0.0010685506 0.010969545 -0.06457901 0.011909768
0.09089925 -0.08778004 -0.007395312 0.02438737 0.1458932 0.04635927 -0.017208753 -0.12581314
0.039246652 -0.028518923 0.0026770774 -0.031488746 -0.100567624 0.0071080225 -0.03230868 0.027065385
0.037932005 0.047235366 0.032439873 -0.023822367 0.0037210274 0.0041618655 -0.0027183061 -0.13379206
0.06784782 -0.16236608 0.012834137 -0.0034033784 -0.10476413 -0.110256456 0.045214575 -0.12217216
-0.01375359 0.023389902 -0.097351804 0.080754615 0.093692504 -0.10789124 0.0074931127 0.0006528951
-0.01755183 0.06378244 -0.015330126 0.2910903 0.024450041 -0.014892139 0.0031409522 0.008538911
0.004425246 -0.10867372 0.007855719 0.002391947 -0.0073423884 0.031668037 0.098148994 -0.0074737053
0.0038921954 0.0114829475 -0.05204327 0.02738685 0.18495876 -0.06652359 0.0017660748 0.011073054
0.11862025 -0.14872296 0.19836114 0.14549306 0.021607812 -0.00056457834 -0.1354787 -0.027863907
-0.071656875 -0.11298956 0.0038448551 0.018590719 0.09648451 0.0038952632 0.071273655 -0.0921106
0.0032904947 0.01113893 -0.08641338 0.037411477 0.11309772 -0.13679002 0.009105721 -0.029986486
-0.18659528 -0.028027905 -0.094840236 -0.036098998 0.01400873 -0.013542947 -0.10095291 -0.03373653
-0.051582824 0.060727704 0.02848699 0.001417509 0.0033404198 -0.036736075 0.08795414 0.10307713
0.013850398 -0.039918005 -0.24460407 -0.05651975 -0.12842374 0.024840739 0.027709149 -0.018092463
0.07718356 0.012499699 -0.17980002 -0.023556307 -0.000656053 0.024085762 0.16822708 0.10972203
0.12142724 0.060274694 0.027815081 -0.012644362 0.011776372 -0.00047527155 0.037495222 0.07582926
-0.02674214 0.041331697 0.045142278 0.16072576 0.10721488 -0.05886079 -0.004690834 0.020112943
-0.07950111 -0.13610594 -0.078724824 -0.010857512 0.010394119 0.007532057 0.06988774 -0.06149319
-0.1657714 -0.052645892 -0.006328345 0.01942912 -0.03900586 0.06786901 0.122267306 -0.10596626
-0.00047036642 0.003824484 -0.09504393 0.013079998 0.11055767 -0.13150465 0.016063642 -0.0015462381
0.038541526 -0.020298801 -0.05274467 0.02171745 -0.024475204 0.060793385 0.112768054 0.060126927
0.030015295 0.0045068203 0.0070831394 -0.007232471 -0.081303515 0.087059274 0.12066036 -0.09926187
-0.012050672 0.018517556 -0.110857 -0.011107416 0.15522489 -0.07197795 -0.013191087 0.040854543
-0.02014381 0.051380016 0.10062141 -0.044136364 0.008977817 -0.021169707 -0.19823438 0.058685575
0.031547215 0.010595981 0.0057407874 0.01109939 0.17932904 0.046403132 0.007981199 -0.059574936
-0.02643069 0.04137381 -0.19547443 0.054693747 0.011491615 -0.09143052 0.00091239414 0.014710821
-0.025935803 0.043318413 0.28222874 -0.060204897 0.0046579917 0.024291463 0.098504804 -0.02860118
-0.0381859 0.026257684 0.011486835 -0.020348925 -0.049039863 0.06844189 0.14402705 -0.006899744
0.040142387 0.027061 -0.087257355 -0.036207423 0.054858908 -0.17902066 0.015784845 -0.0025409267
-0.05408566 -0.03783992 0.009150335 -0.04035059 -0.019112691 0.032994285 -0.13056968 -0.03374292

fc1.bias f4 [400]
00000000: 351a 9a3d ac02 43be 6e1e 423d a9ea 0d3d
00000010: 2cb5 9c3d a8ed 00be 07b9 a53a 4929 713e
00000020: 2c1e 613c 70a6 95bd 213b e0bd 27a7 de3e
00000030: aa74 1dbc 6170 83bc f5b7 febd dbfb 89bc
00000040: 2849 7bbc e6f8 4c3d 17ce 733e 1958 4cbe
00000050: 552c a1bd f7dc ef3c 113f 6cbd f085 a2be
00000060: 8280 93bb f42d a7bd 3388 a0be a5ed cf3d
00000070: e4a7 103d afe8 46bd ac9a 87be 08de 493d
00000080: 7638 63bc 1bb8 34be f14b e73d ba48 c73e
00000090: 429d b3bd a056 1abd 28df 59be cc40 613d
000000a0: ec44 ae3e ce87 f6bd 07e8 e33c 713f a6be
000000b0: e106 5cbc 9522 74bc bd1c 223e 4b4d 5abe
000000c0: 1714 e63c cb48 30bc 6a5c 333d aa27 553c
000000d0: 6303 f03d 11f5 893c 3936 85be d185 0dbe
000000e0: ec38 f8bd 9b8e d0be 3097 093e 4243 dd3d
000000f0: 12d7 a0bb 6c48 9bbe 3281 1cbe 4e13 03be
00000100: c806 b4bb 6c71 6fbd 68ce 95bd 2aa1 983d
00000110: b1d6 e33e ed59 4a3e f14b 08bd 8cd0 f3bd
00000120: 8d25 acbe f10f 05bf a034 633b 123b dabd
00000130: c4d3 883d e169 c8bd e023 bb3c ac88 04bb
00000140: d351 c93e d6a4 e1be dbd3 693e b436 393e
00000150: 2b86 1f3e 9214 c5bc 61ab 12be 8518 21be
00000160: 9e5e 2f3d 12a3 0bbd 6d2c ebbc cd8d f5bc
00000170: 7da8 60bc d5f6 8c3a 85cf 4b3d f587 a73d
00000180: 9bc1 a5bd 1f24 36bc d189 b33d 3c79 da3d
00000190: 259c 0f3f efbe e93c dfec 573e 9a06 dc3d
000001a0: 2c68 c2bd ee7a b23c 2910 27bd 9f0f 523d
000001b0: dea4 b93d 2764 9abc 0f7f 143d f46e 04bf
000001c0: cbd3 5bbd f541 8b3d a4c8 513d 236b 303c
000001d0: e33b 0fbf 6e31 26bd e54b 68bc 93c8 e83d
000001e0: 4ab1 44bb eb4a 023e 32ae 963a db63 3dbe
000001f0: ca25 9dbd 1874 9f3a b0c7 b7be a1d7 153e
00000200: 783f 253c 91e1 10be a27c 613d 0abc ed3c
00000210: f22a b7bd c434 9f3d 7e46 4dbd 46f6 ffbd
00000220: 7cbc 9abc 459a 013f 697d 153e 9c35 fb3e
00000230: b619 503c 4b0d ac3d d4ac adbe 638b 79bd
00000240: 0824 f63d 58c0 b93d 6b4d b83e a13a 6a3d
00000250: 8fe7 1d3d e339 453d ba7f 4d3d c9ec 2abd
00000260: 90c3 7ebc df84 683d 4e6e 2cbe 8622 a73d
00000270: 8167 383e 959e 3d3b ec3b c33e 2165 843d
00000280: 522c f7bc 6d98 083d c885 563e 29f5 6bbd
00000290: d7eb 883c bfe1 f0bd 60c1 583c 6af1 ca3d
000002a0: 11fd a83e f523 983d 0d93 963d 7be4 b33e
000002b0: 3a86 82be bfa7 5c3e 3056 65be 4bab e93c
000002c0: dcdf b93d 3821 25bc 20eb a63d a20e 553e
000002d0: 65ac 22bd aec8 533e a925 453d 4fe6 1f3e
000002e0: 10e8 1d3e 92d2 8e3e 4468 353e b0db c3be
000002f0: 42b2 58bd cdf5 78bd bc55 45be e8ce 3abd
00000300: d65e 533e 3713 d6bd 8d38 69bd ab31 d23e
00000310: 09f9 cabe 790b 833d 9dd3 6fb9 f124 87bd
00000320: 56f4 923e 5968 433e 3929 a43d de13 e53c
00000330: 134d 9e3c 9a6a 56be d2d2 fe3d 8464 28bd
00000340: fed3 27bc ff4e 843e c4ad 453e 179e 353e
00000350: f43a 71bd 719d ff3d d6bd e3be 63f3 80be
00000360: 5ed1 423e 36f7 cfbe 44fc 873d cae6 c6bd
00000370: 818c 7b3e 3615 d13c f0d1 89bd 50c3 513d
00000380: 3350 d0bd b815 39bd 3409 60be d7a3 773d
00000390: dd86 503e 0bb8 03bf 28a6 3abe bfb3 a33d
000003a0: b4aa 01bd 5145 44bc 45b5 babe 4be6 a63a
000003b0: 203c d53d 08ab 893c bf4c 8abc b4e0 643d
000003c0: 34c6 fa3d 1fce 143c dea4 5e3b deba 5ebe
000003d0: 7bab 103e 28a6 573e 8dfc 913c 81bd a93d
000003e0: 6be6 47bc ca5c 343e d3f4 033e fac0 dd3d
000003f0: 4c55 e8bc cc7b 003e c8b2 ceba 68ee 04be
0.0752453 -0.19043988 0.0473923 0.034647617 0.07651743 -0.12590659 0.0012643643 0.23550905
0.013740104 -0.07307136 -0.10948778 0.43486902 -0.009610334 -0.016044797 -0.12437431 -0.016843727
-0.015337266 0.050042056 0.23809086 -0.19955482 -0.07869784 0.029280169 -0.057677332 -0.3174281
-0.0045014033 -0.08163062 -0.31353912 0.10152749 0.035316363 -0.048561748 -0.26485193 0.04928401
-0.013868442 -0.17648356 0.112937815 0.38922673 -0.08770229 -0.03768027 -0.21276534 0.054993436
0.34036958 -0.120376214 0.0278206 -0.32470277 -0.013429374 -0.014900823 0.15831275 -0.21318547
0.028085751 -0.010759543 0.043789305 0.013009945 0.11719396 0.01684049 -0.2601793 -0.13820578
-0.12120232 -0.407338 0.1343658 0.10803844 -0.004908451 -0.3032869 -0.15283659 -0.12800333
-0.0054939725 -0.058457777 -0.073147595 0.074526146 0.44499734 0.19760866 -0.03327555 -0.119050115
-0.336224 -0.5197745 0.0034668818 -0.10655798 0.06681016 -0.0978582 0.022844255 -0.0020223064
0.3932024 -0.44071072 0.22834723 0.18087274 0.15578525 -0.02405766 -0.14323188 -0.1573201
0.042814843 -0.034091063 -0.028707707 -0.029974842 -0.013712046 0.0010754714 0.049758453 0.081802286
-0.08093568 -0.01111701 0.08766521 0.10667655 0.5609763 0.028533427 0.21086453 0.10743447
-0.094925255 0.021787133 -0.040786896 0.05128443 0.09064649 -0.018846584 0.036253985 -0.517318
-0.05366878 0.0679969 0.051216736 0.010767731 -0.55950755 -0.040574484 -0.014178251 0.113663815
-0.00300129 0.12723891 0.0011496006 -0.18495123 -0.07673223 0.0012165336 -0.35894537 0.14633037
0.010085933 -0.14148547 0.0550505 0.029020328 -0.08943738 0.07773736 -0.050116055 -0.12498145
-0.018888704 0.5062602 0.14598621 0.49064338 0.012701442 0.08400973 -0.3392092 -0.060923945
0.12018591 0.0906989 0.35996565 0.05718482 0.03855091 0.04815091 0.050170638 -0.041729722
-0.015549555 0.05676734 -0.16838953 0.08160882 0.18008234 0.0028933634 0.38131654 0.06464601
-0.0301725 0.03334849 0.20949471 -0.05760685 0.01671402 -0.11761808 0.013229698 0.09909327
0.33005574 0.07428733 0.073522665 0.35135254 -0.25493032 0.21548365 -0.22396159 0.028524062
0.09075901 -0.010078721 0.08150315 0.20806363 -0.03971519 0.20682022 0.04813162 0.156152
0.15420556 0.27895027 0.17715555 -0.38253546 -0.052904375 -0.06078129 -0.19270986 -0.045607477
0.20641646 -0.10452884 -0.056938697 0.4105352 -0.39643124 0.063986726 -0.00022871648 -0.06598843
0.2870204 0.19082774 0.08015675 0.027963575 0.019323861 -0.20939103 0.124425545 -0.041111484
-0.010243414 0.2584152 0.19304568 0.17736088 -0.058894113 0.124812014 -0.4448077 -0.2518569
0.1902518 -0.40618294 0.06639913 -0.09711988 0.24565317 0.02552281 -0.067294955 0.051211655
-0.10171547 -0.04518673 -0.2187851 0.060458984 0.20363946 -0.514527 -0.18227446 0.07993268
-0.031656936 -0.011979417 -0.36466423 0.0012733428 0.104118586 0.016805187 -0.016882299 0.055878356
0.122448355 0.009082346 0.003397278 -0.21750972 0.14127915 0.21059477 0.01782062 0.08288098
-0.012200932 0.17613521 0.12886362 0.10827823 -0.028360985 0.12547225 -0.0015769834 -0.1298157

fc2.weight f4 [300, 400]
00000000: 702a ba3c f246 b43a eccc 573d beda d3bc
00000010: 88bb 88bc 9693 163e 6cb5 ae3d 7bff 5e3d
00000020: 2a10 a53d 9812 053d b860 a1bc d91f 94bc
00000030: 90da d8bc 471e 67bd f506 5bbd a0d4 39bd
00000040: af26 3fbd aed1 4fbd 675f 023d 2e71 0d3d
00000050: 3678 f93b 3a52 653d 4f42 b03c bb91 543d
00000060: 3815 493d 32ff 173e 0fc3 16bd ea2d 8338
00000070: 8d4b 5dbd a4eb eabc ff72 a43c c6fd 793c
00000080: 6415 cc3d 1614 613d e496 95bd 5169 733d
00000090: dd47 153d b470 d33c 62ec 83bc aaac 113d
000000a0: 746a c23c 596a 883b 3fda d23c 1f72 ab3c
000000b0: 491a 4c3d cf4a 113c c5a0 593d f841 e93c
000000c0: 859f b2bc 3b2b a2bd 8517 203c 2c72 5ebb
000000d0: 49a3 c33d 282c 62bd 872b 22bd 419e 463d
000000e0: 3a53 a8bd 9553 f23b 4172 4c3d 2750 c13c
000000f0: 10f2 dd3c 32b0 5a3d e09c 74bc e0b8 fa3d
00000100: 2da1 483d 7ab3 4f3c 9a31 663c fd05 bebc
00000110: b06a 303c cfb8 47bd 9d53 973d e8bb 633c
00000120: 8ea6 29ba b6b3 2b3d 50bb 10bd f2e6 62bd
00000130: b389 e7bc 8fb2 61bd ec4c e53d 222b 02bc
00000140: 493c 01bd ee95 0c3b b69b 563d 50be 133d
00000150: c30b 1ebc 6ebb 51bd 91a3 993d eff4 5c3d
00000160: 770b 1cbd 6875 febc 9ada e53d e8dd 16bd
00000170: 3512 3d3e 06b8 3a3d 1e58 3fbd 844b 393c
00000180: 0b09 2a3e b4ae 17bd 6dff 033d e83b 803d
00000190: 96cd d23c 4ef6 5eba cffc 643e 925c 30bd
000001a0: 064a 283d b7d8 0abd 4e77 15bd 8386 7c3d
000001b0: bc1f 34bd f5f8 1abd 1fe4 e5bc 85fa 133d
000001c0: ed59 453d 2476 683b be50 ae3b f138 033d
000001d0: 6161 3c3b 05b7 3a3d fd7f 51bd 880a d5bc
000001e0: d8fd 273d 860a 473d 9bbe d93c 65f4 273c
000001f0: 5e06 69bd 87f7 063b 9144 d3bc 9018 0a3d
00000200: a6f5 2abd cedb 343d b01c 58bd 9203 ee3c
00000210: b0da b63c 13a2 3bbd 2260 20bd 5e1e 683d
00000220: 0cc7 edba fc96 953d a527 f3bc 758e 3e3d
00000230: e41d 47bc 6b42 c9bb 981e ddbc 3702 143d
00000240: ef5f a9bd 27c8 3ebc d91d bcbc 747c 863d
00000250: fc7e 8c3d 0a5c 5d3d 5880 cc39 137e f73c
00000260: da3e 273d a2aa 2fbd c77f 2c3d dec5 293d
00000270: 7cd0 19bd e325 49bd 5e7f e73c e55c 263c
00000280: d30b 0c3d 58c2 e3bc c6bb 56bc 40d9 ab3d
00000290: feb2 663d 7450 72bd 8aca 653b 4a83 a6bc
000002a0: 9382 46bd 58c5 823c 9ed7 09bc d131 043d
000002b0: 505e 92bc 048d b73d 7b17 133d 28ed 4f3d
000002c0: c27d 2e3d a3d7 63bd 8602 62bd c680 1cbd
000002d0: 1de7 16be 8146 813d 2262 70bc d1ac 42bc
000002e0: 2b5a 4e3d ef9a d8bb dd4d 423d c504 b4bc
000002f0: 7217 da3c 3165 83bc 0fde 13bd 33a9 443d
00000300: 5ee0 2e3d 82e4 1a3e 035a 8dbd c368 473d
00000310: 4ae5 e4bc 92d0 053d 25fa edbc 6f0c 39bd
00000320: 49fe 86bc d510 223c e871 413d 6030 813d
00000330: 4b56 553d f2b3 d43c fd8c 9ebc 6f9c a13d
00000340: 557c 96bc 353a 17bd 6ece 143d 642a 013d
00000350: fd89 dd3d a61a 14bd bb9b 31bd 059a 643d
00000360: dd1f 813d 595d 09bd 2ed8 8fbd 2463 33bc
00000370: 153c 8f3b 127c 15bd 2db1 da3c 7dd1 4d3d
00000380: 294c 323d c8a8 85bd f716 efbb 956f 0cbd
00000390: ff32 40bb 517b 5fbd 0f01 4f3d 67e4 c6bc
000003a0: 72ea 663d fac9 60bc 2ad2 8b3d b926 543d
000003b0: 8439 423b 36fb 843c 8004 683d 7762 753c
000003c0: d6f9 5a3b f634 123d 2e1f 193e 6d93 163d
000003d0: 582b e53d 1ad6 173d 3ab1 df3c d15d 703d
000003e0: 37c1 533d fd13 ac3d 4057 35bd 3b2e 543d
000003f0: 9128 4d3a cdff b73d cf76 663d a5dc c5bc
0.022725314 0.0013754054 0.052685663 -0.02586114 -0.016690984 0.14704737 0.08530697 0.054442864
0.08059724 0.032488436 -0.01969944 -0.018081592 -0.026471406 -0.05642536 -0.05347343 -0.04536879
-0.04666775 -0.050737076 0.031829264 0.034531765 0.007613207 0.05598662 0.021515993 0.051896792
0.0490925 0.14843443 -0.036807116 6.255119e-05 -0.05402713 -0.028676815 0.020074366 0.015258258
0.099650174 0.054950796 -0.07304171 0.05942661 0.036445487 0.025810577 -0.016103927 0.035565056
0.023732401 0.0041630683 0.025738833 0.02092844 0.049829755 0.008867933 0.053131837 0.02847384
-0.02180458 -0.07918402 0.0097712325 -0.0033942563 0.095526285 -0.055217892 -0.039592292 0.048490766
-0.08218999 0.0073952177 0.04991365 0.02359779 0.027092963 0.05339069 -0.01492998 0.12242293
0.048981834 0.012677068 0.014049912 -0.023196215 0.010767624 -0.04876023 0.07388995 0.013899781
-0.0006471657 0.041919433 -0.035334885 -0.055396028 -0.028263902 -0.055101927 0.11196312 -0.007944854
-0.031551633 0.002145167 0.05239459 0.036070168 -0.009646359 -0.051204138 0.07501901 0.053944524
-0.03809687 -0.031061843 0.112233356 -0.03683272 0.18463977 0.045585655 -0.046714894 0.011309508
0.16605012 -0.037031844 0.032226015 0.06261426 0.025732797 -0.000850533 0.22362064 -0.043057032
0.04108622 -0.03389808 -0.03649073 0.061651718 -0.043975577 -0.03783508 -0.028062878 0.036127586
0.048181463 0.0035470808 0.005319684 0.032036725 0.0028744566 0.045584697 -0.05114745 -0.026005998
0.04101357 0.04859402 0.026580146 0.010251139 -0.056890838 0.0020594315 -0.025789531 0.03371483
-0.041738175 0.044154935 -0.052761734 0.029054437 0.022321075 -0.045808863 -0.03915418 0.056669585
-0.0018140986 0.073041886 -0.02968199 0.046522576 -0.012153123 -0.006141951 -0.026992127 0.036134925
-0.08270251 -0.0116444 -0.022963451 0.06566706 0.06860158 0.054042853 0.00039005536 0.030211484
0.040831424 -0.042887338 0.042114045 0.041448466 -0.03755234 -0.049108397 0.028258976 0.010153984
0.034190964 -0.027802631 -0.013106292 0.083910465 0.056323044 -0.059158757 0.003506335 -0.020326275
-0.04846437 0.015963241 -0.008413224 0.03227407 -0.017867237 0.089624435 0.035911065 0.05076328
0.0426004 -0.05562557 -0.055178188 -0.038208745 -0.147366 0.06312276 -0.014671834 -0.011882023
0.05037896 -0.0066102664 0.047437537 -0.02197493 0.026622508 -0.016039463 -0.036100443 0.048012923
0.042694442 0.15126231 -0.06901934 0.048683893 -0.027941365 0.03266961 -0.029049942 -0.045177873
-0.016478674 0.009891708 0.04722777 0.06308055 0.05208425 0.02596471 -0.019354338 0.078911655
-0.018369833 -0.036920745 0.03632968 0.031534567 0.10817335 -0.036158226 -0.043361407 0.055810947
0.063049056 -0.03353629 -0.07023655 -0.01094893 0.004371176 -0.036495276 0.026695812 0.05024861
0.043529663 -0.06526333 -0.007296439 -0.0342861 -0.002932727 -0.054560963 0.05053812 -0.024278833
0.05637593 -0.01372003 0.06827195 0.05179474 0.0029636333 0.016233068 0.056644917 0.014977089
0.0033413074 0.03569504 0.149533 0.03676169 0.11189908 0.037069418 0.027306188 0.05868322
0.051697936 0.0840225 -0.04427266 0.0518019 0.0007826174 0.08984337 0.05626565 -0.024153063

fc2.bias f4 [300]
00000000: 69de 88bc d495 a73b 7354 523d 31f3 b43c
00000010: 62d3 6f3d 4656 f33b 3aa6 9abc b75d 923d
00000020: 2421 9d3c 3293 79bc d622 2dbd f6eb 793d
00000030: 99c3 b83b a4ae 843d 5278 6e3d 949e fd3c
00000040: 43ba 483c 573e 0fbc f88b 9b39 1d5c 043d
00000050: ae50 ab3c ba4e 4e3d aee0 00bd 6678 0dbd
00000060: 0b4a 87bc f309 6b3c 0cf4 163d b2f8 43bd
00000070: f3f0 08bd d7b3 edbc ceed 473d be58 a5bc
00000080: 2af9 af3c db4b 583b 2123 9b3c ec89 783d
00000090: 8253 02bc bb0b c63c 3f01 2a3d dc6d 423c
000000a0: e621 1b3d 1485 033b 9a9e 013d 4a99 2f3d
000000b0: 6b36 903d 56c8 0f3d 542f f9bc 4135 43bc
000000c0: 3832 bd3b 0b06 3fbb 7baf fabc b389 93bc
000000d0: 1422 633c 8b46 0abd 10b9 513d 7107 b6bb
000000e0: 4af4 833d 7994 3d3d 0519 4bbc 92e8 d3bc
000000f0: 3ea9 1dbd cb2c af3b ad58 893a 3ed6 42bc
00000100: 9fe1 e63c 9f4c aebc 513f 283d 95f0 b53c
00000110: 5ab1 28bd 0d44 3d3d 3a3e 5f3c bbd6 29bc
00000120: ce7c 1ebc cbf5 4fbd 3db9 07bd 1d60 203a
00000130: e003 16bd f74a 8d3c 13aa 8ebc bd04 c13c
00000140: 152f 0bbd a2db 863d bbfc 18bd ce7e 3bbd
00000150: c41f e4bc 2bf8 a6bc bdfe 223c 307b be3c
00000160: 89b7 31bc 67ac 903d ffc0 113d 5267 8db9
00000170: aeed e2bc ea51 f3bb 8b8f 373d e60f 81bc
00000180: b5d0 f13b c47c 13bd 8b29 78bc 484a 0b3d
00000190: 9be9 95bc ba53 333d 72f6 99bc 935d bb3c
000001a0: 5a70 5ebc 599a bcbb ba8a e0bc 2b95 d43c
000001b0: f52e 5d3d daf2 473c b8be 483d 6f14 513b
000001c0: 6f81 50bd 9ab0 8c3b f38e cdbc 6232 21bd
000001d0: b5fc 533d b8bc 50bd 2a18 0e3d 5468 5a3d
000001e0: 3cc7 cfbc 3843 25bd 1af9 a33c 4499 cdbb
000001f0: d5bd dd3c 93e0 e9bb 4302 883c dd2c afbc
00000200: 1b3c 41bb 2a22 02bd b681 283d bbb1 563d
00000210: 3721 783d 7fc9 043d 3697 a0bc b141 cdbb
00000220: e375 5bbc 3ad7 823c fe66 b4bc f432 083d
00000230: 6b55 b73c 07e3 6b3c 2236 363d 3384 143d
00000240: 5303 0cbd fa3d 6a3d dec3 3b3d 125f 483b
00000250: 6914 713d 8199 8b3c 0332 9dbb bba6 853c
00000260: f213 2a3d 85f4 16bd 8514 15bd e99c 10bd
00000270: 54ea f4bc f784 0e3d 917a 3c3d 3cf7 e73c
00000280: 399f 81bc e01a 3a3d 7806 923b 714c cebc
00000290: f98b 03bd 1688 473d 14a5 143c a3ee d8bc
000002a0: cca8 343c e2ac 823d 1d85 67bc 157b 84bc
000002b0: bec4 973c a2d2 0fbd 4463 30bc 9bb7 693d
000002c0: 63de 603d 38a6 90bc d46a e6bc 63a8 793d
000002d0: 9c09 0c3d 0152 d0bc ad45 023d 60b2 dfbb
000002e0: cc42 673d 9f32 903c 25a9 d93c 775e 4fbd
000002f0: 2e3a 773d ec2c 803b 07fe 06bb c865 5d3d
00000300: 7a90 b93c e03e 093d 03a9 21bd 7eb0 0dbc
00000310: c927 863d d25f 07bd b0b7 93bc ebfd 4abd
00000320: 37ea 263c ee7a ecbc 132b 433c 43f7 953c
00000330: ba84 26bd 738b 1ebd 5f2b 8c3d c186 283d
00000340: 1b0f f43c 8dda 48bc 4e71 7d3a ad31 c9bb
00000350: 7b86 a63b 0881 1cbc 38a9 26bd 85d2 1fbd
00000360: 9d06 843c 671f 00bd 4390 5b3d 2386 6d3d
00000370: 60f4 483d c9b4 0d3d acdb 663d 0549 033d
00000380: 1b60 043d 4a05 753d 0bcb d13c 08ac cdbb
00000390: ecd4 a13c 6df7 343d 3952 eebb fb3f 8b3d
000003a0: 0446 a6bc c2d9 3fbd 6e98 1f3c 60cc 6f3d
000003b0: 46d4 62bb 1f5f 1dbd 9a14 7e3d 94f8 4c3d
000003c0: 799a 92bc af0a 39bd 1c30 913c 347f ee3b
000003d0: 6291 25bd da7f 8c3c de8b 823d b16a 0e3c
000003e0: 37d5 7e3d f28d d03c 242a f73c e910 5dbc
000003f0: 3aa5 5e3c 3319 18bd daa3 babc 55ce cbba
-0.016707616 0.0051142965 0.05135007 0.022088619 0.0585512 0.007426056 -0.018878091 0.07146781
0.019180842 -0.015232848 -0.04226955 0.061016046 0.0056385514 0.064786226 0.058220215 0.030959405
0.0122514395 -0.00874289 0.0002966819 0.03231441 0.020912495 0.05036805 -0.03146427 -0.03453865
-0.016514799 0.014345634 0.036853835 -0.047844596 -0.033432912 -0.029016418 0.048810773 -0.020183917
0.021481115 0.0033004198 0.01893765 0.060678408 -0.00795448 0.024175515 0.041505095 0.011867013
0.037874125 0.0020068334 0.031645395 0.042870797 0.070416294 0.035103165 -0.030418076 -0.011914552
0.005773809 -0.002914789 -0.030601254 -0.018009996 0.013863105 -0.03375868 0.05120188 -0.0055550863
0.06443079 0.046284173 -0.012396102 -0.025867734 -0.03849148 0.005345916 0.0010478698 -0.0118919
0.028183756 -0.02127677 0.04107601 0.022209445 -0.04118476 0.046207476 0.013625676 -0.010366137
-0.00967331 -0.050771516 -0.03313564 0.00061178376 -0.03662479 0.01724766 -0.017415082 0.02356183
-0.033980448 0.065848604 -0.037350398 -0.045775227 -0.027847178 -0.020382008 0.00994843 0.0232521
-0.010846981 0.07064133 0.035584446 -0.00026970595 -0.027701225 -0.0074255364 0.044814628 -0.015754651
0.007379616 -0.036007658 -0.015146623 0.034006387 -0.018299868 0.04378102 -0.018794272 0.022871768
-0.013576591 -0.0057557044 -0.0274099 0.025950035 0.05399986 0.012203896 0.04901001 0.0031903049
-0.050904687 0.0042935135 -0.025092578 -0.03935469 0.051754672 -0.050961226 0.034691013 0.05332215
-0.025363557 -0.040347308 0.020016242 -0.006274374 0.027068058 -0.007137367 0.016602641 -0.021383697
-0.0029485289 -0.031770863 0.041139327 0.05241559 0.06057855 0.032418724 -0.019603353 -0.0062639345
-0.013394806 0.015971769 -0.022021767 0.033251718 0.022379598 0.014397389 0.04448522 0.036258887
-0.034182858 0.05718801 0.04584109 0.0030574244 0.058857355 0.01704097 -0.0047972216 0.016314855
0.041522928 -0.036854286 -0.036396522 -0.03530589 -0.029896893 0.034794774 0.046015326 0.028316133
-0.015822994 0.045435786 0.0044563375 -0.025182934 -0.03211591 0.048713766 0.009072561 -0.026480978
0.011026572 0.06380631 -0.014130858 -0.016171971 0.018526431 -0.035112984 -0.010765854 0.057059865
0.054899585 -0.017657384 -0.028127111 0.0609516 0.03418885 -0.025429728 0.03180473 -0.006826684
0.056460187 0.017602263 0.026569912 -0.050627198 0.06035822 0.003911605 -0.002059819 0.054052144
0.0226519 0.033507228 -0.039467823 -0.008648036 0.06550557 -0.033050366 -0.018031925 -0.04955856
0.010187677 -0.028867211 0.011912125 0.01830638 -0.04065392 -0.038707208 0.0684421 0.041144136
0.02979236 -0.012259138 0.0009668068 -0.006139955 0.0050819493 -0.009552248 -0.040688723 -0.039019126
0.016116435 -0.031279948 0.053604376 0.05798925 0.04906118 0.03459624 0.05636184 0.03205206
0.032318216 0.059819497 0.025609514 -0.0062766112 0.01975485 0.044181276 -0.0072729853 0.06799313
-0.020297058 -0.04683853 0.009740932 0.058544517 -0.0034611388 -0.038420793 0.062031366 0.05004175
-0.017895924 -0.045176204 0.017723136 0.0072783474 -0.04042185 0.017150808 0.06374334 0.008692429
0.062215056 0.02545831 0.030171461 -0.013492801 0.013589198 -0.037133407 -0.022783209 -0.0015549163

bn1.weight f4 [400]
00000000: bcd0 893f b874 793f a6cd 803f b409 823f
00000010: 962d 7a3f a330 983f d205 883f 6260 8c3f
00000020: bc1c 853f 1244 7a3f 2ed5 7b3f bb0b 903f
00000030: 3e9d 873f 884e 973f 730a 783f 5cc8 7b3f
00000040: c167 813f 935f 943f f055 803f bfc6 7b3f
00000050: be60 903f 388a 7b3f f999 8d3f b55a 7c3f
00000060: 85df 883f ce18 923f 3fee 803f 198f 7f3f
00000070: cbde 7f3f 27bf 7b3f 6186 833f 4f9f 843f
00000080: 39c7 803f 4b26 813f 641c 8b3f 862c 943f
00000090: bf60 873f a71c 8a3f 47c1 7a3f 2611 8c3f
000000a0: 03a3 7d3f d31c 823f fb21 843f f348 7e3f
000000b0: 43f4 853f abd4 783f 42e7 7a3f 412f 7d3f
000000c0: 4011 7d3f d60b 9a3f 34ff 893f 38d2 803f
000000d0: 5634 9c3f ef02 8b3f fa92 883f 4019 813f
000000e0: 7277 8c3f 7267 7e3f d0a3 813f 84cc 7d3f
000000f0: 3b68 923f b649 7a3f 854b 843f e92b 8b3f
00000100: 62c8 833f c2b8 8c3f 5f65 813f 6b61 833f
00000110: 2617 833f b5df 7c3f 33c4 963f dc89 943f
00000120: 5423 7b3f 98de 863f b434 7b3f d663 833f
00000130: a7a5 7b3f 99b7 803f f4e9 893f be97 823f
00000140: 0ca6 8e3f 2b63 833f 7851 7a3f 9b9f 793f
00000150: 54a7 783f 60df 893f 1a3e 8a3f 7e33 823f
00000160: 74ec 783f 5c32 7a3f 7c8f 8e3f 8e5b 903f
00000170: ca18 8f3f 35ec 913f d28f 883f 25cd 8c3f
00000180: 2924 913f f376 793f a5dd 7e3f 8b51 863f
00000190: 57ec 883f 7217 893f fddd 9a3f 813e 803f
000001a0: 614a 893f b461 823f 651b a03f 3075 893f
000001b0: 6e13 813f 0a96 7b3f 6d81 873f 01a7 983f
000001c0: c24c 7a3f 96eb 873f 8fff 833f 26a8 7d3f
000001d0: f648 953f 16b4 803f 6350 8c3f fc3a 793f
000001e0: e406 843f b5c5 783f ec28 923f 1c77 923f
000001f0: 9003 993f b6bb 823f 0347 883f c9b9 843f
00000200: 19c8 873f 8040 7e3f 4f07 833f 3458 7f3f
00000210: d018 7a3f 7724 803f aaa2 7c3f b8d2 7a3f
00000220: ac44 843f 7d23 9e3f 4f1b 7c3f 4fd8 853f
00000230: 9975 7d3f e9d4 783f c47e 943f ce5a 773f
00000240: 070a 8a3f 8e7a 803f 2621 7d3f ee5c 863f
00000250: f28e 813f a38a 7b3f fa8e 813f da5a 8b3f
00000260: 7fb1 8a3f 594a 853f cf65 7c3f 49ff 7b3f
00000270: e5f8 7f3f 1034 8c3f 9ae6 863f 00c1 783f
00000280: ccb9 793f 30d6 913f 1c43 7f3f cf4f 853f
00000290: f5c2 7d3f 528b bc3f c090 7d3f f03f 973f
000002a0: f484 7f3f d6ae 853f 64ae 873f 71db 7b3f
000002b0: 82a7 763f 9c88 893f 5c06 7c3f 4fda 833f
000002c0: 2017 833f 18e6 913f 47fc 7e3f bfd1 793f
000002d0: 7c5e 973f b988 803f 138b 7c3f c9c2 7e3f
000002e0: 431b 7c3f 1782 833f 4b3c 7d3f 191f 8f3f
000002f0: 3887 7a3f 91d1 7c3f f65e 7d3f 0502 803f
00000300: 7716 7d3f 0f63 a83f a7f0 8a3f 9499 873f
00000310: 6dd7 7b3f f3f4 8b3f 7fa5 913f fe1a 853f
00000320: e7fe 823f 1611 7b3f b42a 783f f2c6 823f
00000330: 474b 793f 0141 7c3f 7bee 823f 2f6f 973f
00000340: 81b4 873f bc42 7d3f b48b 7e3f 8998 793f
00000350: e50a 883f 51e8 8d3f 0644 813f 4f64 7a3f
00000360: 46ef 873f 50ba 8a3f 79c0 803f 09b9 7a3f
00000370: dfdf 823f 0534 773f 6c1a 893f 7223 863f
00000380: d99a 7c3f 2942 993f ff64 7c3f 8cdf 873f
00000390: 3efc 7b3f 416f 9d3f b72a 7f3f f155 803f
000003a0: af64 783f f155 803f cb87 953f 4879 963f
000003b0: 979c 9a3f cd63 813f 48fb a03f 7dce 8a3f
000003c0: 46e1 853f 632d 7e3f bcf6 8e3f 86a2 7f3f
000003d0: d072 903f 12e9 7c3f 5f64 813f fe90 803f
000003e0: 8b27 8d3f 06b6 a23f a73a 823f 2214 8a3f
000003f0: 56a4 793f 3651 863f b971 8b3f d8b4 8b3f
1.0766826 0.97443724 1.0062759 1.0159211 0.9772581 1.1889843 1.0626776 1.0966914
1.0399394 0.9776012 0.9837216 1.125358 1.0594862 1.1820841 0.96890944 0.983526
1.0109788 1.1591667 1.0026226 0.9835014 1.1279523 0.9825778 1.1062614 0.9857591
1.0693213 1.141382 1.0072707 0.99827725 0.9994933 0.9833855 1.0275384 1.0361117
1.0060798 1.0089811 1.0868039 1.1576087 1.05764 1.0789994 0.9795117 1.0942733
0.9907686 1.0165046 1.032287 0.9933006 1.0465168 0.97199506 0.9800912 0.9890023
0.98854446 1.2034862 1.0781007 1.0064154 1.2203472 1.086027 1.0669854 1.0085831
1.0973952 0.99376595 1.0128117 0.9914019 1.1438059 0.97768724 1.0335547 1.0872775
1.0295527 1.0993884 1.0109061 1.0264105 1.0241439 0.9877885 1.1778625 1.1604571
0.9810078 1.053668 0.98127294 1.0264843 0.9829964 1.005603 1.0774522 1.0202558
1.1144423 1.0264639 0.9778056 0.97509164 0.9713032 1.0771294 1.0800202 1.0171964
0.972358 0.9773309 1.1137538 1.127794 1.117944 1.140021 1.066889 1.1000105
1.133916 0.9744713 0.9955695 1.0493635 1.0697125 1.071028 1.2098995 1.0019075
1.0725824 1.0186067 1.250836 1.0738888 1.0084054 0.98275816 1.0586373 1.1925966
0.97773373 1.061877 1.0312365 0.990847 1.1662891 1.0054958 1.0962032 0.9735563
1.0314603 0.97176677 1.1418738 1.1442599 1.1954212 1.0213535 1.0646671 1.0369197
1.060794 0.9931717 1.0236605 0.9974396 0.9769411 1.0011128 0.98685706 0.9797778
1.0333457 1.235458 0.9847917 1.0456637 0.99007565 0.97199875 1.1601186 0.9662293
1.078431 1.0037401 0.98878706 1.049711 1.0121748 0.9825842 1.0121758 1.0887101
1.0835418 1.0413314 0.9859285 0.9843641 0.9998916 1.0953388 1.0539124 0.97169495
0.9754913 1.139349 0.99711776 1.0414981 0.99125606 1.4730017 0.99048996 1.1816387
0.99812245 1.0443981 1.0600095 0.98381716 0.96349347 1.0744815 0.98447204 1.0300997
1.0241432 1.1398344 0.99603695 0.9758567 1.1825709 1.0041724 0.9864971 0.9951597
0.984791 1.0274075 0.98920125 1.1181365 0.9786258 0.9875727 0.98973024 1.0000616
0.98862404 1.315523 1.0854691 1.0593743 0.9837559 1.0934128 1.137863 1.0398862
1.023404 0.98072946 0.9694016 1.0216963 0.9738049 0.9853669 1.0229028 1.1830806
1.060196 0.98929954 0.9943192 0.97498375 1.0628325 1.1086522 1.0098884 0.9780931
1.0619895 1.0838108 1.0058738 0.9793859 1.022457 0.9656375 1.0711188 1.0479567
0.9867378 1.1973315 0.9859161 1.0615096 0.98431766 1.2299577 0.9967455 1.0026227
0.9702863 1.0026227 1.1682066 1.1755762 1.2079037 1.0108582 1.2576685 1.0844265
1.0459373 0.99288005 1.1169047 0.99857366 1.1285038 0.9879314 1.0108756 1.0044248
1.1027693 1.2711799 1.0174149 1.0787394 0.9751638 1.0493534 1.089408 1.0914564

bn1.bias f4 [400]
00000000: 5a8d dbba 8adb eebc 04fb 81bb cc72 313b
00000010: f169 cc3b 89b0 ebbc d5d4 1dbd 2a61 913b
00000020: dd3e 753c 32bc 84bc 5c44 5c3b eec3 d03b
00000030: 6a9f 78bb 0d9d af3c bfcd 02bd 9a67 6c3b
00000040: f2fa 23bc 94f3 693b fd7c 31bc fed2 94bc
00000050: e79f 1f3c 895a c4bb 73ac a23c 71ce 8ebc
00000060: fa70 2b3c f13a 973c 7067 77bc 26fa ecba
00000070: a35c 70ba 2409 4dbc ea46 113c d325 8c3a
00000080: faf7 f7bd 9878 6939 6feb 11bb db82 8f3a
00000090: 7d56 09bc 3aa2 4f3c a40c 60bc eba4 233c
000000a0: ebee 55bc 4a5f 053c 4817 8dba f002 b7bc
000000b0: fe26 48bd d0ac c2bb 0f1d 6fbc a17f 4cbc
000000c0: 96a2 18bc 1edf 5ebb b74b 263b 7537 48bb
000000d0: f775 203d d173 b83b a9f2 343c 3d48 333c
000000e0: 2308 183c 83a0 3fbc e2e8 b9ba 0660 f83a
000000f0: 3298 373d 8965 d3bc 6ac4 853c bb81 743d
00000100: 92f7 743c 6f16 403c fe25 9a3c 5195 903b
00000110: d554 8c3a 04d5 83bc ad93 29bd f1cf e03b
00000120: 5e2c 9bbc 099e 9abc 9e94 78bc 4cfc 81bc
00000130: 8772 6c3a c2d6 4ebc dd11 39bd 6de8 4b3d
00000140: 5610 203a 07bd 6ebc 3af3 ccbc 9d76 1d3c
00000150: 6f4a a5bc db8d d13c 012a 8b3a 40ef ca3b
00000160: 489c d7bc c022 98bc 041d 173d 3e1c 00bc
00000170: 4d0a a8bc fc49 7c3b 2c2f 013c d527 e93b
00000180: 2e1a c1bb 8469 91bc 16eb 5f3c 0693 963c
00000190: a9e7 19b9 e603 303b ee6c 963c 5fc7 113b
000001a0: f9a2 2b3b 58e9 c83b 3720 053d 34e1 793c
000001b0: 37f2 02bc 25cb 1abc 0759 0ebb 3e3c 69bc
000001c0: 2f46 b5bc 7715 3fba 78e5 143c 1bb5 173c
000001d0: 7eae 2cbb 0aa7 4abc eb58 a2bc 9616 c8bc
000001e0: 2065 32bc 5400 cdbc be48 193c 4f59 043d
000001f0: c739 053c 67d3 4dbc 6009 7d3c c488 1639
00000200: 522e 673d 0a16 86bc e20b 0dbc 29d0 a3ba
00000210: 3887 aebc c4b0 e53a 247a b6ba bb61 86bc
00000220: bc12 213b d3c4 103c d2b2 8cbc 254d 00bc
00000230: f289 4ebc 6107 a73d e117 f6ba b8a6 07bd
00000240: 02f8 0dbc 901d a139 03d3 b4bc 17b2 dfbc
00000250: dcdf aeba 961d cabb b26b 76b9 90cb 24bc
00000260: a976 4b3c 62a4 5dbd bcf0 11bd 44c7 7c3a
00000270: c123 4abb 8e8b dc3b bebc 1abc f97b 80bc
00000280: 0d6f b8bc c187 de3b 0e91 2d3b 9e4e 50bb
00000290: bad6 a7bb 0511 4d3c ff01 1dbc 7250 493b
000002a0: 1f4d 6dbc ffae 7e3d ffcd 943c df44 b2bc
000002b0: 71cc 2abd 9803 36ba eab4 88bc 28f9 02bc
000002c0: d5a7 b839 60ba 263b c7fc 1cbc bc63 c2bc
000002d0: f118 ab3b d324 4f3b 6ce5 52bc d40b 4abb
000002e0: c6f1 f6bb be9a 513c e886 45bc 89a7 79b9
000002f0: 66c9 bebc bc83 01bc 9504 01bc 7809 45bc
00000300: 80ff 56bb 0666 b03c 737e f53c f33c a4bc
00000310: f222 d2bc 32a7 e9bc fe66 87bb e22f 5b3c
00000320: 6803 cd3a 28a8 75bc 8f68 03bd 7d96 42ba
00000330: a2af 73bb 1c7d abbc de98 f63a 376e 823c
00000340: 83b3 0dbd b6c5 89bc bb81 543c edbc d0bc
00000350: 6b79 ee3c 9d14 c83b f857 68bb 1599 c9bc
00000360: cd71 be3c 01a5 2cbc 5a26 79bc b4b0 b4bc
00000370: c396 b73a b1d6 ba3d 1e97 083c c78d 02bb
00000380: e883 80ba ceea a33c a603 85bc 0e22 b63c
00000390: 46b9 d5bc d557 eb3a f70f acbc 07d7 2fbb
000003a0: 2cf4 7bbc 8141 c7ba 45f1 eabb 770b b83c
000003b0: 805f 0d3d 74da 0bbb ebf9 0c3c 3667 8e3b
000003c0: 2a64 173d a1bb 363c e4f3 12bc 0358 81bc
000003d0: 92f6 b03c 19ff 91bc aaa9 55bc 9f54 9bba
000003e0: 51c2 8f3b e70e 6b3c 788e bb3b 0be0 a23a
000003f0: 5bab b0bc 8952 a53c d91c bcbc c04f a0bb
-0.00167505 -0.029157419 -0.003966691 0.002707648 0.006238215 -0.028770702 -0.03853305 0.0044366317
0.014968601 -0.01620302 0.0033610081 0.006371013 -0.0037936815 0.021437192 -0.031934496 0.0036072494
-0.0100085605 0.0035698162 -0.010833022 -0.018167015 0.0097427135 -0.005992238 0.01985762 -0.017432423
0.010463947 0.018460723 -0.015100345 -0.0018079921 -0.00091690774 -0.012514386 0.008867005 0.0010692425
-0.12107845 0.00022265536 -0.0022265573 0.0010949032 -0.008382437 0.012672955 -0.013674889 0.00998805
-0.013057451 0.008140394 -0.0010764385 -0.022340268 -0.04886531 -0.005941011 -0.01459433 -0.012481601
-0.009316107 -0.00340075 0.002537472 -0.0030550633 0.039175 0.0056290408 0.011044183 0.010942516
0.009279284 -0.011695984 -0.0014183784 0.0018949516 0.04482288 -0.025805252 0.01632901 0.059694033
0.0149516035 0.011724099 0.018816944 0.004412331 0.0010706434 -0.016092785 -0.0414006 0.006860726
-0.018942054 -0.018874185 -0.015172152 -0.015867375 0.00090197515 -0.012624444 -0.04518305 0.049782205
0.000610595 -0.014571435 -0.025018323 0.009610799 -0.020177094 0.025580337 0.0010617377 0.0061930716
-0.026319638 -0.018571258 0.036892906 -0.007819233 -0.020512724 0.0038496247 0.007884782 0.007115344
-0.0058930134 -0.01775051 0.013666889 0.018380653 -0.00014677517 0.0026857792 0.018362489 0.0022244079
0.0026189669 0.0061313324 0.032501426 0.0152514465 -0.007992319 -0.0094478475 -0.0021720545 -0.014235554
-0.022128193 -0.000728927 0.009087913 0.0092594875 -0.0026349123 -0.012368927 -0.01981779 -0.024424832
-0.010888368 -0.02502457 0.009355722 0.032311734 0.008131451 -0.012562609 0.01544413 0.00014356064
0.05644066 -0.01636793 -0.00860879 -0.001249795 -0.021304712 0.0017523994 -0.0013921899 -0.016404023
0.0024577817 0.008835989 -0.017175112 -0.007830893 -0.012606131 0.08155704 -0.0018775427 -0.03311798
-0.008665087 0.0003073034 -0.022073274 -0.0273066 -0.0013341862 -0.0061680777 -0.00023500508 -0.010058299
0.0124184275 -0.054111846 -0.035629973 0.000964273 -0.0030844065 0.0067305034 -0.009444414 -0.015684115
-0.02251389 0.0067910855 0.0026484164 -0.003178514 -0.005122033 0.012516265 -0.009582995 0.0030718115
-0.014483719 0.062178608 0.018164633 -0.021761356 -0.041698877 -0.00069432845 -0.016687829 -0.007993974
0.0003522026 0.0025440678 -0.009581751 -0.023729198 0.005221479 0.0031607642 -0.012872081 -0.0030829804
-0.007536146 0.012793241 -0.01205609 -0.00023808902 -0.023289394 -0.007904943 -0.007874628 -0.012026183
-0.0032806098 0.021533024 0.029967522 -0.020048594 -0.025651429 -0.028522108 -0.0041321507 0.013378115
0.0015641274 -0.014993705 -0.032082137 -0.0007422937 -0.0037183543 -0.02093368 0.0018813869 0.015921695
-0.034595024 -0.016817909 0.012970383 -0.025480712 0.029110631 0.006105973 -0.0035452824 -0.024609128
0.023247624 -0.010537387 -0.015206898 -0.022056915 0.0014006722 0.091229804 0.00833681 -0.0019920932
-0.0009804936 0.020009425 -0.016237091 0.022233035 -0.026089322 0.0017955253 -0.021003706 -0.0026831047
-0.015378039 -0.0015202017 -0.007169875 0.022466404 0.034514904 -0.0021339925 0.008604507 0.0043458
0.03696076 0.011153133 -0.008969281 -0.015789038 0.021601949 -0.017821835 -0.013040939 -0.001185078
0.004387178 0.014346815 0.0057237707 0.0012426389 -0.021566084 0.020180957 -0.022962974 -0.0048923194

bn2.weight f4 [300]
00000000: 2a8d 833f c0af a33f e699 ad3f 6038 793f
00000010: 0463 b73f 8169 ad3f 1392 833f d3bb d93f
00000020: c548 c23f c849 9c3f df07 9c3f 0ad8 bc3f
00000030: 9e62 953f 8aca a33f 0707 b33f 7b2a b03f
00000040: 9417 0240 67da 823f 148d 933f 9b03 b63f
00000050: 399f a33f f044 8a3f e073 ae3f f2b5 8c3f
00000060: d08d a93f 632b a23f b2db af3f 47aa a13f
00000070: 1d04 a23f 7e90 ab3f 3c70 a83f b01b a93f
00000080: dcb9 8b3f 584d d63f eeb7 9a3f ee2d 7f3f
00000090: b831 c23f 5b18 913f 4086 923f 9538 b83f
000000a0: d2ef c83f dcb7 993f 0d29 c03f 3de7 833f
000000b0: da90 7d3f 267d 8a3f 1564 993f db27 953f
000000c0: 15ff b03f 36df 9e3f 56d0 b23f 2154 843f
000000d0: 30dc 813f 1d83 983f d42e a13f 3e75 913f
000000e0: d419 7f3f 1c0c de3f cb9d ae3f 76b5 ac3f
000000f0: c1be 933f 362a 913f b796 aa3f fd4b ac3f
00000100: fda5 713f 0a99 a43f 58ea a63f 88e3 af3f
00000110: e1c8 8b3f a056 d13f 74f2 8d3f 4e51 a23f
00000120: bf61 973f b858 b43f c3ce 953f 7842 793f
00000130: 5571 bb3f 7792 863f 2a24 dd3f 3249 ad3f
00000140: a514 983f b98d bb3f 2184 933f 8f1a df3f
00000150: 350d c53f c3e0 a63f 72ff 8f3f 4f7c 853f
00000160: 1b1a aa3f 0572 e13f c549 973f 95c4 963f
00000170: aefd 8d3f 560b 913f 521c 803f 71b8 953f
00000180: 9b30 8d3f 4882 ac3f 8557 c83f 93fa 9d3f
00000190: 0a06 b73f a182 8d3f 07d5 b13f ded5 9a3f
000001a0: 5a5e 943f 5cbb 823f e94f a13f 67d7 b13f
000001b0: 2133 ad3f e6d7 a33f 5acd 7e3f 353b c83f
000001c0: 3ec4 b13f a950 b03f a6b5 a93f 22a0 e73f
000001d0: 4509 9e3f e987 c53f 58a6 883f bdb0 9e3f
000001e0: 8d9b 933f 75a8 873f 9f6a 9c3f 38c5 bc3f
000001f0: f791 923f 9c61 883f adce c23f fa74 a73f
00000200: a945 823f 0f3c 993f b243 ab3f 3448 a13f
00000210: cd6a 8c3f 1edd a13f 8f1e 903f 3bb8 a03f
00000220: b38b 953f 8101 8f3f b3ec ac3f 6b1c 833f
00000230: f233 943f b130 813f 447a a33f 1c86 8b3f
00000240: 3f28 8c3f 6431 c93f 8576 a03f 1ce8 973f
00000250: 0f79 8d3f a2f2 8b3f 7bc8 853f a009 813f
00000260: 3340 b33f 05e6 be3f 0558 b53f 8193 7b3f
00000270: 87a2 833f ad82 c73f 8118 ac3f 5200 903f
00000280: bca3 a23f 5930 ae3f 51cd 883f a596 813f
00000290: 5b93 bf3f 2171 a03f b808 b03f ff30 ca3f
000002a0: 88b5 7f3f cff3 9f3f a57c 823f 44fe a23f
000002b0: c296 8d3f d5c6 b93f 3834 923f ac72 bd3f
000002c0: a84f b93f c7aa 883f 775a 923f 9b0e 833f
000002d0: 4e21 ae3f 4fa6 943f df09 a63f 37d2 8d3f
000002e0: b149 a73f f0d2 803f c8a0 a33f a033 a33f
000002f0: ce15 a63f 1157 913f ce56 843f 34c1 9f3f
00000300: 4955 933f a8be b63f a5d5 973f 2d86 a03f
00000310: 67ba 883f c034 a73f 138c 983f fff0 9e3f
00000320: 5326 963f 0e89 a53f 1833 ab3f 38fa d13f
00000330: aa4a 8b3f b1ad 9d3f ace5 983f 08bf 813f
00000340: 6085 913f 3b8e 9f3f fb72 933f 9f24 833f
00000350: d298 c13f 26c7 7f3f 073d 9e3f e668 af3f
00000360: f3d2 863f a41a 993f a321 8c3f 5db8 8f3f
00000370: 99aa 7d3f a94d 873f cc9f 9d3f cc14 853f
00000380: b4d4 973f ddc6 e13f 0bbd bf3f 4eed d03f
00000390: f82a 803f 19dd 803f 7003 a53f bc1e b13f
000003a0: dc72 9e3f 0bf4 933f ea46 b73f 8757 7d3f
000003b0: d03d cc3f b4e5 9f3f f41b 983f 6da1 853f
000003c0: 47de 913f f908 943f fd9a cb3f e537 a73f
000003d0: 2747 8b3f 2060 b23f fabd a83f 1318 bd3f
000003e0: 0c42 883f fcae 8d3f deac 9b3f 531d b13f
000003f0: d9ba 933f d0c9 883f 0267 923f 0fb1 8c3f
1.0277455 1.278801 1.3562591 0.97351646 1.4327092 1.3547822 1.0278953 1.7010444
1.5178457 1.2210016 1.2189902 1.475343 1.167072 1.2796185 1.398652 1.3762964
2.032689 1.0222901 1.1527429 1.421985 1.2782966 1.0802288 1.3629112 1.0993025
1.3246403 1.266949 1.3738921 1.263009 1.2657505 1.340347 1.3159251 1.3211575
1.0916095 1.6742353 1.2087381 0.9967946 1.5171423 1.1335558 1.144722 1.4392267
1.5698187 1.2009234 1.5012528 1.0304943 0.9904915 1.0819442 1.1983668 1.1652788
1.3827845 1.2411869 1.3969829 1.0338174 1.0145321 1.1915013 1.2592416 1.1363904
0.99648786 1.7347445 1.3641905 1.3492877 1.1542588 1.1341007 1.3327245 1.346069
0.94393903 1.2859204 1.3040266 1.3741312 1.0920678 1.6354561 1.1089616 1.2681062
1.1826705 1.4089575 1.1703724 0.9736705 1.4643961 1.0513448 1.7276661 1.3537962
1.18813 1.4652625 1.1524698 1.742998 1.5394655 1.3037342 1.1249831 1.0428561
1.3289217 1.7612921 1.1819388 1.1778742 1.1093042 1.1331584 1.0008643 1.1696912
1.1030458 1.3477259 1.5651709 1.2342094 1.4298718 1.105549 1.3893136 1.2096517
1.1591294 1.0213428 1.2602512 1.389386 1.3531228 1.2800262 0.9953209 1.5643069
1.3888013 1.3774616 1.325856 1.8095744 1.2346579 1.5432101 1.0675764 1.2397686
1.1531845 1.0598284 1.2220038 1.4747686 1.1450795 1.0654788 1.5219322 1.3082573
1.0177509 1.1971453 1.3380034 1.260016 1.0970093 1.2645605 1.1259326 1.2556223
1.1683258 1.1172334 1.3509735 1.0243047 1.1578352 1.0092984 1.2771688 1.0900302
1.0949782 1.5718198 1.2536169 1.1867709 1.1052569 1.0933421 1.0451807 1.0081062
1.4003967 1.4913946 1.4167486 0.9827195 1.0283974 1.5586754 1.3444978 1.1250098
1.2706218 1.3608505 1.0687658 1.0124098 1.4966844 1.2534524 1.3752661 1.5796202
0.9988637 1.249628 1.0194288 1.2733846 1.1061633 1.4513804 1.1422186 1.480062
1.4477434 1.0677117 1.1433858 1.0238832 1.3603914 1.1613253 1.2971762 1.1079777
1.3069364 1.0064373 1.2783442 1.275013 1.2975404 1.1354696 1.0338991 1.2480836
1.1510402 1.4276934 1.1862074 1.2540947 1.0681885 1.3062973 1.1917747 1.2417296
1.1730446 1.2932451 1.3374968 1.6404486 1.0882161 1.2318631 1.194509 1.0136423
1.1368828 1.246528 1.1519464 1.0245551 1.5124762 0.9991325 1.2362374 1.3703887
1.0533127 1.1961255 1.0947765 1.1228138 0.99088436 1.0570575 1.2314391 1.0396972
1.1861787 1.7638813 1.4979566 1.632242 1.0013113 1.0067474 1.2891674 1.3837504
1.2378802 1.1558851 1.4318516 0.9896168 1.5956364 1.2491975 1.1883531 1.0439888
1.1395959 1.1565238 1.5906674 1.3063933 1.0881089 1.3935585 1.3182976 1.4772972
1.0645156 1.1069026 1.216213 1.3837074 1.1541396 1.0686588 1.1437685 1.0991534

bn2.bias f4 [300]
00000000: 12f1 07bd f77f a2bc 3849 dcbc bc60 f2bd
00000010: 4b16 8b3d 283a c6bd 5f9f 3abd a577 0dbd
00000020: 9302 48be e336 d8bd fcc2 ddbd 63db a2bc
00000030: 6bcb 16be f664 92bd 0b8c 78be de71 8abd
00000040: 1062 5ebe 3e30 92bd bd72 41be 63ca a2bd
00000050: 78fb 01be 1a79 d3bd 0e50 49bc eb9f a0b7
00000060: 598c a8bd 5ca1 b63c 442e d9bb 0ca9 563c
00000070: a794 86bd 5b1f 86bd 271e fbbd 8731 c63d
00000080: b3d2 6f3d ce76 1bbd 02e7 9cbd d1cd 84bd
00000090: 4d1e c8bd 0c5a e6bd ef3e 60bd 7aac 83bd
000000a0: df04 0ebe ccba 19bb 8da8 46be 3b29 d4bd
000000b0: dd78 abbd cdfb 08be 3c79 acbd 86e1 f1bd
000000c0: 5981 3b3c c09d fcbd 9d44 f8bd 9a2a 36be
000000d0: f1cf 0abb d69e dfbd 0451 3a3d 2238 43bd
000000e0: 310d 703a e98d 283c a8a2 19be ed4a 0fbd
000000f0: 4849 87bc 8311 ddbd b80c cabd 5d3c 4b3c
00000100: 62e8 d0bd 3500 9ebd 434b 1f3d 7042 cabd
00000110: b414 00be 2743 15be 138c c4bd 3626 873d
00000120: 382d a7bc cfd9 87bd 63f1 7cbd 03d3 943c
00000130: 0891 e4bd 8e1b 69bd 4dc3 3bbe 5c2e 04bc
00000140: ad32 f2bd ce1b 94bd 45b7 e2bd 1fe0 19be
00000150: 5954 a2bd b8f1 cb3d 4f1f 063d 4790 67bd
00000160: 5366 c3bd be3e 24bd c376 0ebe f5ea a3bd
00000170: 7007 97bd d5b9 17bd 274d b3bd fc9c a4bc
00000180: 36b0 12be 4bed cc3d 62bc 5abd 24ae 7ebd
00000190: 5838 15be 33e7 ccbd 8c3a d73c f8d2 4ebd
000001a0: f47d a33d 7606 30be 257a fbbd e2d5 07be
000001b0: bcc5 a9bd b082 86bd 5a0e 62bb fc38 afbd
000001c0: b2c2 ab3d f7b8 51bd 0991 05be 0a4e 15bd
000001d0: de7b eb3c a707 30be 9464 d7bd c7c0 53bc
000001e0: ad57 21bc 371c 03bb c5fd 243c fe72 0abc
000001f0: d8f6 17be a49b 1ebe 4cc0 dfbc ea93 71bc
00000200: 5953 bbbd 3fa9 24be df47 32be 4d37 c13c
00000210: 6b91 acbd 2e5d a2bd 77f5 23bd 4c55 fbbd
00000220: 84f2 00be 90cd 12be 637f 41bd bc45 afbb
00000230: 1fbc c7bb 1b87 c4bd aae8 0cbd bd8a 09be
00000240: cb7b 9bbd f081 1fbd 9e0d 1cbd e56c 95bd
00000250: 16ad cdbd d096 8d3d baac 41bd 2099 97bd
00000260: 72ec 2dbe 4177 d6bd d964 b5bc bdd1 babc
00000270: aa43 53bd a2e5 42be e8bc c0bd 6920 3c3b
00000280: 020f b1bd 5eec abbd e362 693d 0fcd 64be
00000290: 8ce8 693d b906 0dbe 0c88 b5bd 2099 bebb
000002a0: 7972 ddbd 1bbe 0ebe 2bf0 e5bb 199b 1ebe
000002b0: b1eb 24bd d17b 1ebe 56d7 19bc c42c 30bd
000002c0: 04f6 31bd 4a97 09be d97e e3bd 23d1 84bd
000002d0: 3ec9 72bd 8591 163d 71be d5bd 107a 6dbb
000002e0: a172 0abe 7b6d 8b3d be13 35bd a3dc f5bd
000002f0: 4242 c1bd 3066 e9bd c01f 863d d947 983d
00000300: 96ae 39bd c7a3 313c b095 6abd f1bd 91bd
00000310: 91c8 713d 6a99 0fbb ebf3 5dbe 2963 ddba
00000320: 1301 ac3c b62e f4bd 5032 1abe 883d b0bd
00000330: eaac 71bd 1463 29be 2530 bfbd 7d39 0bbd
00000340: 8d58 153d 9f02 96bd d583 d93d 868a 78bd
00000350: 2772 98bc bb1a 03bc 6d61 52be b90d d8bd
00000360: 7fcc 903d 24dd e9bd 9a81 aabd 2416 d1bd
00000370: ea70 383d c818 97bd bf44 843d c8c6 35bc
00000380: 96c8 7bbd 60be 07bd bf39 0abe 61ff a0bc
00000390: 9c15 44bd 72c2 3ebd b03c bebd 6a5f e2bd
000003a0: e5d8 19bd ca64 0abe e938 23be dcdb 753c
000003b0: 15b4 41bd 98e5 efbd 3c1e 09be aac4 7bbc
000003c0: 68ed 3d3d fbe9 31bd 3ce8 cfbd f446 8d3d
000003d0: 4fbe d2bd d6f0 803d 8202 acbd cde8 a2bd
000003e0: 8540 63bc 9e90 9dbd 63ea 0abc d648 b23d
000003f0: caff 6a3c 2381 7dbb 8038 adbd 109d 083d
-0.033188887 -0.019836409 -0.026890382 -0.11834857 0.067913614 -0.09679061 -0.045562144 -0.03453793
-0.19532232 -0.10557344 -0.10828206 -0.019880002 -0.14726035 -0.07148163 -0.24272172 -0.0676
-0.21717095 -0.07138108 -0.18891425 -0.079487585 -0.12693584 -0.10325833 -0.012287153 -1.9147954e-05
-0.08229894 0.022293739 -0.0066278297 0.013101827 -0.06571322 -0.06548949 -0.122616105 0.09677415
0.058550548 -0.037955098 -0.07661249 -0.06484569 -0.097714044 -0.11247644 -0.05474752 -0.06429382
-0.13869046 -0.0023457287 -0.19400235 -0.103594266 -0.08372662 -0.13377304 -0.08421561 -0.11810593
0.011444413 -0.12334776 -0.12122462 -0.17789689 -0.0021181072 -0.109189674 0.04548742 -0.047660954
0.0009157239 0.01028774 -0.15003455 -0.034983564 -0.016514435 -0.10794356 -0.09865707 0.012404528
-0.102005735 -0.07714883 0.038890135 -0.09875953 -0.12507898 -0.14576398 -0.095970295 0.06599085
-0.020407304 -0.066333406 -0.06175364 0.018167024 -0.11160475 -0.056911044 -0.1833622 -0.008067694
-0.11826072 -0.07231866 -0.11070112 -0.15026902 -0.07926244 0.099582136 0.032744702 -0.056534078
-0.09541001 -0.040098898 -0.13912492 -0.08003799 -0.073744655 -0.037042458 -0.0875495 -0.020094387
-0.14325032 0.100061975 -0.053402312 -0.062177792 -0.14572275 -0.10005035 0.026273035 -0.050494164
0.07983008 -0.17189965 -0.122791566 -0.13265184 -0.08289668 -0.065678954 -0.0034493417 -0.08555791
0.083867446 -0.051201787 -0.13043608 -0.036451377 0.028745588 -0.17190419 -0.10517231 -0.01292438
-0.009847564 -0.002000583 0.010070269 -0.008450268 -0.14840257 -0.1548906 -0.027313374 -0.014744738
-0.09146757 -0.16080187 -0.17410229 0.02358594 -0.08426174 -0.07927929 -0.040029015 -0.122721285
-0.12592512 -0.14336228 -0.047240626 -0.005348889 -0.006095424 -0.09596082 -0.034401573 -0.1343183
-0.07591971 -0.038942277 -0.038098924 -0.072961606 -0.10042779 0.06913531 -0.047283866 -0.07402253
-0.16984728 -0.10471965 -0.022142814 -0.02280509 -0.0515782 -0.1903291 -0.09411031 0.0028705841
-0.08645441 -0.08394693 0.05697907 -0.22343849 0.05710654 -0.13772096 -0.088638395 -0.0058165938
-0.108128496 -0.13939707 -0.0070171556 -0.15488853 -0.040263835 -0.1547692 -0.009389719 -0.04301144
-0.04344751 -0.13436618 -0.11108179 -0.06485202 -0.05927395 0.036759872 -0.104367144 -0.0036236085
-0.1352029 0.06807991 -0.04420828 -0.12004974 -0.09436466 -0.11396444 0.065490246 0.07435579
-0.045332514 0.01084227 -0.05727166 -0.071163066 0.059029166 -0.002191151 -0.21675079 -0.0016890514
0.020996606 -0.11922972 -0.15058255 -0.08605486 -0.059002794 -0.16541702 -0.09335355 -0.033990372
0.0364614 -0.07324719 0.10620848 -0.06067898 -0.01860912 -0.0080019785 -0.20544977 -0.105494924
0.070702545 -0.11419132 -0.08325501 -0.10209301 0.04502956 -0.073777735 0.06458425 -0.011094756
-0.06147059 -0.03314054 -0.13498591 -0.019653024 -0.04787217 -0.046572156 -0.09288919 -0.11053355
-0.037560362 -0.1351501 -0.15939678 0.015006032 -0.04729088 -0.117137134 -0.1339044 -0.015366713
0.046368986 -0.04343603 -0.10151717 0.06898299 -0.10290205 0.06295936 -0.08398916 -0.079545595
-0.013870363 -0.07693599 -0.008478734 0.087052986 0.014343211 -0.0038681708 -0.08458042 0.03335291
