trained_data/ddpg/walls_G_350_450/target_critic_ddpg.pth (torch, 507042 bytes, 11 tensors)

fc1.weight f4 [400, 6]
0	0x3db167df	0.0866239
1	0x3d84a33d	0.06476448
2	0x3cabb2ca	0.020959277
3	0xbd9deccf	-0.07711183
4	0x3d593067	0.053024676
5	0xbb12acb7	-0.0022380778
6	0x3dd37582	0.10325147
7	0x3d6617e5	0.05617513
8	0xba16abb2	-0.00057476305
9	0x3dc1dbdd	0.09465764
10	0x3d579ae1	0.05263794
11	0xbae171a4	-0.0017200005
12	0x3d7c48c8	0.061592847
13	0x3d5000fe	0.050782196
14	0xbf2823be	-0.6567954
15	0x3dcc3b51	0.09972251
16	0x3cb8a8a9	0.02254136
17	0x3d49fbab	0.049312275
18	0x3d3e0c6f	0.046398576
19	0x3da8daa2	0.08244826
20	0xbc517830	-0.012785003
21	0x3e48fe33	0.1962822
22	0xbdf8d6b2	-0.12150325
23	0xbd7a5dd9	-0.061124656
24	0x3dd356f6	0.10319321
25	0xbcde54d3	-0.027140057
26	0xbe8f3563	-0.27970418
27	0x3db55500	0.08854103
28	0xbd2d21ed	-0.042268682
29	0xbbfe0bcb	-0.0077528707
30	0x3dada776	0.08479206
31	0x3db25c23	0.0870898
32	0x3d3f7e85	0.046751518
33	0x3d4ebd4f	0.050473507
34	0x3d1ca0b5	0.0382392
35	0xbb2a447c	-0.0025980761
36	0x3d7c1815	0.061546404
37	0x3d8cb524	0.06870487
38	0x3d0bdf25	0.034148354
39	0x3ee59f73	0.44848213
40	0x3e37e430	0.1795814
41	0x3ca12cf6	0.01967476
42	0x3d8bfb6f	0.068350665
43	0x3d97284c	0.07380733
44	0x3debd7b6	0.11515753
45	0x3e3ad2f9	0.18244542
46	0x3e3d02c0	0.1845808
47	0x3abfb0e1	0.0014624858
48	0xbd3f8388	-0.046756297
49	0x3e16afe5	0.14715536
50	0x3e606632	0.21913984
51	0x3e3e1239	0.18561639
52	0x3d7da423	0.06192411
53	0xbc169936	-0.009191802
54	0x3d8de5b4	0.06928578
55	0x3d9f0c97	0.07766073
56	0x3cf25224	0.029580183
57	0x3ddc61cd	0.107608415
58	0x3da62d9c	0.08114168
59	0xbb3e1dca	-0.0029009455
60	0x3d6ebfb8	0.058288306
61	0x3e125569	0.14290394
62	0x3c5da69e	0.013528494
63	0x3d85f6da	0.06541224
64	0x3d43199f	0.047631856
65	0xbb838d6e	-0.0040146625
66	0x3d80a018	0.062805355
67	0x3dc70563	0.09717824
68	0x3efcb08f	0.49353454
69	0x3e6378e4	0.22214085
70	0x3e6a3767	0.22872697
71	0x3e37e86b	0.17959754
72	0x3da90e9a	0.08254738
73	0x3d7249fd	0.059152592
74	0x3a5ed551	0.00085004146
75	0x3e03c32c	0.12867421
76	0x3d33216f	0.043733057
77	0xbb182a79	-0.0023218675
78	0x3d4f02c4	0.050539747
79	0x3d98c606	0.07459645
80	0x3f24b22c	0.6433437
81	0xbda78f0a	-0.081815794
82	0x3e80dd12	0.25168663
83	0x3c589c09	0.013220795
84	0x3d141608	0.036153823
85	0x3db06a7b	0.086140595
86	0xbcb0a2f9	-0.021562086
87	0xbcfbfe92	-0.030761037
88	0x3d1ab435	0.037769515
89	0xbb7f9472	-0.0038998392
90	0x3d2b0a39	0.041757796
91	0x3dd1039a	0.10205765
92	0x3d9510ba	0.07278581
93	0xbcce77dc	-0.025203638
94	0x3ceafed8	0.028685972
95	0xbb807b80	-0.0039209723
96	0x3d6d5411	0.0579415
97	0x3daae7c6	0.083449885
98	0x3e4e948a	0.2017385
99	0xbe167fd8	-0.14697206
100	0x3ed4c572	0.4155689
101	0x3d05ecfc	0.03269671
102	0x3dd45ae2	0.10368897
103	0x3d5f3530	0.054494083
104	0xbb9a5dca	-0.0047108876
105	0x3dd56bff	0.10420989
106	0x3d4ec0de	0.0504769
107	0xbadd2b83	-0.0016873929
108	0x3dafb702	0.08579828
109	0xbca9713f	-0.020683883
110	0xbf0db815	-0.5535901
111	0x3e2e3702	0.17013171
112	0x3e4c100d	0.19927998
113	0x3d9a1005	0.07522587
114	0x3d99645c	0.07489845
115	0x3da7b8e1	0.0818956
116	0x3c91c3c3	0.017793542
117	0x3d4ac186	0.049500965
118	0x3ce0c477	0.027437432
119	0xbbb5db04	-0.0055497903
120	0x3d875532	0.066080466
121	0x3d911fce	0.070861444
122	0x3f43f953	0.76552314
123	0xbef29392	-0.47378212
124	0x3e4710fc	0.19440073
125	0x3e35e1bd	0.17761894
126	0x3d8b3ada	0.067983344
127	0x3db90915	0.090349354
128	0xba6e7463	-0.00090963225
129	0x3d4897d3	0.048972916
130	0x3da13de9	0.078731366
131	0xbb49eb84	-0.0030810544
132	0x3da48a48	0.080341876
133	0xbb0d576b	-0.0021566998
134	0x3ed758ca	0.42059928
135	0x3e968e23	0.29405317
136	0xbf7721ec	-0.96536136
137	0x3d8325d6	0.06403701
138	0x3d89db9f	0.067313425
139	0x3d5cc0ab	0.05389468
140	0xbd0e6ee2	-0.034773715
141	0x3ca582eb	0.020204028
142	0xbcec1159	-0.028816866
143	0x3f1b1bb4	0.60589147
144	0x3d1d887e	0.038460247
145	0x3deba4cc	0.11506042
146	0xbe3fb74d	-0.18722267
147	0xbdf49b00	-0.119436264
148	0x3ecde891	0.40216497
149	0xbcbebc5e	-0.02328318
150	0x3db340a3	0.08752563
151	0x3da5fb13	0.08104529
152	0x3b7a04dc	0.003814987
153	0x3de5abf1	0.11214436
154	0x3d3a5bb8	0.045497626
155	0xbb21228f	-0.002458725
156	0x3dabd28b	0.08389767
157	0x3dc59a62	0.09648587
158	0x3e85ffdf	0.26171777
159	0xbf8c7cdc	-1.0975604
160	0xbf08d357	-0.5344748
161	0xbda04b3f	-0.07826852
162	0x3d95544e	0.072914705
163	0x3ce9cfd3	0.028541481
164	0xbf223131	-0.6335631
165	0xbe4b7e0f	-0.19872306
166	0x3e0ec373	0.13941745
167	0xbd368777	-0.044562783
168	0x3da77c76	0.08178036
169	0x3d9f08e6	0.07765369
170	0x3d87f578	0.06638616
171	0x3d873f77	0.06603902
172	0xbc991061	-0.018684568
173	0xbb21eac0	-0.0024706572
174	0x3dd71d20	0.10503602
175	0x3d52001d	0.05126964
176	0xbb32bb8e	-0.0027272436
177	0x3de49d9c	0.11162874
178	0x3d5ee487	0.05441716
179	0xbad36f4e	-0.0016131194
180	0x3d9f561b	0.07780095
181	0x3bc53f29	0.006019492
182	0x3cf79416	0.03022198
183	0x3d83d62d	0.06437335
184	0x3d2af6cd	0.041739274
185	0xbafcb279	-0.0019279263
186	0x3d9856bb	0.074384175
187	0x3d828734	0.06373444
188	0x3eab9f9d	0.33520213
189	0xbef27909	-0.47357967
190	0xbeff64c3	-0.49881563
191	0xbe185d92	-0.14879444
192	0x3d8344c3	0.064096
193	0x3d6dce4c	0.05805807
194	0xbd8121f5	-0.06305305
195	0x3ece2d72	0.40269047
196	0x3e37eb5e	0.17960879
197	0x3f3274c0	0.69709396
198	0x3daa6e65	0.08321837
199	0x3d9efd11	0.07763112
200	0x3b9d6298	0.004803013
201	0x3de23404	0.110450774
202	0x3d50a105	0.05093481
203	0xbb2542d7	-0.0025216842
204	0x3d9a2eb4	0.07528439
205	0x3cd13cd3	0.025541699
206	0xbec4a4cd	-0.38406983
207	0x3e142074	0.14465505
208	0x3e727d97	0.23680721
209	0x3e80e638	0.25175643
210	0xbd63601d	-0.055511583
211	0x3e07b134	0.13251191
212	0x3e94ae0c	0.29039037
213	0xbd8495a8	-0.06473857
214	0x3e5f1f3b	0.21789257
215	0xbd21f280	-0.039537907
216	0x3d9366e2	0.07197358
217	0x3d8c80b5	0.068604864
218	0xbddbdc8c	-0.10735425
219	0x3e81d224	0.25355637
220	0xbf14e39f	-0.5815982
221	0xbb6baa07	-0.0035959498
222	0x3dab2f85	0.08358673
223	0x3dcdddd9	0.1005208
224	0x3b103707	0.0022005455
225	0x3d88ffab	0.0668939
226	0x3d48881e	0.048957936
227	0xbb37e199	-0.002805805
228	0x3d4a88fd	0.04944705
229	0xbca6364a	-0.020289559
230	0x3e0748e0	0.13211393
231	0xbe103f24	-0.14086586
232	0x3d6a3a07	0.057184245
233	0xbb29bd04	-0.0025900016
234	0x3d7158e2	0.058922656
235	0x3dc48129	0.09594948
236	0x3e393c8e	0.18089506
237	0xbe837214	-0.25672972
238	0xbd1b8e6b	-0.037977617
239	0xbafd7eb4	-0.0019340129
240	0x3d75c6ee	0.060004167
241	0x3d985a20	0.07439065
242	0x3e46fad7	0.19431625
243	0xbe2578e3	-0.16159396
244	0xbd0071c9	-0.031358514
245	0xbb1b3d5e	-0.00236877
246	0x3d9baf1e	0.0760176
247	0x3da92dc1	0.0826068
248	0x3c9c6143	0.019089347
249	0x3d323a00	0.043512344
250	0x3daf67bc	0.08564708
251	0xbb359fb2	-0.0027713594
252	0x3dd88364	0.10571936
253	0x3d4af6a8	0.049551636
254	0x3a46d955	0.00075854856
255	0x3dd1e75e	0.10249208

fc1.bias f4 [400]
0	0xbe31fe4e	-0.17382166
1	0xbe427cc6	-0.1899291
2	0x3f2cafaa	0.6745554
3	0x3ee5d74e	0.44890827
4	0x3f69067b	0.91025513
5	0xbe4ea812	-0.20181301
6	0xbe375e04	-0.17906958
7	0xbe2d993a	-0.16952983
8	0xbe433a96	-0.19065318
9	0xbe4b4b03	-0.19852833
10	0xbe39e87b	-0.1815509
11	0xbe75b759	-0.23995723
12	0xbe4a72e2	-0.19770387
13	0xbe667706	-0.22506341
14	0xbe273415	-0.16328461
15	0xbe14310d	-0.14471836
16	0xbe72a34f	-0.2369511
17	0xbe41f549	-0.18941225
18	0xbfb5a012	-1.4189475
19	0xbfbebe2c	-1.4901786
20	0xbc477f40	-0.012176335
21	0xbe362322	-0.1778684
22	0x3e3201b1	0.17383458
23	0x3fc53238	1.540595
24	0xbee0195f	-0.43769357
25	0xbe44ebfa	-0.19230643
26	0xbed5ac00	-0.41732788
27	0xbe921e22	-0.28538615
28	0xbe7a4ec6	-0.24444112
29	0xbe41e9ff	-0.18936919
30	0xbd1aec51	-0.037823025
31	0xbefd0dcd	-0.49424592
32	0x3f9cffc8	1.2265558
33	0xbe55bd6b	-0.20873038
34	0x3f92c09e	1.1465032
35	0xbe92d7b8	-0.28680205
36	0xbf2fd1f4	-0.6867974
37	0xbe3c9f83	-0.18420224
38	0xbe6bcc1d	-0.23027082
39	0xbe56347a	-0.20918456
40	0xbe4b10af	-0.19830583
41	0xbe3373ad	-0.17524596
42	0xbe42a63a	-0.19008723
43	0xbe425443	-0.18977456
44	0xbe0c3ae9	-0.13694347
45	0xbe615892	-0.22006443
46	0x3f36a4fd	0.713455
47	0xbe41ee14	-0.18938476
48	0xbe1cace0	-0.15300322
49	0xbf23e5dc	-0.6402261
50	0x3f84e1fd	1.0381466
51	0xbe5169be	-0.20450494
52	0xbe458751	-0.192899
53	0x3fb21839	1.3913642
54	0xbe42a3d5	-0.1900781
55	0xbf9c580b	-1.2214369
56	0xbf145ffd	-0.57958966
57	0xbe8ee7c4	-0.27911198
58	0xbe4862f5	-0.19568999
59	0xbcf00ee8	-0.029303983
60	0x3f4b2b4d	0.79362947
61	0xbe97384d	-0.29535142
62	0x3e2fbf2d	0.17162772
63	0x3f2f27a5	0.6841987
64	0x3de74bf2	0.11293782
65	0x3f911784	1.1335301
66	0xbec4fd6c	-0.38474596
67	0xbe9c27b3	-0.30499038
68	0xbe46a967	-0.1940056
69	0xbf2af9f6	-0.6678766
70	0xbe4183d1	-0.1889794
71	0xbe5b2c91	-0.2140372
72	0xbe31582a	-0.17318788
73	0xbe41b0cf	-0.18915103
74	0xbe24cea3	-0.1609445
75	0xbe57f939	-0.21091165
76	0xbe0a6c02	-0.13517764
77	0xbe42afec	-0.19012421
78	0xbe427cec	-0.18992966
79	0xbe4c1eee	-0.19933674
80	0xbdf502e1	-0.1196344
81	0xbe51b1b5	-0.20477946
82	0x3f8a2471	1.0792371
83	0xbe43fc61	-0.19139244
84	0xbe44364f	-0.19161342
85	0xbe4220e9	-0.18957867
86	0xbe348881	-0.17630197
87	0xbfa1bd5c	-1.2635913
88	0xbec78530	-0.38968801
89	0xbe431b8b	-0.19053476
90	0xbe1fb249	-0.15595354
91	0xbe65a19c	-0.2242493
92	0xbe4633d9	-0.19355716
93	0xbe4c0b36	-0.19926152
94	0xbe4cf0d5	-0.20013745
95	0xbe5a7c67	-0.21336518
96	0xbe426497	-0.18983684
97	0xbd7a5e28	-0.06112495
98	0xbe32592b	-0.17416827
99	0x3e2fdb71	0.17173554
100	0xbe383fc3	-0.17993073
101	0xbe4a8651	-0.197778
102	0xbe558a1b	-0.20853464
103	0xbe2b6f02	-0.16741565
104	0xbe468279	-0.19385709
105	0xbe46689d	-0.19375844
106	0xbe68067a	-0.2265872
107	0xbf05acab	-0.52216595
108	0xbe454e5e	-0.19268176
109	0xbe5631aa	-0.20917383
110	0xbe42ef05	-0.19036491
111	0xbe4172a8	-0.18891394
112	0xbe422675	-0.18959983
113	0xbea6256a	-0.3245042
114	0xbe463845	-0.19357403
115	0xbf7cf060	-0.98804283
116	0xbe42abd8	-0.19010866
117	0xbe42d0d7	-0.19024979
118	0xbdf44a91	-0.11928285
119	0xbef8d776	-0.48601884
120	0xbe520189	-0.20508398
121	0xbe4d5514	-0.20051986
122	0xbe4c477b	-0.19949143
123	0xbe951590	-0.29118013
124	0xbe9c061b	-0.30473408
125	0xbe530f0d	-0.2061121
126	0xbe42847e	-0.18995854
127	0xbf085efd	-0.5326994
128	0x3cf1f232	0.029534433
129	0xbe443bbe	-0.19163415
130	0xbe0964d1	-0.13417365
131	0x3d4fab1b	0.05070029
132	0x3fac176c	1.3444648
133	0xbe4db241	-0.2008753
134	0xbe46f1ac	-0.19428128
135	0x3df53edd	0.11974881
136	0xbf784472	-0.9697944
137	0xbe62f2c5	-0.22162922
138	0xbdf6f50f	-0.1205846
139	0xbd101b39	-0.03518221
140	0xbdf3769e	-0.11887859
141	0xbee96cf2	-0.4559093
142	0xbe42011f	-0.1894574
143	0x3f53b05d	0.82690984
144	0xbe7ef7e7	-0.24899255
145	0xbe50bfa7	-0.2038561
146	0xbe44532e	-0.19172356
147	0xbe3965c1	-0.18105222
148	0xbe31acc8	-0.17351067
149	0xbe63a85d	-0.22232194
150	0xbe5605ab	-0.209006
151	0x3f9e4cf5	1.2367235
152	0xbc2f8e8c	-0.010715138
153	0xbed1dabf	-0.40987203
154	0xbfd93080	-1.6967926
155	0xbe247ec8	-0.16063988
156	0xbe882254	-0.2658869
157	0xbe41de02	-0.18932346
158	0x3f9ce79d	1.2258183
159	0xbd25e1fd	-0.040498722
160	0xbe6acf00	-0.22930527
161	0xbd4c1391	-0.049823347
162	0xbeabc5ad	-0.33549252
163	0xbe4261fd	-0.18982692
164	0xbe444cf6	-0.19169983
165	0xbe5a449f	-0.2131524
166	0xbe42cfc0	-0.19024563
167	0x3fa08447	1.2540368
168	0xbe49eb89	-0.19718756
169	0xbe77f497	-0.24214397
170	0xbe4f670f	-0.20254157
171	0xbe5dc4e3	-0.21657138
172	0xbe50b19e	-0.20380256
173	0xbf601ef6	-0.8754724
174	0xbe484a93	-0.19559698
175	0xbebc7624	-0.36808884
176	0xbe4aa268	-0.19788516
177	0xbef40756	-0.47661847
178	0x3f202969	0.62563187
179	0xbdd53029	-0.104095764
180	0xbe431533	-0.19051056
181	0xbf4be2b5	-0.796428
182	0xbe413976	-0.18869576
183	0xbfca436d	-1.5801827
184	0xbe41a792	-0.18911579
185	0xbe4475cc	-0.19185561
186	0xbe4284cb	-0.18995969
187	0xbeb3242f	-0.34988543
188	0xbe2de4e9	-0.16981854
189	0x3f379161	0.71706206
190	0xbe20ea5e	-0.15714404
191	0x3c9a02d6	0.01880018
192	0xbe8b20aa	-0.27173358
193	0xbdb467b0	-0.08808839
194	0xbe3f5929	-0.18686356
195	0xbe45ac2d	-0.19303961
196	0x3e4d87e2	0.20071366
197	0xbe41870b	-0.18899171
198	0xbeff8ff3	-0.49914512
199	0xbe432939	-0.19058694
200	0xbf07b785	-0.53014404
201	0xbe418116	-0.18896899
202	0xbe402a92	-0.1876624
203	0xbe41d6c3	-0.18929581
204	0xbf999c0f	-1.200075
205	0xbdbcbf87	-0.092162184
206	0x3cb76479	0.022386776
207	0xbe55b1b6	-0.20868573
208	0xbe24c126	-0.16089305
209	0xbfca835d	-1.5821339
210	0xbe5513b1	-0.20808293
211	0xbefddb6b	-0.49581465
212	0xbe22ecce	-0.15910646
213	0xbe43891a	-0.19095269
214	0xbdb25374	-0.08707324
215	0x3f66c89b	0.9014985
216	0xbe46ef78	-0.19427288
217	0xbe33a3ee	-0.17543003
218	0xbe893c72	-0.2680393
219	0xbe42de58	-0.1903013
220	0x3de6e4e0	0.11274123
221	0xbe3c904f	-0.18414424
222	0xbcd36943	-0.025807029
223	0xbe8aeeda	-0.27135354
224	0xbe504dd6	-0.20342192
225	0xbe41ee4b	-0.18938558
226	0xbfbcabf1	-1.4739972
227	0xbe56751e	-0.20943114
228	0xbe482496	-0.19545206
229	0xbe42aa50	-0.19010282
230	0xbe3c670d	-0.18398686
231	0x3f698b4b	0.9122817
232	0x3d08baf1	0.033381406
233	0xbe45537a	-0.19270125
234	0xbea7c227	-0.32765314
235	0xbe986996	-0.29768056
236	0xbee310f6	-0.44348878
237	0x3faeb7cd	1.3649842
238	0xbed504be	-0.4160518
239	0xbe4cf178	-0.20013988
240	0xbe5f6e12	-0.21819332
241	0xbe2b8d32	-0.1675308
242	0xbe43bb1c	-0.19114345
243	0xbe4f7e62	-0.20263055
244	0x3f415a6f	0.75528616
245	0xbe6b95f3	-0.2300642
246	0xbe41a271	-0.18909623
247	0xbe42c819	-0.19021644
248	0xbeb241bd	-0.3481578
249	0xbe2e8999	-0.17044677
250	0xbe38c218	-0.18042791
251	0x3f1ec68b	0.620217
252	0xbe569fb3	-0.20959358
253	0x3c51ec67	0.01281271
254	0xbe9b2a2d	-0.30305615
255	0xbe4027e6	-0.1876522

fc2.weight f4 [300, 400]
0	0x39e3a044	0.0004341622
1	0x2ea1cc3f	7.357714e-11
2	0x3d89ca74	0.06728068
3	0xbc8abc9b	-0.016935637
4	0x3de8580c	0.113449186
5	0x3204d691	7.732198e-09
6	0xbd2405ed	-0.040044714
7	0x3c407301	0.011746169
8	0xbd308189	-0.043092284
9	0xb0ea6ad3	-1.7056102e-09
10	0x34a89725	3.140241e-07
11	0xbcd93029	-0.026512222
12	0xb3d658ff	-9.98134e-08
13	0xbca2bafe	-0.019864555
14	0xb35cb285	-5.1385104e-08
15	0x32a92071	1.9688942e-08
16	0x3d06c79b	0.032905202
17	0x3b1038be	0.0022006477
18	0x3ca793ca	0.020456214
19	0xbe02ed00	-0.12785721
20	0x3da9894f	0.08278143
21	0x338300d1	6.1003114e-08
22	0xbcb117cd	-0.021617794
23	0x3e6914c1	0.22761823
24	0x3cda31b9	0.026635038
25	0xb1db35c7	-6.3798526e-09
26	0xbcbe3b63	-0.023221677
27	0x3d259f54	0.04043515
28	0x38f279f3	0.00011562174
29	0xb72a0a2c	-1.0135158e-05
30	0x3a467122	0.00075699587
31	0xbd91826a	-0.07104953
32	0x3e22fae9	0.15916027
33	0xb02c3327	-6.264593e-10
34	0x3d9ec1fb	0.077518426
35	0xbba754d5	-0.0051065483
36	0x3ccfe467	0.025377465
37	0x34103283	1.3429421e-07
38	0xb3d9df09	-1.014542e-07
39	0x3dde8286	0.10864739
40	0xb8234fdc	-3.8936603e-05
41	0xb00c08f6	-5.094444e-10
42	0xba5852b8	-0.0008252072
43	0xb7d4882f	-2.5335785e-05
44	0x3c870461	0.01648158
45	0xb9293966	-0.00016138479
46	0xbaea71ad	-0.0017886661
47	0xb7ab6d12	-2.0435578e-05
48	0xbbfe0b2a	-0.0077527957
49	0x3d5eb65b	0.054373126
50	0xbdb21045	-0.086945094
51	0xb0890c42	-9.971546e-10
52	0xb85f5dc6	-5.3254676e-05
53	0x3d262d4f	0.040570553
54	0x32119fee	8.476475e-09
55	0xbd92356d	-0.071390964
56	0xbc597321	-0.013272078
57	0xbd91728c	-0.07101926
58	0xb2948bab	-1.7292981e-08
59	0xbda8ae46	-0.08236365
60	0x3d4abc58	0.049496025
61	0xbd017757	-0.031607952
62	0xb7bcb020	-2.2493361e-05
63	0x3d92d665	0.07169799
64	0x3d65bb28	0.05608669
65	0xbd0afbc4	-0.03393151
66	0x3b88f86b	0.0041800044
67	0x3d8e72fd	0.06955526
68	0x3dad4c5d	0.08461831
69	0xbda936ac	-0.08262381
70	0x3064d766	8.3252016e-10
71	0x3282fa6c	1.524787e-08
72	0x390d9894	0.00013503648
73	0x3c0ebd93	0.00871219
74	0xb5c13974	-1.4396342e-06
75	0xb32b2e53	-3.985617e-08
76	0x3c964b41	0.01834643
77	0x31538690	3.078103e-09
78	0xb688f8d9	-4.0820855e-06
79	0x334345b3	4.5465367e-08
80	0x3cb0f2ec	0.02160021
81	0xb1272166	-2.4320683e-09
82	0x3dbf05e2	0.09327294
83	0xbaa2ec83	-0.0012430105
84	0xb9f9c4fe	-0.00047639752
85	0xba567391	-0.0008180673
86	0xbbf2ec34	-0.0074134115
87	0xbd839d92	-0.064265385
88	0xbc1f533b	-0.0097244335
89	0xb9000f44	-0.00012212718
90	0xb689ccb5	-4.106749e-06
91	0xba8aad65	-0.001058024
92	0xba25c55d	-0.000632366
93	0x338ca53b	6.549313e-08
94	0x32cf07c0	2.4101496e-08
95	0x3d7d9b55	0.061915714
96	0x3a318b5a	0.0006772779
97	0x3b120e56	0.0022286377
98	0xb9c99fba	-0.00038456713
99	0x3d4e0594	0.05029829
100	0x353ddee6	7.0732347e-07
101	0xb7842470	-1.5752594e-05
102	0xba2b6783	-0.0006538557
103	0xb7c91f6c	-2.39757e-05
104	0xb3c4a031	-9.1561e-08
105	0xbaaf43ec	-0.0013371683
106	0x2fdd8774	4.029591e-10
107	0xbd5c6a70	-0.053812444
108	0x327c2e08	1.4678797e-08
109	0x3951f13f	0.00020021664
110	0x34d5cf0d	3.982499e-07
111	0x383fe5b3	4.5751873e-05
112	0x32e1e691	2.6298297e-08
113	0x3c20dd41	0.009818376
114	0x340dff83	1.3224603e-07
115	0xbd28082b	-0.041023415
116	0x3a9d6c8d	0.00120105
117	0xbb0bf122	-0.0021353443
118	0x3c98fd56	0.018675487
119	0xbd93de6b	-0.07220157
120	0x39827845	0.0002488514
121	0xb46c1cec	-2.1989734e-07
122	0xb7361fd6	-1.0855458e-05
123	0x3d089dcf	0.033353623
124	0xbcccd42b	-0.025003513
125	0x33a11f4c	7.5028396e-08
126	0x36c255a6	5.7916213e-06
127	0x3c43f0bb	0.01195925
128	0xb67ab71e	-3.7359491e-06
129	0x331b7cf6	3.62024e-08
130	0xba82720d	-0.0009952203
131	0xbcaf117f	-0.021370647
132	0xbe30d298	-0.17267835
133	0xb622983c	-2.4228493e-06
134	0x314a6f96	2.9458298e-09
135	0x3b71bb9b	0.0036885503
136	0xb186a490	-3.918622e-09
137	0x3dbb7ee1	0.091550596
138	0xb5f60094	-1.8328597e-06
139	0xbc219b82	-0.009863736
140	0x3bafd05f	0.005365416
141	0x3b5a2941	0.003328875
142	0x3a258e28	0.00063154334
143	0x3de26597	0.11054533
144	0xbcd70126	-0.026245665
145	0x34932764	2.7409544e-07
146	0x3a8cc8ac	0.0010740957
147	0xb0bec8fa	-1.388144e-09
148	0xbbb1231e	-0.0054057976
149	0x392ded94	0.0001658707
150	0x3920527d	0.00015289518
151	0xbd6be745	-0.057593603
152	0xbbc5083f	-0.006012946
153	0xbd9a6d7c	-0.07540414
154	0xbaa45ecd	-0.001254046
155	0x3d5f5828	0.05452743
156	0x2fc99499	3.6667272e-10
157	0xb09dcc7f	-1.1481375e-09
158	0x3dffd621	0.12492014
159	0x3a9afdda	0.0011824921
160	0x35b7d531	1.3696609e-06
161	0x3cc6e361	0.024278345
162	0xba401bc5	-0.0007328357
163	0x334a0fd9	4.7046203e-08
164	0xb7295174	-1.009215e-05
165	0x375d01d2	1.317305e-05
166	0xb2ef9cee	-2.7894625e-08
167	0xbda8ad65	-0.082361974
168	0x33b5b9df	8.462279e-08
169	0xbc93dc69	-0.018049436
170	0x361f08b9	2.3697924e-06
171	0x3c09cf1d	0.008411196
172	0x3c639c13	0.013892191
173	0xbde4c9ba	-0.11171289
174	0xb2cfdeea	-2.4199341e-08
175	0x3b0ad714	0.0021185325
176	0x35b4edaf	1.348022e-06
177	0x3cc0011d	0.02343803
178	0x3c413872	0.011793243
179	0xbdd30893	-0.1030437
180	0xb4475045	-1.8562521e-07
181	0xbd393932	-0.04522056
182	0xb6cee71d	-6.1661835e-06
183	0xbc40a330	-0.011757657
184	0xb15970e8	-3.1641836e-09
185	0x3a9de8e4	0.0012047556
186	0x3708213d	8.113971e-06
187	0x3bb39377	0.0054802257
188	0xbcff2944	-0.031147607
189	0x3d4cabc7	0.049968507
190	0xb8087833	-3.253687e-05
191	0x3cdbf170	0.026848525
192	0xbb816983	-0.0039493456
193	0xb3b941be	-8.626692e-08
194	0x3649ba36	3.0059723e-06
195	0xb2875079	-1.5752663e-08
196	0xb19024a3	-4.1951167e-09
197	0xb39c784a	-7.2861965e-08
198	0x3ce00785	0.027347336
199	0xb751dfe3	-1.2509498e-05
200	0xbad76e21	-0.0016436019
201	0x36becb63	5.6861186e-06
202	0x339d6eca	7.3310346e-08
203	0x3403f386	1.2288919e-07
204	0xbc134eaa	-0.008990923
205	0x3dbd6129	0.092470475
206	0x3c6d7b47	0.014494724
207	0x346d6ece	2.2112656e-07
208	0xb9946135	-0.00028301185
209	0xbce7a4ba	-0.02827679
210	0xb9d0170d	-0.00039690026
211	0xbde39c8e	-0.11113845
212	0x3c0e17a6	0.00867263
213	0x38a510e5	7.87096e-05
214	0xbc74115d	-0.014896718
215	0xbcaec360	-0.021333396
216	0x38291fbb	4.032229e-05
217	0x3a114297	0.00055412337
218	0x3d05e0fa	0.032685257
219	0x391dd891	0.00015053364
220	0x3d2f477b	0.04279278
221	0xb1350728	-2.6343034e-09
222	0xbaddb9a0	-0.0016916282
223	0xbbbc27a8	-0.005742032
224	0xb4c42d63	-3.6540868e-07
225	0xb7c0a139	-2.2963259e-05
226	0x3d14674d	0.036231328
227	0xb01061a3	-5.2525645e-10
228	0xafff629a	-4.645429e-10
229	0x36f25f37	7.2232465e-06
230	0x3c98f41b	0.018671086
231	0xbc8487eb	-0.016178092
232	0x3b7f2bb9	0.0038935973
233	0xba3846b6	-0.000702958
234	0xbca50635	-0.020144561
235	0x3a9da9b3	0.0012028724
236	0xbdd88b40	-0.10573435
237	0x3d92832a	0.07153924
238	0xbbc4bacc	-0.0060037132
239	0x3aa5e8f2	0.0012657924
240	0x3c2cf250	0.010555819
241	0xb0bcada5	-1.3728153e-09
242	0xb5b46b0c	-1.34422e-06
243	0x3a1804c7	0.0005799052
244	0x3d108861	0.03528631
245	0x3a589acc	0.00082628126
246	0x354a870c	7.5447383e-07
247	0xb4335b06	-1.6703788e-07
248	0x3cb0ccc9	0.021582024
249	0xb209812b	-8.003819e-09
250	0xbac96080	-0.0015363842
251	0x3d31d7dc	0.04341875
252	0x38ab4136	8.166062e-05
253	0x3ca46fb4	0.020072795
254	0x3c717f36	0.014739802
255	0xb325839f	-3.8536765e-08

fc2.bias f4 [300]
0	0x3c4db92b	0.0125563545
1	0x3d642716	0.055701338
2	0x3cec4f92	0.028846536
3	0x3d41da34	0.047327235
4	0x3d789c3b	0.060695868
5	0x3d0660a2	0.032807
6	0x3d22268a	0.039587535
7	0x3d041983	0.032250892
8	0x3d7bfd7a	0.06152103
9	0x3b9847d1	0.004647233
10	0x3db82873	0.0899209
11	0x3d6b1f32	0.057402797
12	0x3d9b3c5d	0.07579873
13	0x3d3a8020	0.045532346
14	0x3d2b163e	0.04176926
15	0xbcc85a8f	-0.024457244
16	0x3a9c7be2	0.0011938775
17	0x3d8735ec	0.06602082
18	0xbb8bd5ee	-0.0042674458
19	0x3d056cd0	0.032574475
20	0x3ca4a3b4	0.020097591
21	0x3d041966	0.032250784
22	0x3ca175bd	0.019709462
23	0x3d619a0e	0.05507856
24	0x3d8b1b5f	0.0679233
25	0x3d2918c3	0.04128338
26	0x3dfa3a17	0.12218111
27	0x3d25b07e	0.04045152
28	0xbbcbde85	-0.0062215948
29	0x3d1fe8df	0.039040443
30	0x3ca7e817	0.020496411
31	0x3ba5d424	0.0050606895
32	0x3d5c8db8	0.05384609
33	0x3d647db5	0.055783946
34	0x3d493fcf	0.04913312
35	0x3cc69d87	0.024245037
36	0x3caf8dd4	0.021429934
37	0x3cd35082	0.025795225
38	0xbd07743b	-0.03306983
39	0x3d79ffb0	0.06103486
40	0x3cf3be51	0.029753836
41	0x3d3867f5	0.045021016
42	0x3d2b708f	0.04185539
43	0x3d279bc8	0.04092005
44	0xbd4cb799	-0.04997978
45	0x3d1956b6	0.03743621
46	0x3d3355c3	0.04378296
47	0x3d469eea	0.048491396
48	0x3c26ec75	0.010188212
49	0x3dd8dcde	0.10589002
50	0x3d14cbe2	0.03632725
51	0x3e07d0da	0.13263264
52	0x3d5e3ae3	0.054255378
53	0x3b2ac260	0.0026055798
54	0x3d4a6848	0.049415857
55	0xbd24c935	-0.04023095
56	0x3a767913	0.0009402197
57	0x3cb578a0	0.022152245
58	0x3d61db92	0.05514104
59	0x3c7d32ba	0.015453989
60	0x3d10311a	0.035203077
61	0xbc0c09d3	-0.008547264
62	0xbce29063	-0.02765674
63	0x3c4ae933	0.012384701
64	0x3d168b67	0.03675404
65	0x3d326a04	0.043558136
66	0x3c6078a2	0.013700636
67	0xbc00decb	-0.007865618
68	0x3d362544	0.044469133
69	0x383f52b5	4.5614976e-05
70	0xbbe5883b	-0.0070047653
71	0x3d526b81	0.051372055
72	0x3d33b73d	0.04387592
73	0xbc4429b0	-0.01197283
74	0x3db9a7f6	0.09065239
75	0x3d13827e	0.03601312
76	0xbc7840d7	-0.015152178
77	0x3d846f72	0.06466569
78	0x3d6529ea	0.055948175
79	0x3d5c3fa4	0.05377163
80	0x3d0f8763	0.035041224
81	0x3d1e6ab8	0.038675994
82	0x3cc80c33	0.02441988
83	0xbd03cf3a	-0.03218005
84	0x3d75805f	0.059936877
85	0xbda61e52	-0.08111252
86	0x3d22e3b6	0.039767943
87	0xbbe857af	-0.007090531
88	0x3d6c9738	0.0577614
89	0x3d85483f	0.065079205
90	0x3d605753	0.05477078
91	0x3cd88d21	0.026434483
92	0x3d2b7176	0.04185625
93	0x3d5c8134	0.053834155
94	0x3d311776	0.043235265
95	0x3d826851	0.06367553
96	0x3cfb7054	0.03069321
97	0x3d0b8adb	0.03406797
98	0xbd9150b3	-0.0709547
99	0x3c8bf82f	0.017086117
100	0x3d38ce15	0.04511841
101	0x3d0cac7d	0.034344185
102	0xbaef6001	-0.0018262864
103	0x3d4660b7	0.04843208
104	0x3d199dff	0.037504192
105	0x3d8f7a83	0.07005789
106	0x3dcdddde	0.100520834
107	0x3d20648b	0.039158385
108	0x3d235e43	0.039884817
109	0x3d5f750c	0.054554984
110	0xbd8c58a5	-0.06852845
111	0x3d31258a	0.04324869
112	0x3d38312a	0.04496876
113	0x3d3e07a5	0.04639401
114	0x3d248b12	0.04017169
115	0xbd1a985d	-0.03774296
116	0x3c8bd5ac	0.01706966
117	0xbd15a6b6	-0.03653594
118	0x3d475dcb	0.048673432
119	0x3c18e73b	0.009332473
120	0x3d60d357	0.05488905
121	0x3d1b2b2d	0.037882973
122	0x3d2718b2	0.040795036
123	0x3ca7f764	0.020503707
124	0x3d20d8eb	0.03926937
125	0x3cf1aa87	0.02950026
126	0xbd3c64c4	-0.045994535
127	0x3d634be4	0.055492297
128	0x3d641d13	0.05569179
129	0x3d4cbd37	0.049985137
130	0x3d1ede69	0.038786326
131	0x3cc0c457	0.023531122
132	0x3d400e7c	0.046888813
133	0x3d2411ba	0.040055968
134	0x3d0aa1c7	0.03384569
135	0x3d442469	0.047886286
136	0x3d0f5dea	0.035001673
137	0x3d16e247	0.03683689
138	0x3d3bab7b	0.045817833
139	0xbce7281f	-0.028217373
140	0x3cccb5a0	0.02498895
141	0x3b314a6d	0.0027052418
142	0x3d33eaf3	0.043925237
143	0x3d59c6c1	0.053168062
144	0x3d5a85a4	0.053350106
145	0x3d411a0b	0.047143977
146	0x3d2b9dca	0.041898526
147	0x3d3b23f6	0.045688592
148	0x3d07d7fd	0.033164967
149	0x3d06b0b4	0.03288336
150	0x3ca6e1ac	0.02037128
151	0x3d83977d	0.064253785
152	0x3d13f395	0.03612097
153	0x3d5aafba	0.053390242
154	0x3c1de304	0.009636644
155	0xbbdad800	-0.0066785812
156	0x3d14f34f	0.03636485
157	0x3cd218ab	0.025646528
158	0x3d1a5cd5	0.037686188
159	0x3cb65898	0.022259042
160	0x3cc2afd8	0.02376549
161	0x3d7e8bfa	0.06214521
162	0x3cea5d25	0.028608868
163	0x3d9c1f5e	0.0762317
164	0x3cd78888	0.02631022
165	0x3d273a0d	0.040826846
166	0x3d0e5d35	0.034756858
167	0x3cf34699	0.02969675
168	0xbb09611d	-0.0020962425
169	0x3d434c76	0.04768034
170	0x3cf71361	0.030160608
171	0x3c7c64e9	0.015404918
172	0x3d58750d	0.052846003
173	0x3d58b416	0.05290612
174	0x3a8722d9	0.0010310068
175	0x3d0c2a92	0.034220286
176	0x3d1840f4	0.03717132
177	0x3d5c29d1	0.053750817
178	0x3d4da58c	0.050206706
179	0x3c9fa6a8	0.019488648
180	0x3d1aca9c	0.03779088
181	0x3d3c229d	0.045931447
182	0x3d183660	0.03716123
183	0x3d106639	0.035253737
184	0x3d2f49de	0.042795055
185	0x3d2574ff	0.04039478
186	0x3d3ab05d	0.04557835
187	0x3d2ab6b2	0.041678138
188	0x3ccb291e	0.02479988
189	0x3d2a4181	0.041566376
190	0x3c159597	0.009129903
191	0x3d6f2c86	0.05839207
192	0x3cec9276	0.028878432
193	0x3d37c04b	0.04486112
194	0x3d457b80	0.048213482
195	0x3d3e8cc2	0.046520956
196	0x3d6ca9b9	0.057779048
197	0x3d60fbe1	0.05492771
198	0x3db84144	0.089968234
199	0x3d4d1d96	0.050077043
200	0x3d838d17	0.06423395
201	0x3abb50e4	0.0014291075
202	0xbd074728	-0.033026844
203	0x3d8378fe	0.06419562
204	0x3d526572	0.051366277
205	0x3d1b540f	0.03792196
206	0x3cb2363a	0.021754373
207	0x3d6c2b85	0.05765869
208	0x3d2787a8	0.040900856
209	0x3d18a1c1	0.037263636
210	0x3d7d9e93	0.061918806
211	0x3d09d0ec	0.03364651
212	0x3d6de1b1	0.058076564
213	0x3d070bfd	0.032970417
214	0x3d85c9fa	0.065326646
215	0x3da102a5	0.078618325
216	0x3d0e1024	0.03468336
217	0x3d1a9f13	0.03774936
218	0x3d2723b6	0.04080554
219	0x3d1b94a7	0.037983563
220	0x3d3c2272	0.045931287
221	0xbbf6b691	-0.007529088
222	0x3da8b2a2	0.082371965
223	0x3d388019	0.04504404
224	0x3cacb153	0.021080649
225	0x3d8df17e	0.069308266
226	0x3d735788	0.05940965
227	0x3c8b7f1d	0.017028386
228	0x3d26486d	0.040596414
229	0x3d101752	0.03517849
230	0xbca063bb	-0.019578805
231	0x3d19a939	0.0375149
232	0x3d3e8cfb	0.04652117
233	0x3d9321ec	0.071842045
234	0x3d4d8214	0.05017288
235	0x3d33216a	0.043733038
236	0x3d708abe	0.058726065
237	0x3d49de26	0.049284123
238	0x3cd83748	0.026393548
239	0x3d60c732	0.054877467
240	0x3d563142	0.05229307
241	0x3d164ea8	0.036696106
242	0x3d034c7d	0.032055367
243	0x3c888217	0.016663594
244	0x3d0c0f86	0.03419449
245	0x3ccde975	0.025135735
246	0x3d343b44	0.044001833
247	0x3d66edf5	0.056379277
248	0x3db8ba5c	0.0901992
249	0x3d2ac936	0.041695796
250	0x3d56c2a9	0.052431736
251	0x3d131aa8	0.035914093
252	0x3d3e06f0	0.046393335
253	0x3cc1201b	0.02357488
254	0xbc873b3b	-0.016507735
255	0x3d278de5	0.040906806

bn1.weight f4 [400]
0	0xba84518c	-0.0010095104
1	0xb6288b95	-2.5115198e-06
2	0x3f39bc68	0.7255311
3	0x3f0770fe	0.5290679
4	0x3f2e1a67	0.68009037
5	0xb7794342	-1.4857216e-05
6	0x3e34d216	0.17658266
7	0x3e48c16a	0.19605032
8	0x3f2ada3d	0.66739255
9	0xb4b870f4	-3.4354855e-07
10	0xb93b50db	-0.0001786383
11	0x3ed19f86	0.4094202
12	0xba0f4554	-0.0005465348
13	0x3f05b9c2	0.5223657
14	0x3a17e82d	0.000579479
15	0x3a053494	0.0005081382
16	0x3ea82c29	0.32846192
17	0xbb30aacd	-0.0026957274
18	0x3f389ff0	0.72119045
19	0x3eea7c9b	0.4579819
20	0x3eef8e2d	0.4678816
21	0xb6f0ed84	-7.180208e-06
22	0x3f04c3a9	0.51861054
23	0x3f71649d	0.9429415
24	0x3edddeed	0.4333414
25	0xb71f2292	-9.485188e-06
26	0x3e501fe9	0.20324673
27	0x3ed5b561	0.41739944
28	0xba77217d	-0.00094272924
29	0xbac3bf42	-0.0014934319
30	0x3a910c06	0.0011066205
31	0x3eba14cc	0.36343992
32	0x3f1660cd	0.58741456
33	0xb50a82b1	-5.1599187e-07
34	0x3f1b35c4	0.60628915
35	0x3f4b395b	0.7938439
36	0x3ee7a306	0.45241565
37	0xb98c2eba	-0.00026737695
38	0x39966cc6	0.00028691272
39	0x3e74352f	0.23848413
40	0x3d0c7aa0	0.03429663
41	0xb494f6c0	-2.7746682e-07
42	0xbb13ae9a	-0.002253449
43	0xbafaae75	-0.0019125479
44	0x3e6fe87d	0.23428531
45	0xba8708da	-0.0010302321
46	0x3f198156	0.59962976
47	0xbabbb566	-0.0014321029
48	0x3efce55a	0.4939373
49	0x3f07d24f	0.5305528
50	0x3f2b9a8a	0.6703268
51	0xb5d89bc2	-1.6138586e-06
52	0xbac62d89	-0.0015119772
53	0x3edbfa7b	0.4296454
54	0xb98037f7	-0.0002445576
55	0x3f3abf5c	0.7294824
56	0x3ea76669	0.3269532
57	0x3e3682c4	0.1782332
58	0xb718fd8a	-9.118938e-06
59	0x3f25e21c	0.6479814
60	0x3f2bc09a	0.6709076
61	0x3ea3c9d4	0.3198992
62	0x3ad1ed1f	0.0016016102
63	0x3f29157a	0.66048396
64	0x3ec95929	0.39325836
65	0x3f1ebef4	0.6201012
66	0x3e76abe2	0.24089006
67	0x3e91758c	0.28409994
68	0x3f040b8e	0.5158013
69	0x3f0f4e81	0.5597916
70	0xb588eb9c	-1.0201361e-06
71	0x33e91488	1.08536426e-07
72	0x3a8e7868	0.0010869624
73	0x3e6dad8a	0.23210731
74	0xb9cf48e8	-0.00039536436
75	0xb722d83c	-9.706298e-06
76	0x3f30a3a6	0.6899971
77	0xb7504f82	-1.2416278e-05
78	0xbae47389	-0.0017429452
79	0xb678e8cd	-3.7090388e-06
80	0x3ed22361	0.41042617
81	0xb5f176a1	-1.7990425e-06
82	0x3eb7b292	0.35878426
83	0xbb318411	-0.0027086774
84	0xbae10550	-0.0017167721
85	0xbae8c5e4	-0.0017759171
86	0x3dbe96c1	0.09306098
87	0x3ef3c1ab	0.47608694
88	0x3ea20c2c	0.3164991
89	0xba6f9afd	-0.00091402215
90	0x3b04f360	0.0020286664
91	0x3e9ac808	0.30230737
92	0xb7dc5ca1	-2.6269177e-05
93	0x35cee7e3	1.5415684e-06
94	0xb7005b24	-7.650615e-06
95	0x3e8563bd	0.26052657
96	0xbb359c0b	-0.0027711417
97	0x3f241b31	0.6410399
98	0xbaff2f92	-0.0019469133
99	0x3f73524b	0.95047444
100	0xba33e905	-0.0006863031
101	0xbb3b1157	-0.002854427
102	0xbaf45551	-0.0018641149
103	0xbacdfe58	-0.0015716059
104	0x3742a903	1.1602652e-05
105	0xbb7e6958	-0.0038820114
106	0x351631d4	5.5951864e-07
107	0x3ec447f1	0.38336137
108	0xb7296507	-1.0096707e-05
109	0x3ece811d	0.4033288
110	0xb99e9bd3	-0.00030252206
111	0xbb3e66bd	-0.0029052936
112	0xb7058292	-7.9578185e-06
113	0x3f0bb0a4	0.5456641
114	0xb8a19e32	-7.7065444e-05
115	0x3f1fa72d	0.62364465
116	0xbb34927b	-0.002755313
117	0xbb014214	-0.0019723224
118	0x3e9cdaeb	0.3063577
119	0x3f512da1	0.8171025
120	0xbb034eea	-0.002003605
121	0xb8d0227e	-9.9246376e-05
122	0xba1754c5	-0.00057728245
123	0x3e8d33d8	0.27578616
124	0x3ef2c08a	0.4741252
125	0x36f725ad	7.3655597e-06
126	0xba5f09c6	-0.0008508231
127	0x3f01dba5	0.50725776
128	0x3b5c28b0	0.0033593588
129	0xb9b8c1ee	-0.00035239704
130	0x3e000bf4	0.1250456
131	0x3ed89695	0.42302385
132	0x3fb4a207	1.4111947
133	0xbaa26103	-0.0012388531
134	0xb69d26f4	-4.6834994e-06
135	0x3e7b9c55	0.24571355
136	0x3489ab2a	2.5642777e-07
137	0x3ec46af7	0.38362858
138	0x3a7c3bc3	0.00096219423
139	0x3efd3852	0.4945703
140	0x3ed50c6c	0.4161104
141	0x3f6ab6db	0.91685265
142	0xbb4b2e3e	-0.0031002904
143	0x3eb99ffb	0.36254868
144	0x3e5e040d	0.21681233
145	0x38d631c5	0.000102135855
146	0x3aa3ae22	0.0012487809
147	0xb6946cf9	-4.42343e-06
148	0x3e0c37a9	0.13693108
149	0xbb5466c5	-0.0032409888
150	0xbb7efe43	-0.0038908876
151	0x3f23b430	0.6394682
152	0x3f08977c	0.53356147
153	0x3e722df0	0.23650336
154	0x3f620390	0.88286686
155	0x3ecfcd8f	0.40586516
156	0x37637e81	1.3559708e-05
157	0xb62f62fc	-2.6134649e-06
158	0x3ee5f9ea	0.44917232
159	0x3d7bdee8	0.061491877
160	0x39bcbbeb	0.00035998164
161	0x3e7d2384	0.2472058
162	0x3e3a9875	0.1822222
163	0xb77e4070	-1.5154583e-05
164	0xba96ca32	-0.0011504351
165	0x3a998952	0.0011713898
166	0xb6822678	-3.8787803e-06
167	0x3f32df91	0.69872385
168	0xb99efcb2	-0.0003032438
169	0x3f27c16b	0.6552951
170	0xba81d9ee	-0.0009906867
171	0x3debb7a7	0.11509638
172	0x3e6856ba	0.22689334
173	0x3f34ae10	0.705781
174	0xb8c526c7	-9.400915e-05
175	0x3b3dac69	0.0028941876
176	0xba16152b	-0.00057252
177	0x3eb7ef86	0.3592493
178	0x3f176c03	0.5914919
179	0x3e9cafc0	0.30602837
180	0xb810057f	-3.4337394e-05
181	0x3f3c682c	0.73596454
182	0xba647a27	-0.0008715712
183	0x3f2dd1b7	0.67898124
184	0xb76e2d19	-1.4196406e-05
185	0xbaaeb793	-0.0013329856
186	0xba481a42	-0.0007633307
187	0x3f63b314	0.88945127
188	0x3ee802da	0.45314676
189	0x3f0b7191	0.54470164
190	0x38b174a2	8.461742e-05
191	0x3f036e78	0.51340437
192	0x3de246c4	0.11048654
193	0x39e39f50	0.0004341551
194	0xba03f481	-0.00050336873
195	0xb9011758	-0.00012311095
196	0x3786bc53	1.606174e-05
197	0xb9a7985a	-0.00031966233
198	0x3ee24c5c	0.44198883
199	0xbb246e93	-0.0025090321
200	0x3dc47079	0.09591765
201	0xbae1cd9e	-0.0017227416
202	0xb897a32b	-7.2306335e-05
203	0xb8705106	-5.7295918e-05
204	0x3f2f23f9	0.68414265
205	0x3f12f0d6	0.57398736
206	0x3e742b63	0.23844676
207	0xb9a328d5	-0.00031120205
208	0x3abdf619	0.0014492898
209	0x3f716a9b	0.9430329
210	0x3b6ce101	0.0036144855
211	0x3f1dad7b	0.61592835
212	0x3f199766	0.5999664
213	0xb95f5985	-0.00021300286
214	0x3f2a8f35	0.66624767
215	0x3ed9f4be	0.42569536
216	0xba7cae57	-0.0009639016
217	0xbbc5c7d5	-0.0060357847
218	0x3e8aed99	0.27134398
219	0xbb105960	-0.0022025928
220	0x3f3f2d1f	0.74678224
221	0xb5cb22a3	-1.5134759e-06
222	0x3e694593	0.22780447
223	0x3e918964	0.28425133
224	0x395d2f05	0.00021093719
225	0xbb7615d1	-0.0037549625
226	0x3f5a919b	0.85378426
227	0x35747b81	9.1076805e-07
228	0xb5d59f61	-1.5916122e-06
229	0xba83e42f	-0.0010062511
230	0x3eb524df	0.35379693
231	0x3f4a2835	0.789676
232	0x3f355342	0.70830166
233	0x39144c61	0.00014142833
234	0x3e9e1121	0.30872443
235	0x3e0dae21	0.13835956
236	0x3ee5926d	0.44838277
237	0x3f3d8384	0.740288
238	0x3edcca97	0.43123314
239	0xbb09d156	-0.0021029315
240	0x3ef38f84	0.4757043
241	0x346c8617	2.2027994e-07
242	0x3ad8f53f	0.0016552581
243	0xbb094238	-0.002094401
244	0x3f958838	1.1682196
245	0x3eb1f42c	0.347566
246	0xba189dc6	-0.000582185
247	0xb733e023	-1.0721417e-05
248	0x3f4ca49c	0.79938674
249	0xb6d9e610	-6.4938868e-06
250	0xbb65fcad	-0.0035093233
251	0x3ed35596	0.41276234
252	0xbb109559	-0.0022061674
253	0x3ec9e99d	0.39436045
254	0x3f16691a	0.5875412
255	0xb9ca4cff	-0.0003858581

bn1.bias f4 [400]
0	0xba568aeb	-0.00081841525
1	0xb5bd160b	-1.4088013e-06
2	0xbb8eaff6	-0.0043544723
3	0xbd04932b	-0.032366913
4	0x3c95b77b	0.018275967
5	0xb7b6e2fe	-2.1801792e-05
6	0xbb0d0536	-0.0021517999
7	0xbd5053bc	-0.050861105
8	0xbce0d170	-0.027443618
9	0xb6fc5c37	-7.5209205e-06
10	0xb9eead32	-0.00045523938
11	0xbd3b1949	-0.04567841
12	0xba96a779	-0.0011494003
13	0xbcb84ec5	-0.022498498
14	0xb9f4c947	-0.0004668927
15	0xba7522d3	-0.00093511975
16	0xbd36a185	-0.04458763
17	0xbb3b92e7	-0.0028621496
18	0xbdb4c6f9	-0.088270135
19	0xbdd15cd3	-0.10222783
20	0xbd6ef4d2	-0.058338948
21	0xb9012614	-0.00012316584
22	0xbc068f10	-0.00821282
23	0x3d199f5b	0.03750549
24	0xbe0e1321	-0.13874485
25	0xb742111e	-1.15672865e-05
26	0xbe30cfeb	-0.17266814
27	0xbd3693cf	-0.044574555
28	0xba8478cf	-0.0010106805
29	0xbad67216	-0.0016360905
30	0xbb28366d	-0.0025667206
31	0xbd44ab3c	-0.048014864
32	0x3d6ffff1	0.058593694
33	0xb5d65164	-1.596793e-06
34	0xbd1abba0	-0.03777659
35	0x3dbe1c9e	0.09282802
36	0xbd44604c	-0.0479434
37	0xb99b40d9	-0.0002961222
38	0xb8dcd242	-0.00010529581
39	0xbd5a3077	-0.053268876
40	0xbc85e5ce	-0.016344931
41	0xb5ede8fe	-1.7725686e-06
42	0xbb395a83	-0.002828271
43	0xbac0b4d8	-0.0014702333
44	0xba549375	-0.0008109131
45	0xb985527b	-0.0002542919
46	0xbd8a4ffb	-0.06753536
47	0xbb12d75d	-0.0022406199
48	0xbdbc1e06	-0.09185414
49	0xbdbe90d5	-0.09304968
50	0xbba8ea22	-0.005154864
51	0xb62c6066	-2.5686109e-06
52	0xbae83741	-0.0017716662
53	0xbd55921e	-0.0521413
54	0xb925c409	-0.00015808655
55	0x3d8f362f	0.069927566
56	0xbdc3aac4	-0.09554055
57	0xbe1f49ee	-0.15555546
58	0xb73b8bb1	-1.1178593e-05
59	0xbd8f1a6f	-0.06987464
60	0xbc9383ba	-0.018007148
61	0xbdefcd45	-0.11709074
62	0xbace40cc	-0.0015735864
63	0xbd99ed6f	-0.0751599
64	0xbde7f972	-0.11326875
65	0xb9ec3775	-0.00045054746
66	0xbe02a679	-0.12758817
67	0xbda496be	-0.08036564
68	0xbd1008c6	-0.035164617
69	0xbd1edee6	-0.03878679
70	0xb5943747	-1.1042947e-06
71	0xb8093498	-3.2712327e-05
72	0xba9bbe2c	-0.0011882237
73	0xbd93deb0	-0.07220209
74	0xbab879ab	-0.0014074346
75	0xb86800e9	-5.5313958e-05
76	0xbd5037c3	-0.05083443
77	0xb712be44	-8.746578e-06
78	0xbada4ecd	-0.0016655565
79	0xb80cd310	-3.357517e-05
80	0xbad9e48b	-0.0016623897
81	0xb682cbb6	-3.898017e-06
82	0xbc25cafc	-0.010119196
83	0xbaf2e813	-0.0018532298
84	0xbad133bf	-0.0015960856
85	0xbaeb463e	-0.0017950011
86	0x3c3a52ab	0.011372249
87	0xbd25dc16	-0.040493093
88	0xbe0ece0d	-0.1394579
89	0xba9f2744	-0.0012142439
90	0xbae1288d	-0.0017178223
91	0xbd0fc826	-0.035102986
92	0xb8a01363	-7.6330056e-05
93	0xb670b6bd	-3.5869155e-06
94	0xb76af090	-1.4003497e-05
95	0xbe31768c	-0.17330378
96	0xbb3c7693	-0.00287572
97	0xbd98ad29	-0.07454903
98	0xbae8820c	-0.0017738952
99	0x3ce28b2a	0.02765425
100	0xba04a205	-0.0005059543
101	0xbb4f7d96	-0.0031660548
102	0xbae08557	-0.0017129582
103	0xbb1e1e22	-0.0024126847
104	0xb95ebc9c	-0.00021241832
105	0xbb825d22	-0.0039783875
106	0xb5f85309	-1.8501606e-06
107	0xbd749f1e	-0.05972206
108	0xb7cf660d	-2.4723844e-05
109	0xbcae96f0	-0.021312207
110	0xba8de7ca	-0.0010826525
111	0xbb3a2723	-0.0028404675
112	0xb6ff9b8d	-7.6177007e-06
113	0xbc143c56	-0.009047588
114	0xb994acd1	-0.00028357518
115	0x3dabf22d	0.08395801
116	0xbb3dd3f1	-0.0028965438
117	0xbb0560d1	-0.0020351897
118	0xbda164d3	-0.07880559
119	0x3d8546b7	0.065076284
120	0xbaf67e48	-0.0018805945
121	0xb91f99f9	-0.00015220781
122	0xb90d92ad	-0.00013501449
123	0xbd2556d4	-0.04036601
124	0xbd89f305	-0.067358054
125	0xb9691b43	-0.00022230767
126	0xba7c87b4	-0.00096332585
127	0xbd93f3b1	-0.07224215
128	0xbb13a276	-0.0022527254
129	0xba110082	-0.00055313867
130	0x3d1eaff6	0.03874203
131	0xbd1f652b	-0.03891484
132	0x3ce44d09	0.027868764
133	0xbb0be7a1	-0.0021347778
134	0xb6cbba7b	-6.0715806e-06
135	0x3c7b236f	0.015328272
136	0xb753e450	-1.2629738e-05
137	0x3bf980c8	0.007614229
138	0xbab808db	-0.0014040725
139	0xbcb14cca	-0.021643061
140	0xbdb47bb5	-0.08812658
141	0xbcf0f4b3	-0.029413557
142	0xbb82f86f	-0.0039969007
143	0xbc072448	-0.008248396
144	0xbe07bd82	-0.13255885
145	0xba10418b	-0.0005502931
146	0xba9912a4	-0.0011678529
147	0xb771317f	-1.4376244e-05
148	0x3d2a9189	0.0416427
149	0xbb74210d	-0.0037251145
150	0xbb8bc44d	-0.0042653442
151	0x3a9333f6	0.0011230696
152	0x3ba65657	0.0050762105
153	0xbdf27e30	-0.118404746
154	0x3b9ddcfa	0.004817602
155	0xbd29a457	-0.041416492
156	0xb802ec89	-3.1214706e-05
157	0xb603748c	-1.958836e-06
158	0xbd70225d	-0.05862652
159	0x3cb9278b	0.022601863
160	0xbb231d1d	-0.002488918
161	0x3d412462	0.047153838
162	0x3bbbaab8	0.0057271384
163	0xb771b3f2	-1.4406616e-05
164	0xba92aa0a	-0.0011189592
165	0xba799139	-0.0009520236
166	0xb6b5e93f	-5.4213738e-06
167	0xbcce7dee	-0.025206532
168	0xb9b05bb9	-0.00033637675
169	0x3c61e084	0.013786439
170	0xba88d792	-0.0010440222
171	0x3d2d482d	0.04230516
172	0x3c70650e	0.014672531
173	0xbe0151af	-0.12628816
174	0xb84072a3	-4.588313e-05
175	0xbb52385f	-0.0032077057
176	0xba3d838e	-0.0007229381
177	0xbd5ab090	-0.05339104
178	0xbd7a322b	-0.061083
179	0xbd70c36b	-0.058780115
180	0xb7e3f17a	-2.7172955e-05
181	0x3ba55099	0.0050450084
182	0xba118bdb	-0.0005552151
183	0x3cf87c23	0.03033263
184	0xb78d74bd	-1.686287e-05
185	0xbab10b89	-0.0013507466
186	0xba619b01	-0.0008606166
187	0x3d34ab49	0.044108663
188	0xbd4ccb2b	-0.049998444
189	0xbd895e06	-0.06707387
190	0x35dc9907	1.6435814e-06
191	0x3cd57642	0.026057366
192	0xbcd3105b	-0.025764635
193	0xb985acad	-0.0002549639
194	0xbabc2563	-0.0014354404
195	0xb8f01a9f	-0.0001144905
196	0xb7179f9a	-9.0374615e-06
197	0xb98d73ae	-0.00026979804
198	0xbdde080d	-0.10841379
199	0xbb129793	-0.0022368177
200	0x3baaabdc	0.0052084755
201	0xbaf30526	-0.0018540963
202	0xb885907d	-6.368847e-05
203	0xb827e8dd	-4.0032774e-05
204	0xbd0268cf	-0.031838235
205	0xbdd43c9f	-0.10363125
206	0x3c6d85c3	0.014497223
207	0xba5654f2	-0.000817611
208	0xba81d2a7	-0.0009904698
209	0x3d5d83ff	0.05408096
210	0xbb906843	-0.00440696
211	0xbc6e7979	-0.0145553285
212	0xbd13f388	-0.03612092
213	0xba1c89c0	-0.0005971454
214	0x3d82abd0	0.06380427
215	0xbd69f4ce	-0.05711823
216	0xbaa1d135	-0.0012345674
217	0xba07df14	-0.00051830825
218	0xbd9430de	-0.07235883
219	0xbb0d4721	-0.0021557289
220	0x3d1be93b	0.038064223
221	0xb6418a2e	-2.8839672e-06
222	0x3d056d2f	0.03257483
223	0xbd5c74cd	-0.053822327
224	0xbacc8f62	-0.0015606696
225	0xbb92929f	-0.004473045
226	0xbc047971	-0.0080855945
227	0xb88dcef1	-6.76195e-05
228	0xb6834729	-3.9123884e-06
229	0xbab25eb8	-0.0013608551
230	0xbd758e65	-0.05995025
231	0x3cd7dc14	0.026350059
232	0x3dc748ab	0.09730657
233	0xba104bbb	-0.0005504449
234	0xbd99ec78	-0.07515806
235	0xbd5435ff	-0.051809307
236	0xbd4993b3	-0.049213123
237	0x3d8ef40a	0.069801405
238	0xbde60739	-0.11231846
239	0xbb3ebb7d	-0.002910345
240	0xbdab5f9c	-0.083678454
241	0xb58a4046	-1.0300507e-06
242	0xba3b720c	-0.0007150478
243	0xbb451f00	-0.0030078292
244	0x3d5c31b3	0.053758334
245	0xbd1c570b	-0.03816895
246	0xba086eff	-0.0005204528
247	0xb71d288d	-9.367371e-06
248	0xbce13ed2	-0.027495775
249	0xb7908eda	-1.7232658e-05
250	0xbb6ab055	-0.0035810668
251	0xbb8a30b4	-0.0042172316
252	0xbb3340da	-0.0027351887
253	0xbc00dcac	-0.007865112
254	0xbe04e5ea	-0.1297833
255	0xb99403ad	-0.00028231498

bn2.weight f4 [300]
0	0x3f4fc26f	0.8115606
1	0x3f9ba929	1.2160999
2	0x3fc212aa	1.5161946
3	0x3dba9108	0.09109694
4	0x3f43ed5f	0.76534075
5	0xb75ac714	-1.3040164e-05
6	0xb703c6a3	-7.854457e-06
7	0xb89c88a7	-7.464113e-05
8	0xb85661bf	-5.111261e-05
9	0x3f8d8d55	1.1058756
10	0x3f792418	0.973207
11	0xb97dfcb6	-0.00024222102
12	0x3fae76f2	1.3630049
13	0x3f01088f	0.50403684
14	0x3d93c463	0.07215192
15	0x3fa47d1e	1.2850683
16	0x3faecb62	1.3655818
17	0x3eba80a5	0.36426273
18	0x3f66cf59	0.9016014
19	0x3f85e07f	1.0459136
20	0x3f202a50	0.62564564
21	0x3e5f36e5	0.21798284
22	0xbf23130a	-0.63700926
23	0x3f75c5f2	0.96005166
24	0x3f795f4d	0.9741104
25	0x3500f88b	4.8045393e-07
26	0x3fb99661	1.4499017
27	0x3f8de6f0	1.1086102
28	0x3f83104d	1.023935
29	0xb48f23b9	-2.6661817e-07
30	0x3eb31c78	0.34982657
31	0x3feb26f2	1.837126
32	0x3e9dfb07	0.3085558
33	0x359fe05d	1.1911721e-06
34	0x3cf3d1e1	0.029763164
35	0x3e3a5157	0.18195091
36	0x3f5b1522	0.8557912
37	0x3f9e0c56	1.2347515
38	0x3f73451e	0.9502734
39	0x3337b8fa	4.2776243e-08
40	0x3f3aa38a	0.7290579
41	0xb7bd16a6	-2.2541102e-05
42	0x4003372e	2.050243
43	0x3f0322b1	0.5122481
44	0x3fb228c1	1.3918687
45	0xb8ec3a07	-0.000112641654
46	0x3eec692f	0.46174
47	0x3d3e7cc9	0.046505723
48	0x3f447124	0.7673514
49	0x3fd3c902	1.6545718
50	0x38ba0233	8.869581e-05
51	0x3fb83e98	1.4394102
52	0x34f1753f	4.4975056e-07
53	0x3fe5b3cd	1.7945496
54	0xb8599f1c	-5.1885014e-05
55	0x3f9bf28d	1.2183396
56	0x4007f4d8	2.124319
57	0x3f147920	0.5799732
58	0xba167269	-0.00057390943
59	0x3f503fcc	0.81347346
60	0xb8370928	-4.3639127e-05
61	0x3fa17d05	1.2616278
62	0x3f8f468a	1.1193402
63	0x3e658a8b	0.22416131
64	0x3f4f5cbf	0.81000894
65	0x3efcd740	0.49382973
66	0x3f72730b	0.9470679
67	0x3f8e9ead	1.1142174
68	0xb782c49b	-1.558876e-05
69	0x3f94fe31	1.1640073
70	0x3f54bb5a	0.83098376
71	0xb77ee540	-1.5192956e-05
72	0x3305c1c7	3.1142715e-08
73	0x3fa6ee81	1.3041536
74	0x3f232aa4	0.6373694
75	0xba35d96a	-0.0006936999
76	0x3f7a4cd8	0.97773504
77	0x39e8421f	0.00044299752
78	0xb6edbaaf	-7.0848832e-06
79	0x3e5b0276	0.21387658
80	0x3e2b00e8	0.16699564
81	0x3fabf57a	1.3434289
82	0x3eeedcb4	0.46652758
83	0x3fc5472e	1.5412347
84	0x3e4fdf69	0.20300068
85	0x3fb62555	1.4230143
86	0x3f40c269	0.75296646
87	0x3f952d4d	1.165445
88	0x3438621a	1.7172025e-07
89	0xbd3902ea	-0.045168795
90	0xb72c2c50	-1.0262316e-05
91	0x3f3d39a3	0.7391607
92	0xb917f1c9	-0.00014490554
93	0x3df9e8ab	0.12202581
94	0xbe900fa1	-0.28136924
95	0x3f71e298	0.9448638
96	0x3ff20f51	1.8910924
97	0xb6f365e1	-7.2538246e-06
98	0x3fbf8b16	1.4964321
99	0x3ec06923	0.37580213
100	0x3dd4855d	0.103769995
101	0x38481944	4.7707246e-05
102	0xbe95815f	-0.29200265
103	0x3f57815d	0.8418177
104	0x3eb1192a	0.3458951
105	0x3f8e7291	1.1128713
106	0x3f996793	1.1984733
107	0xb7f1290e	-2.8748556e-05
108	0xb9f5c0c9	-0.00046873678
109	0xb68d0c58	-4.2035645e-06
110	0x3fc304aa	1.5235798
111	0xb806b803	-3.2119464e-05
112	0x3f846a42	1.0344927
113	0x3f0bc7b3	0.5460159
114	0xb7ec0f14	-2.8140414e-05
115	0x3f814e1f	1.0101966
116	0x3fe558d6	1.7917736
117	0x3f9880a5	1.1914259
118	0x3e493fff	0.19653319
119	0x3f310e82	0.6916276
120	0x3bb39778	0.005480703
121	0x3ec85e69	0.3913453
122	0xb71e9190	-9.451425e-06
123	0x3c0514f7	0.008122674
124	0xb8bc4514	-8.9774054e-05
125	0x3e12869a	0.14309159
126	0x3fed790c	1.8552566
127	0xb7a1031c	-1.9194144e-05
128	0x3f38940f	0.7210092
129	0x3fa86ff3	1.3159164
130	0x3f9a3f98	1.2050657
131	0x3efc3442	0.4925862
132	0x3704be4f	7.912123e-06
133	0xb9974bc7	-0.00028857423
134	0x3e91fe0c	0.28514135
135	0x3e9ce9b7	0.3064706
136	0x3fa89c2a	1.3172657
137	0xb70918e1	-8.171629e-06
138	0xb6349cce	-2.6913362e-06
139	0x3fecc61d	1.8497959
140	0xbf04758d	-0.5174187
141	0x3f2fb183	0.68630236
142	0xb58fe91a	-1.0722172e-06
143	0x3e0f40d5	0.13989575
144	0xbf858a23	-1.0432781
145	0xb93b388b	-0.00017854774
146	0xb9e01ef3	-0.00042747668
147	0xb9248a7c	-0.00015691848
148	0x3638d3c8	2.754141e-06
149	0x3e910d9c	0.28330696
150	0x3e611d89	0.21983923
151	0x3f8b3f16	1.0878627
152	0xbaa62c71	-0.001267804
153	0x3f10b768	0.56529856
154	0x3f80a385	1.0049902
155	0x3fae2683	1.3605503
156	0x3f115081	0.56763464
157	0x3f0e4bc1	0.5558434
158	0xb7d26485	-2.5080759e-05
159	0xb761f42e	-1.3467898e-05
160	0x3eaf2dd0	0.3421464
161	0x3f18c12f	0.59669775
162	0x3f66d132	0.90162957
163	0x3f4b78b8	0.7948108
164	0x3fb8d209	1.4439098
165	0x389885d5	7.272853e-05
166	0x37712c7c	1.4375077e-05
167	0x3ebb9c29	0.36642578
168	0x3f953091	1.1655446
169	0xb6245520	-2.4487454e-06
170	0x3f4429a6	0.7662605
171	0x3f12570d	0.5716408
172	0xb6f406e2	-7.272568e-06
173	0x3f39ee83	0.72629565
174	0x3f7c0263	0.9844114
175	0x3f27693d	0.65394956
176	0xb89227cd	-6.969236e-05
177	0x3e5f98b7	0.218356
178	0xb7fef6d9	-3.0394107e-05
179	0x400c6a7d	2.1939995
180	0xb605eacd	-1.9955216e-06
181	0x3edc1f26	0.42992514
182	0x3f7f5c1a	0.9974991
183	0xb79a2875	-1.837707e-05
184	0x382410a9	3.9116163e-05
185	0xb674d2e3	-3.6481586e-06
186	0xb848cd64	-4.7875e-05
187	0x3656e11a	3.2019511e-06
188	0x3f261c3f	0.6488685
189	0xb6257c96	-2.4659435e-06
190	0x401e0134	2.4688234
191	0x36baa937	5.562931e-06
192	0x3f3276dc	0.69712615
193	0x3e7f2d58	0.24919641
194	0x3f91cd63	1.1390804
195	0x3dcf4361	0.101202734
196	0x3f42d984	0.7611315
197	0x3c0b1022	0.008487733
198	0x3f16b32d	0.5886715
199	0x3c0ca640	0.008584559
200	0x3f7ac04a	0.9794966
201	0x3efdbc8e	0.49557918
202	0x3fa841da	1.3145096
203	0x3ebd29b2	0.36945873
204	0xb7ba763f	-2.222799e-05
205	0xb73ebb50	-1.1368495e-05
206	0x3eae5426	0.34048575
207	0x3d9df19e	0.077121004
208	0x3f031d8c	0.5121696
209	0x3f7d6ea3	0.98996943
210	0x330711bd	3.144827e-08
211	0x3e87bca1	0.265111
212	0x3e0b7d42	0.13622001
213	0x3fdbcc4d	1.7171723
214	0x36abbb59	5.1180073e-06
215	0x3e76b778	0.24093425
216	0x3eca32ef	0.39491984
217	0x3f42a495	0.7603238
218	0xb7b46daa	-2.1508738e-05
219	0x36630627	3.3829217e-06
220	0xb4bf7f67	-3.566922e-07
221	0x3fb6d2af	1.4283046
222	0x3f3af54c	0.73030543
223	0x3e3945b9	0.18093003
224	0x3fa355a2	1.2760508
225	0x3f79c6b3	0.97568816
226	0x36d4bc19	6.33999e-06
227	0x3fe382f5	1.777434
228	0x3f2fc8b4	0.68665624
229	0xb898b889	-7.282297e-05
230	0x3f8b1a11	1.086733
231	0xb7846021	-1.578039e-05
232	0x38e47811	0.00010894251
233	0x3d8b181a	0.067917064
234	0xb7b8e628	-2.2041684e-05
235	0x3e439a74	0.19101888
236	0x3b29f3cb	0.0025932665
237	0xb70e54c8	-8.483599e-06
238	0x3f5600ec	0.83595157
239	0xba8c93da	-0.0010725216
240	0x3e303890	0.17209077
241	0x3f87796c	1.058393
242	0x3c7e983f	0.015539228
243	0x3f7c1e3c	0.98483634
244	0xb7ffa0dd	-3.0473277e-05
245	0x3f5c1c8d	0.85981065
246	0xb8ebf1de	-0.000112507245
247	0xb8ae16da	-8.301223e-05
248	0x3f741106	0.95338476
249	0xb62335a9	-2.4320127e-06
250	0x3f6af1de	0.9177531
251	0x3e2b38d4	0.16720897
252	0xb64fdaf6	-3.0972856e-06
253	0x3f80249d	1.0011173
254	0x3f777fe4	0.9667952
255	0x38218ab2	3.851456e-05
