trained_data/ddpg/new_wall_G_550_350_best/actor_ddpg.pth (torch, 504034 bytes, 10 tensors)

fc1.weight f4 [400, 6]
000000 98 38 74 3f 56 07 55 3e 27 c5 e8 3f c8 bf 3b 3f
       0.95398855 0.2080358 1.8185166 0.7333951
000010 cc 87 db bd f8 3d 40 3f 15 fe 4e 3f b8 4c 07 3f
       -0.107192606 0.75094557 0.8085645 0.5285144
000020 c0 62 d2 be 74 fc c2 3e da f2 6d c0 c1 64 25 bf
       -0.41090965 0.3808323 -3.7179475 -0.64606863
000030 c4 4a 52 3f c2 38 06 3f 7e c9 0a c1 b9 75 44 3e
       0.82145333 0.52430356 -8.674192 0.19185533
000040 01 13 85 3e 01 ba b5 bf b1 be 50 3f 7d 78 02 3e
       0.2599106 -1.4197389 0.8154097 0.12741275
000050 40 4b 96 3f 76 2a da 3e f1 c3 84 be d7 e3 f7 3f
       1.1741714 0.4261052 -0.2593074 1.9366406
000060 6f 95 2c 3f 33 d6 39 3f 9b 01 9b 40 bf ff 62 3d
       0.6741552 0.7259247 4.843946 0.05541968
000070 68 db 70 3f ff 18 a2 3f c0 79 37 3f a7 ca 21 3f
       0.9408479 1.2663878 0.7167015 0.6319985
000080 45 73 f3 3e e3 92 74 3e af da 29 3e 87 22 0b 3d
       0.4754888 0.23884158 0.16587327 0.033968475
000090 44 f0 33 3f 34 bc 2f 3f 4a 9f 2b bf 1f f2 c5 bf
       0.7028849 0.6864655 -0.6703993 -1.5464514
0000a0 58 53 12 40 8c 4f 80 3f d2 56 0c 3f 8a 87 38 3f
       2.286337 1.0024276 0.5481998 0.72081816
0000b0 cd 87 99 40 64 40 a0 3e 6c 7e 67 3e 16 39 df 3f
       4.7978272 0.31299126 0.2260682 1.7439296
0000c0 2c fe 6d 3f b8 26 8c 3d 31 bb 9a bf 42 b0 15 3f
       0.9296596 0.068433225 -1.2088376 0.58472073
0000d0 e3 8c 3a 3e 66 af 29 3f ba e1 4d 3f 49 03 f2 3e
       0.18217807 0.6628326 0.80422556 0.4726813
0000e0 d4 3a 08 bf 09 96 a9 3e 2e a1 f6 3f db 04 19 40
       -0.53214765 0.3312228 1.9267938 2.3909214
0000f0 75 fd 31 3f 58 7b 67 3f db 6f 5b 3f 0b eb 90 3f
       0.6952737 0.9042258 0.8571755 1.132173
000100 3e bb 29 bf f4 e8 11 40 31 eb 07 3f 41 eb 4b 3f
       -0.66301334 2.2798433 0.5309325 0.79655844
000110 4e 7f c2 c0 ba ef 13 3e 14 fb 33 be 48 65 2d c0
       -6.07804 0.14446917 -0.17576247 -2.7093067
000120 b2 ec d3 3e 28 a9 46 3f 8c d8 95 c0 a2 22 8f bf
       0.41391522 0.7760186 -4.682684 -1.1182444
000130 2f 2f 4f 3f be 8e 15 3e 64 bf 82 3f d2 95 84 3f
       0.8093137 0.14605233 1.0214658 1.0358222
000140 b6 b4 02 c0 7f 8f 6c 3e 84 af 1e 3f 1c 22 0a 3f
       -2.0422797 0.23101614 0.61986566 0.53958297
000150 27 23 33 3f ae a5 3a 3f 12 8c 12 bf af c3 0f 40
       0.69975513 0.7290906 -0.5724498 2.2463186
000160 93 20 db 3f 80 69 9c 3f 4a f8 3f 3f 2b 3e e4 3e
       1.7119316 1.2219696 0.74988234 0.4457868
000170 ac 1c 2c c0 70 5d ce 3f 18 e6 9c 3d 0d 48 bf 3f
       -2.68925 1.6122265 0.076610744 1.4943863
000180 aa 45 9d 3e 2d 06 5d 3f 7b 77 25 3f 0e ab 02 3f
       0.30717212 0.8633755 0.6463544 0.5104226
000190 32 19 32 3c aa dc 49 40 ba 3d 00 3f 36 ce 60 3f
       0.010870265 3.1540933 0.5009419 0.8781465
0001a0 52 6c f5 40 04 12 d8 3e 54 21 9e ba 4d 79 0d bc
       7.6694727 0.42201245 -0.0012064376 -0.008634877
0001b0 11 86 a6 3f 06 c4 ca 3f 06 b4 23 be 2f 4a 75 bf
       1.3009664 1.5841072 -0.15986642 -0.9581632
0001c0 12 c0 93 3f 8b 78 a2 be 77 4b 5e 3f 10 cd 65 3e
       1.154299 -0.31732592 0.868339 0.22441506
0001d0 49 3c 88 bf 4a 27 61 3e 30 92 d7 bf 8c cf c1 be
       -1.0643398 0.21987644 -1.6841488 -0.37853658
0001e0 ce 20 75 3f f6 f6 99 3e d7 8f 5d 3f 1b 1c d2 3e
       0.9575318 0.3007123 0.8654761 0.41037068
0001f0 17 37 7d 3f ca 88 9a 3f bc 12 55 3f a6 88 7a 3f
       0.98912185 1.2072995 0.8323171 0.9786476
000200 c4 15 df bf 3b f0 9a 3e a7 1e 17 40 40 74 4e bf
       -1.7428517 0.30261406 2.3612459 -0.80646133
000210 43 dd 22 3f 82 2a 5c 3f 1a 4b 2f 3f 14 61 a2 3f
       0.6361887 0.8600236 0.6847397 1.2685876
000220 5f 8a a1 bf a8 f7 e7 be fd 9c 0d 3f 39 63 22 3f
       -1.2620353 -0.45306134 0.5531767 0.6343265
000230 dc 93 bd 3f f9 7e ab bf 7c b6 ab be b5 ef 12 3f
       1.4810748 -1.3398124 -0.33537662 0.57397014
000240 60 d3 50 3f 55 73 cb 3e 22 29 12 40 28 9d 8a be
       0.8157253 0.3973643 2.2837605 -0.27073026
000250 ac 7a 24 bf e0 02 d5 bf 57 1f a8 3f 9b 02 bb 3f
       -0.6424968 -1.6641502 1.3134564 1.461017
000260 6d 69 4d bf 5d dc 59 bf 6f a5 7e 3f 5d 45 e7 be
       -0.8023899 -0.8510187 0.9947118 -0.45170107
000270 63 69 ff 3e 47 cd 5a 3f 95 eb 24 40 26 9c 82 3e
       0.4988509 0.8546948 2.5768788 0.25509757
000280 4a 2b 22 bb 28 43 4d 40 d1 7c 0c 3f 66 49 54 3f
       -0.002474504 3.207224 0.54877955 0.829245
000290 30 e7 68 bf 3a 2e e6 3f 37 7d 9f 3f 5c e7 a5 3c
       -0.90977764 1.7982857 1.2460088 0.020251922
0002a0 d3 33 51 3f 92 1b 00 3f 15 a2 08 bf 00 60 ed 3e
       0.817197 0.5004207 -0.5337232 0.46362305
0002b0 87 8e ae 3e fc af 22 3f fd ff fd 3e f1 de 40 3f
       0.34093115 0.6354978 0.49609366 0.7534018
0002c0 ce 46 03 40 97 20 d5 be b3 61 ae 3e 1e c5 21 c0
       2.0511966 -0.41626427 0.34058914 -2.527656
0002d0 24 4f 50 3f 83 b8 b8 3e e1 3f 5c c0 05 0b 90 3f
       0.8137076 0.3607827 -3.4413989 1.1253363
0002e0 a4 a4 ec be 11 29 f5 be 5b 52 2b 3f 64 62 3c 3f
       -0.4621936 -0.47882894 0.6692254 0.7358763
0002f0 27 6c 1c bf 31 ee 57 3f 55 2b 13 40 8c d4 17 3e
       -0.6110253 0.84347826 2.2995198 0.14827174
000300 41 bf 3e 3f 72 fe dd 3e ec 97 54 c0 2a d5 47 bf
       0.7451058 0.4335819 -3.3217726 -0.7805964
000310 d1 22 b4 3f 4a 81 96 3f 66 5f 21 3f 8d cf 14 3f
       1.4073125 1.1758206 0.6303619 0.581292
000320 e9 57 c0 3f 87 69 be 3f c5 ea 5b bf c9 31 6a 3f
       1.5026828 1.4875954 -0.85905105 0.91482216
000330 2f 00 a2 3e a3 19 49 3f c1 d0 15 c0 fc a4 08 bf
       0.31640765 0.78554744 -2.3408663 -0.53376746
000340 97 2c 0b 3f 12 bb b0 bf 96 8f 1d 3f 6c 87 7e 3f
       0.54364914 -1.3807089 0.6154722 0.9942539
000350 91 60 76 3f 70 18 94 3f 14 71 a3 bf cf 06 d7 3f
       0.962411 1.1569958 -1.2768884 1.6798953
000360 98 6c 1c 3f d9 0d 23 3f 0a 88 5c c0 8e f7 23 bf
       0.611032 0.63693005 -3.4458032 -0.64049613
000370 f6 93 0b c0 41 6a 60 bf 0b bf 4a 3f ad 74 5e 3e
       -2.1809058 -0.8766213 0.7919776 0.21724196
000380 1a 9a f4 be f0 97 cc 3e 40 26 28 bf cc d7 b4 3f
       -0.4777382 0.3995967 -0.65683365 1.4128356
000390 42 83 10 3f 0d 07 2f 3f 18 31 70 40 78 83 bf 3d
       0.56450284 0.68370134 3.7529964 0.093512475
0003a0 25 13 67 be da 5f 19 bf dc 7b d6 3e ba 02 65 3f
       -0.22565897 -0.5991188 0.41891372 0.89457285
0003b0 66 3e c9 bf 21 b1 3f 3d a6 a4 1e 3f 7d 85 9e 3e
       -1.5722167 0.046799783 0.61969984 0.30961218
0003c0 39 4f 59 3f 42 43 40 3f 4b 54 84 be d1 79 40 40
       0.8488651 0.7510263 -0.2584556 3.007435
0003d0 2e 3a 98 3f 03 11 6c 40 6b 0e 2b 3d 6d c7 69 3f
       1.1892755 3.6885383 0.041761797 0.91319925
0003e0 6e 56 9a 3e 05 b3 43 3b 7a 50 b7 bc 32 8c 7e 3e
       0.30144066 0.0029861343 -0.022377241 0.24858168
0003f0 a7 42 62 3f 53 7d ec 3e d5 e7 e1 be 5f 64 3a 3f
       0.88382953 0.46189365 -0.44122186 0.72809404

fc1.bias f4 [400]
000000 77 f0 29 3f e0 22 a6 3f e0 51 8a 3e 94 f7 96 bf
       0.66382545 1.2979393 0.2701559 -1.1794305
000010 33 43 b8 c0 91 7e e4 40 ad 5a 66 bf 7a 58 4c c0
       -5.758203 7.14045 -0.8998211 -3.1929002
000020 4f a6 81 bf cd d9 7f c0 1c ab 52 c0 ab ac 1a 40
       -1.0128878 -3.9976685 -3.2916937 2.4167888
000030 32 32 38 3e 77 d9 c0 c0 36 72 3f c0 3c b4 46 c0
       0.17987898 -6.026546 -2.991346 -3.1047506
000040 61 8d d9 c0 1a d0 42 3f c9 15 ad c0 9c dd 7f 3f
       -6.798508 0.7609879 -5.4089093 0.99947524
000050 3e e3 98 c0 ea 38 95 c0 20 75 39 c0 df 0f 6a bf
       -4.7777395 -4.6631975 -2.8977737 -0.9143047
000060 d7 2c af c0 9c 16 dc c0 9c 05 09 c0 dd 6e 29 c0
       -5.4742236 -6.87776 -2.1409674 -2.6473916
000070 e4 6f 0e c1 8e 58 00 41 77 3b 93 c0 8b d2 bc bf
       -8.902317 8.02162 -4.601009 -1.4751753
000080 64 e5 ee bf d9 11 ab bf 77 19 c4 3e 53 72 20 c0
       -1.8663754 -1.3364822 0.38300678 -2.5069778
000090 e0 15 c0 3f 43 87 c6 bf 6e 22 e5 40 bd 9d c8 3f
       1.5006676 -1.5510029 7.160453 1.5673138
0000a0 7c ff b0 c0 bf 38 a9 3f 2c b5 4f c0 2c a6 ad 40
       -5.531187 1.3220443 -3.2454329 5.4265347
0000b0 0c ea ed be 3e dd 9c bf 5a a8 37 c0 c4 eb e7 3f
       -0.46467626 -1.2255018 -2.8696504 1.8118825
0000c0 14 fa 9e bf 71 0d ce c0 52 3c a0 40 54 46 85 c0
       -1.2420068 -6.439141 5.0073633 -4.164835
0000d0 33 a6 ce 3e 08 6f e7 bf 9d 85 16 41 a1 97 e9 bf
       0.40361175 -1.8080759 9.40762 -1.8249398
0000e0 36 4c c6 3f 37 39 6a 3f 0e bd c0 c0 35 10 fc 3e
       1.5492008 0.9149355 -6.023078 0.49231115
0000f0 28 ee 08 c0 70 a5 dd bf bc 96 7c bf b4 b5 3b c0
       -2.139536 -1.7316113 -0.986675 -2.9329653
000100 76 4a af c0 33 a3 38 c0 35 95 92 be 4e 17 df 3f
       -5.4778395 -2.884961 -0.2862946 1.7428987
000110 14 3a 89 c0 26 f1 a0 c0 84 93 9a c0 e6 24 dd c0
       -4.2883396 -5.029437 -4.8305073 -6.910754
000120 09 6f 47 c0 e1 de b8 bf a5 29 7b bf f1 be a1 40
       -3.116152 -1.4443017 -0.9811042 5.0545583
000130 f7 0e 2c 40 2a 9a 9f c0 b5 9b f4 40 ae a5 b2 bf
       2.6884134 -4.987569 7.644007 -1.3956811
000140 73 65 f1 c0 b8 4f 80 c0 69 8b 07 3e 9f 5c 2a c0
       -7.543634 -4.0097313 0.13236775 -2.6619031
000150 17 c8 74 c0 e4 6a ca bf b8 18 61 c0 1a 11 72 bf
       -3.8247125 -1.581387 -3.5171337 -0.94557345
000160 f0 9b 38 40 16 04 fe 3f 48 95 38 c0 d6 ac 7b bf
       2.8845177 1.9844997 -2.8841114 -0.983106
000170 1e b7 2e c0 3f 96 03 c0 87 b0 ab c0 db 2d 99 40
       -2.7299266 -2.0560453 -5.3652987 4.7868476
000180 99 97 41 c0 04 5d 6a 40 a6 3a 40 c0 9b 3a 82 bf
       -3.0248778 3.6619272 -3.0035796 -1.0174135
000190 ce d4 23 c0 b1 e2 0a c0 3d e7 35 bf ba d4 f7 bf
       -2.5598636 -2.1700861 -0.71055967 -1.9361794
0001a0 cb 75 70 c0 a0 c0 64 c0 0e 3a 69 c0 ea 1b d0 c0
       -3.7571895 -3.574257 -3.6441684 -6.5034075
0001b0 59 7a 38 bf c1 b0 c5 c0 ae 26 4a c0 de 67 f3 c0
       -0.7206169 -6.1778264 -3.1586108 -7.606429
0001c0 ef ce 9f bf ae 08 dd 40 90 21 3d c0 ae d6 d8 bf
       -1.2485026 6.9073095 -2.9551735 -1.6940515
0001d0 d7 a3 1a c1 0b 5d 78 3f 1f 03 45 c0 24 97 31 40
       -9.665 0.9701697 -3.0783155 2.77485
0001e0 6d 78 aa be 21 89 5b c0 49 9b 76 3e 81 9e 48 3e
       -0.33295003 -3.4302447 0.24082674 0.19591714
0001f0 33 02 2c c0 9c 42 1c c0 72 da 94 c0 00 a4 be bf
       -2.6876342 -2.4415655 -4.6516657 -1.4893799
000200 5e 79 11 3e 5a 92 41 c0 24 1f b5 c0 75 ff ad c0
       0.14206454 -3.0245576 -5.6600513 -5.4374337
000210 e0 8d e4 3f b6 4f 12 c0 22 43 58 c0 12 bf 9a c0
       1.7855797 -2.2861152 -3.3790975 -4.835824
000220 7e 0e 26 41 7a 44 ea be f5 e1 a3 bf f2 dc 3f 3e
       10.378538 -0.45755368 -1.2803332 0.18736628
000230 70 6d 23 c0 b4 d9 8d 40 74 67 44 c0 36 18 16 c1
       -2.5535545 4.432825 -3.0688143 -9.380911
000240 09 17 2b 3d 1d 0f 25 bf 2e 66 12 c0 27 8b cc c0
       0.041770015 -0.64476186 -2.2874866 -6.3919864
000250 bf 9e fa 3f cb b1 95 c0 82 0d 65 40 a1 ea 89 40
       1.9579695 -4.6779532 3.5789495 4.309891
000260 1b 5a 1e 40 64 cb cb bf 3c 77 34 c0 ed 2e b1 c0
       2.4742496 -1.5921445 -2.8197775 -5.5369782
000270 69 69 9d c0 e9 ec e0 bf 84 56 10 c0 ab 8f da c0
       -4.9191175 -1.7572299 -2.2552805 -6.8300376
000280 79 86 53 c0 ca 28 55 c0 74 f7 31 c0 ee 83 25 c0
       -3.3050826 -3.3306146 -2.7807283 -2.5861773
000290 39 ea f3 c0 ff 82 cf bf 95 02 ef bf 04 8b b3 c0
       -7.6223416 -1.6211852 -1.8672663 -5.6107197
0002a0 94 d7 d4 3d 1d 73 a8 c0 cc 41 57 c0 b7 af be c0
       0.10392681 -5.264052 -3.363391 -5.9589496
0002b0 66 dd a6 c0 33 8c 56 c0 41 4e 05 be c1 dc c7 c0
       -5.214526 -3.352307 -0.13018133 -6.2456975
0002c0 50 8e 00 c0 de 89 e2 c0 62 bb 75 c0 17 c6 43 c0
       -2.008686 -7.0793295 -3.839562 -3.0589654
0002d0 9a 28 c9 c0 9c 04 6a c0 45 5c b4 40 60 83 16 3e
       -6.2862062 -3.6565313 5.6362634 0.14698553
0002e0 83 88 88 c0 4f 98 2d 3f 4a b1 c6 bf bc b0 4d 3f
       -4.266664 0.6781053 -1.5522854 0.803478
0002f0 1a da 0e 40 d6 39 5b 40 f1 ed b0 c0 d6 3f 4f c0
       2.2320619 3.425405 -5.5290456 -3.2382712
000300 cd 40 62 c0 2a 12 c2 bf 0a 9c 1f 3f f1 08 88 c0
       -3.5352051 -1.5161793 0.6234747 -4.2510915
000310 6f 92 89 3e 08 d7 9c c0 2d 7d 74 bf fd 1d 0b c1
       0.26869532 -4.901249 -0.95503503 -8.694821
000320 1b fc 84 c0 77 ce 03 c0 41 91 aa bf b8 80 8a bd
       -4.1557746 -2.0594766 -1.3325578 -0.067628324
000330 a2 55 64 c0 8f c5 b6 40 0e 49 a6 c0 ee dd 81 c0
       -3.5677266 5.711616 -5.196418 -4.058341
000340 46 fb de bf 7c 10 10 c0 f6 eb 55 c0 da 6f 23 c0
       -1.7420433 -2.2510061 -3.342527 -2.5537019
000350 a7 4e 64 c0 17 cb 27 3f 35 10 e9 bf c8 c9 bd c0
       -3.5673006 0.65544266 -1.8208071 -5.9308815
000360 6d 4f f0 bf 2f ab c0 40 f6 7c 94 c0 a1 52 8c c0
       -1.8774239 6.0208964 -4.640254 -4.3850865
000370 84 99 f2 40 71 d4 79 bf c2 b6 95 bf bb 15 42 be
       7.5812397 -0.97589785 -1.1696398 -0.18953602
000380 3e ff 41 3f 62 a0 95 c0 72 52 42 c0 59 56 ee bf
       0.75780094 -4.675828 -3.036282 -1.8620101
000390 6d 0e 04 c0 d6 28 0e c0 52 10 e3 c0 a8 77 7f 40
       -2.0633805 -2.2212424 -7.095742 3.9916782
0003a0 0a d5 a5 bf de 03 3a 40 cb dd 0c be 58 fe dd bf
       -1.2955639 2.906486 -0.13756482 -1.7343245
0003b0 56 8f a9 3f cc 25 d8 c0 b8 db 06 c0 91 e8 1e bf
       1.3246868 -6.754614 -2.1071606 -0.6207362
0003c0 1e 83 db 3c 41 86 65 c0 ed 20 17 40 1f 3d e3 c0
       0.02679592 -3.5863192 2.3613846 -7.101211
0003d0 62 a9 12 3f 4b e6 02 c1 ce df 26 c0 cf c7 96 c0
       0.5728971 -8.181224 -2.60741 -4.7118907
0003e0 c1 af 32 41 54 2c 9d c0 47 51 32 c0 5a 2c ed c0
       11.167909 -4.911661 -2.7862108 -7.411664
0003f0 05 92 7b c0 67 4c 8d c0 05 80 0d c0 e2 c8 0e c1
       -3.9307873 -4.4155765 -2.2109387 -8.924044

fc2.weight f4 [300, 400]
000000 a8 48 3a 3f 1c 85 7d 3f 82 fd dc 3f 81 8a 26 3f
       0.72767115 0.99031234 1.7264864 0.6505509
000010 8e 3f 95 3f f7 e6 69 3e b7 f7 36 be 17 90 ae 3f
       1.166002 0.22842012 -0.17867933 1.3637723
000020 09 f3 c0 3f 79 5e a0 3f 05 b7 86 3d 84 12 9b 3f
       1.5074168 1.2528831 0.06577877 1.2115026
000030 5b 03 5c 3f da 20 40 3e 5e a3 61 3f a4 f6 b9 3f
       0.8594262 0.18762532 0.88139904 1.4528394
000040 86 e3 21 3f b0 be 65 3f de b6 9e bd ad 1c 0b 3f
       0.632378 0.8974409 -0.07749723 0.5434063
000050 de bc c5 3f 6e c6 f9 3e 34 8e 5b 3e 3b 8e 66 3e
       1.5448263 0.48784202 0.21440965 0.22515194
000060 8a 9a 6b 3f 14 87 85 3d fd cf f2 be ef 2d 8f 3f
       0.9203268 0.06519905 -0.47424307 1.1185893
000070 00 84 7a 3f b9 0d cb 3f d6 53 89 bf 8d 04 58 bd
       0.97857666 1.5863563 -1.072871 -0.052738715
000080 5b d8 6b 3d bc 9b 26 3f 9e 39 fa 3f 7a 7f 43 3f
       0.05757938 0.6508138 1.9548833 0.7636639
000090 aa de d3 3e 20 95 0b 40 82 26 d9 3f d9 9c a4 3f
       0.41380817 2.1809769 1.6964877 1.2860366
0000a0 fe 93 8b 3f a8 0f d1 3e 02 b1 5e 3f c8 7e 24 3f
       1.0904539 0.40832257 0.8698884 0.6425595
0000b0 db 06 3e be a6 f1 47 3f ac 14 8c 3f bd 9a 6a 3f
       -0.18557303 0.781031 1.0943809 0.9164236
0000c0 87 97 9a 3e 0e 99 c1 3f 48 7e 9c 3f 14 1a 85 3f
       0.3019373 1.5124834 1.2226038 1.0398583
0000d0 5e 7e 66 3f d3 b8 2d 3f 90 57 bf 3f 13 a8 7c 3f
       0.9003657 0.67860144 1.4948597 0.9869396
0000e0 5c 9e a8 bf db 22 4d 3f 49 b5 c7 3e d6 61 aa 3f
       -1.3173327 0.8013131 0.39005497 1.3311107
0000f0 a1 cc 0e bf 7b 08 96 3f 0a a9 67 bd 3c cd 02 3f
       -0.5578099 1.1721338 -0.056557693 0.5109441
000100 8a e8 49 3e f9 be 19 3f f8 54 4b 3f c2 a2 2e 3f
       0.19717613 0.60057026 0.7942653 0.682171
000110 44 51 9c 3e 09 23 70 3f d4 66 75 3e c8 2b 16 be
       0.3053075 0.9380346 0.23965007 -0.14665139
000120 52 87 50 3a 34 3f 16 3f 87 4e 6c 3f e4 35 46 3f
       0.00079547346 0.5869019 0.92307323 0.7742598
000130 d6 3e 98 3e ca 1b b7 3c 2e c2 b9 3f da cd 43 3f
       0.2973544 0.022352118 1.4512384 0.7648598
000140 6e 61 50 3d ba 31 f3 3e 66 a1 0d 3f ac e6 f8 3f
       0.050874166 0.47498876 0.553244 1.9445395
000150 84 ea c4 3e 36 65 2a bf 2d a0 e2 3f ee 55 3c 3e
       0.3846017 -0.66560686 1.7705132 0.18392155
000160 26 fd 90 3f 44 64 bf 3f 0a fe ec 3e b9 f0 14 3f
       1.1327255 1.4952474 0.46287566 0.58179814
000170 f2 8d 8c 3f c5 c8 0e 3f 5e 59 6b 3e 4a cc b5 3e
       1.0980818 0.557751 0.2298331 0.35507423
000180 8a 3a 09 3f c4 19 92 3f ef 4c 32 be 6e b3 64 3f
       0.5360495 1.1414113 -0.1741216 0.8933629
000190 6e cc 7e 3f e8 b0 c3 be 3e a9 40 3f f9 8e 75 3f
       0.99530685 -0.38220906 0.75258243 0.95921284
0001a0 d3 71 81 3f 64 01 20 3f d4 0b d1 3f 13 be ee 3f
       1.0112861 0.6250212 1.6331735 1.8651756
0001b0 fd 50 77 3f dc c2 2c be 3f 31 3a 3f 86 07 4e 3e
       0.96607953 -0.16871208 0.72731394 0.20120057
0001c0 a7 ab 52 3f bd 06 cc 3f 91 7a bc bd 12 83 18 bf
       0.8229317 1.5939556 -0.09203065 -0.59575
0001d0 c5 f7 15 3f a6 43 95 3f 25 73 5f 3f 7a b2 af 3f
       0.5858119 1.166127 0.8728507 1.3726342
0001e0 03 7c 00 3e 13 97 f3 3e cb 7f 53 3b 5e 7e e3 3e
       0.12547307 0.47576198 0.0032272215 0.44432348
0001f0 da 5e 83 3f 64 a9 01 3f e6 1d 1b 3f 34 83 20 3e
       1.0263321 0.50649095 0.60592496 0.1567505
000200 1d 03 5b 3f fd 16 13 bf c1 83 ad be f6 5a 1d 3f
       0.85551625 -0.5745695 -0.33889583 0.6146692
000210 7f 01 83 3f 50 91 0d 40 a4 52 50 bf 6d be 71 3f
       1.0234832 2.2119942 -0.813761 0.9443119
000220 40 3d d5 3f b7 62 b7 3f fd f5 d6 3f 81 ee ae 3f
       1.6659317 1.4327 1.679382 1.3666536
000230 2c 89 6f be 59 9a 82 3f b6 05 24 3f cf fb 31 3e
       -0.2339217 1.0203353 0.64071214 0.17381214
000240 ad 70 46 3e f1 f3 83 3f ed d0 12 3f 14 3c e8 bc
       0.1937892 1.030882 0.57350045 -0.02834896
000250 33 ea c6 3e 0d af ae 3f 58 c6 db 3f b6 50 20 3e
       0.38850555 1.3647171 1.7169905 0.15655789
000260 04 9d ff 3e 15 b4 11 bf 4a ad 33 3f 33 d6 dd 3e
       0.4992448 -0.5691541 0.70186293 0.43327484
000270 15 de b3 be 9a f7 50 be c7 84 bd 3f b3 80 64 be
       -0.35130373 -0.20406953 1.4806145 -0.2231472
000280 f3 ad 9c be 9d ff 44 3f 1a 48 29 3f 34 26 d8 be
       -0.30601463 0.76952535 0.66125643 -0.42216647
000290 66 3b 6e be c9 9f 20 3f 38 8d d5 3e 2a 4d d8 3d
       -0.23264846 0.6274381 0.41709304 0.10561593
0002a0 3f 6a b5 3f 61 a2 fe 3e 64 26 d9 3d 2b ec 69 3f
       1.4173049 0.4973326 0.106030256 0.9137599
0002b0 e0 39 98 bc f9 8d 97 be ad 11 ec 3f e7 e6 bd bd
       -0.018582284 -0.29600504 1.8442894 -0.09272557
0002c0 50 1f a0 3f b7 9e 8b 3e ec fc d6 be f2 39 88 3f
       1.2509556 0.27269527 -0.4198984 1.0642684
0002d0 f7 56 2d bf a6 bf b5 3e 53 05 eb 3f f7 af 86 bf
       -0.6771082 0.3549778 1.8361 -1.052245
0002e0 2b b8 2a 3e e5 21 d3 3f 4a 68 2e 3e 64 f6 c2 3e
       0.16671817 1.6494719 0.1703197 0.38078606
0002f0 2f 6e 09 40 bd 2b ad 3f 2e 47 09 3f f6 8b 95 3f
       2.14735 1.3528973 0.53624237 1.1683338
000300 56 9b 91 3f 0a 08 60 3e a1 7a 10 3f 81 54 61 be
       1.137553 0.21878067 0.56437117 -0.22004892
000310 45 30 e2 be 1b cb 7f 3f e9 10 f9 3f 90 ff 08 3d
       -0.44177452 0.9991929 1.9458286 0.03344685
000320 aa e1 31 3e bc 12 07 3e b4 17 6d 3f 9e 44 94 3f
       0.1737124 0.1319074 0.92614293 1.158344
000330 96 88 a9 be d5 4e 9f 3f 39 bd b3 be eb 77 8d be
       -0.3311202 1.2445933 -0.35105303 -0.27630553
000340 55 ec 15 3f 13 9c d0 3d 74 08 9f 3e 23 13 81 3e
       0.5856374 0.10186019 0.31061137 0.25209913
000350 ae 25 8d 3d 94 84 4e 3d e4 31 a3 3e 02 1a a6 bd
       0.068919525 0.050419405 0.31874 -0.08110429
000360 f4 5b fa 3e de c6 b9 3f 96 37 af 3e 55 b6 86 3e
       0.4889828 1.4513814 0.34222096 0.26310983
000370 0f 42 5d 3f c9 5d e4 3e 15 51 c5 3f a5 d0 b9 3e
       0.8642892 0.44602802 1.5415369 0.36291996
000380 e8 0f 3e be e0 94 44 bf 66 ed 76 3e d1 3c d3 3f
       -0.18560755 -0.76789665 0.24113998 1.6502935
000390 a4 40 8c 3e 06 9a a4 3e d7 c2 d6 3d a2 4f 18 3f
       0.27393067 0.3214876 0.104863815 0.5949651
0003a0 a3 9d 52 3f 75 32 5b 3f b8 3d 09 bf 8f f2 5f 3f
       0.82271785 0.85623866 -0.536098 0.8747949
0003b0 42 08 7d 3f f6 9f 56 bf 9a d8 31 3f d4 a5 19 be
       0.98840725 -0.8383783 0.6947113 -0.15004665
0003c0 6b 81 80 3f 49 10 ba 3f 3f 72 b3 3f f1 e0 e6 3e
       1.0039495 1.453622 1.401924 0.45093492
0003d0 c1 1e 68 3f 4d ef f5 3d 2e af ad 3e 78 06 84 3f
       0.90671927 0.120085336 0.33922714 1.0314474
0003e0 40 25 ee 3f dd 1c 7b bd 22 77 4c 3e 55 11 8f 3f
       1.8605118 -0.061306823 0.1996732 1.1177164
0003f0 21 9a aa be dd 0e b1 3f 08 4b 68 3f c5 94 4c bd
       -0.33320716 1.3832661 0.9073949 -0.049946565

fc2.bias f4 [300]
000000 7f 65 96 3f 29 02 ed 3f ad 0b f5 3f 8e 51 c3 3f
       1.1749724 1.8516284 1.9144188 1.5259264
000010 40 0f be 3f f1 36 b6 3f 7b 2b b4 3f e1 e2 1d 40
       1.4848404 1.4235517 1.4075769 2.4669726
000020 9e b7 ea 3f f2 c9 0f 40 a8 2a 01 40 4c a9 a6 3f
       1.8337286 2.2467008 2.0182285 1.3020415
000030 0e 99 f2 3f fe c6 b2 3f 7b 47 ea 3f 00 f5 8c 3f
       1.8952959 1.3966978 1.8303064 1.1012268
000040 ea 88 a2 3f 94 2a d5 3f e6 04 ef 3f 45 25 d6 3f
       1.2698033 1.6653619 1.867337 1.6730124
000050 ec 4f eb 3f 2d 84 e3 3f a7 ed d5 3f ad 30 dc 3f
       1.8383765 1.7774712 1.6713151 1.7202355
000060 96 8f e5 3f 3d 93 c4 3f 73 ab 99 3f dd 91 d1 3f
       1.7934444 1.5357434 1.2005447 1.6372639
000070 f1 06 e6 3f bb 9d 65 3f 10 29 d9 3f 5d 66 36 40
       1.7970868 0.896938 1.6965656 2.8499978
000080 28 3a fb 3f 43 a0 a7 3f 79 07 ad 3f 11 f1 b2 3f
       1.9627123 1.3095783 1.3517905 1.3979818
000090 0b f6 e7 3f 22 6b ef 3f 34 bd 83 3f 87 84 e6 3f
       1.8121961 1.8704569 1.0292115 1.8009194
0000a0 36 c6 b0 3f bf f4 9d 3f b7 b2 c5 3f 71 07 b3 3f
       1.3810489 1.2340316 1.5445164 1.3986646
0000b0 7b 9c ba 3f 68 75 f0 3f b4 28 c7 3f a2 83 c5 3f
       1.4579004 1.878583 1.5559297 1.5430796
0000c0 34 fb f8 3f f6 2f bb 3f 4b 64 20 40 e1 d1 c3 3f
       1.9451661 1.4624012 2.5061214 1.5298425
0000d0 81 15 c7 3f b1 f6 b1 3f 92 e9 de 3f 6a 5c f2 3f
       1.5553437 1.3903409 1.741503 1.8934453
0000e0 f4 0a cb 3f 04 ac ca 3f 92 37 c5 3f 78 7e be 3f
       1.5862718 1.5833745 1.5407584 1.4882345
0000f0 fd b1 af 3f 5e 7a f8 3f ac 78 06 40 10 84 e5 3f
       1.3726193 1.9412344 2.1011152 1.7930927
000100 ce 90 e8 3f 81 48 cb 3f ce d8 d7 3f 93 49 1b 40
       1.8169191 1.5881501 1.6863039 2.4263656
000110 c7 8f c7 3f a7 4a a1 3f 31 ca ee 3f 5d 12 b7 3f
       1.5590752 1.2600907 1.8655454 1.4302479
000120 0a 5e b5 3f f7 cd c7 3f db 89 e7 3f bf f5 cb 3f
       1.4169323 1.560973 1.8088945 1.5934371
000130 74 73 a3 3f 42 d9 9f 3f ef ab eb 3f ef 33 da 3f
       1.2769608 1.2488177 1.8411845 1.7047099
000140 d6 ae d5 3f a0 7f c1 3f c5 67 d7 3f 0c d1 b9 3f
       1.6693981 1.5117073 1.6828543 1.4516921
000150 e5 f7 88 3f 75 5d c4 3f 1d 56 a7 3f 5c 2c ad 3f
       1.0700651 1.5341021 1.3073155 1.3529162
000160 e3 2b 54 3f 9f 61 eb 3f 6b a2 e7 3f af c7 d2 3f
       0.82879466 1.8389167 1.8096441 1.6467189
000170 de e8 bb 3f 7b 83 83 3f 68 e1 bf 3f 51 b9 ff 3f
       1.468044 1.02745 1.4990664 1.9978429
000180 38 dd 02 40 fe ed d4 3f 17 b7 bb 3f 75 30 c5 3f
       2.0447521 1.663513 1.466525 1.5405413
000190 49 8a d0 3f b7 f6 14 40 17 59 4c 40 09 19 ff 3f
       1.6292201 2.3275583 3.1929376 1.9929515
0001a0 be de e2 3f a6 db 98 3f f7 e8 c1 3f 02 9d db 3f
       1.7724226 1.1942031 1.514922 1.715729
0001b0 04 f5 cb 3f 91 ed db 3f de ab b2 3f 79 bb b2 3f
       1.5934148 1.7181875 1.39587 1.3963462
0001c0 da 23 a1 3f 12 91 ed 3f 01 f8 bc 3f d0 33 d1 3f
       1.2589066 1.8559897 1.4763185 1.6343937
0001d0 f5 36 bc 3f 33 77 7e 3f f0 48 d4 3f a2 08 de 3f
       1.4704272 0.99400634 1.6584759 1.7346385
0001e0 5d 7c d6 3f 70 1a a7 3f da c8 c7 3f 52 02 be 3f
       1.6756703 1.3054943 1.560817 1.4844458
0001f0 62 40 a9 3f cb 11 d0 3f 51 71 bf 3f e1 4a bc 3f
       1.3222773 1.625543 1.4956456 1.4710351
000200 42 48 ca 3f 43 cc be 3f 5b db ad 3f a2 bf c2 3f
       1.5803301 1.4906086 1.3582567 1.5214732
000210 a2 cb ca 3f 19 ec 83 3f 66 65 84 3f 37 18 72 3f
       1.5843394 1.0306426 1.0343444 0.945682
000220 44 28 a6 3f d8 08 cb 3f 5a 08 01 40 14 8a dc 3f
       1.2981038 1.5862074 2.0161347 1.7229638
000230 b6 8e b2 3f a5 12 e4 3f de 12 1f 40 06 16 c8 3f
       1.3949802 1.781819 2.4855266 1.5631721
000240 27 93 b4 3f 15 fa cf 3f a1 be d9 3f 73 4b 89 3f
       1.4107407 1.6248194 1.70113 1.072615
000250 76 3d b4 3f ef bd d1 3f 43 a8 1a 40 11 da e7 3f
       1.4081256 1.6386088 2.4165199 1.8113424
000260 a7 32 9e 3f 76 df fa 3f 18 d9 d5 3f 6d 8c a5 3f
       1.2359208 1.9599445 1.6706877 1.293348
000270 de 11 ee 3f 2d 2c e2 3f 3d f4 03 40 6f b2 98 3f
       1.8599203 1.7669731 2.0617821 1.1929454
000280 fe a2 f9 3f c2 2f de 3f 22 59 e3 3f 36 67 f6 3f
       1.9502866 1.7358325 1.7761576 1.9250247
000290 bc e1 df 3f bd 26 d1 3f 60 22 90 3f 4f 3d 06 40
       1.7490764 1.6339947 1.126049 2.097492
0002a0 af 81 e1 3f 1a 67 bc 3f c6 27 05 40 a6 d1 b7 3f
       1.7617701 1.4718964 2.0805526 1.4360855
0002b0 d8 46 c7 3f 93 70 b6 3f c1 5a 87 3f 6d 17 f0 3f
       1.5568495 1.4253105 1.0574571 1.8757149
0002c0 db be ce 3f 5d 98 0b 40 e2 8d a5 3f 78 4f d3 3f
       1.6151994 2.1811745 1.2933924 1.6508627
0002d0 94 ce af 3f d2 40 b4 3f 06 32 f8 3f 61 9d c5 3f
       1.3734918 1.4082282 1.9390266 1.5438653
0002e0 ec 60 d5 3f 16 f9 01 40 87 9a f4 3f e5 9d a9 3f
       1.6670203 2.030828 1.9109658 1.325131
0002f0 a9 5c fa 3f ad f8 d5 3f e7 15 b4 3f 8f 8a ad 3f
       1.9559528 1.6716515 1.4069184 1.355791
000300 3d b6 da 3f 57 06 ae 3f 26 ff 30 40 3e ab 9c 3f
       1.7086865 1.3595685 2.765573 1.2239759
000310 54 76 a1 3f 1c d3 97 3f e8 56 da 3f 31 24 f1 3f
       1.2614236 1.18613 1.7057772 1.883917
000320 99 a9 b0 3f 3d 94 8a 3f ba 41 d7 3f 91 dd 8d 3f
       1.3801757 1.0826489 1.6816933 1.1083242
000330 1f ef a8 3f f6 60 e0 3f 4e 65 eb 3f ee 5c d0 3f
       1.3197974 1.752959 1.8390291 1.627836
000340 3c 41 f4 3f 55 5a a4 3f 26 1a 8f 3f 17 48 b8 3f
       1.9082408 1.2840067 1.1179855 1.4397
000350 11 69 df 3f 7b 32 fe 3f 05 90 ed 3f 27 c8 e2 3f
       1.7453939 1.9859155 1.8559576 1.7717332
000360 90 18 ab 3f 18 68 9d 3f e1 2f b6 3f d3 a2 f8 3f
       1.3366871 1.2297392 1.4233361 1.942469
000370 88 68 ac 3f 70 8f fc 3f db 61 c9 3f e6 12 b1 3f
       1.34694 1.9731274 1.5732988 1.3833892
000380 9d 07 e4 3f c7 8a d6 3f 09 0b d0 3f 3c a9 88 3f
       1.7814823 1.6761101 1.6253368 1.0676646
000390 d7 f4 b7 3f 9d 89 aa 3f 8c b9 18 40 a7 46 8e 3f
       1.4371594 1.3323246 2.386325 1.1115311
0003a0 1c d2 0c 40 82 ef df 3f 83 79 9c 3f 21 20 c6 3f
       2.200324 1.7494967 1.2224582 1.5478555
0003b0 21 4b b7 3f e6 af f5 3f bf 1b a7 3f 00 4b c3 3f
       1.4319803 1.9194305 1.3055342 1.5257263
0003c0 be 8c 95 3f 4c 50 be 3f 06 25 09 40 d6 d1 d8 3f
       1.1683576 1.4868255 2.1428847 1.6939037
0003d0 9a 21 f3 3f d0 8b cc 3f a9 14 df 3f b0 b3 02 40
       1.8994629 1.5980167 1.742818 2.0422173
0003e0 9b 97 ce 3f b4 4b 8c 3f a9 28 bb 3f d3 f0 d7 3f
       1.6140016 1.0960603 1.4621783 1.6870369
0003f0 5b b6 c6 3f e9 44 da 3f 07 e5 df 3f d3 c9 ed 3f
       1.55244 1.705228 1.7491769 1.8577217

bn1.weight f4 [400]
000000 f5 3d 70 40 37 ab bf 3f dc 01 82 40 c8 c5 b9 40
       3.7537816 1.4974126 4.062727 5.805393
000010 66 95 17 40 f2 98 5c 40 4d dc b2 3f 8c 34 1f 40
       2.3684936 3.446835 1.397348 2.4875822
000020 fc be ae 40 57 96 89 3f c8 6c 98 3f e0 79 9b 3f
       5.4608135 1.0749005 1.1908197 1.2146568
000030 e4 2d 14 40 fa 0b dd 3e 6f 21 a9 3f f5 dc e4 3f
       2.315301 0.431732 1.3213328 1.7879931
000040 1f 62 96 40 73 a3 52 40 c1 5c f9 3d 2d ec d0 3f
       4.6994777 3.2912261 0.121758945 1.6322075
000050 c4 ce 37 40 2b 87 31 3f 0a 06 ba 3f c0 2e 3c 40
       2.871995 0.69346875 1.4533093 2.9403534
000060 4b 16 38 40 f5 55 53 3e c1 34 57 40 da de b9 3f
       2.8763607 0.20638259 3.3625948 1.4521134
000070 16 67 92 40 66 1a 7c 40 64 85 48 40 e6 45 de 3f
       4.5750837 3.9391112 3.1331415 1.7365081
000080 fb 61 2f 40 a5 9c 26 40 b0 81 84 40 30 3f a0 3f
       2.7403553 2.6033108 4.140831 1.2519283
000090 f9 17 d2 3f 2c 16 ad 40 51 1b ab 40 8c c2 9c 3f
       1.6413566 5.4089565 5.3470845 1.2246871
0000a0 aa d0 08 3f 9d b0 a5 40 19 25 20 40 fa b6 f8 3f
       0.53443396 5.1778092 2.5022643 1.943084
0000b0 08 ea 93 40 b6 0c 99 3f f2 56 7f 40 06 ee 93 3f
       4.6223183 1.1957004 3.9896817 1.1557014
0000c0 4d 6d 0d 40 13 b3 9b 3f 06 0f f5 3f 39 0c 07 3f
       2.2097962 1.2164024 1.914521 0.52753025
0000d0 54 f5 cd 3f 02 be 71 40 67 17 5e 40 eb 4e 9f 3f
       1.6090493 3.7772222 3.4701784 1.2445959
0000e0 c4 d6 ed 3f ef 3f 06 40 cf 58 5c 40 77 a3 37 40
       1.8581166 2.0976522 3.4429204 2.869352
0000f0 dc 73 bf 3f 48 36 9c 3f db a6 ad 3f ce 19 a9 3f
       1.4957232 1.2204065 1.3566545 1.3211
000100 1d 8c 27 3f 1f ff 74 40 4e b5 ec 3f 13 31 87 40
       0.6544817 3.8280714 1.849283 4.2247405
000110 de 50 0b 40 46 0c 8f 3f 57 1c df 3e 7d 45 72 3e
       2.1768107 1.117562 0.4357631 0.2365932
000120 5a 31 8b 3f e8 7b 7e 40 ba 24 ed 3f c4 1e 49 40
       1.0874436 3.9763126 1.8526833 3.1425028
000130 d4 10 3c 40 d1 c7 d9 3f 97 80 f7 3f 97 76 d3 3f
       2.938527 1.7014104 1.9336118 1.6520566
000140 70 1b 6b 3e f8 cc b2 3f 6f ab af 40 b7 38 a1 40
       0.22959685 1.3968801 5.489677 5.038173
000150 b5 2c b4 3f d7 77 98 3f 29 c9 1a 40 a2 70 0a 40
       1.4076144 1.1911572 2.4185278 2.1631246
000160 1a 37 79 40 3e 25 07 40 24 c2 b7 3f 04 72 fb 3f
       3.8939881 2.111648 1.4356122 1.964417
000170 f3 c4 d8 3f b6 9c 58 3f 6e d4 17 3f fd 6e 3f 40
       1.6935104 0.8461412 0.59308517 2.9911492
000180 36 98 19 3f cc 9f 76 40 b1 2b f9 3f 4c 3e 4c 40
       0.5999788 3.8535032 1.9466459 3.1913023
000190 da 9e 04 40 91 22 c6 3f af 3d 06 40 a3 4b 45 40
       2.0721955 1.5479299 2.0975149 3.0827415
0001a0 ae 3b 00 40 b0 3a 4d 40 ab 9a e4 3f 9c cc 58 3f
       2.0036426 3.206707 1.7859701 0.8468721
0001b0 21 83 90 3f 9b e6 6f 3e 18 33 55 40 78 ea 7d 3e
       1.1290017 0.23427813 3.3312435 0.24796474
0001c0 88 d2 40 3f 78 1b 68 40 9b 6b 4c 3f 5d a8 61 40
       0.75321245 3.6266766 0.7985169 3.525901
0001d0 52 38 2c 40 18 c5 43 3f ed c6 dd 3f 08 49 76 40
       2.6909375 0.76472616 1.7326332 3.8482075
0001e0 85 d7 cc 3f 04 6a 96 3f 22 2d 89 40 13 9c e7 3f
       1.6003271 1.1751103 4.2867594 1.8094505
0001f0 f0 29 34 3f 24 a0 87 40 84 0b 56 40 27 5e 8a 40
       0.7037649 4.2382984 3.3444529 4.323993
000200 0a d5 49 40 23 98 94 40 d0 ef be 3e cb 04 3f 3f
       3.1536279 4.6435714 0.37292337 0.7461669
000210 83 04 31 40 49 ec bf 3f e1 03 09 40 86 d4 a4 3f
       2.7659004 1.4993984 2.1408617 1.2877357
000220 c5 a4 86 40 dd 11 f7 3f 1a 1b d6 3f 86 53 7f 3f
       4.2076135 1.9302326 1.6727021 0.9973682
000230 49 04 b4 3f 0a c0 50 3e d5 f5 8f 3f ed 2b 87 40
       1.4063808 0.20385757 1.1246897 4.224112
000240 f9 04 bc 3f 08 26 d4 3f 1a f2 e8 3f 04 f9 e3 3e
       1.4689018 1.6574106 1.8198884 0.4452592
000250 21 c7 83 40 f7 77 17 3f 97 24 53 40 61 e5 98 40
       4.1180577 0.59167427 3.2991083 4.7780004
000260 5d 25 c2 40 71 7a 84 40 36 79 a4 3f d8 a8 09 40
       6.067061 4.1399465 1.2849491 2.1509304
000270 85 0c 3a 3f 3f b9 24 40 0b 88 90 3f 1d d3 a8 3e
       0.72675353 2.5738065 1.1291517 0.32973567
000280 14 0e 1e 40 73 ba 49 40 d2 af 20 40 3f b4 b3 3f
       2.4696093 3.152005 2.5107312 1.4039382
000290 1c 08 7d 3e 16 ea c9 3f 9f fd 03 40 ba d3 32 3e
       0.24710125 1.5774562 2.0623548 0.1746358
0002a0 49 f0 c0 3f 5a 83 0c 3f 6b cf d5 3f 75 4c 07 40
       1.5073329 0.54887927 1.6703924 2.1140416
0002b0 e9 39 97 3d ea 89 81 3f 22 83 5c 40 8e 21 93 3f
       0.07384092 1.0120213 3.4455037 1.1494615
0002c0 5f f5 1a 40 28 77 93 3e 83 95 cf 3f 6a c8 8f 3f
       2.4212263 0.28801847 1.6217502 1.1233037
0002d0 bb a5 31 3f dc c0 db 3f f2 bf 14 40 61 91 5a 40
       0.6939351 1.7168231 2.3242154 3.4151232
0002e0 55 b9 9e 3f 65 95 d3 3f 72 de c7 3f 18 2e 1d 40
       1.2400309 1.6529967 1.561476 2.4559383
0002f0 72 cc 01 40 8f bd 6f 40 3c 23 07 3f 91 fe e3 3f
       2.0281034 3.7459447 0.5278814 1.7812063
000300 d4 a1 47 bc 43 7f 9c 3f d3 25 3c 40 6b 57 85 3f
       -0.012184579 1.2226337 2.9398086 1.0417303
000310 cd 9f 02 41 23 2f ac 3f 84 b7 78 3f 31 a1 aa 3f
       8.164014 1.3451885 0.9715502 1.3330442
000320 38 de 13 3f 92 15 bd 3f 3e c9 1f 40 3b f3 51 40
       0.57760954 1.4772208 2.4966578 3.2804706
000330 47 6a 7c 3f da 5a 4a 40 52 8a 5a 40 ff b1 8e 3f
       0.98599666 3.1617951 3.4146924 1.114807
000340 38 64 0b 40 8c 22 96 3f ea c6 bb 40 40 f5 29 40
       2.1779919 1.1729293 5.8680315 2.6555939
000350 30 cd 5f 3f f5 64 a2 3f ab 91 7a 40 26 62 16 3e
       0.87422466 1.268706 3.9151409 0.14685878
000360 8c e5 20 40 b3 c4 7d 3f ea 5b 2c 3f 8b f2 45 3f
       2.5140104 0.99128264 0.6732775 0.77323216
000370 dc e0 5f 40 fe b4 66 40 25 da 21 40 71 24 55 40
       3.4980993 3.604797 2.5289395 3.3303492
000380 6a fd fb 3f 10 db 73 3f df 52 4d 40 58 5f a2 3f
       1.9686711 0.9525614 3.208183 1.2685347
000390 a5 2c 58 3f fe e9 d1 3f 09 a5 8c 3e e8 09 4d 40
       0.8444312 1.6399534 0.27469662 3.2037296
0003a0 95 78 83 40 f6 33 0a 40 5e 79 c8 3f 82 08 cc 3f
       4.1084695 2.1594214 1.5662038 1.5940096
0003b0 ff 32 74 3f 92 fb 33 3f 17 97 13 40 0f 3e 38 40
       0.95390314 0.7030574 2.3060968 2.8787878
0003c0 0d 4d 86 3f ba f3 e5 3f e5 4d 66 40 7b a8 59 40
       1.0492264 1.7965004 3.5985043 3.4009082
0003d0 3a 20 22 40 e8 96 02 40 09 fc 10 40 c8 15 4f 3f
       2.533217 2.0404606 2.265383 0.8089261
0003e0 f0 1a e6 40 2d 77 bb 3f 94 f2 9e 3f 0c 1b d0 3f
       7.1907883 1.4645745 1.2417779 1.6258254
0003f0 08 78 fb 3e 02 13 81 3f c0 d6 23 40 d9 5e 83 40
       0.49115014 1.0083926 2.5599823 4.105328

bn1.bias f4 [400]
000000 66 b2 e6 3e 0b ca 1d bc 7d 20 04 3f 08 0b dd 3d
       0.45057982 -0.00963069 0.51612073 0.1079312
000010 9e 93 fb 3d 6d b9 66 3e e0 80 b2 bd 9b 6e 18 be
       0.12284015 0.22531672 -0.08715987 -0.14885943
000020 4c e2 0e 3f 7f c7 e3 bd 66 4f 8e bf ee 29 d5 3e
       0.5581405 -0.11122035 -1.111798 0.41633552
000030 07 b6 50 3e 5d 7a 41 bf 21 ae 4e be 3b b7 ee 3e
       0.20381938 -0.75577337 -0.20183612 0.4662417
000040 ae 63 be 3d c2 f3 f1 3e 57 0a 51 bf 72 57 fa be
       0.09296356 0.47256285 -0.816564 -0.4889484
000050 f5 b0 1e 3e a4 bf 49 bf d9 d5 16 bf 8b 95 11 bf
       0.15497191 -0.78808045 -0.58920056 -0.5686881
000060 06 73 19 3e 27 eb 51 bf 40 41 5c 3c 7b e1 91 be
       0.14985284 -0.8199944 0.013443291 -0.2849234
000070 86 2f 0e 3f 42 60 af 3e 45 28 71 3e 7c 44 cb be
       0.55541265 0.34253126 0.23550518 -0.39700687
000080 41 e8 2e 3e b8 fe 80 be 58 1a cc 3d 70 ce 47 bf
       0.17080785 -0.25194335 0.09965962 -0.78049374
000090 f0 b8 82 be 63 77 53 3e 0b 1d c2 3e 42 31 7d bd
       -0.2553172 0.20651011 0.37912783 -0.061814554
0000a0 1c 9c 3f bf 0d 39 a0 3e f3 38 a5 be 36 bf 16 3e
       -0.7484758 0.31293526 -0.3227001 0.14721379
0000b0 fe d5 36 3e 6b 47 db 3e 4d 79 bb bd 19 a5 42 3c
       0.17855069 0.42827925 -0.09153996 0.011880183
0000c0 4e 00 28 3d cc e9 31 be c7 87 1a 3e fc ad 01 be
       0.041015916 -0.17374343 0.15090857 -0.12664026
0000d0 9f 6d 1d 3e c3 67 d6 be 6f 65 69 3e f5 43 c4 be
       0.15373848 -0.4187604 0.227926 -0.38333097
0000e0 4e e1 7a be cf 15 0c be b5 82 cd 3d d9 73 af 3e
       -0.2450001 -0.13680194 0.10034696 0.34268072
0000f0 e6 d3 3f 3d bb 43 df be 23 92 6c be da 4b f1 3e
       0.04683294 -0.43606362 -0.23102622 0.47128183
000100 32 46 f7 be 42 85 80 be 49 1c d0 3e a8 b8 e9 3e
       -0.48295742 -0.25101668 0.4064658 0.45648694
000110 91 ca 13 be f8 89 0e bf 25 cc 4e bf 51 e2 55 bf
       -0.14432742 -0.55679274 -0.8078025 -0.83548456
000120 cd f4 24 bf 73 8c 71 be 6f 1a a2 3b fe 2c cd 3e
       -0.64436036 -0.23588733 0.004946999 0.4007339
000130 f8 9b 49 3e df a6 31 be 07 06 d3 3e 07 6a 14 bf
       0.19688404 -0.17348813 0.41215536 -0.57974285
000140 d8 a4 3f bf da cf 16 bf 3e 91 b3 3e 3f 17 0d 3e
       -0.74860907 -0.58910906 0.35071748 0.13778399
000150 5f ee 3d bf ed d4 e7 be 47 52 1a 3e a1 92 b2 3c
       -0.7419185 -0.45279637 0.15070449 0.021798434
000160 57 eb a4 3e fb e8 75 3e 3f 94 84 bf 8e 1e df 3d
       0.322108 0.24014656 -1.0357741 0.108945
000170 96 68 bb be 4e 1c 38 bf 30 fc 56 bf 65 00 88 3e
       -0.3660323 -0.7191819 -0.8397856 0.265628
000180 a7 a2 31 bf a0 7a c5 bd d5 1d 4b bf 6a a4 20 3e
       -0.6938881 -0.096425295 -0.79342395 0.15687719
000190 ed 1f e0 be 0d 11 7b bf 4f 3a 7c be 4c 9d 66 3d
       -0.43774357 -0.9807289 -0.24631618 0.056302354
0001a0 97 38 97 bc d0 89 f2 3c 06 af b9 bd c6 32 f4 be
       -0.018459601 0.02960673 -0.09066586 -0.47694987
0001b0 fe a8 b4 be c7 09 61 bf bc 83 4d 3e 00 90 50 bf
       -0.3528518 -0.87905544 0.20069784 -0.81469727
0001c0 89 70 d3 3c 32 54 bd 3e 04 72 cc be 50 bb 83 3e
       0.025810497 0.36978298 -0.39930737 0.25728846
0001d0 4c 95 92 3e dd 69 98 3e 9a bf 3b bd 61 18 d6 3d
       0.2862953 0.29768267 -0.045837022 0.10453869
0001e0 52 54 dc bd b6 86 98 be 92 c1 7b 3e 7f 18 a6 be
       -0.1075827 -0.29790276 0.2458556 -0.32440564
0001f0 80 c1 2f bf 12 cc ea be a5 60 c1 3e 95 87 85 3e
       -0.6865463 -0.45858818 0.37769046 0.26080003
000200 8b aa f9 3d dc 9d 4e 3d ad 72 4b bf a9 a8 0e bf
       0.121907316 0.050443515 -0.79471856 -0.55726105
000210 df 83 54 3d 3a be 20 3e f2 d3 c4 be 56 d0 bd be
       0.051883575 0.15697566 -0.3844295 -0.3707301
000220 ef 5a c7 3e ad 2b 93 bc 6a cb e4 be 61 ef b4 3e
       0.38936564 -0.017965162 -0.44686443 0.35338882
000230 1a a0 d8 be c8 5f 35 3e 8e 24 88 be eb 34 59 3e
       -0.42309648 0.17712319 -0.2659039 0.21211593
000240 1f ee bd be 89 e7 3d 3e 0c 0e 9f bd 4c 75 77 bf
       -0.37095734 0.18545355 -0.07766351 -0.96663356
000250 93 92 86 3e a3 57 f8 be ae a2 dd 3e 1d d6 1b 3e
       0.26283702 -0.48504362 0.43288177 0.15218396
000260 c5 03 3b 3e d5 3d 1e be da fb 00 bf eb 7e e9 3d
       0.18263157 -0.15453275 -0.50384295 0.11401161
000270 d7 a1 60 bf 78 f8 43 3e 4b 29 df bd 85 a9 49 bf
       -0.8774695 0.19137752 -0.10896548 -0.7877429
000280 33 79 60 3e c4 19 28 3e 65 29 53 3e 15 4f 13 be
       0.21921234 0.16416079 0.2062126 -0.14385636
000290 fd 0b 4e bf 4f 88 34 3e 57 cc 72 3d ae d9 63 bf
       -0.8048704 0.17630123 0.059276905 -0.8900403
0002a0 3f 1b 20 bf 6f e1 22 bf b0 37 b8 bb 67 25 64 3e
       -0.62541574 -0.63625234 -0.005621873 0.22279893
0002b0 eb 5f 6c bf f5 2c df be ab 6f 3e bd 15 3b da bd
       -0.9233386 -0.43588987 -0.046493214 -0.106558
0002c0 31 fd dd 3c 6e 5a 76 bf a9 4d 5c bf f0 fd 0b bf
       0.02709827 -0.96231735 -0.86056 -0.5468435
0002d0 8b 18 13 bf 14 0b 25 3e d2 70 be 3d 73 42 82 3e
       -0.57459325 0.16117507 0.092988625 0.25441322
0002e0 c8 7f 25 bf b8 a2 1e 3e a9 f9 ac 3d e8 c0 1e 3e
       -0.64648104 0.1549176 0.084460564 0.15503275
0002f0 cb 29 93 bd af a0 e1 bd e5 b3 44 bf e6 69 f5 bd
       -0.07185706 -0.11016976 -0.76837 -0.11983089
000300 fe 10 c0 bc 28 8c 41 be bd 6a d8 3e 59 c7 18 bf
       -0.023445603 -0.18901122 0.42268935 -0.5967918
000310 cf e3 da 3e a8 ce f3 be 73 98 a7 be 7b 35 77 3e
       0.4275193 -0.47618604 -0.32733497 0.24141495
000320 e5 c5 53 bf 49 22 8e be a1 69 b3 3e bf 0f dc 3d
       -0.8272384 -0.27760532 0.35041526 0.10745191
000330 4d 14 f1 be 06 7b ad 3e 5b 98 76 be 77 e0 24 bf
       -0.470858 0.33882922 -0.24081556 -0.64405006
000340 fd 2a 19 be 99 cc cf be 1c 18 8b 3d ec b3 3f bf
       -0.14957805 -0.40585783 0.06791708 -0.74883914
000350 d4 f3 ee be 79 f7 18 3e c7 6b 4c 3d 12 be 5d bf
       -0.466704 0.14938153 0.049907472 -0.8661815
000360 33 55 43 3d ea fb 9d 3e dd 38 2e bf 57 96 a8 be
       0.047688674 0.30856258 -0.68055516 -0.329272
000370 99 03 cf 3e f6 7b bf 3d 7c 08 12 3f 22 68 66 be
       0.40432432 0.093498155 0.57044196 -0.22500661
000380 92 81 4b be bf e0 79 bf aa 6c 93 bb 99 4d a7 3e
       -0.19873646 -0.9760856 -0.0044990378 0.3267639
000390 ae 17 1d bf 91 15 aa be 71 dc 72 bf f0 de 9a 3e
       -0.6136426 -0.3321958 -0.94867617 0.30248213
0003a0 a4 89 8b be a7 5a 34 3d 0c 0b 49 be ed c9 cd be
       -0.2725345 0.044031765 -0.1963312 -0.4019312
0003b0 09 c8 c4 3d 8e d6 19 bf a1 fe b9 be b5 b7 0c 3e
       0.09608466 -0.6009301 -0.3632708 0.13741954
0003c0 76 1c e5 3d 82 62 c6 3e 6b 8c ce 3e 8d 10 50 3e
       0.11187069 0.3874703 0.40341505 0.20318814
0003d0 3f 07 82 3e ed 42 31 3c 14 f4 b7 bb 7b 99 01 bf
       0.25396153 0.010819179 -0.005613813 -0.5062482
0003e0 e2 0e 08 3f 08 7e a4 be f9 c8 7a bf 67 9e ef 3e
       0.5314771 -0.32127404 -0.9796291 0.4680054
0003f0 5e 44 4b bf 21 bd 6b bf 2a 37 0b bf 48 bc 99 3d
       -0.79401195 -0.9208546 -0.5438105 0.07506615

bn2.weight f4 [300]
000000 51 69 d8 3f b5 e6 23 3f 23 9f d4 3f 01 b4 60 3e
       1.690714 0.64023906 1.6611065 0.21943666
000010 c3 0b d7 3f 09 a7 58 3f 6c 33 bd 3f 79 4f 29 3e
       1.6800464 0.84629875 1.4781318 0.16534223
000020 2c f5 06 3f 18 b4 d1 3e 8e a4 86 3f b7 6d 2a 3f
       0.5271785 0.40957713 1.0518968 0.6657366
000030 62 67 5f 3f 60 c0 bb 3f 53 86 23 3f fc 8b e3 3f
       0.87267125 1.4668083 0.6387684 1.7777095
000040 b6 c4 a4 3f a5 a2 ac 3e 2b 2a c5 3f be 76 04 3f
       1.2872531 0.33717838 1.5403494 0.51743686
000050 d0 b2 0b 40 32 28 43 3f 88 37 65 3f 3d 34 c6 3e
       2.1827888 0.7623321 0.8953786 0.3871173
000060 4c 22 5f 3f e7 f4 71 3f aa 17 a5 3f 75 49 fa 3e
       0.8716171 0.94514316 1.2897847 0.48884168
000070 1f 00 03 3f a8 3e 9f 40 00 4c 2e 3f 73 ce eb 3d
       0.5117206 4.9763985 0.68084717 0.115139864
000080 94 8b 10 3f 3e d3 c8 3f 72 c1 d4 3f e2 10 f8 3f
       0.5646298 1.5689466 1.6621535 1.9380152
000090 c3 7c a9 3f 96 ea d4 3e 66 8c f8 3e 40 ce 72 3f
       1.3241199 0.41585225 0.48544616 0.9484596
0000a0 dc 1d 69 40 1b aa be 3f 26 34 33 40 d4 81 85 3f
       3.6424475 1.4895662 2.800058 1.0430245
0000b0 03 22 ff 3f eb a4 9f 3f a7 01 82 40 ed 17 f5 3f
       1.9932255 1.2472204 4.0627017 1.9147927
0000c0 85 b2 59 3f da 25 ae 3f 95 5c 35 3e 71 87 4b 3f
       0.85038024 1.3605301 0.17711098 0.7950354
0000d0 28 87 41 3f 76 03 d0 3f 92 e2 a0 3f ed 07 8b 3e
       0.7559686 1.6251056 1.2569144 0.27154484
0000e0 0d 8a a9 3e ed e5 12 3f f8 0f 70 3f cd 03 ab 3f
       0.33113137 0.5738209 0.93774366 1.3360535
0000f0 c7 dc 28 40 e5 7c 30 3f eb 9c 80 3e 68 1a bf 3e
       2.6384752 0.68940574 0.2511972 0.37324834
000100 10 2e fb 3f d5 34 68 3f 21 a6 b4 3f cb f2 82 3e
       1.9623432 0.90705615 1.4113199 0.2557586
000110 93 0b 94 40 10 35 9a 3f 20 a8 8e 3e a4 65 93 3f
       4.626413 1.2047443 0.27862644 1.1515393
000120 64 7c 7a 3f 24 c0 a8 3f d4 7a ff 3e 63 97 ec 3f
       0.97846055 1.3183637 0.49898398 1.84837
000130 85 a0 df 3f 1c 88 91 3f 9f fe a2 3f b7 71 e6 3e
       1.7470862 1.1369662 1.2733954 0.45008633
000140 cf b7 93 40 54 c8 48 40 7f 18 c5 3f e2 52 68 40
       4.6161876 3.137227 1.5398101 3.6300588
000150 9b 21 a4 3f 82 6f 0d 40 d8 69 bb 3f 85 95 02 3f
       1.2822756 2.209931 1.4641676 0.510094
000160 0f f4 ed 3f 6c a7 35 40 e8 07 07 3f 8b 7e 86 3f
       1.8590106 2.8383436 0.5274644 1.0507368
000170 e4 03 a0 3e 4c 1d 0a 40 96 03 ce 3f 73 68 a0 3e
       0.31252968 2.1580381 1.6094844 0.31329688
000180 ce 39 41 3f 65 f4 c2 3f 5b 2b 9b 3e 22 bd fa 3f
       0.7547883 1.5230833 0.30306515 1.9588969
000190 7d 8c ff 3f a8 fe 61 3e 14 99 09 3e aa dc 29 3f
       1.9964749 0.220698 0.13437301 0.6635233
0001a0 4f 2a 1a 40 27 44 a1 3f 74 e4 af 3f da 88 fd 3e
       2.4088323 1.2598923 1.3741593 0.49518472
0001b0 dc 0a 65 3e 31 ea 9b 3e c0 3b 7b 3e 78 a9 da 3f
       0.22367424 0.3045211 0.24534512 1.7082968
0001c0 af 3b 15 40 0d 20 37 3f 28 c2 83 3f e3 87 ab 3f
       2.3317678 0.7153328 1.0293627 1.3400844
0001d0 e7 91 98 3f ca 0d a7 40 88 a9 ce 3f ab 71 5b 3f
       1.1919526 5.220433 1.6145487 0.8572032
0001e0 54 fa ea 3f 18 76 55 40 6a ab a7 3f e1 a1 a9 3e
       1.8357644 3.3353329 1.3099186 0.33131316
0001f0 c0 c2 c2 3f 4f 2d 6a 40 9c fc 51 3f df 3e f7 3f
       1.5215683 3.6590154 0.82026076 1.9316062
000200 f0 9a 05 40 63 ad 9a 3f 26 ca 90 3f fb b4 c3 3f
       2.0875816 1.2084163 1.1311691 1.5289606
000210 ee c5 0d 40 0c 56 a1 3f 73 e3 c6 3f d5 09 fe 3f
       2.2152057 1.2604384 1.5538162 1.984675
000220 9e f9 b6 3f cd 77 52 40 91 58 1a 3f ec ee 4c 3f
       1.4294927 3.288562 0.6029139 0.80052066
000230 82 ce 7f 3f ba 97 99 3e e1 28 53 3e 38 f9 cb 3f
       0.9992448 0.2999857 0.20621063 1.593543
000240 8d 70 d9 3f 3b d4 c4 3f a7 a3 86 3f 73 67 10 40
       1.6987473 1.5377268 1.0518693 2.256314
000250 ba a1 80 3f 78 d2 91 3f dd 19 57 3e 7e 87 09 3f
       1.0049355 1.1392355 0.2100596 0.5372237
000260 39 21 c8 3f 42 89 8b 3f 94 69 ef 3f 54 4b a8 3f
       1.5635139 1.0901263 1.8704095 1.3147988
000270 07 dd 59 3f 36 02 fb 3e f9 e8 22 3f c4 b1 85 3f
       0.85102886 0.49025124 0.6363674 1.0444875
000280 d4 f3 20 3f 97 cb b8 3e 06 da 68 3f b0 c2 ab 3f
       0.6287205 0.36092827 0.9095768 1.3418789
000290 b5 49 2f 3f 1b 9d 81 3e d9 17 05 40 0b 46 51 3e
       0.68471843 0.25315174 2.0795805 0.20436876
0002a0 36 44 a4 3f 97 2a a2 3f 18 c5 82 3f 0d 09 a9 3f
       1.2833316 1.2669247 1.0216398 1.3205887
0002b0 28 92 85 3f 04 4d a3 3f d5 3b 11 40 bf 48 4a 3f
       1.0435228 1.2757878 2.2692769 0.7901725
0002c0 04 a2 85 3f 72 3c d9 3e 33 64 8f 3f 7e bf b0 3f
       1.0440068 0.4242893 1.1202453 1.3808439
0002d0 93 ce 89 3f ab 45 ce 3f dc 17 a3 3e e5 44 53 3f
       1.0766166 1.6115011 0.3185414 0.82527
0002e0 fb 50 7a 3f 87 a9 d8 3e 66 f9 83 3f 8e c6 5d 40
       0.97779816 0.4231684 1.0310485 3.4652438
0002f0 c2 ba d8 3e ce 04 55 40 ce b5 9a 3f 8e 40 09 40
       0.42329985 3.3284183 1.2086732 2.144565
000300 0e fa e2 3f e1 c3 0d 40 c1 2c 26 3e 37 b5 c4 3f
       1.7732561 2.2150805 0.1622801 1.5367802
000310 c9 5c 4c 3f 42 a2 52 3f 38 da 73 3f 19 c3 58 3f
       0.7982908 0.82278836 0.9525485 0.84672695
000320 74 24 14 40 6c b3 e5 3f d2 a5 a0 3f 4b 9d 82 3f
       2.314725 1.794538 1.2550604 1.0204252
000330 da 83 fd 3f 24 ff 97 3f d2 5a 5b 3f 67 ac 20 3f
       1.9805863 1.1874738 0.85685456 0.62763065
000340 ff 36 0d 40 77 dc bd 3f 7f f8 a0 3f a1 e8 fa 3f
       2.2064817 1.4832906 1.2575835 1.9602243
000350 45 25 14 3f 24 3f a3 3f db 99 0d 3f 8d 94 14 3f
       0.5786937 1.2753644 0.5531289 0.5803917
000360 38 96 96 3f a1 08 2f 3f 46 41 2c 40 1c 6d 60 3f
       1.1764593 0.6837254 2.691484 0.8766649
000370 8b 1e 55 3f 78 75 01 3f 24 18 6f 3f 31 ce 90 3e
       0.8324973 0.5056987 0.9339621 0.28282312
000380 92 ec 8a 3f 14 59 76 3f 44 95 b5 3e 51 19 80 40
       1.0853446 0.9622967 0.35465443 4.0030904
000390 1e bd e7 3f af 54 e2 3f cf e9 83 3e 88 a3 54 3f
       1.8104589 1.7682093 0.2576432 0.8306203
0003a0 dc 7d bf 3e ff 7a fa 3f 19 e7 c2 3f 26 14 a3 3f
       0.3740071 1.9568785 1.5226775 1.2740524
0003b0 3c 58 fb 3f 7b d1 ca 3e dc 71 bd 3f dc e7 fa 3e
       1.9636302 0.39612946 1.4800372 0.4900502
0003c0 48 bf 88 3f d2 9d 8e 3f b4 dd 1d 3f 9e 9c 5c 3f
       1.0683374 1.1141913 0.6166642 0.8617648
0003d0 5b 2a fb 3e 42 85 53 3f a2 53 4a 3f ae 41 8a 3e
       0.49055752 0.8262521 0.79033864 0.27003235
0003e0 34 9c c8 3f c4 55 00 40 cd 6d b0 3e 7b 89 65 3f
       1.567267 2.0052347 0.3445877 0.89662904
0003f0 35 87 90 3f cd ba d6 3f 63 fd 24 3f 73 b9 0b 40
       1.1291262 1.6775757 0.6444914 2.183194
