trained_data/ddpg/new_wall_G_550_350_best/critic_ddpg.pth (torch, 506930 bytes, 11 tensors)

fc1.weight f4 [400, 6]
000000 bd 77 59 3e ac 00 4a 3e a5 4a b4 be e6 d8 e2 3e
       0.21237083 0.19726819 -0.352132 0.44306105
000010 31 46 a3 be 7c 83 cd 3d 56 2e 4d 3f fc de 5f bf
       -0.3188949 0.10034844 0.8014883 -0.8744962
000020 aa 1c 1e c0 55 26 98 3d a8 7b 1c be cf be c0 3f
       -2.4704995 0.07429186 -0.15281546 1.505823
000030 bd 95 59 3e 41 ef 49 3e 6b c9 b7 be 95 8d e2 3e
       0.21248527 0.19720174 -0.35895857 0.44248644
000040 6d 01 a3 be 1b d4 d8 3d d3 ca 59 3e 13 70 49 3e
       -0.31837025 0.10587331 0.21268778 0.19671659
000050 0f e1 b0 be 55 5a e4 3e 73 66 aa be 74 65 d7 3d
       -0.34546706 0.44600168 -0.33281288 0.105173975
000060 a1 00 5b 3e b3 69 48 3e 27 31 bc be 01 08 de 3e
       0.21386959 0.19571571 -0.3675625 0.43365481
000070 ed 86 ab be 35 87 d1 3d f2 35 5b 3e 9e ef 47 3e
       -0.33501378 0.10230867 0.21407297 0.19525
000080 ba 6c bb be 1c 08 de 3e 6c 92 ad be bd b4 cb 3d
       -0.3660639 0.43365562 -0.33900774 0.099465825
000090 09 e2 5a 3e 85 83 48 3e 3d 7e bc be 55 b2 de 3e
       0.21375288 0.1958142 -0.36815062 0.43495432
0000a0 71 88 ac be 3a a6 cc 3d 19 52 5b 3e ba 0e 48 3e
       -0.33697847 0.09992643 0.21418037 0.19536868
0000b0 a2 47 be be f8 ee db 3e e3 4a b1 be 28 69 c7 3d
       -0.37164026 0.42955756 -0.34627447 0.09736854
0000c0 12 83 5a 3e 61 c0 48 3e c3 b5 b1 be ba 02 e4 3e
       0.21339062 0.19604637 -0.34708986 0.4453333
0000d0 7c 5d a1 be cc 5f dd 3d 14 0d 03 3f 66 70 a1 be
       -0.31516635 0.108092874 0.5119183 -0.31531066
0000e0 50 34 52 c0 f3 8f 81 40 dc c3 8f c0 74 07 21 40
       -3.284443 4.048822 -4.4926586 2.51608
0000f0 fb cb 59 3e 76 58 48 3e dc a7 b9 be 7b 1b e0 3e
       0.21269219 0.19564995 -0.3626088 0.43770966
000100 3c 84 a9 be c2 6b c9 3d 8b a8 5a 3e 02 b0 48 3e
       -0.331087 0.09835006 0.21353357 0.19598392
000110 97 85 b7 be 39 40 e1 3e 78 a6 a6 be ce 19 cf 3d
       -0.35844108 0.4399431 -0.3254888 0.10112344
000120 b6 52 55 3e 0a ae 44 3e ab 45 a7 be 2a b1 e6 3e
       0.20832333 0.19207016 -0.3267034 0.4505704
000130 19 af a0 be d0 84 d4 3d 79 fe 59 3e f5 6e 49 3e
       -0.3138359 0.103768945 0.2128848 0.19671233
000140 b0 ab b8 be b8 3c e2 3e 46 c5 a5 be ea 2d d1 3d
       -0.36068487 0.4418695 -0.3237707 0.102138355
000150 24 65 5c 3e 87 f5 46 3e a2 93 c6 be 79 1c d7 3e
       0.21522957 0.19429599 -0.3878451 0.4201391
000160 54 7b bc be 5a 3f ba 3d c2 94 5a 3e 66 bf 48 3e
       -0.36812842 0.090941146 0.21345809 0.19604263
000170 85 c8 b6 be e8 62 e2 3e d5 da a4 be 04 8f df 3d
       -0.3569986 0.44216084 -0.32198206 0.1091595
000180 74 8c 59 3e 1e ca 49 3e 3e 9b b0 be 28 52 e2 3e
       0.21244985 0.19706008 -0.3449344 0.44203305
000190 a6 72 aa be b7 52 c8 3d f7 84 59 3e 26 b2 47 3e
       -0.33290595 0.097814016 0.21242128 0.19501552
0001a0 e9 ee ba be e0 80 dd 3e a6 5c aa be 95 0b cb 3d
       -0.365104 0.43262386 -0.3327381 0.099143185
0001b0 10 b5 5b 3e 40 69 47 3e 80 56 bd be 0f c8 da 3e
       0.21455789 0.19473743 -0.36980057 0.42730758
0001c0 d8 e2 b5 be a6 fd ce 3d e0 b5 5a 3e c5 ae 48 3e
       -0.3552463 0.10106973 0.21358442 0.1959792
0001d0 e5 7c b9 be f1 06 df 3e e4 2c a9 be c9 42 d3 3d
       -0.362281 0.43559983 -0.3304206 0.10315473
0001e0 2c f6 5b 3e 9b 5b 47 3e c8 9e c2 be 04 3b da 3e
       0.21480626 0.19468538 -0.38011765 0.4262315
0001f0 e4 a0 b5 be 8e 03 c9 3d 74 4d 5b 3e ff 1c 48 3e
       -0.35474312 0.09815131 0.21416265 0.19542311
000200 cd 89 c0 be 01 21 dd 3e 6d 35 ad be 19 02 ca 3d
       -0.37605134 0.43189242 -0.33829823 0.09863681
000210 35 80 5a 3e f6 f7 48 3e a7 17 bc be fc 63 de 3e
       0.2133797 0.1962584 -0.36736795 0.43435657
000220 d6 1b ab be 1a 8d c6 3d 93 05 5a 3e 66 67 49 3e
       -0.33419675 0.09694882 0.21291189 0.1966835
000230 37 e3 b4 be 1b 34 e2 3e 2c 30 a4 be 1f 5d d3 3d
       -0.353296 0.44180378 -0.32068002 0.10320496
000240 ee e0 58 3e 83 b0 4a 3e 13 28 b7 be b9 d1 e2 3e
       0.21179554 0.19793896 -0.35772762 0.4430063
000250 5e 5f a4 be 91 71 d3 3d a8 5f 5a 3e 50 9d 47 3e
       -0.3210401 0.103243954 0.21325552 0.19493604
000260 ef 26 b7 be 88 19 e2 3e aa f7 ab be 9e f9 d3 3d
       -0.3577189 0.44160104 -0.3358739 0.10350345
000270 3f dd 59 3e be 9e 49 3e be 21 b4 be 0e c6 e1 3e
       0.21275805 0.19689462 -0.35181993 0.44096416
000280 37 86 a2 be 16 18 da 3d 30 b0 5b 3e c3 88 47 3e
       -0.31743023 0.10649125 0.21453929 0.19485764
000290 97 d2 b2 be 71 e5 e0 3e f2 6d 9f be 7b 4f ea 3d
       -0.34926292 0.4392505 -0.3113857 0.11440941
0002a0 bd 8f 24 3f b9 a6 f5 be f9 80 cf c0 dc 2f ad c0
       0.6428183 -0.47978762 -6.4844937 -5.412092
0002b0 3f bf da c0 38 7b da bd 10 78 5a 3e 53 04 49 3e
       -6.8358455 -0.10668033 0.21334863 0.19630556
0002c0 8a 15 bd be 05 91 df 3e 05 82 a7 be 95 6e ca 3d
       -0.36930496 0.4366533 -0.32716385 0.09884373
0002d0 61 64 5b 3e 09 09 48 3e 3e 89 c0 be 72 39 dc 3e
       0.2142501 0.19534697 -0.37604707 0.43012577
0002e0 db ab ae be ac 9b c6 3d 9b df 58 3e 84 b4 47 3e
       -0.3411549 0.09697661 0.21179049 0.19502455
0002f0 09 ed b2 be 47 9a e2 3e e7 d2 a4 be 9d 53 ce 3d
       -0.34946468 0.4425833 -0.32192156 0.10074542
000300 07 86 5b 3e d5 c8 47 3e 90 5a b9 be b3 b1 da 3e
       0.21437846 0.19510205 -0.36201906 0.427137
000310 b4 79 b3 be 00 14 be 3d f3 66 58 3e df f7 42 3e
       -0.3505379 0.092811584 0.21133022 0.19039868
000320 77 f2 bd be cb ac d9 3e 30 5d b1 be c1 7b b3 3d
       -0.37099048 0.42514643 -0.3464141 0.087638386
000330 1b b8 59 3e c1 8b 49 3e 1f 7c b0 be 45 16 e1 3e
       0.21261637 0.19682218 -0.34469697 0.43962303
000340 12 88 b1 be d4 a0 c2 3d 26 88 5a 3e 41 ca 48 3e
       -0.34674126 0.09503332 0.21340999 0.19608404
000350 66 82 b4 be 44 d9 df 3e 94 36 af be 6e b6 e2 3d
       -0.35255736 0.43720448 -0.34221327 0.11069952
000360 87 56 5a 3e e1 0f 49 3e 0c 43 b5 be 80 be df 3e
       0.2132207 0.19634964 -0.35402715 0.43700027
000370 29 62 aa be 3d 2b d3 3d a5 db 5a 3e 2b 7b 48 3e
       -0.33278015 0.103109814 0.2137285 0.19578235
000380 15 d5 b6 be a1 d0 de 3e 63 cc aa be 9c 9a cc 3d
       -0.35709444 0.43518546 -0.3335906 0.09990427
000390 dd a1 5a 3e 9c c7 48 3e 5f 3d b8 be 8d 8e dd 3e
       0.21350808 0.19607395 -0.35984322 0.4327282
0003a0 c9 40 b0 be 67 55 c4 3d 45 6c 5b 3e 83 d4 47 3e
       -0.34424427 0.09586602 0.2142802 0.1951466
0003b0 80 89 c0 be 8a 09 db 3e 68 37 b2 be c0 84 c1 3d
       -0.37604904 0.42780715 -0.34807897 0.09449148
0003c0 6d 7a bb bd 92 31 d3 3e b8 47 f4 40 b5 27 e8 3e
       -0.0915421 0.41248757 7.6337547 0.45342794
0003d0 ed 61 02 bf cf fb e0 3e ea d6 59 3e 6d b7 49 3e
       -0.5093067 0.43942115 0.2127339 0.19698878
0003e0 c6 5d bb be 1f b2 e0 3e 02 ab a5 be 42 4a cd 3d
       -0.3659498 0.43885896 -0.3235703 0.10023929
0003f0 0f 4a 5b 3e 24 25 48 3e 51 8a c4 be 37 25 da 3e
       0.2141497 0.19545418 -0.38386777 0.42606518

fc1.bias f4 [400]
000000 b8 bf 65 bf 0c 13 f3 40 24 33 67 bf a2 ba 64 bf
       -0.89745665 7.596075 -0.9031241 -0.8934728
000010 0e 7e 67 bf 6c e3 67 bf fa 59 67 bf 21 a1 67 bf
       -0.9042672 -0.90581393 -0.9037167 -0.9048024
000020 22 3f 67 bf c6 39 37 40 2f 49 67 bf 2c 31 67 bf
       -0.9033071 2.8629012 -0.90346044 -0.90309405
000030 64 f8 66 bf 6a 91 66 bf 75 3e 67 bf 12 5f 67 bf
       -0.90222764 -0.90065634 -0.90329677 -0.9037944
000040 86 b5 64 bf 7e c4 67 bf 7b 48 67 bf 83 0d 67 bf
       -0.8933948 -0.905342 -0.9034497 -0.9025499
000050 88 f6 66 bf bc 6b 67 bf 7d 50 66 bf a3 4d 67 bf
       -0.90219927 -0.90398765 -0.89966565 -0.9035284
000060 43 fb 64 bf 69 34 67 bf d6 5b 67 bf f4 3e 67 bf
       -0.89445895 -0.90314347 -0.90374506 -0.90330434
000070 2e 47 00 40 44 2c 67 bf 56 9e 67 bf 1a 6b 67 bf
       2.0043445 -0.9030192 -0.90475976 -0.903978
000080 3d 67 67 bf 17 f7 68 bf 66 92 62 bf b5 75 67 bf
       -0.90391904 -0.9100203 -0.88504636 -0.9041398
000090 28 8d 66 bf 64 74 67 bf b2 03 67 bf 9f 5b 67 bf
       -0.9005914 -0.90411973 -0.90240014 -0.9037418
0000a0 ad 79 01 41 06 65 67 bf e1 02 67 bf b4 52 66 bf
       8.092206 -0.90388525 -0.9023877 -0.89969945
0000b0 7c 97 67 bf 6f c1 66 bf ab b8 67 bf d8 a7 66 bf
       -0.9046552 -0.90138906 -0.90516156 -0.9009986
0000c0 47 14 67 bf 49 a7 67 bf 50 84 f0 3f 72 f6 64 bf
       -0.90265316 -0.9048963 1.8790379 -0.89438546
0000d0 18 6c 67 bf 46 3c 67 bf 20 dd 67 bf dc e6 66 bf
       -0.9039931 -0.90326345 -0.90571785 -0.90196013
0000e0 e8 2d 67 bf 27 42 64 bf b1 c1 67 bf 9c ee 66 bf
       -0.9030442 -0.8916344 -0.90529925 -0.9020784
0000f0 d6 15 b8 3f 8b 13 67 bf 16 09 67 bf 0b d5 65 bf
       1.4381664 -0.90264195 -0.9024824 -0.897782
000100 81 5f 67 bf d4 e0 66 bf 8d e1 66 bf 22 6c 68 bf
       -0.903801 -0.9018681 -0.90187913 -0.9079
000110 ba 77 67 bf 1c d8 68 bf 47 4e 66 bf 61 ae 65 bf
       -0.90417063 -0.90954757 -0.8996319 -0.89719206
000120 14 ff 66 bf ea 9e 64 bf 3e 66 67 bf 59 84 66 bf
       -0.9023297 -0.89304984 -0.90390384 -0.90045696
000130 50 79 67 bf 2c d6 66 bf 29 32 67 bf 4e 42 67 bf
       -0.90419483 -0.9017055 -0.90310913 -0.9033555
000140 47 d5 67 bf 27 a0 67 bf ae d3 67 bf cd ff 65 bf
       -0.9055981 -0.9047875 -0.9055737 -0.89843446
000150 4b 43 67 bf d5 c0 67 bf 6b 89 67 bf 3f 46 67 bf
       -0.90337056 -0.90528613 -0.9044406 -0.9034156
000160 96 1f 67 bf f1 79 68 bf da 22 67 bf d9 79 66 bf
       -0.9028257 -0.9081107 -0.90287554 -0.90029675
000170 20 b8 66 bf 1b ab 67 bf b5 0e 67 bf a3 9c 66 bf
       -0.901247 -0.9049546 -0.90256816 -0.9008276
000180 e3 ca 67 bf 7d 03 68 bf 10 b9 67 bf 51 20 68 bf
       -0.90543956 -0.9063032 -0.9051676 -0.9067431
000190 cc 9b 66 bf 0c 6f 65 bf 6a a0 67 bf a1 af 67 bf
       -0.9008148 -0.8962257 -0.9047915 -0.90502363
0001a0 ee 9b 67 bf e5 bd 67 bf 11 86 66 bf 9d a9 66 bf
       -0.90472305 -0.9052413 -0.9004832 -0.9010256
0001b0 34 cf 5f bf ab 8b 67 bf 1f e3 67 bf 00 c1 66 bf
       -0.8742554 -0.9044749 -0.90580934 -0.90138245
0001c0 75 81 67 bf 80 a2 67 bf 39 32 63 bf 22 aa 67 bf
       -0.9043191 -0.9048233 -0.8874851 -0.9049398
0001d0 5a 0b 67 bf b2 4d 67 bf e1 ef 65 bf 52 ae 67 bf
       -0.90251696 -0.9035293 -0.8981915 -0.90500367
0001e0 25 0e 67 bf 27 1d 67 bf 7f 92 67 bf 52 63 67 bf
       -0.9025596 -0.9027886 -0.9045791 -0.90385926
0001f0 ab 3c 67 bf d4 d5 66 bf f7 67 66 bf d2 ef 66 bf
       -0.90326947 -0.90170026 -0.9000239 -0.90209687
000200 30 17 68 bf d4 77 67 bf 6a f0 66 bf e0 72 67 bf
       -0.9066038 -0.9041722 -0.9021059 -0.9040966
000210 10 6b a3 40 19 ec 66 bf c5 d5 67 bf 74 22 5b bf
       5.106819 -0.90204006 -0.9056056 -0.85599446
000220 0c 70 67 bf ff 64 67 bf cf 58 65 bf 71 bc 66 bf
       -0.90405345 -0.9038848 -0.89588636 -0.9013129
000230 1d 3d 67 bf 11 ef 67 bf 65 60 66 bf a2 7f 66 bf
       -0.90327626 -0.9059916 -0.89990836 -0.900385
000240 fd 9b 67 bf 8a 7a 67 bf bf 94 67 bf dc a1 67 bf
       -0.90472394 -0.90421355 -0.90461344 -0.9048135
000250 d5 a3 67 bf 48 0c 68 bf 8b 62 67 bf 96 84 67 bf
       -0.9048436 -0.9064374 -0.9038474 -0.90436685
000260 67 6b 67 bf c2 c4 62 bf 3a 50 67 bf 72 17 66 bf
       -0.9039826 -0.8858148 -0.9035679 -0.89879525
000270 f5 3b 67 bf 4d 18 67 bf c4 c9 67 bf dd fe 67 bf
       -0.9032586 -0.90271455 -0.90542245 -0.90623266
000280 eb 75 67 bf 4a b9 67 bf 30 da 67 bf 89 0b 62 bf
       -0.90414304 -0.90517104 -0.905673 -0.8829885
000290 d1 bd 66 bf fe fc 66 bf 0f e4 64 bf ee 6a 67 bf
       -0.90133387 -0.90229785 -0.8941049 -0.90397537
0002a0 d5 a6 25 bf ca 53 67 bf b7 05 68 bf f8 05 67 bf
       -0.6470769 -0.90362227 -0.9063372 -0.9024348
0002b0 31 15 66 bf bf 1d 67 bf bd 4a 67 bf 0d 70 67 bf
       -0.89876086 -0.90279764 -0.90348417 -0.9040535
0002c0 7d ea 66 bf 76 b3 67 bf 64 10 67 bf 5c a1 67 bf
       -0.9020155 -0.9050821 -0.90259385 -0.9048059
0002d0 18 38 67 bf 79 e0 66 bf e8 e2 67 bf 7c a2 67 bf
       -0.9031997 -0.9018627 -0.90580606 -0.90482306
0002e0 30 80 68 bf 45 07 68 bf c9 69 67 bf 4b 1a 67 bf
       -0.908206 -0.9063609 -0.9039579 -0.90274495
0002f0 f9 34 67 bf ad 4a 65 bf ff db 66 bf 00 9c 67 bf
       -0.90315205 -0.8956707 -0.9017944 -0.9047241
000300 9e 47 67 bf 03 e5 66 bf eb 7e 67 bf 64 c2 67 bf
       -0.90343654 -0.90193194 -0.90428036 -0.9053099
000310 8d c6 66 bf d6 c6 64 bf ca 4c 67 bf 3e bf 67 bf
       -0.90146714 -0.893659 -0.90351546 -0.9052619
000320 70 b2 66 bf 5a 41 67 bf 2f 80 67 bf a9 2b 67 bf
       -0.90116024 -0.90334094 -0.9042997 -0.90300995
000330 7c 7c 34 c0 ce b7 67 bf ee 04 68 bf d5 e5 65 bf
       -2.820098 -0.9051484 -0.9063252 -0.8980382
000340 65 06 67 bf 21 e0 66 bf 35 38 b3 bf 3f 86 67 bf
       -0.9024413 -0.90185744 -1.4001528 -0.9043922
000350 f4 89 68 bf 5b 9a 5f 40 9b 4b 67 bf fe 75 67 bf
       -0.908355 3.493796 -0.9034974 -0.90414417
000360 f7 ba 66 bf bf c2 64 bf 27 74 67 bf a2 8f 67 bf
       -0.90129036 -0.8935966 -0.9041161 -0.9045354
000370 e6 b7 67 bf 30 b1 66 bf 04 08 67 bf 0e 76 67 bf
       -0.9051498 -0.90114117 -0.90246606 -0.9041451
000380 9c 74 f1 3e 24 ca 67 bf 5c a1 66 bf 7a 2b 64 bf
       0.47159278 -0.9054282 -0.90089965 -0.8912884
000390 24 7c 67 bf f2 d4 66 bf 76 cf 65 bf 85 cc 66 bf
       -0.904238 -0.9016868 -0.89769685 -0.9015582
0003a0 a6 a8 66 bf 5d b6 66 bf c9 92 67 bf a6 21 67 bf
       -0.9010109 -0.90122014 -0.9045835 -0.9028572
0003b0 38 6d 64 bf a0 10 67 bf 70 47 64 bf 6f 9d 9e c1
       -0.89229155 -0.9025974 -0.89171505 -19.826872
0003c0 75 7c 66 bf b7 9e 67 bf 82 8a 68 bf b8 2f 66 bf
       -0.90033656 -0.90476555 -0.90836346 -0.89916563
0003d0 88 1e 67 bf b6 65 67 bf bb d0 1a 3f 15 9b 80 3f
       -0.9028096 -0.90389574 0.6047475 1.0047327
0003e0 df df 67 bf a5 d4 65 bf 77 74 67 bf cc 79 67 bf
       -0.90575975 -0.89777595 -0.90412086 -0.9042022
0003f0 6e a0 67 bf 34 a6 67 bf 26 d7 66 bf df 75 67 bf
       -0.9047917 -0.9048798 -0.9017204 -0.9041423

fc2.weight f4 [300, 400]
000000 60 01 00 80 1b 46 da bd 61 01 00 00 5f 01 00 00
       -4.93e-43 -0.10657903 4.95e-43 4.92e-43
000010 51 63 b0 30 e1 6a ef 38 62 01 00 80 ce cc 82 3b
       1.2833913e-09 0.00011416316 -4.96e-43 0.0039917
000020 62 01 00 00 04 45 56 3d 94 78 0c bd 60 01 00 80
       4.96e-43 0.052311912 -0.03429468 -4.93e-43
000030 95 ef 8b bc 15 07 fa b0 88 32 50 1e 61 01 00 00
       -0.017082015 -1.8191907e-09 1.1021878e-20 4.95e-43
000040 90 47 9c 1c 3d 9b 2e 3d 50 9c c0 b9 33 1c 4e b8
       1.0341713e-21 0.042628516 -0.00036737556 -4.914049e-05
000050 73 9a b9 a3 60 01 00 00 28 17 da ad a2 01 00 00
       -2.0123152e-17 4.93e-43 -2.4794014e-11 5.86e-43
000060 61 01 00 00 10 d4 a5 bb 61 01 00 00 60 01 00 00
       4.95e-43 -0.00506068 4.95e-43 4.93e-43
000070 42 76 1b be ba 02 00 80 62 01 00 00 8a f0 5d 3d
       -0.1518183 -9.78e-43 4.96e-43 0.054184474
000080 cd 80 d9 23 0e 0c 98 3d b1 01 00 80 68 01 00 80
       2.3581736e-17 0.07424174 -6.07e-43 -5.04e-43
000090 61 01 00 80 db 0c c0 17 5f 01 00 80 f8 42 ad 3a
       -4.95e-43 1.2410954e-24 -4.92e-43 0.0013218811
0000a0 6a a4 c8 bb 61 01 00 00 4c a4 b5 b8 5f 01 00 00
       -0.0061231153 4.95e-43 -8.661355e-05 4.92e-43
0000b0 5f fb 21 3a 6c a4 58 ba 76 01 00 00 60 01 00 80
       0.000617912 -0.0008264247 5.24e-43 -4.93e-43
0000c0 4d 9f 55 3b 60 01 00 00 af 44 88 3e 60 01 00 80
       0.0032596171 4.93e-43 0.266149 -4.93e-43
0000d0 5f 01 00 00 60 01 00 00 61 01 00 80 87 8e 0d 04
       4.92e-43 4.93e-43 -4.95e-43 1.6639916e-36
0000e0 60 01 00 00 5f 01 00 00 5f 01 00 00 af e7 94 80
       4.93e-43 4.92e-43 4.92e-43 -1.3674766e-38
0000f0 a3 af 8d be 5f 01 00 00 60 01 00 80 60 01 00 80
       -0.27673063 4.92e-43 -4.93e-43 -4.93e-43
000100 9d 7f 79 bb 63 01 00 80 5f 01 00 00 08 c8 4c b8
       -0.0038070448 -4.97e-43 4.92e-43 -4.8823684e-05
000110 60 01 00 00 64 01 00 80 60 01 00 00 2a 9a 1b 81
       4.93e-43 -4.99e-43 4.93e-43 -2.857961e-38
000120 04 b8 86 2e 60 01 00 00 ec 11 8a 1e f8 4b 77 2c
       6.126302e-11 4.93e-43 1.461873e-20 3.5142982e-12
000130 62 01 00 00 60 01 00 00 60 01 00 00 60 01 00 80
       4.96e-43 4.93e-43 4.93e-43 -4.93e-43
000140 61 01 00 00 61 01 00 00 66 01 00 80 bc 75 0a 80
       4.95e-43 4.95e-43 -5.02e-43 -9.6059e-40
000150 62 01 00 00 62 01 00 00 b8 19 0e bb 3b 4f 4c b8
       4.96e-43 4.96e-43 -0.002168281 -4.871118e-05
000160 a5 01 00 80 5f 01 00 00 62 01 00 80 13 1a 33 b3
       -5.9e-43 4.92e-43 -4.96e-43 -4.17004e-08
000170 55 31 0b b5 61 01 00 80 b4 01 00 00 ca 36 11 33
       -5.185332e-07 -4.95e-43 6.11e-43 3.3810274e-08
000180 60 01 00 00 bb 89 25 bb 60 01 00 00 0c 95 85 bc
       4.93e-43 -0.0025259096 4.93e-43 -0.016306423
000190 61 01 00 80 e1 eb 98 3b bb 77 78 a2 5f 01 00 80
       -4.95e-43 0.004666791 -3.3673652e-18 -4.92e-43
0001a0 70 35 2f 3d 60 01 00 00 5f 01 00 80 f5 70 57 3c
       0.04277557 4.93e-43 -4.92e-43 0.01314949
0001b0 05 10 64 36 61 01 00 80 7b bf 8f bc 5f 01 00 80
       3.3983972e-06 -4.95e-43 -0.01754736 -4.92e-43
0001c0 61 01 00 80 60 01 00 00 f2 2c 78 2f 70 81 ed 37
       -4.95e-43 4.93e-43 2.2571436e-10 2.8312876e-05
0001d0 df 61 a8 2d 5f 01 00 00 87 3e d5 2d 65 dd 63 2d
       1.9142852e-11 4.92e-43 2.4243064e-11 1.29526155e-11
0001e0 60 01 00 00 61 01 00 00 60 01 00 00 91 01 00 80
       4.93e-43 4.95e-43 4.93e-43 -5.62e-43
0001f0 56 2d 94 39 29 a9 2b ba c7 ff 8d 31 61 01 00 80
       0.00028262538 -0.0006548339 4.1327186e-09 -4.95e-43
000200 d0 11 1b bc 62 01 00 80 d9 6c 61 bd 61 01 00 00
       -0.009464696 -4.96e-43 -0.055035446 4.95e-43
000210 c3 2c 68 3e 60 01 00 00 04 15 4d 37 5f 01 00 00
       0.22673325 4.93e-43 1.2223845e-05 4.92e-43
000220 60 01 00 00 60 01 00 00 d7 e2 7e b2 60 01 00 00
       4.93e-43 4.93e-43 -1.4836323e-08 4.93e-43
000230 c5 5e ba b8 60 01 00 80 3c ca 35 b9 60 01 00 00
       -8.886823e-05 -4.93e-43 -0.00017336843 4.93e-43
000240 5f 01 00 80 61 01 00 80 f4 ae 00 bd ad 3e dc ae
       -4.92e-43 -4.95e-43 -0.03141685 -1.0015575e-10
000250 60 01 00 00 ed 07 00 00 60 01 00 80 60 01 00 00
       4.93e-43 2.843e-42 -4.93e-43 4.93e-43
000260 66 01 00 00 5f 01 00 80 60 01 00 00 5f 01 00 00
       5.02e-43 -4.92e-43 4.93e-43 4.92e-43
000270 5f 01 00 00 60 01 00 00 77 b8 f7 3b 82 60 26 3d
       4.92e-43 4.93e-43 0.0075598317 0.04061938
000280 61 01 00 80 60 01 00 00 61 01 00 80 94 01 00 80
       -4.95e-43 4.93e-43 -4.95e-43 -5.66e-43
000290 60 01 00 80 87 01 00 00 5f 01 00 00 61 01 00 00
       -4.93e-43 5.48e-43 4.92e-43 4.95e-43
0002a0 ed 67 27 3e a6 01 00 80 61 01 00 80 05 e5 16 bd
       0.16348238 -5.91e-43 -4.95e-43 -0.036839504
0002b0 61 01 00 00 6e 71 b9 12 9d 88 3d 3b 62 85 4c 01
       4.95e-43 1.1703104e-27 0.002892054 3.756458e-38
0002c0 6b 01 00 80 39 2d 99 38 60 01 00 00 5f 01 00 00
       -5.09e-43 7.304032e-05 4.93e-43 4.92e-43
0002d0 5f 01 00 80 60 01 00 00 f0 95 e0 bc d8 9c 83 b8
       -4.92e-43 4.93e-43 -0.027415246 -6.275781e-05
0002e0 33 c4 9e bc 5f 01 00 80 5d cf e1 b7 53 56 86 a5
       -0.019380664 -4.92e-43 -2.6918651e-05 -2.330379e-16
0002f0 62 01 00 00 60 01 00 80 60 01 00 80 61 01 00 00
       4.96e-43 -4.93e-43 -4.93e-43 4.95e-43
000300 79 ed e6 16 61 01 00 00 64 73 c7 a1 5f 01 00 80
       3.730837e-25 4.95e-43 -1.3515308e-18 -4.92e-43
000310 37 fb 03 3d 61 01 00 80 5f 01 00 80 ab f3 48 16
       0.032222 -4.95e-43 -4.92e-43 1.623276e-25
000320 4c f0 97 bb 94 93 d1 b4 5f 01 00 80 62 01 00 80
       -0.0046368 -3.903666e-07 -4.92e-43 -4.96e-43
000330 ad 02 dc 3d f9 34 93 3c b7 01 00 80 60 01 00 00
       0.10742698 0.017969595 -6.15e-43 4.93e-43
000340 c8 e5 28 3c 60 01 00 00 a0 91 f9 3d 5f 01 00 00
       0.01030869 4.93e-43 0.12185979 4.92e-43
000350 24 09 8d 3c 87 cc 84 3d 62 01 00 80 b3 38 03 bc
       0.017216273 0.06484323 -4.96e-43 -0.008009124
000360 70 01 00 00 31 8d ac 39 71 5d 26 bd 61 01 00 00
       5.16e-43 0.00032911592 -0.040616456 4.95e-43
000370 d4 47 a5 bc 9b 14 e4 ba 43 48 ac 37 61 01 00 80
       -0.020175852 -0.001740116 2.0537647e-05 -4.95e-43
000380 57 4b 7f 3e 5f 01 00 00 5f 01 00 00 12 32 65 38
       0.24931084 4.92e-43 4.92e-43 5.4644486e-05
000390 61 01 00 00 65 01 00 80 69 18 8b 3c 5f 01 00 00
       4.95e-43 -5e-43 0.016979413 4.92e-43
0003a0 63 01 00 80 b5 01 00 00 5f 01 00 00 b8 32 05 00
       -4.97e-43 6.12e-43 4.92e-43 4.77372e-40
0003b0 5f 01 00 80 94 f2 01 3a a9 17 9e bb 07 f1 55 3e
       -4.92e-43 0.00049571064 -0.004824598 0.20892726
0003c0 60 01 00 00 b3 01 00 00 62 01 00 00 96 e9 96 1e
       4.93e-43 6.1e-43 4.96e-43 1.5978477e-20
0003d0 66 01 00 80 60 01 00 80 ba b0 2e be 97 84 b7 3d
       -5.02e-43 -4.93e-43 -0.17059603 0.089608364
0003e0 8c 30 11 bb 60 01 00 80 61 01 00 00 83 46 00 35
       -0.002215418 -4.93e-43 4.95e-43 4.7786324e-07
0003f0 61 01 00 00 5c c0 aa 93 af 01 00 80 5f 01 00 00
       4.95e-43 -4.3103714e-27 -6.04e-43 4.92e-43

fc2.bias f4 [300]
000000 6c 02 1d 3e 62 1d 82 bd 2e fd 6e be 24 00 75 3e
       0.15332955 -0.063532606 -0.23338768 0.23925835
000010 db 1b 6f 3e f1 03 53 3e 5b c7 97 3e 99 e8 3f bf
       0.2335047 0.20606972 0.29644284 -0.7496429
000020 cf 14 4a 3f 1e ff a4 be a2 a2 67 bd 66 7d 1b 3f
       0.78938 -0.3222589 -0.056551583 0.6073822
000030 49 3b b1 3f 51 ec d0 3e c5 79 5d 3f 7c ae a2 3e
       1.3846217 0.40805295 0.8651393 0.31773746
000040 e4 89 08 be 4d a0 b6 bd 26 3e c3 3c f8 d6 6d bd
       -0.13333851 -0.08917294 0.023833346 -0.05806634
000050 d2 9d b3 3e 69 b5 ff 3e e1 b0 42 bc e2 e3 be 3e
       0.35081345 0.49943092 -0.0118829915 0.37283236
000060 26 7c 67 3e 01 ef 1a bf e7 83 31 3f 75 ec b4 bd
       0.22605953 -0.6052094 0.6934189 -0.08834163
000070 42 b7 78 3d 60 2d 62 3f 8f 7a 9e be 6f d3 1a be
       0.060721643 0.88350487 -0.3095288 -0.15119718
000080 f4 6f 3a 3f dd e0 a3 3b be 12 11 bf 74 22 e3 3c
       0.72827077 0.005001171 -0.56669223 0.02772639
000090 0a dc 4c 3e fa 07 76 be 12 9f 47 be 4a ce 23 bf
       0.20005813 -0.2402648 -0.19494274 -0.6398665
0000a0 28 24 d4 3e 21 ed 15 3f e1 c6 9e 3e a8 97 02 3f
       0.41433835 0.58564955 0.31011108 0.5101266
0000b0 09 f8 82 bd 00 15 09 3f 56 45 7c 3f 00 62 17 3f
       -0.06394965 0.5354767 0.985433 0.5913391
0000c0 b8 14 00 40 69 45 e1 3d cf 6c d8 be 24 ea 26 c0
       2.0012646 0.10999567 -0.42270514 -2.6080408
0000d0 2a e4 2d 3c 51 21 22 bf dd f9 0b be b5 d4 08 be
       0.010613481 -0.63332087 -0.13669534 -0.13362391
0000e0 27 db 07 3f 63 50 b9 3f cc a7 28 bd 7b 25 27 3d
       0.53068775 1.4477657 -0.04117565 0.04080723
0000f0 a2 4b 02 3f f8 7a 26 3e 9c c5 51 3f c4 53 ee bc
       0.50896657 0.16257846 0.8194215 -0.029092677
000100 06 42 93 bd 9f f5 b8 3c e8 f2 c5 3f c6 94 55 3f
       -0.07190327 0.022578059 1.5464754 0.83430135
000110 57 56 33 3d 9d 85 21 3f e4 59 be 3f e8 88 04 bf
       0.043783512 0.630945 1.4871182 -0.517714
000120 04 1b ee be 3f 9c 37 bf ef bf 3b be 5f 6e e1 3f
       -0.46504986 -0.7172279 -0.18334936 1.7611808
000130 30 5e bc 3e de 65 40 3f b3 c2 eb bd b3 e3 5c 3f
       0.3679061 0.75155437 -0.11511745 0.8628494
000140 13 4c b7 3e 04 c0 1c bd 99 9a 5d be 4c dc 39 3f
       0.35800228 -0.038269058 -0.21641006 0.7260177
000150 ea 1c 52 3f ff 44 1e 3f cd 3f 8f bd e7 e8 7e 3e
       0.8207537 0.6182403 -0.06994591 0.24893533
000160 e9 f1 6c 3e 4d c3 90 3f f9 ee 20 3f aa 3e 83 3d
       0.23139156 1.1309601 0.62864643 0.064084366
000170 f7 d3 15 3f b9 fd db 3e 9c 70 4b 3f 3c d0 38 3f
       0.5852656 0.42967013 0.79468703 0.7219274
000180 31 5b 08 bf cc 71 bd be ed 1f 89 3f de 52 6c be
       -0.5326415 -0.37000883 1.0712868 -0.23078486
000190 f4 3e 9c 3f fa 12 9b 3f ec 06 9e 3f 08 79 d3 3e
       1.2206712 1.2115166 1.2345862 0.41303277
0001a0 ed 3f b9 3f 4b 32 76 3d dc dd d1 be 6b c3 80 3e
       1.4472634 0.060106557 -0.40989578 0.25149092
0001b0 fe 18 6a be ae bf f3 be da 76 8e be 43 4d c5 3e
       -0.22861096 -0.47607177 -0.27825052 0.3853551
0001c0 f3 a7 6e 3f 49 0f 22 bf 81 1d 24 be 34 3d 51 3e
       0.9322502 -0.63304573 -0.1602688 0.20433503
0001d0 33 85 6b be ee 52 b2 bc 93 73 8b 3f 30 d2 b5 bf
       -0.2300003 -0.02176806 1.0894645 -1.4204769
0001e0 50 39 2c 3f 97 7d aa 3d 20 ae 02 3f f9 bd bd bd
       0.6727495 0.083247356 0.51046944 -0.0926475
0001f0 5e a4 96 3e 87 88 1e 3f 7a 3b ee 3e 65 d2 b7 3e
       0.29422277 0.61927074 0.46529752 0.35902706
000200 20 9d fd be fc a7 a0 be 3c 7f af bd f7 7d 62 3e
       -0.4953394 -0.31378162 -0.0856919 0.22118364
000210 f1 10 e7 3e 97 a0 de 3e 6e 03 31 3f f5 14 85 3f
       0.45130113 0.43481895 0.6914586 1.039702
000220 8c b2 0f 3f 2b 07 7e 3e ec 2c da be e6 9d a8 be
       0.56131816 0.24807422 -0.42612398 -0.32932967
000230 95 61 67 3e c8 9e 18 40 82 76 ab bf d8 a7 cf 3e
       0.22595818 2.3846912 -1.3395541 0.40557742
000240 4c 9d 02 3f 8f 22 25 bd 88 4a 17 3f 03 0c 94 3f
       0.51021266 -0.04031616 0.590981 1.1566166
000250 75 9c 05 bf 20 13 15 be 6d fc b2 3f 59 08 6e 3f
       -0.5219186 -0.14558077 1.3983284 0.9298149
000260 2c a5 8f 3f 26 6a 5a be 14 09 70 3f b5 e5 39 bf
       1.1222281 -0.21329555 0.9376385 -0.7261613
000270 48 c1 06 c0 24 56 2a be 4c df 01 3f f1 97 32 be
       -2.105547 -0.16634423 0.5073135 -0.17440774
000280 00 7b e4 be 48 da 5a be bc 97 48 3f 59 73 25 3f
       -0.44625092 -0.2137233 0.7835653 0.6462913
000290 cc e0 02 3e bc 6a 20 bd 40 05 05 3f f9 ae 44 3f
       0.12781066 -0.03916429 0.51961136 0.7682949
0002a0 b9 85 87 3e dd 93 29 bf e5 3c ad be dc 6d dd bf
       0.2646921 -0.66241246 -0.3383552 -1.7299151
0002b0 dd 7d 29 be 75 d8 de 3e 1f c2 a5 3e 2c f9 47 bf
       -0.1655192 0.4352452 0.32374665 -0.7811458
0002c0 3b c1 be 3f 55 b4 e5 3d 9b 8c 43 be 9e 9c 58 3e
       1.4902719 0.11216036 -0.19096605 0.21153495
0002d0 c8 ab 14 3e 90 ea f3 3d ea 46 0d 3e df 0d a3 3f
       0.14518654 0.119099736 0.13796583 1.2738608
0002e0 ee 05 d2 be a7 43 4e be 6c 3f 8d 3f 3f 10 e7 3e
       -0.4102015 -0.20142995 1.103498 0.45129582
0002f0 87 20 0d 3e 5d 23 c7 3e ef a7 22 be e9 e6 3a 3f
       0.1378194 0.38894168 -0.15884374 0.7300859
000300 cb fa 67 3f d0 7b 9c 3c 24 e0 a9 3e bb f3 19 3f
       0.90617055 0.019102007 0.33178818 0.6013753
000310 11 00 75 be 47 15 34 3e 2b 11 1e be 11 a3 87 bd
       -0.23925807 0.17586242 -0.15436237 -0.06622899
000320 d2 f4 f2 bd 2d ee 50 3f 4c 52 0e 3f a4 1e ab bd
       -0.11863102 0.8161343 0.55594325 -0.083554536
000330 2e 4b cf 3e 27 d2 27 3f ab 83 b3 3f 1b ca a2 3e
       0.40487045 0.6555504 1.4024557 0.3179482
000340 f6 9f 31 3f 59 ed 6d 3f 92 17 ee 3f f4 c5 05 3e
       0.69384706 0.9294029 1.8600943 0.13063794
000350 fd 92 3a bf 0b d1 2c be f4 1c 87 be ef 4e 40 3e
       -0.72880536 -0.16876619 -0.26389277 0.18780111
000360 ac d8 df 3e 71 59 6c 3f a3 32 25 3f e8 1c 03 bf
       0.43719995 0.92323977 0.6453039 -0.5121598
000370 79 0d ea bd da 68 82 3f f0 40 fa 3e bc ae 10 3f
       -0.11428351 1.0188248 0.48877668 0.56516623
000380 6b c0 4f bf 26 4b a0 3f 47 47 5f 3f 92 e8 a9 be
       -0.8115298 1.2522933 0.87218136 -0.3318525
000390 c5 6a 2f 3f 8b 9e 04 3f 2b 51 34 3e 39 e3 13 3f
       0.6852229 0.5180442 0.17609088 0.5776859
0003a0 d3 35 26 be 98 76 65 be 04 b9 52 3e e7 c1 5b 3d
       -0.1623147 -0.22408521 0.2057839 0.053651717
0003b0 2f f1 61 bf 89 e2 d6 be 49 94 24 3b 21 b3 d6 bc
       -0.8825864 -0.41969708 0.00251128 -0.026208462
0003c0 ab 47 3d 3f ef 7b db ba 15 94 66 3e 1b 4a 5f 3e
       0.7393748 -0.0016745309 0.22517426 0.21805613
0003d0 06 f6 1a 3f 64 22 7f 3f 02 60 83 3d 6a 65 7f 3e
       0.6053165 0.9966185 0.064147964 0.2494103
0003e0 2a 1a da bd 95 49 e3 3e bc 07 09 3f 51 a7 b0 be
       -0.10649522 0.44392076 0.53527427 -0.34502652
0003f0 82 72 5b 3f 25 43 34 3f 90 be 88 3e b4 35 c2 3c
       0.857216 0.70414954 0.26707888 0.023707248

bn1.weight f4 [400]
000000 15 74 b2 bc a2 e2 76 40 6d 30 e5 ab 60 01 00 80
       -0.021783868 3.8575826 -1.628487e-12 -4.93e-43
000010 62 01 00 00 58 eb 13 bc 5a 33 f2 bc 6d e4 b5 bc
       4.96e-43 -0.009028278 -0.029565502 -0.022203648
000020 2e 6f fc bc b3 68 1e 3f c7 3e 1e bc 8a 27 94 ba
       -0.030814733 0.6187851 -0.009658522 -0.0011303287
000030 2e 0a c3 3c 70 7d 8e b4 bc 00 85 ba b5 5c a9 88
       0.023808565 -2.654083e-07 -0.0010147314 -1.0193113e-33
000040 9d 9f c8 bc 5d 26 10 3b 6d 93 51 bb f0 dc 06 bd
       -0.024490172 0.0021995523 -0.0031978742 -0.032925546
000050 87 66 95 bc 17 73 f3 b3 61 94 23 b5 60 01 00 80
       -0.018237365 -1.1336504e-07 -6.093815e-07 -4.93e-43
000060 37 44 ed 3a 07 2c 51 bc 8b 4f 2b b6 f9 8e c4 a2
       0.0018101995 -0.012766845 -2.5527286e-06 -5.3277285e-18
000070 dd 63 f3 3e ac 03 00 00 0f c5 2a a9 d1 51 83 bc
       0.47537127 1.317e-42 -3.7918504e-14 -0.016030224
000080 e1 cc 96 bc 23 a2 9d bc eb cb 32 90 5f 01 00 00
       -0.01840824 -0.019242352 -3.5261403e-29 4.92e-43
000090 5f 01 00 80 e2 16 6e bb 61 01 00 80 95 23 b6 bc
       -4.92e-43 -0.0036329557 -4.95e-43 -0.022233764
0000a0 e8 0e 2b 40 29 03 08 bc c3 5b aa bc 45 dc 98 b5
       2.6727848 -0.008301535 -0.020795709 -1.1388989e-06
0000b0 3a 75 e1 bc a7 6c 55 af a9 99 0c 8d 9b de 5e a7
       -0.027521718 -1.9410838e-10 -4.3325792e-31 -3.0929364e-15
0000c0 57 dc 23 bd 60 01 00 80 bc 79 85 3e 12 1b ee bc
       -0.040005054 -4.93e-43 0.26069438 -0.029065643
0000d0 6b 61 ce b8 60 01 00 80 a9 15 c0 a3 22 92 80 bc
       -9.840991e-05 -4.93e-43 -2.0825855e-17 -0.015694682
0000e0 ae 1d e7 35 15 fb 70 b9 5f 01 00 80 95 63 1d bd
       1.7219479e-06 -0.00022981719 -4.92e-43 -0.038425047
0000f0 92 4b da 3f 05 da b0 bc 60 01 00 80 f0 7c a7 bc
       1.7054312 -0.021588335 -4.93e-43 -0.020445317
000100 44 b6 98 bc 6d 31 4b 9d 60 01 00 80 75 ea b0 bc
       -0.018641599 -2.6892379e-21 -4.93e-43 -0.021596173
000110 60 01 00 80 de 7f a5 bb 52 b8 12 bd 54 28 3b bd
       -4.93e-43 -0.0050506433 -0.035820313 -0.045692757
000120 ca 6b 5b bc 03 db 32 bc 9f 80 01 bd 47 b8 d0 95
       -0.013392398 -0.010916474 -0.031616803 -8.430127e-26
000130 fa 3b 42 ad f9 e4 a8 b6 b1 a9 3c bc 93 63 0c a6
       -1.1040941e-11 -5.033446e-06 -0.011515067 -4.8707206e-16
000140 05 5f 50 b8 61 01 00 80 f8 37 47 96 37 d5 0d bd
       -4.967956e-05 -4.95e-43 -1.6092753e-25 -0.034627166
000150 6e cb 00 bc 60 01 00 80 fc 32 f0 bb 76 04 2a 93
       -0.007861001 -4.93e-43 -0.0073302966 -2.1459216e-27
000160 60 b0 a8 b4 dd 8b ed bb 82 91 4c b4 a7 b9 c0 bc
       -3.1420768e-07 -0.007249339 -1.9051916e-07 -0.023526026
000170 d2 d4 3b bd 0b 04 6c bc 80 c9 05 b6 c7 20 59 bc
       -0.04585726 -0.014405261 -1.9935833e-06 -0.013252444
000180 93 56 28 bc fb 5a 6e bc 60 01 00 80 47 20 0d bd
       -0.010274547 -0.014548059 -4.93e-43 -0.03445461
000190 9f c8 8c ba 0b 67 f6 bb 6a 18 b5 bc d7 06 1c 80
       -0.0010740942 -0.007519608 -0.022106368 -2.573848e-39
0001a0 12 a3 79 3b 16 e5 61 bc a5 66 11 ba 70 ed f8 bb
       0.0038091582 -0.0137875285 -0.0005546606 -0.007596664
0001b0 fe 9e b2 bc d7 67 af 93 ad 2a 22 3c 45 f1 d0 bc
       -0.021804329 -4.4278605e-27 0.00989787 -0.025505671
0001c0 e1 c7 8d 36 e3 ec 45 bc 49 c8 c2 bc 15 ee e8 bc
       4.2253964e-06 -0.012080404 -0.023777144 -0.028433839
0001d0 39 a3 93 bc 59 35 d5 bc bd 4b 7d bc 4c 2c c4 bc
       -0.018022167 -0.026026415 -0.015459952 -0.023946904
0001e0 1c 9d 33 bb 61 01 00 80 60 cb 01 80 60 01 00 00
       -0.0027406877 -4.95e-43 -1.64793e-40 4.93e-43
0001f0 cb e2 3c bc 89 2e 5e bc c5 3b 17 bd f2 6d f3 bb
       -0.011528681 -0.0135608995 -0.036922235 -0.007428878
000200 31 22 c2 bb 9f 3c 86 bc 82 25 31 bd 89 5e ca 8d
       -0.005924486 -0.016386328 -0.04324866 -1.247197e-30
000210 7c 26 a0 40 61 01 00 80 63 01 00 80 e4 04 81 ba
       5.004698 -4.95e-43 -4.97e-43 -0.0009843376
000220 4c 43 52 b8 60 01 00 80 2e 07 55 bc 62 e0 fd bb
       -5.0130577e-05 -4.93e-43 -0.0130022 -0.007747696
000230 6d 4d 99 bc 61 01 00 80 22 3b 20 bc d7 85 2b bc
       -0.018713677 -4.95e-43 -0.009779723 -0.010468922
000240 61 01 00 80 da 21 d4 b5 4a f5 1e bc a0 ae 0b 03
       -4.95e-43 -1.5805083e-06 -0.009702036 4.104889e-37
000250 9a dc d4 bc 51 c3 e7 bc 60 01 00 80 61 01 00 80
       -0.025984097 -0.028291376 -4.93e-43 -4.95e-43
000260 60 01 00 00 5f 01 00 00 53 66 fd b7 61 01 00 80
       4.93e-43 4.92e-43 -3.0207599e-05 -4.95e-43
000270 30 22 8c b9 60 01 00 80 75 ef 59 bc ff 27 d2 3c
       -0.00026728353 -4.93e-43 -0.01330172 0.025653837
000280 5f 01 00 80 1b 54 c7 97 7e 18 cd bb 5f 01 00 80
       -4.92e-43 -1.2881305e-24 -0.006259023 -4.92e-43
000290 61 01 00 80 5d b6 2b 9b ea ee b4 b8 fa df c9 b9
       -4.95e-43 -1.4203713e-22 -8.62757e-05 -0.00038504583
0002a0 26 6e 0f 3f 09 1c f5 bc a4 af 8b b2 2c 5b 03 bc
       0.5602745 -0.029920595 -1.6261602e-08 -0.008017343
0002b0 5f 01 00 80 49 ec d6 bc 7d bf b1 bb 49 bf 79 bc
       -4.92e-43 -0.026235716 -0.0054244385 -0.01524336
0002c0 b5 7a 9b b4 ef da f5 bc 1c 8c 34 b4 bd 7d 67 bb
       -2.896028e-07 -0.030011622 -1.6814778e-07 -0.0035322749
0002d0 60 01 00 80 71 09 00 00 e4 4a 92 bc 34 dd d0 bc
       -4.93e-43 3.387e-42 -0.017857976 -0.025496103
0002e0 2f 94 a1 bc f0 3e 5e af 8b 0f 27 bd ac 0d 30 bc
       -0.01972398 -2.0213142e-10 -0.040786307 -0.010745447
0002f0 cd fd 00 34 60 01 00 80 fa 19 94 bc 60 01 00 80
       1.2013261e-07 -4.93e-43 -0.018078793 -4.93e-43
000300 d2 e0 2c 1c 01 28 74 96 62 c8 1a 29 bf 5e 07 bc
       5.72006e-22 -1.9722786e-25 3.4368674e-14 -0.008262335
000310 6a cd f7 bc ee 08 9b bc 5f 01 00 80 42 5b 88 ba
       -0.030249316 -0.018925156 -4.92e-43 -0.0010403174
000320 cd 22 a8 bc 6c dd 04 bd 15 e4 c7 bc 7f 18 93 b4
       -0.020524407 -0.032437727 -0.02440075 -2.7398707e-07
000330 91 bb 06 40 19 fc 10 bd 60 01 00 80 ff 5d 0c 97
       2.1051981 -0.03539667 -4.93e-43 -4.535508e-25
000340 af 5e a4 bc fb c1 ea 87 f6 7f fa 3e 30 0b a1 bb
       -0.02006468 -3.5322418e-34 0.4892575 -0.0049146637
000350 b6 9c 36 b9 7c e8 aa 40 45 db 5f bb be 21 8e bb
       -0.00017415252 5.3408794 -0.0034157794 -0.0043375185
000360 60 01 00 80 d1 85 40 3d e2 42 72 bc 5f 01 00 80
       -4.93e-43 0.047002617 -0.014786454 -4.92e-43
000370 fb 8b 08 bc a4 5a d3 bc 45 dd 66 b6 03 c3 30 b9
       -0.008334155 -0.025800057 -3.4401467e-06 -0.00016857315
000380 f1 ab 62 3f e0 7b b6 bc 73 91 91 b6 06 8f a3 3d
       0.8854361 -0.022275865 -4.3382693e-06 0.07986264
000390 f7 4e 84 bb 7f 07 a4 bc aa 7a 1c bd 60 01 00 00
       -0.0040377337 -0.020023106 -0.03820292 4.93e-43
0003a0 7b fc 41 bc de e1 2a 94 98 e8 51 bb 86 95 b8 bc
       -0.011839981 -8.627351e-27 -0.0032029506 -0.022532236
0003b0 60 01 00 80 55 ff fa bc ee b1 5b bc 7b b3 f2 3f
       -4.93e-43 -0.03063933 -0.013409121 1.8961023
0003c0 7d 3f ba bc 60 01 00 80 d4 b6 2b b9 8b db df bc
       -0.022735352 -4.93e-43 -0.0001637594 -0.027326366
0003d0 4c 37 c5 bb 61 01 00 80 0e c8 96 3e 92 40 0b 3f
       -0.006018555 -4.95e-43 0.29449505 0.543954
0003e0 4b 85 29 bd b1 e6 f7 bb c8 55 cb ad 9d 98 e0 bc
       -0.041386884 -0.0075653424 -2.3116523e-11 -0.027416522
0003f0 a9 90 11 bb 7a 50 3a bc bd 96 02 bb ea 43 13 a3
       -0.0022211468 -0.011371726 -0.0019926273 -7.983267e-18

bn1.bias f4 [400]
000000 38 3d 1a bd 09 a1 8a 3f 7a 7b ae ba 35 89 be 9b
       -0.03765604 1.0830394 -0.0013311945 -3.152153e-22
000010 dc 79 45 a1 d2 bb 45 bb 90 d4 b5 bc 3a 48 d5 bc
       -6.6907476e-19 -0.0030171764 -0.022196084 -0.026035417
000020 c8 16 32 bd f0 44 a3 3e 04 c9 53 bc 75 7b 95 bb
       -0.043478757 0.31888533 -0.012926344 -0.0045618364
000030 4b 60 74 bc bd de 53 b4 3a 39 4b bb c5 a3 17 b7
       -0.014915536 -1.9731938e-07 -0.0031009451 -9.038432e-06
000040 59 4c d1 bc 0e ff b1 bb e7 67 55 bb a1 9e 0f bd
       -0.0255491 -0.005432016 -0.0032563151 -0.03506339
000050 f3 81 ab bc ee f2 02 bc 43 1e 18 b6 8d ce c5 a8
       -0.020935988 -0.007992489 -2.266738e-06 -2.196097e-14
000060 44 f7 46 bb 44 6c 5e bc b7 23 18 bc d3 e7 bd b9
       -0.0030359784 -0.013575617 -0.009285859 -0.00036221612
000070 a5 01 c4 3d 98 95 f2 ad 57 c0 70 ba ce fc b8 bc
       0.09570626 -2.7578648e-11 -0.00091839343 -0.022581484
000080 55 a0 31 bc 47 cb d9 bc e7 e2 30 b8 4e 6c 73 ad
       -0.010841449 -0.026586188 -4.217299e-05 -1.3836999e-11
000090 01 16 19 a5 aa 4c 9b bb 02 7f 12 ae d8 9c b0 bc
       -1.327809e-16 -0.0047393637 -3.3309362e-11 -0.021559164
0000a0 6a dc 2b 3f 9f 93 d0 bc 74 fa b1 bc 1d ff 1a bc
       0.671332 -0.025461016 -0.02172587 -0.009460238
0000b0 cb 8c 07 bd 69 77 13 b0 ec 7c 0d b9 06 31 fd b9
       -0.033093255 -5.364798e-10 -0.00013493345 -0.00048292446
0000c0 d1 5f 43 bd 61 a2 18 aa e0 92 ed 3e 42 7e 1e bd
       -0.0476988 -1.3556648e-13 0.4640112 -0.038694628
0000d0 2a 6a 3c bc 7e 4f 21 b3 e2 d6 41 ba 1d 58 6c bc
       -0.011499921 -3.755803e-08 -0.0007394386 -0.014425305
0000e0 19 30 1f b9 53 c5 93 bc a9 ae ec 8f a3 01 47 bd
       -0.0001518134 -0.018038427 -2.3338673e-29 -0.048585545
0000f0 82 81 6c bf 37 d7 f9 bc ac 49 8e 97 59 f0 e2 bc
       -0.92385113 -0.03049813 -9.195132e-25 -0.027702497
000100 55 f8 a6 bc 31 e4 8b b9 d5 66 3b b1 1e 68 e3 bc
       -0.020382086 -0.00026682162 -2.7270535e-09 -0.027759608
000110 ed db 5d 9d 5c a2 ce bc ac cf 06 bd 10 74 35 bd
       -2.9362805e-21 -0.025223903 -0.032912895 -0.04430014
000120 5b 51 93 bc 24 fc a4 bc 52 95 0f bd a7 31 c6 b9
       -0.01798313 -0.020139761 -0.035054512 -0.00037802497
000130 c7 50 16 bb ea 4b de bb 0c 74 e3 bc 4c e7 1a ba
       -0.002293633 -0.006783952 -0.027765296 -0.00059091
000140 95 c2 c2 bb 56 bf 18 a9 f3 56 86 b8 42 f4 29 bd
       -0.005943606 -3.3916737e-14 -6.4058135e-05 -0.041492708
000150 d9 11 66 bc 66 d9 10 9c e8 9a 9a ba 9c 4e 95 95
       -0.014042341 -4.7926584e-22 -0.0011795433 -6.0304644e-26
000160 cb 6f bd bb a7 87 c9 bb 65 59 ec ba 31 a0 dd bc
       -0.005781149 -0.006150204 -0.0018032013 -0.027053924
000170 9f 4f 41 bd 0e d0 be bc 48 c5 12 bc 4f 54 63 bc
       -0.047195073 -0.023292568 -0.008958168 -0.013875081
000180 da b1 bf bc 36 8e 91 bc 89 6c 11 a1 30 5d 10 bd
       -0.023400236 -0.017768007 -4.9271556e-19 -0.03524512
000190 e9 5b 40 bc ac cb 2a ba 14 6e ba bc 00 ce 3c b6
       -0.011740663 -0.0006515335 -0.022757567 -2.813409e-06
0001a0 d3 1d 05 bb bb a4 07 bd c1 50 ab bc 23 94 d6 bb
       -0.0020311966 -0.033116084 -0.02091253 -0.006548421
0001b0 ab ae 0a bd a2 4c 8a b8 8d f2 8b bc 1a 82 cd bc
       -0.033857983 -6.594627e-05 -0.01708343 -0.025086451
0001c0 a7 da e1 bb 40 5b e0 bc ae 54 d0 bc c6 3f d6 bc
       -0.0068925205 -0.027387261 -0.025431003 -0.026153456
0001d0 8e 1c 9f bc 7e 61 ec bc 39 46 5b bc df c7 f8 bc
       -0.019422796 -0.028855082 -0.013383442 -0.030368743
0001e0 a6 39 a0 bc 78 3a b2 b2 3a ae 88 b6 57 bd f7 b5
       -0.019558739 -2.0748516e-08 -4.0733985e-06 -1.8458039e-06
0001f0 6a 1a 55 bc 8b ec 82 bc ab ad 0f bd 86 75 63 bc
       -0.013006786 -0.015981933 -0.035077732 -0.013883
000200 f4 42 6f bc 26 30 0f bd 3e c5 34 bd 12 d7 55 b8
       -0.014603365 -0.034958027 -0.044133417 -5.0983457e-05
000210 5a f2 88 be 3e cb ff aa 96 ed 65 b0 93 dd 68 bc
       -0.267474 -4.5438127e-13 -8.3647345e-10 -0.014212984
000220 60 7a 8f bc d6 53 d3 aa d5 bb 09 bc e3 a0 ba bc
       -0.017514408 -3.7539302e-13 -0.008406599 -0.022781795
000230 1f 95 52 bc 67 fd 21 a5 4a a5 15 bc 70 13 de bc
       -0.012852936 -1.405038e-16 -0.009133646 -0.027108878
000240 a6 6f 55 ab fe e2 0f bc 39 63 75 bc 45 0f da b5
       -7.5827745e-13 -0.0087821465 -0.01497727 -1.624671e-06
000250 41 8c 24 bd 7e b1 f5 bc 68 43 7c b5 5f 3e 18 8f
       -0.04017282 -0.029991861 -9.3975405e-07 -7.506191e-30
000260 73 5b 36 9c 5b b8 ad a4 eb 83 23 bc 1d ad 57 b5
       -6.0336944e-22 -7.53391e-17 -0.009980182 -8.0345654e-07
000270 8c c4 31 bc f6 db e0 b4 1c 0c a4 bc b4 c7 43 bc
       -0.010850083 -4.1883294e-07 -0.020025305 -0.011949468
000280 ce 18 9a b5 53 22 c6 b8 74 a4 a5 bc db 6b de b1
       -1.1481113e-06 -9.447769e-05 -0.020220019 -6.473312e-09
000290 16 c5 03 ab 39 8d e6 b9 0b dc 3c bc dc 24 a5 bc
       -4.681406e-13 -0.00043974238 -0.011527072 -0.020159177
0002a0 18 7c 6e 3e e7 00 01 bd e6 1f a6 bb 35 22 51 bc
       0.23289526 -0.031495 -0.0050697206 -0.012764503
0002b0 1c 8d 8c b6 eb 06 e0 bc 5e 0a f9 bb cc 0f af bc
       -4.1887524e-06 -0.027347049 -0.007600113 -0.021369837
0002c0 36 41 cb ba 3e 55 04 bd 93 f8 ee bb 90 f3 86 bc
       -0.0015507105 -0.032307856 -0.007292816 -0.016473562
0002d0 28 ec dc a7 82 3e ae b6 6d 51 66 bc d8 33 b0 bc
       -6.1318307e-15 -5.192881e-06 -0.014057499 -0.021509096
0002e0 26 73 df bc f1 5b 6e bb 0c 14 2c bd 7f 99 35 bc
       -0.027276587 -0.003637072 -0.042011306 -0.01108396
0002f0 9b e5 d7 bb d7 9f 1d 9b 85 90 06 bd 4c 29 87 a6
       -0.0065886504 -1.3038383e-22 -0.03285267 -9.3787e-16
000300 71 f9 f7 ba d1 8e a9 b8 bf 7d 17 b7 85 f0 72 bc
       -0.0018918944 -8.0851496e-05 -9.029579e-06 -0.014827852
000310 59 f8 cb bc a8 a5 e1 bc c6 92 a1 b4 90 74 5d b9
       -0.024898695 -0.027544811 -3.009538e-07 -0.00021119625
000320 5d 4d a4 bc bc 04 24 bd 35 06 f2 bc 50 8e c9 bb
       -0.020056421 -0.040043578 -0.029543975 -0.006150998
000330 7c 37 a5 3f 35 93 62 bc f6 00 54 b7 d1 79 03 b9
       1.2907557 -0.013829042 -1.2636408e-05 -0.00012538514
000340 79 6a a8 bc 6d 86 37 b7 a5 06 df 3e b6 23 c4 bc
       -0.020558583 -1.0938948e-05 0.43559757 -0.02394281
000350 12 78 59 bb 0d e6 d4 bf 88 5f 46 bc fd 94 a7 bb
       -0.003318314 -1.6632706 -0.012107737 -0.0051141963
000360 8c 8a 98 a4 7a 02 95 bc e2 f2 80 bc 61 06 96 a3
       -6.61542e-17 -0.018189657 -0.015740816 -1.6265734e-17
000370 d4 65 6c bb 0c 57 11 bd 5b 7d 2c bc ec 5d b1 bb
       -0.0036071436 -0.035483405 -0.010527934 -0.0054128077
000380 4e eb 4f 3f 57 3e d9 bc 7d fa 15 bc 5c ef 53 bc
       0.8121842 -0.026518984 -0.009153959 -0.012935486
000390 6b d2 b3 bc 6a 4c f7 bc 8c c1 0e bd e4 91 2b a6
       -0.021950921 -0.030187804 -0.03485255 -5.952526e-16
0003a0 b9 2c 0c bd da d3 9a b9 d6 55 f1 bc dc e8 e1 bc
       -0.03422234 -0.0002953101 -0.029459875 -0.027576856
0003b0 91 9d a9 b4 72 9e f9 bc ac d6 fd bb a1 ee ec bd
       -3.1593348e-07 -0.03047106 -0.007746538 -0.11568952
0003c0 10 71 e6 bc 79 ec 41 a6 46 62 f3 bb 43 16 e2 bc
       -0.028130084 -6.7280806e-16 -0.0074274866 -0.027598506
0003d0 5e ed de bc 4a 13 9e ad 75 a3 6e 3e ed 9e 16 3f
       -0.027212795 -1.7971086e-11 0.23304541 0.5883625
0003e0 06 31 18 bd 7e 51 b6 bc 6e 61 23 bb a7 91 00 bd
       -0.037156127 -0.022255655 -0.0024929899 -0.031388905
0003f0 83 5d a1 bc b6 68 6d bc 8d 94 b1 bc e6 ee 2e b9
       -0.01969791 -0.014490297 -0.02167728 -0.0001668293

bn2.weight f4 [300]
000000 4f 6b dc bd 60 62 21 b6 d1 76 22 40 52 5b 6c 40
       -0.10762655 -2.4048131e-06 2.538502 3.6930737
000010 18 91 52 b6 85 ae 1d be e8 39 17 c1 6d d1 bc be
       -3.1376894e-06 -0.15398605 -9.451637 -0.3687853
000020 b6 2e 61 c0 52 8c 02 40 91 1f 3d c0 60 01 00 00
       -3.518476 2.0398145 -2.9550517 4.93e-43
000030 1d 60 c6 40 f4 73 4a 40 8e f0 17 40 b5 be 08 c1
       6.1992326 3.1633272 2.3740573 -8.546559
000040 0c f8 87 bf bb 6e 36 40 5f 01 00 00 59 97 9d 40
       -1.0622573 2.8505085 4.92e-43 4.924725
000050 81 93 f1 99 ce 8c 6c 40 62 01 00 80 b7 f8 35 3d
       -2.4978392e-23 3.696094 -4.96e-43 0.044426646
000060 d3 37 9b bd b6 57 f7 40 0e d4 5c 00 84 fd 9f be
       -0.07579007 7.729457 8.524937e-39 -0.31248105
000070 d2 3d ab be b3 f1 e0 40 ec b2 91 3b 0a 74 dd 31
       -0.33445603 7.0295043 0.004446378 6.4451386e-09
000080 b8 c6 17 41 86 d3 8e 40 7b 97 c7 c0 b0 f1 fb 3c
       9.486015 4.4633207 -6.2372413 0.030754894
000090 12 22 43 40 09 cb 31 c0 17 67 01 bd 83 80 27 41
       3.0489545 -2.7780173 -0.031592455 10.468875
0000a0 60 01 00 00 ec 9e fd ba c2 5e 9e b4 71 26 69 98
       4.93e-43 -0.001934973 -2.949874e-07 -3.0133952e-24
0000b0 61 01 00 00 60 ed 38 80 db bc 0e 41 62 7b 0c b9
       4.95e-43 -5.227942e-39 8.921107 -0.00013397404
0000c0 00 36 06 41 5f 01 00 80 cf 8c 29 c1 26 7d 26 c1
       8.388184 -4.92e-43 -10.596877 -10.405554
0000d0 f1 ff cf 38 a5 7f 84 40 25 ee 56 3c e2 40 a3 2d
       9.918202e-05 4.1405816 0.0131183015 1.8559768e-11
0000e0 60 d9 31 c1 d6 b2 02 c1 eb e5 59 bc 5f 01 00 80
       -11.11557 -8.168661 -0.013299446 -4.92e-43
0000f0 fd 97 03 a5 62 01 00 00 6e 8f 13 3f c2 0b 43 be
       -1.1413934e-16 4.96e-43 0.5764073 -0.19047454
000100 08 01 38 3f 91 93 bf bd 2b 16 f1 40 a8 5f 5f c0
       0.71876574 -0.09354318 7.533956 -3.4902134
000110 71 7b 38 b1 a0 51 03 00 f0 6c 19 41 a1 03 80 40
       -2.6845692e-09 3.04788e-40 9.589096 4.000443
000120 71 30 e6 c0 fe 2a 01 41 cd cd be ba ff a9 1c 41
       -7.1934133 8.072996 -0.0014557183 9.791503
000130 74 65 08 36 61 01 00 80 b0 fd ce 3c 18 b8 07 bb
       2.0324633e-06 -4.95e-43 0.025267452 -0.0020709094
000140 cd 8f 99 3c 3d 6d 22 c0 5f 20 7b 3e 9e dc 6d 2f
       0.018745327 -2.5379174 0.24524067 2.1633403e-10
000150 57 e8 40 c0 74 9d 36 41 8d f4 eb bd 86 4f 4e 40
       -3.014181 11.413441 -0.11521254 3.2236037
000160 61 01 00 00 e6 78 83 40 4b 06 00 41 80 91 93 28
       4.95e-43 4.108508 8.001536 1.6383379e-14
000170 2b 5e 84 3f 60 01 00 80 61 ec e0 40 66 01 00 80
       1.0341238 -4.93e-43 7.028855 -5.02e-43
000180 fd 3b cb c0 6b 17 20 be f3 3c 89 04 60 01 00 00
       -6.351073 -0.15633933 3.226452e-36 4.93e-43
000190 19 c0 a0 3f ce c3 33 40 57 38 6e 3f a3 9f 52 40
       1.2558624 2.808826 0.9305472 3.2909935
0001a0 ec ba e8 40 0d b1 8f bd 9e d0 12 c1 07 79 b0 3c
       7.2728176 -0.07016192 -9.175932 0.021542085
0001b0 91 2e 5b bd e8 23 4d 40 3a bd 75 40 29 a1 fd 3f
       -0.053511206 3.2053165 3.8396745 1.9814807
0001c0 9d a8 14 bd 9c b1 47 41 5e 2e aa 3a b6 6c aa b8
       -0.036293615 12.480862 0.0012983789 -8.126481e-05
0001d0 61 01 00 80 f8 45 77 3b 78 82 07 c1 56 fe 1b c1
       -4.95e-43 0.0037730914 -8.469353 -9.749594
0001e0 61 01 00 00 b5 28 3d c1 14 cb b1 bf 60 01 00 00
       4.95e-43 -11.822438 -1.38901 4.93e-43
0001f0 7e 62 7c c0 99 21 90 40 0e 49 a3 8c 05 6d 90 c0
       -3.9435115 4.5041013 -2.5158095e-31 -4.513308
000200 4d 40 d5 40 96 e5 cc ac 5f f3 13 bf 1d 75 2b c0
       6.664099 -5.823518e-12 -0.5779323 -2.679023
000210 60 01 00 80 5f 01 00 80 d2 97 81 3e d9 2d d9 3f
       -4.93e-43 -4.92e-43 0.25311142 1.6967117
000220 bd 74 e6 3d b0 e3 78 c0 b3 25 13 c1 73 c9 9a c0
       0.11252735 -3.888897 -9.196704 -4.837091
000230 60 01 00 80 40 94 03 41 21 77 0d c1 88 4a aa 40
       -4.93e-43 8.223694 -8.841584 5.321598
000240 73 01 00 00 38 9d 9f c0 ef c7 e5 b9 14 ab e9 c0
       5.2e-43 -4.9879417 -0.00043827246 -7.3021336
000250 75 75 63 40 ad fd 79 40 b2 28 2a 41 a5 2a f2 c0
       3.554044 3.9061081 10.634935 -7.5677056
000260 62 01 00 80 b0 a8 d6 bd 60 01 00 00 b8 39 9f c0
       -4.96e-43 -0.10481393 4.93e-43 -4.9757957
000270 4e 41 67 41 27 bd 3e 17 5e a3 79 33 5d 4b 45 c0
       14.453444 6.1631055e-25 5.8123412e-08 -3.0827248
000280 f8 80 ce 40 d6 fb 37 c0 3e 0e a4 40 20 52 1a 41
       6.4532433 -2.8747458 5.1267385 9.64505
000290 ae d5 2d 33 c8 3c 00 c0 24 85 74 3d 81 24 5d c0
       4.0474042e-08 -2.0037098 0.059697285 -3.455353
0002a0 92 a9 33 be b8 1d f5 c0 11 a0 34 bb 5e 16 23 c1
       -0.17545155 -7.659878 -0.0027561227 -10.192961
0002b0 59 02 a4 40 71 f6 ff 3f 31 66 1b bc 12 30 eb c0
       5.1252866 1.9997083 -0.009484814 -7.349618
0002c0 06 c0 bf 40 61 15 fe bd 15 62 78 3d 50 dd 01 3c
       5.9921904 -0.124064215 0.060640413 0.0079263
0002d0 08 ee c9 40 23 d5 28 c1 2d 06 bc 32 ac c7 99 c0
       6.3103065 -10.552035 2.1888889e-08 -4.805624
0002e0 d1 cc 94 c0 61 01 00 80 7d 6c b5 3f 40 8a ec 40
       -4.650002 -4.95e-43 1.4173733 7.391876
0002f0 b9 3a 3c c1 60 01 00 00 ee aa 37 c0 7a 57 56 c0
       -11.764337 4.93e-43 -2.8698077 -3.3490891
000300 6b f9 eb af 62 01 00 00 72 ac a3 b5 47 5a 15 c0
       -4.2923473e-10 4.96e-43 -1.2194635e-06 -2.333635
000310 6f 6e ca b2 e3 ec a9 3e 34 d2 e8 25 99 6b 5d 3d
       -2.3566114e-08 0.33188543 4.0388024e-16 0.05405769
000320 db f7 6f b9 a2 e2 b7 c0 d4 4f d3 3d ce 17 62 c0
       -0.0002288515 -5.746415 0.103179604 -3.532703
000330 61 01 00 80 11 11 bf 99 d9 4c 9a c0 62 01 00 80
       -4.95e-43 -1.975583e-23 -4.821881 -4.96e-43
000340 61 01 00 80 68 07 92 c0 77 79 68 40 39 ff 92 40
       -4.95e-43 -4.563404 3.6324136 4.593655
000350 65 27 9b 40 eb ae 18 be 6e 50 17 3b 5f 01 00 80
       4.848559 -0.14910476 0.0023088711 -4.92e-43
000360 37 7f 08 40 e4 c5 50 3d 42 c7 44 c1 46 28 96 c0
       2.1327646 0.050969973 -12.298647 -4.692416
000370 70 c7 34 41 ed 7f 84 c0 0a 6b dd 3c 3c 9a 94 89
       11.298691 -4.140616 0.02702858 -3.5774745e-33
000380 d8 e4 7e 40 9e dc e0 c0 97 f3 59 35 03 57 1d c0
       3.9827175 -7.026931 8.119327e-07 -2.4584358
000390 62 01 00 80 5f 01 00 80 61 01 00 00 1a 73 0b 40
       -4.96e-43 -4.92e-43 4.95e-43 2.1789002
0003a0 e7 59 80 40 34 96 7f bf 32 de 7e c0 ab 79 35 38
       4.0109744 -0.99838567 -3.9823117 4.3267075e-05
0003b0 2e 6f 9b 40 f0 e5 f6 b1 5b 1c e9 bd f9 1a 15 14
       4.8573217 -7.185683e-09 -0.113823615 7.527897e-27
0003c0 08 09 5b c0 d3 b5 20 35 63 2c 8c 0c 6b 59 43 40
       -3.4224262 5.9869234e-07 2.159713e-31 3.0523326
0003d0 6b 9e 12 41 5e a8 89 c0 2a f0 44 04 7e ef c4 be
       9.163676 -4.3018026 2.3149967e-36 -0.38463968
0003e0 c6 46 e1 bd 8b 3a 45 3f 74 72 9d 30 c6 d1 c3 c0
       -0.10999827 0.77042454 1.1455783e-09 -6.119357
0003f0 94 3f b3 40 8e a8 9b 3c 6a e6 c7 32 a3 7a 48 40
       5.601511 0.019001272 2.327143e-08 3.1324852
