trained_data/ddpg/new_wall_G_550_350_best/target_actor_ddpg.pth (torch, 504132 bytes, 10 tensors)

fc1.weight f4 [400, 6]
000000 01 67 74 3f 54 26 56 3e d6 46 e9 3f eb 56 3b 3f
       0.9546967 0.20913059 1.8224742 0.731795
000010 d0 bf db bd fa 2d 42 3f 62 03 4f 3f 9e 54 07 3f
       -0.10729945 0.75851405 0.80864537 0.5286349
000020 49 14 d3 be ec 02 c7 3e d5 05 6e c0 05 ce 28 bf
       -0.41226414 0.38869417 -3.719106 -0.6593936
000030 1f 15 52 3f 9b 49 06 3f aa d1 0a c1 6b d8 41 3e
       0.8206348 0.52456063 -8.6761875 0.18930213
000040 8b 2d 86 3e 30 76 b5 bf 3a 8f 50 3f 7f 3f 00 3e
       0.26206622 -1.4176693 0.81468546 0.12524222
000050 d3 e7 96 3f 15 7c d9 3e 4c 69 83 be dd 84 f8 3f
       1.1789497 0.4247748 -0.25666273 1.9415547
000060 2b 7b 2c 3f 27 91 39 3f 0b 21 9b 40 1e f0 7a 3d
       0.6737544 0.7248711 4.8477836 0.06126415
000070 93 98 71 3f 85 1f a3 3f f1 92 37 3f ca 38 22 3f
       0.94373435 1.2743994 0.7170859 0.63367903
000080 4e 60 f3 3e 9d 05 7b 3e 6e 37 21 3e 7d ff 3f 3d
       0.47534412 0.2451386 0.15743801 0.046874512
000090 b8 0b 34 3f d3 53 2f 3f 18 6f 28 bf df 75 c5 bf
       0.7033038 0.6848728 -0.65794516 -1.5426596
0000a0 72 6b 12 40 d4 29 81 3f 70 e8 0b 3f 9b 84 37 3f
       2.287808 1.009089 0.54651546 0.71686715
0000b0 6f 56 99 40 da 61 9f 3e e9 c8 69 3e 13 47 e1 3f
       4.791801 0.31129342 0.22830547 1.7599815
0000c0 09 36 6e 3f 2c 6b 8e 3d 8f 43 9a bf 41 bb 15 3f
       0.930512 0.06954035 -1.2051867 0.5848885
0000d0 cd 2b 42 3e 80 f7 2a 3f f0 bc 4e 3f c1 43 f2 3e
       0.18962021 0.66783905 0.80757046 0.47317317
0000e0 af 10 0a bf dd 61 a9 3e f3 92 f7 3f 73 1d 19 40
       -0.5393171 0.33082476 1.934172 2.3924224
0000f0 f8 b6 31 3f 6f dd 66 3f ce ac 5c 3f a0 4b 90 3f
       0.69419813 0.9018163 0.8620118 1.1273079
000100 74 95 28 bf ed 1d 12 40 fe e3 07 3f 72 cc 4b 3f
       -0.6585305 2.2830765 0.53082263 0.79608834
000110 81 4c c2 c0 d8 2c 0a 3e 07 f2 35 be d1 2f 2d c0
       -6.071839 0.13493669 -0.17768107 -2.7060435
000120 ab 09 d2 3e 01 1a 45 3f 6c 88 95 c0 a3 27 8f bf
       0.41023 0.76992804 -4.672903 -1.1183971
000130 ea 1e 4f 3f eb 0e 26 3e f3 ec 82 3f b3 94 84 3f
       0.80906546 0.16216628 1.0228561 1.0357879
000140 a5 92 02 c0 af a2 67 3e bc 1c 20 3f 48 d2 09 3f
       -2.0402005 0.22620653 0.62543845 0.5383649
000150 de 41 34 3f 26 03 3b 3f 92 ea 13 bf 1b ef 0f 40
       0.70413005 0.7305168 -0.577798 2.2489688
000160 fd 5e da 3f c1 ec 9c 3f a2 85 3f 3f ec 0b e3 3e
       1.7060238 1.2259752 0.7481328 0.44345033
000170 64 28 2c c0 eb 30 ce 3f 08 c4 93 3d 50 40 c0 3f
       -2.6899652 1.6108679 0.07215124 1.5019627
000180 8b 96 9d 3e af db 5d 3f 4a 1d 27 3f 18 8b 04 3f
       0.30778918 0.86663336 0.65279067 0.5177474
000190 6b f7 88 3c cc da 4a 40 83 3a 00 3f e9 0c 61 3f
       0.01671954 3.1696043 0.5008928 0.87910324
0001a0 50 46 f5 40 c2 84 d8 3e 4d 8a 20 bb 2d fe 85 bc
       7.664833 0.42288786 -0.0024496496 -0.016356552
0001b0 75 8b a6 3f 01 a6 ca 3f fe b3 20 be c9 13 76 bf
       1.3011309 1.583191 -0.15693662 -0.9612394
0001c0 56 1e 94 3f 13 c3 a3 be 57 5e 5e 3f 20 2e 64 3e
       1.1571758 -0.31984767 0.868627 0.2228322
0001d0 08 46 88 bf 85 b5 5f 3e 99 16 d8 bf d0 1e c0 be
       -1.0646372 0.21846588 -1.6881896 -0.37523508
0001e0 63 77 75 3f 02 b4 9a 3e e2 5b 5e 3f 0e e1 d1 3e
       0.95885295 0.3021546 0.8685895 0.40992016
0001f0 ee 12 7c 3f 83 bf 99 3f 8a c5 54 3f b1 13 7a 3f
       0.98466384 1.201157 0.8311392 0.97686297
000200 06 37 df bf 76 f4 9a 3e 4f f7 16 40 9c 2b 4d bf
       -1.7438667 0.30264634 2.3588445 -0.8014467
000210 da 23 24 3f 43 be 5c 3f 18 c5 2e 3f 2f c7 a3 3f
       0.64117205 0.86227816 0.6826949 1.2795161
000220 1a 47 a2 bf 5b d5 e6 be 35 6e 0d 3f 92 c6 21 3f
       -1.2677948 -0.45084652 0.5524629 0.6319362
000230 32 3c be 3f 0c 3e ab bf fa 40 ac be 01 fa 14 3f
       1.486212 -1.337831 -0.33643323 0.58193976
000240 59 0e 51 3f 47 ed ca 3e fc 7a 12 40 77 02 8c be
       0.8166252 0.39634153 2.2887564 -0.2734563
000250 b2 8b 25 bf eb 65 d5 bf 04 22 a8 3f 70 e0 ba 3f
       -0.64666283 -1.6671728 1.3135381 1.4599743
000260 7d a0 4c bf 65 9b 5a bf 92 5c 7f 3f 36 49 e8 be
       -0.79932386 -0.85393363 0.99750626 -0.45368356
000270 80 bf ff 3e b0 f4 5a 3f 64 b9 24 40 ae 72 80 3e
       0.4995079 0.85529613 2.5738153 0.25087494
000280 00 d6 71 bb 35 47 4d 40 ab 39 0c 3f a3 4c 53 3f
       -0.0036901236 3.2074711 0.54775494 0.82538813
000290 03 a6 66 bf 4c d1 e6 3f a4 ad 9e 3f 1d 48 ca 3c
       -0.90097064 1.8032622 1.2396741 0.02469259
0002a0 c7 31 51 3f a3 f5 ff 3e 79 c5 08 bf 89 ff eb 3e
       0.8171658 0.49992093 -0.5342632 0.46093395
0002b0 bc e8 af 3e 53 12 20 3f 03 c9 fd 3e b9 20 40 3f
       0.3435725 0.6252796 0.49567422 0.7504993
0002c0 58 d6 03 40 06 37 d4 be a6 9e aa 3e 6c 9f 21 c0
       2.0599575 -0.4144823 0.33324164 -2.5253553
0002d0 38 7f 50 3f 72 6d b8 3e f5 2d 5c c0 86 49 90 3f
       0.8144412 0.36021 -3.440305 1.1272438
0002e0 a3 47 ea be ae 60 f2 be 07 5b 2a 3f 4c 5e 3b 3f
       -0.4575778 -0.47339386 0.66545147 0.7319076
0002f0 7b dc 1a bf 8f a3 56 3f 8a fc 12 40 9b ae 2b 3e
       -0.60492676 0.8384332 2.2966638 0.16765825
000300 84 64 40 3f 0d fa e0 3e 35 1a 55 c0 d9 5e 46 bf
       0.75153375 0.43940774 -3.3297246 -0.77488476
000310 63 d0 b5 3f 81 ad 96 3f e6 e7 20 3f c9 f5 13 3f
       1.420422 1.1771699 0.6285385 0.57796913
000320 8a f1 c0 3f 47 82 bd 3f ea ef 59 bf b7 3a 6b 3f
       1.5073712 1.4805382 -0.85131705 0.91886467
000330 ab ec a0 3e 55 a0 47 3f 9f 5f 15 c0 78 9b 09 bf
       0.31430563 0.7797902 -2.3339612 -0.5375285
000340 fe 7a 08 3f 06 2f b1 bf 01 f4 1b 3f 6a f9 7b 3f
       0.5331267 -1.3842475 0.60919195 0.9842745
000350 d2 b5 79 3f 1f e5 95 3f da 90 a2 bf 5a a5 d6 3f
       0.9754306 1.1710547 -1.2700455 1.6769211
000360 df ab 1c 3f 13 0a 23 3f 48 40 5c c0 c3 6c 23 bf
       0.61199754 0.6368725 -3.4414234 -0.6383783
000370 86 4d 0c c0 17 3b 5f bf b8 cf 4a 3f b7 a3 5c 3e
       -2.1922317 -0.8719954 0.79223204 0.21546827
000380 84 2a f3 be 79 7e cc 3e fe 10 28 bf d4 73 b5 3f
       -0.47493374 0.3994024 -0.6565093 1.4175973
000390 c4 c1 11 3f 92 79 2f 3f 30 20 70 40 1d 05 bc 3d
       0.5693629 0.68544877 3.7519646 0.09180663
0003a0 21 1c 68 be 50 ef 1b bf 1d ec d6 3e db 4d 65 3f
       -0.2266698 -0.60912037 0.41977015 0.89571923
0003b0 a8 77 c8 bf db 38 30 3d ac 03 1f 3f 66 90 a1 3e
       -1.5661516 0.04302297 0.6211498 0.3155548
0003c0 e4 11 59 3f f4 b5 3f 3f 16 36 82 be d3 2e 40 40
       0.84792924 0.74887013 -0.2543189 3.002858
0003d0 ba 9c 98 3f d7 43 6c 40 10 05 32 3d ef 1d 6b 3f
       1.1922829 3.6916406 0.04346186 0.9184255
0003e0 9f 25 9c 3e 5a f5 8a bb 0c d9 00 bc 96 44 7e 3e
       0.30497453 -0.004240674 -0.007864248 0.24830851
0003f0 bf 6a 61 3f 7d 2c ea 3e 95 57 df be c9 7b 39 3f
       0.88053507 0.45737067 -0.43621507 0.72454506

fc1.bias f4 [400]
000000 3e 01 29 3f 45 4f a6 3f 25 66 8a 3e ce e9 96 bf
       0.6601752 1.2992941 0.27031055 -1.1790102
000010 47 20 b8 c0 81 7c e4 40 67 e2 67 bf 8a 9f 4c c0
       -5.75394 7.140198 -0.9057984 -3.1972375
000020 74 9c 81 bf 18 72 7f c0 78 c4 52 c0 84 ae 1a 40
       -1.0125871 -3.9913387 -3.2932415 2.4169016
000030 a7 b1 2e 3e 58 c0 c0 c0 5b 3b 3f c0 35 c8 46 c0
       0.17059956 -6.0234795 -2.9879978 -3.1059697
000040 3c 48 d9 c0 f6 fb 42 3f 55 fd ac c0 1a 6f 80 3f
       -6.7900677 0.7616571 -5.4059243 1.0033906
000050 53 b5 98 c0 c7 50 95 c0 20 05 39 c0 22 f7 69 bf
       -4.7721343 -4.6661105 -2.8909378 -0.9139272
000060 d3 0a af c0 e8 ff db c0 fc fb 08 c0 9c 50 29 c0
       -5.4700713 -6.8749886 -2.14038 -2.645545
000070 8e 5c 0e c1 07 65 00 41 c7 49 93 c0 3f a7 bd bf
       -8.897596 8.024665 -4.602756 -1.4816664
000080 20 e3 ed bf 82 91 ab bf 10 fc c0 3e 30 e8 20 c0
       -1.8584938 -1.340378 0.37692308 -2.5141716
000090 14 b3 c0 3f d1 49 c6 bf 79 4c e5 40 d6 ba c8 3f
       1.505465 -1.5491277 7.165585 1.5682018
0000a0 a2 0a b1 c0 b2 13 aa 3f 49 0a 50 c0 f8 a0 ad 40
       -5.532548 1.328726 -3.2506278 5.4258995
0000b0 86 2d eb be 01 dd 9c bf 0b 87 37 c0 ad 32 e9 3f
       -0.4593317 -1.2254945 -2.8676174 1.821859
0000c0 83 77 9f bf d2 07 ce c0 eb f5 9f 40 41 5c 85 c0
       -1.2458347 -6.4384546 4.9987693 -4.1675115
0000d0 55 f6 cd 3e 78 9c e7 bf 82 8a 16 41 26 48 e9 bf
       0.40227 -1.8094625 9.408815 -1.8225143
0000e0 27 c4 c6 3f 93 ec 6a 3f f7 d5 c0 c0 5b 78 fc 3e
       1.5528611 0.91767234 -6.0261188 0.49310574
0000f0 fe 81 08 c0 e7 49 de bf 0f 91 7b bf 99 ac 3b c0
       -2.132934 -1.7366303 -0.98268217 -2.9324095
000100 77 3e af c0 91 e7 38 c0 86 77 93 be d4 c9 de 3f
       -5.476375 -2.8891337 -0.28802127 1.7405343
000110 41 02 89 c0 26 10 a1 c0 11 86 9a c0 e5 0f dd c0
       -4.281525 -5.0332212 -4.8288655 -6.9081903
000120 9c 42 47 c0 b8 3d b9 bf 23 84 79 bf 4e be a1 40
       -3.1134405 -1.447196 -0.9746725 5.0544806
000130 f2 0f 2c 40 58 a4 9f c0 56 8c f4 40 78 31 b2 bf
       2.6884732 -4.9888115 7.642131 -1.3921347
000140 69 51 f1 c0 7a 0d 80 c0 8e 86 0d 3e 46 60 2a c0
       -7.541188 -4.001645 0.1382086 -2.662126
000150 8b 8d 74 c0 f1 a8 ca bf 81 12 61 c0 99 fb 6f bf
       -3.821139 -1.5832807 -3.5167544 -0.9374328
000160 15 94 38 40 6d 23 fe 3f 02 86 38 c0 e2 bb 7c bf
       2.8840382 1.9854561 -2.8831792 -0.98724186
000170 f0 c2 2e c0 84 8a 03 c0 80 a5 ab c0 2c 1b 99 40
       -2.730648 -2.0553293 -5.3639526 4.784567
000180 86 8a 41 c0 e6 7a 6a 40 45 1d 40 c0 02 44 81 bf
       -3.0240798 3.6637511 -3.0017865 -1.0098879
000190 67 51 24 c0 cd c3 0a c0 91 78 35 bf 14 cd f7 bf
       -2.5674684 -2.1682007 -0.70887095 -1.935946
0001a0 bd 9d 70 c0 81 a9 64 c0 1a fc 68 c0 f9 08 d0 c0
       -3.7596276 -3.5728457 -3.640387 -6.5010953
0001b0 95 de 37 bf 68 9a c5 c0 06 20 4a c0 9e 53 f3 c0
       -0.7182401 -6.1750984 -3.1582046 -7.603957
0001c0 36 ea 9e bf cd 21 dd 40 29 a1 3d c0 8f 2b d8 bf
       -1.2415226 6.910376 -2.9629614 -1.6888293
0001d0 7c 89 1a c1 9e 5d 78 3f d2 45 45 c0 eb cc 31 40
       -9.6585655 0.9701785 -3.0823865 2.7781322
0001e0 da 86 aa be 39 d0 5b c0 66 31 78 3e 6e 11 47 3e
       -0.3330601 -3.434584 0.24237594 0.19440243
0001f0 a3 f5 2b c0 75 4a 1c c0 f4 dc 94 c0 b3 01 bf bf
       -2.6868675 -2.4420445 -4.651972 -1.4922394
000200 4f ba 13 3e 94 9d 41 c0 3b 15 b5 c0 bc f2 ad c0
       0.1442654 -3.0252428 -5.6588416 -5.4358807
000210 43 4b e4 3f 98 c8 11 c0 e5 bd 57 c0 82 c4 9a c0
       1.7835468 -2.2778683 -3.3709652 -4.836488
000220 03 fe 25 41 7a 56 e5 be c1 16 a4 bf 33 75 38 3e
       10.374515 -0.4479254 -1.2819444 0.18013458
000230 68 5e 23 c0 e2 e1 8d 40 f2 6b 44 c0 81 15 16 c1
       -2.552637 4.4338236 -3.0690885 -9.38025
000240 32 66 45 3d 05 83 25 bf 04 7e 12 c0 c2 7b cc c0
       0.048193164 -0.64653045 -2.2889414 -6.390107
000250 73 ea fa 3f 43 98 95 c0 1e ae 64 40 63 e7 89 40
       1.9602798 -4.6748366 3.5731273 4.3094954
000260 ad 95 1e 40 ae 7d cc bf cc 9d 34 c0 b8 10 b1 c0
       2.4778855 -1.5975854 -2.8221312 -5.533291
000270 50 5f 9d c0 bd 9e e1 bf e8 3b 10 c0 42 80 da c0
       -4.917885 -1.7626568 -2.2536564 -6.8281565
000280 90 70 53 c0 17 21 55 c0 59 05 32 c0 2e 30 25 c0
       -3.3037453 -3.3301446 -2.7815764 -2.5810657
000290 c6 d6 f3 c0 74 0e cf bf 90 69 ef bf ad 73 b3 c0
       -7.6199675 -1.6176286 -1.870409 -5.6078706
0002a0 2f 2a d6 3d 9a 68 a8 c0 70 1f 57 c0 69 9a be c0
       0.10457265 -5.2627687 -3.3612938 -5.956349
0002b0 fd c3 a6 c0 0a 58 56 c0 ee 87 04 be f8 c8 c7 c0
       -5.2114244 -3.3491235 -0.12942478 -6.2432823
0002c0 c6 96 00 c0 59 75 e2 c0 ab ad 75 c0 16 be 43 c0
       -2.0092025 -7.0768247 -3.8387249 -3.058477
0002d0 70 5c c9 c0 55 fb 69 c0 48 4b b4 40 1a b4 0d 3e
       -6.292534 -3.655965 5.6341896 0.13838235
0002e0 ff 84 88 c0 30 57 2f 3f 0d ef c7 bf fd 65 4e 3f
       -4.266235 0.6849241 -1.5619828 0.8062437
0002f0 e3 09 0f 40 5e 4a 5b 40 61 e3 b0 c0 f1 d8 4e c0
       2.2349784 3.426414 -5.527756 -3.231991
000300 36 31 62 c0 35 34 c2 bf 44 b3 1e 3f d0 12 88 c0
       -3.5342536 -1.5172182 0.6199229 -4.2522964
000310 54 e9 89 3e 78 ca 9c c0 65 b0 73 bf fb 08 0b c1
       0.26935828 -4.8997154 -0.9519103 -8.6896925
000320 fa f1 84 c0 54 30 04 c0 f8 77 aa bf e3 64 87 bd
       -4.154538 -2.0654497 -1.3317862 -0.066110395
000330 c3 b8 64 c0 23 9a b6 40 be 15 a6 c0 df c1 81 c0
       -3.573777 5.7063155 -5.190154 -4.054916
000340 14 6a df bf d7 a2 0f c0 c6 20 56 c0 0d 68 23 c0
       -1.7454247 -2.244314 -3.3457503 -2.5532258
000350 1d 72 64 c0 6c 50 27 3f b0 f4 e9 bf d2 b1 bd c0
       -3.569465 0.6535709 -1.8277798 -5.9279566
000360 73 a2 f0 bf 75 9f c0 40 0b 76 94 c0 c8 4d 8c c0
       -1.8799576 6.019465 -4.6394095 -4.384495
000370 46 8c f2 40 83 53 79 bf 5e a4 95 bf 56 52 48 be
       7.579623 -0.97393054 -1.1690786 -0.19562659
000380 92 b3 42 3f 93 9b 95 c0 d3 32 42 c0 a4 04 ee bf
       0.7605525 -4.675241 -3.034352 -1.8595166
000390 66 fd 03 c0 0d 1d 0e c0 46 fb e2 c0 34 7a 7f 40
       -2.0623412 -2.220523 -7.093173 3.9918337
0003a0 05 22 a7 bf f4 12 3a 40 45 8b 0d be 04 e6 dd bf
       -1.3057257 2.9074068 -0.13822658 -1.733582
0003b0 d5 98 a8 3f 68 1e d8 c0 67 a7 06 c0 b7 39 1f bf
       1.3171641 -6.7537117 -2.1039674 -0.6219744
0003c0 b7 c1 06 3d 80 00 65 c0 d1 41 17 40 df 4b e3 c0
       0.032899585 -3.5781555 2.363392 -7.1030116
0003d0 8e 16 10 3f 73 d4 02 c1 23 c0 26 c0 b4 be 96 c0
       0.56284416 -8.1768675 -2.605477 -4.710779
0003e0 11 99 32 41 91 8c 9d c0 f2 4e 32 c0 5f 12 ed c0
       11.16237 -4.923409 -2.7860684 -7.4084926
0003f0 21 78 7b c0 31 46 8d c0 93 42 0d c0 a0 c1 0e c1
       -3.929207 -4.4148183 -2.2071884 -8.922272

fc2.weight f4 [300, 400]
000000 df c7 3b 3f b4 d1 77 3f 92 a2 dc 3f f8 71 26 3f
       0.73351854 0.96804357 1.7237113 0.6501765
000010 3e 54 94 3f cd 1a 66 3e 0a dc 30 be 8d 6c b0 3f
       1.1588209 0.22471161 -0.17271438 1.3783127
000020 8c f8 c0 3f 1b 6a a0 3f 79 0b 96 3d 37 59 9b 3f
       1.507585 1.2532381 0.07326407 1.2136601
000030 61 3d 5c 3f 6a a4 41 3e 50 43 64 3f 7c 67 b8 3f
       0.86031157 0.18910375 0.8916521 1.4406581
000040 2f b4 21 3f bd 6b 63 3f 49 bb 9e bd ea 45 0a 3f
       0.63165563 0.8883627 -0.077505656 0.5401293
000050 6b 04 c6 3f 1f 3a fd 3e 59 cc 63 3e 33 e4 5f 3e
       1.5470098 0.49458405 0.22245921 0.21864395
000060 db 1c 6a 3f fc 89 85 3d f7 ee f3 be 9c 6f 8e 3f
       0.9145028 0.06520459 -0.47643253 1.112781
000070 c5 ed 77 3f d4 8c cb 3f cd 71 89 bf 66 4b 2c bd
       0.9684718 1.5902352 -1.0737854 -0.042064093
000080 14 8e 8f 3d c4 5c 25 3f c6 b8 f7 3f a7 7e 45 3f
       0.07009521 0.64594674 1.9353263 0.7714638
000090 99 cb d0 3e 53 51 0b 40 fd 5f d9 3f 3e 10 a5 3f
       0.40780333 2.1768386 1.6982418 1.2895582
0000a0 c5 01 8a 3f ab d7 cc 3e 4b 9a 5c 3f dc 10 26 3f
       1.078179 0.40008292 0.8617293 0.64869475
0000b0 f5 bc 45 be c9 1b 49 3f 6e 00 8c 3f b1 52 6a 3f
       -0.19310363 0.7855802 1.0937631 0.9153243
0000c0 0c 17 9e 3e 6c 03 c2 3f 86 17 9c 3f 62 3b 86 3f
       0.30876958 1.5157294 1.2194679 1.0486872
0000d0 dd 0a 68 3f 39 a6 2e 3f c7 2d be 3f ba 16 7e 3f
       0.90641576 0.68222386 1.485772 0.9925343
0000e0 74 ca a9 bf 65 38 48 3f 23 7d c5 3e b9 94 aa 3f
       -1.3264909 0.7821105 0.38572034 1.3326637
0000f0 0b 2e 0e bf b9 5c 94 3f ea 1d 8d bd 8f 90 03 3f
       -0.55539006 1.1590797 -0.06890471 0.51392454
000100 17 c2 4a 3e 63 38 18 3f 23 62 4b 3f 20 1d 2f 3f
       0.19800602 0.5946104 0.7944662 0.68403816
000110 ce e4 9c 3e 93 0a 73 3f 14 67 75 3e db 2b 16 be
       0.30643314 0.9493801 0.23965102 -0.14665167
000120 57 c1 b4 bb 0c 88 13 3f b1 70 69 3f 7d 5c 46 3f
       -0.005516212 0.57629466 0.9118758 0.77484876
000130 5d 11 92 3e f9 20 03 bc 30 db b9 3f 92 b3 3e 3f
       0.28528872 -0.008003467 1.4520016 0.7449275
000140 7c 5e 50 3d 8c cd f6 3e e3 51 0b 3f 4c 37 f8 3f
       0.050871357 0.48203695 0.54421824 1.9391875
000150 01 14 bb 3e 47 dc 2b bf 6d 6a e1 3f 45 53 48 3e
       0.365387 -0.6713299 1.7610604 0.19563015
000160 f8 6c 91 3f 4a 40 c0 3f c9 fd ec 3e 58 29 13 3f
       1.136138 1.501962 0.46287373 0.5748496
000170 e3 22 8c 3f df d4 0d 3f d3 58 6b 3e 42 7e b6 3e
       1.0948147 0.5540294 0.22983103 0.35643202
000180 68 37 09 3f 66 06 92 3f d3 2e 2f be 75 8c 65 3f
       0.5360017 1.1408203 -0.17107706 0.89667445
000190 d9 95 7f 3f 40 91 c4 be db a9 3f 3f 56 d5 71 3f
       0.99838024 -0.38392067 0.74868554 0.9446615
0001a0 4a 68 7f 3f 80 30 1f 3f 27 25 d0 3f ca 8b ee 3f
       0.9976851 0.6218338 1.6261338 1.863641
0001b0 1e 10 78 3f 2e c1 2c be ad d1 39 3f d1 08 4e 3e
       0.9689959 -0.16870567 0.72585565 0.2012055
0001c0 7f 97 53 3f d0 2e cb 3f 75 cc d3 bd 1f 00 1a bf
       0.8265304 1.5873661 -0.103417315 -0.60156435
0001d0 95 c2 16 3f ac 0a 95 3f b4 68 60 3f 5d 7f af 3f
       0.5889066 1.1643882 0.87659764 1.3710743
0001e0 f9 47 04 3e 13 12 ef 3e 1d 29 ee 3a a9 eb e8 3e
       0.1291808 0.46693477 0.0018170212 0.45492294
0001f0 56 b5 83 3f 76 ca 00 3f 2a c9 1a 3f 77 ca 25 3e
       1.0289714 0.5030893 0.604632 0.16190515
000200 ac 90 59 3f 4a b9 12 bf 7e 84 ad be 47 3f 1b 3f
       0.84986377 -0.5731398 -0.33890146 0.6064343
000210 f4 15 84 3f 21 ac 0d 40 b1 36 4f bf 70 78 73 3f
       1.03192 2.213631 -0.8094283 0.9510565
000220 4b 2a d5 3f 21 5a b4 3f 7b c8 d5 3f 15 aa af 3f
       1.6653532 1.4090005 1.6701807 1.372378
000230 74 fb 6a be 8f 99 82 3f 7b fe 21 3f e8 26 32 3e
       -0.22947484 1.0203112 0.6327893 0.17397654
000240 f6 b8 3d 3e fc 42 85 3f 6c c2 10 3f d7 3f e8 bc
       0.18527588 1.0411067 0.56546664 -0.028350754
000250 1e 54 cb 3e a2 f5 aa 3f 2d 87 dc 3f 3f 57 2d 3e
       0.39712614 1.3356211 1.7228752 0.16927813
000260 78 f4 00 3f 15 6f 14 bf bb 16 33 3f 94 a2 df 3e
       0.5037303 -0.57982 0.6995656 0.43678725
000270 84 dd b3 be db 55 53 be aa 53 bd 3f aa f3 63 be
       -0.3512994 -0.2063822 1.4791157 -0.22260919
000280 9b 55 9b be 8d f7 44 3f 63 b9 2a 3f 14 fe d7 be
       -0.3033875 0.7694023 0.6668913 -0.42186034
000290 05 3f 6e be 2e 75 22 3f 83 87 dc 3e c3 4d d8 3d
       -0.23266228 0.6346005 0.43072137 0.10561707
0002a0 bd 75 b4 3f 79 9b fa 3e a0 57 e0 3d bd a1 69 3f
       1.4098431 0.4894674 0.10954213 0.9126242
0002b0 34 3b 98 bc d0 1c 98 be 1b 23 ec 3f 59 91 c9 bd
       -0.018582918 -0.29709482 1.8448213 -0.09842176
0002c0 d1 13 9f 3f b2 9c 8b 3e c3 99 d7 be 14 c8 87 3f
       1.2427922 0.27267987 -0.42109498 1.0607934
0002d0 7f bd 2d bf 53 63 b5 3e 9e 8d eb 3f 18 96 85 bf
       -0.67867273 0.3542734 1.8402593 -1.043643
0002e0 9a 81 34 3e 75 21 d3 3f b0 f8 37 3e 50 c2 c5 3e
       0.17627564 1.6494585 0.1796596 0.3862481
0002f0 da cc 08 40 e3 a5 ae 3f ef 4a 09 3f d7 d5 96 3f
       2.1375031 1.3644375 0.53629965 1.1784009
000300 f7 97 91 3f 97 0b 5e 3e 29 35 0d 3f f5 0a 67 be
       1.1374501 0.21684109 0.5515924 -0.22562774
000310 ed 1a e3 be fd d2 7f 3f 7b d3 f7 3f a5 e8 09 3d
       -0.4435648 0.9993132 1.9361414 0.033669133
000320 9a e5 31 3e bf 89 01 3e 15 6e 6a 3f 96 ec 92 3f
       0.17372742 0.12650202 0.9157422 1.147845
000330 b6 2f aa be 07 35 9f 3f 6b 51 b4 be 93 97 8a be
       -0.33239526 1.2438058 -0.35218367 -0.27068767
000340 a5 46 12 3f b2 71 ea 3d f3 b9 9d 3e dd cd 7e 3e
       0.57139045 0.11447467 0.3080593 0.24883218
000350 9b 8f 87 3d e3 1f 58 3d 94 7f a3 3e f0 1d a6 bd
       0.066191874 0.052764785 0.31933272 -0.08111179
000360 09 e5 f8 3e 6a 73 b9 3f f1 02 b0 3e 91 86 86 3e
       0.4861224 1.4488347 0.34377244 0.2627454
000370 b4 b0 5d 3f 1c 89 e1 3e db 82 c4 3f d6 11 b8 3e
       0.8659775 0.4404992 1.5352434 0.35951108
000380 60 e5 3e be 73 de 44 bf b2 9b 61 3e 11 9a d2 3f
       -0.18642187 -0.7690193 0.2203205 1.6453267
000390 c0 78 8c 3e e1 fb a2 3e 3a c3 d6 3d 5d 1d 15 3f
       0.27435875 0.31832793 0.10486455 0.5824793
0003a0 23 17 50 3f a9 ec 59 3f ae 25 08 bf 14 73 5e 3f
       0.81285304 0.8512674 -0.53182495 0.86894345
0003b0 f0 4a 7e 3f 8c 93 56 bf 08 fd 2f 3f 0f 6f 16 be
       0.99333096 -0.8381889 0.6874547 -0.14690803
0003c0 ae 1b 81 3f 94 62 b7 3f 66 e1 b2 3f 56 b4 e2 3e
       1.0086572 1.4326959 1.3975036 0.4427821
0003d0 a1 db 65 3f b9 c1 ee 3d 68 b1 ab 3e 71 4f 84 3f
       0.8978825 0.116580434 0.33533788 1.0336744
0003e0 91 0c ee 3f 51 c3 76 bd b4 ac 4b 3e e1 7f 8e 3f
       1.8597585 -0.060244862 0.198901 1.1132776
0003f0 ff b9 a9 be ee 3f b1 3f 60 23 67 3f 7f b7 3a bd
       -0.33149716 1.3847635 0.9028835 -0.04558515

fc2.bias f4 [300]
000000 7b a2 96 3f 66 1e ed 3f 12 23 f5 3f 0b 0b c3 3f
       1.1768335 1.8524902 1.9151328 1.5237745
000010 fb b1 be 3f 49 71 b6 3f fc 22 b4 3f d6 cb 1d 40
       1.4898065 1.4253322 1.4073176 2.4655662
000020 51 98 ea 3f 33 fd 0f 40 f5 35 01 40 6a 96 a5 3f
       1.8327733 2.249829 2.0189183 1.2936528
000030 b9 db f2 3f 1e a0 b2 3f 66 9d ea 3f d8 e8 8c 3f
       1.8973304 1.3955114 1.8329284 1.1008558
000040 d5 cb a1 3f b7 c9 d4 3f 67 85 ee 3f 80 da d5 3f
       1.264033 1.6624058 1.8634461 1.6707306
000050 2e 28 eb 3f 5b 28 e3 3f 76 5f d5 3f 6a 08 dc 3f
       1.8371637 1.774669 1.6669757 1.7190068
000060 90 20 e5 3f a1 6e c5 3f 73 2f 99 3f 3d 50 d1 3f
       1.7900562 1.5424386 1.1967605 1.6352612
000070 66 de e5 3f bc 1d 66 3f de f7 d8 3f d0 26 36 40
       1.7958496 0.8988912 1.6950643 2.846119
000080 a6 e8 fa 3f 2d 52 a8 3f 3f 20 ae 3f 17 50 b3 3f
       1.9602249 1.3150078 1.3603591 1.4008816
000090 aa b8 e7 3f 5c 7b ef 3f f3 1d 84 3f 82 5f e6 3f
       1.810323 1.8709521 1.032164 1.7997897
0000a0 99 81 b0 3f a9 75 9e 3f 80 a9 c5 3f 1b 48 b3 3f
       1.378955 1.2379657 1.5442352 1.400638
0000b0 d5 0a bb 3f 6a f6 f0 3f d2 58 c5 3f 66 8e c5 3f
       1.4612681 1.88252 1.5417731 1.5434082
0000c0 e8 d2 f8 3f 3b 44 bc 3f d2 47 20 40 ae cb c3 3f
       1.9439363 1.4708322 2.5043836 1.5296533
0000d0 09 57 c7 3f bb de b1 3f b2 87 df 3f 80 28 f2 3f
       1.5573436 1.3896097 1.7463286 1.891861
0000e0 8d b4 ca 3f a7 aa ca 3f 94 3c c5 3f 4d 0c be 3f
       1.583635 1.5833329 1.5409112 1.4847504
0000f0 17 2b b0 3f 9c 5b f8 3f 8c 5a 06 40 08 25 e5 3f
       1.376315 1.9402957 2.0992765 1.7901926
000100 f0 b5 e8 3f 01 17 cb 3f 09 cb d7 3f f3 29 1b 40
       1.8180523 1.5866395 1.6858836 2.4244354
000110 24 7c c6 3f 44 57 a2 3f 27 a3 ee 3f 4a 06 b7 3f
       1.5506635 1.2682881 1.864354 1.4298794
000120 56 69 b5 3f 50 15 c8 3f 02 a3 e7 3f 50 be cb 3f
       1.4172771 1.5631504 1.8096621 1.5917454
000130 e9 34 a4 3f 69 98 9f 3f b6 8b eb 3f 6d d5 d9 3f
       1.2828647 1.2468387 1.8402011 1.7018257
000140 f8 a0 d5 3f 78 53 c1 3f 34 cf d6 3f 2f cd ba 3f
       1.6689749 1.5103598 1.6781983 1.4593867
000150 70 d4 88 3f b6 bb c4 3f 4f b3 a7 3f 0a fa ac 3f
       1.0689831 1.5369785 1.3101596 1.3513806
000160 34 e4 53 3f 0b 80 eb 3f e3 88 e7 3f 0d fc d2 3f
       0.82770085 1.8398451 1.808865 1.648317
000170 24 9b bb 3f 59 d4 83 3f 1e f7 bf 3f 36 64 ff 3f
       1.465672 1.0299178 1.4997289 1.9952457
000180 8d 2d 03 40 0a f2 d4 3f 51 6a bb 3f ce 84 c4 3f
       2.0496552 1.6636364 1.464182 1.5353029
000190 70 69 d0 3f ce ec 14 40 7c 33 4c 40 3b da fe 3f
       1.6282177 2.3269534 3.1906424 1.9910349
0001a0 12 07 e3 3f 72 af 98 3f 0a 60 c1 3f b8 ff db 3f
       1.7736533 1.1928542 1.5107434 1.7187414
0001b0 eb ac cb 3f 0b 14 dc 3f 5d 6c b2 3f 6a f9 b2 3f
       1.5912145 1.7193617 1.393932 1.3982365
0001c0 fb d8 a0 3f d5 59 ed 3f c8 d9 bd 3f 12 8d d1 3f
       1.2566217 1.854304 1.4832087 1.6371176
0001d0 51 18 bc 3f 3e c6 7e 3f eb 26 d4 3f 6e 89 de 3f
       1.4694921 0.99521244 1.6574377 1.738569
0001e0 23 fe d6 3f 15 da a3 3f a2 d8 c7 3f 92 a6 bd 3f
       1.6796306 1.2800928 1.5612986 1.4816458
0001f0 24 0f a8 3f 07 c9 cf 3f f7 87 bf 3f 58 df bb 3f
       1.312962 1.6233224 1.4963368 1.4677534
000200 31 71 ca 3f b6 30 bf 3f c0 31 ae 3f bc bb c2 3f
       1.5815793 1.493674 1.3608932 1.5213542
000210 e9 5c ca 3f 55 75 83 3f ba 0c 84 3f 9f 84 71 3f
       1.5809604 1.0270182 1.0316384 0.9434299
000220 4b fc a5 3f 11 51 ca 3f d9 44 01 40 26 4e dc 3f
       1.2967619 1.580599 2.0198271 1.7211349
000230 96 ac b2 3f c0 06 e4 3f 41 e7 1e 40 45 c6 c7 3f
       1.3958919 1.781456 2.4828646 1.5607382
000240 0e 84 b4 3f 6a ad cf 3f 00 b9 da 3f 38 d8 89 3f
       1.41028 1.6224797 1.7087708 1.076911
000250 9e 9b b4 3f ad 14 d1 3f ea 8b 1a 40 b4 a6 e7 3f
       1.4109991 1.6334435 2.4147897 1.8097749
000260 46 b2 9c 3f a7 fd fa 3f 96 64 d5 3f f0 16 a6 3f
       1.2241905 1.9608659 1.6671321 1.297575
000270 be d0 ed 3f 4d 0f e2 3f 20 f9 03 40 4a cf 98 3f
       1.8579328 1.766092 2.0620804 1.193826
000280 08 4f f9 3f 17 f0 dd 3f e4 09 e3 3f 70 f4 f6 3f
       1.9477243 1.7338895 1.7737393 1.9293346
000290 b9 af df 3f b8 c1 d0 3f f5 b4 90 3f 47 1c 06 40
       1.7475501 1.6309118 1.1305224 2.095476
0002a0 ef a9 e1 3f bb e2 bc 3f 6b 28 05 40 39 e0 b7 3f
       1.7629985 1.4756693 2.080592 1.4365302
0002b0 d1 12 c7 3f 13 cf b6 3f d3 5f 87 3f 53 55 f0 3f
       1.5552617 1.4281944 1.0576118 1.8776039
0002c0 89 55 cf 3f 49 b5 0b 40 4d 76 a4 3f ac 6e d3 3f
       1.6197978 2.1829398 1.2848603 1.6518149
0002d0 79 51 b0 3f 49 b5 b4 3f 6c 37 f8 3f 48 09 c6 3f
       1.3774863 1.4117824 1.9391913 1.5471582
0002e0 9d cb d5 3f 12 11 02 40 38 4c f4 3f e2 7f a9 3f
       1.6702763 2.032292 1.908576 1.3242152
0002f0 de 3b fa 3f 03 ba d5 3f c7 c3 b3 3f 62 21 ae 3f
       1.954952 1.6697391 1.4044122 1.3603938
000300 3e 6e da 3f 61 b7 ad 3f 1b d0 30 40 5f 49 9c 3f
       1.7064893 1.3571588 2.7627017 1.2209891
000310 ed ad a1 3f 63 38 98 3f f0 92 d9 3f 95 34 f1 3f
       1.2631203 1.1892208 1.6997967 1.8844172
000320 31 bc b0 3f 82 22 8b 3f 42 13 d7 3f d4 ed 8c 3f
       1.3807431 1.0869906 1.6802752 1.1010079
000330 a7 bc a8 3f 71 60 e0 3f be d9 eb 3f aa 4a d0 3f
       1.3182572 1.7529432 1.8425825 1.6272786
000340 6b cf f3 3f b2 f6 a3 3f d4 c9 8e 3f 33 59 b9 3f
       1.9047674 1.280966 1.1155343 1.4480346
000350 1f 54 df 3f 75 4a fe 3f 3b b1 ed 3f f8 e5 e2 3f
       1.7447547 1.9866472 1.8569711 1.7726431
000360 99 fb aa 3f d2 cc 9d 3f b8 62 b6 3f 13 7c f9 3f
       1.3358032 1.2328131 1.4248877 1.949099
000370 be cf ac 3f 8e 67 fc 3f 0f 09 c9 3f 01 b9 b0 3f
       1.3500898 1.9719102 1.570589 1.3806459
000380 11 76 e4 3f 01 60 d6 3f 6d b7 cf 3f f6 80 88 3f
       1.7848531 1.6748048 1.6227852 1.0664356
000390 cc f2 b8 3f 52 4b ab 3f 19 b9 18 40 36 86 8e 3f
       1.4449096 1.3382361 2.3862975 1.1134708
0003a0 0a cc 0c 40 46 92 e0 3f a5 4a 9c 3f 15 dc c5 3f
       2.1999536 1.7544639 1.221028 1.5457789
0003b0 5a c7 b6 3f 12 4e f5 3f ee df a6 3f cc ec c2 3f
       1.4279587 1.916445 1.3037088 1.5228515
0003c0 da 16 95 3f 45 c1 be 3f db a8 08 40 3a 78 d8 3f
       1.1647599 1.4902731 2.1353061 1.691169
0003d0 97 fc f2 3f 00 76 cc 3f cb e6 de 3f 27 8d 02 40
       1.8983334 1.5973511 1.7414182 2.0398653
0003e0 d6 b5 ce 3f 41 cf 8b 3f 1a e7 ba 3f 73 ad d7 3f
       1.6149242 1.0922624 1.4601777 1.6849808
0003f0 b1 7a c6 3f 2b 22 da 3f e8 fa df 3f 23 9a eb 3f
       1.5506192 1.7041677 1.7498446 1.8406414

bn1.weight f4 [400]
000000 29 eb 6f 40 8f 4d c0 3f 53 09 82 40 d7 c2 b9 40
       3.748728 1.5023669 4.063638 5.805034
000010 b0 f3 17 40 4d 71 5c 40 ba d0 b2 3f c2 47 1e 40
       2.3742485 3.4444153 1.3969948 2.4731297
000020 df 66 ae 40 ce 84 8a 3f d7 d0 97 3f 63 49 9b 3f
       5.4500575 1.0821779 1.1860608 1.2131771
000030 df f1 13 40 ea 5b dc 3e 33 41 a9 3f eb 46 e5 3f
       2.3116376 0.43038875 1.3223022 1.7912267
000040 f3 7d 96 40 4b a3 52 40 b6 5e f9 3d 77 d4 d2 3f
       4.7028747 3.2912166 0.12176268 1.6471089
000050 a4 87 37 40 37 29 31 3f c5 9d ba 3f 64 06 3c 40
       2.8676538 0.69203514 1.4579397 2.93789
000060 a4 57 38 40 36 58 53 3e cd 1f 57 40 15 7c b9 3f
       2.8803492 0.20639119 3.361316 1.4490992
000070 e7 6a 92 40 c6 fe 7c 40 1a 6b 48 40 f5 d4 dd 3f
       4.5755496 3.9530501 3.131537 1.7330614
000080 c2 a9 2f 40 0c 3a 26 40 b4 43 84 40 a8 4e 9f 3f
       2.7447362 2.597293 4.1332645 1.2445879
000090 bc 09 d3 3f a5 11 ad 40 35 13 ab 40 dc e9 9c 3f
       1.6487346 5.408404 5.3460946 1.2258868
0000a0 8c 66 07 3f c9 d8 a5 40 6b 0c 20 40 98 79 f9 3f
       0.5289085 5.182713 2.500758 1.9490232
0000b0 a7 e4 93 40 23 16 99 3f 62 0c 7f 40 f6 5a 94 3f
       4.6216617 1.195988 3.9851308 1.1590259
0000c0 7d b7 0d 40 7a ac 9b 3f 37 74 f4 3f 70 94 07 3f
       2.2143242 1.2162011 1.9097966 0.5296087
0000d0 26 c6 cf 3f f3 76 71 40 97 e5 5d 40 eb 60 9f 3f
       1.6232345 3.772885 3.467138 1.2451452
0000e0 4f 3d ee 3f 7d 76 06 40 33 1f 5c 40 48 75 37 40
       1.861246 2.100982 3.4394042 2.8665333
0000f0 43 f0 c0 3f e3 bd 9b 3f 6a 63 ae 3f 0d 40 a9 3f
       1.5073322 1.2167324 1.3624089 1.3222672
000100 86 d6 25 3f ec 88 74 40 40 d5 ec 3f 12 50 87 40
       0.6478046 3.820857 1.8502579 4.228524
000110 ee ac 0b 40 77 b8 8e 3f 5b 3e df 3e 30 4a 72 3e
       2.1824298 1.1150044 0.4360226 0.23661113
000120 41 9c 8c 3f c1 4b 7d 40 ae 75 ee 3f 82 0c 49 40
       1.0985185 3.9577487 1.8629663 3.1413884
000130 2f 9f 3c 40 f7 83 d9 3f 12 0d f7 3f 1f 8c d3 3f
       2.9472158 1.6993397 1.9300864 1.6527137
000140 3a 1e 6b 3e 39 49 b3 3f 46 59 af 40 05 38 a1 40
       0.2296075 1.4006721 5.4796476 5.0380883
000150 e0 d9 b4 3f db 3c 98 3f 64 af 1a 40 14 07 0b 40
       1.412899 1.1893572 2.416955 2.172307
000160 5a 6b 78 40 5d ca 07 40 87 c5 b7 3f 0a d0 fa 3f
       3.8815522 2.1217263 1.4357156 1.9594738
000170 b7 3f d8 3f 08 80 58 3f c6 32 19 3f f2 dd 3e 40
       1.6894444 0.8457036 0.598431 2.9822965
000180 2c b5 19 3f 75 17 77 40 3c 8f f9 3f 07 20 4c 40
       0.6004207 3.8608067 1.9496837 3.1894548
000190 45 53 04 40 4b 7f c6 3f 5d 23 06 40 40 94 45 40
       2.0675824 1.5507597 2.0959084 3.0871735
0001a0 e0 5f ff 3f e7 24 4d 40 2c 88 e5 3f a6 17 59 3f
       1.9951134 3.2053773 1.7932181 0.8480171
0001b0 db 09 91 3f ce e8 6f 3e e2 38 55 40 b2 ee 7d 3e
       1.1331133 0.23428652 3.3315969 0.24798086
0001c0 e3 9a 40 3f e7 ec 67 40 14 ad 49 3f 6f 9b 61 40
       0.7523634 3.6238344 0.7877972 3.525112
0001d0 bd ac 2b 40 3c 4c 44 3f 97 4e dc 3f 00 88 76 40
       2.682418 0.76678824 1.7211484 3.8520508
0001e0 c6 3e cd 3f a0 8d 96 3f 58 d8 88 40 2c a1 e7 3f
       1.6034782 1.176197 4.276409 1.8096061
0001f0 20 75 32 3f 2d a5 87 40 67 1f 56 40 a5 5c 8a 40
       0.6970997 4.238913 3.3456666 4.323809
000200 88 ba 49 40 67 83 94 40 cd 68 bf 3e 36 5b 40 3f
       3.15201 4.6410403 0.37384644 0.75139177
000210 9a ca 30 40 aa 5c bf 3f f8 a9 09 40 73 5d a4 3f
       2.7623658 1.4950154 2.150999 1.2841018
000220 4a 72 86 40 d5 f0 f8 3f c4 aa d5 3f 3d 44 80 3f
       4.2014513 1.9448496 1.6692739 1.0020825
000230 67 54 b4 3f 92 23 4c 3e 3f 2d 90 3f 73 30 87 40
       1.4088258 0.19935444 1.1263808 4.224664
000240 9e 4e bd 3f 1d d1 d3 3f bc 34 e8 3f 14 fa e3 3e
       1.4789617 1.6548191 1.8141093 0.44526732
000250 54 f1 83 40 4f 33 18 3f ed 3b 53 40 27 2b 99 40
       4.123209 0.5945329 3.3005326 4.7865176
000260 cd a4 c1 40 08 0b 84 40 b8 a3 a4 3f f8 99 09 40
       6.0513673 4.1263466 1.2862463 2.1500225
000270 78 0f 3a 3f 31 6b 24 40 b9 c7 90 3f 67 1f a9 3e
       0.72679853 2.5690424 1.131095 0.3303177
000280 82 54 1e 40 0b 9d 49 40 a6 5c 21 40 b0 30 b4 3f
       2.473908 3.1502101 2.5212798 1.4077358
000290 21 0c 7d 3e 8a ac c9 3f 1b fd 03 40 ca d7 32 3e
       0.24711658 1.575578 2.0623233 0.1746513
0002a0 4f bd c0 3f da ff 0c 3f c8 45 d6 3f 5e ae 07 40
       1.5057772 0.550779 1.6740046 2.1200175
0002b0 4b 3d 97 3d 3e ff 81 3f b0 28 5c 40 e4 18 93 3f
       0.073847376 1.0156019 3.4399834 1.1491971
0002c0 94 81 1b 40 70 78 93 3e d9 89 cf 3f 28 35 90 3f
       2.4297838 0.28802824 1.6213943 1.1266222
0002d0 92 5e 30 3f 70 a1 db 3f 14 77 14 40 f4 1c 5a 40
       0.688943 1.7158642 2.319768 3.4080172
0002e0 96 42 9e 3f 0c 48 d4 3f cc b4 c7 3f 2d 00 1e 40
       1.236407 1.6584487 1.560205 2.4687607
0002f0 fd f2 01 40 10 27 70 40 26 24 07 3f ca fc e4 3f
       2.0304558 3.7523842 0.52789533 1.7889645
000300 14 a4 47 bc c8 b7 9c 3f af 43 3c 40 4f ee 84 3f
       -0.012185115 1.2243586 2.941631 1.0385226
000310 f3 b2 02 41 67 95 ac 3f 51 9c 7a 3f 47 8d aa 3f
       8.168689 1.3483094 0.9789477 1.3324364
000320 e8 e1 13 3f 98 af bc 3f 8a 91 1f 40 29 46 52 40
       0.5776658 1.4741087 2.493258 3.2855322
000330 95 09 7b 3f d8 4f 4b 40 36 e1 5a 40 21 bd 8e 3f
       0.98061496 3.1767483 3.4199958 1.1151468
000340 2d 3d 0b 40 f9 c9 96 3f 4c d6 bb 40 1c cf 29 40
       2.1756089 1.1780387 5.8699093 2.653266
000350 92 77 60 3f 0f bb a2 3f 37 d0 79 40 72 66 16 3e
       0.8768245 1.2713336 3.9033334 0.14687517
000360 81 e7 20 40 86 84 7d 3f 63 42 2c 3f 9f 04 44 3f
       2.5141299 0.9903034 0.672888 0.7656955
000370 fa cf 5f 40 39 ed 66 40 8e 01 22 40 a4 36 55 40
       3.497069 3.608229 2.531345 3.33146
000380 f1 f9 fb 3f 46 7b 70 3f ca 24 4e 40 ad 35 a2 3f
       1.9685651 0.939381 3.2209954 1.267263
000390 3c 19 58 3f 6a 9b d2 3f 52 a6 8c 3e 96 02 4d 40
       0.84413505 1.6453679 0.27470642 3.2032828
0003a0 11 f4 82 40 a6 e8 09 40 9a 3b c9 3f d6 07 cc 3f
       4.0922933 2.1548247 1.5721314 1.5939891
0003b0 90 63 74 3f e0 ee 33 3f 43 bb 13 40 f2 1d 38 40
       0.9546442 0.7028637 2.3083045 2.8768277
0003c0 40 41 86 3f 46 e0 e5 3f 12 53 66 40 0b 1f 59 40
       1.0488663 1.7959068 3.5988202 3.3925197
0003d0 62 13 22 40 19 93 02 40 56 db 10 40 c4 86 4f 3f
       2.532433 2.0402281 2.2633872 0.8106501
0003e0 0c d0 e5 40 aa 67 ba 3f 84 ac 9e 3f ad 2e d0 3f
       7.1816463 1.4562886 1.2396398 1.6264244
0003f0 1e a1 fc 3e 3d fb 80 3f 17 2f 24 40 72 eb 82 40
       0.49341673 1.0076672 2.5653741 4.091241

bn1.bias f4 [400]
000000 01 55 e7 3e 6c fc 1c bc 0d 0e 04 3f 29 25 dd 3d
       0.4518204 -0.009581666 0.5158394 0.10798103
000010 4a 62 fa 3d 98 b3 67 3e ce 06 b3 bd a7 fc 24 be
       0.122257784 0.22627103 -0.08741532 -0.16112004
000020 96 32 0f 3f 16 bd d6 bd 2d ea 8e bf ce 0d d5 3e
       0.55936563 -0.10485284 -1.1165215 0.41612095
000030 5e 16 4b 3e fe d0 41 bf 0a 9b 4b be b5 d7 ed 3e
       0.19832751 -0.7570952 -0.19883361 0.46453634
000040 77 08 cd 3d b9 48 f2 3e 5d 0a 51 bf 32 75 f3 be
       0.1001138 0.47321108 -0.8165644 -0.4755035
000050 72 09 20 3e 2e 22 4a bf 23 e9 15 bf 85 5f 12 bf
       0.15628603 -0.78958404 -0.58558863 -0.57177
000060 82 9c 1c 3e 06 e9 51 bf 90 4f 6a 3c c8 84 93 be
       0.15294078 -0.8199619 0.014301196 -0.28812242
000070 1a 28 0e 3f 9e 6c ae 3e 51 25 73 3e a3 96 cd be
       0.5552994 0.34067243 0.23744704 -0.4015399
000080 4d 82 36 3e e8 63 85 be b9 42 be 3d f3 2d 4a bf
       0.17823143 -0.26052785 0.0929007 -0.7897636
000090 51 2b 7d be 2c 40 55 3e 4d ea c3 3e e6 93 74 bd
       -0.24723555 0.20825261 0.38264695 -0.05971136
0000a0 25 e3 40 bf f6 7e a4 3e 53 e7 a6 be 31 47 17 3e
       -0.75346595 0.32128114 -0.3259836 0.14773251
0000b0 66 df 36 3e 27 5a db 3e cd fa b1 bd ac 9e a7 3c
       0.17858657 0.42842218 -0.086904146 0.020461403
0000c0 f5 40 2e 3d ae bb 30 be e7 5a 1a 3e df 07 fe bd
       0.042542417 -0.17259094 0.15073739 -0.12403845
0000d0 16 ad 18 3e c7 01 d8 be 56 18 6c 3e 99 fe c1 be
       0.14909777 -0.42188856 0.23056158 -0.37889555
0000e0 86 f0 78 be c4 12 0b be b5 73 c2 3d 32 26 af 3e
       -0.24310502 -0.13581377 0.094947256 0.34208828
0000f0 b7 cd 5e 3d 92 b5 e0 be 22 d9 69 be 22 6d f0 3e
       0.054395404 -0.43888527 -0.22836736 0.46958262
000100 d9 e3 fa be 0a 32 82 be f5 12 d1 3e c2 d4 e6 3e
       -0.4900196 -0.25428802 0.40834776 0.45084196
000110 ce 22 0f be 37 40 0f bf 7e be 4e bf a9 e0 55 bf
       -0.1397812 -0.5595736 -0.8075942 -0.8354593
000120 36 a5 22 bf c9 bc 7c be 46 f9 47 3c 05 27 cd 3e
       -0.6353334 -0.24681391 0.0122054275 0.40068832
000130 6f 50 4a 3e d5 1f 2f be 19 ef d3 3e f9 d6 13 bf
       0.19757245 -0.17101987 0.41393355 -0.577499
000140 2e a5 3f bf 61 f3 15 bf ff 6e b7 3e 40 61 07 3e
       -0.7486142 -0.5857449 0.3582687 0.13220692
000150 c2 c9 3c bf 73 78 e7 be a5 bc 1a 3e a5 59 fd 3c
       -0.7374536 -0.45209083 0.15111025 0.030926535
000160 ba ad a4 3e a5 94 70 3e e4 93 84 bf b5 9f d0 3d
       0.32163793 0.23494203 -1.0357633 0.10186712
000170 83 6d be be dd 48 38 bf 36 bd 55 bf 4b 8c 88 3e
       -0.37192926 -0.7198618 -0.8349184 0.26669535
000180 b3 88 31 bf c1 3e c0 bd f8 54 4a bf 31 6f 2d 3e
       -0.6934921 -0.09386969 -0.790359 0.16936947
000190 7b a2 e3 be 38 65 7a bf 87 4d 7c be f5 ce 5b 3d
       -0.444599 -0.978107 -0.2463895 0.053664166
0001a0 17 58 d3 bc 7e 8f f5 3c e5 2d b0 bd 27 6d f3 be
       -0.02579884 0.029975649 -0.08602504 -0.47544214
0001b0 0c 06 b4 be 2a 08 61 bf 56 a8 4c 3e 5c 8d 50 bf
       -0.35160863 -0.8790308 0.1998609 -0.814657
0001c0 35 c0 fa 3c 20 10 be 3e c9 d5 d2 be fe 7e 84 3e
       0.03060923 0.37121677 -0.4117873 0.25878137
0001d0 fb 91 92 3e 46 c7 98 3e d3 86 40 bd fb cd db 3d
       0.28627 0.29839534 -0.04700358 0.10732647
0001e0 68 cb d9 bd d3 88 98 be 32 d1 7c 3e 69 ef a4 be
       -0.106345 -0.2979189 0.24689177 -0.32213905
0001f0 6d 6f 31 bf a9 b7 e9 be 15 e2 bf 3e 9a 7f 84 3e
       -0.6931065 -0.45647934 0.37477174 0.25878602
000200 de 05 fe 3d 4a ad 3e 3d 97 43 4b bf 4d 46 0d bf
       0.12403463 0.04655198 -0.7940001 -0.55185395
000210 7e 5f 41 3d 2b a1 27 3e 0f 0c c0 be ce 3f bf be
       0.04721021 0.16370074 -0.375092 -0.37353367
000220 1d b4 c7 3e 09 78 01 bc b7 02 e6 be df 08 b2 3e
       0.39004603 -0.007902154 -0.44923946 0.34772393
000230 c4 27 d7 be 00 16 39 3e 52 68 88 be 8b e1 58 3e
       -0.42022526 0.18074799 -0.2664209 0.21179788
000240 12 b7 b8 be f0 07 42 3e 12 f8 ac bd 85 72 77 bf
       -0.36077172 0.1894834 -0.08445753 -0.9665912
000250 11 50 86 3e d2 17 f7 be d7 28 dd 3e f7 c8 1c 3e
       0.2623296 -0.4826036 0.4319522 0.15311037
000260 44 08 3d 3e f3 65 26 be 66 ba 00 bf 93 f7 e9 3d
       0.18460184 -0.16249828 -0.5028442 0.11424174
000270 b2 9e 60 bf 4f 8e 41 3e fa 96 d1 bd 89 83 49 bf
       -0.8774215 0.18901943 -0.102338746 -0.7871633
000280 42 bd 61 3e 11 22 29 3e 56 51 52 3e 02 5c 0c be
       0.22044852 0.16516902 0.2053884 -0.13706973
000290 d2 08 4e bf 69 df 35 3e 33 33 67 3d ed d6 63 bf
       -0.8048221 0.17761005 0.05644531 -0.88999826
0002a0 94 2f 20 bf 69 64 22 bf d4 c7 cc bb da 6c 62 3e
       -0.625726 -0.63434464 -0.0062494073 0.22111836
0002b0 8c 5e 6c bf 32 a6 dd be e6 16 4b bd 50 22 db bd
       -0.9233177 -0.4329086 -0.049582385 -0.10699904
0002c0 0a 32 a2 3c 44 59 76 bf 86 68 5c bf 4d d3 0a bf
       0.019799251 -0.9622996 -0.8609699 -0.5422867
0002d0 bc 23 14 bf fe 60 25 3e b6 cf bc 3d df 41 81 3e
       -0.57867026 0.16150281 0.09219305 0.25245568
0002e0 f9 7c 26 bf e7 4f 21 3e db d0 a8 3d 03 40 20 3e
       -0.65034443 0.15753137 0.08242961 0.15649419
0002f0 8f a1 90 bd 3b 59 d9 bd 2a b2 44 bf 51 f0 eb bd
       -0.07062065 -0.106127225 -0.76834357 -0.11520446
000300 a7 0e c0 bc 58 40 41 be 36 28 d7 3e 46 93 19 bf
       -0.023444487 -0.18872201 0.42022866 -0.59990346
000310 ae 08 dd 3e 10 45 f2 be 3d a0 a5 be b9 e3 76 3e
       0.43170685 -0.47318316 -0.32348815 0.24110307
000320 97 c5 53 bf ee e9 8f be d1 ca b4 3e a6 4e de 3d
       -0.82723373 -0.28108162 0.35310987 0.10854845
000330 d2 31 f4 be 4b b8 a9 3e 1d a4 6f be 57 b2 24 bf
       -0.4769426 0.33148417 -0.23402448 -0.64334625
000340 94 78 22 be a4 b5 cd be 97 aa 85 3d a3 3d 40 bf
       -0.1586631 -0.40177643 0.06526678 -0.7509405
000350 e1 25 ee be 4e 59 17 3e 9d d7 30 3d 68 bc 5d bf
       -0.46513274 0.14780161 0.043174375 -0.8661561
000360 4a 2b 35 3d a6 2f 9f 3e b6 4b 2e bf 96 66 ac be
       0.044230737 0.3109104 -0.68084276 -0.33672017
000370 15 8f cf 3e 96 b4 c1 3d 8f 7f 11 3f 8a a5 6e be
       0.4053885 0.09458272 0.56835264 -0.23305336
000380 be cd 47 be 2f 49 7d bf 76 4a 8d bb 90 1a a6 3e
       -0.19512078 -0.98939794 -0.004311855 0.3244214
000390 bd 28 1d bf 20 04 a7 be b9 da 72 bf bb 0d 9b 3e
       -0.61390287 -0.32620335 -0.94864994 0.30283913
0003a0 f6 6b 91 be e0 09 2f 3d f7 1f 46 be 04 cb cd be
       -0.2840268 0.042734027 -0.19348131 -0.4019395
0003b0 98 ab b4 3d 2c e3 19 bf b5 ac b7 be 8c d2 0a 3e
       0.088217914 -0.6011226 -0.35873953 0.1355688
0003c0 d6 37 ef 3d 82 00 c8 3e 02 2f ce 3e e2 57 51 3e
       0.11680572 0.39062887 0.4027024 0.20443681
0003d0 87 25 79 3e 90 d9 41 3c 16 02 cd bb 89 f7 00 bf
       0.24330722 0.011831656 -0.006256352 -0.5037771
0003e0 73 e2 07 3f 19 ac a8 be 69 5b 7b bf 57 22 ef 3e
       0.5307991 -0.329438 -0.98186356 0.46705887
0003f0 33 ac 4a bf 4c e9 6b bf 1e 82 09 bf 23 e7 8d 3d
       -0.79169005 -0.9215286 -0.5371417 0.069288515

bn2.weight f4 [300]
000000 50 62 d8 3f 86 e7 23 3f 1e ae d4 3f 21 b6 60 3e
       1.6905003 0.6402515 1.6615636 0.21944477
000010 60 96 d7 3f 58 70 58 3f aa d0 bc 3f 42 52 29 3e
       1.6842766 0.8454642 1.4751179 0.16535285
000020 2d f9 06 3f 7e 8e d0 3e 3e a3 86 3f c2 8d 29 3f
       0.5272396 0.40733713 1.0518568 0.6623193
000030 69 35 5f 3f ec 2f bb 3f c5 89 23 3f 9b 71 e3 3f
       0.8719087 1.4624 0.63882095 1.7769045
000040 7f 15 a4 3f ee a1 ac 3e fd 8f c4 3f 8b 78 04 3f
       1.281906 0.33717293 1.5356442 0.51746434
000050 e6 cd 0b 40 88 2b 43 3f 94 9c 63 3f 63 39 c6 3e
       2.184442 0.762383 0.88910794 0.38715658
000060 77 cf 5e 3f 0c f3 72 3f ba 62 a5 3f ff 4c fa 3e
       0.87035316 0.9490211 1.2920754 0.48886868
000070 8a 01 03 3f 17 4f 9f 40 96 c2 2d 3f ea d1 eb 3d
       0.51174223 4.9784045 0.6787504 0.11514647
000080 55 8e 10 3f 62 87 c9 3f 83 2d d5 3f 4e 75 f8 3f
       0.5646718 1.574444 1.6654514 1.9410799
000090 23 81 a9 3f 77 ee d4 3e 55 df f9 3e e3 08 73 3f
       1.3242534 0.41588184 0.488032 0.94935435
0000a0 11 0e 69 40 a4 fa be 3f 1e 99 33 40 86 cc 85 3f
       3.6414835 1.492024 2.8062205 1.0453041
0000b0 d7 57 fe 3f e9 53 9f 3f 3a da 81 40 d2 37 f4 3f
       1.9870557 1.2447482 4.057889 1.9079535
0000c0 5c 9a 59 3f 5d 5a ae 3f 3d 60 35 3e a6 48 4b 3f
       0.8500116 1.3621327 0.17712493 0.7940773
0000d0 f9 f9 41 3f e6 23 d0 3f 8e b8 a1 3f 29 0c 8b 3e
       0.75772053 1.6260955 1.2634447 0.27157715
0000e0 db 8c a9 3e e7 e7 12 3f a1 57 70 3f c4 07 ab 3f
       0.33115277 0.57385105 0.9388371 1.3361745
0000f0 8f 3e 29 40 32 24 31 3f 28 a0 80 3e 75 1c bf 3e
       2.6444433 0.69195855 0.2512219 0.37326398
000100 84 88 fb 3f 7a 58 67 3f 82 a8 b4 3f d2 f5 82 3e
       1.9651036 0.9036938 1.4113925 0.2557817
000110 a1 17 94 40 c7 a9 9b 3f f4 a9 8e 3e f1 77 93 3f
       4.6278844 1.2161187 0.2786404 1.1520978
000120 c9 38 7b 3f d1 2e a9 3f 23 7d ff 3e c8 af ec 3f
       0.9813352 1.3217412 0.4990016 1.8491144
000130 f7 83 e0 3f 5f 89 91 3f 71 41 a3 3f e6 72 e6 3e
       1.7540272 1.1370047 1.2754346 0.45009536
000140 25 a3 93 40 c0 b1 48 40 1e f3 c4 3f 51 e8 67 40
       4.613665 3.135849 1.5386693 3.6235545
000150 67 54 a4 3f 2b 44 0d 40 bd 69 bb 3f 97 ac 02 3f
       1.2838258 2.2072856 1.4641644 0.510446
000160 29 05 ee 3f 50 8b 35 40 cd 08 07 3f 09 d7 85 3f
       1.8595325 2.836628 0.52747804 1.0456249
000170 53 07 a0 3e d1 4f 09 40 ee f2 cd 3f fb 68 a0 3e
       0.31255588 2.1454966 1.6089761 0.31330094
000180 53 3d 41 3f ab 9b c2 3f 1e 2d 9b 3e ff fb f9 3f
       0.754842 1.5203756 0.3030786 1.9530028
000190 58 50 ff 3f 2a 02 62 3e f8 9c 09 3e 36 7b 28 3f
       1.9946394 0.22071138 0.13438785 0.65813005
0001a0 d7 9e 1a 40 17 98 a0 3f 57 c8 af 3f f3 f6 fc 3e
       2.4159448 1.2546414 1.3733014 0.49407157
0001b0 6d 0f 65 3e 87 ec 9b 3e 48 3b 7b 3e 87 9c da 3f
       0.22369166 0.30453894 0.24534333 1.7079018
0001c0 d9 fb 14 40 76 21 37 3f ea 11 84 3f 3a 81 ab 3f
       2.3278716 0.7153543 1.0317967 1.3398812
0001d0 c3 58 98 3f 98 92 a6 40 2f bf ce 3f 9a ab 5c 3f
       1.1902088 5.2053947 1.6152095 0.86199343
0001e0 62 d7 ea 3f 13 b1 54 40 1a d1 a7 3f 4b a4 a9 3e
       1.834698 3.3233078 1.3110688 0.33133158
0001f0 ff b1 c1 3f ad 3e 6a 40 95 07 52 3f 42 01 f7 3f
       1.5132445 3.6600754 0.8204282 1.9297259
000200 66 73 05 40 f8 7a 9a 3f 5b 5b 91 3f fd 1e c4 3f
       2.0851684 1.2068777 1.1356004 1.5321957
000210 80 3f 0d 40 05 3c a1 3f 91 6f c6 3f d5 5c fd 3f
       2.2070007 1.2596442 1.5502797 1.9793955
000220 1d 18 b6 3f 33 21 52 40 2e 5a 1a 3f e7 15 4c 3f
       1.4226109 3.2832763 0.60293853 0.7972092
000230 8a 49 80 3f c5 9a 99 3e 3e 2d 53 3e ee b7 cb 3f
       1.0022442 0.30000892 0.20622727 1.5915506
000240 e2 56 d9 3f 2d f4 c4 3f e0 15 86 3f 42 67 10 40
       1.697964 1.5387017 1.0475426 2.2563024
000250 04 d4 80 3f c7 98 91 3f 11 1d 57 3e 70 89 09 3f
       1.0064702 1.1374749 0.21007182 0.5372534
000260 88 10 c5 3f 5b ed 8a 3f 7a 5e ef 3f 46 1c a9 3f
       1.539567 1.0853685 1.8700707 1.3211753
000270 1b e0 59 3f 97 04 fb 3e 5d 4c 23 3f 9f 4b 85 3f
       0.8510758 0.4902694 0.63788396 1.0413703
000280 9b f5 20 3f 27 cf b8 3e 18 dc 68 3f 8c 06 ac 3f
       0.62874764 0.36095545 0.90960836 1.3439498
000290 87 4d 2f 3f 11 9e 81 3e 8f e9 04 40 dc 48 51 3e
       0.6847767 0.25315908 2.0767553 0.2043795
0002a0 30 14 a5 3f af 1b a2 3f c2 e2 82 3f d1 7f a9 3f
       1.2896786 1.2664698 1.0225451 1.3242131
0002b0 48 2c 85 3f 02 04 a4 3f 78 39 11 40 d5 f6 4a 3f
       1.0404139 1.2813723 2.2691326 0.79282886
0002c0 4e 6c 85 3f f3 3f d9 3e 5d 2f 8f 3f 3b 0c b1 3f
       1.0423677 0.42431602 1.1186329 1.3831857
0002d0 4d 4b 8a 3f cb 62 cf 3f 7d 18 a3 3e e3 d4 53 3f
       1.080423 1.6202024 0.3185462 0.82746714
0002e0 1d 65 7c 3f 82 ab d8 3e a4 f7 83 3f bf 84 5d 40
       0.98591787 0.4231835 1.0309949 3.4612272
0002f0 0a bf d8 3e 17 0b 55 40 e8 15 9a 3f 58 4e 09 40
       0.4233325 3.3288019 1.2037935 2.1454067
000300 34 ef e2 3f 54 0a 0e 40 90 2d 26 3e 8a 77 c4 3f
       1.7729249 2.2193804 0.16228318 1.534898
000310 9c 8c 4c 3f c1 95 52 3f f2 b3 72 3f 66 7e 58 3f
       0.7990205 0.82259756 0.94805825 0.8456787
000320 35 52 14 40 b3 3f e6 3f 15 7f a0 3f a3 fe 81 3f
       2.3175175 1.798819 1.2538782 1.0155834
000330 8a 60 fd 3f 21 e1 97 3f 04 68 5b 3f e1 f7 20 3f
       1.9795086 1.1865579 0.8570559 0.62878233
000340 02 11 0d 40 d7 32 be 3f 9c fb a0 3f 63 cc fb 3f
       2.204163 1.4859265 1.2576785 1.9671749
000350 ff 1c 15 3f 97 35 a3 3f 84 98 0d 3f 62 1d 15 3f
       0.5824737 1.2750729 0.55310845 0.5824796
000360 62 6b 96 3f 32 fc 2e 3f 26 8c 2c 40 f9 48 62 3f
       1.1751521 0.6835357 2.696054 0.883926
000370 2e 81 55 3f 3f d0 01 3f 5a a8 70 3f be d0 90 3e
       0.8340024 0.50708383 0.94006884 0.28284258
000380 05 72 8b 3f 44 bc 75 3f ed 96 b5 3e 42 2a 80 40
       1.0894171 0.95990396 0.3546671 4.0051584
000390 b0 64 e8 3f 6f c9 e2 3f eb eb 83 3e 40 87 56 3f
       1.8155727 1.7717723 0.2576593 0.83800125
0003a0 05 82 bf 3e bf b1 fa 3f 57 ba c2 3f 3e 1f a3 3f
       0.37403885 1.9585494 1.5213116 1.2743909
0003b0 96 04 fb 3f 7f d4 ca 3e 7b 30 bd 3f 3f e9 fa 3e
       1.9610775 0.39615247 1.478042 0.49006078
0003c0 7a bc 89 3f af a3 8e 3f e8 6d 1c 3f 3b 28 5b 3f
       1.0760643 1.1143702 0.61105204 0.8560826
0003d0 a7 2b fb 3e 7b 14 53 3f 97 53 4a 3f f0 44 8a 3e
       0.49056742 0.82453126 0.790338 0.2700572
0003e0 b9 a8 c8 3f 49 01 00 40 98 6e b0 3e b5 b8 65 3f
       1.567649 2.0000784 0.34459376 0.89734966
0003f0 3e 08 91 3f d6 8e d6 3f c7 00 25 3f 38 e0 0a 40
       1.133064 1.676234 0.6445431 2.1699352
