trained_data/ddpg/new_wall_G_550_350_best/target_critic_ddpg.pth (torch, 507042 bytes, 11 tensors)

fc1.weight f4 [400, 6]
0	0x3e5879ee	0.21140262
1	0x3e489472	0.19587877
2	0xbeb7d7db	-0.35906872
3	0x3ee6e200	0.450943
4	0xbeaa939d	-0.33315745
5	0x3dbaf6aa	0.09129079
6	0x3f4d1724	0.80113435
7	0xbf5fb237	-0.8738131
8	0xc01e12db	-2.4699008
9	0x3da36b90	0.079795
10	0xbe1ae34d	-0.15125771
11	0x3fc4508d	1.5337082
12	0x3e58968f	0.21151184
13	0x3e488216	0.19580874
14	0xbebb539d	-0.3658723
15	0x3ee6994f	0.4503884
16	0xbeaa5049	-0.33264378
17	0x3dc68196	0.09692685
18	0x3e58ca41	0.21170904
19	0x3e47fd48	0.19530213
20	0xbeb48f88	-0.35265756
21	0x3ee87f16	0.4540946
22	0xbeb1c8d5	-0.34723535
23	0x3dc52ae0	0.096273184
24	0x3e59f64e	0.21285364
25	0x3e46ed65	0.19426496
26	0xbebfbe9d	-0.37450114
27	0x3ee2227e	0.4416694
28	0xbeb2d4ec	-0.34928071
29	0x3dbf3db2	0.09337939
30	0x3e5a187f	0.21298407
31	0x3e4659b1	0.19370152
32	0xbebf1367	-0.3731949
33	0x3ee21345	0.44155326
34	0xbeb4d6c7	-0.35320112
35	0x3db957f1	0.090499766
36	0x3e59d878	0.21273983
37	0x3e4707a4	0.19436508
38	0xbec011e7	-0.37513658
39	0x3ee2d356	0.44301862
40	0xbeb3db71	-0.35128358
41	0x3dba4754	0.09095636
42	0x3e5a4388	0.21314824
43	0x3e468c1f	0.1938939
44	0xbec1dd0d	-0.3786396
45	0x3ee01292	0.43764168
46	0xbeb898b4	-0.36054003
47	0x3db50cd0	0.088403344
48	0x3e597eee	0.21239826
49	0x3e474b72	0.19462374
50	0xbeb54c0e	-0.35409588
51	0x3ee80f87	0.45324346
52	0xbea8b841	-0.32953075
53	0x3dcb147d	0.09916017
54	0x3f037bbf	0.51360697
55	0xbea28e8e	-0.31749386
56	0xc04fb909	-3.2456686
57	0x40814030	4.0390854
58	0xc08ee023	-4.4648604
59	0x401e8659	2.47695
60	0x3e58d003	0.211731
61	0x3e46e8c6	0.19424734
62	0xbebddd26	-0.37082785
63	0x3ee3d383	0.44497308
64	0xbeb0fafd	-0.3456649
65	0x3db87eb8	0.09008545
66	0x3e59a20f	0.21253227
67	0x3e473857	0.19455086
68	0xbebb1890	-0.36542177
69	0x3ee55635	0.44792333
70	0xbeadfc36	-0.33981484
71	0x3dbca470	0.092110515
72	0x3e548799	0.20754851
73	0x3e438694	0.19094306
74	0xbeadebb8	-0.33968902
75	0x3ee8f3eb	0.45498595
76	0xbea80bfe	-0.3282165
77	0x3dc53826	0.0962985
78	0x3e58fcb0	0.21190143
79	0x3e47fd69	0.19530262
80	0xbebc3ddf	-0.36765954
81	0x3ee65319	0.44985273
82	0xbead1af6	-0.33809632
83	0x3dbec123	0.09314182
84	0x3e5b4d13	0.2141612
85	0x3e45659b	0.1927704
86	0xbeca2c2a	-0.3948682
87	0x3edb57f9	0.42840555
88	0xbec3c745	-0.38237968
89	0x3da7dbab	0.08196195
90	0x3e598f50	0.21246076
91	0x3e4748e5	0.19461401
92	0xbeba5d41	-0.36399272
93	0x3ee67866	0.45013732
94	0xbeac3495	-0.33633867
95	0x3dcd65e4	0.100292
96	0x3e588b78	0.21146953
97	0x3e4857ad	0.19564696
98	0xbeb43d3c	-0.35202968
99	0x3ee6678a	0.4500087
100	0xbeb1c322	-0.34719187
101	0x3db5ccab	0.08876928
102	0x3e5809de	0.21097514
103	0x3e458d09	0.19292082
104	0xbebf18dd	-0.37323657
105	0x3ee0f936	0.43940133
106	0xbeb13144	-0.346079
107	0x3db9e37c	0.09076592
108	0x3e5a9238	0.2134484
109	0x3e45ca98	0.19315565
110	0xbec10143	-0.37696275
111	0x3ededf9e	0.4352998
112	0xbebd2260	-0.3694029
113	0x3dbcda79	0.09221358
114	0x3e59ac79	0.212572
115	0x3e473386	0.19453248
116	0xbebd0b37	-0.3692262
117	0x3ee31855	0.443545
118	0xbeb07848	-0.34466767
119	0x3dc0f766	0.094221875
120	0x3e5ae173	0.21375065
121	0x3e45d073	0.19317798
122	0xbec636f3	-0.38713798
123	0x3ede6a70	0.4344058
124	0xbebcf082	-0.36902243
125	0x3db6c63d	0.0892453
126	0x3e5a40db	0.21313803
127	0x3e469dbf	0.19396113
128	0xbec41680	-0.38298416
129	0x3ee1435a	0.43996698
130	0xbeb48667	-0.3525879
131	0x3db79c66	0.089653775
132	0x3e597998	0.2123779
133	0x3e47803b	0.1948251
134	0xbebfa2fc	-0.37429035
135	0x3ee27c1b	0.4423531
136	0xbeb266bb	-0.34844002
137	0x3db40a0a	0.08790977
138	0x3e590394	0.21192771
139	0x3e47f613	0.19527464
140	0xbeb87252	-0.3602472
141	0x3ee6405a	0.4497097
142	0xbeab8038	-0.3349626
143	0x3dc0f0d4	0.09420934
144	0x3e57e617	0.21083866
145	0x3e494856	0.196565
146	0xbebab41b	-0.36465535
147	0x3ee6dd8f	0.4509091
148	0xbeabaaaf	-0.3352866
149	0x3dc10e23	0.094265245
150	0x3e58f85e	0.21188495
151	0x3e45a336	0.19300541
152	0xbebb2e7a	-0.36558896
153	0x3ee5c1b1	0.44874337
154	0xbeb3092e	-0.3496794
155	0x3dc1d1a8	0.09463817
156	0x3e58dc33	0.2117775
157	0x3e482f5f	0.1954932
158	0xbeb7a8c8	-0.35870957
159	0x3ee5c896	0.44879597
160	0xbea9ced1	-0.331656
161	0x3dc7c864	0.09755018
162	0x3e5aa4d7	0.21351944
163	0x3e460b92	0.19340351
164	0xbeb655eb	-0.35612425
165	0x3ee4e402	0.44705206
166	0xbea6be11	-0.32566884
167	0x3dd843c7	0.105598025
168	0x3f22c96f	0.63588613
169	0xbef733e9	-0.48281792
170	0xc0cfaa1a	-6.4895144
171	0xc0ad671d	-5.418837
172	0xc0dad97d	-6.839049
173	0xbd8eace4	-0.0696657
174	0x3e59721a	0.21234933
175	0x3e478e74	0.19487935
176	0xbec09d37	-0.37619945
177	0x3ee3a62b	0.44462714
178	0xbeaed064	-0.34143364
179	0x3db7ebb4	0.08980504
180	0x3e5a56d6	0.21322188
181	0x3e46888b	0.19388025
182	0xbec41512	-0.38297325
183	0x3ee05b79	0.43819788
184	0xbeb5f983	-0.35541925
185	0x3db42bf5	0.08797447
186	0x3e578afa	0.21049109
187	0x3e45c03e	0.19311616
188	0xbeb7590d	-0.35810128
189	0x3ee5e0eb	0.4489816
190	0xbeac4b2d	-0.33651105
191	0x3dbd72c0	0.092504025
192	0x3e5a71f3	0.2133253
193	0x3e463ed9	0.19359912
194	0xbebcf22c	-0.36903512
195	0x3edecb30	0.43514395
196	0xbebabab4	-0.36470568
197	0x3dab8be8	0.083762944
198	0x3e59a096	0.21252665
199	0x3e44b8ba	0.19211093
200	0xbec4fca2	-0.38473994
201	0x3ede8ba8	0.43465924
202	0xbeb8f1ae	-0.36121887
203	0x3daef8b1	0.08543528
204	0x3e58b6b4	0.21163446
205	0x3e481705	0.19540031
206	0xbeb42a5a	-0.35188562
207	0x3ee53cb8	0.44772887
208	0xbeb8dd57	-0.3610637
209	0x3db024a0	0.08600736
210	0x3e59803e	0.21240327
211	0x3e474f1f	0.19463776
212	0xbeb82666	-0.35966796
213	0x3ee3fb8f	0.4452786
214	0xbeb68a9d	-0.3565263
215	0x3dd0d30f	0.10196506
216	0x3e59512b	0.2122237
217	0x3e479944	0.1949206
218	0xbeb8d69a	-0.36101228
219	0x3ee3d1c4	0.44495976
220	0xbeb1adcf	-0.34702918
221	0x3dc0e114	0.0941793
222	0x3e59cfa1	0.2127061
223	0x3e46fc20	0.19432116
224	0xbeba6912	-0.36408287
225	0x3ee2e1ce	0.443129
226	0xbeb21634	-0.34782565
227	0x3dba2e6f	0.09090888
228	0x3e5998fa	0.21249762
229	0x3e474c17	0.1946262
230	0xbebbd501	-0.36685947
231	0x3ee1acc7	0.4407713
232	0xbeb78ad6	-0.3584811
233	0x3db1dcdd	0.086847045
234	0x3e5a52e8	0.21320689
235	0x3e46441a	0.19361916
236	0xbec42e5b	-0.38316616
237	0x3edf1fa8	0.4357884
238	0xbeb97e39	-0.36229113
239	0x3daf26b1	0.08552302
240	0xbdb56c47	-0.08858543
241	0x3ed327a6	0.41241187
242	0x40f49ed1	7.644387
243	0x3ee8cc3e	0.45468324
244	0xbf00a0e2	-0.5024549
245	0x3ecf033a	0.4043215
246	0x3e58d52d	0.2117507
247	0x3e484734	0.19558412
248	0xbebee465	-0.37283626
249	0x3ee4c18d	0.44678918
250	0xbeacf65d	-0.3378171
251	0x3dbacbe1	0.09120918
252	0x3e5a3bd1	0.2131188
253	0x3e46a2e3	0.19398074
254	0xbec81c7c	-0.39084232
255	0x3ede4c79	0.4341772

fc1.bias f4 [400]
0	0xbf63d629	-0.8899866
1	0x40f3009c	7.5938244
2	0xbf654a2a	-0.8956629
3	0xbf62cf57	-0.88597625
4	0xbf659046	-0.8967327
5	0xbf65fdc5	-0.89840347
6	0xbf656c8b	-0.8961875
7	0xbf65b2ac	-0.89725757
8	0xbf655328	-0.8958001
9	0x4036be82	2.8553777
10	0xbf655a81	-0.89591223
11	0xbf654486	-0.89557683
12	0xbf6556f0	-0.8958578
13	0xbf64a691	-0.8931666
14	0xbf654bef	-0.8956899
15	0xbf6572c9	-0.89628273
16	0xbf62cbdc	-0.88592315
17	0xbf66193f	-0.8988227
18	0xbf656155	-0.8960164
19	0xbf65214e	-0.89503944
20	0xbf6505fb	-0.8946225
21	0xbf657cb2	-0.89643395
22	0xbf6463af	-0.89214605
23	0xbf656336	-0.8960451
24	0xbf63134e	-0.8870133
25	0xbf657c79	-0.89643055
26	0xbf657218	-0.8962722
27	0xbf654eb5	-0.8957322
28	0x3fffd061	1.9985467
29	0xbf65400a	-0.8955084
30	0xbf65af2c	-0.89720416
31	0xbf65b749	-0.89732796
32	0xbf6579fa	-0.89639246
33	0xbf665358	-0.8997092
34	0xbf60a5d8	-0.8775306
35	0xbf6589c1	-0.8966332
36	0xbf64a125	-0.8930839
37	0xbf6588bb	-0.8966176
38	0xbf6516f4	-0.8948815
39	0xbf657114	-0.8962567
40	0x41014219	8.078637
41	0xbf657b4f	-0.8964128
42	0xbf651379	-0.8948284
43	0xbf646525	-0.89216834
44	0xbf65ae50	-0.89719105
45	0xbf64d549	-0.8938795
46	0xbf65cb83	-0.8976366
47	0xbf64ba91	-0.8934718
48	0xbf653333	-0.8953125
49	0xbf65b75a	-0.897329
50	0x3ff2209f	1.8916205
51	0xbf630b09	-0.88688713
52	0xbf657d74	-0.8964455
53	0xbf6554b7	-0.8958239
54	0xbf65ed90	-0.89815617
55	0xbf64f942	-0.8944284
56	0xbf65406d	-0.8955143
57	0xbf625653	-0.8841297
58	0xbf65d10a	-0.89772093
59	0xbf65016e	-0.89455307
60	0x3fb6e298	1.4287901
61	0xbf65242d	-0.89508325
62	0xbf651b72	-0.89495003
63	0xbf63ecff	-0.890335
64	0xbf657427	-0.8963036
65	0xbf650000	-0.89453125
66	0xbf64f604	-0.8943789
67	0xbf668766	-0.9005035
68	0xbf65891e	-0.8966235
69	0xbf66e771	-0.901969
70	0xbf6462f2	-0.8921348
71	0xbf63c1d1	-0.88967615
72	0xbf65147d	-0.8948439
73	0xbf62ae1c	-0.8854692
74	0xbf657a1a	-0.8963944
75	0xbf6495b1	-0.8929091
76	0xbf6585dc	-0.8965738
77	0xbf64e755	-0.89415485
78	0xbf654a1e	-0.8956622
79	0xbf6552f5	-0.8957971
80	0xbf65e647	-0.898045
81	0xbf65b0e2	-0.89723027
82	0xbf65e4c3	-0.8980219
83	0xbf641b80	-0.8910446
84	0xbf6556e6	-0.8958572
85	0xbf65d169	-0.8977266
86	0xbf659eee	-0.8969563
87	0xbf655a26	-0.8959068
88	0xbf6531ca	-0.895291
89	0xbf668698	-0.90049124
90	0xbf65351f	-0.8953418
91	0xbf648eff	-0.89280695
92	0xbf64ca03	-0.89370745
93	0xbf65c08d	-0.89746934
94	0xbf65211f	-0.89503664
95	0xbf64b363	-0.8933622
96	0xbf65dbde	-0.89788616
97	0xbf662895	-0.89905673
98	0xbf65c9b7	-0.8976092
99	0xbf663320	-0.8992176
100	0xbf64ae11	-0.89328104
101	0xbf6392b4	-0.88895726
102	0xbf65b17d	-0.8972395
103	0xbf65c463	-0.8975279
104	0xbf65efb7	-0.898189
105	0xbf65ca2c	-0.89761615
106	0xbf649a1e	-0.89297664
107	0xbf64adb6	-0.8932756
108	0xbf5d8929	-0.86537415
109	0xbf659b39	-0.89689976
110	0xbf651cee	-0.8949727
111	0xbf64d4e3	-0.8938734
112	0xbf6589e8	-0.89663553
113	0xbf65b4ea	-0.8972918
114	0xbf614525	-0.8799613
115	0xbf65c1e6	-0.8974899
116	0xbf651d15	-0.894975
117	0xbf656373	-0.8960487
118	0xbf640de2	-0.89083683
119	0xbf65bfc2	-0.89745724
120	0xbf651f28	-0.89500666
121	0xbf65310e	-0.89527977
122	0xbf65a432	-0.8970367
123	0xbf657143	-0.8962595
124	0xbf655ce2	-0.8959485
125	0xbf64ecb8	-0.89423704
126	0xbf647e21	-0.8925496
127	0xbf650654	-0.8946278
128	0xbf665c66	-0.8998474
129	0xbf658d1d	-0.89668447
130	0xbf64e19d	-0.8940676
131	0xbf6585dd	-0.89657384
132	0x40a35c2b	5.105001
133	0xbf64ffc1	-0.8945275
134	0xbf65e7ef	-0.8980703
135	0xbf593bb2	-0.8485671
136	0xbf658308	-0.8965306
137	0xbf65754d	-0.8963211
138	0xbf636c51	-0.8883715
139	0xbf64d473	-0.8938667
140	0xbf655843	-0.895878
141	0xbf65f8f8	-0.8983302
142	0xbf647367	-0.8923859
143	0xbf6494e9	-0.8928972
144	0xbf65ae9b	-0.8971955
145	0xbf658f84	-0.8967211
146	0xbf65e3b9	-0.898006
147	0xbf65b61b	-0.89730996
148	0xbf65b709	-0.89732414
149	0xbf661c2b	-0.8988673
150	0xbf65755d	-0.8963221
151	0xbf659699	-0.8968292
152	0xbf657e70	-0.89646053
153	0xbf60d89c	-0.8783052
154	0xbf6569c4	-0.8961451
155	0xbf642e91	-0.89133555
156	0xbf6546c8	-0.8956113
157	0xbf652a6e	-0.8951787
158	0xbf65a26c	-0.8970096
159	0xbf66a754	-0.9009907
160	0xbf6588e9	-0.89662033
161	0xbf65ca43	-0.8976175
162	0xbf65e511	-0.8980265
163	0xbf601aaf	-0.87540716
164	0xbf64d415	-0.8938611
165	0xbf650fde	-0.89477336
166	0xbf62f31f	-0.88652223
167	0xbf657e1b	-0.89645547
168	0xbf254c77	-0.645698
169	0xbf65653b	-0.8960759
170	0xbf6615a5	-0.89876777
171	0xbf650968	-0.8946748
172	0xbf642937	-0.8912539
173	0xbf65300e	-0.8952645
174	0xbf6569f1	-0.8961478
175	0xbf658201	-0.89651495
176	0xbf64fc68	-0.8944764
177	0xbf65c687	-0.89756054
178	0xbf6528ed	-0.8951557
179	0xbf65b2ea	-0.89726126
180	0xbf65481d	-0.8956316
181	0xbf64f583	-0.8943712
182	0xbf65f7f8	-0.89831495
183	0xbf65baca	-0.8973814
184	0xbf65d7b5	-0.8978227
185	0xbf661a4d	-0.8988388
186	0xbf657a6f	-0.89639944
187	0xbf652c96	-0.8952116
188	0xbf654553	-0.89558905
189	0xbf635c6e	-0.8881291
190	0xbf64ef51	-0.8942767
191	0xbf65aa8a	-0.89713347
192	0xbf655b32	-0.8959228
193	0xbf64fc22	-0.89447224
194	0xbf658f90	-0.89672184
195	0xbf65cf98	-0.8976989
196	0xbf64dfdf	-0.894041
197	0xbf62dba5	-0.886164
198	0xbf655f1c	-0.8959825
199	0xbf65cb40	-0.8976326
200	0xbf64eac1	-0.89420706
201	0xbf655782	-0.8958665
202	0xbf6594be	-0.8968009
203	0xbf653fa0	-0.8955021
204	0xc0344a29	-2.8170264
205	0xbf65ce3e	-0.89767826
206	0xbf6615f7	-0.89877266
207	0xbf63f90a	-0.8905188
208	0xbf65293f	-0.8951606
209	0xbf64f436	-0.89435136
210	0xbfb30033	-1.3984436
211	0xbf659677	-0.89682716
212	0xbf65d842	-0.8978311
213	0x405f30f7	3.4873636
214	0xbf655ef9	-0.8959804
215	0xbf6585c6	-0.8965725
216	0xbf64cd8d	-0.89376146
217	0xbf630c45	-0.88690597
218	0xbf6595c3	-0.89681643
219	0xbf65a063	-0.89697856
220	0xbf65de90	-0.8979273
221	0xbf64e4a4	-0.8941138
222	0xbf652350	-0.8950701
223	0xbf6587a9	-0.89660126
224	0x3ef4cc56	0.47812146
225	0xbf65e020	-0.8979511
226	0xbf64b12d	-0.8933285
227	0xbf6269bc	-0.8844259
228	0xbf658de7	-0.8966965
229	0xbf64eba1	-0.8942204
230	0xbf63e33c	-0.8901861
231	0xbf64da20	-0.8939533
232	0xbf64be58	-0.8935294
233	0xbf64c810	-0.8936777
234	0xbf65a3b4	-0.89702916
235	0xbf65388c	-0.8953941
236	0xbf628292	-0.88480484
237	0xbf652a51	-0.89517695
238	0xbf625f2b	-0.88426465
239	0xc19e8f68	-19.820023
240	0xbf648faa	-0.89281714
241	0xbf65afa4	-0.8972113
242	0xbf6698e9	-0.9007707
243	0xbf64457e	-0.89168537
244	0xbf652cf0	-0.89521694
245	0xbf6578a8	-0.8963723
246	0x3f181ff0	0.5942373
247	0x3f7f28ed	0.9967182
248	0xbf65efbb	-0.89818925
249	0xbf63e86b	-0.89026517
250	0xbf6585c5	-0.8965724
251	0xbf658f41	-0.89671713
252	0xbf65b4ef	-0.8972921
253	0xbf65b9fb	-0.8973691
254	0xbf64e82e	-0.8941678
255	0xbf65860a	-0.8965765

fc2.weight f4 [300, 400]
0	0xb753af7e	-1.261744e-05
1	0xbdc504f2	-0.09620084
2	0x2ffff1b6	4.6555976e-10
3	0x2cdeede9	6.336033e-12
4	0x2cb3bd2a	5.1084874e-12
5	0x3b99ad25	0.00468983
6	0x38bb8152	8.940943e-05
7	0x3c1bc1e8	0.00950668
8	0x36baf8a2	5.5721766e-06
9	0x3d3c5bae	0.04598587
10	0xbceec775	-0.029147843
11	0xb486bb0c	-2.509554e-07
12	0xbc910033	-0.01770029
13	0xb2035c20	-7.64615e-09
14	0x37b667c8	2.1744418e-05
15	0x2cb8a2a3	5.247651e-12
16	0x3866886e	5.4963333e-05
17	0x3d39513b	0.045243483
18	0xbaa40630	-0.0012514051
19	0xbb028835	-0.0019917611
20	0xb6cc28d2	-6.084426e-06
21	0x306c5883	8.598208e-10
22	0x32c12c9c	2.2488443e-08
23	0xa9fe50d8	-1.129389e-13
24	0x3411eda1	1.3590626e-07
25	0xbc8da3e6	-0.017290067
26	0xb30f497c	-3.3361616e-08
27	0x314a6ccb	2.945671e-09
28	0xbe1c5fd2	-0.15270928
29	0x388d4c6c	6.7376386e-05
30	0xb20a30e1	-8.043771e-09
31	0x3d4c491b	0.049874406
32	0x38479c75	4.759101e-05
33	0x3ca97cbd	0.020689363
34	0x2eab3ebd	7.787324e-11
35	0x2b1443fe	5.267452e-13
36	0xaa704385	-2.1339708e-13
37	0x381b75bb	3.7064525e-05
38	0xaf6c5eb0	-2.1497715e-10
39	0x3b937529	0.0045000506
40	0xbc8c53a5	-0.017129729
41	0x325c2f5d	1.2816455e-08
42	0xbbbdc4e4	-0.0057912935
43	0xb33c03b6	-4.3775536e-08
44	0x3afa2b36	0.0019086364
45	0xb30f1140	-3.331047e-08
46	0x2fa49dff	2.994369e-10
47	0xb04ed26b	-7.5241385e-10
48	0x3c431815	0.011907597
49	0x2e803ef4	5.831949e-11
50	0x3e845028	0.25842404
51	0xb5966c25	-1.1207345e-06
52	0xb4c0eead	-3.5936446e-07
53	0x2fa41626	2.9847164e-10
54	0xb013a997	-5.371929e-10
55	0xb7a5096d	-1.9673922e-05
56	0x33a87654	7.8446334e-08
57	0xb355f576	-4.9816173e-08
58	0xad411427	-1.09752546e-11
59	0xb85054d6	-4.9670074e-05
60	0xbe88715e	-0.26648992
61	0x37b573cb	2.1630802e-05
62	0xad2bdc99	-9.769207e-12
63	0xb780f7ba	-1.5374146e-05
64	0xbc21739c	-0.009854224
65	0xb2bfbbe0	-2.2320762e-08
66	0x2c7e3d39	3.6129556e-12
67	0xbb879798	-0.0041379444
68	0x2bff2545	1.8129184e-12
69	0xb2a5a70c	-1.9284492e-08
70	0x366f2e61	3.5640771e-06
71	0xb82a2df9	-4.0573974e-05
72	0x39251910	0.00015744963
73	0xb4fa7d5f	-4.6657348e-07
74	0x373a1ac8	1.1092699e-05
75	0x2b5508be	7.5684934e-13
76	0x2fbafad9	3.401144e-10
77	0x323af64f	1.0882629e-08
78	0x36310e40	2.638335e-06
79	0xb13e8298	-2.7722873e-09
80	0x323017fa	1.025e-08
81	0x2cda9106	6.2120335e-12
82	0xaf05cbda	-1.2168702e-10
83	0xb7e131e3	-2.684532e-05
84	0x37cdf0de	2.4550067e-05
85	0x2c0e6f39	2.0241155e-12
86	0xbb04a2d5	-0.0020238657
87	0x33825516	6.069074e-08
88	0xb17e7885	-3.7030372e-09
89	0x3694832f	4.4260155e-06
90	0x3364635f	5.3175764e-08
91	0xbafe12ad	-0.0019384228
92	0xbaf412da	-0.0018621341
93	0xb6570115	-3.2038126e-06
94	0xae67188e	-5.2545128e-11
95	0x3a0ef264	0.0005452989
96	0x339e55d7	7.3730625e-08
97	0xbb9f6ccc	-0.0048652645
98	0xaa5c6aee	-1.9577024e-13
99	0xbc5ea7ec	-0.01358984
100	0xb1e90bda	-6.78254e-09
101	0x3c155f16	0.009116909
102	0xb7dee7f9	-2.6572483e-05
103	0xaed8ce56	-9.8591954e-11
104	0x3d3a1d63	0.04543818
105	0x3636ac6b	2.7220474e-06
106	0xb25fd752	-1.30292666e-08
107	0x3c0399ca	0.008032272
108	0x39aaf0ca	0.0003260433
109	0xb0329a57	-6.4975353e-10
110	0xbbae4692	-0.005318471
111	0xb82a485a	-4.059854e-05
112	0xb2204dc7	-9.33091e-09
113	0x3749a4e5	1.2018926e-05
114	0x39950fdb	0.00028431308
115	0x3a8a871e	0.0010568833
116	0x3973094d	0.0002317775
117	0x380a0154	3.2903e-05
118	0x3a10cecf	0.0005523981
119	0x39356f57	0.00017302982
120	0x353045cd	6.566668e-07
121	0xa8a45803	-1.8245827e-14
122	0x2f5587f8	1.9420543e-10
123	0x31bbdb8a	5.467375e-09
124	0x3a92f706	0.0011212535
125	0xbbbe4419	-0.0058064577
126	0x395beb46	0.00020973114
127	0xb54402de	-7.301986e-07
128	0xbc070aaa	-0.008242289
129	0xb67db7e6	-3.780698e-06
130	0xbcd7f48c	-0.026361726
131	0x309d4e95	1.1445588e-09
132	0x3e72b412	0.23701504
133	0x2ef3a0f7	1.1078954e-10
134	0x31f7e053	7.214149e-09
135	0x36e3b5b9	6.7862825e-06
136	0x30e3fe5c	1.6588717e-09
137	0x2e71becd	5.496652e-11
138	0xb9cbf494	-0.00038901402
139	0x368a7746	4.1266057e-06
140	0xbb298784	-0.0025868127
141	0xabe5f236	-1.6338656e-12
142	0xbb6b649e	-0.0035918127
143	0x35e7b247	1.7262727e-06
144	0xad607d7b	-1.2760788e-11
145	0xb09d9006	-1.1464187e-09
146	0xbd1f592d	-0.038903404
147	0x2e4dbbab	4.6778286e-11
148	0x353c0dbb	7.005544e-07
149	0x396d4d85	0.0002263096
150	0xafcf2215	-3.7677297e-10
151	0x2c0df9f2	2.0176053e-12
152	0xb38efd25	-6.658437e-08
153	0xac9357f0	-4.1877543e-12
154	0x30831a6e	9.539016e-10
155	0x305e7761	8.0932777e-10
156	0xb471649a	-2.2481473e-07
157	0xae7c2374	-5.7329655e-11
158	0x3b627203	0.003455282
159	0x3d1d5aac	0.03841655
160	0xae05b7b1	-3.040385e-11
161	0x313f6518	2.7851623e-09
162	0xb5480a9b	-7.452124e-07
163	0xb170e82c	-3.505657e-09
164	0xad39df85	-1.0565664e-11
165	0xb4a6f3f4	-3.109741e-07
166	0x35186a34	5.677896e-07
167	0x32ac662e	2.0069901e-08
168	0x3e2832cc	0.16425627
169	0x361e4c2a	2.3588168e-06
170	0xb04177d7	-7.0383294e-10
171	0xbcc04791	-0.023471626
172	0x31f8c86f	7.2405366e-09
173	0x37517915	1.2485562e-05
174	0x3c11c63d	0.008897361
175	0xb78475f2	-1.5790549e-05
176	0x344ce8fa	1.9083737e-07
177	0x3aeb7be7	0.0017966003
178	0x2f88fc49	2.4917515e-10
179	0x3430c591	1.6463152e-07
180	0x2f68c0cf	2.1168776e-10
181	0xa9fab218	-1.11331246e-13
182	0xbd114706	-0.035468124
183	0xba675c0a	-0.00088256656
184	0xbada22fa	-0.0016642504
185	0xb1d48ef2	-6.186263e-09
186	0xbb72b0fb	-0.0037031758
187	0xb907d048	-0.00012952194
188	0x30248e36	5.9864946e-10
189	0xae5755b0	-4.8961446e-11
190	0xb579f1fc	-9.311186e-07
191	0x2f58d1ca	1.9719618e-10
192	0xb1011a84	-1.8787043e-09
193	0x2f982cde	2.768052e-10
194	0xb323b5f0	-3.8116866e-08
195	0xb710242e	-8.591493e-06
196	0x3cc54225	0.024079392
197	0xb75fb579	-1.3334088e-05
198	0xb0b2d014	-1.3010344e-09
199	0xb8a87ea0	-8.03445e-05
200	0xbc23de94	-0.010001797
201	0xb9f3ab53	-0.00046476218
202	0x389d34c4	7.496172e-05
203	0x3286d924	1.5698397e-08
204	0x3de3fc57	0.111321144
205	0x3c49b034	0.0123100765
206	0xb0a305f3	-1.1861502e-09
207	0xb0162e77	-5.463571e-10
208	0x3c9dc8d7	0.019260807
209	0x2f2b8094	1.559804e-10
210	0x3dff0c49	0.12453515
211	0x3596f027	1.1245764e-06
212	0x3b9ca62c	0.0047805514
213	0x3d9a0b4c	0.07521686
214	0xb5cf3cd2	-1.5440403e-06
215	0xbbce0e9e	-0.0062883636
216	0x2fe27d01	4.119798e-10
217	0x3a837f00	0.0010032356
218	0xbd3e53ee	-0.04646676
219	0x2f94469e	2.697122e-10
220	0xbc547344	-0.012966935
221	0xbba96270	-0.0051692054
222	0x32a3f076	1.9085046e-08
223	0xb3d71c76	-1.0016895e-07
224	0x3e7f2043	0.2491465
225	0x3585a01c	9.95587e-07
226	0x30f8bab4	1.8097439e-09
227	0x3b432c0f	0.00297809
228	0x34192298	1.426182e-07
229	0x37ef3be0	2.8518902e-05
230	0x3cfb6653	0.03068844
231	0xaaca9aac	-3.5989733e-13
232	0xb69ee385	-4.7352537e-06
233	0x2e0d9a6e	3.219685e-11
234	0x330d39be	3.2881637e-08
235	0x37ceb309	2.4640483e-05
236	0x3043f537	7.128906e-10
237	0x3b1e4c4e	0.0024154368
238	0xbc353d37	-0.011061958
239	0x3e5afe6b	0.21386115
240	0x371c7a67	9.326824e-06
241	0x287949da	1.3838291e-14
242	0x34013632	1.2033777e-07
243	0x36ff9b2d	7.617657e-06
244	0xb32e7c2c	-4.0625466e-08
245	0xad98bf0d	-1.7365243e-11
246	0xbe2de135	-0.16980441
247	0x3d9cbb75	0.07652942
248	0xbc4c4524	-0.012467656
249	0xb565a59e	-8.555015e-07
250	0x305d7e99	8.057924e-10
251	0x3907fba9	0.00012968354
252	0x330b0a6c	3.2372938e-08
253	0xb811e68a	-3.47854e-05
254	0xadce7d11	-2.347503e-11
255	0xafb3521a	-3.2618247e-10

fc2.bias f4 [300]
0	0x3e1bb064	0.15204006
1	0xbd89c727	-0.067274384
2	0xbe6d7c00	-0.23191833
3	0x3e75516b	0.2395684
4	0x3e6c0948	0.23050416
5	0x3e530fd1	0.20611502
6	0x3e98487f	0.2974281
7	0xbf3ea396	-0.7446836
8	0x3f4adf6c	0.79247165
9	0xbea4ec52	-0.32211548
10	0xbd77c33a	-0.060488917
11	0x3f1ad9b2	0.60488427
12	0x3fb17525	1.3863875
13	0x3ed035ad	0.4066595
14	0x3f5e76ba	0.8689991
15	0x3ea29420	0.31753635
16	0xbe11908a	-0.14215294
17	0xbdb6f17d	-0.08932779
18	0x3ca4dcd0	0.020124823
19	0xbd7703db	-0.06030641
20	0x3eb22c25	0.34799305
21	0x3efdb9c8	0.49555802
22	0xbc4358fb	-0.01192307
23	0x3ebd7747	0.37005064
24	0x3e65b262	0.22431329
25	0xbf1af3ff	-0.6052856
26	0x3f307f9f	0.68944734
27	0xbdb59b2d	-0.08867488
28	0x3d80354f	0.06260168
29	0x3f618a48	0.88101625
30	0xbe9e4d56	-0.30918378
31	0xbe1a8c6e	-0.15092632
32	0x3f3954d8	0.72395086
33	0xba1992e6	-0.00058583764
34	0xbf1009cc	-0.5626495
35	0x3cdd95b7	0.027048929
36	0x3e4945bd	0.1965551
37	0xbe79d285	-0.24396713
38	0xbe48fbad	-0.19627257
39	0xbf239c8f	-0.63910764
40	0x3ed2c1bb	0.4116343
41	0x3f164ed0	0.5871401
42	0x3e9cd390	0.3063016
43	0x3f01de58	0.50729895
44	0xbd7836fc	-0.060599312
45	0x3f086786	0.53282964
46	0x3f7b2af0	0.9811239
47	0x3f16abc3	0.5885584
48	0x3fff7836	1.995856
49	0x3de04802	0.109512344
50	0xbed4a7ec	-0.41534364
51	0xc0271ef4	-2.6112642
52	0x3c605c3c	0.013693865
53	0xbf21b1d7	-0.6316199
54	0xbe0ebbd4	-0.13938838
55	0xbe09e326	-0.13465557
56	0x3f078fff	0.52954096
57	0x3fb960f1	1.4482709
58	0xbd37ce02	-0.0448742
59	0x3d1c2635	0.038122375
60	0x3f01ac6b	0.50653714
61	0x3e236842	0.1595774
62	0x3f514afd	0.8175505
63	0xbcdedad5	-0.027203957
64	0xbd965525	-0.07340459
65	0x3ca68b5d	0.020330125
66	0x3fc6c8eb	1.5530065
67	0x3f56e457	0.8394217
68	0x3d219b34	0.039454654
69	0x3f20d776	0.6282877
70	0x3fbe2bfa	1.485717
71	0xbf044136	-0.51662004
72	0xbeef2142	-0.4670506
73	0xbf35d141	-0.7102242
74	0xbe3eda30	-0.1863792
75	0x3fe1cccd	1.7640625
76	0x3ebbadbc	0.36655986
77	0x3f3e4d80	0.74337006
78	0xbdf0d847	-0.11760002
79	0x3f5b89ac	0.85756946
80	0x3eb6758c	0.35636556
81	0xbceea274	-0.029130198
82	0xbe5d74a9	-0.21626534
83	0x3f38ca7e	0.7218398
84	0x3f523eb7	0.82126945
85	0x3f1d21f2	0.6137992
86	0xbd915b55	-0.07097498
87	0x3e82b66e	0.25529808
88	0x3e6b57a3	0.2298265
89	0x3f8f9e63	1.1220211
90	0x3f223a69	0.63370377
91	0x3d7c8d02	0.061657913
92	0x3f1550c9	0.58326393
93	0x3edb9f41	0.4289494
94	0x3f4a2605	0.78964263
95	0x3f384239	0.7197605
96	0xbf05ced4	-0.5226872
97	0xbebd794b	-0.37006602
98	0x3f8855f2	1.0651228
99	0xbe6e85e4	-0.23293263
100	0x3f9baddb	1.2162431
101	0x3f9b8ef7	1.2153004
102	0x3f9d54fc	1.229156
103	0x3eca1a11	0.39473012
104	0x3fb8aac5	1.4427115
105	0x3d7055c7	0.058675554
106	0xbed21458	-0.41031146
107	0x3e7ee209	0.24890913
108	0xbe6bf692	-0.23043278
109	0xbef12410	-0.47097826
110	0xbe895706	-0.26824206
111	0x3ec7db5d	0.39034548
112	0x3f6ca410	0.9243784
113	0xbf211979	-0.62929493
114	0xbe24a6cd	-0.16079254
115	0x3e51bfb6	0.20483288
116	0xbe6d5359	-0.23176326
117	0xbcbaa0c4	-0.022781737
118	0x3f8ad6fd	1.0846859
119	0xbfb66e6c	-1.4252448
120	0x3f2b7a4a	0.66983473
121	0x3dc485ac	0.095958084
122	0x3f0365ea	0.51327384
123	0xbdc3dd8c	-0.09563741
124	0x3e9a01f6	0.3007962
125	0x3f1b6392	0.6069881
126	0x3eecf162	0.4627791
127	0x3eb857f9	0.36004618
128	0xbefefa15	-0.49800172
129	0xbe9fd775	-0.31219068
130	0xbdaf045b	-0.085457526
131	0x3e621c9d	0.22081228
132	0x3ee5be09	0.44871548
133	0x3edd8402	0.43264776
134	0x3f305293	0.68876
135	0x3f84353b	1.0328745
136	0x3f0ec309	0.5576635
137	0x3e817451	0.25284055
138	0xbed77f7a	-0.42089444
139	0xbeaa2948	-0.3323462
140	0x3e665768	0.2249428
141	0x40188b2e	2.3834949
142	0xbfaa8d86	-1.332444
143	0x3ecb88e6	0.39752883
144	0x3f020b2e	0.5079831
145	0xbd367103	-0.04454137
146	0x3f166426	0.58746564
147	0x3f93c82c	1.1545463
148	0xbf043609	-0.5164495
149	0xbe170e14	-0.14751464
150	0x3fb2f94e	1.3982332
151	0x3f6dcf02	0.92893994
152	0x3f8ed827	1.1159714
153	0xbe5a6a55	-0.21329625
154	0x3f6fe47b	0.9370801
155	0xbf38b6d3	-0.7215397
156	0xc0066f99	-2.1005614
157	0xbe2c94ed	-0.16853686
158	0x3f00f1b9	0.5036884
159	0xbe313743	-0.17306237
160	0xbee2d550	-0.4430337
161	0xbe629987	-0.22128879
162	0x3f47f07e	0.78101337
163	0x3f26ecec	0.65205264
164	0x3e0169d6	0.1263803
165	0xbd31ea45	-0.043436307
166	0x3f040481	0.5156937
167	0x3f44646b	0.76715726
168	0x3e8962e8	0.26833272
169	0xbf276205	-0.6538394
170	0xbeaa98d4	-0.33319724
171	0xbfdc809d	-1.722675
172	0xbe2942f4	-0.16529447
173	0x3edf32af	0.43593356
174	0x3ea4e280	0.32204056
175	0xbf494b95	-0.78630954
176	0x3fbf88b7	1.4963597
177	0x3de13335	0.10996095
178	0xbe429546	-0.19002256
179	0x3e5a348a	0.21309105
180	0x3e16e3b8	0.14735305
181	0x3e00b47b	0.12568848
182	0x3e0bce58	0.13652933
183	0x3fa2edbf	1.2728804
184	0xbed108e4	-0.40827096
185	0xbe50e40c	-0.20399493
186	0x3f8c9c0e	1.0985124
187	0x3ee5c403	0.44876108
188	0x3e0ca67b	0.13735382
189	0x3ec5ec85	0.38657013
190	0xbe238e6d	-0.159723
191	0x3f3b2c98	0.7311492
192	0x3f6726d8	0.90293646
193	0x3ca5c4e8	0.020235494
194	0x3ea85e1b	0.32884297
195	0x3f1902be	0.5976981
196	0xbe75e26d	-0.24012156
197	0x3e349f82	0.17638972
198	0xbe1f58f2	-0.15561274
199	0xbd8e1a66	-0.06938629
200	0xbdf1d8c9	-0.118089266
201	0x3f4ff7be	0.812374
202	0x3f0da087	0.5532307
203	0xbda82fc2	-0.08212234
204	0x3ece11e8	0.40248036
205	0x3f2821c6	0.65676534
206	0x3fb301fe	1.3984983
207	0x3ea05e1e	0.31321806
208	0x3f322326	0.6958488
209	0x3f6d8da3	0.92794245
210	0x3fed7992	1.8552725
211	0x3deffc42	0.11718036
212	0xbf39eef0	-0.72630215
213	0xbe2df13d	-0.16986556
214	0xbe888224	-0.2666179
215	0x3e3c9f9a	0.18420258
216	0x3ee1e31d	0.44118586
217	0x3f6c9f6f	0.92430776
218	0x3f22c2ed	0.63578683
219	0xbf07a28f	-0.5298242
220	0xbde84ddd	-0.11342976
221	0x3f832328	1.0245104
222	0x3ef89893	0.48553905
223	0x3f100625	0.56259376
224	0xbf4fbd66	-0.81148374
225	0x3f9fc2ee	1.2481363
226	0x3f5e7d30	0.8690977
227	0xbea352db	-0.3189915
228	0x3f2e39bd	0.6805685
229	0x3f03f957	0.5155234
230	0x3e32e408	0.174698
231	0x3f12ed1b	0.57393044
232	0xbe24bc65	-0.16087492
233	0xbe649b83	-0.22324948
234	0x3e4f6839	0.20254602
235	0x3d5c08d9	0.053719375
236	0xbf5e8e53	-0.8693592
237	0xbed72403	-0.42019662
238	0x3a97aa0d	0.0011571065
239	0xbcf1781d	-0.02947622
240	0x3f3d73a7	0.74004596
241	0xbb942f8b	-0.004522269
242	0x3e662f54	0.22478992
243	0x3e56f0ca	0.20990291
244	0x3f196f49	0.5993543
245	0x3f7d2b9a	0.98894656
246	0x3d778daf	0.060437854
247	0x3e809755	0.25115457
248	0xbddbfd8d	-0.1074172
249	0x3ee2a2b3	0.44264755
250	0x3f084988	0.532372
251	0xbeb0f1ff	-0.34559628
252	0x3f5bc820	0.8585224
253	0x3f33a7a2	0.7017766
254	0x3e87798e	0.26459926
255	0x3cb9e066	0.02269001

bn1.weight f4 [400]
0	0xbcdca839	-0.026935684
1	0x4076c69e	3.8558726
2	0xb8907109	-6.8875095e-05
3	0xb4df9dad	-4.165171e-07
4	0xb7b6b5ec	-2.1780805e-05
5	0xbc12fb2d	-0.008971018
6	0xbd04d5cd	-0.03243046
7	0xbc95a27f	-0.01826596
8	0xbd100c57	-0.03516802
9	0x3f1fc471	0.6240912
10	0xbbda0a21	-0.0066540395
11	0xbb024dc6	-0.0019882782
12	0x3cb9ecdc	0.022695951
13	0xb6211017	-2.4000235e-06
14	0xba89406f	-0.0010471473
15	0xb6baf75d	-5.572029e-06
16	0xbccff873	-0.025387025
17	0x3b0f6815	0.0021882106
18	0xbb5206ec	-0.0032047583
19	0xbd02f490	-0.031971514
20	0xbc96ebbd	-0.018422956
21	0xba0c9ad3	-0.0005363647
22	0xb8a45055	-7.8350924e-05
23	0xb4b0bdb4	-3.2920582e-07
24	0x3b8471f6	0.0040419055
25	0xbc4fd3f7	-0.012684814
26	0xba52254d	-0.00080164225
27	0xb880642c	-6.122174e-05
28	0x3eedaa4f	0.46418998
29	0xb8dc5df4	-0.000105079176
30	0xb8debf55	-0.00010621423
31	0xbc5ae771	-0.013360844
32	0xbc99e883	-0.018787628
33	0xbb97c4a5	-0.004631596
34	0xb7cfafe0	-2.4758221e-05
35	0x34158326	1.3924418e-07
36	0xb4f8b6c4	-4.632658e-07
37	0xbb733279	-0.0037108941
38	0xb667858d	-3.449942e-06
39	0xbcaac7f6	-0.020847302
40	0x402be43c	2.6858053
41	0xbc577619	-0.013150715
42	0xbc734e05	-0.014850144
43	0xba1f1158	-0.0006067953
44	0xbccdcdca	-0.025122542
45	0xb3850c55	-6.195538e-08
46	0xb7ccd647	-2.4418476e-05
47	0xb8227bb9	-3.8739036e-05
48	0xbd1db5de	-0.03850352
49	0xb603ad02	-1.9621225e-06
50	0x3e8aebec	0.2713312
51	0xbd04f6e6	-0.032462023
52	0xbac6195c	-0.0015113759
53	0xb69d2ff9	-4.6845494e-06
54	0xb89d4929	-7.4999705e-05
55	0xbc81dc03	-0.01585198
56	0x37120e13	8.705555e-06
57	0xbb2c058a	-0.0026248419
58	0xb4a1fa2f	-3.017062e-07
59	0xbd280016	-0.041015707
60	0x3fd9e6ce	1.7023561
61	0xbcc99db4	-0.024611332
62	0xb4d22032	-3.9138973e-07
63	0xbcbcca41	-0.02304566
64	0xbc77a099	-0.015113973
65	0xb87480c9	-5.8294074e-05
66	0xb6ab5a48	-5.1067072e-06
67	0xbcb11c28	-0.021619871
68	0x3221a8aa	9.409783e-09
69	0xbc29be4c	-0.010360312
70	0xbd1d514c	-0.03840761
71	0xbd49a1af	-0.04922646
72	0xbc5f1e92	-0.013618128
73	0xbc5adb03	-0.0133578805
74	0xbd045c05	-0.03231432
75	0xb9efaad6	-0.00045712915
76	0xb9293e0c	-0.0001614021
77	0xb928a476	-0.00016082995
78	0xbc6b0c0a	-0.014346132
79	0xb8b289fc	-8.513403e-05
80	0xba14c8b8	-0.00056756614
81	0xb415d807	-1.3955297e-07
82	0xb7fa337e	-2.98263e-05
83	0xbd1951d1	-0.03743154
84	0xbc085b96	-0.008322617
85	0xb413605c	-1.3725497e-07
86	0xbba022c4	-0.004886957
87	0xb4a3c12a	-3.050166e-07
88	0xb9ef59fa	-0.0004565267
89	0xbbf1a598	-0.0073744766
90	0xba0a99a2	-0.00052871753
91	0xbca7edbb	-0.0204991
92	0xbd37e321	-0.04489434
93	0xbc961a2c	-0.018323027
94	0xba3ba2f0	-0.00071577635
95	0xbc5a9fbf	-0.0133437505
96	0xbc5be00b	-0.013420115
97	0xbc666980	-0.014063239
98	0xb5332a0f	-6.67439e-07
99	0xbcb91de8	-0.022597268
100	0xbb469fde	-0.003030769
101	0xbbf70b80	-0.0075392127
102	0xbcbb58a7	-0.022869421
103	0xb6c547bc	-5.8794085e-06
104	0x3b7080b0	0.0036697797
105	0xbca6826f	-0.020325867
106	0xbb2484bb	-0.0025103528
107	0xbb775e75	-0.003774551
108	0xbcb0dd06	-0.021589767
109	0xb8051f8e	-3.173906e-05
110	0x3b53b260	0.0032302365
111	0xbce410a5	-0.027839968
112	0x39bff467	0.00036612453
113	0xbc638cfa	-0.013888592
114	0xbcc6eb3a	-0.024282087
115	0xbcea0650	-0.028567463
116	0xbc94f33d	-0.018182391
117	0xbcdef87c	-0.027218096
118	0xbc7d4f37	-0.015460781
119	0xbcbac7fc	-0.022800438
120	0xbbd70584	-0.006561937
121	0xb6a585d7	-4.932964e-06
122	0xb6878f2e	-4.039982e-06
123	0x37334ce9	1.06871385e-05
124	0xbc39bbb8	-0.01133626
125	0xbc59ea24	-0.013300452
126	0xbd16f585	-0.03685524
127	0xbc1710ae	-0.009220285
128	0xbb94259e	-0.004521086
129	0xbcaaac3d	-0.020834083
130	0xbc9c4227	-0.019074513
131	0xb79ed744	-1.8935309e-05
132	0x40a00a10	5.0012283
133	0xb5ad7df7	-1.2926165e-06
134	0xb8993a32	-7.306448e-05
135	0xbaa26130	-0.0012388583
136	0xbac69c3e	-0.0015152765
137	0xb54fa2ed	-7.73506e-07
138	0xbc587d08	-0.0132134035
139	0xbc31b6bf	-0.010846793
140	0xbc99bed9	-0.018767761
141	0xb5490397	-7.488356e-07
142	0xbc1e6295	-0.0096670585
143	0xbc7ba1b7	-0.01535838
144	0xb581b417	-9.663662e-07
145	0xba2447fe	-0.0006266831
146	0xbc1510bd	-0.009098229
147	0xb98b1fd0	-0.00026535848
148	0xbcfc77d2	-0.030818854
149	0xbcd19067	-0.025581552
150	0xb6b798d0	-5.4716147e-06
151	0xb38cefcf	-6.562879e-08
152	0xb64ad8ab	-3.0226463e-06
153	0x3491448d	2.7058232e-07
154	0xba68c36e	-0.0008879219
155	0xb659b64b	-3.2441628e-06
156	0xbb369aa6	-0.0027863174
157	0xb730e6fe	-1.05441995e-05
158	0xbbb047cf	-0.005379654
159	0x3cbbb1e2	0.02291197
160	0xb71ddb55	-9.408996e-06
161	0xb60e8ed8	-2.1242795e-06
162	0xbc0f2fc2	-0.008739414
163	0xb6994b66	-4.568533e-06
164	0xb57d244e	-9.4302675e-07
165	0xb8f7468d	-0.00011791019
166	0xbae888aa	-0.0017740924
167	0xbb4ca1c4	-0.003122435
168	0x3f0e2989	0.5553213
169	0xbce24a69	-0.027623372
170	0xb94bf73c	-0.0001945169
171	0xbb965690	-0.004587956
172	0xb72cdff7	-1.0304145e-05
173	0xbcdac488	-0.026705042
174	0xbbb0d54c	-0.0053965207
175	0xbc9244ca	-0.017855067
176	0xba15c652	-0.0005713451
177	0xbcf6764f	-0.03008571
178	0xb9ba9b6d	-0.00035592486
179	0xbbd23d9c	-0.006416036
180	0xb5f07df0	-1.7918046e-06
181	0xb6c194e8	-5.769183e-06
182	0xbc6168e6	-0.01375792
183	0xbcce721b	-0.025200894
184	0xba8ad81f	-0.0010592974
185	0xb9774f7a	-0.00023585363
186	0xbcf8aa26	-0.03035457
187	0xbc35d5bd	-0.011098322
188	0x3882d1b9	6.237947e-05
189	0xb502fe71	-4.8799035e-07
190	0xbcba6d17	-0.022757096
191	0xb5869461	-1.0026962e-06
192	0xba0c1d66	-0.0005344957
193	0xb7ac7b26	-2.0561343e-05
194	0xb95a0293	-0.00020791059
195	0xbc1b4fbf	-0.009479462
196	0xbca0b4ec	-0.01961752
197	0xbca7eb20	-0.020497859
198	0xb54edb51	-7.706013e-07
199	0xbba806c4	-0.0051277597
200	0xbca3c8bc	-0.019993179
201	0xbd061276	-0.03273245
202	0xbcd3f776	-0.025874835
203	0xb9cef5ee	-0.00039474614
204	0x4006932b	2.1027324
205	0xbcacde9c	-0.021102242
206	0xb6e7a6aa	-6.9037387e-06
207	0xb7e8570e	-2.7697093e-05
208	0xbc996b65	-0.018727968
209	0xb74dc593	-1.22649535e-05
210	0x3efb3210	0.49061632
211	0xbc2a16f4	-0.010381449
212	0x3a7f404a	0.0009737058
213	0x40ab3660	5.3503876
214	0xbbbe7859	-0.0058126864
215	0xbb036848	-0.002005117
216	0xb5e61cab	-1.7144679e-06
217	0x3d40adb1	0.047040645
218	0xbc5a2a2b	-0.013315718
219	0xb5825c00	-9.71253e-07
220	0xbb321c43	-0.002717749
221	0xbccd8629	-0.025088387
222	0xbac8969e	-0.0015303676
223	0xba75f9b3	-0.00093832164
224	0x3f61da65	0.8822387
225	0xbcd42acd	-0.025899315
226	0xba303296	-0.0006721405
227	0x3da41680	0.08012104
228	0xbbe9be39	-0.007133272
229	0xbcc08d3d	-0.023504848
230	0xbcf32dcb	-0.029684922
231	0x32b95dd9	2.1579512e-08
232	0xbc9fa41c	-0.019487433
233	0xb93ecc2f	-0.00018195876
234	0xbc176d90	-0.00924243
235	0xbcc4ba22	-0.024014536
236	0xb7124d53	-8.720282e-06
237	0xbcfbb0e7	-0.030724002
238	0xbc49f083	-0.012325409
239	0x3ff2c7ab	1.8967184
240	0xbcc4eb62	-0.02403802
241	0xb595fc12	-1.1174727e-06
242	0xba65c8b0	-0.00087655615
243	0xbce2f147	-0.02770294
244	0xbc4722bf	-0.01215428
245	0xb584c4f1	-9.892084e-07
246	0x3e9486dc	0.2900914
247	0x3f0775f2	0.52914345
248	0xbd11b543	-0.035573255
249	0xbc34215b	-0.010994281
250	0xb91b4461	-0.00014807425
251	0xbce2e5e7	-0.027697517
252	0xbbc7bea7	-0.0060957256
253	0xbc470bbc	-0.012148794
254	0xbbd0485c	-0.006356282
255	0xb82bde4f	-4.0976618e-05

bn1.bias f4 [400]
0	0xbd1e1d6d	-0.03860228
1	0x3f8a6a98	1.081378
2	0xbba3d59e	-0.0049998304
3	0xb8432200	-4.6523288e-05
4	0xb966d2c9	-0.00022013033
5	0xbb43d570	-0.0029881857
6	0xbcb08c01	-0.021551134
7	0xbcafb4f5	-0.021448592
8	0xbd352a06	-0.04422953
9	0x3ea4f2de	0.32216543
10	0xbc1590b7	-0.009128741
11	0xbb9d8a36	-0.004807736
12	0xbbd9e7d9	-0.006649953
13	0xb7d89c66	-2.5822035e-05
14	0xbb4bff6c	-0.0031127585
15	0xba0a8ecc	-0.00052855606
16	0xbcd230d2	-0.025658045
17	0xbb9f8537	-0.0048681754
18	0xbb5522d4	-0.003252198
19	0xbd0a0340	-0.033694506
20	0xbcab98be	-0.020946857
21	0xbc784c38	-0.015154891
22	0xba09fb78	-0.0005263607
23	0xb731fba0	-1.0608608e-05
24	0xbb5ab24d	-0.0033370436
25	0xbc5ca9d6	-0.013468226
26	0xbc780d80	-0.015139937
27	0xbb3a647d	-0.0028441243
28	0x3db4f51a	0.08835812
29	0xba61c36f	-0.0008612191
30	0xbb98d0fe	-0.0046635857
31	0xbc9aa4a1	-0.01887733
32	0xbc320fff	-0.010868072
33	0xbbd879c5	-0.006606313
34	0xbabb7c6d	-0.001430405
35	0xb8150dcf	-3.553723e-05
36	0xb8480043	-4.768396e-05
37	0xbb9bb172	-0.0047513777
38	0xb95e9182	-0.00021225776
39	0xbca5569b	-0.020182898
40	0x3f2a6623	0.665621
41	0xbcdd944a	-0.027048249
42	0xbc800e79	-0.015631901
43	0xbc68871f	-0.014192372
44	0xbcf70cc9	-0.030157464
45	0xb6e584e2	-6.8402014e-06
46	0xbb0a8fe8	-0.0021142904
47	0xbb338b97	-0.0027396434
48	0xbd3bbb08	-0.045832664
49	0xb8f38e3d	-0.00011613637
50	0x3eef166f	0.46696803
51	0xbd20cb32	-0.039256282
52	0xbc71885a	-0.014741981
53	0xb9ac1df4	-0.00032828713
54	0xbba3c02d	-0.0049972744
55	0xbc6c5346	-0.014424151
56	0xb9385065	-0.00017577557
57	0xbcb860e5	-0.02250714
58	0xb752da07	-1.2567739e-05
59	0xbd48bb73	-0.04900689
60	0xbf6e3443	-0.93048495
61	0xbcfdee4d	-0.03099742
62	0xb7c24b42	-2.3161647e-05
63	0xbce64228	-0.028107718
64	0xbc874636	-0.016512971
65	0xbb382b53	-0.0028101995
66	0xb9a599a8	-0.00031585735
67	0xbce287ce	-0.027652647
68	0xb6ab0a01	-5.0973617e-06
69	0xbcdf74e2	-0.027277414
70	0xbd081268	-0.03322068
71	0xbd371200	-0.0446949
72	0xbc9392ee	-0.018014397
73	0xbca8ceaf	-0.020606367
74	0xbd0fcce3	-0.035107505
75	0xbb944ee9	-0.0045260084
76	0xbbf42fbb	-0.007451979
77	0xbc0f3153	-0.008739787
78	0xbce8d779	-0.028423058
79	0xbb74183b	-0.0037245888
80	0xbbf162d0	-0.0073665157
81	0xb73f3f23	-1.1399187e-05
82	0xbad5b086	-0.0016303218
83	0xbd2bad1a	-0.04191313
84	0xbc679b4a	-0.014136145
85	0xb78b811b	-1.663021e-05
86	0xba44d0ab	-0.00075079006
87	0xb78f56e3	-1.7087388e-05
88	0xbc2d6f77	-0.010585657
89	0xbbc9e13b	-0.006160883
90	0xbbc9c306	-0.006157282
91	0xbcb9f383	-0.022699123
92	0xbd3c5130	-0.045975864
93	0xbcc4de84	-0.024031885
94	0xbc6b002c	-0.014343303
95	0xbc633937	-0.013868622
96	0xbcc56796	-0.024097245
97	0xbc8c8c31	-0.017156692
98	0xb8223080	-3.866898e-05
99	0xbcbd6010	-0.023117095
100	0xbc56d6ea	-0.013112763
101	0xba2847c0	-0.0006419383
102	0xbcbb21ff	-0.022843359
103	0xb9cbc0db	-0.00038862866
104	0xbae41c22	-0.0017403404
105	0xbd0dd1a1	-0.034623746
106	0xbcc7507d	-0.024330372
107	0xbb4f7ff5	-0.0031661962
108	0xbd08b0b5	-0.033371646
109	0xbaf5c13e	-0.0018749607
110	0xbb1d3eac	-0.0023993654
111	0xbcceb2e4	-0.025231786
112	0xbc093269	-0.008373835
113	0xbce4785e	-0.027889427
114	0xbcd0988f	-0.02546337
115	0xbcd5b647	-0.026087893
116	0xbc9ee051	-0.019394072
117	0xbcedab18	-0.029012248
118	0xbc585012	-0.013202684
119	0xbceb7f87	-0.028747333
120	0xbcb01410	-0.021493942
121	0xb9ae704d	-0.00033271537
122	0xba0f21ca	-0.0005460052
123	0xba3cdc50	-0.000720446
124	0xbc514960	-0.012773842
125	0xbc7fcd8f	-0.015612974
126	0xbd0ebeb5	-0.03484984
127	0xbc6a039e	-0.014283089
128	0xbc387fc2	-0.011260929
129	0xbd13707b	-0.03599594
130	0xbc9f9389	-0.01947953
131	0xbab36ec7	-0.001368963
132	0xbe88dd72	-0.2673145
133	0xb8e86d29	-0.00011082955
134	0xba499b36	-0.000769067
135	0xbc6ddbc4	-0.014517728
136	0xbcbd4a0e	-0.023106601
137	0xb8ae1087	-8.300045e-05
138	0xbc09f0bf	-0.008419215
139	0xbcbf9cb9	-0.02339016
140	0xbc524ecf	-0.012836172
141	0xb863bcbd	-5.4296794e-05
142	0xbc12f7ba	-0.008970195
143	0xbce74d1c	-0.02823501
144	0xb8853c01	-6.353111e-05
145	0xbc5c3b7b	-0.013441916
146	0xbc66c5ea	-0.014085272
147	0xbb086ecc	-0.0020817993
148	0xbd2823c8	-0.04104975
149	0xbcd8ca95	-0.026463786
150	0xb9a626c8	-0.00031690882
151	0xb6a84fc5	-5.0160766e-06
152	0xb881e7a8	-6.194349e-05
153	0xb6f538c0	-7.3081756e-06
154	0xbc57d253	-0.013172704
155	0xb9a392a9	-0.00031199053
156	0xbc844d3c	-0.01615011
157	0xba0760b5	-0.0005164252
158	0xbc07ceec	-0.00828908
159	0xbc177065	-0.009243106
160	0xba06dee4	-0.00051449076
161	0xbaa4973e	-0.0012557281
162	0xbcac5b51	-0.021039637
163	0xb992d61c	-0.00028006814
164	0xb88543dc	-6.354574e-05
165	0xbb70cff5	-0.0036745046
166	0xbc838d99	-0.01605873
167	0xbcc4f671	-0.024043294
168	0x3e6b0089	0.22949423
169	0xbce93d91	-0.02847174
170	0xbc12239d	-0.008919624
171	0xbbf4b63b	-0.0074680126
172	0xba54d679	-0.0008119117
173	0xbce087e0	-0.02740854
174	0xbbf71c35	-0.0075412043
175	0xbcb2dcad	-0.021833742
176	0xbbbcd31b	-0.0057624704
177	0xbd03c97b	-0.03217457
178	0xbc526acd	-0.012842846
179	0xbc909ebd	-0.017653817
180	0xb8a3995d	-7.801012e-05
181	0xb96885ce	-0.0002217509
182	0xbc310165	-0.010803555
183	0xbcada1dc	-0.021195345
184	0xbae8b1fb	-0.0017753238
185	0xbc1c220a	-0.0095296
186	0xbcfdf5e3	-0.031001037
187	0xbc364084	-0.01112378
188	0xbc0c4198	-0.008560561
189	0xb812a4c5	-3.4962566e-05
190	0xbd0a958d	-0.03383403
191	0xb82c1bef	-4.103401e-05
192	0xbbc18ef2	-0.005906933
193	0xbac5e934	-0.0015099407
194	0xbac3f0fd	-0.001494914
195	0xbc75f8f9	-0.015012973
196	0xbc84c1f8	-0.016205773
197	0xbce3d434	-0.027811147
198	0xb9c239df	-0.0003704568
199	0xbb649574	-0.003487912
200	0xbc9fe11c	-0.01951652
201	0xbd23f2b3	-0.040026378
202	0xbced5f79	-0.028976189
203	0xbc2c57c8	-0.010518976
204	0x3fa51d9f	1.2899665
205	0xbc05b595	-0.008160968
206	0xba8f5c33	-0.0010937512
207	0xbb0d7d80	-0.0021589696
208	0xbc9d0b7e	-0.019170519
209	0xba6e61ba	-0.0009093542
210	0x3edd8f95	0.43273607
211	0xbcd7998f	-0.02631834
212	0x38c2ee85	9.2950686e-05
213	0xbfd3d0bf	-1.6548079
214	0xbc5126aa	-0.012765566
215	0xbb1ba2ec	-0.0023748232
216	0xb88ddf1a	-6.76496e-05
217	0xbc94c25a	-0.01815908
218	0xbc68c03c	-0.0142059885
219	0xb868ab9b	-5.547293e-05
220	0x3b436c94	0.0029819356
221	0xbd0d3369	-0.034472857
222	0xbc03ed25	-0.008052145
223	0xbbd12945	-0.0063830935
224	0x3f4fa841	0.8111611
225	0xbcdd70b4	-0.02703128
226	0xbc5ef7c7	-0.013608879
227	0xbc53b9da	-0.012922728
228	0xbcc0abd0	-0.023519427
229	0xbcf6e1f1	-0.030137034
230	0xbcdd73f0	-0.027032822
231	0xb6c7d896	-5.955876e-06
232	0xbd168910	-0.036751807
233	0xbb6f6d66	-0.0036533712
234	0xbd074112	-0.03302104
235	0xbce38e65	-0.02777786
236	0xba096694	-0.00052414206
237	0xbcf869c2	-0.030323867
238	0xbbe8f8ba	-0.0071097286
239	0xbdefa824	-0.11701992
240	0xbce81e2d	-0.028334701
241	0xb89c2cb5	-7.446987e-05
242	0xbc045cbd	-0.008078751
243	0xbce27832	-0.027645204
244	0xbce7f52f	-0.028315155
245	0xb8a6b96b	-7.9500336e-05
246	0x3e6e654c	0.23280829
247	0x3f16a052	0.5883838
248	0xbd02211b	-0.031769853
249	0xbcbe2fbb	-0.023216119
250	0xbbe5aea5	-0.0070093446
251	0xbd008db3	-0.031385135
252	0xbcb41290	-0.021981508
253	0xbc6f8935	-0.014620115
254	0xbcca9170	-0.024727553
255	0xbadd6aae	-0.0016892755

bn2.weight f4 [300]
0	0xbdd25e3f	-0.10271882
1	0xbae44ad8	-0.0017417325
2	0x402257a3	2.536599
3	0x406a7645	3.6634686
4	0xbb05adc7	-0.0020397769
5	0xbe25423e	-0.1613855
6	0xc1171b06	-9.4440975
7	0xbebad224	-0.3648845
8	0xc05f9632	-3.4935422
9	0x40021aaa	2.0328774
10	0xc03c991f	-2.9468458
11	0x37064cf5	8.00494e-06
12	0x40c5f791	6.1864705
13	0x404a17ca	3.157702
14	0x40171f05	2.3612683
15	0xc1084709	-8.517343
16	0xbf87bcba	-1.060447
17	0x4036b1e0	2.8546066
18	0xb74247c2	-1.15800085e-05
19	0x409c79ba	4.889859
20	0xba4a19af	-0.00077095156
21	0x40691e7d	3.6424859
22	0x39c13d44	0.00036857475
23	0x3d4571d9	0.048204277
24	0xbd94ce4e	-0.07265912
25	0x40f6c5a7	7.7116275
26	0x3709f9ae	8.223969e-06
27	0xbe980084	-0.29687893
28	0xbea8e10c	-0.32984197
29	0x40e0be41	7.0232244
30	0x3bd69eb9	0.006549683
31	0x3a6cabbd	0.00090282765
32	0x41178c83	9.471805
33	0x408e4333	4.445703
34	0xc0c702df	-6.2191005
35	0x3d0d7c06	0.034542106
36	0x404325b0	3.0491753
37	0xc031ccd7	-2.7781274
38	0xbc66c3b5	-0.014084746
39	0x412718e3	10.443576
40	0x34de906c	4.1455803e-07
41	0xbbc665a2	-0.006054596
42	0x38734888	5.8003265e-05
43	0xb866f0ed	-5.5060653e-05
44	0x363b9947	2.795439e-06
45	0x392b5460	0.00016339263
46	0x410e50af	8.894698
47	0xbba26ef8	-0.004957076
48	0x41060694	8.376606
49	0xb653dca5	-3.1569882e-06
50	0xc1296447	-10.586982
51	0xc1263577	-10.388053
52	0xb6bc8098	-5.617807e-06
53	0x40837730	4.1082993
54	0x3bffaa86	0.0078023104
55	0x39876744	0.00025826145
56	0xc1318476	-11.094839
57	0xc102c80c	-8.17384
58	0xbd02f8ad	-0.031975437
59	0x383fc07f	4.5717225e-05
60	0xb96045cc	-0.00021388306
61	0xb5ce5040	-1.5371552e-06
62	0x3f12b159	0.5730186
63	0xbe3a7600	-0.18209076
64	0x3f38459f	0.71981233
65	0xbdb66b74	-0.08907214
66	0x40f0cc90	7.524971
67	0xc05dd3d5	-3.4660542
68	0x3630d21d	2.6348346e-06
69	0x376fe01b	1.4297689e-05
70	0x41192727	9.572059
71	0x407e19de	3.9703288
72	0xc0e5ffba	-7.1874666
73	0x4100b055	8.04305
74	0xbc048743	-0.0080888895
75	0x411c5b07	9.772223
76	0x328fd2d5	1.6743266e-08
77	0x389b378c	7.4013224e-05
78	0x3c52ee68	0.012874223
79	0xbbd4bbb9	-0.006492105
80	0x3c934c5b	0.017980745
81	0xc0219b37	-2.5250986
82	0x3e80eb5c	0.25179565
83	0x3a0f8fa4	0.0005476421
84	0xc03f450b	-2.988589
85	0x4136820d	11.406751
86	0xbdde8ddc	-0.10866901
87	0x404ca3de	3.1975017
88	0x392ab27a	0.00016278951
89	0x4083387f	4.1006465
90	0x40ffd6e5	7.9949822
91	0x39dac08f	0.00041723668
92	0x3f843f1b	1.0331758
93	0xb6685d19	-3.4624884e-06
94	0x40de1f73	6.941339
95	0xb7daa92e	-2.6066406e-05
96	0xc0ca4e05	-6.322024
97	0xbe1926f6	-0.14956269
98	0x361da50d	2.3490895e-06
99	0x3523ae3a	6.0975765e-07
100	0x3fa05126	1.2524765
101	0x4032addf	2.7918622
102	0x3f6d3a72	0.92667305
103	0x40510bff	3.2663572
104	0x40e838ae	7.256919
105	0xbd87f380	-0.06638241
106	0xc1128804	-9.158207
107	0x3c2760b8	0.010215931
108	0xbd8aa34a	-0.06769426
109	0x404aeafb	3.170592
110	0x4073fe85	3.8124096
111	0x3ff5689f	1.9172553
112	0xbd249072	-0.040176816
113	0x4147260a	12.446787
114	0x3b7a89f9	0.003822921
115	0xbb8e8817	-0.0043497193
116	0xb4eefd7c	-4.451539e-07
117	0x3b67be67	0.0035361291
118	0xc1072f33	-8.449023
119	0xc11bb4ca	-9.731638
120	0x3736f7ee	1.0905771e-05
121	0xc13d0d93	-11.815814
122	0xbfb27033	-1.394049
123	0x3704bfeb	7.9124975e-06
124	0xc07a5db7	-3.91197
125	0x408ef81d	4.4677873
126	0xb9e51b73	-0.00043698735
127	0xc08fbea4	-4.4920216
128	0x40d541b4	6.6642704
129	0x357e05bd	9.4630724e-07
130	0xbf11d822	-0.5697042
131	0xc02a0831	-2.65675
132	0xb53c0e4b	-7.0056257e-07
133	0x35878db1	1.0099521e-06
134	0x3e81a6ed	0.25322667
135	0x3fd884c5	1.6915518
136	0x3dde4ab5	0.10854093
137	0xc0791cb2	-3.8923764
138	0xc112edf0	-9.18309
139	0xc099529c	-4.791334
140	0x36081f3b	2.0283758e-06
141	0x410357b4	8.208912
142	0xc10d3b56	-8.826986
143	0x40a9c271	5.3049855
144	0x38701c86	5.7247024e-05
145	0xc09edc8b	-4.9644217
146	0x39304acb	0.0001681253
147	0xc0e8d0a3	-7.2754683
148	0x4062830d	3.5392487
149	0x40789a01	3.8843997
150	0x4129e328	10.617958
151	0xc0f193cf	-7.549293
152	0x353d0aa1	7.0423454e-07
153	0xbdc8cfb1	-0.09805239
154	0x36f4a534	7.290999e-06
155	0xc09ee2b6	-4.9651747
156	0x4166ea74	14.43224
157	0xb853aa3e	-5.046487e-05
158	0x3b298159	0.002586445
159	0xc0448a33	-3.070935
160	0x40ce60a9	6.4492993
161	0xc037844f	-2.8674505
162	0x40a310aa	5.095784
163	0x4119f77a	9.622919
164	0x3a36be6e	0.0006971125
165	0xbfffb50d	-1.9977127
166	0x3d5e9c75	0.054348428
167	0xc05c3797	-3.440893
168	0xbe3556b8	-0.17708862
169	0xc0f43603	-7.631593
170	0xbbfd84b3	-0.0077367662
171	0xc122cc64	-10.1749
172	0x40a3844b	5.109899
173	0x3fffbcfb	1.9979547
174	0xbd1c1dd5	-0.038114388
175	0xc0ea84cf	-7.328712
176	0x40bee082	5.9649057
177	0xbe156820	-0.14590502
178	0x3cefb226	0.029259752
179	0x3c77ef1a	0.01513269
180	0x40c9be1a	6.3044558
181	0xc128cd8d	-10.550183
182	0x3a76016d	0.0009384368
183	0xc0991ecc	-4.7850094
184	0xc0943c49	-4.632359
185	0x381bb206	3.7120677e-05
186	0x3fb51fd7	1.4150342
187	0x40ec1602	7.3776865
188	0xc13c2815	-11.759786
189	0x36acfae7	5.1552083e-06
190	0xc037a21f	-2.86927
191	0xc054b43a	-3.3235002
192	0xb999abca	-0.00029310427
193	0x336d0293	5.5183204e-08
194	0xbac6a9f2	-0.0015156849
195	0xc014c174	-2.3243074
196	0xb99746f4	-0.0002885383
197	0x3eab0898	0.33404994
198	0x3991ee1a	0.00027833955
199	0x3d6c287b	0.057655793
200	0xba328da6	-0.00068112684
201	0xc0b53f16	-5.663951
202	0x3dd42b78	0.103598535
203	0xc0616ca1	-3.5222552
204	0x378c1c7c	1.6702565e-05
205	0xb76af632	-1.4004809e-05
206	0xc09977b0	-4.7958603
207	0xb6090fde	-2.0423827e-06
208	0xb6bd5830	-5.6429053e-06
209	0xc0916625	-4.543719
210	0x40677162	3.6162953
211	0x4091cb90	4.556099
212	0x4099b273	4.8030334
213	0xbe11ec4b	-0.14250295
214	0x3b9cf443	0.0047898605
215	0x36883258	4.0589766e-06
216	0x4007c384	2.1213083
217	0x3c3376db	0.01095363
218	0xc144ce34	-12.300343
219	0xc095ed6b	-4.6852317
220	0x413459de	11.27194
221	0xc0843397	-4.1312976
222	0x3cce0d96	0.025152963
223	0x38963df2	7.1640956e-05
224	0x407ec43f	3.980728
225	0xc0e078e1	-7.0147557
226	0x38e92bd6	0.00011118471
227	0xc01c228d	-2.4396088
228	0x352b672e	6.385261e-07
229	0xb61798ae	-2.2589625e-06
230	0xb53036c3	-6.56448e-07
231	0x400b4775	2.1762364
232	0x407f2ace	3.9869876
233	0xbf80a1da	-1.0049393
234	0xc07e27da	-3.9711823
235	0x3a5ff13a	0.00085427205
236	0x409aae00	4.83374
237	0xb9dd522f	-0.00042213636
238	0xbddd447a	-0.108040765
239	0xb80ced1e	-3.3599434e-05
240	0xc0598b7a	-3.399138
241	0x3b8b8247	0.0042574736
242	0xb987259c	-0.00025777228
243	0x40419b8e	3.0251193
244	0x41125993	9.146869
245	0xc08991eb	-4.2990623
246	0xb887bfb0	-6.473006e-05
247	0xbec1f303	-0.37880716
248	0xbdd4143f	-0.10355424
249	0x3f4522ea	0.770064
250	0x39a17103	0.00030792513
251	0xc0c35dab	-6.105184
252	0x40b264f4	5.5748234
253	0x3c7a66cb	0.015283297
254	0x3a5612ce	0.0008166254
255	0x4047720d	3.116336
