trained_data/ddpg/withwalls_G_550_450/actor_ddpg.pth (torch, 504034 bytes, 10 tensors)

fc1.weight f4 [400, 6]
0.02314395 0.03999502 -0.050155062 -0.19080892 0.3482318 0.20473842 0.039913416 0.010008701
-0.28033203 -0.07262314 0.058728285 -0.028598156 -0.0017372897 0.056188807 0.13474844 0.042762846
0.087738365 -0.00051228044 0.021928884 0.035063207 -0.10141692 -0.068607725 0.089716904 0.15830675
0.0085211 0.0447068 -0.10818506 0.075328365 0.23589894 0.4783809 0.031817026 0.025207706
-0.22740719 0.14352706 -0.10052788 0.2292502 -0.0023291078 0.05145852 -0.09591834 0.040703643
0.21127069 0.3278413 0.057894293 0.0035637745 0.0020170948 -0.0046791234 0.0926475 0.17611009
0.004663286 0.04776103 -0.15977967 0.058507286 0.093265876 0.27008316 0.013439212 0.03480436
-0.09893549 -0.21632902 0.31473908 0.0481833 0.046667926 0.009806461 -0.10744232 0.061986696
0.010540829 0.36050344 0.042296376 0.008584853 -0.3262751 -0.04030291 0.1061652 0.3446073
-0.004423764 0.05692731 -0.10262988 0.15490755 0.038721822 -0.16284023 0.031544544 0.02407293
0.31760558 -0.053652525 0.1163777 0.18833947 0.011756281 0.04272144 0.07600402 0.02687677
0.23645626 0.35354173 0.05271078 0.0022595532 0.052627828 -0.061730053 -0.037836317 -0.049834706
0.036777984 -0.015503248 -0.06304683 -0.0370699 0.15190125 0.03744464 0.008437348 0.046858203
0.3031129 -0.04210562 0.019379979 -0.005303966 0.025401669 0.024682889 -0.29316238 -0.024294896
0.092026785 0.16998042 0.011341769 0.04519497 -0.19093862 -0.013285659 0.07114602 0.12806883
0.005206386 0.04954367 0.052987732 0.12537242 0.03894626 -0.01363485 0.05906271 -0.0046851034
-0.49155995 -0.09282855 0.10892138 0.18489158 -0.011959179 0.06255931 -0.0269176 -0.14319628
0.2133244 0.4354378 -0.008028946 0.06752564 0.5898789 0.07734868 0.039904743 -0.042709187
-0.0048597194 0.054800767 -0.12613852 0.11323751 0.10591388 0.2311717 0.024447871 0.034202904
-0.088891886 -0.06609574 0.07853134 0.025229916 0.017336885 0.041204568 0.3017242 -0.005179488
0.10640913 0.10086255 0.011850281 0.049101897 -0.20359288 -0.04519854 -0.13321112 0.012945574
0.046573948 0.015665144 0.31406462 -0.07360597 0.14177042 0.01437151 0.024446782 0.032596756
-0.011052367 -0.13201366 0.3671216 0.20963843 0.004274301 0.0475756 0.057128556 0.016312154
-0.112729914 -0.009623858 0.05085687 0.018123003 0.08519653 0.031653877 0.08097465 0.12633252
0.028961647 0.022231039 -0.34617877 0.07775543 -0.032633793 -0.09457533 0.036895704 0.029075526
0.6173643 0.007396209 0.034347862 0.08199238 0.016370963 0.036619414 0.090603605 0.1027768
-0.32171485 0.12033782 0.018551268 0.035863463 -0.0381792 0.060753793 0.30291572 0.37794724
0.009691059 0.04079754 0.014739806 -0.047729965 0.14701691 0.15150213 0.012390162 0.04213743
0.045691002 0.009532211 -0.0015310798 0.25521097 0.015261317 0.03969758 0.107243635 -0.4083294
0.04309867 0.19749758 0.018728657 0.03774931 -0.3756097 -0.14662401 0.033520848 0.16280083
0.021559993 0.036532022 -0.0980712 1.6205826e-05 -0.35699537 -0.007906819 0.05157152 0.00397498
-0.18906629 -0.04339198 0.13628678 0.10289207 0.027563961 0.021165509 0.03272845 -0.11733195
00000000: 6298 bd3c d1d1 233d 656f 4dbd 6a63 43be
00000010: 704b b23e f3a6 513e 407c 233d 89fb 233c
00000020: ae87 8fbe 71bb 94bd 128d 703d ae46 eabc
00000030: c5b5 e3ba 3c26 663d 7ffb 093e 1828 2f3d
00000040: 2cb0 b33d 8f4a 06ba 34a4 b33c 709e 0f3d
00000050: adb3 cfbd 3582 8cbd 7fbd b73d 2a1b 223e
00000060: 159c 0b3c 7a1e 373d 2190 ddbd c245 9a3d
00000070: 7e8f 713e 57ee f43e 9252 023d 6480 ce3c
00000080: 6edd 68be c2f8 123e 90e1 cdbd 90c0 6a3e
00000090: f2a3 18bb 2bc6 523d d670 c4bd ddb8 263d
000000a0: 5857 583e d1da a73e 9122 6d3d 378e 693b
000000b0: 3c31 043b 5553 99bb f9bd bd3d 3456 343e
000000c0: 7ace 983b 12a1 433d 489d 23be 56a5 6f3d
000000d0: 2e02 bf3d 5748 8a3e 2430 5c3c 048f 0e3d
000000e0: b19e cabd 5b85 5dbe 7b25 a13e da5b 453d
000000f0: de26 3f3d 47ab 203c b80a dcbd c3e5 7d3d
00000100: 71b3 2c3c e893 b83e f73e 2d3d 7ca7 0c3c
00000110: 880d a7be aa14 25bd 246d d93d 5e70 b03e
00000120: 39f5 90bb 9c2c 693d 9d2f d2bd 16a0 1e3e
00000130: c69a 1e3d 97bf 26be da34 013d 9834 c53c
00000140: 339d a23e c0c2 5bbd 6e57 ee3d 10dc 403e
00000150: 6b9d 403c adfc 2e3d ffa7 9b3d ac2c dc3c
00000160: 9721 723e 6c03 b53e 42e7 573d 0315 143b
00000170: 4790 573d a7d8 7cbd 41fa 1abd 7a1f 4cbd
00000180: 83a4 163d 5601 7ebc b21e 81bd 9cd6 17bd
00000190: 008c 1b3e 8d5f 193d cd3c 0a3c 63ee 3f3d
000001a0: 9d31 9b3e f176 2cbd c3c2 9e3c e4cc adbb
000001b0: 2917 d03c c533 ca3c 6119 96be 1706 c7bc
000001c0: 8a78 bc3d 590f 2e3e d4d2 393c 5c1e 393d
000001d0: 6a85 43be 18ac 59bc 01b5 913d 7a24 033e
000001e0: 559a aa3b 4eee 4a3d aa09 593d a161 003e
000001f0: 1d86 1f3d b564 5fbc bdeb 713d 7f85 99bb
00000200: bfad fbbe e51c bebd 2c12 df3d 3854 3d3e
00000210: 6ff0 43bc 181f 803d 4c82 dcbc 0ca2 12be
00000220: b671 5a3e b4f1 de3e d78b 03bc e24a 8a3d
00000230: 4e02 173f fc68 9e3d 2873 233d d4ef 2ebd
00000240: 483e 9fbb c576 603d 752a 01be 11e9 e73d
00000250: 60e9 d83d 46b8 6c3e e746 c83c 5818 0c3d
00000260: f30c b6bd 345d 87bd 0ad5 a03d f8ae ce3c
00000270: 1506 8e3c 1fc6 283d 987b 9a3e b2b8 a9bb
00000280: 08ed d93d 0691 ce3d ae27 423c 121f 493d
00000290: a77a 50be 1b22 39bd 7f68 08be ac19 543c
000002a0: 53c4 3e3d 3054 803c 14cd a03e babe 96bd
000002b0: 442c 113e 7b76 6b3c 9e44 c83c 2d84 053d
000002c0: fd14 35bc 972e 07be 5df7 bb3e 75ab 563e
000002d0: 700f 8c3b a2de 423d a2ff 693d 11a1 853c
000002e0: f1de e6bd 63ad 1dbc 4b4f 503d b176 943c
000002f0: 857b ae3d 7fa7 013d 0ad6 a53d 505d 013e
00000300: fa40 ed3c de1d b63c 583e b1be 3d3e 9f3d
00000310: 03ab 05bd b6b0 c1bd f31f 173d cc2f ee3c
00000320: 960b 1e3f e65b f23b 58b0 0c3d 9feb a73d
00000330: 661c 863c 3dfe 153d 628e b93d a57c d23d
00000340: cfb7 a4be ad73 f63d d4f8 973c 91e5 123d
00000350: cb61 1cbd f8d8 783d c517 9b3e 4d82 c13e
00000360: 3fc7 1e3c 521b 273d 3a7f 713c 7f80 43bd
00000370: 9a8b 163e 6023 1b3e 1b00 4b3c 4c98 2c3d
00000380: 7d26 3b3d fe2c 1c3c 83ae c8ba 03ab 823e
00000390: 9a0a 7a3c ee99 223d 8da2 db3d 8d10 d1be
000003a0: 3b88 303d ce3c 4a3e d76c 993c 059f 1a3d
000003b0: ea4f c0be 9b24 16be 284d 093d 43b5 263e
000003c0: 959e b03c 9aa2 153d 8ed9 c8bd bff1 8737
000003d0: 19c8 b6be 9a8b 01bc a83c 533d 8d40 823b
000003e0: 989a 41be cabb 31bd c38e 0b3e 14b9 d23d
000003f0: d1cd e13c 4a63 ad3c 440e 063d bc4b f0bd

fc1.bias f4 [400]
0.396354 -0.27718332 -0.3965642 -0.6075679 0.17350192 0.071825065 0.24506724 0.47496662
-0.04624496 0.34420875 0.3983987 0.46925044 0.0017762778 0.011428554 0.13478404 0.066895664
0.25762805 -0.4348212 0.37123072 0.6581986 -0.39791885 0.10990942 0.28447747 -0.03274327
0.21527322 -0.64020324 -0.5483935 0.74429727 0.30985406 0.272914 -0.27229446 -0.38226977
0.58059317 -0.11660457 0.6051783 0.09957498 0.29921 -0.62580657 -0.17467357 -0.5078177
-0.11847713 0.023599075 0.2810104 0.11885836 -0.52706444 0.7456864 0.22379237 -0.10828419
0.14874496 -0.3525225 0.5547034 -0.69429183 0.3637677 0.55579114 -0.118691556 0.43344876
0.23592472 -0.8476253 0.06411291 0.27780244 -0.38973066 -0.4441196 0.16549207 0.21455698
0.53297824 0.3274093 0.32555896 0.25349954 0.32564425 0.5335992 -0.020224562 0.89945614
-0.31214434 -0.19131567 0.5785722 0.6456334 -0.32213563 0.34852296 -0.7819376 0.6112707
-0.49295586 0.7176875 0.21970202 0.55794996 0.6242596 -0.06966765 0.10303329 0.05955201
0.6952733 -0.6154739 0.5259235 0.15780003 0.7803979 0.44265085 0.74421966 -0.44843134
0.7636186 0.5815865 0.39974698 -0.5161965 0.29936203 0.81525195 -0.45548582 0.2824889
-0.51496464 -0.01180373 0.43366334 -0.63735247 -0.70225394 0.048129734 0.40273857 -0.30415636
-0.6922881 -0.06441501 0.056185555 0.30462214 0.2331752 0.020174727 -0.2040604 -0.17911793
0.3010039 0.09748829 0.23118383 0.5880031 -0.609747 0.22677691 -0.24432246 0.29626018
0.16063806 -0.02950263 0.31831273 0.33797756 0.059843075 0.028686803 0.37191877 -0.74856454
-0.50864756 -0.56718665 0.47002673 0.12987942 -0.64434505 -0.36943927 -0.066175945 0.2764134
-0.090607606 0.41750163 0.0055674384 -0.18895288 0.15625507 0.13346015 0.020464318 0.26014993
0.18269263 -0.3503242 0.2223363 0.54853565 0.28442135 0.56240124 0.26188618 -0.066080324
-0.6171675 0.02414927 -0.55339336 0.18837488 -0.029429656 0.1164304 0.070808545 -0.77857137
-0.00878326 0.51293135 -0.17581609 -0.31264606 0.32719946 -0.12250257 0.5480963 0.3097836
0.28758663 0.20520182 0.76505095 0.7652182 0.07570952 0.64084667 0.26531342 -0.017844072
0.26179314 0.0048366273 -0.57910717 0.4707506 0.1716258 0.25352162 0.44635797 -0.33217984
-0.49585074 0.4043342 0.10416511 0.2419429 -0.67193335 0.26623404 -0.4244057 0.38789997
0.2951282 -0.45267284 0.17722452 0.3448121 0.54514784 -0.10615326 0.25504753 0.14085844
0.5514601 0.50447017 0.69049364 0.33383244 0.27954426 0.32243228 0.067708924 -0.55849504
0.45139524 -0.65078473 0.34284845 -0.090939015 0.5055786 -0.49579442 0.13127966 0.2669135
0.061477985 0.19969067 0.47197446 -0.5072719 -0.6620524 0.34719878 0.1952364 -0.06692157
0.64851284 -0.55820745 0.21278661 0.09863347 -0.23377568 -0.021949077 -0.67238617 -0.7070598
0.3345041 -0.5762631 -0.37408215 0.4517027 0.017015569 0.14788339 0.29670143 0.5469928
-0.3030632 0.62853986 -0.5239795 0.40838698 0.11360593 -0.32673547 0.16795605 -0.32386914
00000000: e9ee ca3e f9ea 8dbe 760a cbbe 9289 1bbf
00000010: 7daa 313e 0519 933d e8f2 7a3e d32e f33e
00000020: 5b6b 3dbd 213c b03e eafa cb3e 9841 f03e
00000030: fed1 e83a d43e 3b3c d404 0a3e 9800 893d
00000040: d3e7 833e e2a0 debe f411 be3e b47f 283f
00000050: 05bc cbbe 3118 e13d 08a7 913e cf1d 06bd
00000060: 9570 5c3e 5ce4 23bf 8463 0cbf 448a 3e3f
00000070: 31a5 9e3e 62bb 8b3e 2e6a 8bbe ddb8 c3be
00000080: c1a1 143f 60ce eebd f7ec 1a3f f8ed cb3d
00000090: 0e32 993e dc34 20bf a1dd 32be 5700 02bf
000000a0: 23a4 f2bd d952 c13c 98e0 8f3e 036c f33d
000000b0: b2ed 06bf 4ee5 3e3f d429 653e 1ac4 ddbd
000000c0: 9950 183e d47d b4be 0b01 0e3f 1cbd 31bf
000000d0: c33f ba3e 5448 0e3f 8f14 f3bd ffec dd3e
000000e0: 4096 713e f9fd 58bf a14d 833d 1f3c 8e3e
000000f0: c78a c7be a563 e3be c176 293e d3b4 5b3e
00000100: 4371 083f 31a2 a73e aaaf a63e b1ca 813e
00000110: d8ba a63e f599 083f fbad a5bc c242 663f
00000120: 62d1 9fbe 41e8 43be 4f1d 143f 3b48 253f
00000130: f6ee a4be 9a71 b23e 102d 48bf 3d7c 1c3f
00000140: b664 fcbe 5eba 373f 91f9 603e cfd5 0e3f
00000150: 7acf 1f3f eaad 8ebd 1e03 d33d cfec 733d
00000160: 6efd 313f b38f 1dbf eca2 063f 5596 213e
00000170: 28c8 473f 22a3 e23e 2e85 3e3f cb98 e5be
00000180: 827c 433f dae2 143f a3ab cc3e 7425 04bf
00000190: fb45 993e 5ab4 503f 7035 e9be 63a2 903e
000001a0: b9d4 03bf 6f64 41bc 1f09 de3e 8829 23bf
000001b0: eac6 33bf af23 453d c033 ce3e 62ba 9bbe
000001c0: cb39 31bf 04ec 83bd d322 663d 6ff7 9b3e
000001d0: 7bc5 6e3e 7845 a53c 36f5 50be b16a 37be
000001e0: 2f1d 9a3e f1a7 c73d 74bb 6c3e 5f87 163f
000001f0: 6118 1cbf 3538 683e ab2f 7abe 6aaf 973e
00000200: 4e7e 243e 80af f1bc e3f9 a23e 650b ad3e
00000210: 031e 753d 9600 eb3c 236c be3e eda1 3fbf
00000220: ba36 02bf 2533 11bf 58a7 f03e 1cff 043e
00000230: ccf3 24bf 2527 bdbe 4187 87bd 0f86 8d3e
00000240: 7b90 b9bd c6c2 d53e 0f6f b63b dd7c 41be
00000250: 5401 203e c7a9 083e c9a4 a73c 5f32 853e
00000260: c713 3b3e b25d b3be 21ac 633e d56c 0c3f
00000270: ad9f 913e 87f9 0f3f f215 863e 1f55 87bd
00000280: b0fe 1dbf b1d4 c53c 30ab 0dbf 58e5 403e
00000290: 7616 f1bc 1073 ee3d 1204 913d 7450 47bf
000002a0: aae7 0fbc 784f 033f 2209 34be 2513 a0be
000002b0: b086 a73e a1e2 fabd 0a50 0c3f f59b 9e3e
000002c0: 8e3e 933e 6d20 523e 61da 433f 57e5 433f
000002d0: 980d 9b3d 870e 243f 29d7 873e bb2d 92bc
000002e0: c009 863e 927c 9e3b 5e40 14bf 3906 f13e
000002f0: acbe 2f3e 96cd 813e 0889 e43e 7a13 aabe
00000300: 26e0 fdbe e404 cf3e 8454 d53d e1bf 773e
00000310: d303 2cbf d44f 883e b44b d9be d39a c63e
00000320: 0b1b 973e bcc4 e7be 587a 353e 368b b03e
00000330: cf8e 0b3f e166 d9bd 9795 823e 323d 103e
00000340: 7d2c 0d3f f524 013f 31c4 303f 16ec aa3e
00000350: 6d20 8f3e d815 a53e faaa 8a3d 88f9 0ebf
00000360: 471d e73e d499 26bf d589 af3e 3c3e babd
00000370: 996d 013f c4d8 fdbe 2d6e 063e e3a8 883e
00000380: 57d0 7b3d b67b 4c3e a3a6 f13e 92dc 01bf
00000390: 447c 29bf 0ac4 b13e 0dec 473e 2d0e 89bd
000003a0: f004 263f afe6 0ebf bce4 593e 5800 ca3d
000003b0: e462 6fbe 8dce b3bc 8021 2cbf df01 35bf
000003c0: 1f44 ab3e fb85 13bf b287 bfbe 9445 e73e
000003d0: 3c64 8b3c be6e 173e 40e9 973e b807 0c3f
000003e0: 1a2b 9bbe fde7 203f 8523 06bf 1918 d13e
000003f0: 3aaa e83d df49 a7be acfc 2b3e 2dd2 a5be

fc2.weight f4 [300, 400]
0.055545397 0.09153499 0.07946301 0.1568864 0.15277216 -0.060672395 0.008085409 0.042193253
0.15648013 0.16391608 0.0151277315 0.054505926 0.12945375 0.097682506 0.032265995 0.014671145
0.17053723 0.11039908 0.20752713 0.09095035 0.08055829 0.045318913 0.02951897 0.12080423
0.101170674 0.17090829 0.02201465 0.060785808 0.029845038 0.03718274 0.05905324 0.027353946
0.12429793 -0.0040024496 0.07865146 0.10713993 0.101472005 0.10228429 0.17317984 0.16461995
0.05446521 0.025142968 0.010333557 0.059460044 0.026759792 0.056825653 0.11070301 -0.028853742
0.12113397 0.09348713 0.08959498 0.07195451 0.10943532 0.1699585 0.10994775 0.06960982
0.02805503 0.13885647 0.07599637 0.043422237 0.117980726 0.02827358 -0.01174008 0.061788566
0.039796263 0.05878346 0.072267674 0.00036489833 -0.0006361842 0.107391566 0.10042908 0.08579123
0.1475527 0.03100412 0.15336886 0.13091744 0.1329967 -0.03091227 0.005883357 -0.033714123
0.025035426 0.019469077 0.08090109 0.036490366 0.124296 0.04114363 0.11791964 0.08428245
0.089069605 0.12822841 0.08477898 0.11983559 0.11397639 0.09774944 0.070126265 0.036291443
0.05154012 -0.06442416 0.19068971 0.023245227 -0.027516272 0.12322847 0.03883287 -0.017413728
-0.014037837 -0.018648718 0.06618487 0.05156783 0.041745834 0.054675557 0.09486338 -0.041577455
0.06451228 0.11456905 0.0018054585 0.23337936 -0.04425418 0.07358248 0.14149134 0.0393997
0.2705371 0.035398692 0.05637019 0.042737655 -0.03209318 0.16209136 0.10587533 0.030152414
0.013468539 0.074325986 0.0688325 0.15529928 0.038880557 0.09671396 0.005273021 0.025064742
0.1117939 0.055132594 0.2319496 0.123330966 0.13351595 0.040462293 0.053945724 0.06621811
0.021985004 0.033104565 0.09262042 0.08394393 0.008410564 0.048475772 0.12847546 0.07864882
0.13994606 0.09245687 0.09785863 0.08811126 0.07297213 0.02717416 0.01377288 0.018345326
0.08500795 0.06667638 0.042302776 0.06401007 0.061943 0.12733774 -0.036742944 0.11219559
0.036121503 0.15758698 0.042860392 0.11082389 -0.045473676 0.0691756 0.12580526 0.043401763
0.015664095 0.039231267 0.053783197 0.09992409 0.06978842 -0.088406324 -0.012006348 0.079829335
0.019088887 0.021687081 -0.035024095 0.023240432 0.1133101 -0.03940627 0.0345837 -0.02300852
0.05494622 0.1026776 0.05309915 0.009704991 -0.0653881 -0.012549025 0.02607342 0.0560533
0.0051743058 0.101346865 0.129243 -0.007917267 0.0030755922 0.095049895 -0.013055263 0.16387601
0.036897425 0.11922036 0.08753896 0.12794659 0.07523677 -0.041831072 0.10407837 0.019267794
0.118563 0.06493474 0.09062821 0.110134095 0.038791765 0.08138549 0.02465445 0.026383854
0.04249963 0.0753516 0.06805516 -0.056801684 0.110602684 0.14851612 0.10782485 0.018715035
0.060862113 0.04021251 0.21502739 0.12475355 -0.037344083 0.027161583 -0.0972897 0.06885567
0.1376378 -0.08013664 0.10349706 0.11267757 0.050568517 0.1552522 -0.024810353 -0.008212257
0.14691475 0.04947504 0.0075359936 0.114920996 0.0092220735 0.062412523 0.086386256 -0.027429715
00000000: 9283 633d b276 bb3d 81bd a23d d4a6 203e
00000010: 4e70 1c3e 9e83 78bd aa78 043c d5d2 2c3d
00000020: 543c 203e 9ed9 273e 4eda 773c 9b41 5f3d
00000030: 868f 043e c40d c83d 5929 043d 3e5f 703c
00000040: 50a1 2e3e ea18 e23d fe81 543e 2d44 ba3d
00000050: bffb a43d 53a0 393d c4d1 f13c 3568 f73d
00000060: 9232 cf3d 9502 2f3e 1158 b43c 8afa 783d
00000070: 957d f43c ee4c 183d cfe1 713d 6215 e03c
00000080: ea8f fe3d fb26 83bb 0414 a13d 2e6c db3d
00000090: 8ed0 cf3d 6d7a d13d 0e56 313e 2292 283e
000000a0: e916 5f3d a0f8 cd3c 144e 293c 608c 733d
000000b0: 5a37 db3c 04c2 683d 42b8 e23d af5e ecbc
000000c0: 1615 f83d 2e76 bf3d 937d b73d e35c 933d
000000d0: a01f e03d 9a09 2e3e 492c e13d 988f 8e3d
000000e0: aad3 e53c 6430 0e3e fca3 9b3d 84db 313d
000000f0: e19f f13d ff9d e73c 7759 40bc 0216 7d3d
00000100: 6801 233d edc6 703d 1301 943d d34f bf39
00000110: 99c5 26ba 1cf0 db3d c3ad cd3d 50b3 af3d
00000120: 0e18 173e 5afc fd3c ba0c 1d3e 390f 063e
00000130: 4930 083e bb3b fdbc 2dc9 c03b d217 0abd
00000140: 1817 cd3c 9d7d 9f3c 78af a53d ec76 153d
00000150: e78e fe3d 3986 283d da7f f13d 479c ac3d
00000160: 206a b63d 4f4e 033e 9aa0 ad3d 5d6c f53d
00000170: 746c e93d dc30 c83d 5c9e 8f3d 56a6 143d
00000180: bc1b 533d d0f0 83bd 2a44 433e c66c be3c
00000190: ce69 e1bc 355f fc3d 370f 1f3d 3ca7 8ebc
000001a0: f5fe 65bc 32c5 98bc ef8b 873d ca38 533d
000001b0: aefd 2a3d 7af3 5f3d bb47 c23d 1f4d 2abd
000001c0: 041f 843d 2ea3 ea3d 22a5 ec3a 00fb 6e3e
000001d0: df43 35bd 69b2 963d 1be3 103e 9461 213d
000001e0: d783 8a3e 38fe 103d 6ee4 663d ae0d 2f3d
000001f0: 2374 03bd 47fb 253e 2ad5 d83d 3202 f73c
00000200: 26ab 5c3c 3938 983d 0ef8 8c3d c606 1f3e
00000210: 3841 1f3d f811 c63d 4ec9 ac3b 9354 cd3c
00000220: 33f4 e43d b7d2 613d 3284 6d3e f294 fc3d
00000230: 68b8 083e cabb 253d 31f6 5c3d 5c9d 873d
00000240: e519 b43c a798 073d c6af bd3d ccea ab3d
00000250: 76cc 093c 888e 463d 128f 033e a212 a13d
00000260: 054e 0f3e 075a bd3d 1b6a c83d ad73 b43d
00000270: 6972 953d 589c de3c a5a7 613c f048 963c
00000280: a618 ae3d a08d 883d ad45 2d3d b617 833d
00000290: f1b7 7d3d d364 023e c57f 16bd cdc6 e53d
000002a0: 24f4 133d 7b5e 213e 618e 2f3d a3f7 e23d
000002b0: 9b42 3abd f0ab 8d3d 18d3 003e 0cc6 313d
000002c0: fd51 803c f7b0 203d c54b 5c3d 00a5 cc3d
000002d0: 3bed 8e3d 600e b5bd 46b6 44bc 907d a33d
000002e0: 4c60 9c3c 1ba9 b13c 6d75 0fbd b862 be3c
000002f0: 200f e83d 7868 21bd a3a7 0d3d 5d7c bcbc
00000300: 4a0f 613d a248 d23d 7f7e 593d af01 1f3c
00000310: 32ea 85bd 6d9a 4dbc ed97 d53c 2598 653d
00000320: 398d a93b f28e cf3d 4758 043e 6db7 01bc
00000330: e08f 493b 85a9 c23d bee5 55bc 1dcf 273e
00000340: c121 173d ce29 f43d a047 b33d 6e04 033e
00000350: bc15 9a3d 0f57 2bbd 0a27 d53d 7ed7 9d3c
00000360: 28d1 f23d 81fc 843d 489b b93d fc8d e13d
00000370: 1de4 1e3d 70ad a63d 21f8 c93c f422 d83c
00000380: 1814 2e3d f151 9a3d 8160 8b3d e2a8 68bd
00000390: a983 e23d 9c14 183e 46d3 dc3d 4650 993c
000003a0: 8d4a 793d dfb5 243d 2430 5c3e ca7e ff3d
000003b0: 1cf6 18bd f881 de3c d23f c7bd 3404 8d3d
000003c0: ecf0 0c3e ae1e a4bd 44f6 d33d 7fc3 e63d
000003d0: ef20 4f3d 6ffa 1e3e 153f cbbc b48c 06bc
000003e0: d270 163e 57a6 4a3d 7ff0 f63b b35b eb3d
000003f0: 2e18 173c 46a4 7f3d 47eb b03d 48b4 e0bc

fc2.bias f4 [300]
0.0057741376 0.0652746 0.072075516 0.04089521 0.023074914 0.09298744 0.058087427 0.04610826
0.053334706 0.07174711 0.07619721 0.040154282 0.046009388 0.0223777 0.0895359 0.06952759
0.01940814 0.09924398 0.024910787 0.06053898 0.067205586 0.03127014 0.049661826 0.06945527
0.10331892 0.08267775 0.102766186 0.08503702 0.0922664 0.028313205 0.105638646 0.058269747
0.075972006 0.05903937 0.057264242 0.07595468 -0.0047108284 0.11215347 0.10440691 -0.0028201842
0.08878735 0.033282317 0.10353782 0.11037616 0.090764396 0.068634816 0.06714605 0.08137813
0.0730721 0.12883194 0.07167771 0.11054186 0.071298204 0.0673176 0.10830246 0.05132442
0.048204813 0.07229624 0.07568077 0.038010534 0.073184125 0.034961432 0.12832388 0.0435484
0.042526368 0.10214207 -0.0072398605 0.040394247 0.1075887 0.12243437 0.06688104 0.022212237
0.1317173 0.09601452 0.11805169 0.08196175 0.10463528 0.07799637 0.1228759 0.07191737
-0.0020632062 -0.00872112 0.013120773 0.10087873 0.10670173 0.10622399 0.04224341 0.034001622
0.0070351614 0.12201193 0.06120043 0.025968898 0.0809751 0.08963509 0.014286989 0.07445642
0.08240737 0.12961791 0.018024389 0.019820416 0.061434016 0.07570748 0.040956702 0.09627125
0.07494364 0.027278572 0.10271343 0.07567136 0.030436845 0.044735104 0.0766692 0.021385046
0.03148747 0.02167981 0.0067800144 0.032706257 0.05560051 0.10833136 0.10813371 0.10120443
0.049311146 0.07179814 0.112920634 0.07764701 0.07822618 -0.0017107476 0.053196594 0.07747773
0.1288114 0.095076464 0.09566689 0.054029465 0.053986084 0.070851244 0.008319819 0.10813807
0.018060835 0.06714821 0.107023135 0.068057634 -0.0023967992 0.047157556 0.09883416 0.062283777
0.10495654 0.07825573 0.12061704 0.10853313 0.14187221 0.07510186 0.115864344 0.009818159
0.05747705 0.043507062 0.079277515 0.07069798 0.046884857 0.062110774 0.036550295 0.08621097
0.07907129 0.023683466 0.0801066 0.08875656 0.060260978 0.04825303 0.02041182 0.055253733
0.026822787 0.029426288 0.06395474 0.038382437 0.12521033 0.012921224 0.012949113 0.05992977
0.10410409 0.07013775 0.08599522 0.12931307 0.06438346 0.032062374 0.12545396 0.10494983
0.06024566 0.09684221 0.098122746 0.047119964 0.06419775 0.020751907 0.13489366 0.03377838
0.08806042 0.053901266 0.047804594 0.13790701 0.03835311 0.05977428 0.037083838 0.0063616713
0.05421609 0.08156975 0.01757711 0.09832611 0.040474858 0.07495643 0.07883948 0.06622808
0.08767152 0.04200464 0.11515652 0.12097483 0.03815467 0.07550813 0.03507791 0.13607498
0.015807632 0.03809071 0.04833589 0.011199597 0.07926136 0.08981653 -0.012793711 0.097684205
0.11586767 0.048504468 0.10739111 0.02424675 0.13116603 0.013122493 0.081026696 0.08389537
0.023426084 0.04833441 0.05141105 0.050070554 0.09876406 0.123900376 0.021751676 0.02922285
0.10961897 0.108232886 0.10549402 0.041354474 0.028370805 0.059118807 0.093151994 0.08164044
0.04941289 0.12982503 0.116195366 0.10097711 0.066564046 0.036116876 0.072402745 0.009822788
00000000: fa34 bd3b b1ae 853d 549c 933d bc81 273d
00000010: 9a07 bd3c 3370 be3d 15ed 6d3d 04dc 3c3d
00000020: 7e75 5a3d 26f0 923d 480d 9c3d d178 243d
00000030: 5774 3c3d 7051 b73c 995e b73d 7b64 8e3d
00000040: d2fd 9e3c 6e40 cb3d b511 cc3c b9f7 773d
00000050: 15a3 893d 1e15 003d 336a 4b3d 913e 8e3d
00000060: df98 d33d f452 a93d 1477 d23d e427 ae3d
00000070: 2bf6 bc3d 18f1 e73c 1359 d83d 42ac 6e3d
00000080: 3697 9b3d 44d3 713d e98d 6a3d 218e 9b3d
00000090: 4b5d 9abb b8b0 e53d 4ad3 d53d d7d2 38bb
000000a0: 24d6 b53d 0a53 083d a30b d43d e50c e23d
000000b0: afe2 b93d 6990 8c3d de83 893d 94a9 a63d
000000c0: d3a6 953d 85ec 033e c3cb 923d c563 e23d
000000d0: cb04 923d cfdd 893d aecd dd3d 8e39 523d
000000e0: 6972 453d 0d10 943d 85fe 9a3d efb0 1b3d
000000f0: 8fe1 953d b833 0f3d 5667 033e cf5f 323d
00000100: 2130 2e3d dd2f d13d 5a3c edbb 7074 253d
00000110: 7757 dc3d dfbe fa3d edf8 883d 70f6 b53c
00000120: e6e0 063e 43a3 c43d 16c5 f13d 90db a73d
00000130: 064b d63d 90bc 9f3d 5ca6 fb3d 6a49 933d
00000140: db36 07bb 07e3 0ebc 83f8 563c 8299 ce3d
00000150: 7086 da3d f78b d93d 6d07 2d3d 4945 0b3d
00000160: 3687 e63b 64e1 f93d 4dad 7a3d babc d43c
00000170: 46d6 a53d 9a92 b73d fa13 6a3c 9c7c 983d
00000180: 32c5 a83d 8fba 043e e2a7 933c 6d5e a23c
00000190: 3ca2 7b3d 860c 9b3d 37c2 273d dc29 c53d
000001a0: 0d7c 993d 5077 df3c 6b5b d23d 96f9 9a3d
000001b0: b156 f93c 283c 373d be04 9d3d b12f af3c
000001c0: 01f9 003d db99 b13c e22a de3b fff6 053d
000001d0: 5cbd 633d d5dc dd3d 3575 dd3d 4544 cf3d
000001e0: 7cfa 493d e70a 933d ef42 e73d 6505 9f3d
000001f0: 0c35 a03d 2a3b e0ba ace4 593d a5ac 9e3d
00000200: 23e7 033e 73b7 c23d 01ed c33d 004e 5d3d
00000210: 8320 5d3d 751a 913d da4f 083c 7e77 dd3d
00000220: 51f4 933c 0085 893d f22e db3d cd61 8b3d
00000230: 9e13 1dbb 4828 413d 9069 ca3d 461d 7f3d
00000240: 74f3 d63d 8a44 a03d 1106 f73d 9e46 de3d
00000250: f346 113e 01cf 993d 494a ed3d 58dc 203c
00000260: 0e6d 6b3d 7634 323d 405c a23d 1aca 903d
00000270: 560a 403d de67 7e3d c3b5 153d 618f b03d
00000280: 21f0 a13d d403 c23c ee0e a43d 00c6 b53d
00000290: 37d4 763d f8a4 453d b036 a73c bd51 623d
000002a0: 76bb db3c 660f f13c b4fa 823d e736 1d3d
000002b0: 2337 003e 8bb3 533c 8428 543c eb78 753d
000002c0: 8634 d53d 61a4 8f3d 431e b03d a56a 043e
000002d0: 7adb 833d d653 033d 0177 003e f0ef d63d
000002e0: 27c4 763d 3555 c63d 94f4 c83d dd00 413d
000002f0: 1c7a 833d e7ff a93c 9021 0a3e 335b 0a3d
00000300: 0559 b43d 93c7 5c3d c0ce 433d 7f37 0d3e
00000310: 2718 1d3d e0d5 743d 39e5 173d 9175 d03b
00000320: b111 5e3d 0b0e a73d dffd 8f3c 335f c93d
00000330: f7c8 253d c282 993d 9876 a13d 96a2 873d
00000340: 208d b33d 0f0d 2c3d 2ed7 eb3d a7c1 f73d
00000350: 1248 1c3d 02a4 9a3d dbad 0f3d 3d57 0b3e
00000360: 027f 813c 0105 1c3d dbfb 453d 847e 373c
00000370: c853 a23d bbf1 b73d b79c 51bc a80e c83d
00000380: 074c ed3d 9fac 463d dfef db3d 1fa1 c63c
00000390: 6350 063e baff 563c 53f1 a53d 56d1 ab3d
000003a0: 0fe8 bf3c 4dfa 453d 6594 523d c816 4d3d
000003b0: d044 ca3d 7bbf fd3d 9230 b23c c264 ef3c
000003c0: e97f e03d 34a9 dd3d 400d d83d 4f63 293d
000003d0: e469 e83c 9026 723d 79c6 be3d 1a33 a73d
000003e0: 2c65 4a3d daf0 043e d6f7 ed3d 16cd ce3d
000003f0: bb52 883d 4aef 133d e447 943d c2ef 203c

bn1.weight f4 [400]
1.0014887 1.2065452 1.0004423 1.0338666 0.84749234 1.0368043 1.1301347 1.0926231
0.89274675 1.1196259 1.0989577 1.1227614 0.9624837 1.1525251 0.9859656 1.0043199
1.8363419 1.05244 1.6590736 1.0811204 0.9024612 1.1671271 1.1340861 1.0251284
0.89587605 1.1198035 1.2108457 1.2296246 1.1018327 0.9680499 0.9682091 1.0865244
1.1772811 1.4000459 0.97169024 0.88876617 0.993607 1.0734035 1.0483509 1.2381575
1.2087909 1.0728369 1.0377561 0.84728205 1.4446137 1.077554 1.7180686 0.9588237
0.95831704 1.3565319 0.97324944 1.0616115 1.0285331 1.0483398 0.95349467 0.8817343
1.3506818 1.3461815 1.0858659 1.1922172 0.94679224 1.1072072 1.0170404 1.137234
0.981602 1.2550628 1.0670185 1.0152054 1.0992576 1.0515349 1.1311018 1.2934394
1.0949433 1.0038643 1.1571501 1.2582102 0.9868649 1.2649685 1.3717964 1.7196155
1.0483612 1.0615438 1.1197422 1.1237141 1.2543042 1.0138968 1.1068317 0.84981984
1.2669455 1.2513684 0.95167017 1.011326 1.7174163 1.1286285 1.3045577 0.8760037
1.0953947 1.417866 1.3749402 0.98274773 0.9688586 1.076986 1.0871326 0.9758585
1.0098772 0.99797887 0.98156774 1.0253128 0.96811384 0.9302011 1.1028367 0.9652392
1.0187464 1.2650632 0.88672507 1.5805246 1.0601487 1.2189946 0.9918822 0.82924145
1.846964 1.3611405 1.0469217 1.1159141 1.0468076 1.1185027 0.89155227 1.0521425
1.3837719 0.90670156 0.9533761 1.5141243 1.39537 0.9328662 1.203318 1.5440118
1.1321905 0.9360839 1.3739171 0.9701828 1.2360821 1.4008644 1.3225865 0.95822674
1.0137081 0.9932024 0.9032756 1.1322434 1.3132964 1.12008 1.3041928 1.2709739
0.9266514 0.9254298 1.0968405 1.0227656 0.9442093 1.1080616 1.0324774 0.9487644
1.0294417 0.84621733 1.0338446 0.93704647 0.93470013 1.0282706 1.0670869 1.2493751
1.2084965 1.2185566 0.84503144 0.9650539 1.022612 1.1253903 1.0032483 0.97090125
1.055659 0.98241365 1.1323543 0.9549227 1.3412665 1.1393275 1.246276 0.8264048
0.91052693 1.063311 1.1803414 1.0236335 1.5001153 1.1241556 1.1216642 1.0789341
0.96951795 0.93946785 0.9436342 1.1628673 1.248546 1.0781614 0.911208 1.2570351
0.9887612 0.979805 0.9085326 1.4130834 1.0785995 0.8614627 1.0108206 1.4101888
1.0698284 0.97703177 1.0535101 1.1011068 1.0386769 1.1236125 1.0730026 0.9572545
1.0861557 1.0147043 1.0590934 1.1254097 1.1419926 1.0583812 0.93393165 0.9698915
1.0671241 1.0241803 0.84944975 1.1724119 1.8991107 0.99586546 1.0173873 0.8655051
1.2490531 1.0617583 1.4336247 0.97482216 1.0439467 1.0861627 1.2876126 1.3783462
1.0473549 0.9572307 0.92376375 1.1869994 1.430245 1.153362 0.9579622 1.4311949
0.8302895 1.0538853 0.9109137 0.91467965 0.78644615 0.99686724 1.1149529 0.9544444
00000000: c830 803f 1370 9a3f 7e0e 803f be55 843f
00000010: 42f5 583f 01b6 843f 41a8 903f 13db 8b3f
00000020: 0d8b 643f e74f 8f3f a5aa 8c3f a5b6 8f3f
00000030: 5565 763f f185 933f 3e68 7c3f 8e8d 803f
00000040: 400d eb3f 5bb6 863f 865c d43f 2762 8a3f
00000050: b207 673f 6c64 953f bc29 913f 6837 833f
00000060: 2258 653f b955 8f3f fefc 9a3f 5764 9d3f
00000070: db08 8d3f 1ed2 773f 8ddc 773f 3b13 8b3f
00000080: 26b1 963f b434 b33f b1c0 783f 2e86 633f
00000090: 075d 7e3f 4965 893f 5d30 863f f27b 9e3f
000000a0: a9b9 9a3f b852 893f 31d5 843f 7ae7 583f
000000b0: 1ae9 b83f 4aed 893f ace9 db3f 7875 753f
000000c0: 4454 753f d6a2 ad3f e026 793f e3e2 873f
000000d0: f9a6 833f 0030 863f 3a18 743f 57b9 613f
000000e0: 24e3 ac3f ad4f ac3f a7fd 8a3f 939a 983f
000000f0: fa60 723f f7b8 8d3f 612e 823f e290 913f
00000100: 454a 7b3f e6a5 a03f 1094 883f 40f2 813f
00000110: 79b4 8c3f b298 863f f2c7 903f 6c8f a53f
00000120: 1a27 8c3f a07e 803f 7f1d 943f 080d a13f
00000130: 2ea3 7c3f 7dea a13f 0697 af3f 5c1c dc3f
00000140: b330 863f abe0 873f b653 8f3f ddd5 8f3f
00000150: 0a8d a03f 5fc7 813f a9ac 8d3f cb8d 593f
00000160: 452b a23f d72c a03f a8a0 733f 2173 813f
00000170: 4cd4 db3f e676 903f bffb a63f c741 603f
00000180: e535 8c3f a27c b53f 0afe af3f 5b95 7b3f
00000190: 1e07 783f adda 893f 2927 8b3f ddd1 793f
000001a0: a843 813f 8b7b 7f3f 0648 7b3f 733d 833f
000001b0: 4fd6 773f a921 6e3f c129 8d3f eb19 773f
000001c0: 4866 823f 97ed a13f 6a00 633f a14e ca3f
000001d0: f4b2 873f 0408 9c3f feeb 7d3f 2b49 543f
000001e0: 5169 ec3f da39 ae3f 8801 863f 46d6 8e3f
000001f0: cbfd 853f 192b 8f3f c53c 643f 9bac 863f
00000200: 701f b13f 981d 683f 7510 743f d3ce c13f
00000210: 7c9b b23f 52d0 6e3f 5306 9a3f 2ea2 c53f
00000220: 9eeb 903f 32a3 6f3f 84dc af3f e65d 783f
00000230: f037 9e3f 864f b33f 844a a93f 594e 753f
00000240: 30c1 813f 8342 7e3f 123d 673f 5aed 903f
00000250: 191a a83f c85e 8f3f caef a63f 46af a23f
00000260: 0739 6d3f f8e8 6c3f 4565 8c3f fce9 823f
00000270: b3b7 713f f6d4 8d3f 3828 843f 39e2 723f
00000280: bfc4 833f b3a1 583f 0555 843f 47e2 6f3f
00000290: 8248 6f3f 5f9e 833f 4e96 883f 86eb 9f3f
000002a0: 03b0 9a3f aaf9 9b3f fb53 583f c60d 773f
000002b0: f3e4 823f ca0c 903f 716a 803f fc8c 783f
000002c0: d61f 873f 767f 7b3f fcf0 903f d075 743f
000002d0: 9fae ab3f 7cd5 913f f985 9f3f 448f 533f
000002e0: 4b18 693f 931a 883f 6d15 973f 6c06 833f
000002f0: c703 c03f 55e4 8f3f b192 8f3f 831a 8a3f
00000300: 5432 783f f780 703f 0392 713f d6d8 943f
00000310: 5bd0 9f3f 3101 8a3f ed44 693f 87e6 a03f
00000320: 741f 7d3f 80d4 7a3f 9895 683f ebdf b43f
00000330: 8c0f 8a3f d288 5c3f 9262 813f 1181 b43f
00000340: 23f0 883f c11e 7a3f 6bd9 863f 11f1 8c3f
00000350: 5df3 843f 89d2 8f3f 2658 893f a20e 753f
00000360: 2607 8b3f d5e1 813f 5f90 873f 6d0d 903f
00000370: d02c 923f 0979 873f 2516 6f3f cf4a 783f
00000380: 8697 883f 5718 833f 8a75 593f 9811 963f
00000390: 0f16 f33f 0af1 7e3f bf39 823f be91 5d3f
000003a0: f9e0 9f3f b2e7 873f 0481 b73f f28d 793f
000003b0: 0ca0 853f 6107 8b3f 7dd0 a43f a66d b03f
000003c0: ba0f 863f 120d 753f c87b 6c3f 99ef 973f
000003d0: 4512 b73f 5ea1 933f 033d 753f 6531 b73f
000003e0: da8d 543f b7e5 863f a431 693f 7228 6a3f
000003f0: 8954 493f b132 7f3f c7b6 8e3f 7856 743f

bn1.bias f4 [400]
-0.008843981 -0.03203515 -0.04972222 -0.09813853 -0.060456812 -0.06736588 -0.12733123 -0.031875994
-0.08676416 -0.041325092 -0.06797628 -0.046227403 -0.06364484 -0.064672045 -0.12792481 -0.07296985
0.043399926 -0.07437065 0.0060447957 -0.048666462 -0.037368197 -0.04146355 -0.054545183 -0.054685786
-0.076159365 -0.08178319 -0.056710068 0.034225516 -0.06673893 -0.08698941 -0.07222491 -0.08300348
0.0023968 0.02091962 -0.083989166 -0.15144457 -0.13214871 -0.053938583 0.04052873 -0.08406012
-0.064466245 -0.08421453 -0.102737546 -0.088899165 -0.014438888 -0.014321762 -0.080226846 -0.10808503
-0.07170039 -0.01900101 -0.04008937 -0.08312595 -0.11551071 -0.005838682 -0.14333017 -0.070885286
-0.014888331 -0.041539073 -0.10979242 -0.10914934 -0.08149667 -0.08756279 -0.1033395 -0.07054486
-0.09513028 -0.05870537 -0.06891848 -0.19323991 -0.062147345 -0.054198362 -0.021531804 0.0030694029
-0.048860315 -0.09257367 0.014183774 0.021338841 -0.10200915 -0.05000639 -0.017717928 -0.05297287
-0.041265562 -0.014119219 -0.0429044 -0.0028093166 0.017038506 -0.0092527 -0.028576246 -0.15234993
-0.0069149486 -0.018689817 -0.030509261 -0.020456411 0.06592918 -0.06781362 0.048878804 -0.09823324
-0.00021876229 0.026076747 0.03640902 -0.08459917 -0.14238521 0.0026736022 -0.084784575 -0.09028921
-0.06790969 -0.04954813 -0.067091756 -0.07401921 -0.11542637 -0.08137758 -0.09166716 -0.12222632
-0.09535897 0.09392517 -0.060949136 0.02112203 -0.0921147 0.033048786 -0.08996768 -0.106203005
-0.030582324 0.012139063 -0.065109074 0.021906361 -0.12036611 -0.043336883 -0.12810689 -0.10731921
-0.0076737 -0.13633879 -0.046491064 0.036933 0.043784883 -0.08629862 -0.054893658 -0.018910073
-0.093213044 -0.07207233 -0.099064305 -0.15526643 -0.04866202 -0.055295944 -0.058647394 -0.07500979
-0.1183998 -0.0914275 -0.12154172 -0.012554601 -0.101071514 -0.13218603 0.009834716 -0.0028150552
-0.08074471 0.020197676 -0.012158675 -0.015409004 -0.089557976 -0.04010635 -0.116474114 -0.08856546
-0.094927676 -0.086565286 0.016827717 -0.11956602 -0.15760025 -0.045245085 -0.07869673 -0.07566922
-0.063543476 0.011747678 -0.12323361 -0.11486334 -0.073747754 -0.035506494 -0.060622733 -0.0674533
-0.105735056 -0.078436695 -0.012321823 -0.060769875 -0.06085846 -0.03768532 -0.050214075 -0.18400307
-0.0969495 -0.11154422 -0.049143966 -0.037334885 -0.047034923 -0.121161014 0.015817374 -0.052047323
-0.07184185 -0.068126805 -0.1518032 -0.15091343 -0.014635277 -0.116169885 -0.07643148 0.012176432
-0.23794104 -0.08664606 -0.14472146 -0.048145678 -0.027987035 -0.13662383 -0.10933924 -0.021566857
-0.04577642 -0.070120186 -0.06376598 -0.07565826 -0.061875697 -0.02136944 -0.05952831 -0.08272444
-0.03196527 -0.116579585 -0.103151694 -0.07157967 0.0044049933 -0.07930539 -0.112662055 -0.11414757
-0.08250182 -0.11008563 -0.15107702 -0.055257417 0.042824473 -0.0855789 -0.14605232 -0.16356274
0.018898765 -0.034376487 -0.004444568 -0.049908347 -0.13344625 -0.043556128 -0.02905242 -0.0033496867
-0.015197453 -0.14192583 -0.081635386 -0.07658143 0.004319014 0.058148418 -0.24153763 -0.1304957
-0.17883125 -0.0009239113 -0.118061855 -0.05062704 -0.13682447 -0.1270744 -0.07050379 -0.046933893
00000000: 58e6 10bc 4a37 03bd 87a9 4bbd dbfc c8bd
00000010: 90a1 77bd 1ff7 89bd 1e63 02be 6790 02bd
00000020: 68b1 b1bd 8044 29bd 2637 8bbd f258 3dbd
00000030: 3a58 82bd c772 84bd b9fe 02be 3771 95bd
00000040: 1fc4 313d a44f 98bd 6c13 c63b 7c56 47bd
00000050: 650f 19bd afd5 29bd c56a 5fbd 34fe 5fbd
00000060: 71f9 9bbd f27d a7bd d148 68bd 0e30 0c3d
00000070: 6cae 88bd 8127 b2bd a7ea 93bd bbfd a9bd
00000080: a213 1d3b 9f5f ab3c 8302 acbd 4914 1bbe
00000090: fe51 07be b4ee 5cbd 7401 263d b627 acbd
000000a0: e106 84bd ab78 acbd 1068 d2bd c410 b6bd
000000b0: 1691 6cbc d3a5 6abc f94d a4bd af5b ddbd
000000c0: a7d7 92bd 02a8 9bbc c034 24bd f03d aabd
000000d0: e190 ecbd 6a52 bfbb 25c5 12be 4e2c 91bd
000000e0: 30ee 73bc e024 2abd d9da e0bd b089 dfbd
000000f0: bae7 a6bd 1f54 b3bd a9a3 d3bd d379 90bd
00000100: aad3 c2bd 0b75 70bd 2225 8dbd afe0 45be
00000110: 378e 7ebd 1aff 5dbd 7763 b0bc 0928 493b
00000120: c121 48bd 4497 bdbd 0f63 683c cbce ae3c
00000130: 2cea d0bd 80d3 4cbd 3025 91bc 15fa 58bd
00000140: 1406 29bd 4c54 67bc 86bc 2fbd 831c 38bb
00000150: 5694 8b3c a398 17bc bb18 eabc 9f01 1cbe
00000160: cb96 e2bb 631b 99bc 8fee f9bc 3494 a7bc
00000170: e105 873d dee1 8abd 2435 483d 822e c9bd
00000180: 8e63 65b9 e79e d53c a021 153d 5442 adbd
00000190: 6ecd 11be 9a37 2f3b 89a3 adbd 8de9 b8bd
000001a0: 3c14 8bbd fbf2 4abd 6767 89bd 6297 97bd
000001b0: a964 ecbd 4aa9 a6bd febb bbbd cb51 fabd
000001c0: 904b c3bd d75b c03d cda5 79bd 1c08 ad3c
000001d0: a2a6 bcbd 2a5e 073d fa40 b8bd f680 d9bd
000001e0: c887 fabc ece2 463c e857 85bd f874 b33c
000001f0: 8282 f6bd 0482 31bd 742e 03be 2dca dbbd
00000200: a973 fbbb 659c 0bbe 6a6d 3ebd 0f47 173d
00000210: c757 333d 55bd b0bd 2cd8 60bd 4ce9 9abc
00000220: 7be6 bebd a89a 93bd 3ae2 cabd 2afe 1ebe
00000230: d451 47bd 007e 62bd 4038 70bd bc9e 99bd
00000240: 987b f2bd 573e bbbd deea f8bd d0b1 4dbc
00000250: 95fe cebd c65b 07be ca21 213c ca7c 38bb
00000260: 7c5d a5bd 9975 a53c 2e35 47bc 0c76 7cbc
00000270: 2c6a b7bd 8e46 24bd fb89 eebd cf61 b5bd
00000280: 7169 c2bd 2449 b1bd 48da 893c 08df f4bd
00000290: f661 21be e952 39bd c02b a1bd 77f8 9abd
000002a0: 1523 82bd 5579 403c e761 fcbd 793d ebbd
000002b0: 1009 97bd 426f 11bd 8b4f 78bd f524 8abd
000002c0: 9f8b d8bd 6ba3 a0bd 79e1 49bc d5e9 78bd
000002d0: b846 79bd ec5b 1abd 46ad 4dbd 4d6b 3cbe
000002e0: 768d c6bd 4c71 e4bd 2f4b 49bd 77ec 18bd
000002f0: b1a7 40bd 4423 f8bd 7093 813c 932f 55bd
00000300: d221 93bd 1186 8bbd 4c72 1bbe 0d89 1abe
00000310: cdc8 6fbc 7aea edbd 1c88 9cbd a87f 473c
00000320: d1a6 73be 7d73 b1bd dd31 14be 6734 45bd
00000330: 1145 e5bc 1ee7 0bbe 40ed dfbd faac b0bc
00000340: 0e80 3bbd 2c9b 8fbd bd97 82bd b8f2 9abd
00000350: 5f71 7dbd f70e afbc f5d3 73bd 6e6b a9bd
00000360: 04ee 02bd 47c1 eebd 3241 d3bd 5d98 92bd
00000370: c357 903b dd6a a2bd 5dbb e6bd 34c6 e9bd
00000380: b7f6 a8bd 9374 e1bd efb3 1abe 9a55 62bd
00000390: b768 2f3d fe43 afbd bd8e 15be fe7c 27be
000003a0: 95d1 9a3c 5cce 0cbd bda3 91bb b26c 4cbd
000003b0: 22a6 08be e967 32bd 57ff edbc 6b86 5bbb
000003c0: bdfe 78bc 0155 11be 7430 a7bd bad6 9cbd
000003d0: 8486 8d3b 092d 6e3d a455 77be aaa0 05be
000003e0: 8a1f 37be a332 72ba 6aca f1bd 4d5e 4fbd
000003f0: b71b 0cbe cb1f 02be 4b64 90bd c13d 40bd

bn2.weight f4 [300]
1.2458683 1.5666202 1.2148488 1.0832539 1.0098107 0.90552735 1.0169588 0.85130644
0.88417983 0.932899 1.0961541 1.5665604 1.9480246 1.3500412 1.3057967 1.577945
1.9771949 1.3396482 0.92132485 1.4707032 0.98024297 1.273838 2.3583763 1.2616967
1.3147341 1.1601304 1.3743895 1.6053213 0.8956968 1.680323 1.5075866 2.124519
0.97412574 1.8893471 1.5912305 1.5438963 1.5710998 1.3895065 1.1894159 1.6756591
1.2251312 0.8094272 1.5001041 0.8857975 1.9707702 1.3022218 0.86534685 1.6140007
0.95935893 1.2462407 0.93455106 1.4096438 1.4537691 1.5056665 1.1018517 1.4506297
1.6015643 0.8695158 1.0518315 1.8735323 1.3521769 1.0845286 1.0174606 1.8097547
1.0065492 1.7061802 1.9076033 1.4612908 0.88869685 0.82155323 1.3951547 1.2031794
1.1982088 1.6882015 1.5328547 1.42304 1.2248573 1.1761665 1.7316661 1.6126024
2.1389248 1.6433679 1.2865789 1.9287944 1.3436658 1.6044203 1.2014625 1.2027271
1.6941023 0.80458975 1.0528444 1.7539126 1.2017876 1.3106555 1.0603153 0.922227
1.7108815 1.1174722 1.346361 2.168693 1.1878104 1.3404548 2.4406922 1.3557444
0.9898094 1.2770679 0.8394045 1.281477 1.636554 2.5864851 1.5936838 1.7542161
1.4353578 1.7518055 1.3391616 1.1762689 0.9156853 0.9632666 1.9435031 0.9409717
0.8738724 1.6861334 1.185525 1.6242807 2.1764796 1.4636134 2.3536747 0.8178296
0.9781738 1.3707744 1.5704846 1.1216792 1.3165079 1.1734086 3.6164339 0.98707145
1.4260709 1.7119617 1.4983292 2.183459 1.551026 0.9787364 0.8597902 1.4162639
1.2625285 1.8137968 1.2109368 1.4717803 0.98150295 1.2094651 1.2674096 1.963481
1.8396206 1.6205655 1.3926474 2.223364 1.9470805 1.3547269 1.2335132 0.9446504
1.6806587 0.94349146 1.6774203 0.9291364 1.2742372 2.4112012 1.273373 0.9744295
0.94395864 1.2466594 1.7459635 1.1514698 1.2213523 1.6571735 0.9345465 1.2101802
0.9745186 1.6464915 1.1405252 1.1399676 1.3846371 0.88791806 1.1345298 1.6033465
1.1692119 0.9862855 1.189168 1.2035303 2.0727618 0.9155998 1.0197016 1.2116226
0.99368954 1.0542536 1.68949 1.298236 1.6114765 1.1454756 1.1950426 4.5986195
0.94858044 1.3784248 1.4422574 1.2603056 1.1106496 1.5108478 1.4344968 0.9198627
1.4585656 1.0642503 1.4623237 1.1363634 0.9875535 0.92443615 2.4255612 0.76013213
1.5288355 1.5229408 1.6155428 1.4604678 1.4314743 1.2673329 2.0936744 0.96570975
0.8976831 2.318168 1.0482754 2.539575 1.8130345 1.3808092 1.876873 1.3370128
1.5021309 1.5906265 1.1432267 1.9559053 1.433359 1.2163188 1.4255993 0.99317575
1.7147269 1.0098145 1.2676743 1.5055087 1.9064146 1.2055672 1.6936325 1.2813969
1.531293 1.2470334 1.6557385 1.2085623 1.5519204 1.2306294 1.1070942 1.8504009
00000000: 9d78 9f3f 0387 c83f 2a80 9b3f 10a8 8a3f
00000010: 7a41 813f a4d0 673f b52b 823f 38ef 593f
00000020: 9c59 623f 78d2 6e3f c74e 8c3f 0d85 c83f
00000030: df58 f93f 26ce ac3f 5924 a73f 1afa c93f
00000040: b914 fd3f 9879 ab3f f2db 6b3f 0140 bc3f
00000050: 34f1 7a3f 200d a33f a3ef 1640 477f a13f
00000060: 3549 a83f 277f 943f ffeb af3f 2b7b cd3f
00000070: 634c 653f d314 d73f 99f8 c03f 1ff8 0740
00000080: 4e60 793f 20d6 f13f 71ad cb3f 659e c53f
00000090: cc19 c93f 59db b13f c83e 983f ff7b d63f
000000a0: 19d1 9c3f 9f36 4f3f 6903 c03f a0c3 623f
000000b0: 3342 fc3f 34af a63f 5f87 5d3f 9397 ce3f
000000c0: 8c98 753f d184 9f3f bd3e 6f3f 356f b43f
000000d0: 1b15 ba3f aeb9 c03f 7a09 8d3f 3cae b93f
000000e0: 0f00 cd3f 9698 5e3f 6aa2 863f e8cf ef3f
000000f0: 2214 ad3f d5d1 8a3f 263c 823f 0ba6 e73f
00000100: 9bd6 803f 1d64 da3f 582c f43f 940b bb3f
00000110: a381 633f 5051 523f 6e94 b23f c801 9a3f
00000120: e85e 993f fd16 d83f 9534 c43f 2d26 b63f
00000130: 20c8 9c3f a08c 963f 3ca7 dd3f c169 ce3f
00000140: 25e4 0840 e159 d23f 9eae a43f bce2 f63f
00000150: 3efd ab3f a55d cd3f 86c9 993f f6f2 993f
00000160: 58d8 d83f 98f9 4d3f 9bc3 863f 3580 e03f
00000170: 2dd4 993f 8fc3 a73f 69b8 873f 1217 6c3f
00000180: 2afe da3f 5409 8f3f 8f55 ac3f decb 0a40
00000190: 2c0a 983f 0694 ab3f 4d34 1c40 0889 ad3f
000001a0: 2664 7d3f f676 a33f 37e3 563f 7007 a43f
000001b0: 9a7a d13f f988 2540 d5fd cb3f 278a e03f
000001c0: ceb9 b73f 2a3b e03f a669 ab3f fb8f 963f
000001d0: 5a6a 6a3f a498 763f b6c4 f83f 85e3 703f
000001e0: 1ab6 5f3f 38d3 d73f 48bf 973f 6ee8 cf3f
000001f0: 714b 0b40 af57 bb3f 9ba2 1640 485d 513f
00000200: 9969 7a3f 8975 af3f a405 c93f 2f93 8f3f
00000210: 5583 a83f 4132 963f a773 6740 b7b0 7c3f
00000220: 7e89 b63f 9021 db3f 40c9 bf3f cbbd 0b40
00000230: 0588 c63f 788e 7a3f 361b 5c3f 2348 b53f
00000240: 899a a13f 7e2a e83f faff 9a3f 4c63 bc3f
00000250: c743 7b3f c1cf 9a3f 7a3a a23f 5853 fb3f
00000260: b078 eb3f b16e cf3f 4542 b23f 994b 0e40
00000270: ef39 f93f b167 ad3f c3e3 9d3f 9cd4 713f
00000280: d31f d73f a888 713f b5b5 d63f e2db 6d3f
00000290: 341a a33f 1f51 1a40 e3fd a23f 3674 793f
000002a0: 46a7 713f 8992 9f3f bb7b df3f 5d63 933f
000002b0: 4655 9c3f 431e d43f 703e 6f3f 2fe7 9a3f
000002c0: 0d7a 793f 3cc0 d23f bbfc 913f 75ea 913f
000002d0: ca3b b13f 994e 633f 4638 913f 753a cd3f
000002e0: bca8 953f 357d 7c3f a836 983f 480d 9a3f
000002f0: 21a8 0440 c064 6a3f 9585 823f 7316 9b3f
00000300: 7062 7e3f c8f1 863f 3541 d83f 992c a63f
00000310: dd44 ce3f f29e 923f 28f7 983f e427 9340
00000320: 2bd6 723f 3970 b03f e49b b83f b251 a13f
00000330: c429 8e3f 7663 c13f 979d b73f 1f7c 6b3f
00000340: 47b2 ba3f 5b39 883f 6c2d bb3f 5b74 913f
00000350: 4ed0 7c3f d9a7 6c3f 653c 1b40 0598 423f
00000360: e2b0 c33f b9ef c23f 1bca ce3f 9cf0 ba3f
00000370: 8d3a b73f f737 a23f c3fe 0540 c138 773f
00000380: 8fce 653f dd5c 1440 e32d 863f 6688 2240
00000390: 8411 e83f 5bbe b03f 603d f03f 3c23 ab3f
000003a0: d345 c03f a699 cb3f 4155 923f 1b5b fa3f
000003b0: 4f78 b73f 56b0 9b3f 0a7a b63f c440 7e3f
000003c0: 2c7c db3f 9a41 813f 2743 a23f 82b4 c03f
000003d0: 6505 f43f 0750 9a3f f3c8 d83f d004 a43f
000003e0: 6901 c43f ca9e 9f3f 3def d33f 2bb2 9a3f
000003f0: 54a5 c63f 4485 9d3f 43b5 8d3f f0d9 ec3f

bn2.bias f4 [300]
-0.21287328 -0.2255493 -0.25154415 0.11906786 -0.18901594 -0.10282987 -0.08639976 -0.3092526
-0.22523457 0.033199728 0.017681008 -0.22813056 -0.2845651 -0.25707376 -0.43747777 -0.23260164
-0.27783066 -0.3596869 -0.16908596 -0.27321255 0.10809669 -0.29110178 -0.28861648 -0.4400123
-0.019522665 -0.27635667 -0.10912284 -0.50285685 -0.21158046 -0.5017584 -0.34531522 -0.2738667
-0.1695166 -0.47425234 -0.38193652 -0.25751957 -0.17072666 -0.38220543 -0.230902 -0.1497525
-0.22387864 -0.26402056 -0.15660201 -0.08498978 -0.3251123 -0.23792666 -0.14266919 -0.06725551
-0.14654474 -0.24877474 -0.13763031 -0.17353728 -0.15801853 -0.13565715 -0.17270944 -0.41773286
-0.30719966 -0.09529983 -0.23473136 -0.20036225 -0.19357432 -0.25752717 -0.2922324 -0.29462165
0.11180462 -0.21350224 -0.3688639 -0.42452943 -0.178956 -0.2601876 -0.35090458 0.07827587
0.0057254774 -0.5905455 -0.25911653 -0.39917877 0.087337635 -0.3370267 -0.14297225 -0.29141647
-0.49949133 -0.30019298 -0.3510295 -0.24611743 -0.3979159 -0.4005269 -0.28325573 -0.28576002
-0.31994623 -0.21273902 -0.22144972 -0.08336651 -0.15835944 -0.36051112 -0.177246 -0.098992445
-0.35968938 -0.29175153 -0.19888362 -0.39600033 -0.22410074 -0.3271558 -0.46500778 -0.43860108
0.09525265 -0.27433154 -0.10670458 -0.25260046 -0.30681577 -0.37360507 -0.3640556 -0.26517388
-0.046725187 -0.26513168 -0.1063318 -0.29958406 -0.43012875 -0.1906632 -0.38540387 0.0062471805
-0.17846635 -0.17299864 -0.07172837 -0.5127972 -0.20040543 -0.26706213 -0.29035267 -0.15278785
0.09472041 -0.22180006 -0.22577152 -0.11075524 -0.4145502 -0.15511528 -0.21097025 -0.033277493
-0.22294049 -0.36608186 -0.1833765 -0.25268444 -0.46168453 -0.04487326 -0.115704015 -0.37987342
-0.38625753 -0.2526543 -0.039046127 -0.08702172 -0.15532546 -0.11961176 -0.23020542 -0.33131486
-0.5109467 -0.33241352 -0.26822665 -0.25439876 -0.45054746 -0.2037585 -0.084235 0.05050178
-0.49711427 -0.24770035 -0.48405913 -0.19902267 -0.3484059 -0.31759128 -0.21219084 -0.15371487
-0.17389108 -0.020277552 -0.410668 -0.316617 -0.2273945 -0.063296564 -0.20313975 -0.2433241
0.071491644 -0.47041768 -0.3169021 -0.1317089 -0.05917564 -0.09678065 -0.3024594 -0.2806934
-0.38891494 0.05519085 -0.4592354 -0.041737802 -0.17477933 -0.057173558 -0.2738759 0.037762854
-0.2290347 -0.18780024 -0.24298695 -0.10253103 -0.42070013 -0.34152162 -0.13488789 -0.3796869
-0.19398136 -0.17081219 -0.34959108 -0.27462107 -0.32115543 -0.24652116 -0.063052475 -0.16834286
-0.06455051 -0.3957181 -0.17324285 -0.056310747 -0.22016162 -0.055636875 -0.252839 -0.26311922
-0.20503882 -0.34173122 -0.2212742 -0.1288178 -0.24605316 -0.031816382 -0.4394719 -0.129783
-0.19691649 -0.40422204 0.014319853 -0.32949033 -0.18261774 -0.33942252 -0.39235136 -0.22216585
-0.38755897 -0.257745 -0.20810185 -0.36525983 -0.29543346 -0.23503801 -0.32220328 0.06665196
-0.18708168 0.12761854 -0.38984826 -0.06266724 -0.23449692 -0.021846777 -0.1738284 -0.03624976
-0.23432305 -0.14983681 -0.20087887 -0.038187724 -0.27583855 -0.25858703 -0.30540326 -0.21340752
00000000: 74fb 59be 65f6 66be 65ca 80be dad9 f33d
00000010: 658d 41be 7898 d2bd 5bf2 b0bd 5b56 9ebe
00000020: e4a3 66be 70fc 073d c3d7 903c 0f9b 69be
00000030: 84b2 91be 2c9f 83be 16fd dfbe 202f 6ebe
00000040: d23f 8ebe e228 b8be df24 2dbe 84e2 8bbe
00000050: cc61 dd3d 4b0b 95be 8ac5 93be 4b49 e1be
00000060: ffed 9fbc 9f7e 8dbe cc7b dfbd 3abb 00bf
00000070: 8ca8 58be 3d73 00bf 28cd b0be 4238 8cbe
00000080: c295 2dbe 34d1 f2be 2f8d c3be 9bd9 83be
00000090: f8d2 2ebe 6eb0 c3be 9371 6cbe b858 19be
000000a0: 7140 65be b42d 87be 475c 20be 1f0f aebd
000000b0: 1f75 a6be 0ca3 73be df17 12be 42bd 89bd
000000c0: d30f 16be cebe 7ebe f6ee 0cbe c2b3 31be
000000d0: 9ccf 21be b5e9 0abe beda 30be 15e1 d5be
000000e0: 4649 9dbe 8f2c c3bd 6b5d 70be c32b 4dbe
000000f0: 5938 46be 9ada 83be 7c9f 95be a6d8 96be
00000100: d2f9 e43d 55a0 5abe bbdb bcbe ec5b d9be
00000110: 3e40 37be 4f37 85be c4a9 b3be 194f a03d
00000120: c99c bb3b fd2d 17bf ecaa 84be 2961 ccbe
00000130: 13de b23d c38e acbe 5167 12be 8a34 95be
00000140: 54bd ffbe e5b2 99be 23ba b3be 3506 7cbe
00000150: a2bb cbbe dd11 cdbe e506 91be 234f 92be
00000160: fecf a3be 42d8 59be b7c3 62be 10bc aabd
00000170: fa28 22be ea94 b8be fa7f 35be 8dbc cabd
00000180: 3529 b8be 7560 95be 26a8 4bbe 8ec0 cabe
00000190: aa7a 65be f780 a7be 8015 eebe 5290 e0be
000001a0: d213 c33d 2f75 8cbe ee87 dabd d954 81be
000001b0: f516 9dbe 2a49 bfbe 7f65 babe dfc4 87be
000001c0: e962 3fbd 57bf 87be 7dc4 d9bd 1563 99be
000001d0: d639 dcbe 373d 43be a853 c5be 26b5 cc3b
000001e0: e2bf 36be 8e26 31be 53e6 92bd ad46 03bf
000001f0: 1537 4dbe 5ebc 88be 1ba9 94be 6b74 1cbe
00000200: c6fc c13d 8e1f 63be a630 67be a5d3 e2bd
00000210: ec3f d4be 8ad6 1ebe 9608 58be fb4d 08bd
00000220: 834a 64be 156f bbbe 0dc7 3bbe db5f 81be
00000230: ea61 ecbe 06cd 37bd 3af6 ecbd c57e c2be
00000240: 8cc3 c5be e85b 81be d5ee 1fbd 7238 b2bd
00000250: a30d 1fbe 03f7 f4bd f8ba 6bbe 1aa2 a9be
00000260: 67cd 02bf 1b32 aabe 0155 89be 8e40 82be
00000270: 28ae e6be 11a6 50be 6683 acbd f4da 4e3d
00000280: c385 febe 29a5 7dbe 99d6 f7be 99cc 4bbe
00000290: 4262 b2be 539b a2be 8e48 59be 6e67 1dbe
000002a0: 8110 32be 1c1d a6bc 1343 d2be a01b a2be
000002b0: 1bda 68be a1a1 81bd de03 50be f429 79be
000002c0: 366a 923d 96da f0be fe40 a2be b3de 06be
000002d0: 2862 72bd ef34 c6bd f5db 9abe 0cb7 8fbe
000002e0: dc1f c7be cd0f 623d e720 ebbe 42f5 2abd
000002f0: 5af9 32be d22e 6abd 7639 8cbe 39ad 1a3d
00000300: 1388 6abe b54e 40be 92d1 78be cafb d1bd
00000310: 0266 d7be ecdb aebe 0d20 0abe 5266 c2be
00000320: 0da3 46be 64e9 2ebe 9afd b2be 229b 8cbe
00000330: 7c6e a4be 0b70 7cbe a821 81bd 1262 2cbe
00000340: 0f33 84bd 909b cabe 9366 31be 19a6 66bd
00000350: 0c72 61be 7ee3 63bd 1d74 81be 90b7 86be
00000360: b2f5 51be 65f7 aebe b495 62be d0e8 03be
00000370: 5cf5 7bbe e551 02bd 7602 e1be d6e5 04be
00000380: 7aa4 49be 31f6 cebe d19d 6a3c f5b2 a8be
00000390: 2500 3bbe cac8 adbe 47e2 c8be 727f 63be
000003a0: 216e c6be 27f7 83be a718 55be 5603 bbbe
000003b0: 0e43 97be cead 70be d4f7 a4be d380 883d
000003c0: 5792 3fbe 6fae 023e 319a c7be af57 80bd
000003d0: f61f 70be 03f8 b2bc 1200 32be a17a 14bd
000003e0: 62f2 6fbe d26e 19be 31b3 4dbe bb6a 1cbd
000003f0: b63a 8dbe 8565 84be d15d 9cbe 8087 5abe
