trained_data/ddpg/withwalls_G_550_450/critic_ddpg.pth (torch, 506930 bytes, 11 tensors)

fc1.weight f4 [400, 6]
0.4042223 0.5652056 -0.3094842 0.34386945 -0.12566988 0.26349437 0.44721922 0.48570353
-0.055021267 0.27782303 -0.03713439 0.054247923 0.4479574 0.48242825 -0.05563475 0.27649745
-0.039870746 0.05436721 0.5064663 0.36085042 0.32915437 0.6694894 -0.3338101 -0.014614783
0.4766691 0.33752432 -0.2802928 0.60491085 -0.11813614 0.043329787 0.46159884 0.46839055
-0.056071483 0.26843035 -0.042748336 0.055767152 0.43560386 0.49676165 -0.05649342 0.28354192
-0.039983213 0.05302093 0.44327807 0.48534504 -0.059042845 0.27435404 -0.04641362 0.05005411
0.57199377 0.29754734 -0.24335526 0.2419454 -0.18573207 -0.13180496 0.41464448 0.5169737
-0.057152595 0.28268763 -0.035102084 0.050735805 0.4485422 0.479707 -0.054843497 0.27950898
-0.042657085 0.055031385 0.42139375 0.5163188 -0.05422616 0.28399885 -0.035282273 0.050881084
0.45562422 0.45374626 2.1397314 0.11435631 -0.02611028 -0.29567477 0.41685313 0.5200627
-0.064803205 0.27944466 -0.037169807 0.05032925 0.46928802 0.4586013 -0.061008114 0.27058482
-0.047600325 0.056561723 0.45848465 0.46060058 -0.06640725 0.26757815 -0.055017665 0.05474977
0.45891112 0.48532853 -0.11407785 -0.72513914 -0.46376243 -0.34463906 0.4365036 0.494111
-0.059869822 0.28104946 -0.039249506 0.054543145 0.4426326 0.48661116 -0.06052955 0.28211823
-0.045955583 0.05413428 0.4369521 0.43832332 -0.22593401 1.0486056 0.814781 0.11428777
0.48877788 0.4348187 -0.055958245 0.26243222 -0.050670043 0.05816596 0.44333163 0.41932395
-0.08900769 0.24142271 -0.0730374 0.054947384 0.45867443 0.46795583 -0.05286209 0.26963255
-0.04766664 0.055802796 0.44627315 0.48537892 -0.0549225 0.28105998 -0.041211806 0.055077046
0.27364776 0.61513656 -1.2793094 0.36014405 0.33184168 0.68076396 0.42656004 0.44460323
-0.32130638 1.5806516 -1.5307516 0.32544637 0.45069024 0.44708318 -0.07424249 0.25327513
-0.048554935 0.09588677 0.45409068 0.47275734 -0.07257759 0.2785731 -0.038134083 0.055169977
0.44637737 0.48432365 -0.06320536 0.28222248 -0.036066618 0.054247584 0.4224584 0.49021128
-0.04271039 0.2736043 -0.040459335 0.06705821 0.45231134 0.4781168 -0.06133675 0.2756878
-0.04550816 0.054832652 0.48503935 0.4186693 -0.06970183 0.2600981 -0.056375597 0.0645288
0.55638874 0.3342124 -0.08595949 -0.53503805 0.52998215 0.28360632 0.41244915 0.48704946
-0.071654685 0.2536195 -0.0002557457 0.08220477 0.45144188 0.4547157 -0.062063653 0.2599999
-0.061362512 0.05849722 0.44977987 0.47323918 -0.07421763 0.2779376 -0.045149427 0.055001415
0.5387003 0.35575867 0.277353 0.4356706 -0.22205709 -0.017817792 0.41708073 0.51021326
-0.06919068 0.28473714 -0.04728485 0.05165426 0.4421644 0.4497728 -0.22971901 0.18870471
0.08699231 0.29044732 0.42140895 0.45047966 -0.1399585 0.17609634 -0.05205944 0.08489646
0.44570762 0.4749218 -0.066682845 0.26989165 -0.050296385 0.05411617 0.4540559 0.47540033
-0.059673745 0.2738115 -0.048659135 0.05520296 0.456653 0.47303846 -0.06329203 0.27179933
00000000: 3af6 ce3e 50b1 103f b774 9ebe a80f b03e
00000010: 9baf 00be bce8 863e ebf9 e43e 22ae f83e
00000020: fb5d 61bd d23e 8e3e 3b1a 18bd 1233 5e3d
00000030: ac5a e53e d600 f73e 43e1 63bd 1391 8d3e
00000040: 824f 23bd 27b0 5e3d c7a7 013f 63c1 b83e
00000050: ec86 a83e a863 2b3f 28e9 aabe d872 6fbc
00000060: f90d f43e fdcf ac3e 8a82 8fbe 70db 1a3f
00000070: 5cf1 f1bd 937a 313d af56 ec3e e3d0 ef3e
00000080: 36ab 65bd b46f 893e e118 2fbd 196c 643d
00000090: 7807 df3e 8b57 fe3e a565 67bd 682c 913e
000000a0: 70c5 23bd 7a2c 593d 58f5 e23e 257f f83e
000000b0: e9d6 71bd 2278 8c3e 351c 3ebd 8a05 4d3d
000000c0: 2f6e 123f 2058 983e 1f32 79be 89c0 773e
000000d0: 8c30 3ebe e1f7 06be 484c d43e 6358 043f
000000e0: d718 6abd 6fbc 903e 34c7 0fbd 59d0 4f3d
000000f0: 53a7 e53e 289c f53e 93a3 60bd cd1b 8f3e
00000100: 32b9 2ebd 9768 613d ecc0 d73e 782d 043f
00000110: 401c 5ebd 4c68 913e 2584 10bd af68 503d
00000120: 9447 e93e 6e51 e83e 5cf1 0840 a433 ea3d
00000130: 3ae5 d5bc af62 97be c66d d53e d422 053f
00000140: 8bb7 84bd 5f13 8f3e 5e3f 18bd 0b26 4e3d
00000150: 8546 f03e cacd ea3e a5e3 79bd 188a 8a3e
00000160: 8ff8 42bd 44ad 673d 80be ea3e d7d3 eb3e
00000170: 8600 88bd 0100 893e 345a 61bd 4b41 603d
00000180: 66f6 ea3e fb7c f83e a6a1 e9bd b8a2 39bf
00000190: 4572 edbe 8874 b0be 667d df3e 1efc fc3e
000001a0: 0f3a 75bd b7e5 8f3e 17c4 20bd a268 5f3d
000001b0: bda0 e23e 1925 f93e d5ed 77bd cd71 903e
000001c0: ec3b 3cbd e8bb 5d3d 30b8 df3e ea6b e03e
000001d0: 3f5b 67be b538 863f 7d95 503f b50f ea3d
000001e0: 1841 fa3e 8fa0 de3e 7934 65bd 845d 863e
000001f0: 648b 4fbd 6e3f 6e3d 5dfc e23e a1b1 d63e
00000200: aa49 b6bd 8437 773e a294 95bd 8210 613d
00000210: 60d7 ea3e e897 ef3e eb85 58bd 470d 8a3e
00000220: 183e 43bd 7991 643d ea7d e43e 9683 f83e
00000230: 6af6 60bd 18e7 8f3e b6cd 28bd 7898 613d
00000240: 8f1b 8c3e 9779 1d3f 69c0 a3bf cd64 b83e
00000250: 27e7 a93e 8c46 2e3f 1466 da3e 09a3 e33e
00000260: 4582 a4be cb52 ca3f abef c3bf e8a0 a63e
00000270: dfc0 e63e 16e8 e43e 720c 98bd 47ad 813e
00000280: 8ae1 46bd 4860 c43d 937e e83e 400d f23e
00000290: 8fa3 94bd 22a1 8e3e 7c32 1cbd eaf9 613d
000002a0: 938b e43e 45f9 f73e d071 81bd 777f 903e
000002b0: 97ba 13bd b732 5e3d 784c d83e f9fc fa3e
000002c0: 17f1 2ebd dd15 8c3e b0b8 25bd d155 893d
000002d0: 5a95 e73e bacb f43e 3e3c 7bbd f426 8d3e
000002e0: c466 3abd 3498 603d 1457 f83e d35b d63e
000002f0: d5bf 8ebd 942b 853e 19ea 66bd ad27 843d
00000300: 7e6f 0e3f e31d ab3e 870b b0bd 41f8 08bf
00000310: e9ac 073f d934 913e 892c d33e 8c5e f93e
00000320: b1bf 92bd 6ada 813e 9b15 86b9 f95a a83d
00000330: 6423 e73e 7fd0 e83e 7536 7ebd b51e 853e
00000340: 4257 7bbd c89a 6f3d 8c49 e63e 684c f23e
00000350: 6aff 97bd d64d 8e3e 9bee 38bd 2a49 613d
00000360: 43e8 093f 0026 b63e 3601 8e3e 3810 df3e
00000370: ef62 63be 9ef6 91bc 9b8b d53e 569d 023f
00000380: d8b3 8dbd 11c9 913e c2ad 41bd 6b93 533d
00000390: 5f63 e23e 9f48 e63e 763b 6bbe cf3b 413e
000003a0: 0629 b23d 83b5 943e eac2 d73e 45a5 e63e
000003b0: 4851 0fbe 9952 343e 483c 55bd 32de ad3d
000003c0: ca33 e43e f328 f33e 0491 88bd 3d2f 8a3e
000003d0: 9503 4ebd eba8 5d3d 047a e83e ac67 f33e
000003e0: 756c 74bd 0531 8c3e cd4e 47bd 801c 623d
000003f0: 6cce e93e 1932 f23e 409f 81bd 4829 8b3e

fc1.bias f4 [400]
-0.31684798 -0.37012422 -0.37950417 -0.40599412 -0.5779445 -0.3763763 -0.37591502 -0.38392156
1.1192816 -0.37835038 -0.38313827 -0.36045426 -0.01780584 -0.36735606 -0.38311586 -0.40321365
-0.7425522 -0.3716549 -0.37998128 -0.73917115 -0.39022446 -0.47073242 -0.38168487 -0.3769295
1.0190109 0.19134672 -0.42140853 -0.39377806 -0.38456807 -0.4068015 -0.38292247 -0.41533077
0.22109452 -0.41720566 -0.41219124 -0.39272553 -0.6204652 -0.39310476 5.1125703 -0.4819758
-0.40380886 -0.38086966 -0.3840358 -0.3715393 -0.44626293 -0.3809518 -0.5289681 -0.37422675
-0.32636178 -0.5075254 -0.5346848 -0.40722883 -0.3537738 -0.6360164 -0.38503987 0.38721126
-0.3503884 -0.44072664 -0.36274496 -0.361542 -0.38863686 -0.3969469 -0.1524763 -0.37361702
-0.2775549 -0.41951853 -0.37348855 -0.36056942 -0.38623777 -0.42838424 -0.51341194 -0.3701702
-1.2010511 -0.3231471 -0.43809488 -0.38165158 -0.028751884 -0.38743836 -0.37815532 -0.29313082
-0.36918274 -0.43118462 -0.020241022 -0.9732701 -0.38253814 -0.36919394 -0.37028012 -0.42820376
-0.35969546 -0.29243544 -0.37420532 0.66156924 -0.3707545 -0.38293743 0.40673876 -0.38293546
1.68661 -0.3851934 -0.34500176 -0.3932475 -0.5866273 -0.4056828 -0.38331926 -1.3370742
-0.14974688 -0.38957033 -0.31324226 -0.38073036 0.5739934 -0.37536812 -0.3865811 -0.38227773
-0.3692301 -0.35582718 -0.33219218 -0.36406994 0.49695045 -0.38154688 -0.3929741 -0.3961747
-0.5402683 -0.41248643 -0.4151969 1.689857 -0.37094927 -0.37906092 -0.35552707 -0.3836043
-0.42005304 -0.37072703 -0.36852425 -0.3714379 -0.37448063 -0.37818325 -0.3678874 -0.3708695
-0.37532806 -0.38879186 -0.36014545 -0.053265795 -0.5801517 -0.37659028 -0.3807239 -0.13127795
-0.496586 -0.35499293 -0.44899493 -0.11311565 -0.3121591 -0.37145334 -0.37986878 -0.37644616
-0.3784927 -0.3762398 -0.40098095 -0.177243 -0.37650597 -0.43201277 -0.37335527 -0.3794055
1.9592577 -0.41758594 -0.379707 -0.3757244 -0.40183696 -0.37707514 0.38003877 -0.36742193
0.39914414 4.6978955 -0.4058771 -0.35697424 -0.37074843 -0.37308574 -0.36795992 -0.38131762
-0.25579652 -0.36337006 -0.38871032 -0.3803953 2.5099854 -0.39155516 -0.44274026 0.3333917
-0.38001877 -0.37209156 -0.37509122 -0.5195924 -0.3804845 -0.41018882 -0.3706354 -0.5369059
-0.34479794 -0.40542334 -0.41615263 -0.37435076 -0.37054676 -0.36035737 -0.30420068 -0.57523847
-0.41275805 -0.35400712 -0.40259546 -0.040984668 -0.38675213 0.106350385 -0.39989477 -1.3223352
-0.2961207 -0.007871874 -0.38393587 -0.36992997 -0.36598518 -0.28103417 -0.37239948 -0.42386228
-0.38407552 -0.38034788 -0.44167617 -0.37736446 -0.42285097 -0.36609986 -0.36855772 -0.3708408
-0.7529404 -0.37695378 -0.29774064 -0.37671953 -0.3641722 -0.4052076 -0.3856146 0.008328663
-0.36831284 0.027324297 -0.14109623 -0.382718 -0.4173531 0.049284127 -0.37317985 -0.3768355
-0.40121168 -0.3637704 -0.37373486 0.18463637 -0.123291425 -0.37476802 -0.36780953 -0.37621114
-0.36700493 -0.32820153 -0.45330855 -0.37134093 -0.43831784 -0.40424418 -0.37345934 -0.36119384
00000000: e639 a2be ec80 bdbe 5f4e c2be 76de cfbe
00000010: 2cf4 13bf 65b4 c0be ef77 c0be 5e91 c4be
00000020: 9f44 8f3f 24b7 c1be b32a c4be 768d b8be
00000030: 8edd 91bc 1816 bcbe c327 c4be 0572 cebe
00000040: e717 3ebf 8d49 bebe e88c c2be 523a 3dbf
00000050: 80cb c7be d703 f1be 336c c3be e7fc c0be
00000060: f36e 823f 65f0 433e dcc2 d7be 479d c9be
00000070: 1be6 c4be 4948 d0be 6a0e c4be 3ca6 d4be
00000080: 9a66 623e fb9b d5be bb0a d3be 5213 c9be
00000090: cfd6 1ebf 0745 c9be 2d9a a340 88c5 f6be
000000a0: 09c0 cebe 5901 c3be 57a0 c4be 663a bebe
000000b0: 937c e4be 1d0c c3be 746a 07bf a69a bfbe
000000c0: e418 a7be 2fed 01bf 1ae1 08bf 4c80 d0be
000000d0: d721 b5be f9d1 22bf f223 c5be 8e40 c63e
000000e0: 1c66 b3be eca6 e1be b5b9 b9be 081c b9be
000000f0: 69fb c6be a03c cbbe bf22 1cbe bb4a bfbe
00000100: ad1b 8ebe 22cb d6be e439 bfbe 8e9c b8be
00000110: f5c0 c5be 2e55 dbbe f76e 03bf f386 bdbe
00000120: 0bbc 99bf 8973 a5be f94d e0be d667 c3be
00000130: 1289 ebbc 525e c6be 939d c1be 3e15 96be
00000140: 8505 bdbe 3bc4 dcbe 80d0 a5bc 3b28 79bf
00000150: 0adc c3be fd06 bdbe 5b95 bdbe 863d dbbe
00000160: 012a b8be 19ba 95be d797 bfbe 9a5c 293f
00000170: 89d3 bdbe 6010 c4be 1040 d03e 1e10 c4be
00000180: d6e2 d73f 1238 c5be 12a4 b0be bc57 c9be
00000190: 352d 16bf a8b5 cfbe 6c42 c4be 3f25 abbf
000001a0: 3f57 19be c375 c7be 4a61 a0be 17ef c2be
000001b0: 3bf1 123f 4030 c0be f5ed c5be e8b9 c3be
000001c0: ba0b bdbe fb2e b6be 1815 aabe 6067 babe
000001d0: 4a70 fe3e 1d5a c3be e733 c9be 69d7 cabe
000001e0: 064f 0abf 6c31 d3be b094 d4be 3c4d d83f
000001f0: 10ed bdbe 4614 c2be a507 b6be c867 c4be
00000200: 3111 d7be efcf bdbe 36af bcbe 1c2d bebe
00000210: edbb bfbe 3ca1 c1be bd5b bcbe 9be2 bdbe
00000220: 002b c0be ba0f c7be fc64 b8be 3c2d 5abd
00000230: d284 14bf 71d0 c0be 3eee c2be ba6d 06be
00000240: 8540 febe a2c1 b5be aae2 e5be 2ea9 e7bd
00000250: 51d3 9fbe 222f bebe 297e c2be 8dbd c0be
00000260: ccc9 c1be 81a2 c0be 604d cdbe 307f 35be
00000270: 64c5 c0be c730 ddbe 6c28 bfbe 7041 c2be
00000280: f5c8 fa3f d3cd d5be f568 c2be f35e c0be
00000290: 93bd cdbe fe0f c1be 7194 c23e ba1e bcbe
000002a0: 9f5c cc3e 2955 9640 20cf cfbe 54c5 b6be
000002b0: bdd2 bdbe 1805 bfbe 3e65 bcbe 103c c3be
000002c0: c3f7 82be a40b babe 0a05 c7be 2cc3 c2be
000002d0: 9aa3 2040 eb79 c8be daae e2be 51b2 aa3e
000002e0: d291 c2be c982 bebe f50b c0be 0204 05bf
000002f0: ddce c2be 4504 d2be ecc3 bdbe aa72 09bf
00000300: 5b89 b0be a693 cfbe f511 d5be e7aa bfbe
00000310: 4eb8 bdbe c380 b8be 31c0 9bbe d442 13bf
00000320: 0655 d3be 6c40 b5be fe20 cebe 8adf 27bd
00000330: 6004 c6be 3bce d93d 02bf ccbe 4842 a9bf
00000340: 229d 97be 08f9 00bc 3e93 c4be 7667 bdbe
00000350: 6962 bbbe b6e3 8fbe 25ab bebe 7a04 d9be
00000360: 8ca5 c4be f5bc c2be 6123 e2be ea35 c1be
00000370: ec7f d8be 7171 bbbe 99b3 bcbe d8de bdbe
00000380: b4c0 40bf 1600 c1be 7671 98be 62e1 c0be
00000390: c774 babe 5f77 cfbe 476f c5be f274 083c
000003a0: 8093 bcbe 34d7 df3c 887b 10be 9df3 c3be
000003b0: 4eaf d5be 27de 493d 6e11 bfbe 95f0 c0be
000003c0: 9e6b cdbe 1d40 babe 2d5a bfbe 5111 3d3e
000003d0: 3780 fcbd 98e1 bfbe 8851 bcbe bf9e c0be
000003e0: 12e8 bbbe 080a a8be 0f18 e8be 6620 bebe
000003f0: 326b e0be 18f9 cebe 1036 bfbe 66ee b8be

fc2.weight f4 [300, 400]
0.056397915 1.323e-42 3.2255232e-37 -0.0495489 0.095862 4.92e-43 -4.93e-43 4.118966e-30
0.4246887 9.343561e-14 4.93e-43 -2.057945e-10 0.24886498 7.959434e-10 6.49103e-07 -0.000297139
0.0704353 -4.93e-43 -0.004665997 0.2468619 -0.004640961 0.054731138 -8.292927e-06 -8.317586e-14
-0.057196647 0.32309735 0.027351808 -0.0080279 4.95e-43 -0.0022229487 0.0070056114 0.01757283
0.2358561 0.014311377 0.026371857 0.0028037662 0.09875027 4.95e-43 -0.39148012 -0.008223499
-2.1568037e-06 0.00039588544 -4.2022228e-12 4.95e-43 0.08144356 3.2901371e-22 0.075805694 -4.93e-43
0.04717976 0.2940945 0.053987328 0.012977335 -0.002327689 0.14062245 0.0030474733 0.0056386315
0.13373768 0.012280934 -0.0060061337 0.022121938 0.0011098626 -4.92e-43 -0.05300881 1.7101621e-07
-0.16194491 -4.92e-43 -2.9867513e-14 0.052412145 4.93e-43 0.035092786 0.28401813 0.0018943765
-0.0025913978 0.07538091 0.03915198 -2.2323371e-10 0.075280495 8.08538e-26 8.1195976e-05 0.023601286
-4.6e-44 6.1047824e-05 -0.06291275 -0.10635991 2.419031e-37 -0.005498357 4.93e-43 0.013804707
-0.034018762 0.06669883 0.0076538883 -0.11897676 0.009281787 0.017708354 -0.10794971 -0.001777364
0.17852357 -0.0025723316 4.96e-43 4.95e-43 0.1063091 0.0039940923 -5.73e-43 0.13353424
-0.059744515 0.00562074 0.051034283 5.241929e-35 0.028987586 -1.9181647e-26 -4.93e-43 -5.760313e-05
0.00041150642 4.93e-43 0.04850088 0.010631309 0.023487244 0.00039430847 -0.027209504 -5.517735e-38
0.0027812063 0.12473057 0.019682389 -0.004341478 -0.001439432 -4.93e-43 0.0038482647 -4.93e-43
0.025011262 5.13522e-07 4.92e-43 -4.93e-43 -0.0016158022 -6.95e-43 0.01619251 -1.37581795e-08
-4.92e-43 -5.4759727e-08 4.93e-43 -0.13794304 0.07656379 4.93e-43 4.92e-43 0.1614345
0.2604763 0.007478759 0.05196325 -0.009949656 0.0050560907 0.000732942 -0.0012200504 -2.6144411e-05
-2.3268261e-21 0.0032144329 -0.03692908 0.22085705 -0.04963866 0.03799837 -4.92e-43 4.95e-43
-0.062443264 -0.0017304022 -5.77e-43 -5.82e-43 0.018650465 4.92e-43 0.008892068 4.93e-43
-0.04328093 -0.09669929 4.92e-43 0.08271435 -4.92e-43 -0.0037445892 -4.93e-43 -4.96e-43
0.071097955 6e-43 0.00026098164 -4.95e-43 0.027855707 -0.002920281 0.007875619 0.17985572
-0.020463757 -2.2857336e-26 4.5623753e-30 0.0879999 1.8661802e-05 -0.016041625 -4.5643225e-07 0.074501276
0.008143707 -0.006171501 0.21335477 4.95e-43 -2.0652057e-07 3.6979436e-26 0.015927017 -0.087202534
-0.01811776 0.0756642 -0.0021387832 0.13585527 -4.92e-43 0.15492094 0.013519648 0.25710917
0.035848536 0.35698292 0.0026426497 -4.93e-43 4.95e-43 0.058672737 4.93e-43 0.16374855
-4.8918705e-06 0.0016648135 0.02100912 4.92e-43 -9.659971e-15 4.93e-43 -0.07565963 4.92e-43
0.029035525 -0.0063007236 0.041371364 2.6482237e-38 9.079031e-32 -1.772944e-20 -4.93e-43 -0.35041615
-0.0042552482 0.189658 0.118060045 5.1e-43 0.012181001 -0.06244776 -4.93e-43 4.93e-43
0.03776498 0.027935505 -0.009386722 -0.079161175 0.11111938 4.417e-42 4.96e-43 -0.00097515195
0.0038716097 0.04584663 0.024129234 0.0025310714 0.05278116 0.009975343 -1.5285409e-18 1.4938895e-08
00000000: 8001 673d b003 0000 8a84 db02 caf3 4abd
00000010: 4c53 c43d 5f01 0000 6001 0080 ca15 a70e
00000020: cc70 d93e f665 d229 6001 0000 0146 62af
00000030: 76d6 7e3e 8ac9 5a30 053e 2e35 52c9 9bb9
00000040: 6240 903d 6001 0080 38e5 98bb 5ec9 7c3e
00000050: 3413 98bb c22d 603d da21 0bb7 9e4b bba9
00000060: 0847 6abd 046d a53e e610 e03c 7487 03bc
00000070: 6101 0000 e4ae 11bb 548f e53b e5f4 8f3c
00000080: 4384 713e 447a 6a3c cb09 d83c 64bf 373b
00000090: 953d ca3d 6101 0000 1570 c8be dbbb 06bc
000000a0: 9bbd 10b6 d88e cf39 42da 93ac 6101 0000
000000b0: e2cb a63d 68e0 c61b 0440 9b3d 6001 0080
000000c0: 903f 413d 8e93 963e d121 5d3d e39e 543c
000000d0: 248c 18bb 55ff 0f3e 1eb8 473b 45c4 b83b
000000e0: 88f2 083e f835 493c 1acf c4bb 1139 b53c
000000f0: cf78 913a 5f01 0080 c41f 59bd 94a0 3734
00000100: e3d4 25be 5f01 0080 e682 06a9 1eae 563d
00000110: 6001 0000 74bd 0f3d d36a 913e ba4c f83a
00000120: 71d4 29bb 4e61 9a3d d45d 203d b472 75af
00000130: a92c 9a3d 2f2f c815 c247 aa38 7c57 c13c
00000140: 2100 0080 cd06 8038 66d8 80bd 39d3 d9bd
00000150: 77a1 a402 902b b4bb 6001 0000 232d 623c
00000160: 4257 0bbd 6599 883d 78cd fa3b 16aa f3bd
00000170: a312 183c 1c11 913c bd14 ddbd 71f6 e8ba
00000180: e2ce 363e 9094 28bb 6201 0000 6101 0000
00000190: 96b8 d93d e0e0 823b 9901 0080 33bd 083e
000001a0: aab6 74bd 2f2e b83b 5309 513d b85a 8b06
000001b0: 6077 ed3c 41f7 bd94 6001 0080 e49a 71b8
000001c0: 75bf d739 6001 0000 dca8 463d f12e 2e3c
000001d0: 5268 c03c 30bb ce39 77e6 debc 0035 9681
000001e0: e644 363b be72 ff3d f63c a13c f542 8ebb
000001f0: 53ab bcba 6001 0080 2b33 7c3b 6001 0080
00000200: 6be4 cc3c f7d8 0935 5f01 0000 6001 0080
00000210: 53c9 d3ba f001 0080 28a6 843c 1d5d 6cb2
00000220: 5f01 0080 f530 6bb3 6001 0000 f140 0dbe
00000230: 7acd 9c3d 6001 0000 5f01 0000 164f 253e
00000240: 265d 853e 6110 f53b 6bd7 543d e203 23bc
00000250: 90ad a53b e822 403a 19ea 9fba b250 dbb7
00000260: 5dcf 2f9d 3ca9 523b f242 17bd 5a28 623e
00000270: e851 4bbd 2ea4 1b3d 5f01 0080 6101 0000
00000280: 82c4 7fbd aace e2ba 9c01 0080 9f01 0080
00000290: dcc8 983c 5f01 0000 09b0 113c 6001 0000
000002a0: 5847 31bd 470a c6bd 5f01 0000 2466 a93d
000002b0: 5f01 0080 c867 75bb 6001 0080 6201 0080
000002c0: ce9b 913d ac01 0000 5dd4 8839 6101 0080
000002d0: a731 e43c 2f62 3fbb be08 013c 192c 383e
000002e0: 9ca3 a7bc 3b5e e294 6a12 b90e 4b39 b43d
000002f0: ea8b 9c37 ba69 83bc 920b f5b4 2094 983d
00000300: 2f6d 053c 4d3a cabb ac79 5a3e 6101 0000
00000310: f1bf 5db4 011d 3715 6079 823c 3e97 b2bd
00000320: b26b 94bc d5f5 9a3d d42a 0cbb a51d 0b3e
00000330: 5f01 0080 98a3 1e3e 8481 5d3c d0a3 833e
00000340: ead5 123d 77c6 b63e 4e30 2d3b 6001 0080
00000350: 6101 0000 d352 703d 6001 0000 b3ad 273e
00000360: d924 a4b6 df35 da3a 511b ac3c 5f01 0000
00000370: c104 2ea8 6001 0000 70f3 9abd 5f01 0000
00000380: e9db ed3c 4d76 cebb 0575 293d da2e 1001
00000390: 83b4 eb0b 2873 a79e 6001 0080 bf69 b3be
000003a0: 9c6f 8bbb b535 423e 77c9 f13d 6c01 0000
000003b0: d292 473c 39c9 7fbd 6001 0080 6001 0000
000003c0: 74af 1a3d 00d9 e43c c4ca 19bc 411f a2bd
000003d0: 8f92 e33d 500c 0000 6201 0000 57a1 7fba
000003e0: d5ba 7d3b adc9 3b3d acaa c53c 55e0 253b
000003f0: 0f31 583d 9f6f 233c a492 e1a1 fa52 8032

fc2.bias f4 [300]
0.3348961 0.2570841 0.22148797 0.23516858 0.25050214 0.40443477 0.31502414 0.29968515
0.25072387 0.35346287 0.5222705 0.2483553 0.253888 0.3557572 0.4016584 0.22436745
0.24515177 0.24846153 0.2296462 0.3029891 0.23653938 0.24721242 0.25407398 0.22728266
0.3679506 0.22851609 0.3469825 0.2765708 0.39104542 0.4606448 0.26883852 0.20981108
0.27647105 0.26504812 0.38973448 0.22053541 0.41303396 0.37090135 0.22298469 0.16208488
0.289441 0.25503093 0.25159004 0.36141893 0.22782646 0.2597493 0.2165526 0.19776839
0.4041376 0.12579408 0.1595663 0.21700925 0.40562108 0.25394717 0.4122632 0.15669864
0.3224798 0.25029778 0.4094957 0.2171038 0.1552667 0.3785851 0.42167762 0.27263504
0.17021167 0.32954007 0.41974795 0.2847036 0.22948249 0.41655383 0.28872943 0.3495398
0.23245215 0.2465455 0.41400445 0.30111095 0.37515986 0.25593415 0.3824106 0.17134362
0.2114096 0.265842 0.28851172 0.26719007 0.25742283 0.25916034 0.2010104 0.28606462
0.28954792 0.17094214 0.42375636 0.23431213 0.26264223 0.33985987 0.34153816 0.39353263
0.33917755 0.23491335 0.24142359 0.353326 0.4240536 0.24041171 0.39203054 0.214936
0.23293902 0.31438917 0.4271906 0.36851618 0.35602966 0.20576812 0.39731568 0.35101375
0.25662926 0.21171792 0.13542232 0.24068306 0.26048672 0.42847452 0.25831956 0.43156624
0.23471105 0.31632808 0.27487716 0.29325476 0.26516515 0.30869436 0.33731267 0.2034615
0.27022278 0.41812754 0.38811216 0.3434833 0.23443016 0.3332777 0.3982991 0.4244356
0.42200348 0.4100889 0.36116758 0.31088787 0.102197066 0.21613595 0.4111248 0.3063901
0.34197864 0.26852617 0.41901934 0.41328654 0.1393561 0.31350213 0.27437007 0.1431198
0.2708906 0.3062109 0.23327494 0.35242072 0.38051066 0.059335966 0.3993207 0.36371163
0.38769153 0.38163045 0.35825288 0.18923534 0.205282 0.4651371 0.383031 0.25544557
0.2059012 0.40010878 0.41977993 0.39480814 0.24474595 0.27768803 0.2719204 0.31366858
0.28746513 0.24747415 0.4246889 0.5094302 0.41472578 0.433974 0.24272257 0.26846102
0.4102564 0.3212498 0.2436598 0.33301356 0.39321065 0.19321643 0.068756305 0.1292943
0.11801406 0.3421132 0.26674914 -0.12838158 0.39002943 0.21000054 0.41263163 0.3912789
0.41002133 0.21034376 0.4148094 0.22726858 0.39936447 0.44871312 0.33905184 0.29068726
0.19575386 0.3607838 0.3959619 0.27396068 0.40404153 0.2557979 0.32029852 0.40305293
0.35043097 0.3935955 0.39443064 0.20956817 0.15248041 0.23496872 0.35880655 0.22765547
0.18622191 0.23666893 0.25839862 0.20257361 0.25159404 0.41383335 0.24558787 0.33756196
0.4063897 0.27667862 0.17513816 0.3550433 0.23243181 0.31595662 0.3366582 0.3307484
0.08280217 0.3164017 0.42534512 0.15335366 0.51042634 0.20225047 0.41710615 0.416017
0.42342326 0.38173082 0.28663653 0.27234426 0.37030348 0.4000361 0.3812776 0.2776814
00000000: 8077 ab3e 87a0 833e becd 623e 08d0 703e
00000010: d141 803e 1312 cf3e d84a a13e 5570 993e
00000020: e15e 803e 16f9 b43e 85b3 053f da50 7e3e
00000030: 9cfd 813e cf25 b63e 2ba6 cd3e 95c0 653e
00000040: 1109 7b3e b36c 7e3e 6028 6b3e 6321 9b3e
00000050: 6137 723e 4125 7d3e fc15 823e c9bc 683e
00000060: 0564 bc3e 1f00 6a3e b1a7 b13e b09a 8d3e
00000070: 1b37 c83e a3d9 eb3e 34a5 893e b7d8 563e
00000080: 9d8d 8d3e 63b4 873e 478b c73e 09d4 613e
00000090: 3079 d33e c8e6 bd3e 1956 643e 94f9 253e
000000a0: 9c31 943e 6a93 823e 69d0 803e e70b b93e
000000b0: 574b 693e dcfd 843e f7bf 5d3e cc83 4a3e
000000c0: 20eb ce3e 2ad0 003e 5965 233e ac37 5e3e
000000d0: 91ad cf3e 5d05 823e 2a14 d33e 9c75 203e
000000e0: 131c a53e 0827 803e 6ca9 d13e 7550 5e3e
000000f0: 3cfe 1e3e e8d5 c13e 21e6 d73e d296 8b3e
00000100: f84b 2e3e 7ab9 a83e 34e9 d63e acc4 913e
00000110: 75fd 6a3e 8b46 d53e 58d4 933e e1f6 b23e
00000120: f007 6e3e 6c76 7c3e 64f8 d33e 372b 9a3e
00000130: f414 c03e cd09 833e 52cb c33e b474 2f3e
00000140: c27b 583e 711c 883e cfb7 933e 23cd 883e
00000150: edcc 833e aab0 843e acd5 4d3e 1077 923e
00000160: a03f 943e 750b 2f3e 98f6 d83e 85ef 6f3e
00000170: 0b79 863e 1d02 ae3e 17de ae3e 1c7d c93e
00000180: aea8 ad3e 208d 703e bf37 773e 25e7 b43e
00000190: 8e1d d93e 7d2e 763e 3ab8 c83e 2f18 5c3e
000001a0: 9187 6e3e 9ef7 a03e bab8 da3e 27ae bc3e
000001b0: 8549 b63e e1b4 523e f66c cb3e 13b8 b33e
000001c0: e964 833e 95cc 583e 26ac 0a3e 9f75 763e
000001d0: 845e 853e 0361 db3e 7642 843e 40f6 dc3e
000001e0: 1858 703e c1f5 a13e b3bc 8c3e 7d25 963e
000001f0: bac3 873e 300d 9e3e 3fb4 ac3e 3658 503e
00000200: a45a 8a3e d014 d63e a3b6 c63e 0bdd af3e
00000210: 760e 703e 60a3 aa3e dced cb3e 9f4f d93e
00000220: d710 d83e 2cf7 d13e f5ea b83e b22c 9f3e
00000230: b24c d13d be52 5d3e f37e d23e 2adf 9c3e
00000240: d317 af3e 437c 893e b489 d63e 4b9a d33e
00000250: 5eb3 0e3e 5a83 a03e 3c7a 8c3e ff8d 123e
00000260: 2cb2 8a3e adc7 9c3e a0df 6e3e 7d70 b43e
00000270: 4bd2 c23e 450a 733d c373 cc3e 6938 ba3e
00000280: 817f c63e 1165 c33e ec6c b73e e9c6 413e
00000290: 7235 523e 7326 ee3e a41c c43e c3c9 823e
000002a0: c4d7 523e 0fdb cc3e 65ed d63e 4b24 ca3e
000002b0: af9e 7a3e 202d 8e3e 2739 8b3e 2b99 a03e
000002c0: a12e 933e dd69 7d3e d370 d93e 056a 023f
000002d0: f056 d43e d731 de3e 448c 783e b973 893e
000002e0: 200d d23e db7a a43e f481 793e c180 aa3e
000002f0: e852 c93e 87da 453e 1bd0 8c3d ba65 043e
00000300: 5bb1 f13d 7629 af3e 5893 883e 7676 03be
00000310: f0b1 c73e 620a 573e 7444 d33e b555 c83e
00000320: 51ee d13e 5b64 573e e661 d43e 18b9 683e
00000330: 8079 cc3e babd e53e 3498 ad3e f6d4 943e
00000340: b373 483e a7b8 b83e 85bb ca3e 9344 8c3e
00000350: 88de ce3e f1f7 823e 2bfe a33e f45c ce3e
00000360: b06b b33e 5985 c93e d0f2 c93e 0a99 563e
00000370: d323 1c3e a49b 703e 7eb5 b73e 841e 693e
00000380: f5b0 3e3e 5759 723e d34c 843e 756f 4f3e
00000390: efd0 803e f7e1 d33e 637b 7b3e ecd4 ac3e
000003a0: 5012 d03e d2a8 8d3e 6b57 333e 3cc8 b53e
000003b0: 9b02 6e3e 11c5 a13e 775e ac3e db57 a93e
000003c0: 2f94 a93d 67ff a13e d6c6 d93e be08 1d3e
000003d0: 4dab 023f bf1a 4f3e f08e d53e 2e00 d53e
000003e0: efca d83e 3972 c33e 06c2 923e b570 8b3e
000003f0: 6b98 bd3e 88d1 cc3e d136 c33e 422c 8e3e

bn1.weight f4 [400]
-0.8191696 -3.7586567e-05 -0.00012043484 0.7277425 0.058966614 -1.0225948e-06 -3.386038e-12 -1.7066426e-05
0.85977024 -0.0005106054 -0.0006409959 -0.0015071204 1.7035316 -0.0006232322 -0.0070676324 0.00028838124
0.5371612 -5.03e-43 -0.0018043265 0.5784547 -0.0073129386 0.05114894 -0.00063651317 -0.0008475171
0.21743134 0.48959994 0.1687883 -0.00058840134 -2.8331709e-11 0.025267689 0.002102388 0.049673017
0.36120144 0.039711524 0.0612769 -0.0012699112 0.44806615 -1.4208421e-08 1.1781179 0.15433396
-0.00058292714 0.000730378 0.00026499384 5.41e-43 0.043991916 -0.0008966063 0.0444546 -5.910332e-31
-0.054811332 0.517383 1.4782119 -0.0009597544 -0.0016069252 0.05992878 0.0037296913 0.99622726
0.13182935 0.5341125 -0.0021348605 0.0009020437 0.0001298384 -1.4165387e-09 1.3574792 0.0002198956
0.97607625 7.4279977e-10 -0.00021389184 -0.0010776354 -7.9150194e-22 0.056400172 0.76561654 0.0042395676
0.89703214 -0.0654679 0.045681972 -9.563973e-05 0.44345954 -5.0176523e-25 -0.0010474827 0.10539361
5e-43 0.05800867 1.3724188 0.77183485 -0.0008946234 -0.0028822157 -7.217758e-13 0.047175
0.23535998 -0.06226565 0.0047428976 0.508055 1.7133929e-05 0.0020319754 0.21663168 -0.0006747609
1.1182123 0.000152464 -0.0029942307 -1.3713329e-13 1.0324085 0.0095549105 -2.0945593e-26 0.39547825
1.158735 -0.0012600187 -0.10656541 -4.07713e-32 0.5287776 1.6335454e-25 -0.00023734361 0.00020444793
-0.003279709 3.822106e-18 -0.049103122 -0.15209165 0.72061485 -0.0007453465 -0.15887533 -0.0023855811
0.23537092 0.7746466 0.12085678 1.9968371 -0.002614877 -1.8418974e-16 -0.0010650258 -4.93e-43
0.060882762 -0.0025598402 8.2455904e-07 -0.00013162405 0.0004300652 -0.0010371866 -0.0011894284 0.0002548282
-8.852416e-06 -0.0006874441 -3.963734e-06 1.1554998 0.1491783 2.190036e-05 -3.052872e-36 0.9878486
0.42506456 -0.0010083126 0.12969944 0.83412373 1.0877932 0.00072744547 0.0003276243 0.0006197212
-0.0021554271 -0.0008683702 0.09500697 0.58753467 -0.080653585 0.057664573 9.442e-06 -6.911852e-11
0.49571562 0.08578975 -4.95e-43 -8.695347e-07 0.10634229 -1.0900599e-21 0.58866054 -6.360162e-08
0.40276906 1.4930876 -5.063848e-24 1.4724488 5.827079e-37 -0.0004521622 -9.696563e-07 -0.0014022088
1.2276547 -5.13e-43 -0.0014419686 5.51e-43 2.4440916 0.06838691 0.08059577 1.6859268
0.22439319 -9.85696e-13 -9.062936e-06 0.5593034 -0.0021839438 0.07400413 -0.0029458813 0.7742841
-0.0006261032 -0.00022477069 -0.33665943 -6.3780767e-09 -0.00052933197 -1.4928685e-21 -0.073061176 0.4097381
0.08138868 -0.0251805 -0.122293435 0.17402755 6.1953892e-06 0.15873186 0.06114357 0.96875906
-0.040194653 0.7143195 -0.0051994524 4.95e-43 -8.226194e-25 -0.092581935 5.494709e-05 0.87157553
-0.0005855302 -0.00022113184 0.0814348 -1.08118975e-05 -5.3911135e-05 5.2387426e-05 0.53691345 -4.0379486e-08
0.30548465 -0.00024778614 -0.05850836 -4.2506572e-36 0.00010146355 -2.92884e-12 -4.95e-43 2.1503263
0.00064161944 1.7902719 1.11754 -0.0004885283 0.0920272 0.57238287 -2.496874e-17 -9.750465e-10
0.020798888 0.004756378 -0.0006425121 0.45198926 0.9785131 -5.505393e-39 -2.5298817e-05 -0.00047189477
-0.0004956003 -0.027655141 0.046450544 0.0009751124 0.0500501 0.0021488406 2.521949e-19 -1.124726e-28
00000000: 19b5 51bf 45a6 1db8 f691 fcb8 554d 3a3f
00000010: fa86 713d 1740 89b5 7045 6eac df29 8fb7
00000020: e719 5c3f 26da 05ba 8208 28ba 928a c5ba
00000030: 530d da3f 6860 23ba 9997 e7bb e031 9739
00000040: 6583 093f 6701 0080 277f ecba 9b15 143f
00000050: 60a1 efbb 8d81 513d addb 26ba e92b 5eba
00000060: 52a6 5e3e d8ac fa3e d7d6 2c3e f23e 1aba
00000070: 5635 f9ad 2ffe ce3c 38c8 093b ef75 4b3d
00000080: 65ef b83e 8da8 223d 7dfd 7a3d 2673 a6ba
00000090: ed68 e53e 4c19 74b2 91cc 963f b909 1e3e
000000a0: 94cf 18ba d676 3f3a dfee 8a39 8201 0000
000000b0: de30 343d 3b0a 6bba 0716 363d 1ecd 3f8d
000000c0: d981 60bd 3673 043f 0c36 bd3f 0798 7bba
000000d0: 769f d2ba e177 753d d66d 743b c008 7f3f
000000e0: 46fe 063e 99bb 083f 04e9 0bbb 2177 6c3a
000000f0: 3b25 0839 06b0 c2b0 e1c1 ad3f c793 6639
00000100: 22e0 793f e32d 4c30 2748 60b9 723f 8dba
00000110: 7f37 6f9c de03 673d 72ff 433f 12ec 8a3b
00000120: e6a3 653f 0914 86bd 051d 3b3d 3092 c8b8
00000130: 210d e33e f049 1b97 b04b 89ba 9bd8 d73d
00000140: 6501 0000 809a 6d3d 6bab af3f f896 453f
00000150: 2985 6aba 8ee3 3cbb 6d29 4bab 933a 413d
00000160: 3502 713e 440a 7fbd 4f6a 9b3b e40f 023f
00000170: d5ba 8f37 e42a 053b b2d4 5d3e 70e2 30ba
00000180: 9521 8f3f bede 1f39 db3a 44bb fb65 1aaa
00000190: f625 843f 338c 1c3c 636f cf94 207c ca3e
000001a0: 6e51 943f 3627 a5ba f73e dabd 5ab2 538b
000001b0: f85d 073f 1f39 4a16 71df 78b9 1361 5639
000001c0: 63f0 56bb c502 8d22 5b20 49bd eabd 1bbe
000001d0: 377a 383f 5b63 43ba 37b0 22be 6957 1cbb
000001e0: 1305 713e 3d4f 463f c283 f73d 5c98 ff3f
000001f0: 5b5e 2bbb 375b 54a5 5698 8bba 6001 0080
00000200: 3460 793d fec2 27bb 4457 5d35 9004 0ab9
00000210: 607a e139 35f2 87ba 98e6 9bba 769a 8539
00000220: d684 14b7 9835 34ba 3700 85b6 6be7 933f
00000230: 32c2 183e aab6 b737 d5da 8184 a5e3 7c3f
00000240: 10a2 d93e 5b29 84ba eecf 043e 2289 553f
00000250: cf3c 8b3f 0ab2 3e3a fdc4 ab39 c974 223a
00000260: 1142 0dbb 56a3 63ba 0493 c23d ac68 163f
00000270: b52d a5bd b031 6c3d 1569 1e37 45fe 97ae
00000280: 70ce fd3e 89b2 af3d 6101 0080 f869 69b5
00000290: fdc9 d93d a6b9 a49c 75b2 163f 5c95 88b3
000002a0: bf37 ce3e 7f1d bf3f ece5 c398 3479 bc3f
000002b0: 0449 4603 2f10 edb9 2325 82b5 52ca b7ba
000002c0: ca23 9d3f 6e01 0080 7000 bdba 8901 0000
000002d0: ff6b 1c40 700e 8c3d 650f a53d 73cc d73f
000002e0: 54c7 653e 71b9 8aab 040d 18b7 822e 0f3f
000002f0: 7f20 0fbb 7a8f 973d b00f 41bb 7c37 463f
00000300: 1321 24ba 6cb0 6bb9 a05e acbe 2826 dbb1
00000310: dec2 0aba 8e98 e19c 19a1 95bd 31c9 d13e
00000320: 1caf a63d 5647 cebc fb74 fabd 4734 323e
00000330: fde1 cf36 9b8a 223e ae71 7a3d 9800 783f
00000340: 26a3 24bd a5dd 363f 2b60 aabb 6101 0000
00000350: a096 7e97 999b bdbd fd76 6638 931f 5f3f
00000360: 447e 19ba a0df 67b9 4ac7 a63d bf64 35b7
00000370: a41e 62b8 92ba 5b38 2973 093f b76d 2db3
00000380: 7c68 9c3e 4be9 81b9 76a6 6fbd 8fcd b484
00000390: d4c8 d438 4a19 4eac 6101 0080 f29e 0940
000003a0: 5a32 283a a127 e53f 8d0b 8f3f 9410 00ba
000003b0: c278 bc3d af87 123f c54b e6a3 6602 86b0
000003c0: 6e62 aa3c 64db 9b3b 426e 28ba 236b e73e
000003d0: d67f 7a3f ccf2 3b80 cc38 d4b7 a568 f7b9
000003e0: 2ceb 01ba 098d e2bc ed42 3e3d af9e 7f3a
000003f0: 5501 4d3d 90d3 0c3b 9ede 9420 7293 0e91

bn1.bias f4 [400]
0.029886317 -0.00020392469 -0.0004760386 -0.17776811 0.14588274 -2.3293407e-05 -1.4568265e-08 -0.00041347195
0.33726138 -0.0011182338 -0.0014243538 -0.0019575863 0.11352709 -0.0003047402 -0.0016572429 -0.0004045917
0.045895364 -3.9257767e-11 -0.0016149314 0.13236488 -7.875781e-05 0.10334437 -0.0010333213 -0.00030084225
0.3156511 0.14539029 0.013857392 -0.0013343655 -4.176452e-07 -0.0013905398 0.0023700318 -0.012475304
0.19569515 0.030123727 0.005431018 -0.00097580085 -0.039865036 -3.920931e-05 0.38023287 0.113828294
-0.0013549831 -0.0006008892 -0.0006547004 -1.881765e-26 0.03794837 -0.0013338809 0.08219601 -1.2921474e-19
0.06959572 0.34387237 -0.019941416 -0.00092233357 -0.002328305 0.19283412 -0.0014076191 0.24151853
0.24802387 0.06918495 -0.0011869789 0.0020749518 -0.000329547 -1.1406727e-05 -0.060204245 -0.00343861
0.25355944 -0.000126489 -9.642452e-05 0.02071015 -9.732842e-10 0.018216783 0.19321607 0.0028433846
0.23138036 0.035459366 0.032000028 -0.0006237743 0.10547567 -4.5256925e-25 -0.0023779683 0.39285666
-5.87e-43 0.024321832 0.19530846 -0.07978356 -0.0004821248 -0.0009421641 -2.2714803e-09 0.014068561
0.01631275 0.045692418 0.005219306 0.118064575 -0.00039405233 -0.002537693 0.21722819 -0.0008500202
0.34795767 -0.000955895 -0.0029972512 -2.4413838e-08 0.07869146 0.007003495 -1.3145094e-09 -0.0958952
-0.2252189 -0.0021010484 0.05093788 -2.110694e-31 0.04611571 -7.4835655e-25 -0.0014813599 0.00030212948
-0.0022164767 -1.5380942e-15 -0.0038832154 0.008883428 0.17464133 -0.0011858746 -0.0041859914 -0.0028212124
0.1431806 -0.18542421 -0.0053954395 0.28608647 -0.0016686713 -6.423232e-08 -0.0016440322 -1.7017582e-25
0.012116436 -0.0027291176 -8.62707e-05 -0.0006616239 -0.0012957266 -0.0017718446 -0.000469995 -0.00037431146
-0.000111882495 -0.0031933326 -1.7714492e-05 -0.20414479 0.11324199 -0.00043372664 -4.1587176e-12 0.31976733
0.19702402 -0.001114021 0.33405942 0.10565629 -0.01919747 -0.0004962311 -0.00039201905 -0.00081420486
-0.0016156641 -0.00087703613 0.051069707 0.3884376 0.03465385 0.012146756 -0.00015390545 -3.8708043e-07
0.3380939 0.019943688 -5.6724783e-21 -3.360062e-05 0.061992258 -1.0593055e-12 0.14867552 -1.3095917e-06
0.15893742 0.33606714 -1.6251129e-15 0.0063968482 -4.0532383e-21 -0.0015889287 -9.150661e-06 -0.002463535
0.14700088 -1.9255365e-15 -0.0013006255 -2.8551384e-18 0.09355178 0.31122032 0.029449428 0.15039906
0.0071989163 8.86353e-22 -3.0465537e-05 -0.05346979 -0.0030192214 0.06610287 -0.002749093 -0.31255576
-0.0010531691 -0.0005797471 -0.037165098 -3.4841714e-06 -0.0016778259 -4.0009935e-21 0.01231898 -0.12745886
0.019850623 0.029481275 0.04515588 0.36192566 -3.378369e-05 0.26053596 0.036231313 0.3964568
0.04311728 0.27894014 -0.0027495092 -1.1743906e-28 -2.3005306e-16 0.045661 -0.0006812116 -0.2347496
-0.00082183315 -0.0005201702 0.06434677 -0.00020683072 -0.003054396 -0.0007533544 -0.10213047 -2.8629493e-06
0.14610794 -0.000523875 0.05481941 -6.821805e-37 -0.00023029 -0.0029623318 -3.7387066e-35 0.24105541
-0.00091008795 -0.15745357 -0.0077180327 -0.0011723093 0.014900966 0.12854624 -1.8223548e-10 -2.342826e-06
-0.0072590266 0.0063358126 -0.0014759421 -0.060011245 0.12005807 -9.548712e-14 -0.00017216799 -0.00037489756
-0.0002698627 0.039897677 0.031516824 -0.0014241101 0.031409536 -0.0021389842 -7.96465e-19 -9.067128e-20
00000000: 26d4 f43c 9ed4 55b9 d294 f9b9 d808 36be
00000010: 4962 153e 3666 c3b7 e847 7ab2 44c7 d8b9
00000020: 86ad ac3e b391 92ba 62b1 baba d94a 00bb
00000030: e480 e83d 8ac5 9fb9 d837 d9ba 611f d4b9
00000040: c7fc 3b3d 51a8 2cae 1bac d3ba a98a 073e
00000050: c72a a5b8 37a6 d33d 8270 87ba 5dba 9db9
00000060: 059d a13e 31e1 143e 1d0a 633c e0e5 aeba
00000070: b838 e0b4 c642 b6ba 8952 1b3b 3865 4cbc
00000080: 4f64 483e 09c6 f63c aef6 b13b e3cc 7fba
00000090: 8549 23bd ad74 24b8 e2ad c23e cf1e e93d
000000a0: b099 b1ba fe84 1dba 33a0 2bba 695c ba94
000000b0: c06f 1b3d 9ed5 aeba 6256 a83d c28c 18a0
000000c0: 3388 8e3d 0a10 b03e 2e5c a3bc c2c8 71ba
000000d0: 7a96 18bb 4f76 453e dc7f b8ba a250 773e
000000e0: f8f9 7d3e d7b0 8d3d 6794 9bba eafb 073b
000000f0: 0dc7 acb9 855f 3fb7 ba98 76bd 4d5a 61bb
00000100: 8bd2 813e 22a2 04b9 8537 cab8 55a8 a93c
00000110: 65c4 85b0 5d3b 953c 6fda 453e 1458 3a3b
00000120: f9ee 6c3e d73d 113d 7612 033d c984 23ba
00000130: a103 d83d 3b10 0c97 b0d7 1bbb 8224 c93e
00000140: a301 0080 943e c73c f1fe 473e 9065 a3bd
00000150: b2c5 fcb9 90fb 76ba 4e18 1cb1 d27f 663c
00000160: 51a2 853c f927 3b3d b606 ab3b d7cb f13d
00000170: cf98 ceb9 6c4f 26bb 1171 5e3e e4d3 5eba
00000180: 8227 b23e 0795 7aba 886d 44bb 99b6 d1b2
00000190: fd28 a13d 937d e53b 30aa b4b0 b464 c4bd
000001a0: c99f 66be beb1 09bb 3da4 503d ebfd 888c
000001b0: d4e3 3c3d ea9a 6797 312a c2ba 2267 9e39
000001c0: 4f42 11bb a9a9 dda6 8b7d 7ebb cc8b 113c
000001d0: 2dd5 323e 596f 9bba a42a 89bb 17e4 38bb
000001e0: ef9d 123e d8df 3dbe 3acc b0bb ed79 923e
000001f0: 51b7 daba 17f0 89b3 917c d7ba dfaa 5296
00000200: 0484 463c ffda 32bb 3bec b4b8 d470 2dba
00000210: 5fd5 a9ba 3d3d e8ba a969 f6b9 3c3f c4b9
00000220: 75a2 eab8 3b47 51bb 9599 94b7 550b 51be
00000230: 6beb e73d ce65 e3b9 6652 92ac 8bb8 a33e
00000240: aac0 493e 5804 92ba d609 ab3e 5362 d83d
00000250: 0344 9dbc 8115 02ba e887 cdb9 5d70 55ba
00000260: b1c4 d3ba e6e8 65ba 782e 513d 4be1 c63e
00000270: 32f1 0d3d 3003 473c ae61 21b9 eecf cfb4
00000280: a51a ad3e f260 a33c d84c d69d 64ee 0cb8
00000290: 98eb 7d3d 8115 95ab 653e 183e 3ac5 afb5
000002a0: 7ec0 223e fe10 ac3e 1534 eaa6 a79c d13b
000002b0: 8420 999d 9a43 d0ba ca85 19b7 4273 21bb
000002c0: 6687 163e e1bf 0aa7 c079 aaba 0aac 52a2
000002d0: 1398 bf3d 4558 9f3e ed3f f13c 3602 1a3e
000002e0: e3e4 eb3b 1ff1 851c 3e90 ffb7 2303 5bbd
000002f0: 21de 45bb f160 873d 212a 34bb 4f07 a0be
00000300: 7e0a 8aba 2bfa 17ba 6e3a 18bd 9cd1 69b6
00000310: 7fea dbba 3c27 979d 8cd5 493c 9384 02be
00000320: c69d a23c b782 f13c 5ff5 383d 524e b93e
00000330: f6b2 0db8 f864 853e 4967 143d 63fc ca3e
00000340: bf9b 303d 3ed1 8e3e 1c31 34bb 27df 1491
00000350: d79d 84a5 0707 3b3d 5693 32ba 3362 70be
00000360: 4a70 57ba 085c 08ba 3dc8 833d b3e0 58b9
00000370: 432c 48bb c27c 45ba c829 d1bd 1821 40b6
00000380: 529d 153e a854 09ba 518a 603d 4e22 6883
00000390: 007a 71b9 ae23 42bb a3c8 4686 3bd7 763e
000003a0: f892 6eba 823b 21be 8de7 fcbb 2ca8 99ba
000003b0: 2e23 743c a0a1 033e ba5e 48af 7239 1db6
000003c0: 21dd edbb a69c cf3b 6674 c1ba 5ace 75bd
000003d0: 01e1 f53d 9404 d7a9 fe87 34b9 e68d c4b9
000003e0: 5c7c 8db9 bf6b 233d c917 013d 35a9 baba
000003f0: 49a7 003d 332e 0cbb 3213 6ba1 6d17 d69f

bn2.weight f4 [300]
1.6732941 -0.06538248 -0.004944384 -0.2819531 -0.048038382 -0.20381773 1.3518157 -0.03770029
1.2081009 -0.2077375 2.6152189 -0.019627206 -0.38491115 -0.026992207 2.457405 -0.3120888
-0.27068582 -0.40713027 -0.12981023 -0.15165521 -0.24037753 0.055340838 0.1196015 -0.14181852
1.2779411 -0.22886337 3.272555 -0.18244655 -0.06363727 2.546073 0.13335183 1.2115554
-0.03930069 -0.035749592 -0.011711078 -0.39483 0.032879237 -0.029039543 0.20073849 -0.16870289
0.036749132 -0.009836318 -0.09855743 -0.090419635 -0.28732938 0.100952536 0.08515331 0.16004756
-0.064933434 1.2541524 1.3584007 -2.888352e-05 0.33223274 1.202311 -0.045089968 1.5826719
0.0010428372 -0.12858383 0.031671196 2.5000744 3.4121692 -0.00012009594 -0.02035745 -0.0029973083
-0.2658153 0.02870321 -0.051577743 -0.14431404 2.1836069 -0.021652404 1.4893523 -0.105675265
0.08697145 -0.044187017 0.13358296 -0.42595237 -0.21008551 -0.3096285 1.9438944 3.1999807
-0.24540812 1.8282477 -0.26592258 -0.38303983 2.126248 1.9411712 2.6985521 0.022872379
0.213038 -0.027749404 -0.05868558 -0.36707878 -0.12384938 -0.09040111 -0.021549592 -0.26630113
0.15733616 -0.13537155 -0.31442246 -0.38424587 -0.09890759 1.3141768 -0.0021574947 -0.21253155
-1.7691798 0.13613223 0.12719849 -0.08203239 0.022426903 2.6800535 -0.036904316 -1.0966238
2.5091314 -0.2873506 1.8544499 -0.39387488 -0.011894788 0.034850616 -0.30198863 0.074277155
-0.38179585 -0.16669638 -0.023223056 -1.6751633 -0.12904695 -0.18578011 -0.079054855 -0.046630263
0.0011026409 0.16385959 -3e-44 0.03635984 -0.33543363 -0.2135389 0.37235376 0.077216536
0.0804534 -0.24466988 -0.08473947 0.0023210552 -3.4950666 1.5428214 0.13496414 2.6677318
-0.41311416 -0.03679113 -0.13316505 0.07577235 1.7420418 -0.12414581 -0.1954644 -2.5794625
-0.42248186 0.19975404 -0.084758095 -0.07695897 0.5831033 2.9922042 0.18159807 2.5957286
-0.12058566 0.008767848 0.36161807 1.7947925 -0.08083672 3.5120816 2.464957 0.5363239
1.8189971 2.4351099 0.08588348 0.33771998 -0.23120165 3.3189259 0.103882395 -0.09332834
0.058087077 -0.10748061 3.6795406 3.6476126 0.050191857 0.03412021 -0.2920295 -0.04905801
2.4687529 -0.328553 -0.025910188 1.4356774 0.058110673 -0.15482625 -2.8175328 0.21246961
1.578868 0.31515664 1.6841464 -4.552239 0.0016160809 -0.03249874 0.087781966 -0.17015782
0.2416738 -0.15361577 -0.03941193 -0.2778321 -0.0041491874 2.277288 2.8996928 0.0622136
1.5907446 -0.22270353 -0.09255537 -0.10123233 -0.13509794 1.494008 1.7758557 1.932385
0.07583517 0.32495728 0.3286494 1.5465354 -0.048113182 -0.00596763 -0.09226085 0.050374497
1.5816599 0.41407028 2.41251 -0.41352424 -0.16516426 2.285836 -0.051978838 -0.18153508
-0.11254905 -0.07736361 0.64228785 -0.2279578 -0.038862646 -0.12760934 -0.2502138 6.653667e-11
2.148223 0.008292773 0.04384344 0.8655171 2.5642493 -0.20176971 0.037215546 0.34763733
-0.0154652195 -0.035574798 0.89751565 -0.06016827 0.31307954 0.044123996 0.39636758 2.2960353
00000000: 802e d63f 40e7 85bd 8004 a2bb 285c 90be
00000010: e5c3 44bd 98b5 50be 4c08 ad3f 9f6b 1abd
00000020: 0da3 9a3f 24b9 54be bf5f 2740 3cc9 a0bc
00000030: 1313 c5be c31e ddbc 2046 1d40 1aca 9fbe
00000040: 5597 8abe 6173 d0be f9ec 04be 814b 1bbe
00000050: 8725 76be 13ad 623d a2f1 f43d e038 11be
00000060: 9393 a33f 295b 6abe 8b71 5140 45d3 3abe
00000070: 4254 82bd dcf2 2240 628d 083e 3f14 9b3f
00000080: c3f9 20bd 2a6e 12bd d2df 3fbc 2827 cabe
00000090: 61ac 063d 56e4 edbc 648e 4d3e 73c0 2cbe
000000a0: 4286 163d 8228 21bc 7ad8 c9bd ee2d b9bd
000000b0: d61c 93be 34c0 ce3d dc64 ae3d 82e3 233e
000000c0: d2fb 84bd 1188 a03f 13e0 ad3f e34a f2b7
000000d0: 691a aa3e 54e5 993f 42b0 38bd fe94 ca3f
000000e0: cfaf 883a 7bab 03be a8b9 013d 3801 2040
000000f0: fb60 5a40 04dc fbb8 abc4 a6bc 7d6e 44bb
00000100: f118 88be ff22 eb3c 2f43 53bd 0fc7 13be
00000110: 37c0 0b40 6260 b1bc 19a3 be3f 466c d8bd
00000120: 161e b23d 72fd 34bd f9c9 083e 6e16 dabe
00000130: a820 57be a087 9ebe 88d1 f83f 7ccc 4c40
00000140: 444c 7bbe 0504 ea3f 0127 88be cc1d c4be
00000150: 7214 0840 4c78 f83f 14b5 2c40 db5e bb3c
00000160: a226 5a3e b852 e3bc 4a60 70bd c0f1 bbbe
00000170: bea4 fdbd 3824 b9bd c588 b0bc 9f58 88be
00000180: bb1c 213e d79e 0abe fbfb a0be e0bb c4be
00000190: 1090 cabd f236 a83f c164 0dbb dfa1 59be
000001a0: 7c74 e2bf 3f66 0b3e 5240 023e 9900 a8bd
000001b0: a0b8 b73c ff85 2b40 fb28 17bd 2b5e 8cbf
000001c0: 9c95 2040 9e1f 93be 9d5e ed3f f8a9 c9be
000001d0: 5be2 42bc 85bf 0e3d 419e 9abe 9f1e 983d
000001e0: bf7a c3be 75b2 2abe 473e bebc c06b d6bf
000001f0: e224 04be 243d 3ebe 83e7 a1bd 60ff 3ebd
00000200: 7d86 903a cfca 273e 1500 0080 0eee 143d
00000210: f5bd abbe f1a9 5abe 27a5 be3e b423 9e3d
00000220: c1c4 a43d be8a 7abe e38b adbd d81c 183b
00000230: 2caf 5fc0 2c7b c53f 0a34 0a3e 1ebc 2a40
00000240: b383 d3be 4cb2 16bd 6b5c 08be 892e 9b3d
00000250: 3afb de3f 2940 febd d227 48be ea15 25c0
00000260: 8b4f d8be 538c 4c3e a795 adbd aa9c 9dbd
00000270: 4246 153f 4680 3f40 d8f4 393e 6b20 2640
00000280: 9df5 f6bd 05a7 0f3c 0126 b93e c3bb e53f
00000290: b98d a5bd f2c5 6040 dbc1 1d40 864c 093f
000002a0: e6d4 e83f d7d8 1b40 aee3 af3d a2e9 ac3e
000002b0: 20c0 6cbe 4869 5440 4bc0 d43d ee22 bfbd
000002c0: b7ec 6d3d cb1e dcbd 987d 6b40 7c72 6940
000002d0: fa95 4d3d a2c1 0b3d e484 95be 0df1 48bd
000002e0: 0c00 1e40 1938 a8be 9a41 d4bc 47c4 b73f
000002f0: 7505 6e3d c68a 1ebe 7552 34c0 a291 593e
00000300: 5918 ca3f 365c a13e 1c92 d73f f1ab 91c0
00000310: add2 d33a 661d 05bd 08c7 b33d da3d 2ebe
00000320: 5679 773e 744d 1dbe 676e 21bd 0240 8ebe
00000330: e8f5 87bb 16bf 1140 9194 3940 b0d3 7e3d
00000340: 859d cb3f 650c 64be ab8d bdbd e552 cfbd
00000350: 1d57 0abe a73b bf3f 3d4f e33f 6458 f73f
00000360: 784f 9b3d cd60 a63e bc44 a83e dff4 c53f
00000370: 5412 45bd 1c8c c3bb 42f3 bcbd 7d55 4e3d
00000380: d573 ca3f 0501 d43e 9066 1a40 73b9 d3be
00000390: d220 29be 234b 1240 c3e7 54bd 55e4 39be
000003a0: 1e80 e6bd d070 9ebd fa6c 243f c56d 69be
000003b0: 702e 1fbd 06ac 02be 061c 80be d150 922e
000003c0: 7c7c 0940 69de 073c 2e95 333d 8792 5d3f
000003d0: a91c 2440 b89c 4ebe 546f 183d 85fd b13e
000003e0: d561 7dbc e1b6 11bd 96c3 653f 0173 76bd
000003f0: f64b a03e 5dbb 343d b1f0 ca3e 3ef2 1240

bn2.bias f4 [300]
-0.480962 0.16070656 0.2868923 0.42426705 0.46773073 0.20017006 -0.28218055 0.030925026
0.9521024 0.50234425 -0.005998243 0.44643757 0.315671 0.1715179 -0.057008367 0.09763408
0.20440641 0.33291382 0.18883553 0.18411545 0.20944962 0.18767008 -0.04482254 0.16739102
0.3606887 0.4465043 -0.68845105 0.39315653 0.47391182 0.056421775 0.5282799 -0.36366513
0.021033764 0.5064878 0.22237083 0.66047627 0.14564288 0.2085935 1.0000297 0.83311653
0.4566225 0.48139742 0.47771537 0.5468918 0.26890033 -0.046641372 0.6587687 -0.049808197
0.16173431 -0.7459193 0.4651667 -0.00077357626 0.5394582 -0.5480511 -0.025209745 0.9788929
0.03380677 0.49100313 0.47683117 -0.035218395 -0.75800544 -0.0014181748 0.19210066 -0.005007358
0.81825185 0.27897727 0.15836824 0.1803034 -0.4101257 0.19112216 -0.6344474 0.49368587
0.65420073 0.49057218 -0.010000335 0.63293374 -0.02324969 0.08858402 0.4322575 -0.7301092
0.49218428 -0.04296958 0.4359799 0.5043484 0.0013142513 0.81801486 0.7487383 -0.0099108415
0.42982942 0.16897461 0.31021494 0.5160812 0.10176673 0.19029258 0.14396325 0.52000946
0.15173955 -0.016788183 0.4292619 0.22707398 0.51932 0.9200988 -0.0049986755 0.43185195
-0.056431428 0.3945218 -0.030927664 0.107991114 0.025131289 -0.91840583 0.16471379 0.9639469
-0.37284368 0.22371432 -0.19096287 0.6397237 0.50441647 0.24945374 0.22336178 0.5594098
0.30820912 0.14149898 0.04578457 -0.76222116 0.18475403 0.4712127 0.05236497 0.6804879
-0.009062499 0.46065095 -4.93e-43 -0.0048335223 0.30385643 0.6144261 0.34139553 0.5057655
0.6622107 0.66651976 0.3725791 -0.0016737201 0.7574038 0.20766887 -0.00091113074 -0.36534584
-0.13262957 0.47701007 0.6320839 -0.008877793 0.41245288 0.16054972 0.528149 1.5173085
0.6500795 0.5843414 0.42632025 0.14162184 -0.041952398 -0.58204865 0.75336224 0.7573051
0.3751176 0.0021433393 -0.03388406 -0.39310187 0.45632958 -0.028133087 0.99483204 -0.058959257
0.54099816 0.63018006 0.4288854 -0.010930122 -0.057494633 -0.77326375 0.4487765 -0.06671032
0.34670162 0.109071344 0.7406389 1.083275 -0.0012088112 0.09164296 0.19202067 0.5921346
0.085045464 0.4170943 0.03394551 -0.19900437 0.47871086 0.46649802 1.3757685 0.3921461
0.8895671 -0.03719662 -0.6012767 1.0678769 0.17340209 0.072302766 0.66751444 0.43470624
-0.013303784 0.35300884 0.5132796 0.06576173 0.0733176 0.5539373 1.188415 0.0030556323
0.8166002 0.49895504 0.22191389 0.6257127 0.3284753 -0.6165211 0.7287624 0.4355242
0.27458084 0.674152 -0.030740587 -0.50358087 0.8789051 -0.06679769 0.3767995 0.017617721
0.9822846 -0.11264052 0.90664405 0.83726734 0.17766887 -0.17698503 0.4679877 0.50267756
0.2974383 0.22550252 0.9314219 0.42890805 0.18619083 0.1211761 0.62070763 -3.822459e-08
0.05410069 0.48955867 0.16055459 0.1911673 -0.25049442 0.2888171 0.1697154 0.33747754
0.0211042 0.18427902 0.11185631 0.47814578 0.47405735 0.32930323 0.6263659 1.1160657
00000000: a740 f6be 4390 243e 8ce3 923e 8839 d93e
00000010: 677a ef3e 61f9 4c3e f879 90be 7b56 fd3c
00000020: fcbc 733f a299 003f e98c c4bb 7793 e43e
00000030: a19f a13e 63a2 2f3e 9b81 69bd 60f4 c73d
00000040: ea4f 513e ae73 aa3e 1a5e 413e c388 3c3e
00000050: f679 563e 962c 403e d797 37bd 8d68 2b3e
00000060: 30ac b83e 369c e43e 543e 30bf d04b c93e
00000070: 92a4 f23e 851a 673d 5a3d 073f 5132 babe
00000080: 004f ac3c 2fa9 013f 2eb5 633e f914 293f
00000090: 6823 153e 8999 553e f900 803f 2047 553f
000000a0: 6dca e93e b979 f63e 1c97 f43e 1a01 0c3f
000000b0: 4ead 893e 060b 3fbd 11a5 283f ae03 4cbd
000000c0: ae9d 253e 91f4 3ebf 542a ee3e d3c9 4aba
000000d0: ef19 0a3f 144d 0cbf ab84 cebc ba98 7a3f
000000e0: f878 0a3d c364 fb3e 3723 f43e 2a41 10bd
000000f0: a50c 42bf 0de2 b9ba 09b6 443e c314 a4bb
00000100: f478 513f 1cd6 8e3e 492b 223e 74a1 383e
00000110: fffb d1be 87b5 433e 256b 22bf 65c4 fc3e
00000120: b379 273f 472c fb3e 72d8 23bc f207 223f
00000130: 2276 bebc 8a6b b53d db50 dd3e 70e8 3abf
00000140: 94ff fb3e df00 30bd c238 df3e fa1c 013f
00000150: f542 ac3a 6c69 513f 50ad 3f3f 1561 22bc
00000160: 9a12 dc3e ae07 2d3e 7ed4 9e3e e61d 043f
00000170: 136b d03d 0fdc 423e 1a6b 133e 571f 053f
00000180: 9d61 1b3e 5f87 89bc 37c8 db3e 1586 683e
00000190: 28f2 043f 988b 6b3f eecb a3bb b31b dd3e
000001a0: a424 67bd c3fe c93e 035c fdbc 722a dd3d
000001b0: 22e0 cd3c a51c 6bbf bbaa 283e 39c5 763f
000001c0: 5ee5 bebe 5e15 653e c58b 43be efc4 233f
000001d0: 7021 013f cd70 7f3e f3b8 643e 7b35 0f3f
000001e0: 96cd 9d3e 1ce5 103e 9a88 3b3d ed20 43bf
000001f0: 2930 3d3e ca42 f13e a77c 563d 7434 2e3f
00000200: e07a 14bc 71da eb3e 6001 0080 8662 9ebb
00000210: 1293 9b3e 074b 1d3f 65cb ae3e d979 013f
00000220: a486 293f 0aa1 2a3f b0c2 be3e ba60 dbba
00000230: 37e5 413f 26a7 543e f3d8 6eba 9c0e bbbe
00000240: 0cd0 07be aa3a f43e 40d0 213f 2a74 11bc
00000250: 062d d33e 2567 243e c634 073f 2a37 c23f
00000260: 9c6b 263f 6697 153f a646 da3e 5105 113e
00000270: 47d6 2bbd 2401 15bf 59dc 403f bfde 413f
00000280: 6a0f c03e 4477 0c3b 03ca 0abd a644 c9be
00000290: 08a4 e93e 5c77 e6bc 50ad 7e3f 437f 71bd
000002a0: db7e 0a3f 7b53 213f de96 db3e 4114 33bc
000002b0: 7e7f 6bbd 9df4 45bf 09c6 e53e 6c9f 88bd
000002c0: e082 b13e cc60 df3d 839a 3d3f c1a8 8a3f
000002d0: f970 9eba 4eaf bb3d 11a1 443e 2296 173f
000002e0: 512c ae3d 628d d53e 720a 0b3d cdc7 4bbe
000002f0: 9719 f53e d4d8 ee3e 2f19 b03f 60c7 c83e
00000300: abba 633f 7c5b 18bd 45ed 19bf 31b0 883f
00000310: 5190 313e 7913 943d 3ae2 2a3f d191 de3e
00000320: 1df8 59bc 93bd b43e 4b66 033f 16ae 863d
00000330: 8a27 963d d6ce 0d3f fc1d 983f 0141 483b
00000340: b60c 513f 0977 ff3e 653d 633e b52e 203f
00000350: ea2d a83e 54d4 1dbf 2c90 3a3f 07fd de3e
00000360: dc95 8c3e 3a95 2c3f afd3 fbbc adea 00bf
00000370: edff 603f 3acd 88bd ddeb c03e 0a53 903c
00000380: 0177 7b3f 13b0 e6bd d319 683f 2757 563f
00000390: d4ee 353e 903b 35be 159c ef3e 7aaf 003f
000003a0: d549 983e 22ea 663e aa71 6e3f d699 db3e
000003b0: cfa8 3e3e 2d2b f83d b2e6 1e3f 622c 24b3
000003c0: af98 5d3d 6fa7 fa3e 6c68 243e 5cc1 433e
000003d0: ce40 80be d6df 933e e0c9 2d3e dbc9 ac3e
000003e0: b7e2 ac3c a4b3 3c3e ec14 e53d 86cf f43e
000003f0: a5b7 f23e 6f9a a83e 8459 203f 3edb 8e3f
