trained_data/ddpg/withwalls_G_550_450/target_actor_ddpg.pth (torch, 504132 bytes, 10 tensors)

fc1.weight f4 [400, 6]
0	0x3cbc402a	0.022979815
1	0x3d22f2c2	0.039782293
2	0xbd4c5694	-0.049887255
3	0xbe43485e	-0.19070575
4	0x3eb26f7b	0.34850678
5	0x3e516a9f	0.20450829
6	0x3d233a0f	0.03985029
7	0x3c2112cc	0.009831142
8	0xbe8f8601	-0.28031924
9	0xbd948e2c	-0.0725368
10	0x3d704dac	0.058667824
11	0xbce4ce57	-0.027930422
12	0xbae7acfc	-0.0017675455
13	0x3d6622d5	0.056185562
14	0x3e09f28a	0.13471428
15	0x3d2e3907	0.042534854
16	0x3db31f47	0.087462
17	0xba44068d	-0.0007477783
18	0x3caf3a2b	0.021390041
19	0x3d0d4e02	0.034498222
20	0xbdcdeb42	-0.100546375
21	0xbd8adac6	-0.06780009
22	0x3db9bfd7	0.09069794
23	0x3e22586e	0.15854046
24	0x3c087e3a	0.008330876
25	0x3d364a24	0.0445043
26	0xbddcf8f8	-0.107896745
27	0x3d99679b	0.07490464
28	0x3e714f84	0.23565489
29	0x3ef4c035	0.47802892
30	0x3d01cb0d	0.031687785
31	0x3cccfede	0.025023874
32	0xbe6890af	-0.22711442
33	0x3e131994	0.14365226
34	0xbdcd733e	-0.10031746
35	0x3e6a83a1	0.22901775
36	0xbb1036b9	-0.0022005273
37	0x3d5333db	0.051563125
38	0xbdc48bcf	-0.09596979
39	0x3d269387	0.040668037
40	0x3e58310b	0.21112458
41	0x3ea7ef82	0.32799917
42	0x3d6dace0	0.058026195
43	0x3b75f978	0.0037532728
44	0x3aee80aa	0.0018196304
45	0xbb966373	-0.004589492
46	0x3dbcdbde	0.09221624
47	0x3e34bb95	0.17649682
48	0x3b8f6e23	0.004377143
49	0x3d427476	0.047474347
50	0xbe233cc9	-0.15941156
51	0x3d6f29e7	0.05838957
52	0x3dbf8c64	0.09352949
53	0x3e8a46b8	0.2700708
54	0x3c5818ab	0.013189475
55	0x3d0d8861	0.03455389
56	0xbdc9dc58	-0.0985648
57	0xbe5d1d13	-0.21593122
58	0x3ea0fcea	0.31442958
59	0x3d4330da	0.04765401
60	0x3d3f8902	0.04676152
61	0x3c21eefa	0.009883637
62	0xbddc68eb	-0.10762199
63	0x3d7d7a1e	0.06188404
64	0x3c31cf54	0.0108526535
65	0x3eb89772	0.36053044
66	0x3d2d83b0	0.042361915
67	0x3c0e43d7	0.0086831665
68	0xbea70d6d	-0.3262743
69	0xbd2558e1	-0.040367965
70	0x3dd9c2b5	0.106328405
71	0x3eb0901e	0.34484953
72	0xbb9a6268	-0.004711438
73	0x3d67d164	0.056596175
74	0xbdd17686	-0.10227685
75	0x3e1eba3c	0.1550073
76	0x3d1f8e91	0.03895432
77	0xbe26d215	-0.16291077
78	0x3d018950	0.031625092
79	0x3cc67586	0.024225961
80	0x3ea293f4	0.31753504
81	0xbd5ef104	-0.05442907
82	0x3dee6688	0.1164065
83	0x3e4198c6	0.18905935
84	0x3c414b63	0.011797759
85	0x3d2f5803	0.042808544
86	0x3d9b10e9	0.07571585
87	0x3cdb8ccb	0.026800534
88	0x3e71de1e	0.23619887
89	0x3eb514fc	0.35367572
90	0x3d5814f5	0.05275436
91	0x3b17d7c3	0.0023169375
92	0x3d55a0c3	0.052155267
93	0xbd7d3af0	-0.061823785
94	0xbd1bac52	-0.038006134
95	0xbd4a8be0	-0.0494498
96	0x3d1659dd	0.036706794
97	0xbc7e7e39	-0.0155330235
98	0xbd81525a	-0.063145354
99	0xbd180442	-0.037113436
100	0x3e1bc0b0	0.15210223
101	0x3d168d1f	0.036755677
102	0x3c0f15d4	0.008733232
103	0x3d411e69	0.047148142
104	0x3e9aeca1	0.3025866
105	0xbd2eef70	-0.042708814
106	0x3c992185	0.018692741
107	0xbba6af9c	-0.0050868522
108	0x3cd0a223	0.025467938
109	0x3ccaa8c8	0.024738684
110	0xbe96347f	-0.29336926
111	0xbccc0c70	-0.024908274
112	0x3dbcfcd1	0.092279084
113	0x3e2d81c8	0.16944039
114	0x3c388ec1	0.011264504
115	0x3d38b6fc	0.045096382
116	0xbe434de2	-0.19072679
117	0xbc58c136	-0.013229659
118	0x3d9140f9	0.07092471
119	0x3e02f24e	0.12787744
120	0x3ba44e5a	0.005014223
121	0x3d4a3341	0.049365286
122	0x3d58afab	0.052901905
123	0x3e005e5c	0.12535995
124	0x3d20c8ab	0.039253872
125	0xbc60fe29	-0.0137324715
126	0x3d71b38d	0.059009124
127	0xbb9bf144	-0.0047589857
128	0xbefbaaee	-0.49153847
129	0xbdbd8959	-0.092547126
130	0x3de00051	0.1093756
131	0x3e3da8bb	0.18521397
132	0xbc3feb42	-0.011713805
133	0x3d80aaab	0.06282552
134	0xbcdf6a9a	-0.027272511
135	0xbe128ff7	-0.1431273
136	0x3e5a18c1	0.21298505
137	0x3edf17dd	0.43572894
138	0xbc02b1e8	-0.0079769865
139	0x3d8a6755	0.0675799
140	0x3f170a4b	0.5900008
141	0x3d9efe91	0.077633984
142	0x3d24a99c	0.040200815
143	0xbd2e440d	-0.042545367
144	0xbba6cc1d	-0.00509025
145	0x3d5f5ee5	0.054533858
146	0xbe0124ba	-0.12611666
147	0x3de7b961	0.11314655
148	0x3dd97265	0.10617522
149	0x3e6c3205	0.23065956
150	0x3cc60689	0.024173038
151	0x3d0b16f3	0.033957433
152	0xbdb53fa7	-0.08850031
153	0xbd8760c2	-0.06610252
154	0x3da1283b	0.078690015
155	0x3cc98ee0	0.02460426
156	0x3c8dd358	0.01731269
157	0x3d288137	0.041138854
158	0x3e9a8f39	0.30187395
159	0xbba6f2a8	-0.005094845
160	0x3dd9fae9	0.106435604
161	0x3dceb9fb	0.10094067
162	0x3c43ad79	0.011943215
163	0x3d49ac6f	0.04923671
164	0xbe50ae74	-0.20379049
165	0xbd383823	-0.04497541
166	0xbe0835b8	-0.13301742
167	0x3c5b196a	0.013372758
168	0x3d3fa617	0.046789255
169	0x3c8230d4	0.015892424
170	0x3ea0a8ef	0.31378886
171	0xbd96dc81	-0.073662765
172	0x3e111751	0.14169051
173	0x3c7475cb	0.014920662
174	0x3cc99267	0.024605943
175	0x3d064951	0.032784764
176	0xbc39be60	-0.011336893
177	0xbe0704b8	-0.13185394
178	0x3ebbd4ee	0.3668589
179	0x3e578c08	0.21049511
180	0x3b8096cf	0.003924228
181	0x3d40d2fb	0.047076207
182	0x3d6c7bc2	0.057735212
183	0x3c85419e	0.01626664
184	0xbde61b91	-0.112357266
185	0xbc1309ed	-0.008974534
186	0x3d4f60f0	0.050629556
187	0x3c9251be	0.017861243
188	0x3daf9541	0.0857339
189	0x3d02ad49	0.03190354
190	0x3da62711	0.0811292
191	0x3e00b16a	0.12567678
192	0x3cedb5ed	0.029017413
193	0x3cb6428e	0.022248533
194	0xbeb140fd	-0.34619895
195	0x3d9e5035	0.07730142
196	0xbd049593	-0.032369208
197	0xbdc08f72	-0.0940236
198	0x3d1700c6	0.036865972
199	0x3cedc071	0.029022427
200	0x3f1e0580	0.6172714
201	0x3bf5c49b	0.007500244
202	0x3d0d58df	0.034508582
203	0x3da6cc9c	0.08144495
204	0x3c870ae7	0.01648469
205	0x3d168ac8	0.036753446
206	0x3db908a6	0.09034853
207	0x3dd1aaf2	0.10237683
208	0xbea4d5b3	-0.3219429
209	0x3df641f8	0.12024301
210	0x3c98773b	0.018611541
211	0x3d135db5	0.035978038
212	0xbd1c9e93	-0.038237166
213	0x3d78c644	0.060735956
214	0x3e9aff07	0.30272695
215	0x3ec181ca	0.37794334
216	0x3c203336	0.009777835
217	0x3d2724ea	0.04080669
218	0x3c73cab7	0.014879874
219	0xbd4647f9	-0.048408482
220	0x3e1659ad	0.14682646
221	0x3e1ae4e1	0.15126373
222	0x3c4e00c1	0.012573422
223	0x3d2d2952	0.042275734
224	0x3d3a5dd4	0.045499638
225	0x3c19a986	0.009378796
226	0xbaf71067	-0.0018849493
227	0x3e82b355	0.25527444
228	0x3c79782d	0.015226406
229	0x3d22709a	0.039658166
230	0x3ddc156b	0.10746273
231	0xbed10e97	-0.40831444
232	0x3d30be60	0.043150306
233	0x3e49bebe	0.19701669
234	0x3c992d4e	0.01869836
235	0x3d1a7338	0.037707537
236	0xbec02453	-0.37527713
237	0xbe1658ac	-0.14682263
238	0x3d0ab29a	0.033861734
239	0x3e25e097	0.16198955
240	0x3cb296d6	0.02180044
241	0x3d167a8a	0.036737956
242	0xbdc92adc	-0.09822628
243	0x391fd812	0.00015243914
244	0xbeb6e8b4	-0.35724413
245	0xbc08c74c	-0.008348297
246	0x3d537853	0.051628422
247	0x3b855ffd	0.0040702806
248	0xbe41acd0	-0.18913579
249	0xbd314577	-0.043279137
250	0x3e0bfa5b	0.13669722
251	0x3dd3c37f	0.10340022
252	0x3ce10485	0.027467975
253	0x3cb043c0	0.02151668
254	0x3d035727	0.032065537
255	0xbdefd309	-0.11710174

fc1.bias f4 [400]
0	0x3ecac1ed	0.3960108
1	0xbe8dd523	-0.27701673
2	0xbecb064e	-0.39653248
3	0xbf1bb782	-0.60826886
4	0x3e319dfb	0.17345421
5	0x3d92d894	0.07170215
6	0x3e7b18ad	0.24521132
7	0x3ef327d5	0.47491327
8	0xbd3ed7a0	-0.046592355
9	0x3eb01127	0.34388086
10	0x3ecc0443	0.39847
11	0x3ef032a6	0.46913642
12	0x3ab6bdf3	0.0013942107
13	0x3c3b6d71	0.011439667
14	0x3e0a24e8	0.13490641
15	0x3d88af71	0.06674088
16	0x3e83f332	0.2577148
17	0xbede7a2d	-0.43452588
18	0x3ebe22c9	0.37135914
19	0x3f288383	0.6582567
20	0xbecbcf5d	-0.39806643
21	0x3de06901	0.10957528
22	0x3e91be96	0.28465718
23	0xbd06ac5c	-0.03287922
24	0x3e5c495b	0.21512358
25	0xbf23f5b0	-0.64046764
26	0xbf0c5d2c	-0.5482967
27	0x3f3e8f94	0.7443783
28	0x3e9eae54	0.30992377
29	0x3e8bc5cc	0.27299345
30	0xbe8bceb8	-0.2730615
31	0xbec3cd47	-0.38242552
32	0x3f149e55	0.58054096
33	0xbdeece7c	-0.116604775
34	0x3f1af48a	0.60529387
35	0x3dcbe5b0	0.09955919
36	0x3e993714	0.29924834
37	0xbf202a57	-0.62564605
38	0xbe32d554	-0.1746419
39	0xbf02077d	-0.50792676
40	0xbdf239d0	-0.11827433
41	0x3cc0ebe7	0.023549987
42	0x3e8ff17d	0.28113928
43	0x3df37119	0.11886806
44	0xbf06f3cc	-0.52715755
45	0x3f3ee62c	0.74569964
46	0x3e64c5d9	0.22341098
47	0xbdde6ad5	-0.1086022
48	0x3e188dd6	0.14897856
49	0xbeb4791d	-0.35248652
50	0x3f0e028b	0.5547263
51	0xbf31c35e	-0.6943873
52	0x3eba3c2e	0.36374038
53	0x3f0e458f	0.5557489
54	0xbdf274a7	-0.11838656
55	0x3eddd465	0.43326107
56	0x3e7194a2	0.23591855
57	0xbf5901d1	-0.84768397
58	0x3d82cb1d	0.06386397
59	0x3e8e21f3	0.27760276
60	0xbec78e2d	-0.3897566
61	0xbee35bee	-0.44406074
62	0x3e296c60	0.16545248
63	0x3e5b9353	0.21442918
64	0x3f0863d0	0.532773
65	0x3ea7640a	0.3269351
66	0x3ea6a1b6	0.3254525
67	0x3e81aef3	0.25328788
68	0x3ea6af38	0.32555556
69	0x3f089cb5	0.53364116
70	0xbca7cb02	-0.020482544
71	0x3f664352	0.8994647
72	0xbe9fcd57	-0.3121135
73	0xbe43ed6d	-0.1913354
74	0x3f1412f5	0.57841426
75	0x3f253f61	0.64549834
76	0xbea4f89e	-0.3222093
77	0x3eb24308	0.34816766
78	0xbf481d4d	-0.7816971
79	0x3f1c77ae	0.61120117
80	0xbefc6959	-0.49299124
81	0x3f37c2cd	0.7178162
82	0x3e60d0e9	0.21954693
83	0x3f0ee0e6	0.5581192
84	0x3f1fcac1	0.6241875
85	0xbd8e0e3f	-0.06936311
86	0x3dd31393	0.10306468
87	0x3d745798	0.05965385
88	0x3f31f5e8	0.6951585
89	0xbf1d95eb	-0.6155688
90	0x3f06a5f5	0.5259698
91	0x3e216d20	0.15764284
92	0x3f47b84f	0.7801561
93	0x3ee2a695	0.44267717
94	0x3f3e7ca2	0.74408925
95	0xbee5a512	-0.448525
96	0x3f436945	0.76332504
97	0x3f14df87	0.58153576
98	0x3ecc971f	0.39959046
99	0xbf042645	-0.51620895
100	0x3e993dbc	0.29929912
101	0x3f50b0a9	0.8151956
102	0xbee93ec7	-0.45555708
103	0x3e90ad3f	0.28257176
104	0xbf03e29a	-0.5151764
105	0xbc3ea021	-0.011634857
106	0x3eddfc63	0.43356618
107	0xbf232852	-0.637334
108	0xbf33c9e3	-0.7022993
109	0x3d435be8	0.04769507
110	0x3ece3cd2	0.40280777
111	0xbe9bc5b5	-0.30424276
112	0xbf31349d	-0.69220906
113	0xbd84713c	-0.0646691
114	0x3d66f5bb	0.05638669
115	0x3e9bcf82	0.30431753
116	0x3e6e96ee	0.23299763
117	0x3ca4b896	0.020107549
118	0xbe509a30	-0.20371318
119	0xbe376669	-0.1791016
120	0x3e99ff50	0.300776
121	0x3dc7d8ef	0.09758174
122	0x3e6c8d17	0.23100697
123	0x3f16715f	0.5876674
124	0xbf1c1432	-0.60968316
125	0x3e6860f4	0.22693235
126	0xbe7a1297	-0.24421154
127	0x3e97bd08	0.29636407
128	0x3e24ee65	0.16106565
129	0xbceeae19	-0.02913575
130	0x3ea30e8c	0.31847036
131	0x3ead0b67	0.33797762
132	0x3d753deb	0.059873503
133	0x3cee9a16	0.029126208
134	0x3ebe6fd3	0.3719469
135	0xbf3f997c	-0.74843574
136	0xbf024729	-0.5088983
137	0xbf112da8	-0.5671029
138	0x3ef0af78	0.47008872
139	0x3e052a20	0.1300435
140	0xbf24fd3d	-0.6444891
141	0xbebd2568	-0.369426
142	0xbd880a1d	-0.06642554
143	0x3e8d7776	0.27630204
144	0xbdb93058	-0.09042424
145	0x3ed5b8f0	0.4174266
146	0x3bbe017c	0.005798517
147	0xbe4150b4	-0.18878442
148	0x3e1fd8f8	0.15610111
149	0x3e07e0bf	0.13269328
150	0x3ca6adb9	0.02034651
151	0x3e8518ea	0.2599557
152	0x3e3af39e	0.18256995
153	0xbeb364b8	-0.3503778
154	0x3e63ecf2	0.22258356
155	0x3f0c6f2c	0.54857135
156	0x3e91c370	0.2846942
157	0x3f10019a	0.56252444
158	0x3e86412d	0.262216
159	0xbd872202	-0.06598283
160	0xbf1df8d0	-0.6170778
161	0x3cc4d2e5	0.024026344
162	0xbf0db381	-0.55352026
163	0x3e40f864	0.18844754
164	0xbcf0694e	-0.029347088
165	0x3dee8b9c	0.11647722
166	0x3d9115c8	0.070842326
167	0xbf475242	-0.7785989
168	0xbc0cb0f4	-0.008587111
169	0x3f034f95	0.5129331
170	0xbe34328a	-0.17597404
171	0xbea01a33	-0.31269988
172	0x3ea77e4c	0.32713544
173	0xbdfb7ff1	-0.12280262
174	0x3f0c3641	0.54770285
175	0x3e9e94f2	0.3097301
176	0x3e935c83	0.28781518
177	0x3e51fe32	0.20507124
178	0x3f43e6b7	0.7652392
179	0x3f43e92c	0.7652767
180	0x3d9ab902	0.07554819
181	0x3f241f5d	0.64110357
182	0x3e87df59	0.26537588
183	0xbc9008c0	-0.017582297
184	0x3e861bbb	0.26193032
185	0x3ba152d8	0.004923206
186	0xbf143d4a	-0.5790602
187	0x3ef0f96b	0.4706529
188	0x3e2fbe44	0.17162424
189	0x3e81faf4	0.25386775
190	0x3ee48575	0.4463307
191	0xbeaa015e	-0.33204168
192	0xbefdda7c	-0.49580753
193	0x3eceecc7	0.40415022
194	0x3dd54f50	0.10415518
195	0x3e7810f1	0.24225213
196	0xbf2bfef8	-0.67185926
197	0x3e887c3f	0.26657292
198	0xbed92d00	-0.42417145
199	0x3ec6ac2a	0.38803226
200	0x3e971f35	0.29515997
201	0xbee7caf4	-0.45272028
202	0x3e35a2e0	0.17737913
203	0x3eb0cfee	0.34533638
204	0x3f0b8277	0.5449595
205	0xbdd9c7d2	-0.10633816
206	0x3e827a63	0.25484
207	0x3e1030a5	0.14081056
208	0x3f0d1cb9	0.5512195
209	0x3f013840	0.50476456
210	0x3f30c09c	0.690439
211	0x3eab0460	0.33401775
212	0x3e8f396c	0.27973497
213	0x3ea4e1d5	0.32203546
214	0x3d8ad50e	0.06778918
215	0xbf0f0714	-0.55870175
216	0x3ee72929	0.4514859
217	0xbf269b7f	-0.6508102
218	0x3eaf8bd8	0.3428638
219	0xbdba2350	-0.090887666
220	0x3f0175e7	0.5057053
221	0xbefdc3b4	-0.49563372
222	0x3e06ad8a	0.13152137
223	0x3e889df3	0.26683006
224	0x3d7b6eba	0.061384894
225	0x3e4c9b01	0.19981004
226	0x3ef192ed	0.47182408
227	0xbf01d714	-0.5071881
228	0xbf297ebc	-0.66209006
229	0x3eb1f4c4	0.34757054
230	0x3e47d30b	0.195141
231	0xbd897f46	-0.067137286
232	0x3f25fde7	0.6484055
233	0xbf0ef10b	-0.5583655
234	0x3e5a2d0f	0.21306251
235	0x3dca44f4	0.09876433
236	0xbe6f6882	-0.2337971
237	0xbcb4a2b4	-0.02205024
238	0xbf2c3742	-0.67271817
239	0xbf3507ce	-0.70715034
240	0x3eab8191	0.3349729
241	0xbf13800e	-0.5761727
242	0xbebf9d03	-0.37424478
243	0x3ee74fdd	0.45178118
244	0x3c8bab53	0.017049467
245	0x3e175d6e	0.14781734
246	0x3e97d437	0.29654095
247	0x3f0bee79	0.54660755
248	0xbe9b5356	-0.30337018
249	0x3f20e29e	0.6284579
250	0xbf0630bd	-0.5241812
251	0x3ed12160	0.40845776
252	0x3de8d3ee	0.113685474
253	0xbea74e2f	-0.32676837
254	0x3e2bf733	0.16793518
255	0xbea5d9b0	-0.32392645

fc2.weight f4 [300, 400]
0	0x3d623e37	0.055235114
1	0x3dbb71d0	0.091525674
2	0x3da1cfa6	0.07900934
3	0x3e212953	0.1573842
4	0x3e1c5f81	0.15270807
5	0xbd78e0c3	-0.060761224
6	0x3c00c9bf	0.0078606
7	0x3d2c8060	0.042114615
8	0x3e1fe3d4	0.15614253
9	0x3e282714	0.16421157
10	0x3c7a5f35	0.015281488
11	0x3d5ff022	0.054672368
12	0x3e04317c	0.12909502
13	0x3dc7bae7	0.09752446
14	0x3d03a916	0.032143675
15	0x3c6d9a31	0.014502094
16	0x3e2e8ef3	0.17046718
17	0x3de1ec00	0.110313416
18	0x3e553cfb	0.20824043
19	0x3db99dba	0.09063287
20	0x3da42f97	0.080168895
21	0x3d392971	0.045205537
22	0x3cec70e9	0.028862434
23	0x3df696a6	0.12040453
24	0x3dce923d	0.100864865
25	0x3e2eb462	0.17060998
26	0x3cb1aa18	0.021687552
27	0x3d7761d5	0.060396034
28	0x3cf2583e	0.029583093
29	0x3d18211f	0.03714096
30	0x3d729562	0.059224494
31	0x3cddb96b	0.027065953
32	0x3dff5173	0.12466707
33	0xbb8d73a2	-0.004316763
34	0x3da0e13d	0.07855461
35	0x3ddb9d98	0.10723418
36	0x3dcf9b0c	0.10136995
37	0x3dd16ff7	0.10226434
38	0x3e311588	0.1729337
39	0x3e2820fc	0.16418833
40	0x3d5d826c	0.054079458
41	0x3ccc57e1	0.024944248
42	0x3c2ca8bb	0.010538275
43	0x3d7164dc	0.058934078
44	0x3cd87f2f	0.026427833
45	0x3d6790ad	0.056534458
46	0x3de324c3	0.11090996
47	0xbcef11f4	-0.029183365
48	0x3df7c1f1	0.12097538
49	0x3dbfb0b0	0.09359872
50	0x3db672ba	0.08908601
51	0x3d9310af	0.071809165
52	0x3de1293a	0.109941915
53	0x3e2d713b	0.16937725
54	0x3de0cc45	0.10976461
55	0x3d8df1ce	0.06930886
56	0x3ce3395b	0.02773731
57	0x3e0e165e	0.1387572
58	0x3d9b7fa0	0.07592702
59	0x3d32df3c	0.043669924
60	0x3df0b6f6	0.11753647
61	0x3ce4fc81	0.027952434
62	0xbc4312fa	-0.01190638
63	0x3d7ce934	0.061745837
64	0x3d237fa5	0.039916653
65	0x3d7091ca	0.058732785
66	0x3d9320e3	0.07184007
67	0x3721affb	9.637321e-06
68	0xba45c273	-0.0007543929
69	0x3ddac096	0.10681264
70	0x3dcd3640	0.10020113
71	0x3daeda2d	0.085377075
72	0x3e1680b8	0.1469754
73	0x3cfb89d2	0.030705366
74	0x3e1d2522	0.15346196
75	0x3e05d9b4	0.13071328
76	0x3e07a28f	0.13245605
77	0xbcfc9b8a	-0.030835886
78	0x3bb7883b	0.0056009567
79	0xbd096be6	-0.033550166
80	0x3cca7971	0.02471611
81	0x3c9f6f29	0.019462185
82	0x3da5ce15	0.08095948
83	0x3d149518	0.036275
84	0x3dfe2620	0.124096155
85	0x3d27b7eb	0.040946882
86	0x3df11441	0.11771441
87	0x3dab742e	0.08371769
88	0x3db62570	0.088938594
89	0x3e0311cd	0.12799759
90	0x3dacb45a	0.08432837
91	0x3df513ce	0.11966668
92	0x3de8d5ba	0.1136889
93	0x3dc8bde0	0.09801841
94	0x3d8f1eb4	0.06988278
95	0x3d13bcff	0.036068913
96	0x3d53bd67	0.0516943
97	0xbd84eb1d	-0.06490157
98	0x3e43a2c9	0.19105066
99	0x3cbe48a5	0.023227999
100	0xbce3ce1d	-0.027808243
101	0x3dfbdde6	0.12298183
102	0x3d1e80aa	0.038696922
103	0xbc94efca	-0.018180747
104	0xbc6a49cd	-0.014299822
105	0xbc9a852b	-0.018862328
106	0x3d877659	0.0661437
107	0x3d513fac	0.051086113
108	0x3d296660	0.041357398
109	0x3d5cfef7	0.05395409
110	0x3dc2bb52	0.09508385
111	0xbd2b4e24	-0.041822568
112	0x3d83c70e	0.06434451
113	0x3de99e83	0.11407187
114	0x3aca702c	0.0015444807
115	0x3e6f2e48	0.23357499
116	0xbd35fd33	-0.044430923
117	0x3d972688	0.07380396
118	0x3e10464f	0.1408932
119	0x3d1fb56b	0.038991373
120	0x3e8a3d13	0.2699972
121	0x3d102cc3	0.035198938
122	0x3d6781ae	0.056520157
123	0x3d2eb9a5	0.042657513
124	0xbd03e394	-0.032199457
125	0x3e260095	0.1621116
126	0x3dd8b9c7	0.10582309
127	0x3cf387f8	0.02972792
128	0x3c54e915	0.012995024
129	0x3d97a284	0.07404044
130	0x3d8ceff6	0.068817064
131	0x3e1efc15	0.15525849
132	0x3d1d883a	0.038459994
133	0x3dc5b521	0.09653688
134	0x3baac0e1	0.0052109812
135	0x3cca7344	0.024713166
136	0x3de46d99	0.111537166
137	0x3d618014	0.055053785
138	0x3e6d4436	0.23170552
139	0x3dfc7484	0.12326911
140	0x3e08def1	0.13366295
141	0x3d259acc	0.04043083
142	0x3d5c82ec	0.053835794
143	0x3d8827b6	0.06648199
144	0x3cb2c26a	0.02182122
145	0x3d06e827	0.03293624
146	0x3dbcda07	0.09221273
147	0x3dab4782	0.083632484
148	0x3c04f9a5	0.0081161605
149	0x3d49a422	0.049228795
150	0x3e03c039	0.12866296
151	0x3d9fc9f2	0.0780219
152	0x3e0f3278	0.13984096
153	0x3dbd091c	0.09230253
154	0x3dc79f6b	0.097472034
155	0x3db2e23a	0.087345555
156	0x3d93c53a	0.07215352
157	0x3cde4f96	0.027137559
158	0x3c611528	0.013737954
159	0x3c940c34	0.018072225
160	0x3dad7afa	0.084707215
161	0x3d87f900	0.0663929
162	0x3d2bcdab	0.041944187
163	0x3d826762	0.06367375
164	0x3d7d3959	0.06182227
165	0x3e0213c0	0.12702847
166	0xbd177943	-0.03698088
167	0x3de5371b	0.11192151
168	0x3d122d25	0.035687584
169	0x3e20b1d3	0.15692835
170	0x3d2e8c3c	0.042614207
171	0x3de230a0	0.11044431
172	0xbd3947ba	-0.04523442
173	0x3d8ca90c	0.06868181
174	0x3e00545f	0.12532185
175	0x3d32905f	0.043594714
176	0x3c7e19fe	0.015509127
177	0x3d1fda71	0.03902668
178	0x3d5a1b72	0.05324883
179	0x3dcc2c74	0.09969416
180	0x3d8e12b7	0.06937163
181	0xbdb5d958	-0.08879346
182	0xbc4577d6	-0.012052497
183	0x3da2e035	0.0795292
184	0x3c9acef7	0.018897517
185	0x3cb07a58	0.021542713
186	0xbd0e9249	-0.034807477
187	0x3cbcc158	0.023041412
188	0x3de736a5	0.112897195
189	0xbd1f68ad	-0.038918186
190	0x3d0d7592	0.034535952
191	0xbcbb593f	-0.022869704
192	0x3d5f1508	0.054463416
193	0x3dd0f4ef	0.102029674
194	0x3d586cb5	0.052838046
195	0x3c185468	0.009297468
196	0xbd864353	-0.0655581
197	0xbc539390	-0.0129136
198	0x3cd3a6cc	0.02583637
199	0x3d65766a	0.05602113
200	0x3b9d589b	0.0048018224
201	0x3dcecc58	0.10097569
202	0x3e043e42	0.12914374
203	0xbc0395e6	-0.008031344
204	0x3b50629f	0.0031797064
205	0x3dc1de4f	0.0946623
206	0xbc55ee85	-0.013057356
207	0x3e27d4ae	0.16389725
208	0x3d175c4e	0.036953263
209	0x3df30c69	0.118676014
210	0x3db2a503	0.0872288
211	0x3e02a9a9	0.12760033
212	0x3d98f8fe	0.074693665
213	0xbd2d208c	-0.042267367
214	0x3dd452cb	0.10367354
215	0x3c9cfc84	0.019163378
216	0x3df39562	0.11893727
217	0x3d857c8f	0.06517898
218	0x3db94a64	0.09047392
219	0x3de10b5c	0.10988495
220	0x3d1dac34	0.038494304
221	0x3da646d1	0.08118976
222	0x3cc6b827	0.024257733
223	0x3cd8504a	0.026405472
224	0x3d2d8a2a	0.04236809
225	0x3d99dcd4	0.07512823
226	0x3d8b8c32	0.068138495
227	0xbd6a8d0b	-0.057263415
228	0x3de1d778	0.110274255
229	0x3e179b1b	0.14805262
230	0x3ddcf882	0.107895866
231	0x3c99c9e2	0.018773023
232	0x3d785044	0.060623422
233	0x3d232d37	0.039838042
234	0x3e5ba49d	0.21449514
235	0x3dfef011	0.12448133
236	0xbd193011	-0.037399355
237	0x3cddf24a	0.027093071
238	0xbdc7d866	-0.097580716
239	0x3d8c53bc	0.068519086
240	0x3e0c5950	0.13705945
241	0xbda384d7	-0.079843216
242	0x3dd3482b	0.10316499
243	0x3de7ee1f	0.11324715
244	0x3d4d7eb5	0.050169665
245	0x3e1f1d43	0.15538506
246	0xbcca815e	-0.02471989
247	0xbbe59ff3	-0.007007593
248	0x3e162a60	0.14664602
249	0x3d485339	0.048907492
250	0x3be933e5	0.007116782
251	0x3deb3485	0.11484627
252	0x3c10510e	0.008808387
253	0x3d7e7ea4	0.062132493
254	0x3db02dcc	0.08602485
255	0xbce2660a	-0.027636547

fc2.bias f4 [300]
0	0x3bb2e1e7	0.0054590586
1	0x3d85a326	0.06525259
2	0x3d937cd0	0.072015405
3	0x3d2771dd	0.040880073
4	0x3cbd2c74	0.023092486
5	0x3dbe9ec6	0.093076274
6	0x3d6d2851	0.057899777
7	0x3d3d949e	0.04628431
8	0x3d5b59b0	0.05355233
9	0x3d92debb	0.07171389
10	0x3d9bb8c0	0.07603598
11	0x3d25950d	0.04042535
12	0x3d3c6780	0.045997143
13	0x3cb73c4a	0.022367615
14	0x3db713b9	0.08939309
15	0x3d8d1c6a	0.06890185
16	0x3ca00529	0.01953371
17	0x3dcb0513	0.09913077
18	0x3ccd0d6e	0.025030818
19	0x3d7812d5	0.060564835
20	0x3d8993ca	0.06717642
21	0x3d0033f0	0.03129953
22	0x3d4b492d	0.049630333
23	0x3d8e26c4	0.06940988
24	0x3dd3c80f	0.103408925
25	0x3da9840a	0.082771376
26	0x3dd25945	0.10270933
27	0x3dadf65d	0.08494256
28	0x3dbd7835	0.09251443
29	0x3ce723db	0.02821534
30	0x3dd7f84b	0.10545405
31	0x3d6e67f8	0.05820462
32	0x3d9c06f8	0.07618517
33	0x3d71ebf3	0.05906291
34	0x3d6a40ff	0.05719089
35	0x3d9b94af	0.075967185
36	0xbba06b75	-0.0048956224
37	0x3de64ae0	0.1124475
38	0x3dd5f1a4	0.1044648
39	0xbb3436a5	-0.002749839
40	0x3db556d9	0.088544555
41	0x3d08f884	0.033440128
42	0x3dd38e05	0.103298225
43	0x3de24605	0.110485114
44	0x3dba4f26	0.090971276
45	0x3d8c52ae	0.068517074
46	0x3d89aa8b	0.067219816
47	0x3da5d830	0.08097875
48	0x3d964ac1	0.07338477
49	0x3e0402ce	0.12891695
50	0x3d9327ab	0.071853004
51	0x3de29935	0.11064378
52	0x3d924394	0.07141796
53	0x3d88f1bf	0.066867344
54	0x3dddf09d	0.10836909
55	0x3d522dd0	0.05131322
56	0x3d459afb	0.048243504
57	0x3d943929	0.07237465
58	0x3d9b540e	0.075843915
59	0x3d1b13a7	0.03786054
60	0x3d94f578	0.07273382
61	0x3d0f25df	0.034948226
62	0x3e03d621	0.12874652
63	0x3d331eeb	0.043730658
64	0x3d2df957	0.042474117
65	0x3dd16258	0.10223836
66	0xbbf22a71	-0.0073903133
67	0x3d26acd8	0.04069218
68	0x3ddcdc43	0.10784199
69	0x3dfad556	0.12247722
70	0x3d89025e	0.06689905
71	0x3cb537b9	0.022121297
72	0x3e069234	0.1314171
73	0x3dc4fa66	0.09618072
74	0x3df1c3dc	0.11804935
75	0x3da7cee2	0.08193757
76	0x3dd67981	0.10472394
77	0x3d9fe68f	0.078076474
78	0x3dfbe4db	0.1229951
79	0x3d938702	0.07203485
80	0xbaf06576	-0.0018340785
81	0xbc0c290e	-0.00855471
82	0x3c510008	0.012756355
83	0x3dcec737	0.10096591
84	0x3ddaae5c	0.10677788
85	0x3dd995b5	0.106242575
86	0x3d2d5317	0.04231557
87	0x3d09803b	0.033569556
88	0x3bd8f7f7	0.0066213566
89	0x3dfa2a38	0.12215084
90	0x3d796a13	0.060892176
91	0x3cd3744f	0.025812296
92	0x3da58547	0.08082061
93	0x3db6c514	0.089243084
94	0x3c6f5fe5	0.014610265
95	0x3d986925	0.0744193
96	0x3da9218a	0.0825835
97	0x3e04e041	0.12976171
98	0x3c942fc0	0.018089175
99	0x3ca434fa	0.020044792
100	0x3d7b1747	0.061301496
101	0x3d9b0246	0.07568793
102	0x3d27456f	0.0408377
103	0x3dc56c5c	0.096398085
104	0x3d995705	0.07487301
105	0x3ce11743	0.027476912
106	0x3dd263eb	0.10272964
107	0x3d9b8fd6	0.07595794
108	0x3cf80521	0.030275883
109	0x3d378d72	0.044812627
110	0x3d9ce9b6	0.07661764
111	0x3cb01754	0.021495499
112	0x3d002d86	0.031293415
113	0x3cad0718	0.021121547
114	0x3bdaa67c	0.0066726785
115	0x3d060f4a	0.032729425
116	0x3d635f16	0.055510603
117	0x3dddefb1	0.10836733
118	0x3dddc961	0.108294256
119	0x3dcf6279	0.10126204
120	0x3d4abe5f	0.04949796
121	0x3d92a8cf	0.07161104
122	0x3de6fbb7	0.112784795
123	0x3d9efa8a	0.0776263
124	0x3d9fd46f	0.0780419
125	0xbaeac2af	-0.0017910803
126	0x3d5aa326	0.053378247
127	0x3d9eefab	0.07760557
128	0x3e03f1e2	0.1288524
129	0x3dc1c9c4	0.09462312
130	0x3dc435d0	0.095805764
131	0x3d5c9d77	0.053861108
132	0x3d5e8072	0.054321714
133	0x3d909d7c	0.07061288
134	0x3c0a199e	0.008428959
135	0x3ddd8a7f	0.10817432
136	0x3c945b8a	0.018110055
137	0x3d89e161	0.06732441
138	0x3ddb7901	0.10716439
139	0x3d8b5df2	0.06805028
140	0xbb1de885	-0.0024094891
141	0x3d413a6a	0.04717485
142	0x3dca9d94	0.09893337
143	0x3d7ca0af	0.061676677
144	0x3dd65488	0.10465342
145	0x3da0cb91	0.07851327
146	0x3df6e903	0.12056162
147	0x3ddddd3b	0.10833212
148	0x3e10fdd5	0.14159329
149	0x3d99e4e2	0.07514359
150	0x3dec7d48	0.11547333
151	0x3c20509e	0.009784846
152	0x3d6c734a	0.057727136
153	0x3d3165c1	0.04330993
154	0x3da2c70b	0.07948121
155	0x3d90a288	0.070622504
156	0x3d405e55	0.046964962
157	0x3d7ef03b	0.06224082
158	0x3d1429c7	0.036172654
159	0x3db0b1f2	0.086276904
160	0x3da20de6	0.07912807
161	0x3cc3dfd9	0.02391045
162	0x3da3dddd	0.080013014
163	0x3db618cb	0.08891448
164	0x3d77080b	0.060310405
165	0x3d45fca1	0.04833663
166	0x3ca7c343	0.02047885
167	0x3d6286a1	0.055304173
168	0x3cdd7406	0.027032863
169	0x3cf1bea1	0.029509844
170	0x3d834c42	0.064110294
171	0x3d1cf113	0.038315844
172	0x3dffb529	0.124857254
173	0x3c50898c	0.012728106
174	0x3c55cb71	0.0130489925
175	0x3d761639	0.060079787
176	0x3dd503e6	0.10401134
177	0x3d8f1cdd	0.06987927
178	0x3db09c2a	0.08623536
179	0x3e046f2c	0.12933034
180	0x3d83f852	0.06443848
181	0x3d03851a	0.032109357
182	0x3e0029ee	0.12515995
183	0x3dd68c34	0.104759604
184	0x3d76d562	0.06026209
185	0x3dc64324	0.09680775
186	0x3dc9a045	0.09845022
187	0x3d3fe442	0.046848543
188	0x3d834d74	0.064112574
189	0x3caa300d	0.020774866
190	0x3e0a7dff	0.13524626
191	0x3d085d38	0.033292025
192	0x3db4b986	0.08824448
193	0x3d5bc6d1	0.053656403
194	0x3d4506a7	0.048102047
195	0x3e0cffa8	0.137694
196	0x3d1c7800	0.03820038
197	0x3d7519dc	0.059839115
198	0x3d17589e	0.036949746
199	0x3bd07b0a	0.0063623236
200	0x3d5efdc7	0.05444124
201	0x3da72b6d	0.0816258
202	0x3c8f7e41	0.017516257
203	0x3dc934fd	0.0982456
204	0x3d26891f	0.040658113
205	0x3d998952	0.07496895
206	0x3da194f9	0.078897424
207	0x3d87e92e	0.06636272
208	0x3db37fb5	0.087645926
209	0x3d2cc710	0.04218203
210	0x3deba8be	0.115067944
211	0x3df837e9	0.12120039
212	0x3d1c411a	0.038148023
213	0x3d9acc91	0.07558549
214	0x3d0f4c65	0.034984965
215	0x3e0b7951	0.13620497
216	0x3c81eaf6	0.015859108
217	0x3d1c1212	0.03810317
218	0x3d4618a6	0.04836335
219	0x3c36ba02	0.011152746
220	0x3da252ab	0.07925924
221	0x3db81f56	0.08990352
222	0xbc4f4d1d	-0.012652663
223	0x3dc8bed2	0.09802021
224	0x3dedb567	0.116068654
225	0x3d46f25f	0.048570987
226	0x3ddb968f	0.10722076
227	0x3cc6a1b3	0.024247026
228	0x3e06606b	0.13122718
229	0x3c595ac9	0.013266274
230	0x3da629da	0.08113451
231	0x3dabf230	0.08395803
232	0x3cbf9fd3	0.02339164
233	0x3d4521b0	0.04812783
234	0x3d52e0f0	0.05148405
235	0x3d4cd0a7	0.050003674
236	0x3dcaa153	0.098940514
237	0x3dfe0927	0.124040894
238	0x3cae965c	0.021311931
239	0x3ceeca7c	0.029149286
240	0x3ddf9fc0	0.10919142
241	0x3ddda29f	0.10822033
242	0x3dd81e3e	0.10552643
243	0x3d29cb61	0.041453723
244	0x3ce84ae7	0.028356029
245	0x3d71136e	0.05885642
246	0x3dbeb475	0.09311763
247	0x3da6c754	0.081434876
248	0x3d49fb3c	0.04931186
249	0x3e04d5c5	0.12972172
250	0x3dee94e2	0.11649491
251	0x3dcf19c9	0.1011234
252	0x3d88b2dc	0.0667474
253	0x3d13ac15	0.036052782
254	0x3d949fdd	0.07257054
255	0x3c23cb61	0.00999722

bn1.weight f4 [400]
0	0x3f802bfa	1.001342
1	0x3f9a739b	1.206653
2	0x3f8011fb	1.0005487
3	0x3f843c74	1.0330949
4	0x3f58dcc8	0.84711885
5	0x3f84b6da	1.0368302
6	0x3f909e5e	1.129833
7	0x3f8bd520	1.0924416
8	0x3f647e03	0.8925478
9	0x3f8f4077	1.1191548
10	0x3f8cacf7	1.0990285
11	0x3f8fb409	1.1226817
12	0x3f764f32	0.9621459
13	0x3f938670	1.1525402
14	0x3f7c698c	0.9859855
15	0x3f808ec2	1.0043566
16	0x3feb0a23	1.8362468
17	0x3f86bfe9	1.0527316
18	0x3fd46662	1.6593745
19	0x3f8a6049	1.0810634
20	0x3f6703d0	0.9024019
21	0x3f9565de	1.1671712
22	0x3f9134bc	1.1344218
23	0x3f833e7c	1.0253444
24	0x3f654749	0.895619
25	0x3f8f4cc5	1.1195303
26	0x3f9afa92	1.2107718
27	0x3f9d6795	1.2297236
28	0x3f8d0be3	1.1019253
29	0x3f77cd19	0.9679733
30	0x3f77adbe	0.96749485
31	0x3f8b106c	1.0864387
32	0x3f96a993	1.17705
33	0x3fb33241	1.3999711
34	0x3f78c656	0.97177637
35	0x3f6381cc	0.8886993
36	0x3f7e5032	0.9934112
37	0x3f896953	1.0735267
38	0x3f8631f5	1.0483996
39	0x3f9e7545	1.2379538
40	0x3f9ac5ec	1.2091651
41	0x3f895123	1.0727886
42	0x3f84c88a	1.03737
43	0x3f58f626	0.8475059
44	0x3fb8eb17	1.4446744
45	0x3f89f270	1.0777111
46	0x3fdbe480	1.7179108
47	0x3f758967	0.95912784
48	0x3f755f00	0.95848083
49	0x3fada461	1.356579
50	0x3f7927ed	0.97326547
51	0x3f87d859	1.0612899
52	0x3f83a983	1.0286106
53	0x3f863eb0	1.0487881
54	0x3f742475	0.9536813
55	0x3f61bba3	0.88176936
56	0x3face652	1.3507788
57	0x3fac4dd2	1.3461249
58	0x3f8af933	1.08573
59	0x3f988f90	1.1918812
60	0x3f725dbb	0.9467427
61	0x3f8da7f8	1.1066885
62	0x3f822e69	1.0170413
63	0x3f91940e	1.1373308
64	0x3f7b43f7	0.9815058
65	0x3fa09beb	1.2547582
66	0x3f8885c2	1.066582
67	0x3f81f1b5	1.0151888
68	0x3f8cbb59	1.0994674
69	0x3f8694bc	1.051414
70	0x3f90c42c	1.1309867
71	0x3fa5986a	1.2937138
72	0x3f8c2d13	1.0951256
73	0x3f807d01	1.0038148
74	0x3f941567	1.1569031
75	0x3fa10eba	1.2582619
76	0x3f7c9b17	0.9867415
77	0x3fa1df80	1.2646332
78	0x3faf9d54	1.3719888
79	0x3fdc1b76	1.719588
80	0x3f862a64	1.0481687
81	0x3f87e6c8	1.0617304
82	0x3f8f524f	1.1196994
83	0x3f8fd536	1.1236942
84	0x3fa08e04	1.254334
85	0x3f81cbae	1.0140283
86	0x3f8da70b	1.1066602
87	0x3f5995cc	0.84994197
88	0x3fa22a56	1.266917
89	0x3fa02ae6	1.2513092
90	0x3f73a26f	0.9516973
91	0x3f816e65	1.0111815
92	0x3fdbc959	1.7170821
93	0x3f90738d	1.1285263
94	0x3fa6f8c9	1.3044673
95	0x3f603cb4	0.87592626
96	0x3f8c28bd	1.0949932
97	0x3fb57b38	1.4178228
98	0x3fb00138	1.3750372
99	0x3f7b86b6	0.9825243
100	0x3f77f897	0.96863693
101	0x3f89dce6	1.0770538
102	0x3f8b2aef	1.0872477
103	0x3f79db6a	0.97600424
104	0x3f814745	1.0099875
105	0x3f7f8201	0.99807745
106	0x3f7b4bcd	0.9816254
107	0x3f8336d0	1.0251102
108	0x3f77d42e	0.96808136
109	0x3f6e1057	0.9299368
110	0x3f8d30e6	1.1030548
111	0x3f772118	0.9653487
112	0x3f825dab	1.0184835
113	0x3fa1ef5c	1.2651172
114	0x3f630508	0.8867955
115	0x3fca4447	1.5802087
116	0x3f87ad4d	1.0599762
117	0x3f9c033d	1.2188488
118	0x3f7e07d8	0.9923072
119	0x3f5449e3	0.8292524
120	0x3fec55cc	1.8463683
121	0x3fae3ec4	1.3612905
122	0x3f85ff2e	1.04685
123	0x3f8ed1ae	1.1157739
124	0x3f85ff2d	1.0468498
125	0x3f8f2b9e	1.1185186
126	0x3f643afd	0.8915251
127	0x3f86afce	1.0522401
128	0x3fb120e0	1.3838158
129	0x3f68213e	0.90675724
130	0x3f740845	0.9532512
131	0x3fc1cfdf	1.5141562
132	0x3fb2a4f3	1.3956589
133	0x3f6ed289	0.9329
134	0x3f9a043e	1.2032545
135	0x3fc5a073	1.543959
136	0x3f90e460	1.1319695
137	0x3f6fb7e2	0.9363996
138	0x3fafddcb	1.3739561
139	0x3f787537	0.97053856
140	0x3f9e2c0d	1.2357193
141	0x3fb34cab	1.4007772
142	0x3fa94e5a	1.3227036
143	0x3f753890	0.9578943
144	0x3f81c1d3	1.0137275
145	0x3f7e3981	0.99306494
146	0x3f673876	0.9032053
147	0x3f90effe	1.132324
148	0x3fa816b3	1.3131927
149	0x3f8f443f	1.1192702
150	0x3fa6e5b5	1.3038851
151	0x3fa2b60c	1.2711806
152	0x3f6d3283	0.926552
153	0x3f6cda4f	0.9252061
154	0x3f8c6f38	1.0971441
155	0x3f82f6d7	1.023158
156	0x3f71c587	0.9444203
157	0x3f8dcdf6	1.1078479
158	0x3f843185	1.0327612
159	0x3f72ee08	0.94894457
160	0x3f83c4dc	1.0294452
161	0x3f589fcb	0.84618825
162	0x3f845283	1.033768
163	0x3f6fdd1a	0.9369675
164	0x3f6f5883	0.93494433
165	0x3f83a32c	1.0284171
166	0x3f889578	1.0670614
167	0x3f9ff4b9	1.2496558
168	0x3f9abcf0	1.2088909
169	0x3f9bf078	1.218276
170	0x3f585bdb	0.8451516
171	0x3f771121	0.9651051
172	0x3f82e3bd	1.022575
173	0x3f90150f	1.1256427
174	0x3f805c98	1.0028257
175	0x3f7891bd	0.9709738
176	0x3f8722e7	1.0557526
177	0x3f7b7543	0.982258
178	0x3f90f9ac	1.1326194
179	0x3f747b2f	0.95500463
180	0x3fababd9	1.3411819
181	0x3f91dcc8	1.1395502
182	0x3f9f8c4d	1.2464691
183	0x3f53a369	0.8267122
184	0x3f691724	0.91050935
185	0x3f88139c	1.0630984
186	0x3f971981	1.1804658
187	0x3f8307bf	1.0236739
188	0x3fbff10c	1.4995437
189	0x3f8fed12	1.1244223
190	0x3f8f932c	1.1216788
191	0x3f8a1f2e	1.0790765
192	0x3f782bee	0.9694203
193	0x3f708aa1	0.9396153
194	0x3f719609	0.9436956
195	0x3f94e32b	1.1631826
196	0x3f9fd723	1.248753
197	0x3f8a0da7	1.0785416
198	0x3f694e3e	0.91135013
199	0x3fa0e5fc	1.2570186
200	0x3f7d2e73	0.98899
201	0x3f7ad60a	0.9798285
202	0x3f689ca2	0.90864
203	0x3fb4e957	1.413371
204	0x3f8a0e53	1.0785621
205	0x3f5c83f6	0.86138856
206	0x3f816978	1.0110312
207	0x3fb48195	1.4102045
208	0x3f88ea7f	1.0696563
209	0x3f7a4019	0.97754055
210	0x3f86d74f	1.0534457
211	0x3f8cf75a	1.1012986
212	0x3f8500f2	1.0390913
213	0x3f8fcf49	1.1235133
214	0x3f8956a8	1.072957
215	0x3f750caf	0.9572248
216	0x3f8b005c	1.0859485
217	0x3f81d91f	1.0144385
218	0x3f879186	1.0591285
219	0x3f901221	1.1255533
220	0x3f922fa9	1.1420795
221	0x3f8778b7	1.0583714
222	0x3f6f2c82	0.9342729
223	0x3f7847e5	0.969847
224	0x3f889153	1.066935
225	0x3f831e9c	1.0243716
226	0x3f5976fb	0.84947175
227	0x3f961640	1.172554
228	0x3ff31719	1.8991424
229	0x3f7f04a5	0.9961646
230	0x3f823314	1.0171838
231	0x3f5d949a	0.86554873
232	0x3f9fd55a	1.2486985
233	0x3f87e690	1.0617237
234	0x3fb78098	1.4336119
235	0x3f79913e	0.97487247
236	0x3f85a4d7	1.044093
237	0x3f8b07cf	1.0861758
238	0x3fa4cb02	1.2874453
239	0x3fb06e7a	1.3783715
240	0x3f861a6f	1.0476817
241	0x3f751466	0.9573425
242	0x3f6c849a	0.92389834
243	0x3f97e0dd	1.1865498
244	0x3fb70e00	1.4301147
245	0x3f93a746	1.1535423
246	0x3f75254e	0.9576005
247	0x3fb712bb	1.4302591
248	0x3f5482f5	0.83012325
249	0x3f86e98d	1.0540024
250	0x3f6947c9	0.9112516
251	0x3f6a0eb3	0.9142868
252	0x3f495d19	0.7865768
253	0x3f7f3693	0.9969265
254	0x3f8eb5ad	1.1149193
255	0x3f7457b8	0.9544635

bn1.bias f4 [400]
0	0xbc157b37	-0.009123615
1	0xbd033a40	-0.032037973
2	0xbd4b801f	-0.049682733
3	0xbdca6b5d	-0.09883759
4	0xbd7852f8	-0.060626
5	0xbd8a36ce	-0.067487344
6	0xbe025061	-0.12725975
7	0xbd0262bd	-0.031832445
8	0xbdb26113	-0.08709922
9	0xbd2abda7	-0.041684773
10	0xbd8b184c	-0.06791744
11	0xbd3d8117	-0.046265688
12	0xbd831bf6	-0.064018175
13	0xbd8475d2	-0.06467785
14	0xbe02dfd0	-0.1278069
15	0xbd954fae	-0.07290588
16	0x3d316483	0.043308746
17	0xbd97add7	-0.07406204
18	0x3bc67c2c	0.006057283
19	0xbd4776d4	-0.048697308
20	0xbd198d49	-0.037488256
21	0xbd2a3620	-0.041555524
22	0xbd5e574b	-0.054282468
23	0xbd5fd945	-0.054650564
24	0xbd9c884e	-0.076431856
25	0xbda83b0a	-0.08214386
26	0xbd6839e2	-0.056695826
27	0x3d0c2629	0.03421608
28	0xbd8845a4	-0.06653908
29	0xbdb1e5cb	-0.08686408
30	0xbd9583d8	-0.07300538
31	0xbdaa5d12	-0.08318533
32	0x3b218096	0.0024643294
33	0x3cab277c	0.020892851
34	0xbdabdd10	-0.08391774
35	0xbe1b242b	-0.15150516
36	0xbe077478	-0.13228023
37	0xbd5c4fee	-0.053787164
38	0x3d258dab	0.04041831
39	0xbdac7ab1	-0.08421839
40	0xbd8396e7	-0.06425267
41	0xbdac78d1	-0.084214814
42	0xbdd2c933	-0.10292282
43	0xbdb5fcb8	-0.08886093
44	0xbc6e7093	-0.014553207
45	0xbc67832e	-0.014130397
46	0xbda4b786	-0.08042817
47	0xbddd56ea	-0.10807593
48	0xbd925eb1	-0.07146967
49	0xbc9ca1d2	-0.01912013
50	0xbd23fbba	-0.040034987
51	0xbdaa99d6	-0.08330123
52	0xbdec942a	-0.115516976
53	0xbbb4198e	-0.0054962104
54	0xbe129b49	-0.14317049
55	0xbd90f718	-0.070783794
56	0xbc728063	-0.014801118
57	0xbd2a5da8	-0.041593224
58	0xbde127ce	-0.1099392
59	0xbddfaed2	-0.10922016
60	0xbda6f9f8	-0.081531465
61	0xbdb3a343	-0.08771374
62	0xbdd3a7f5	-0.1033477
63	0xbd90348b	-0.07041272
64	0xbdc3075a	-0.095228866
65	0xbd71cf11	-0.059035365
66	0xbd8da137	-0.06915515
67	0xbe45e697	-0.19326244
68	0xbd7dd791	-0.06197316
69	0xbd5e16b1	-0.05422086
70	0xbcb1b4e1	-0.021692695
71	0x3b50ab8a	0.0031840526
72	0xbd47aa93	-0.048746657
73	0xbdbddf1c	-0.0927107
74	0x3c681bdb	0.0141667975
75	0x3caf3fa1	0.021392645
76	0xbdd100e6	-0.102052495
77	0xbd4d8142	-0.050172098
78	0xbc8f09f0	-0.017460793
79	0xbd598a96	-0.05311068
80	0xbd296059	-0.04135165
81	0xbc62bc33	-0.0138388155
82	0xbd2feb5b	-0.04294906
83	0xbb2be775	-0.0026230488
84	0x3c8bb700	0.017055035
85	0xbc153f73	-0.009109366
86	0xbceaa913	-0.028645074
87	0xbe1bdb88	-0.15220463
88	0xbbe1e3b5	-0.0068936
89	0xbc99a060	-0.01875323
90	0xbcf924f9	-0.030413138
91	0xbca908c1	-0.020634057
92	0x3d86e385	0.06586365
93	0xbd8aaf75	-0.06771747
94	0x3d47cb67	0.048777964
95	0xbdc98ecc	-0.098416895
96	0xb9c4beb7	-0.00037526127
97	0x3cd5e04b	0.026107928
98	0x3d13bfcf	0.036071595
99	0xbdad9b25	-0.08476857
100	0xbe11d914	-0.14242965
101	0x3b2e2ff6	0.002657888
102	0xbdad859a	-0.08472748
103	0xbdb8b8bb	-0.090196095
104	0xbd8b4467	-0.06800156
105	0xbd49f103	-0.049302112
106	0xbd8957e3	-0.06706216
107	0xbd9791a9	-0.07400829
108	0xbdec98e9	-0.11552603
109	0xbda77336	-0.081762716
110	0xbdbbc1b9	-0.09167809
111	0xbdfa58ef	-0.12223994
112	0xbdc35fa8	-0.09539729
113	0x3dc08159	0.09399671
114	0xbd78f085	-0.060776252
115	0x3caafa33	0.020871257
116	0xbdbccc22	-0.09218623
117	0x3d072342	0.03299261
118	0xbdb7aa5b	-0.089680396
119	0xbdd9ee4c	-0.10641155
120	0xbcfcc102	-0.030853752
121	0x3c4988c2	0.012300672
122	0xbd8579a4	-0.06517342
123	0x3cb22ce1	0.021749916
124	0xbdf650c8	-0.120271266
125	0xbd313408	-0.04326251
126	0xbe03087e	-0.12796208
127	0xbddbc630	-0.10731161
128	0xbbf4399b	-0.007453156
129	0xbe0b7764	-0.13619763
130	0xbd3d6948	-0.046242982
131	0x3d16ae6c	0.036787435
132	0x3d338de3	0.043836486
133	0xbdafe64a	-0.08588846
134	0xbd6156c7	-0.055014398
135	0xbc9a3d9c	-0.018828206
136	0xbdbf1bde	-0.09331487
137	0xbd9309a8	-0.07179576
138	0xbdcb0e4b	-0.099148355
139	0xbe1ec6f6	-0.15505585
140	0xbd483912	-0.04888255
141	0xbd62c3d2	-0.05536253
142	0xbd708d05	-0.058728237
143	0xbd99d996	-0.07512204
144	0xbdf26e1a	-0.118374065
145	0xbdbb95d8	-0.0915944
146	0xbdf8524b	-0.12125071
147	0xbc4df082	-0.012569549
148	0xbdcf5f13	-0.10125556
149	0xbe07f75c	-0.13277954
150	0x3c1e3aa5	0.009657537
151	0xbb3aa65b	-0.0028480503
152	0xbda56587	-0.080760054
153	0x3ca4541e	0.020059641
154	0xbc421325	-0.011845385
155	0xbc7adf88	-0.015312083
156	0xbdb721a4	-0.08941963
157	0xbd237537	-0.039906707
158	0xbdee444b	-0.116341196
159	0xbdb53d62	-0.088495985
160	0xbdc23f28	-0.09484702
161	0xbdb16779	-0.08662314
162	0x3c89b9df	0.016812263
163	0xbdf48bd5	-0.11940733
164	0xbe215b0d	-0.1575739
165	0xbd397d22	-0.04528535
166	0xbda1270d	-0.078687765
167	0xbd9ad6fa	-0.07560535
168	0xbd8189d6	-0.06325118
169	0x3c3c4f45	0.011493509
170	0xbdfc9910	-0.12333882
171	0xbdeb1fb6	-0.11480658
172	0xbd974bb4	-0.07387486
173	0xbd122638	-0.03568098
174	0xbd78d3a1	-0.0607487
175	0xbd8a2557	-0.06745403
176	0xbdd82387	-0.10553651
177	0xbda0fd01	-0.07860757
178	0xbc4547f7	-0.012041084
179	0xbd788d97	-0.060681906
180	0xbd797c10	-0.06090933
181	0xbd1ab6ec	-0.037772104
182	0xbd4d1694	-0.05007036
183	0xbe3c2a55	-0.18375523
184	0xbdc6386a	-0.09678729
185	0xbde48ff8	-0.11160272
186	0xbd490f7f	-0.049087044
187	0xbd18ba8a	-0.037287273
188	0xbd422c90	-0.04740578
189	0xbdf7b31b	-0.120947085
190	0x3c824fb0	0.015907139
191	0xbd54f216	-0.051988684
192	0xbd9332b4	-0.07187405
193	0xbd8bab01	-0.06819726
194	0xbe1b8210	-0.15186334
195	0xbe1a5890	-0.15072846
196	0xbc6e5e8c	-0.014548909
197	0xbded1bf2	-0.11577596
198	0xbd9c2f21	-0.076261766
199	0x3c487905	0.012235885
200	0xbe7387e6	-0.2378231
201	0xbdb1d674	-0.08683482
202	0xbe13f560	-0.14449072
203	0xbd432a77	-0.04764792
204	0xbce55196	-0.027993005
205	0xbe0bfe0c	-0.1367113
206	0xbddff59e	-0.1093552
207	0xbcb0edba	-0.021597732
208	0xbd3c39ce	-0.045953564
209	0xbd8ed29f	-0.069737665
210	0xbd829a10	-0.06377041
211	0xbd9a721f	-0.07541298
212	0xbd7c7345	-0.061633367
213	0xbcaf0f4a	-0.021369595
214	0xbd73e40b	-0.05954365
215	0xbda97ec5	-0.082761325
216	0xbd00b03e	-0.031418078
217	0xbdef081a	-0.11671467
218	0xbdd33545	-0.10312895
219	0xbd925513	-0.07145133
220	0x3b946d8c	0.0045296606
221	0xbda215c7	-0.0791431
222	0xbde636e7	-0.112409405
223	0xbde9e597	-0.11420744
224	0xbda913f8	-0.08255762
225	0xbde179a6	-0.11009531
226	0xbe1ac0d1	-0.15112616
227	0xbd62b2e4	-0.055346385
228	0x3d2f0905	0.04273321
229	0xbdaf03b7	-0.085456304
230	0xbe159e27	-0.14611112
231	0xbe279bf3	-0.16368084
232	0x3c985def	0.018599479
233	0xbd0d11d8	-0.034440845
234	0xbb8c0465	-0.004272985
235	0xbd4b3fba	-0.04962132
236	0xbe08a1cd	-0.13342972
237	0xbd324764	-0.043525115
238	0xbcf12997	-0.029438777
239	0xbb6af6b4	-0.0035852613
240	0xbc738154	-0.014862377
241	0xbe1151ba	-0.14191332
242	0xbda75577	-0.08170598
243	0xbd9d4fe2	-0.07681252
244	0x3b8c5592	0.0042826617
245	0x3d6e1319	0.05812368
246	0xbe7783ed	-0.2417142
247	0xbe05e532	-0.13075712
248	0xbe3763cd	-0.17909165
249	0xba60bbfb	-0.0008572933
250	0xbdf1a315	-0.117986836
251	0xbd4f41e2	-0.05059994
252	0xbe0bf316	-0.13666949
253	0xbe021ebd	-0.12707038
254	0xbd9072cd	-0.070531465
255	0xbd408a8f	-0.04700714

bn2.weight f4 [300]
0	0x3f9f7ab0	1.2459316
1	0x3fc87b02	1.5662539
2	0x3f9b7f95	1.214831
3	0x3f8aa6c4	1.0832143
4	0x3f814052	1.0097754
5	0x3f67cb27	0.9054436
6	0x3f8225de	1.0167806
7	0x3f59ebd5	0.85125476
8	0x3f6260ee	0.8842915
9	0x3f6ec527	0.9326958
10	0x3f8c497f	1.0959929
11	0x3fc87f4a	1.5663846
12	0x3ff95e77	1.9481953
13	0x3facc8c8	1.3498774
14	0x3fa71ff3	1.3056625
15	0x3fc9dc36	1.5770328
16	0x3ffd1753	1.9772743
17	0x3fab78ec	1.3396277
18	0x3f6bf154	0.9216511
19	0x3fbc37a5	1.4704481
20	0x3f7aeab9	0.9801441
21	0x3fa313bb	1.2740396
22	0x4016ef2c	2.358348
23	0x3fa17bf8	1.2615957
24	0x3fa847b4	1.3146882
25	0x3f948941	1.1604387
26	0x3fafe5f9	1.3742057
27	0x3fcd7b57	1.6053265
28	0x3f654a67	0.89566654
29	0x3fd7060c	1.679872
30	0x3fc0f1b9	1.5073768
31	0x4007ec1f	2.1237867
32	0x3f79697c	0.9742658
33	0x3ff1d608	1.8893442
34	0x3fcbad86	1.591233
35	0x3fc5925f	1.5435294
36	0x3fc90b55	1.5706583
37	0x3fb1e556	1.3898113
38	0x3f983ed3	1.1894172
39	0x3fd6722b	1.6753591
40	0x3f9cd04c	1.2251067
41	0x3f4f5332	0.8098632
42	0x3fc001e2	1.5000575
43	0x3f62c630	0.8858366
44	0x3ffc413f	1.9707412
45	0x3fa69d0f	1.301668
46	0x3f5d792e	0.8651303
47	0x3fce9573	1.6139358
48	0x3f75b858	0.9598441
49	0x3f9f81c1	1.2461473
50	0x3f6f5ef6	0.93504274
51	0x3fb47504	1.409821
52	0x3fba1392	1.4537222
53	0x3fc0ad78	1.5052938
54	0x3f8d07fc	1.1018062
55	0x3fb9ad87	1.4506081
56	0x3fcd057a	1.6017296
57	0x3f5e9b1e	0.8695544
58	0x3f86aa94	1.0520806
59	0x3fefc2af	1.8731288
60	0x3fad03ac	1.3516746
61	0x3f8acb67	1.0843323
62	0x3f8244d4	1.0177255
63	0x3fe7ad06	1.8099678
64	0x3f80cea6	1.0063064
65	0x3fda686b	1.7063116
66	0x3ff4138e	1.9068468
67	0x3fbb0ff7	1.4614247
68	0x3f639701	0.8890229
69	0x3f525bec	0.8217151
70	0x3fb299dd	1.3953205
71	0x3f9a0056	1.2031353
72	0x3f9957f6	1.1979969
73	0x3fd81874	1.6882463
74	0x3fc42e24	1.5326581
75	0x3fb631c9	1.4233943
76	0x3f9cc5c3	1.2247852
77	0x3f968e82	1.176224
78	0x3fdda4f8	1.731597
79	0x3fce6711	1.6125203
80	0x4008e55f	2.1389997
81	0x3fd26e35	1.6439883
82	0x3fa49c52	1.2860205
83	0x3ff6e5bb	1.9288858
84	0x3fabfddd	1.3436848
85	0x3fcd5999	1.6042968
86	0x3f99c71b	1.2013887
87	0x3f99e8eb	1.2024206
88	0x3fd8d048	1.6938562
89	0x3f4e195e	0.8050746
90	0x3f86bc24	1.0526166
91	0x3fe083e6	1.7540252
92	0x3f99ca64	1.201489
93	0x3fa7b387	1.3101662
94	0x3f87bc69	1.0604373
95	0x3f6bf912	0.92176926
96	0x3fdafbb0	1.7108059
97	0x3f8f0f27	1.1176499
98	0x3fac57b5	1.3464266
99	0x400ad306	2.1691298
100	0x3f980ad0	1.18783
101	0x3fab972b	1.3405508
102	0x401c32d8	2.4406033
103	0x3fad8e59	1.3559066
104	0x3f7d6011	0.9897471
105	0x3fa3809a	1.2773621
106	0x3f56caef	0.839034
107	0x3fa41201	1.2817994
108	0x3fd1824f	1.6367892
109	0x40257fdd	2.5859292
110	0x3fcc0068	1.5937624
111	0x3fe08e12	1.7543356
112	0x3fb7b5f3	1.4352401
113	0x3fe03922	1.7517436
114	0x3fab67d4	1.3391061
115	0x3f968d84	1.1761937
116	0x3f6a6743	0.91563815
117	0x3f769cf8	0.96333265
118	0x3ff8c9d4	1.9436593
119	0x3f70cbb6	0.9406084
120	0x3f5fb9db	0.8739297
121	0x3fd7d4d9	1.6861831
122	0x3f97c4dc	1.1856952
123	0x3fcfed2d	1.6244255
124	0x400b46b3	2.1761901
125	0x3fbb53ba	1.4634926
126	0x4016a48a	2.3537927
127	0x3f517c30	0.8183012
128	0x3f7a6386	0.9780811
129	0x3faf628a	1.3701947
130	0x3fc90c48	1.5706873
131	0x3f8f92bb	1.1216654
132	0x3fa88297	1.3164853
133	0x3f962cca	1.1732419
134	0x40677a42	3.616837
135	0x3f7ca6b6	0.9869188
136	0x3fb697e1	1.42651
137	0x3fdb2222	1.7119792
138	0x3fbfcc3d	1.4984204
139	0x400bbb00	2.1832886
140	0x3fc686ec	1.5509925
141	0x3f7a7b1f	0.9784412
142	0x3f5c1311	0.85966593
143	0x3fb5344c	1.4156585
144	0x3fa192b6	1.2622898
145	0x3fe83706	1.8141792
146	0x3f9b02d2	1.2110236
147	0x3fbc67b4	1.4719148
148	0x3f7b2223	0.98098963
149	0x3f9acf5f	1.2094535
150	0x3fa229ef	1.2669047
151	0x3ffb5b2c	1.9637198
152	0x3feb8240	1.8399124
153	0x3fcf786e	1.6208627
154	0x3fb24087	1.3925942
155	0x400e4c34	2.223401
156	0x3ff93785	1.9470068
157	0x3fad71d5	1.3550364
158	0x3f9dcabd	1.2327496
159	0x3f71d290	0.9446192
160	0x3fd71cd0	1.6805668
161	0x3f71906f	0.94361013
162	0x3fd6b39d	1.6773564
163	0x3f6e044b	0.929753
164	0x3fa3191e	1.274204
165	0x401a525e	2.4112773
166	0x3fa3032c	1.2735343
167	0x3f798079	0.9746166
168	0x3f71b791	0.94420725
169	0x3f9f9276	1.2466571
170	0x3fdf8546	1.7462547
171	0x3f935611	1.151064
172	0x3f9c43df	1.2208213
173	0x3fd42472	1.6573622
174	0x3f6f4e8f	0.93479246
175	0x3f9ae7b5	1.2101961
176	0x3f796e69	0.974341
177	0x3fd2b445	1.6461264
178	0x3f91fd44	1.1405416
179	0x3f91ed47	1.1400536
180	0x3fb13da1	1.3846933
181	0x3f632bac	0.88738513
182	0x3f91309f	1.1342963
183	0x3fcd346c	1.6031623
184	0x3f95a13f	1.1689833
185	0x3f7c6e30	0.9860563
186	0x3f984240	1.1895218
187	0x3f9a0169	1.203168
188	0x4004a5b7	2.0726144
189	0x3f6a724a	0.9158064
190	0x3f828c4e	1.0199068
191	0x3f9b199e	1.2117193
192	0x3f7e85c8	0.99422884
193	0x3f86ecd1	1.0541021
194	0x3fd849f9	1.6897575
195	0x3fa6226f	1.2979258
196	0x3fce40c3	1.6113514
197	0x3f929f30	1.145483
198	0x3f98facf	1.1951541
199	0x40932a50	4.598915
200	0x3f72ddb5	0.9486955
201	0x3fb06e99	1.3783752
202	0x3fb8a1a3	1.4424328
203	0x3fa15433	1.260382
204	0x3f8e2b7f	1.1107024
205	0x3fc167d6	1.5109813
206	0x3fb79b2e	1.4344232
207	0x3f6b8de0	0.9201336
208	0x3fbab356	1.4585979
209	0x3f883acc	1.0642943
210	0x3fbb2ca2	1.4622996
211	0x3f91775d	1.1364552
212	0x3f7cd1c6	0.9875759
213	0x3f6ca7bd	0.9244345
214	0x401b3cbf	2.4255826
215	0x3f42adae	0.76046264
216	0x3fc3b70b	1.5290235
217	0x3fc2e8fc	1.5227351
218	0x3fcec828	1.6154833
219	0x3fbaf1d3	1.4605049
220	0x3fb73a69	1.43147
221	0x3fa239d4	1.2673898
222	0x40060208	2.093874
223	0x3f7747db	0.9659402
224	0x3f65e8ad	0.8980816
225	0x40146213	2.318486
226	0x3f8626c6	1.0480583
227	0x402287f6	2.5395484
228	0x3fe818c8	1.8132563
229	0x3fb0cf70	1.3813305
230	0x3ff044bd	1.8770977
231	0x3fab2d96	1.3373287
232	0x3fc0493e	1.5022352
233	0x3fcb8df4	1.5902696
234	0x3f925a57	1.143382
235	0x3ffa5c2d	1.955938
236	0x3fb77f7a	1.4335778
237	0x3f9baf99	1.2162963
238	0x3fb671e1	1.4253503
239	0x3f7e395a	0.9930626
240	0x3fdb6a10	1.7141743
241	0x3f81353f	1.0094374
242	0x3fa24723	1.2677959
243	0x3fc0b302	1.5054629
244	0x3ff3f5c0	1.9059372
245	0x3f9a4551	1.2052404
246	0x3fd8c6db	1.6935686
247	0x3fa3ff4a	1.2812283
248	0x3fc40a0f	1.531557
249	0x3f9fa1c2	1.247124
250	0x3fd3f781	1.6559907
251	0x3f9ab11b	1.2085298
252	0x3fc69f03	1.5517277
253	0x3f9d861c	1.2306552
254	0x3f8db075	1.1069475
255	0x3fece363	1.8506893
