trained_data/ddpg/withwalls_G_550_450/target_critic_ddpg.pth (torch, 507042 bytes, 11 tensors)

fc1.weight f4 [400, 6]
00000000: 0b0e ce3e 255b 103f e013 9ebe 8e84 b03e
00000010: 7d7a 02be 410e 873e 6ec4 e43e ff87 f83e
00000020: 7d68 5fbd aa09 8e3e 737a 20bd f917 5f3d
00000030: 5823 e53e 20d8 f63e c6c9 61bd 4859 8d3e
00000040: e1b5 2bbd 88f8 5e3d 0dc6 013f 1fc7 b83e
00000050: 2365 a93e ae3e 2b3f a01a aabe fda1 9dbc
00000060: e0af f33e 4576 ac3e 8bf7 8ebe 3dab 1a3f
00000070: 9677 f7bd 50ba 243d c21e ec3e aea8 ef3e
00000080: 1cb3 63bd b539 893e ed92 37bd ee20 653d
00000090: b0d1 de3e 4130 fe3e d548 65bd d6f4 903e
000000a0: fe13 2cbd 0075 593d 9ebc e23e 9b54 f83e
000000b0: 419a 6fbd 9d3d 8c3e e087 46bd 2f75 4c3d
000000c0: e09b 123f 63bc 983e a038 7abe 77b9 783e
000000d0: 422c 3ebe 71ec 02be ff15 d43e b843 043f
000000e0: 34b7 67bd ce80 903e 83e4 17bd 8002 4f3d
000000f0: 6c6e e53e 7571 f53e 1a72 5ebd 07e2 8e3e
00000100: 301f 37bd 1c3a 613d 788f d73e 241c 043f
00000110: d71f 5cbd e333 913e 6bb5 18bd e37f 513d
00000120: e8ce e93e 1991 e83e 4acd 0840 824f ee3d
00000130: f49f ecbc 21fb 99be b93b d53e 3411 053f
00000140: 89ad 83bd 48dd 8e3e 086e 20bd b1cd 4e3d
00000150: 410d f03e a6a3 ea3e cce7 77bd 4853 8a3e
00000160: 0c75 4bbd 4925 683d 527f ea3e 14a1 eb3e
00000170: 79bb 86bd fdbe 883e 2de2 69bd 3550 5e3d
00000180: 33d6 ea3e 3258 f83e fc94 e8bd 8dc4 39bf
00000190: 7296 ecbe 775f b3be 3d46 df3e 76d3 fc3e
000001a0: 7208 73bd 72ac 8f3e a716 29bd b860 5f3d
000001b0: d068 e23e 5afb f83e d7bb 75bd 1f38 903e
000001c0: 819b 44bd fd89 5d3d d256 e03e 37eb e03e
000001d0: 5e6b 68be 8648 863f 466a 503f 6e03 e93d
000001e0: 1704 fa3e c472 de3e 9531 63bd 4825 863e
000001f0: 890e 58bd 1667 6e3d 6c88 e23e 6041 d63e
00000200: 8cb6 b3bd 7f33 763e 37f3 9abd e4d7 573d
00000210: f19c ea3e 0d6c ef3e 4656 56bd 10d3 893e
00000220: b5bd 4bbd 3764 643d 8d47 e43e 3e5c f83e
00000230: 77ed 5ebd 82b0 8f3e 592d 31bd 712e 623d
00000240: 23d1 8c3e 7cd6 1d3f 62d8 a3bf 46d1 b83e
00000250: bf14 aa3e db0f 303f 7447 da3e 25f4 e33e
00000260: 30e3 a4be dd2c ca3f 27ea c3bf b53c a83e
00000270: 7477 e63e eaa9 e43e 4dc9 95bd e157 813e
00000280: 211f 48bd 30da b93d f944 e83e c7e1 f13e
00000290: 7d8c 93bd 7367 8e3e 4597 24bd 889d 613d
000002a0: ca54 e43e eed0 f73e c568 80bd 4648 903e
000002b0: 4312 1cbd ce79 5e3d 780b d83e e8c5 fa3e
000002c0: 06cd 2bbd e9ce 8b3e 0ad1 2dbd 9638 873d
000002d0: 1a5f e73e dba4 f43e 8d3b 79bd d3f0 8c3e
000002e0: bdd0 42bd b521 613d 000f f83e 041f d63e
000002f0: 2233 8dbd 82e1 843e 4a70 6fbd d852 813d
00000300: 49a7 0e3f ba91 ab3e 4656 b4bd e388 08bf
00000310: 80ed 073f 2e27 923e bbf1 d23e c32e f93e
00000320: 7919 91bd 0f9c 813e 3469 08bb 7590 a13d
00000330: ffdb e63e f993 e83e 6407 7bbd 29d3 843e
00000340: b3e0 81bd 5cd8 693d 4e0d e63e 031d f23e
00000350: 4cca 96bd be0f 8e3e 1a58 41bd 33e7 5f3d
00000360: 0df2 093f 663e b63e be6e 8d3e 8236 df3e
00000370: 8ece 63be 1055 70bc 8652 d53e cf86 023f
00000380: 1a6e 8cbd ed89 913e 45d5 49bd 29d5 513d
00000390: 397e e23e 6e72 e63e 4a88 6cbe 76a6 413e
000003a0: 8a1f b23d 85c7 973e c778 d73e 245d e63e
000003b0: 7452 0ebe 9e81 333e 5449 52bd fc74 a73d
000003c0: bdf5 e33e 3ef7 f23e 2745 87bd eced 893e
000003d0: 0177 56bd 9d94 5b3d f441 e83e 623e f33e
000003e0: fb59 72bd 31f9 8b3e 0ac6 4fbd a369 623d
000003f0: 7996 e93e 6609 f23e a09b 80bd 14f2 8a3e
0.4024509 0.56389076 -0.30874538 0.3447613 -0.12742038 0.26378062 0.44681114 0.48541257
-0.054543007 0.27741748 -0.039179277 0.05446622 0.44753528 0.48211765 -0.055124067 0.2760718
-0.0419215 0.054436237 0.50692827 0.36089417 0.33084974 0.66892517 -0.33223438 -0.019242281
0.4759512 0.33683982 -0.27923235 0.6041754 -0.12083356 0.040216744 0.46117216 0.4680838
-0.055590734 0.2680184 -0.044817854 0.055939607 0.43519354 0.4964619 -0.05597766 0.28311795
-0.042011254 0.053090096 0.44284528 0.4850205 -0.058496717 0.27390757 -0.048469424 0.049916442
0.57269096 0.29831228 -0.24435663 0.24289499 -0.1857157 -0.12785508 0.41423032 0.5166583
-0.0565712 0.2822327 -0.03708316 0.050539494 0.44810808 0.47938123 -0.054308034 0.2790682
-0.044707477 0.054987058 0.42101645 0.5160544 -0.053741302 0.283599 -0.03728239 0.051147353
0.4566567 0.454232 2.1375299 0.11636259 -0.028884865 -0.3007441 0.41647127 0.51979375
-0.064295836 0.279032 -0.039167434 0.05048913 0.46885112 0.4582798 -0.060523793 0.27016664
-0.04967217 0.056676183 0.45800263 0.4602133 -0.06578726 0.26708212 -0.057100464 0.05427571
0.45866546 0.48504788 -0.113565415 -0.7256554 -0.4620853 -0.3503377 0.43608275 0.49380082
-0.059334226 0.28061253 -0.04128137 0.054535598 0.4422059 0.48629266 -0.05999359 0.28167817
-0.047999863 0.054086674 0.4381624 0.43929455 -0.22697207 1.0490882 0.8141216 0.11377607
0.48831245 0.43446934 -0.055467207 0.26200318 -0.052748237 0.05820378 0.44244707 0.41846752
-0.087750524 0.24043082 -0.07565921 0.052696124 0.45822862 0.46762124 -0.05232837 0.2691884
-0.049741466 0.055759635 0.4458584 0.48507875 -0.054425683 0.28064352 -0.043256138 0.05522007
0.2750331 0.616554 -1.280041 0.36097163 0.33218953 0.68774194 0.4263264 0.44522205
-0.3220458 1.5794941 -1.5305833 0.32858816 0.4501301 0.44660884 -0.07313786 0.2526236
-0.04885781 0.09074819 0.45365122 0.47242567 -0.072045304 0.278133 -0.040183324 0.055081874
0.4459594 0.48401588 -0.06269983 0.2818014 -0.038103353 0.05431538 0.4219625 0.48979115
-0.041943572 0.27306297 -0.042435683 0.0660259 0.45189744 0.47782025 -0.060847808 0.27527484
-0.04756235 0.054963786 0.48448944 0.41820538 -0.068945184 0.259533 -0.058456697 0.06314629
0.55724007 0.33509618 -0.08805518 -0.5333387 0.5309677 0.28545517 0.4120005 0.4866849
-0.07084937 0.25314376 -0.002081466 0.07888881 0.4508972 0.45425394 -0.061286345 0.25942352
-0.06341686 0.057091102 0.44932026 0.4728776 -0.07362804 0.27746385 -0.04720316 0.054663848
0.53884965 0.3559448 0.27623552 0.43596274 -0.22246763 -0.014668718 0.41664523 0.5098695
-0.06856938 0.28425542 -0.049275655 0.051228676 0.44236925 0.45009178 -0.23098865 0.18911156
0.08697422 0.2964441 0.42084333 0.44992936 -0.13898641 0.17529914 -0.051339462 0.0817661
0.4452342 0.47454256 -0.06604987 0.26939332 -0.052359585 0.053608526 0.45362818 0.47508532
-0.059167843 0.27338555 -0.050725974 0.055276524 0.45622614 0.47272795 -0.06279683 0.27137816

fc1.bias f4 [400]
00000000: 3a86 a3be b02d bdbe abfd c1be 7127 cfbe
00000010: f9e8 13bf de65 c0be b123 c0be 4a41 c4be
00000020: 0056 8f3f cf60 c1be 8cdb c3be 4832 b8be
00000030: bb6c 81bc 6bbb bbbe ffdb c3be d62a cebe
00000040: 67d9 3dbf 43f6 bdbe f33b c2be 458f 3cbf
00000050: 0186 c7be e9ec f0be b31f c3be eaaa c0be
00000060: ca85 823f 72fd 423e dea5 d7be 7250 c9be
00000070: 1395 c4be c2fd cfbe bfbc c3be f174 d4be
00000080: 13ad 623e 4c45 d5be 7cd3 d2be cec7 c8be
00000090: 84d4 1ebf 86f2 c8be d18e a340 3478 f6be
000000a0: 5e76 cebe 31b2 c2be ad51 c4be 2ae9 bdbe
000000b0: 8e19 e4be bbba c2be 1737 07bf 114a bfbe
000000c0: ed9e a6be 7088 01bf d85f 08bf d534 d0be
000000d0: 08c2 b4be efcd 22bf 90d4 c4be 4cbf c53e
000000e0: 163d b3be aec0 e0be 9e62 b9be 8dbc b8be
000000f0: 96b4 c6be 23ef cabe 3f5e 1dbe 9ef6 bebe
00000100: 2028 8fbe f584 d6be 6be9 bebe 383a b8be
00000110: 7f71 c5be 2c13 dbbe 9cc4 03bf 4b2d bdbe
00000120: 0492 99bf b5f1 a4be 86f1 dfbe 6318 c3be
00000130: d580 e0bc 130e c6be 0450 c1be eded 95be
00000140: deb3 bcbe 777c dcbe 6f3a a4bc d044 79bf
00000150: 2a8f c3be f7b0 bcbe e53e bdbe f4b7 dabe
00000160: 99aa b7be 3cf8 94be 353d bfbe 9dab 293f
00000170: a07d bdbe c9c2 c3be 8770 d03e 64c2 c3be
00000180: 5c7f d73f 3cec c4be 9f41 b0be 6e0b c9be
00000190: 2bde 15bf d56b cfbe aef4 c3be f766 abbf
000001a0: fe4a 19be 1b2a c7be 3d46 a0be c09f c2be
000001b0: aa67 133f c6df bfbe b1a0 c5be 0f6c c3be
000001c0: fcb4 bcbe f3cf b5be 788f a9be 8bf8 b9be
000001d0: 1f74 fe3e e306 c3be 5756 c9be d397 cabe
000001e0: 9552 0abf 8207 d3be fd55 d4be 0816 d83f
000001f0: 2797 bdbe 0cc7 c1be 84a8 b5be 0d1a c4be
00000200: 3903 d7be f47c bdbe 4d58 bcbe 81dc bdbe
00000210: f865 bfbe 7f4f c1be 5c04 bcbe 4f8e bdbe
00000220: 08da bfbe 46c7 c6be 560a b8be 1f2b 58bd
00000230: 0a51 14bf 797b c0be 979f c2be 7c9a 06be
00000240: 8f9a febe 675c b5be 3bb9 e5be 5d00 e4bd
00000250: 60de 9ebe c8db bdbe aa2b c2be a66b c0be
00000260: df7d c1be 4c4c c0be 42f5 ccbe 9855 36be
00000270: 208c c0be 21d9 dcbe b0d7 bebe 73f3 c1be
00000280: 09c1 fa3f c67c d5be 3f16 c2be 8e0f c0be
00000290: 0c70 cdbe 50be c0be 7008 c33e ebc4 bbbe
000002a0: 5fb8 cc3e 0b4f 9640 2671 cfbe fa86 b6be
000002b0: 137e bdbe c9ad bebe 750c bcbe 9dee c2be
000002c0: b566 83be 44b4 b9be cfb6 c6be 7875 c2be
000002d0: 2394 2040 065c c8be 6170 e2be 309a ab3e
000002e0: a1f5 c1be 6a33 bebe 60b7 bfbe 13c0 04bf
000002f0: 7d83 c2be 329a d1be 6c70 bdbe 0720 09bf
00000300: 2c21 b0be 5846 cfbe 97a6 d4be 0d56 bfbe
00000310: 2563 bdbe 9426 b8be 6b3e 9bbe ebfc 12bf
00000320: da15 d3be 7e79 b4be 4831 cebe e26c 2cbd
00000330: a0b8 c5be 0608 db3d d354 ccbe 9611 a9bf
00000340: af4c 97be d738 06bc bc3d c4be e711 bdbe
00000350: e40c bbbe eb10 8fbe 9c53 bebe ca31 d9be
00000360: 1058 c4be 986c c2be 72b3 e1be 67e7 c0be
00000370: 4747 d8be 441c bbbe d282 bcbe 7488 bdbe
00000380: 2360 40bf 56ab c0be 9bb1 97be 7c8f c0be
00000390: e91d babe 5331 cfbe 5524 c5be a2ea 083c
000003a0: 1e3d bcbe b36d d63c cfaf 0ebe 4aa0 c3be
000003b0: 506a d5be 49ed 483d d3bb bebe c39f c0be
000003c0: b325 cdbe e0de b9be 7209 bfbe 328b 3e3e
000003d0: 9c01 fcbd f790 bfbe ccfc bbbe de4f c0be
000003e0: cb90 bbbe d753 a7be c9f2 e7be 8fcb bdbe
000003f0: 126d e0be 85b1 cebe 2ddf bebe 8c95 b8be
-0.31938344 -0.3694892 -0.37888846 -0.4045978 -0.57777363 -0.37577718 -0.3752723 -0.38331062
1.119812 -0.37769172 -0.38253438 -0.35975862 -0.015798917 -0.36666426 -0.3825378 -0.40267056
-0.74159855 -0.37101945 -0.37936363 -0.7365611 -0.38969424 -0.47055748 -0.38110122 -0.37630397
1.0197079 0.19041994 -0.42118734 -0.39319187 -0.38394985 -0.4062329 -0.3822994 -0.4149547
0.22136335 -0.41654432 -0.41176975 -0.3921494 -0.62043023 -0.3924753 5.1111836 -0.48138583
-0.40324682 -0.38026574 -0.38343564 -0.37091953 -0.44550747 -0.3803309 -0.52818435 -0.37361196
-0.32543126 -0.5059881 -0.53271246 -0.40665308 -0.35304284 -0.6359548 -0.38443422 0.3862251
-0.35007542 -0.43897003 -0.3620805 -0.36081353 -0.3880965 -0.39635572 -0.15367983 -0.3729753
-0.279603 -0.41898313 -0.3728746 -0.35981917 -0.38563153 -0.42788064 -0.5147188 -0.36948618
-1.1997685 -0.32215658 -0.43738955 -0.38104543 -0.027405182 -0.38682613 -0.3775636 -0.29283085
-0.36855978 -0.4306371 -0.020047395 -0.97370625 -0.38195163 -0.36853763 -0.36962047 -0.4271847
-0.35872343 -0.29095638 -0.37351385 0.66277486 -0.37009907 -0.38234547 0.40710852 -0.38234246
1.6835742 -0.38461483 -0.34425065 -0.39266533 -0.58542126 -0.40511957 -0.38272613 -1.3390797
-0.14970013 -0.3889931 -0.31303588 -0.38012505 0.57580054 -0.37475413 -0.3859916 -0.3816838
-0.3685683 -0.35510215 -0.3311727 -0.36322436 0.49697968 -0.38091192 -0.39323685 -0.39568958
-0.5403226 -0.41216666 -0.41471854 1.6881723 -0.37029383 -0.37847173 -0.3548013 -0.38301125
-0.41994646 -0.37009394 -0.36786118 -0.37082294 -0.37382483 -0.37755963 -0.36722076 -0.37022635
-0.37471032 -0.3882391 -0.35945386 -0.0527755 -0.57936156 -0.37594202 -0.38012382 -0.13144869
-0.49727294 -0.3542206 -0.44867882 -0.11132882 -0.31029034 -0.37081742 -0.37923938 -0.3758213
-0.37791345 -0.3755821 -0.40030867 -0.17806089 -0.37606907 -0.43134406 -0.37273932 -0.3788105
1.959016 -0.41696757 -0.37907597 -0.37511867 -0.40124547 -0.37645197 0.38092375 -0.36673674
0.39984414 4.697149 -0.40516013 -0.35649854 -0.3701025 -0.37241963 -0.36728254 -0.38072672
-0.25664297 -0.36270344 -0.38811347 -0.37980247 2.5090415 -0.39132708 -0.44226363 0.33516073
-0.37882712 -0.371486 -0.37444592 -0.5185558 -0.37990943 -0.40937954 -0.36999834 -0.53564495
-0.34400308 -0.40483356 -0.41533348 -0.3737034 -0.36989704 -0.35966933 -0.3032106 -0.5741717
-0.4122761 -0.3524894 -0.40271974 -0.042096026 -0.3861742 0.1069489 -0.39908466 -1.3208492
-0.29550692 -0.008192263 -0.3832835 -0.3692772 -0.36533272 -0.27942595 -0.37173164 -0.424208
-0.38348436 -0.37973475 -0.44082218 -0.37676546 -0.4224188 -0.36545002 -0.36818558 -0.37018168
-0.75146693 -0.3763072 -0.2962769 -0.3760947 -0.36350945 -0.4046732 -0.38504282 0.008356722
-0.3676538 0.026175356 -0.13934253 -0.38208228 -0.41682673 0.049054418 -0.37252674 -0.3762189
-0.40067825 -0.36302853 -0.37311894 0.18607786 -0.123049945 -0.37415287 -0.36716306 -0.37560934
-0.36633906 -0.32681152 -0.45302418 -0.37069365 -0.43833214 -0.40369812 -0.37279645 -0.36051595

fc2.weight f4 [300, 400]
00000000: e22b 643d 8ab0 8db5 a85e 4837 b174 4ebd
00000010: 02d9 c03d ede8 1734 1a28 a2b3 c038 bf36
00000020: bf73 d93e 0b16 88b5 ad1b 9536 c307 72b8
00000030: e0e2 7d3e 02c3 0238 8921 c838 d403 31ba
00000040: 8dbc 8f3d a1dd bd34 d57b 9cbb d7ce 7f3e
00000050: 978f 93bb 7111 553d 70e9 73b8 6509 d6b6
00000060: e0ad 69bd 3848 a63e b401 da3c c144 14bc
00000070: e2e8 8432 dc49 13bb a2f7 ab3b d102 833c
00000080: 501c 713e d58e 603c 4376 cf3c 09cc 333b
00000090: 6984 ca3d 2414 8834 8564 c9be 59f7 ccbb
000000a0: 88ed 29b9 90e5 693a d1a2 32b8 43ee 8830
000000b0: 9d08 a63d 747c 1736 cecf 983d 064e 41b0
000000c0: e1ec 3d3d 3834 983e b882 583d a188 5a3c
000000d0: 9d26 bdba e367 0e3e c9ca b93a 3ba8 b23b
000000e0: 8eea 0a3e dc04 3f3c dbe8 cbbb 75dc b53c
000000f0: 9409 213b dec7 9cb1 6a97 3dbd 3e7b fb38
00000100: c475 24be 506b 2334 9991 6cb7 f0b0 4a3d
00000110: aa6c cbb1 3f5d 103d e930 903e 3fa5 8c39
00000120: a351 60bb bcb2 993d 4368 1f3d f2f4 f6b7
00000130: 1b0e 983d e235 2a30 6d0a 1c39 7bb7 b73c
00000140: f401 0080 056b 453a 10d7 80bd 0339 ddbd
00000150: ed8f 92b6 d8a4 b8bb d899 6a32 445f 623c
00000160: f95c 08bd 89af 873d 2587 cc3b 0d53 efbd
00000170: 4b3a 153c 04c1 923c 0996 e0bd 5e3b 03bb
00000180: 12d5 383e 27a2 40bb 9769 a636 b49b bb32
00000190: f16a db3d 078b b23a 0fab 2f32 263a 063e
000001a0: d166 65bd 0f04 ca3b 5067 503d d286 8932
000001b0: 01e3 e63c d70a 1a2f 43f1 3bb4 0a81 a6b4
000001c0: 575a fc39 c86b e631 54df 3f3d e9f9 1d3c
000001d0: f769 c23c ff18 863a c653 dabc 47fd 2d37
000001e0: 74a5 483b 6880 003e 7545 983c f775 c3bb
000001f0: d852 a2ba aad3 af31 4427 6b3b 2d7b 83af
00000200: f69f b33c ae48 5239 1ab2 3434 618a cc32
00000210: b83d e0ba 8378 a834 52be 863c 72ef 0db9
00000220: 1d8e beb6 527b ecb8 703f 5e34 6e01 0dbe
00000230: 3d3e 9d3d 6be7 8834 9cda b432 7b29 243e
00000240: f867 843e 72bc ff3b b2c7 513d 3149 32bc
00000250: 4223 5d3b bcd1 393b c45e 02bb f328 a5b9
00000260: 0b26 89b7 bb59 333b 94b4 13bd c94f 613e
00000270: 87c3 49bd 22f5 1d3d f0e5 29b6 93b3 7335
00000280: 0fba 7bbd 9b8f 21ba e5c6 ad31 c2c8 db33
00000290: a7e3 9b3c a437 c932 e111 443c b384 f832
000002a0: 6d29 32bd 6a29 c7bd 387f 3532 05ee a63d
000002b0: 33ee 34b1 05bf 80bb 47f8 a9b2 74ae 3d37
000002c0: fa5d 9a3d 8eb1 7cb4 787f 6939 4aad 3fb0
000002d0: b953 cf3c ed8f 83bb 5b48 463c a4a7 353e
000002e0: 9f6c a5bc 37b8 f9b5 509f 0a37 89a7 b43d
000002f0: f9f3 9139 240d 7ebc 0eee 52b8 4233 963d
00000300: bfa3 163c 36a5 cabb 08ac 593e 67f9 4db2
00000310: 5087 88b8 a97c c530 3382 6a3c 24d9 b5bd
00000320: a593 92bc 8f29 963d 4c01 e6ba 00c2 093e
00000330: 0bf0 ecb2 3684 1d3e 8cde 6f3c 4a19 833e
00000340: d190 133d e582 b63e a8db e43a 0807 efb2
00000350: 8bda 8132 9aa4 6d3d 7171 3836 c897 283e
00000360: 07f5 21b9 0d62 e73a 75fe a93c e793 5eb2
00000370: eaba 07b8 0988 8636 e875 9cbd d8fa 87b2
00000380: cbcc 003d c163 d2bb 3027 283d a02b 83b2
00000390: 6890 5536 1880 7c37 b975 b5af f1d5 b3be
000003a0: ec3c 93bb 7c10 473e 8095 ed3d 10e5 cdb5
000003b0: c989 553c 59ab 81bd 9fe7 8ab3 4bbc fb35
000003c0: 7d93 1a3d e0cf df3c eaed 1dbc 157b a1bd
000003d0: d0ed ea3d 5caf b8af 49f1 0c35 94e1 89ba
000003e0: 280f 803b 9c4b 2f3d f576 b63c 805e 2e3b
000003f0: a2fe 4e3d 078c 433c 6e8b 60b2 0125 f338
0.055705912 -1.0556698e-06 1.1942968e-05 -0.050404254 0.09416391 1.4147709e-07 -7.551007e-08 5.69885e-06
0.4247112 -1.0139205e-06 4.443768e-06 -5.7704525e-05 0.24793577 3.117603e-05 9.5429896e-05 -0.00067525846
0.07018385 3.536525e-07 -0.004775504 0.24981247 -0.004503201 0.052018587 -5.815312e-05 -6.3787907e-06
-0.057050586 0.32476974 0.02661214 -0.009049595 1.5472725e-08 -0.0022474444 0.005248026 0.015992554
0.23545957 0.013705929 0.025324946 0.0027434847 0.098885365 2.5346628e-07 -0.39334503 -0.006255072
-0.00016205583 0.0008922452 -4.259014e-05 9.96302e-10 0.081071116 2.2573195e-06 0.074615106 -7.032387e-10
0.046368483 0.2972734 0.052859038 0.013338239 -0.0014431063 0.13906817 0.0014174815 0.0054521835
0.13566038 0.011658873 -0.006222827 0.022199849 0.002457236 -4.56292e-09 -0.046286978 0.00011991568
-0.16060549 1.5219598e-07 -1.4100596e-05 0.049485147 -5.9204313e-09 0.035245176 0.28162315 0.00026826
-0.0034228347 0.07504794 0.03891779 -2.9439547e-05 0.074245654 6.192221e-10 0.00014881203 0.022426357
-7e-43 0.0007530901 -0.0629102 -0.1080189 -4.3678942e-06 -0.0056348853 1.3655573e-08 0.013816658
-0.03329179 0.066252775 0.0062416964 -0.116857626 0.009108136 0.017914303 -0.10966117 -0.00200244
0.1805003 -0.0029393525 4.959478e-06 2.184047e-08 0.10713757 0.0013621756 1.0225235e-08 0.1310812
-0.056006256 0.0061650346 0.050879776 1.6010208e-08 0.028184416 1.401007e-10 -1.7503503e-07 -3.1013798e-07
0.00048132494 6.7061343e-09 0.04684384 0.009642103 0.023732169 0.0010230838 -0.026651274 1.0370574e-05
0.0030616196 0.12548983 0.018587807 -0.0059649902 -0.0012384309 5.1172337e-09 0.0035881558 -2.3916283e-10
0.021926861 0.00020054236 1.68286e-07 2.3811653e-08 -0.0017108237 3.1380122e-07 0.016448174 -0.00013536008
-5.6789854e-06 -0.00011276327 2.069844e-07 -0.13770077 0.07677887 2.5500353e-07 2.105417e-08 0.16031449
0.25860572 0.007804447 0.051215835 -0.010881708 0.003374294 0.0028353771 -0.001989291 -0.00031501762
-1.6349388e-05 0.0027366716 -0.036060885 0.22003092 -0.049258735 0.038563855 -2.5316804e-06 9.078587e-07
-0.061456736 -0.00061630615 5.0575744e-09 1.02345e-07 0.019029452 2.3424782e-08 0.011967153 2.8931344e-08
-0.043496538 -0.09724696 1.0564513e-08 0.081508674 -2.6328848e-09 -0.0039290213 -1.9787093e-08 1.1305896e-05
0.07537456 -2.3533923e-07 0.00022268097 -6.9731654e-10 0.025308477 -0.00401496 0.012102212 0.17739731
-0.020193396 -1.8605559e-06 8.262534e-06 0.08821017 0.0002783833 -0.015506063 -5.0289607e-05 0.073339954
0.009194314 -0.0061842455 0.21257031 -1.1989278e-08 -6.510189e-05 1.4369067e-09 0.0143132685 -0.08879307
-0.017892668 0.073321454 -0.0017547994 0.13452911 -2.7583175e-08 0.15382466 0.014640462 0.25605232
0.03602678 0.3564674 0.0017460482 -2.782646e-08 1.5116958e-08 0.058018304 2.7484168e-06 0.1646415
-0.00015445436 0.0017653123 0.020751217 -1.295573e-08 -3.2360585e-05 4.009348e-06 -0.07639676 -1.5830139e-08
0.031445306 -0.006420583 0.041052997 -1.5270246e-08 3.1823529e-06 1.5050195e-05 -3.3007355e-10 -0.35124162
-0.0044933464 0.19439882 0.116007805 -1.5340356e-06 0.013033339 -0.0633151 -6.4682574e-08 1.8755758e-06
0.037738312 0.027320802 -0.009639243 -0.07884804 0.114711404 -3.3594005e-10 5.250518e-07 -0.0010519498
0.0039080568 0.042796716 0.02227352 0.002660662 0.050535806 0.011935241 -1.3070219e-08 0.000115940355

fc2.bias f4 [300]
00000000: d6e8 aa3e ae1f 833e ef70 623e f236 6f3e
00000010: 619d 7e3e 4f88 cf3e a080 a13e 46a4 983e
00000020: f679 803e e0dd b33e 32fa 053f d759 803e
00000030: 8b1d 813e bf69 b63e 9bc4 cd3e be4a 643e
00000040: 8cdd 793e 83c9 7c3e f3ad 693e 0ee0 993e
00000050: e840 703e a112 7f3e 000b 833e 4e74 6a3e
00000060: 35ca bc3e 7f81 683e cefa b13e 2b3a 8e3e
00000070: 20a9 c83e aaa5 eb3e 6cb4 8a3e 2275 553e
00000080: ca53 8e3e 8b59 883e ac22 c83e b52a 603e
00000090: 3f07 d43e 524f be3e c3af 663e b51e 253e
000000a0: 926a 953e 3584 833e 86a2 813e 6893 b93e
000000b0: 25bc 673e 1d6f 843e 6582 5d3e 19f7 483e
000000c0: ac29 ce3e 1338 003e dd64 233e 32f2 5f3e
000000d0: db5a d03e 816d 823e 2dc6 d13e 631e 203e
000000e0: 0eeb a53e bc04 813e e814 d23e b727 5d3e
000000f0: 3331 1f3e 2392 c03e da8c d63e 3543 8c3e
00000100: 944d 2d3e 035c a83e e526 d63e 574d 913e
00000110: 937e 6a3e cbc2 d33e d043 953e 4d6e b33e
00000120: 9180 703e 4912 7f3e 061a d33e aa26 9b3e
00000130: 63c6 c03e d149 823e 0bdc c23e 7824 2f3e
00000140: 5b63 583e f923 8a3e 98f2 943e 9573 893e
00000150: 00d6 843e 094c 843e 73f0 4d3e bc19 933e
00000160: 765c 953e 9f99 2d3e e4a6 d73e ccbf 6e3e
00000170: aeae 853e dd8e ae3e 2d50 af3e 61de c73e
00000180: 2d3c ae3e e925 703e 15c7 753e 2933 b53e
00000190: abae d73e de21 763e 9633 c93e 6c52 5a3e
000001a0: fa64 6c3e 8b6e a13e b9af d93e bb0e bd3e
000001b0: 7727 b73e 2cec 523e 0bbb cb3e 8b42 b33e
000001c0: d57f 833e 139c 573e 494a 093e 1d56 763e
000001d0: 1e7d 863e 9ed0 db3e 4276 833e 918b dd3e
000001e0: 8635 6f3e b089 a23e 6863 8d3e aa3e 963e
000001f0: be3a 873e 77d9 9c3e a931 ad3e 0180 4f3e
00000200: 3764 8b3e 706c d63e b231 c73e 2f96 b03e
00000210: 8589 6e3e 7d3d a93e ee7d cc3e bdc1 d93e
00000220: 3d5b d73e 2a49 d13e 4b3e b93e 288c 9f3e
00000230: f379 d13d ad2b 5d3e 7527 d13e 9d90 9c3e
00000240: 188c af3e 7037 8a3e c7ef d63e 8bf1 d33e
00000250: 66df 0e3e 140f a13e f92a 8c3e 8c56 123e
00000260: 72c0 893e e2c5 9d3e 38e5 6d3e e3e5 b43e
00000270: b394 c13e 9ecd 693d e329 cd3e 9eb6 b93e
00000280: 3162 c73e 87f0 c33e 2dd5 b73e 38a0 413e
00000290: a0de 503e 071d ee3e 71ed c43e eb37 833e
000002a0: a1c1 523e c1d9 cc3e a988 d73e b292 c83e
000002b0: ad5d 7c3e 6b07 8e3e de0c 8c3e 05cb 9f3e
000002c0: c3fb 933e 70b1 7f3e c34f da3e 872f 023f
000002d0: 3610 d53e b3af de3e 417f 783e 850c 8a3e
000002e0: 9ac4 d13e 2fbd a33e 9d2a 783e 3689 a93e
000002f0: 46e5 c93e 8fb4 443e 8e39 8a3d 4198 053e
00000300: bf1b ef3d d0b7 af3e 5c2c 883e d593 03be
00000310: 1d30 c83e 4064 553e cb1c d23e 3092 c63e
00000320: 489b d03e 18a7 563e f0de d43e 7978 673e
00000330: 8503 cb3e ac08 e53e 574d ad3e f973 953e
00000340: 0c90 483e a497 b73e a18e c93e 2102 8b3e
00000350: 033e cf3e 440c 843e 2878 a33e d7a8 cd3e
00000360: 77e7 b33e 129f c93e 007b ca3e 843f 553e
00000370: 0280 1b3e ae59 703e e3d3 b63e 3884 673e
00000380: d4ff 3d3e c645 753e 5357 843e 6365 4e3e
00000390: 1863 803e 0a7c d33e 236e 7d3e da70 ad3e
000003a0: cedb ce3e b24b 8e3e 8ef8 343e 2a70 b63e
000003b0: 834d 6d3e 3742 a23e a3ff ac3e ffed a93e
000003c0: 7289 aa3d ba88 a23e 5f20 da3e 32da 1e3e
000003d0: 088c 023f 42fa 4d3e 5807 d63e 686e d53e
000003e0: f834 d93e 35be c33e b15b 913e d0fd 8b3e
000003f0: 9f8a be3e b852 cd3e a6f6 c33e 0432 8e3e
0.33380765 0.25610107 0.22113393 0.23360804 0.24864723 0.40533683 0.31543446 0.2981283
0.2509305 0.35130215 0.5233489 0.25068542 0.25217852 0.35627553 0.4018906 0.22294137
0.2440092 0.24686246 0.22820263 0.30053753 0.2346226 0.2490945 0.2559433 0.22895929
0.36873022 0.22705649 0.3476166 0.27778754 0.39191532 0.4602483 0.27090776 0.20845464
0.277983 0.26630816 0.39088953 0.21891291 0.41411778 0.37169892 0.22527985 0.16124995
0.2918287 0.25686803 0.25319308 0.36245275 0.22630365 0.25866023 0.21631773 0.1962551
0.40266168 0.1252139 0.15956445 0.21869734 0.40694317 0.2547417 0.4097151 0.15636592
0.32405895 0.25198925 0.41031575 0.21597181 0.15546112 0.37611493 0.41904336 0.27395025
0.16924125 0.328827 0.4182655 0.28379318 0.22899847 0.41359553 0.291533 0.3504509
0.23486544 0.24909319 0.41230792 0.30302936 0.37651357 0.25446942 0.38058504 0.17103755
0.21131651 0.2698057 0.29091334 0.26845995 0.2594452 0.2583926 0.20111255 0.2873057
0.29172105 0.16953133 0.42119515 0.23315352 0.26109833 0.3409337 0.34240857 0.3903685
0.34030285 0.23451962 0.24001725 0.35390595 0.4212545 0.24036357 0.3929717 0.21320504
0.23085395 0.3152965 0.42516878 0.369253 0.35772297 0.20597905 0.3979114 0.35011706
0.25683466 0.21055631 0.13407244 0.24056287 0.26267332 0.429326 0.2567616 0.43270543
0.23360261 0.31745672 0.27614903 0.29344684 0.26412004 0.30634663 0.3382695 0.20263673
0.27224895 0.41879606 0.38905102 0.3448958 0.23294647 0.33054724 0.39939827 0.42530623
0.42061797 0.40876132 0.36180338 0.31161618 0.10228338 0.21598692 0.40850416 0.3057908
0.3428657 0.2699542 0.4197981 0.4139522 0.13952407 0.31456816 0.27376536 0.14290828
0.26904637 0.30815035 0.23231971 0.3533164 0.3780876 0.057080857 0.4007102 0.36272138
0.38942102 0.38269445 0.35904828 0.18908775 0.20397425 0.4650652 0.38462403 0.256286
0.20581676 0.40009883 0.4209645 0.3917442 0.2464511 0.27740034 0.27353567 0.3120958
0.28903016 0.24970031 0.42638978 0.5085377 0.4161393 0.43493423 0.24267294 0.26962677
0.40970308 0.31980273 0.24235006 0.33112496 0.39432734 0.19209503 0.06749259 0.13046362
0.11675214 0.34319925 0.26596344 -0.12849362 0.39099208 0.20839024 0.41037592 0.38783407
0.4074347 0.20962179 0.41576338 0.2260455 0.39651123 0.4473318 0.33848068 0.29190043
0.195862 0.3585788 0.3936663 0.27150062 0.40477 0.25790608 0.3192761 0.40167877
0.3513753 0.39379174 0.39546967 0.2082501 0.1518555 0.2347171 0.35708532 0.22609031
0.18554622 0.23952398 0.25847873 0.20155863 0.25075603 0.41305572 0.24749045 0.3387516
0.40402073 0.27792126 0.17672941 0.3563245 0.231741 0.31691143 0.33788785 0.3318939
0.08326997 0.3174494 0.42602822 0.15512922 0.5099492 0.20114997 0.41802478 0.41685796
0.42423224 0.38231054 0.28390267 0.2734208 0.37215135 0.40102172 0.38274115 0.27772534

bn1.weight f4 [400]
00000000: f4f5 51bf 83e1 14b9 b4f9 cdb9 0286 3a3f
00000010: f615 723d 1b0d 3ab8 e84b 51b7 eda2 1db8
00000020: c4d4 5b3f 29b2 e9b9 6e43 97ba 2fa7 80ba
00000030: f7d1 d93f 46bb 4bba d091 f1bb 16fa a039
00000040: 5b7b 093f 1a25 ccb6 bc9d ecba 4eb3 123f
00000050: 2bb2 debb 0908 743d 45f5 3bba 3100 78ba
00000060: c5db 5d3e ad24 f93e 3f24 2a3e 8ee6 1eba
00000070: c6be 26b7 b55d ca3c 3f98 cb3a a81d 483d
00000080: e935 b83e b44b 213d fc28 713d 0270 99ba
00000090: d698 e53e 0a2c beb8 86a5 963f e4ac 1c3e
000000a0: c5e3 2bba 1bfe 533a 9966 ba39 7685 e2b4
000000b0: dc4b 303d c86b 98ba 9e30 303d 2c23 a3b4
000000c0: 5020 62bd 8238 043f e264 bd3f 7cb6 7bba
000000d0: a840 65ba 8b6e 783d 2b04 9f3b ba74 7f3f
000000e0: 1b71 063e 2fc6 083f a52d 0bbb 4d88 f83a
000000f0: 03b4 1139 d6ce 4cb7 ac34 ad3f 5b9f 7439
00000100: d6ba 7a3f 019c 0f38 5ab2 a9b9 d82a 53bb
00000110: dd73 b0b6 3695 613d 3f23 443f 22f3 743b
00000120: fed0 653f 4b0a 87bd 6523 363d f851 cfb9
00000130: dde3 e33e 8766 95b4 53f9 a4b9 67f1 d73d
00000140: f401 0080 208f 6d3d 03be af3f 57c4 453f
00000150: 6fbd 9dba 775f 3cbb eacb 4fb7 64df 3b3d
00000160: 1216 713e 3632 82bd 87cb c03b 8958 013f
00000170: d1e3 ef3a c36e 083b 1252 5e3e a7ca 14ba
00000180: 8c82 8f3f 1047 2139 3387 44bb 431d 3fb7
00000190: 7f66 843f b127 963b 9fc2 0ab7 0eb5 c93e
000001a0: 5c57 943f 76aa a3ba 308a d8bd 6013 0db4
000001b0: 157b 073f 570f 1ab4 3984 3cba 8934 9eb6
000001c0: 7cfa 2cbb 8991 7f35 2d4a 3dbd 426e 1bbe
000001d0: a064 373f f667 46ba 010f 25be 5c89 11bb
000001e0: e1a5 723e c91d 463f 9357 f73d c9b5 fe3f
000001f0: efc2 08bb 6202 9ab6 19d6 6bba 7493 7cb4
00000200: 88a6 853d f2b8 0fbb 4e86 cf36 d0e3 18ba
00000210: e78d 113b 9aea c0ba dc4d 99ba e4ef 9539
00000220: 4a1b 81b9 b28d 5aba dd93 a3b8 58f0 933f
00000230: 8a22 193e af04 be38 86ad 9db5 7050 7c3f
00000240: e199 d93e 9598 81ba 1616 043e 90a9 553f
00000250: 1268 8b3f 0e5f 423a d3ea 403b ce90 2d3a
00000260: 4a4a 30bb cc29 e539 9eea be3d 28f0 163f
00000270: 7395 a2bd abde 663d 5178 2238 5b0b 8fb7
00000280: ba55 ff3e 15f8 ae3d 70ba 89b6 0318 84b8
00000290: 0261 db3d 07ce d0b4 1b3c 163f 62f7 0bb8
000002a0: 463c cd3e 761c bf3f a503 93b4 e979 bc3f
000002b0: 6b96 dab4 0c64 e1b9 35dc 31b8 097c f8ba
000002c0: 7a66 9c3f 0053 e1b3 e359 93ba 2002 c4b4
000002d0: 131b 1c40 3980 8b3d 9908 a13d e6fc d73f
000002e0: 69ef 633e 0bdd b1b8 796f 14b9 9524 0f3f
000002f0: ba7f 38bb 4f32 943d fc67 51bb 3a70 463f
00000300: 11bb 31ba b36f ceb8 096d acbe ff76 8ab7
00000310: 4928 2dba 1f2d e6b4 b7a2 95bd ae40 d23e
00000320: 4b14 a83d 5d22 fcbc 5a98 f6bd 4072 323e
00000330: a20a 6e38 f5dc 223e 4b5b 713d e3f4 773f
00000340: 9a42 1fbd 56bd 363f ac29 54bb 6645 31b4
00000350: 96a6 59b6 b211 bfbd 52aa 3e39 6b36 5f3f
00000360: a1b6 32ba d056 67b9 b314 a63d 54db 51b9
00000370: fa76 87b8 4a70 cb38 ab6c 093f dc2b 63b8
00000380: d061 9b3e 0005 7db9 ecb9 74bd 3171 13b5
00000390: 14dc 5e39 fee0 d7b8 737a 2e31 b687 0940
000003a0: ade4 283a ff22 e53f 41f3 8e3f d4ab 89ba
000003b0: 920d bc3d 0a63 123f 416a 87b6 bb29 45b8
000003c0: 9334 b13c c427 f43b ff51 28ba 74aa e73e
000003d0: 9a9c 7a3f 6bac d5b6 5553 85b9 5a0a f8b9
000003e0: 267b fab9 0405 0abd a500 403d 7c50 803a
000003f0: bbe3 5a3d e959 0e3b 2c49 9bb4 58d8 ceb7
-0.8201592 -0.0001419839 -0.0003928669 0.7286073 0.059102975 -4.435806e-05 -1.2475044e-05 -3.7583453e-05
0.8587153 -0.00044573963 -0.0011540481 -0.000981545 1.7017201 -0.00077717414 -0.0073721185 0.00030703907
0.5370385 -6.083993e-06 -0.001805238 0.5730485 -0.0067961416 0.059577975 -0.0007170032 -0.0009460478
0.21665867 0.48660794 0.1661539 -0.0006061577 -9.938789e-06 0.024702886 0.0015533044 0.048856407
0.3597863 0.039378837 0.058876976 -0.0011706355 0.44843167 -9.068109e-05 1.1769264 0.15300328
-0.00065570726 0.0008086876 0.00035553126 -4.2192886e-07 0.043041095 -0.0011628801 0.043015115 -3.0386707e-07
-0.055206597 0.51648724 1.4796412 -0.00096020824 -0.0008745291 0.060652297 0.004852792 0.99787486
0.13129084 0.53427404 -0.0021236923 0.0018961519 0.00013895337 -1.2207505e-05 1.3531699 0.00023329018
0.9794134 3.4239147e-05 -0.00032367074 -0.0032221582 -5.258697e-06 0.05507394 0.7661628 0.0037376364
0.8977202 -0.0659376 0.04446735 -0.00039543188 0.44509783 -2.782801e-07 -0.0003146628 0.10544091
-7e-43 0.057997823 1.3729862 0.77252716 -0.0012034605 -0.0028743425 -1.2385639e-05 0.04586734
0.23543575 -0.06357233 0.0058836374 0.5052572 0.0018302148 0.0020817972 0.21710995 -0.00056759495
1.1211715 0.0001538063 -0.0029987812 -1.13913e-05 1.0343779 0.0045823683 -8.270755e-06 0.39395946
1.158916 -0.0012486714 -0.10573232 -1.3138697e-07 0.52922183 -1.4347948e-07 -0.00071913336 -4.714883e-06
-0.0026394418 9.5206684e-07 -0.046213318 -0.15178779 0.71637917 -0.0007568592 -0.16119005 -0.0022207117
0.2369609 0.773892 0.1207725 1.9899226 -0.0020868143 -4.589835e-06 -0.00089964416 -2.3522972e-07
0.06525904 -0.0021930304 6.184716e-06 -0.00058322866 0.0022209825 -0.0014718354 -0.0011696178 0.00028598227
-0.0002462513 -0.0008337154 -7.799987e-05 1.1557722 0.14954582 9.0607784e-05 -1.1747914e-06 0.9856024
0.42500213 -0.0009887392 0.1289905 0.83461857 1.0891135 0.0007414677 0.002943684 0.0006621004
-0.0026899748 0.00043709425 0.093220934 0.589602 -0.079386614 0.056364696 3.8735863e-05 -1.7052216e-05
0.49870092 0.08543412 -4.1046223e-06 -6.298723e-05 0.10711862 -3.8892924e-07 0.58685464 -3.3370576e-05
0.40085047 1.493056 -2.7383535e-07 1.4724704 -4.0715108e-07 -0.00042989885 -4.2405172e-05 -0.0018957864
1.2218773 -1.04924766e-07 -0.0011241998 -3.650939e-07 2.4391525 0.06811566 0.07862968 1.6874053
0.22259296 -8.48119e-05 -0.00014155907 0.55915195 -0.0028152303 0.07236158 -0.0031952849 0.77514994
-0.0006779889 -9.843651e-05 -0.33676937 -1.6506294e-05 -0.0006605429 -4.2873668e-07 -0.07306426 0.41064972
0.082069956 -0.030778104 -0.120407775 0.17426395 5.6753524e-05 0.15904601 0.058924954 0.9685804
-0.038881876 0.71382654 -0.0032373471 -1.6509657e-07 -3.2432486e-06 -0.09329547 0.00018183261 0.8719241
-0.0006817375 -0.00022062217 0.08109417 -0.000200135 -6.459463e-05 9.70071e-05 0.5368144 -5.4161865e-05
0.30348063 -0.00024129823 -0.05974762 -5.492648e-07 0.00021253555 -0.00010293907 2.5389937e-09 2.1489081
0.0006442767 1.7901305 1.1167985 -0.0010503479 0.09182276 0.5718237 -4.035683e-06 -4.7007325e-05
0.021631515 0.0074510295 -0.000642091 0.45247233 0.97895205 -6.3679668e-06 -0.00025429824 -0.0004730996
-0.0004777547 -0.03369619 0.046875615 0.0009789611 0.053439837 0.002172107 -2.892424e-07 -2.4657857e-05

bn1.bias f4 [400]
00000000: 47fe 003d d03f eab9 708a 3dba 940e 35be
00000010: 5ec8 143e c8e8 36b9 c7e0 1eb8 0169 14ba
00000020: bc07 ad3e 29bd 1fba e678 edba 7376 a6ba
00000030: 4333 ea3d 320c b7b9 b77b dcba 174a d7b9
00000040: f30d 3b3d 3b07 c0b8 4295 d3ba 7547 093e
00000050: f5f2 f4b9 0bad c33d 6c62 8dba d36c a8b9
00000060: f448 a23e 9c40 153e e3b9 603c 684c b1ba
00000070: 2dd9 5bb8 0576 86ba 5b29 e83a ebb1 48bc
00000080: 1d3a 493e 260c fc3c 616e 6d3b 4e56 69ba
00000090: cf92 22bd 4e81 acb9 5fd5 c23e d729 ea3d
000000a0: dfef b5ba df83 26ba 36f2 4bba 9407 45b6
000000b0: 1013 1f3d 4184 c7ba 5912 ab3d 6a76 b1b4
000000c0: ba34 8e3d 4b8f b03e 274e 9cbc 5d7c 71ba
000000d0: ab26 a8ba 6c5b 443e 2a68 9f3a 6419 773e
000000e0: 62b9 7e3e cb0d 913d d55e 9aba e412 463b
000000f0: 29c8 b1b9 afa2 f0b8 a7b1 80bd 4ddd 68bb
00000100: 2f5b 7e3e 11c0 19ba 2e39 fab8 ee25 9a3c
00000110: 65e0 03b8 01ea 9b3c 6feb 433e 6af5 4c3b
00000120: 39ca 6d3e e68d 0e3d a478 083d c617 88ba
00000130: f11e da3d a074 8ab5 5f1c 8bba 7203 c93e
00000140: f401 0080 44e6 c33c ed0c 483e 47ec a3bd
00000150: 37f1 13ba 267d 5bba e3df 00b8 7558 7c3c
00000160: 45d0 8a3c b050 343d 71f4 ce3b 0695 f53d
00000170: 00fa bd3a 55c2 22bb 2bb1 5f3e 6da9 3bba
00000180: 377d b13e 334b 7bba 2c95 44bb 4982 fab7
00000190: ca60 a53d fb42 833b 2312 42b8 72a4 c7bd
000001a0: 9146 66be c5d7 08bb fdee 513d 5df1 5bb5
000001b0: f98e 403d 90e0 8cb5 3cc3 07bb 0e08 78b7
000001c0: b617 e9ba 369d 56b6 a659 bcbb 0cee 163c
000001d0: f161 323e 75aa 9bba 004e eeba 405c 17bb
000001e0: fd92 113e c4b3 3dbe b6dd 9dbb f878 913e
000001f0: bf1d adba fa9c 29b8 bbd3 b6ba 0266 c5b5
00000200: 4a77 cc3b 465a 13bb 2fcd 77b9 95d5 a3ba
00000210: 6014 243a 0706 fcba b5aa edb9 9b7a d1b9
00000220: 629f 11ba 34f1 61bb 01e2 1ab9 33ab 50be
00000230: 6af4 e73d 7c26 48ba 52df 2ab7 fe2a a33e
00000240: 0741 493e 5145 8fba 0a53 ab3e 4ad3 da3d
00000250: a953 97bc 81aa 03ba 883a 253b 3eac 5cba
00000260: 3da1 e8ba 23cf de39 5385 593d 7e00 c63e
00000270: 067d 133d d612 5a3c b166 a2b9 6694 7cb8
00000280: 8fad ad3e 2b86 a23c 2bc5 2cb7 893f 36b9
00000290: d5e0 7b3d 0603 f3b5 456f 193e 2503 c6b8
000002a0: a5bf 233e 6c1f ac3e 3e68 58b7 7d38 e23b
000002b0: ffd7 a0b5 9bf1 cbba 4e0a d8b8 96f4 2bbb
000002c0: 2afc 153e c253 02b8 6df6 84ba dd5e 65b6
000002d0: 7530 bb3d 9a72 9f3e 597c f13c ddca 1a3e
000002e0: 0bac 0c3c cad1 4eb8 0d9d 06b9 ab11 59bd
000002f0: f20d 31bb c9c5 8a3d cbec 3cbb 9c99 9fbe
00000300: aef2 86ba 70a0 e7b9 9c24 18bd 2752 95b8
00000310: 0278 eaba 4265 48b5 ba08 543c 9e7d 01be
00000320: 3e8d 9b3c 5ab4 b83c e364 3f3d 4b38 b93e
00000330: 0a1c dab8 e772 853e f5d2 1a3d a41d cb3e
00000340: 393c 353d 34c6 8e3e dc18 dcba 0f63 eab5
00000350: 2147 feb6 c8ad 333d b90b 96ba fbdf 70be
00000360: a790 65ba 852d 08ba 7a00 853d a824 2bba
00000370: 1e75 3dbb f264 8aba 8b32 d1bd e1c8 0eb9
00000380: 84f3 163e 3c2e 07ba 8dcc 583d edf0 9db5
00000390: 7509 c0b9 3020 d2ba 68d1 e4b4 bca4 763e
000003a0: d3d1 6eba 47a0 20be e370 efbb c852 ccba
000003b0: acfc 6e3c 3416 043e d76a d2b7 5325 2eb9
000003c0: bd29 c5bb 7640 0b3c ac6d c1ba 150c 6ebd
000003d0: 3290 f53d 9810 cbb7 70b2 15ba 46af c4b9
000003e0: e36a 84b9 358c 0a3d 5419 fb3c 1201 bbba
000003f0: 20cc da3c d177 0cbb 6a29 69b5 24ee 10b8
0.031492498 -0.00044679502 -0.00072304066 -0.17681342 0.14529559 -0.0001744359 -3.7879476e-05 -0.0005661399
0.33794963 -0.0006093556 -0.0018117696 -0.0012700096 0.11435559 -0.00034913566 -0.0016821538 -0.00041063197
0.0456676 -9.15662e-05 -0.0016142505 0.13406165 -0.00046720324 0.0955449 -0.0010786778 -0.00032124537
0.31696284 0.14575428 0.013716194 -0.0013526799 -5.241593e-05 -0.0010258561 0.001771252 -0.01224945
0.19651075 0.030767512 0.003622912 -0.0008901105 -0.03969079 -0.00032902736 0.38053414 0.114337616
-0.0013880691 -0.0006352048 -0.00077799277 -2.9359699e-06 0.03883654 -0.001522191 0.08353109 -3.3054977e-07
0.069436505 0.34484324 -0.019080235 -0.0009211952 -0.0012828907 0.191755 0.0012161781 0.2413078
0.24875405 0.07082709 -0.001177753 0.0030223662 -0.00033909202 -0.00011474394 -0.062838845 -0.0035532296
0.24839471 -0.0005865107 -0.000119315795 0.018816914 -3.1441818e-05 0.01903248 0.1913278 0.0031274208
0.23221673 0.034803294 0.033318177 -0.0010383062 0.10650433 -1.0315744e-06 -0.0010613314 0.3926044
-7e-43 0.02391351 0.19536181 -0.08004051 -0.0005643549 -0.00083728356 -3.072609e-05 0.015401949
0.016945014 0.044022262 0.006315761 0.119913146 0.0014494061 -0.002483507 0.21844928 -0.00071587303
0.34665844 -0.00095860957 -0.002999614 -2.9862991e-05 0.08075102 0.0040057874 -4.6270095e-05 -0.09748162
-0.22487856 -0.0020880562 0.051253308 -8.193509e-07 0.04701135 -1.0496169e-06 -0.0020715734 -1.4783827e-05
-0.0017783556 -3.1979994e-06 -0.0057479916 0.009212028 0.17420174 -0.0011876362 -0.0018181205 -0.0023095757
0.14216228 -0.18525606 -0.00481769 0.28412604 -0.0013207718 -4.0438936e-05 -0.0013948599 -1.4707332e-06
0.0062398063 -0.0022484227 -0.00023632192 -0.0012499565 0.00062591396 -0.001922787 -0.0004533135 -0.00039954935
-0.0005555061 -0.0034476044 -0.00014770777 -0.20377807 0.11325915 -0.0007635129 -1.0184785e-05 0.31868738
0.19653712 -0.0010930692 0.3346179 0.106848314 -0.01847251 -0.00050226605 0.002521189 -0.0008418
-0.0017748248 0.00042497469 0.053105664 0.3867225 0.036007904 0.013310155 -0.0003097556 -6.021969e-05
0.33921477 0.019839367 -1.0297906e-05 -0.00017380541 0.061493713 -1.8105791e-06 0.14983852 -9.4419614e-05
0.15991075 0.33617723 -1.2898874e-05 0.0069037066 -1.1983792e-06 -0.0015559675 -0.00010301602 -0.0026238314
0.14646974 -3.107242e-05 -0.0010144241 -3.4178877e-06 0.09140102 0.31142122 0.029478239 0.15116449
0.00858594 -4.930961e-05 -0.00012837742 -0.052995365 -0.0027016369 0.06776006 -0.0028827663 -0.31171882
-0.0010295713 -0.0004417929 -0.03714429 -7.120176e-05 -0.0017888548 -7.4653155e-07 0.012941534 -0.12645575
0.018988248 0.022546936 0.046727072 0.3617576 -0.00010400273 0.26064226 0.03779884 0.39671052
0.044246886 0.27885592 -0.0016792077 -1.7463188e-06 -7.5780704e-06 0.043866903 -0.0011447585 -0.23522942
-0.00087572116 -0.0005194771 0.064942315 -0.00065285945 -0.0028908919 -0.0010558649 -0.102147184 -0.00013617009
0.14741331 -0.0005156731 0.05292945 -1.176753e-06 -0.0003662814 -0.0016031321 -4.2620673e-07 0.24086279
-0.0009110246 -0.15686141 -0.0073071583 -0.0015588636 0.014586609 0.12899095 -2.5083702e-05 -0.00016607837
-0.0060169385 0.008499255 -0.0014757416 -0.05811699 0.11990394 -2.4207213e-05 -0.0005710488 -0.00037514622
-0.0002525664 0.033825118 0.030651726 -0.0014267287 0.026708663 -0.002143372 -8.685953e-07 -3.455406e-05

bn2.weight f4 [300]
00000000: f018 d63f 30d3 8ebd e3b0 c8bb 1128 90be
00000010: 679f 3ebd b5e6 50be 6fd4 ac3f 9b05 0fbd
00000020: 7c82 9a3f c303 51be 3850 2740 c8a1 9ebc
00000030: ab39 c5be 4da3 dabc 6c1d 1d40 1460 9fbe
00000040: b788 8abe 92c1 d0be f500 04be ff9c 18be
00000050: 65d9 75be ab98 5d3d 3919 e13d 66a3 10be
00000060: 9829 a33f 4c0d 6abe d367 5140 953f 37be
00000070: 4b4f 80bd 8ac7 2240 8b0f 093e 3e1a 9b3f
00000080: eb2e 15bd b815 0ebd 671d 41bc 020e cabe
00000090: 5126 0a3d 41c6 f0bc d592 4c3e 9786 2ebe
000000a0: 478c 193d e339 0cbc 63e0 c4bd aed6 b0bd
000000b0: 1942 93be ec35 c73d 8b89 af3d a23d 233e
000000c0: e266 7dbd e88c a03f 25a4 ad3f fd73 71ba
000000d0: ffe7 a93e 7913 9a3f 8d3d 43bd a10a ca3f
000000e0: 1719 5c39 b61c 01be 9cdb 043d f519 2040
000000f0: 6c5b 5a40 546b efb9 177b 8ebc 8993 c1ba
00000100: 7e0f 88be 1f6e 083d e50e 44bd 2f06 11be
00000110: 37b4 0b40 7c40 88bc 448a be3f 5a56 c8bd
00000120: 02b3 b13d 1223 30bd 82dd 0a3e 64a9 dabe
00000130: 509e 4cbe 9967 9ebe f801 f83f 9ab7 4c40
00000140: 8195 7cbe ec6b e93f c9b1 88be a3ba c4be
00000150: b0e5 0740 d61c f83f 4e4e 2c40 9cb1 af3c
00000160: 5156 593e e3ee 03bd be48 60bd 2fe4 bbbe
00000170: 5775 01be 4360 abbd df63 b2bc fcdd 86be
00000180: 5d88 263e 8f37 0abe 0cda a0be 15d9 c2be
00000190: 3346 c3bd 7204 a83f 4205 98b9 e515 59be
000001a0: cc3b e2bf 0d3e 0b3e 7000 f63d bc93 a6bd
000001b0: d747 b93c 6881 2b40 0f13 08bd d850 8cbf
000001c0: 6592 2040 d584 93be c772 ed3f f008 cabe
000001d0: a2ac 48bc d880 113d 2696 9abe 00ee 983d
000001e0: abc3 c3be 2d72 23be 2463 bebc c2a2 d6bf
000001f0: de82 03be 0ea9 3abe f4b8 9dbd e81e 3bbd
00000200: 2e78 c93a c76c 283e f401 0000 a7a1 e73c
00000210: ecea abbe c339 58be b5fe be3e a467 9e3d
00000220: 9a6d a73d c278 76be 2c1e adbd 96fc abb6
00000230: dd56 5fc0 dfb7 c43f 83bd 053e f6be 2a40
00000240: c5ce d4be 0de8 0ebd 23d8 04be 1a9b 893d
00000250: 65a9 de3f b3d6 f6bd cbaa 45be 71e4 24c0
00000260: 3ef5 d7be b4ee 4c3e efb7 adbd 33bb 95bd
00000270: c6f9 143f d272 3f40 b063 393e 83c7 2540
00000280: 6193 e9bd b702 1b3c 688c b53e 09a7 e53f
00000290: a8fa a4bd 78da 6040 8b57 1d40 94b5 083f
000002a0: b0d7 e73f dc68 1b40 5fee b03d 3649 a93e
000002b0: 9f03 6abe 0c63 5440 2f89 d23d 8295 c6bd
000002c0: adf0 693d 7df7 d8bd c527 6b40 0220 6940
000002d0: ccf1 2f3d 0964 293d 93f5 95be 1909 3cbd
000002e0: f1c5 1d40 74ed a7be 371d d0bc 85b1 b73f
000002f0: fbae 6f3d a7af 1ebe fbfd 33c0 75a8 583e
00000300: 70c2 c93f b678 9e3e b29f d73f 968a 91c0
00000310: c121 2f3b 6622 04bd dd2a bb3d c9ae 2bbe
00000320: 86f4 6f3e fd54 1dbe 26b8 1ebd cf6f 8ebe
00000330: eaaf b7ba 3a8a 1140 3842 3940 0786 523d
00000340: 6609 cb3f c2ab 5fbe b5f7 b4bd 3860 cdbd
00000350: 54bc 06be 141d bf3f b208 e33f 2532 f73f
00000360: 8999 9a3d 227d a63e 7c76 a53e a014 c63f
00000370: 7922 45bd f77c 03bc 3b0f b7bd a901 663d
00000380: e50e ca3f 414b d53e db2b 1a40 9cb4 d3be
00000390: 7a14 29be ea33 1240 724c 4fbd cf70 34be
000003a0: cb19 debd 9bdd 9dbd 8aa4 233f b656 63be
000003b0: 633e 37bd eee9 fabd 88b3 80be 34c2 aeb7
000003c0: d943 0940 34a4 123c 83d6 343d bef2 5c3f
000003d0: 13f5 2340 dd54 4ebe c86f 283d c148 b23e
000003e0: 54be 73bc ceb3 08bd 1e41 633f c012 71bd
000003f0: e6c7 9f3e 449a 343d 09b2 ca3e 06b4 1240
1.672636 -0.069738746 -0.006124602 -0.28155568 -0.046538737 -0.20400508 1.350233 -0.034917455
1.2071071 -0.20411591 2.6142712 -0.019364253 -0.3852056 -0.026689196 2.4549208 -0.3112799
-0.2705743 -0.40772682 -0.1289099 -0.1490364 -0.2400871 0.054100674 0.10991139 -0.14124832
1.2747068 -0.22856635 3.271962 -0.17895348 -0.06265124 2.543429 0.13384835 1.2117383
-0.036421698 -0.03468868 -0.011786795 -0.39463812 0.033727948 -0.02939141 0.19977887 -0.1704353
0.037487295 -0.008558723 -0.09613111 -0.08634697 -0.28761366 0.09727082 0.08571156 0.1594148
-0.061865695 1.2543001 1.3565718 -0.0009210704 0.3318481 1.2037193 -0.04766612 1.5784494
0.00020990182 -0.12608609 0.032436 2.5015843 3.41183 -0.00045665598 -0.017392678 -0.00147687
-0.2657432 0.033308145 -0.047865767 -0.14162515 2.1828744 -0.016632311 1.4885945 -0.09782095
0.08676721 -0.043002196 0.13561061 -0.4270736 -0.19982266 -0.30938414 1.9375601 3.1987062
-0.24666406 1.823606 -0.2669814 -0.38423643 2.123394 1.93838 2.6922793 0.021446995
0.21224333 -0.032210242 -0.054756872 -0.36697528 -0.12642418 -0.0836797 -0.021776138 -0.26341236
0.16262956 -0.13497756 -0.31416357 -0.38056245 -0.09534874 1.3126357 -0.00028995617 -0.21199758
-1.7674499 0.13597889 0.12011802 -0.08133647 0.022617264 2.6797733 -0.0332213 -1.0962172
2.5089352 -0.2881228 1.8550652 -0.39459944 -0.01224819 0.035523266 -0.3019268 0.0746727
-0.3823522 -0.15961523 -0.023240633 -1.676842 -0.1284289 -0.18228552 -0.07701293 -0.04568377
0.0015370899 0.16447745 7e-43 0.028275324 -0.3357767 -0.21115784 0.373037 0.07734612
0.08175202 -0.24069503 -0.084530205 -5.125602e-06 -3.4896767 1.5368613 0.13060574 2.6679053
-0.41564003 -0.03488927 -0.12973075 0.067190364 1.7395445 -0.120526694 -0.19303434 -2.576443
-0.42179292 0.20012933 -0.08482348 -0.07311096 0.58193624 2.991383 0.18104434 2.5903022
-0.114050634 0.0094610965 0.35458684 1.79416 -0.080556214 3.5133343 2.4584682 0.53402066
1.8112698 2.428275 0.08639216 0.33063668 -0.22852944 3.3185453 0.10280072 -0.09696485
0.057114292 -0.1059408 3.6743023 3.6425786 0.042955205 0.041355167 -0.2928892 -0.045907114
2.4652064 -0.3279835 -0.025404556 1.435105 0.058516484 -0.15496694 -2.8123767 0.21158011
1.5762463 0.3095147 1.684561 -4.548167 0.0026723 -0.032259367 0.09139035 -0.16765894
0.23433122 -0.15364452 -0.038749836 -0.27819678 -0.0014014218 2.2740617 2.8946667 0.05139735
1.5862243 -0.21842864 -0.08836309 -0.10028118 -0.13157779 1.4930749 1.7737029 1.9312178
0.07548816 0.32517344 0.3231696 1.5475044 -0.04812858 -0.008025399 -0.08938452 0.056153927
1.5785795 0.41658977 2.4089267 -0.41348732 -0.16511717 2.2844186 -0.050610013 -0.17621158
-0.10844763 -0.077082835 0.6392294 -0.22201046 -0.04473723 -0.1225165 -0.2513697 -2.083285e-05
2.144766 0.008950282 0.044149887 0.86307895 2.5618331 -0.2014956 0.041122228 0.34821132
-0.014876921 -0.0333746 0.88771236 -0.058855772 0.31207198 0.04409243 0.39588955 2.2922378

bn2.bias f4 [300]
00000000: 5590 f6be 3a6c 233e c21f 923e 8376 d83e
00000010: 7cb3 ee3e d408 4b3e 3dd1 8fbe 99fd f13c
00000020: 012d 733f 383a 003f ec56 cbbb dbcc e33e
00000030: 045f a03e 301f 2e3e dca5 69bd 14a3 c83d
00000040: 28aa 4f3e b029 a93e a8d5 3f3e 3bfc 3a3e
00000050: a791 543e faa0 3e3e 1e07 46bd 42e5 293e
00000060: 1f67 b73e 15d7 e33e 222c 30bf a985 c83e
00000070: cbdd f13e bd46 613d ccd9 063f ee45 b9be
00000080: 1bbf a13c ad45 013f 3730 623e 1cac 283f
00000090: e8a2 133e df16 543e 2f9d 7f3f 12e3 543f
000000a0: af03 e93e c8b2 f53e 2fd0 f33e 909d 0b3f
000000b0: 408e 883e 1732 44bd 6141 283f 1237 4bbd
000000c0: 1a62 253e 8bde 3ebf 7c37 ee3e 9db2 cbba
000000d0: beb6 093f 3ed8 0bbf f8d2 c7bc 2016 7a3f
000000e0: 6d24 053d ce9d fa3e 635c f33e 645f 0ebd
000000f0: 8c1c 42bf 2c05 03bb a82f 433e c7cb 9fbb
00000100: 7b14 513f 8411 8e3e 1ff8 213e dd1a 373e
00000110: 2722 d2be 958f 423e b6db 21bf 31fe fb3e
00000120: 1716 273f 4b65 fa3e 4f02 e9bb 85a0 213f
00000130: de4c c5bc 25a3 b53d 1791 db3e 2215 3bbf
00000140: e836 fb3e 1a50 31bd 4670 de3e 16b5 003f
00000150: 8b8b 073b acf4 503f 5c3c 3f3f b225 2ebc
00000160: 7d53 db3e 23e5 2a3e 0310 9e3e 71b6 033f
00000170: 8610 cc3d e847 413e 3bed 113e 97bc 043f
00000180: 6a19 183e 99f3 81bc bfff da3e 1c2e 663e
00000190: 918e 043f 8c05 6b3f b66d 60bb 6557 dc3e
000001a0: d69c 5fbd 0138 c93e 8228 f4bc 7625 da3d
000001b0: df47 b33c c62c 6bbf be34 283e a534 763f
000001c0: 8769 bebe 1d30 633e 47c8 43be 075e 233f
000001d0: e5bd 003f 54eb 7d3e 1e89 623e d9d1 0e3f
000001e0: 56c5 9c3e 685f 0f3e 0cd3 353d 92da 42bf
000001f0: 67ab 3b3e 9d83 f03e 8187 503d b5cf 2d3f
00000200: 4579 1ebc b513 eb3e f401 0080 954e ddbb
00000210: 5865 9a3e 51e7 1c3f ea65 ad3e 5416 013f
00000220: 1623 293f 523d 2a3f 0cfd bd3e ef2a 53b7
00000230: c254 413f 1701 563e f782 4e3a ab3e bbbe
00000240: c3cc 06be c073 f33e ac6c 213f bdb3 34bc
00000250: c73d d33e 2bf9 233e 20d1 063f 6214 c23f
00000260: 8907 263f ae34 153f 5280 d93e 6e18 103e
00000270: d765 22bd da77 15bf a378 403f 5643 413f
00000280: 5e4a bf3e 085f 853b 3e48 04bd 2658 c9be
00000290: 61dd e83e f02e dcbc 0b82 7e3f fac5 60bd
000002a0: dafc 093f bbb2 203f 72d0 da3e 502d 25bc
000002b0: 3875 65bd fb02 46bf 6d00 e53e a37c 81bd
000002c0: a2bd b03e be62 dc3d c75b 3d3f e068 8a3f
000002d0: 1ac1 00bb 39e0 b83d 7fe4 423e 7a32 173f
000002e0: b527 a93d c8c5 d43e eb7a 053d f33b 4dbe
000002f0: c252 f43e f811 ee3e f0e7 af3f f88e c73e
00000300: f7fd 623f 02e0 0fbd 8ee0 19bf d578 883f
00000310: 7c14 303e 282a 913d a47e 2a3f e4cb dd3e
00000320: 65fc 84bc 22f8 b33e b202 033f 2eec 883d
00000330: 423d 933d d020 0d3f 90f6 973f f372 0d3b
00000340: 09b5 503f d8b9 fe3e 32bc 613e 02cb 1f3f
00000350: 8568 a73e 5764 1dbf c9ff 393f f9e3 dd3e
00000360: 3dd2 8b3e 8831 2c3f a104 f9bc 0df3 00bf
00000370: eb9b 603f eec2 82bd 2a27 c03e ead7 903c
00000380: b4d3 7a3f 6a41 e3bd 498d 673f a0f2 553f
00000390: 4865 343e eeab 36be 34d5 ee3e b44c 003f
000003a0: 1787 973e b165 653e 060d 6e3f 2bd9 da3e
000003b0: 2b9d 3c3e cd3d f53d e181 1e3f 6239 e3b8
000003c0: 0f07 5c3d 81e0 f93e 7fe2 223e 2c47 423e
000003d0: 3ed0 80be ee1a 933e eb44 2c3e 6fac ab3e
000003e0: be26 a33c 3e3d 3b3e addd de3d a008 f43e
000003f0: b1fa f13e 85d5 a73e d3f7 1f3f d384 8e3f
-0.48156992 0.15959254 0.28539854 0.42277917 0.4662131 0.19827586 -0.28089324 0.02953987
0.94990546 0.50088835 -0.0062054303 0.4449223 0.3132249 0.17004085 -0.05704294 0.0979673
0.20279753 0.33039618 0.18733847 0.18260281 0.20758687 0.18616095 -0.04834663 0.16591361
0.35820863 0.44500032 -0.6881734 0.39164475 0.47239527 0.054999102 0.5267608 -0.36186165
0.019744447 0.5049694 0.22088705 0.6588762 0.14417613 0.2071185 0.9984922 0.8315898
0.45510623 0.47987962 0.4761977 0.54537296 0.26671028 -0.047899332 0.6572476 -0.049613066
0.16150704 -0.74558324 0.46526706 -0.0015540902 0.5379447 -0.54626834 -0.02439259 0.9769001
0.03250544 0.4894852 0.47531423 -0.03475894 -0.7582481 -0.0019992096 0.19061148 -0.004876587
0.81671876 0.27747738 0.15817307 0.17881341 -0.4104168 0.19000085 -0.6322588 0.4921737
0.6526808 0.48905405 -0.007110871 0.6313556 -0.024084505 0.08869008 0.42884132 -0.7307912
0.49065328 -0.04328928 0.43445033 0.50276315 0.002068254 0.8162334 0.74701476 -0.010629104
0.42837134 0.16688971 0.3087159 0.5145026 0.09964089 0.18875086 0.14250652 0.51850265
0.14853445 -0.015863227 0.42773244 0.22478527 0.5178004 0.9180534 -0.003424508 0.43035427
-0.05459293 0.3930054 -0.029804472 0.10651676 0.021884857 -0.91865194 0.1642637 0.9617408
-0.37189886 0.22186323 -0.19119368 0.6381535 0.50289756 0.24796802 0.22122619 0.5578895
0.30619305 0.14001238 0.044390723 -0.7611476 0.18327104 0.46975413 0.050910477 0.6789506
-0.009672468 0.45913473 -7e-43 -0.0067537525 0.30155444 0.6129046 0.33866817 0.50424695
0.6606916 0.6649982 0.37107122 -1.2586576e-05 0.75519955 0.20898853 0.00078777916 -0.3657125
-0.13164048 0.47549248 0.63056445 -0.011029181 0.4125807 0.16013019 0.5266285 1.516247
0.6485525 0.5828351 0.42480713 0.14071819 -0.039647903 -0.58386004 0.7518408 0.7549337
0.37361425 0.0040701665 -0.032295458 -0.39325064 0.454814 -0.02687785 0.9941718 -0.054876305
0.53901446 0.6277272 0.42737156 -0.010081604 -0.05601999 -0.773483 0.44726887 -0.06322601
0.34519678 0.10761021 0.73968166 1.0813255 -0.0019646348 0.09027142 0.19032477 0.59061396
0.08259527 0.41557145 0.032587927 -0.200424 0.4771939 0.46498084 1.3742657 0.38976264
0.8866877 -0.03512574 -0.6010827 1.0661875 0.17195314 0.07088119 0.6659949 0.4331962
-0.016233632 0.35150248 0.5117599 0.06685673 0.071894184 0.5512819 1.187212 0.0021583408
0.8152624 0.49751163 0.22044447 0.6241914 0.3269693 -0.6148123 0.7265592 0.43337992
0.27308837 0.6726308 -0.030397715 -0.50370866 0.8773791 -0.06384836 0.3752988 0.01768108
0.97979283 -0.11096461 0.9044996 0.8357334 0.1761676 -0.17839023 0.46647036 0.5011704
0.29595253 0.22402073 0.9298862 0.4274381 0.1841933 0.11974678 0.6191693 -0.00010834892
0.05371767 0.48804095 0.15906714 0.18972462 -0.25158876 0.28731483 0.16823165 0.33529994
0.019915935 0.18285081 0.10882125 0.4766283 0.47261575 0.3278009 0.62487525 1.1134285
