trained_data/nowalls/critic_ddpg.pth (torch, 506930 bytes, 11 tensors)

fc1.weight f4 [400, 6]
0	0x3e817159	0.2528179
1	0xbd7883f5	-0.06067272
2	0xbf06d813	-0.52673453
3	0x3f4006ff	0.75010675
4	0xbf225e3c	-0.6342504
5	0xbe019ffd	-0.12658687
6	0x3e79eaa3	0.24405913
7	0xbd5f5eed	-0.054533888
8	0xbf042734	-0.5162232
9	0x3f3f8de9	0.7482591
10	0xbf1c0b15	-0.6095441
11	0xbddb6efb	-0.10714527
12	0xbceb0553	-0.028689062
13	0x3e4a67f5	0.19766219
14	0xbf90c6a8	-1.1310625
15	0x4001b635	2.026746
16	0x3d85e409	0.06537635
17	0xbf437226	-0.7634605
18	0x3e8eb3c2	0.2787152
19	0xbda200f2	-0.079103366
20	0xbf08a175	-0.53371364
21	0x3f3e6e8c	0.7438743
22	0xbf1ba4c1	-0.6079827
23	0xbe3be668	-0.18349612
24	0x3d84d158	0.06485242
25	0x3ddfbc5f	0.10924601
26	0xbff4b5ca	-1.9117978
27	0x3e885181	0.26624683
28	0xbf2642ea	-0.6494585
29	0xbde96c76	-0.113976404
30	0x3e80f49a	0.25186616
31	0xbd75e6c1	-0.060034517
32	0xbf06c997	-0.5265135
33	0x3f35a7bc	0.7095907
34	0xbf1bb45b	-0.60822076
35	0xbdf90c9d	-0.12160609
36	0x3e7c9f80	0.2467022
37	0xbd67d1eb	-0.056596678
38	0xbf036b14	-0.51335263
39	0x3f396bd0	0.72430134
40	0xbf17a5f1	-0.5923758
41	0xbdde7946	-0.10862975
42	0x3e75abae	0.23991272
43	0xbd54aa09	-0.05191997
44	0xbf0565de	-0.5210856
45	0x3f3f7fc1	0.7480431
46	0xbf1c1ffb	-0.609863
47	0xbdc66e97	-0.09689062
48	0x3e81c754	0.25347388
49	0xbd940459	-0.07227392
50	0xbf0ac757	-0.5421042
51	0x3f3b55ff	0.73178095
52	0xbf211472	-0.6292182
53	0xbdf3c300	-0.11902428
54	0x3e7a6d25	0.24455698
55	0xbd60540a	-0.054767646
56	0xbf05ea26	-0.5231041
57	0x3f3cb188	0.7370839
58	0xbf1d8b77	-0.6154093
59	0xbddd4321	-0.108038194
60	0x3e8e01ee	0.27735847
61	0xbda01907	-0.078172736
62	0xbf085944	-0.5326121
63	0x3f3cb557	0.737142
64	0xbf1b8590	-0.60750675
65	0xbe36cd04	-0.17851645
66	0x3e7d9582	0.24764064
67	0xbd69cab2	-0.05707807
68	0xbf01e9ac	-0.5074718
69	0x3f4a1c8e	0.7894982
70	0xbf249684	-0.6429217
71	0xbdf2caeb	-0.1185511
72	0x3e758054	0.23974735
73	0xbd51e7cf	-0.05124646
74	0xbf066243	-0.52493685
75	0x3f412ce7	0.7545914
76	0xbf1e6335	-0.6187013
77	0xbdcada85	-0.099049605
78	0x3e87f570	0.2655444
79	0xbd923784	-0.07139495
80	0xbf081e7d	-0.5317152
81	0x3f3ed477	0.74542946
82	0xbf1c562d	-0.61068994
83	0xbe0dc1b1	-0.13843419
84	0x3e5d0d49	0.21587099
85	0xbd0632a1	-0.032763127
86	0xbf026815	-0.50940067
87	0x3f370b8e	0.71502006
88	0xbf21a365	-0.63139945
89	0xbd44447c	-0.047916874
90	0x3e82330a	0.25429565
91	0xbd7ef484	-0.062244907
92	0xbf06d383	-0.5266649
93	0x3f3b85da	0.73251116
94	0xbf1dbea7	-0.6161904
95	0xbe03e860	-0.12881613
96	0x3e6c047f	0.2304859
97	0xbd35c559	-0.04437766
98	0xbf033817	-0.5125746
99	0x3f3e565e	0.74350536
100	0xbf1cccf5	-0.6125024
101	0xbda09e53	-0.07842698
102	0x3e89b8e0	0.2689886
103	0xbd940d31	-0.072290786
104	0xbf082595	-0.53182346
105	0x3f3dc178	0.74123335
106	0xbf1ce08b	-0.61280125
107	0xbe24e944	-0.16104609
108	0x3d50d500	0.050984383
109	0x3e15d135	0.14630587
110	0xbf9d1cd4	-1.2274423
111	0x3fa16ade	1.2610738
112	0xbfce509a	-1.6118348
113	0xc0451a7a	-3.079741
114	0x3e69af33	0.2282074
115	0xbd2de599	-0.04245529
116	0xbf04ab83	-0.51824206
117	0x3f2d35da	0.67660296
118	0xbf176114	-0.59132504
119	0xbd8ff4e5	-0.07029132
120	0x3e82c34e	0.2553963
121	0xbda76567	-0.08173638
122	0x3ed726f4	0.42021906
123	0xbfae76d5	-1.3630015
124	0xbfb4bee3	-1.4120754
125	0xbe8effd5	-0.2792956
126	0x3e5dbb91	0.21653582
127	0xbd09efc6	-0.03367593
128	0xbf01e64b	-0.50742024
129	0x3f3c6551	0.73592097
130	0xbf19f3f5	-0.60137874
131	0xbd4fe3f1	-0.05075449
132	0x3e81c736	0.25347298
133	0xbd7b7ba7	-0.06139722
134	0xbf06b0c5	-0.5261348
135	0x3f3e3833	0.74304503
136	0xbf1db8a6	-0.61609876
137	0xbe012b1f	-0.12614106
138	0x3e3d2865	0.1847244
139	0xbbe9c6c1	-0.007134289
140	0xbefe846e	-0.4971041
141	0x3f3134f6	0.69221437
142	0xbf20dea4	-0.6283972
143	0x3c17f8c5	0.00927562
144	0x3e197a70	0.14988112
145	0x3cc4a2d8	0.024003431
146	0xbefa056f	-0.4883227
147	0x3f1ae780	0.6050949
148	0xbf0f5f79	-0.56005055
149	0x3d8849c7	0.06654697
150	0x3e443e4c	0.1916439
151	0xbc57058c	-0.013123881
152	0xbf00d088	-0.50318193
153	0x3f374abc	0.7159841
154	0xbf21f9ea	-0.63271964
155	0xbb60f28d	-0.003432426
156	0x3e767b5c	0.24070495
157	0xbd58099b	-0.052743535
158	0xbf0573df	-0.5212993
159	0x3f3f05bd	0.7461813
160	0xbf19f861	-0.6014462
161	0xbdce12b5	-0.10062162
162	0x3e730fdd	0.2373652
163	0xbd554949	-0.052071843
164	0xbf05a618	-0.52206564
165	0x3f3e90a0	0.7443943
166	0xbf1ef92b	-0.6209895
167	0xbdc36b1d	-0.095419146
168	0x3e33989b	0.17538683
169	0x3a66c44f	0.0008803056
170	0xbefc428d	-0.49269524
171	0x3f3018fd	0.6878813
172	0xbf1f0510	-0.621171
173	0x3ccb3fe3	0.024810737
174	0x3d8d3c9c	0.06896326
175	0x3dd46576	0.10370915
176	0xbfaba8bf	-1.3410872
177	0x3fe269ba	1.7688515
178	0xbfd8da69	-1.6941653
179	0xc0a321b1	-5.0978627
180	0x3e8ae3f0	0.27127028
181	0xbd979c54	-0.07402864
182	0xbf047dbd	-0.5175436
183	0x3f43a017	0.7641615
184	0xbf21d41c	-0.6321428
185	0xbe2ae6b8	-0.16689575
186	0x3c123537	0.00892382
187	0x3e26ac83	0.16276745
188	0x3dd34680	0.10316181
189	0xbf5d4c62	-0.86444676
190	0x3ecec7e6	0.40386885
191	0x3eef3ef2	0.4672771
192	0x3e10a5f2	0.14125803
193	0x3c5a214a	0.013313601
194	0xbff3c62f	-1.9044856
195	0x3ff63cb8	1.923728
196	0xc0087cf1	-2.1326258
197	0xbf828721	-1.0197488
198	0x3e45de36	0.19323048
199	0xbdc32370	-0.095282435
200	0x3ffb04fd	1.9610897
201	0x40100cbc	2.2507772
202	0x3f43afe4	0.7644026
203	0x40592341	3.3927767
204	0x3e868737	0.26275036
205	0xbd8b19b3	-0.06792011
206	0xbf0742a1	-0.5283604
207	0x3f3e4477	0.7432322
208	0xbf1c3e39	-0.61032444
209	0xbe17d4b6	-0.14827237
210	0x3e79a9f8	0.24381244
211	0xbd81591a	-0.06315823
212	0xbf033443	-0.5125162
213	0x3f356200	0.7085266
214	0xbf258a3f	-0.6466407
215	0xbd9ead9d	-0.07747958
216	0x3e5923fb	0.21205132
217	0xbcf5f060	-0.030021846
218	0xbf0243bd	-0.5088461
219	0x3f3db693	0.7410671
220	0xbf1e7f58	-0.6191306
221	0xbd2b104c	-0.04176359
222	0x3e74270e	0.23843023
223	0xbd4e1742	-0.05031515
224	0xbf0528b6	-0.52015245
225	0x3f40b23c	0.75271964
226	0xbf1d69d2	-0.61489594
227	0xbdc54132	-0.09631576
228	0x3e87f3c7	0.26553175
229	0xbd8ee4d0	-0.06977236
230	0xbf0a53a6	-0.5403389
231	0x3f3ca897	0.7369475
232	0xbf1e9afa	-0.61955225
233	0xbe1b8fc3	-0.1519156
234	0x3e7ba35c	0.24574035
235	0xbd6377a6	-0.055534028
236	0xbf07cb32	-0.53044426
237	0x3f386362	0.72026646
238	0xbf1db940	-0.61610794
239	0xbddfd6d4	-0.10929647
240	0x3e12ed95	0.14348443
241	0x3cf193fd	0.029489512
242	0xbedb0dd3	-0.42783985
243	0x3f276572	0.6538917
244	0xbf16a023	-0.588381
245	0x3d93b9f5	0.07213203
246	0x3e7bf340	0.24604511
247	0xbd658278	-0.056032628
248	0xbf05613e	-0.52101505
249	0x3f3f7f44	0.74803567
250	0xbf19da2a	-0.60098517
251	0xbde3cf94	-0.11123577
252	0x3e66e604	0.22548681
253	0xbd291176	-0.041276418
254	0xbee9f262	-0.45692736
255	0x3f2a764f	0.66586775

fc1.bias f4 [400]
0	0xbf230888	-0.6368489
1	0xbf239cd2	-0.63911164
2	0x3f91348a	1.1344159
3	0xbf1dd579	-0.6165386
4	0xbf316dd4	-0.6930821
5	0xbf24e249	-0.64407784
6	0xbf25eb9a	-0.64812624
7	0xbf258193	-0.6465084
8	0xbf276063	-0.6538145
9	0xbf249318	-0.6428695
10	0xbf204df1	-0.6261893
11	0xbf207c6a	-0.6268984
12	0xbf271912	-0.6527263
13	0xbf218e2b	-0.63107556
14	0xbf2dc6e5	-0.67881614
15	0xbf234ccf	-0.63789076
16	0xbf2776cf	-0.6541566
17	0xbf20f978	-0.6288066
18	0x3fd247cb	1.642816
19	0xbf2a6702	-0.6656343
20	0x3f19c47e	0.6006545
21	0xbf2b819d	-0.6699465
22	0xbf233b2e	-0.63762176
23	0xbf3316b2	-0.69956505
24	0xbf38364d	-0.71957856
25	0xbf30e924	-0.69105744
26	0xbf252ad4	-0.64518476
27	0xbf27418b	-0.65334386
28	0xbf34612c	-0.7046077
29	0x3fe456f3	1.7839035
30	0xbf1dc2c7	-0.6162533
31	0xbfb98790	-1.4494495
32	0x3fe51911	1.7898275
33	0x400b2ee5	2.1747372
34	0xbf202bf7	-0.62567085
35	0xbf26b86b	-0.6512515
36	0xbf2d09f2	-0.675933
37	0xbf25ffd5	-0.64843494
38	0xbf24aac1	-0.6432305
39	0xbf25e295	-0.6479886
40	0xbf2dd62c	-0.67904925
41	0xbf248fe6	-0.6428207
42	0xbf25210d	-0.64503556
43	0xbf21da4c	-0.6322372
44	0xbf25120a	-0.6448065
45	0xbf23315e	-0.63747203
46	0x3f9b7f80	1.2148285
47	0xbd4f1014	-0.050552443
48	0xbf37c3ee	-0.7178334
49	0xbf29ca16	-0.66323984
50	0xbff0f409	-1.8824474
51	0xbf807d41	-1.0038224
52	0xbf210878	-0.6290355
53	0xbf2659f7	-0.64981025
54	0xbf25e164	-0.64797044
55	0xbf20be30	-0.62790203
56	0xbf2a460f	-0.6651315
57	0xbf0a7276	-0.54080904
58	0xbf229799	-0.6351257
59	0xbf82033d	-1.0157238
60	0xbf2861ea	-0.65774405
61	0x3e24bfbb	0.16088764
62	0xbf20065d	-0.6250971
63	0xbf1db394	-0.6160214
64	0xbf2e2faa	-0.6804148
65	0xbf36e0e2	-0.71436894
66	0xbf4d0607	-0.8008732
67	0x3e33438e	0.17506239
68	0xbc4956f4	-0.012288798
69	0xbf1e21a7	-0.617701
70	0xbf24b90f	-0.64344877
71	0xbf34c85e	-0.70618236
72	0x4012dd84	2.2947702
73	0xbf30cf31	-0.6906615
74	0xbf231568	-0.6370454
75	0xbf22285e	-0.63342845
76	0xbf2242c5	-0.6338313
77	0xbf9f0b7f	-1.2425383
78	0xbf37279f	-0.7154483
79	0xbf2071a8	-0.62673426
80	0xbf28f4e6	-0.65998685
81	0xbf2d6c8b	-0.6774375
82	0xbf26374e	-0.6492814
83	0xbf15c322	-0.58500874
84	0xbf1f0edb	-0.6213204
85	0x402d8c43	2.711686
86	0xbf2051b2	-0.6262466
87	0xbf24d58a	-0.64388335
88	0xbf1dd598	-0.61654043
89	0x3fab51f6	1.3384387
90	0xbf289c06	-0.6586307
91	0xbf253d9c	-0.64547133
92	0xbf2ec2a4	-0.6826575
93	0xbf652949	-0.8951612
94	0xbf22e9d9	-0.63638073
95	0xbf214ead	-0.63010675
96	0xbf22f977	-0.63661903
97	0xbf98c045	-1.1933676
98	0xbf1e32ac	-0.6179607
99	0xbdcf3024	-0.10116604
100	0xbf262ea4	-0.6491492
101	0xbedf6251	-0.43629697
102	0xbfdde7fb	-1.733642
103	0xbf26031d	-0.648485
104	0xbf26cf5b	-0.6516015
105	0xbf22c7f7	-0.6358637
106	0xbf20af0f	-0.6276712
107	0xbf26133e	-0.6487311
108	0xbf24aa2d	-0.6432217
109	0xbf278de2	-0.6545087
110	0xbf2b5405	-0.6692508
111	0xbf30e490	-0.6909876
112	0xbf27a0dd	-0.6547983
113	0xbf1f05e0	-0.6211834
114	0xbf237c3b	-0.63861436
115	0xbf1ef947	-0.6209912
116	0xbf3615e5	-0.7112716
117	0xbf30b140	-0.6902046
118	0xbf24bb7c	-0.6434858
119	0xbf2600c9	-0.6484495
120	0xbf27776c	-0.654166
121	0xbf23968f	-0.6390161
122	0xbf231724	-0.63707185
123	0xbf16fdd1	-0.58981043
124	0xbf0d2326	-0.5513176
125	0xbf2f361e	-0.6844195
126	0xbf2345fd	-0.6377867
127	0xbf24a402	-0.64312756
128	0xbf2f38dd	-0.6844614
129	0xbf24b7a7	-0.6434273
130	0xbf3c055d	-0.73445684
131	0xbf2418aa	-0.64100134
132	0xbf28bb82	-0.65911114
133	0xbf30635b	-0.68901604
134	0xbf20f80f	-0.6287851
135	0xbf238bbc	-0.6388509
136	0xbf2c7826	-0.6737083
137	0xbf1e7449	-0.6189619
138	0xbf2d2f80	-0.67650604
139	0xbf221e1b	-0.6332719
140	0xbf207f77	-0.62694496
141	0xbf23801e	-0.63867366
142	0xbf35f6aa	-0.71079504
143	0xbf2a28ec	-0.6646869
144	0xbf1e524f	-0.6184434
145	0xbf252dbf	-0.6452293
146	0xbf84660f	-1.0343646
147	0xbf3109b8	-0.69155455
148	0xbf25fce0	-0.6483898
149	0xbf27b6f9	-0.6551357
150	0xbf336ca9	-0.7008768
151	0xbf2291be	-0.63503635
152	0x3f888409	1.0665294
153	0xbf4dbacb	-0.8036315
154	0xbf28ce57	-0.6593985
155	0xbf229088	-0.6350179
156	0xbf21ff66	-0.6328033
157	0xbf252d34	-0.645221
158	0xbf256653	-0.6460926
159	0x3fb84c55	1.4398295
160	0xbf338612	-0.7012645
161	0xbf224d79	-0.63399464
162	0xbf492f94	-0.78588223
163	0xbe9fe48a	-0.3122905
164	0xbf1fee11	-0.62472636
165	0xbf24671b	-0.64219826
166	0xbf2836e6	-0.6570877
167	0xbf31847e	-0.6934279
168	0xbf63bcf8	-0.8896022
169	0xbfa20535	-1.2657839
170	0xbf20068d	-0.62509996
171	0xbf2cf46f	-0.67560476
172	0xbf0c9dfc	-0.54928565
173	0x3f8ceec6	1.1010368
174	0xbf54ffd1	-0.83202845
175	0xbf267e7a	-0.6503674
176	0xbe858c92	-0.2608381
177	0xbf2477a8	-0.6424508
178	0xbf123619	-0.57113796
179	0xbf2cbe65	-0.6747802
180	0xbf2b8550	-0.67000294
181	0xbf1fc9d8	-0.62417364
182	0xbf233cc2	-0.63764584
183	0xbf504255	-0.81351215
184	0xbf293aaa	-0.6610514
185	0xbf327160	-0.69704247
186	0xbf210743	-0.62901706
187	0xbf245079	-0.6418529
188	0xbf28a2ea	-0.6587359
189	0xbf29ba9a	-0.66300356
190	0xbf261e40	-0.6488991
191	0xbf278ad3	-0.65446204
192	0xbf2a94eb	-0.6663348
193	0xbf22d922	-0.6361257
194	0xbf28cea9	-0.6594034
195	0xbfd095af	-1.629568
196	0xbf26d026	-0.6516136
197	0xbf27812c	-0.65431476
198	0xbf22b405	-0.6355594
199	0x3f3b2dd8	0.73116827
200	0xbf2b47f5	-0.6690667
201	0xbf5cab5c	-0.86198974
202	0xbf2b0533	-0.6680481
203	0xbf30216c	-0.68801
204	0xbf2b0dd9	-0.66818005
205	0xbf271a55	-0.65274554
206	0xbf2dfca5	-0.6796363
207	0xbf265463	-0.64972514
208	0xbf2e1c78	-0.6801219
209	0xbf217ddf	-0.6308269
210	0x3fdd9829	1.731206
211	0xbf24b2d1	-0.6433535
212	0x3ebdccc1	0.37070277
213	0xbf4ba698	-0.79551077
214	0xbf2303ce	-0.6367768
215	0xbf21b7f2	-0.63171303
216	0x3f8491f8	1.0357046
217	0xbf2eee8b	-0.6833274
218	0xbf281e00	-0.65670776
219	0xbf86e939	-1.0539924
220	0x3f5a7399	0.8533264
221	0xbf3750a0	-0.716074
222	0x3fa2d361	1.2720758
223	0xc038d1cb	-2.8878047
224	0xbf3ba205	-0.732941
225	0xbf1fa395	-0.6235898
226	0xbf2ddb72	-0.6791297
227	0xbf2851d5	-0.65749866
228	0xbf245cc2	-0.6420404
229	0xbf08bd07	-0.5341343
230	0xbf23e100	-0.640152
231	0xbf280428	-0.6563134
232	0xbf229579	-0.6350933
233	0x3d568f1e	0.05238258
234	0xbf2ef2ca	-0.68339217
235	0xbf24fcad	-0.6444805
236	0x3fe47575	1.7848345
237	0xbf23d9b9	-0.64004093
238	0xbf2fe79e	-0.68712795
239	0xbf3ef79f	-0.7459659
240	0xbf37c6fd	-0.7178801
241	0xbf2a5450	-0.665349
242	0xbf2c6c36	-0.67352617
243	0xbf32ff3c	-0.69920707
244	0xbe8f0158	-0.27930713
245	0xbf2e9027	-0.6818871
246	0xbf272571	-0.65291506
247	0xbf2ebc59	-0.68256146
248	0xbf2721b3	-0.65285796
249	0xbf24f4d3	-0.6443607
250	0xbfaa68b8	-1.3313208
251	0xbf2ab733	-0.6668579
252	0xbee8026c	-0.45314348
253	0xbf23519d	-0.63796407
254	0xc0330cba	-2.7976518
255	0x3f045556	0.5169271

fc2.weight f4 [300, 400]
0	0x8000015f	-4.92e-43
1	0x80000160	-4.93e-43
2	0x3ddb221a	0.10699864
3	0x80000160	-4.93e-43
4	0xbdeaedf7	-0.114711694
5	0x00000160	4.93e-43
6	0x9e6fb0fb	-1.2689153e-20
7	0xbc0c10ae	-0.008548899
8	0x3b6575e9	0.0035012907
9	0x00000160	4.93e-43
10	0x00000160	4.93e-43
11	0x00000160	4.93e-43
12	0x800001bb	-6.21e-43
13	0xba858a53	-0.0010188319
14	0x80000162	-4.96e-43
15	0x3bb3aa9c	0.0054829847
16	0x00000161	4.95e-43
17	0x0000015f	4.92e-43
18	0x3de90ba4	0.113791734
19	0xbaa61c7b	-0.0012673283
20	0x3d4d5113	0.050126147
21	0x8000015f	-4.92e-43
22	0xb822ddd0	-3.883039e-05
23	0x0000016a	5.07e-43
24	0x00000160	4.93e-43
25	0x80000161	-4.95e-43
26	0xbd107172	-0.03526444
27	0xbbed6c44	-0.0072455723
28	0x80000160	-4.93e-43
29	0x3e080b1d	0.1328549
30	0xbb6d7daa	-0.0036238232
31	0xbcd17d92	-0.025572572
32	0x3e48c76e	0.19607326
33	0x3e589610	0.21150994
34	0x8000015f	-4.92e-43
35	0x3d6bed72	0.057599492
36	0x00000162	4.96e-43
37	0x80000183	-5.42e-43
38	0x80000161	-4.95e-43
39	0x80000160	-4.93e-43
40	0x0000015f	4.92e-43
41	0x0000015f	4.92e-43
42	0xbb41c9d2	-0.0029569757
43	0x00000160	4.93e-43
44	0x32082ceb	7.926455e-09
45	0x00000160	4.93e-43
46	0x3dda5f95	0.10662762
47	0x3dc7395e	0.09727739
48	0xbadabbfb	-0.0016688103
49	0x383f5180	4.561385e-05
50	0xbd705d83	-0.05868293
51	0x3e20a7f0	0.15689063
52	0x3bc53bb2	0.006019079
53	0x8000015f	-4.92e-43
54	0x80000160	-4.93e-43
55	0x19122195	7.554805e-24
56	0x8000015f	-4.92e-43
57	0x3ceae98f	0.028675823
58	0x00000161	4.95e-43
59	0x3c939e8e	0.01801994
60	0x3c6cdade	0.014456479
61	0xbeb979ad	-0.36225644
62	0x210d5f22	4.7898565e-19
63	0x28ec56e3	2.6238944e-14
64	0x80000161	-4.95e-43
65	0x18c0e3a1	4.9860683e-24
66	0xae9af5f2	-7.046798e-11
67	0x3df4b8bf	0.119493
68	0x3da0f1de	0.078586325
69	0xbcdf73a3	-0.02727682
70	0x80000160	-4.93e-43
71	0x3bdc6bf3	0.0067267357
72	0x3e66fc62	0.22557214
73	0x80000162	-4.96e-43
74	0x8000015f	-4.92e-43
75	0x3c33dc61	0.010977835
76	0x00000161	4.95e-43
77	0x3dc5dfda	0.09661837
78	0x3c24e3b0	0.010064051
79	0x00000160	4.93e-43
80	0x00000160	4.93e-43
81	0x00000160	4.93e-43
82	0x80000160	-4.93e-43
83	0xbd3684f5	-0.04456039
84	0x0000015f	4.92e-43
85	0x3daad2f1	0.08341015
86	0x3be440c7	0.00696573
87	0x33db2980	1.0205531e-07
88	0x80000161	-4.95e-43
89	0x3e960acf	0.2930512
90	0xb1b878fa	-5.3688582e-09
91	0x3cf64515	0.030062238
92	0x217ceba3	8.5692784e-19
93	0xba37b87a	-0.0007008385
94	0x00000160	4.93e-43
95	0x80000161	-4.95e-43
96	0x0000015f	4.92e-43
97	0x3d2951cf	0.041337784
98	0x80000160	-4.93e-43
99	0xbabbfd4d	-0.0014342457
100	0x00000162	4.96e-43
101	0xbd14ffc6	-0.036376737
102	0x3bfcfe81	0.007720769
103	0x80000164	-4.99e-43
104	0xa19e0be2	-1.0709642e-18
105	0x80000161	-4.95e-43
106	0x3c88698e	0.016651895
107	0x0a06123b	6.455294e-33
108	0x80000162	-4.96e-43
109	0x00000160	4.93e-43
110	0x80000160	-4.93e-43
111	0x28162a42	8.335836e-15
112	0x80000160	-4.93e-43
113	0x800001b8	-6.17e-43
114	0xbd0173e5	-0.031604666
115	0x80000161	-4.95e-43
116	0xa93be39e	-4.1719768e-14
117	0xbc345beb	-0.011008243
118	0x3b43de6a	0.0029887208
119	0x00000160	4.93e-43
120	0x00000160	4.93e-43
121	0x806ac3c8	-9.804796e-39
122	0x39a7686e	0.00031930528
123	0x00000162	4.96e-43
124	0xbcec8a14	-0.028874435
125	0x80000160	-4.93e-43
126	0x9c858ac5	-8.837073e-22
127	0x00000192	5.63e-43
128	0x3094d12a	1.0827865e-09
129	0x3bf06c2f	0.0073371152
130	0xbadd7a87	-0.0016897478
131	0xb7953671	-1.7787535e-05
132	0xb7875ad7	-1.6135555e-05
133	0x3700b772	7.672106e-06
134	0x31d18f93	6.099023e-09
135	0x0000015f	4.92e-43
136	0x9c3332a7	-5.92916e-22
137	0x3a4124d5	0.0007367854
138	0xac0702a1	-1.9186113e-12
139	0x00000161	4.95e-43
140	0x9a3d1c9f	-3.9107404e-23
141	0x2d076c36	7.697889e-12
142	0x00000162	4.96e-43
143	0x00000161	4.95e-43
144	0x3b4b44c4	0.003101633
145	0x1e1376c7	7.806678e-21
146	0xbe16aa40	-0.14713383
147	0x8000015f	-4.92e-43
148	0xb452e62c	-1.964151e-07
149	0x00000162	4.96e-43
150	0xb66a0ef3	-3.4877419e-06
151	0x800001a3	-5.87e-43
152	0x3d0b022f	0.03393763
153	0x00000181	5.4e-43
154	0x00000160	4.93e-43
155	0x00000160	4.93e-43
156	0x00000161	4.95e-43
157	0x35a7f093	1.2512486e-06
158	0x3c49580d	0.012289059
159	0x3e4d6fe9	0.20062222
160	0xbc584aaa	-0.013201395
161	0x3cc9b1e7	0.024620963
162	0xac5fcdc5	-3.180443e-12
163	0x3d9084e3	0.07056596
164	0x80000161	-4.95e-43
165	0x17841754	8.536189e-25
166	0x00000161	4.95e-43
167	0xbaaced9e	-0.0013193374
168	0xbceb08b0	-0.028690666
169	0x3d7f81e4	0.062379733
170	0x8000015f	-4.92e-43
171	0xb170e782	-3.5056194e-09
172	0xbc9e43aa	-0.019319374
173	0x3c9c06a8	0.019046143
174	0x00000162	4.96e-43
175	0x80000160	-4.93e-43
176	0xbda64ecb	-0.08120497
177	0x0000015f	4.92e-43
178	0xbc86224a	-0.016373772
179	0x3c49c137	0.012314132
180	0x36a9e387	5.06308e-06
181	0x0000015f	4.92e-43
182	0x0ff912d3	2.4560547e-29
183	0x8dc34168	-1.2033549e-30
184	0x3c3ce03f	0.011528074
185	0x00000161	4.95e-43
186	0x0000015f	4.92e-43
187	0x00000160	4.93e-43
188	0x00000160	4.93e-43
189	0xb6212fa4	-2.40186e-06
190	0x80000160	-4.93e-43
191	0x8688e949	-5.1500296e-35
192	0xa88495ac	-1.4719854e-14
193	0xbce4b51a	-0.027918387
194	0x3c91794f	0.01775804
195	0xbd0a826d	-0.03381579
196	0x3c97cf27	0.018531395
197	0x80000160	-4.93e-43
198	0x3871a6fc	5.7614394e-05
199	0xbcd6b9ba	-0.026211608
200	0x3b0b7b6e	0.0021283287
201	0xbc07d311	-0.008290068
202	0x00000160	4.93e-43
203	0x00000162	4.96e-43
204	0x80000163	-4.97e-43
205	0x3c91775c	0.01775711
206	0x80028456	-2.31144e-40
207	0x0dce7b36	1.2725392e-30
208	0xbbda2dd3	-0.0066582947
209	0x80000161	-4.95e-43
210	0x3e85e1f3	0.26148948
211	0x800f3115	-1.39514e-39
212	0xbb699014	-0.0035638856
213	0x00000160	4.93e-43
214	0x80000161	-4.95e-43
215	0x8000016e	-5.13e-43
216	0x3d860d4c	0.06545505
217	0xb124a71f	-2.3960138e-09
218	0x0000015f	4.92e-43
219	0xbe0b5cb8	-0.13609588
220	0x3e600284	0.2187596
221	0xbac08936	-0.001468933
222	0x3e709bb9	0.23496903
223	0x3e3fb9c1	0.18723203
224	0x38efc699	0.000114334
225	0x00000160	4.93e-43
226	0xbc83323d	-0.016015166
227	0x0000015f	4.92e-43
228	0x80000161	-4.95e-43
229	0x3e015880	0.12631416
230	0x80000162	-4.96e-43
231	0x3c2cabea	0.010539034
232	0x0000015f	4.92e-43
233	0xbebf15e8	-0.373214
234	0x8000015f	-4.92e-43
235	0x00000160	4.93e-43
236	0xbec5eb94	-0.38656294
237	0x80000161	-4.95e-43
238	0xb4855844	-2.4837402e-07
239	0x000000b3	2.51e-43
240	0x0000015f	4.92e-43
241	0xbcb608ca	-0.022220988
242	0x8000015f	-4.92e-43
243	0x80000160	-4.93e-43
244	0xbd51b6b7	-0.05119964
245	0x80000162	-4.96e-43
246	0x00000161	4.95e-43
247	0x00000161	4.95e-43
248	0x04200323	1.880935e-36
249	0xba069e9c	-0.0005135329
250	0x3cbc3b40	0.022977471
251	0xaaf592f6	-4.3622717e-13
252	0x3cfe2a27	0.03102596
253	0x00000160	4.93e-43
254	0x3eac5975	0.33662
255	0xbd3186d8	-0.043341488

fc2.bias f4 [300]
0	0x3d854c18	0.06508654
1	0xbe337f6f	-0.17529081
2	0x3da84c3c	0.082176656
3	0xbe99daa1	-0.30049613
4	0xbebca752	-0.36846405
5	0x3e8abc77	0.27096912
6	0x3e5c53ff	0.21516417
7	0x3dde8afc	0.10866353
8	0x3ee40382	0.44533926
9	0x3e5dc42e	0.21656868
10	0x3df2108a	0.11819561
11	0x3d32f2dc	0.04368864
12	0x3e52a78a	0.20571724
13	0xbe88abfa	-0.26693708
14	0xbeb02214	-0.34401
15	0x3e384565	0.17995222
16	0x3e55bdc0	0.20873165
17	0xbe8ac6ef	-0.271049
18	0x3df5fdb8	0.12011284
19	0x3e392c52	0.18083313
20	0xbe97511c	-0.2955407
21	0x3e9cb11e	0.3060388
22	0xbe09c535	-0.13454135
23	0xbe73b4ef	-0.2379949
24	0x3e5318b1	0.20614888
25	0x3e5c11b6	0.21491131
26	0x3e48afd6	0.19598326
27	0x3dbc9cb4	0.09209576
28	0xbebf4d82	-0.3736382
29	0x3dae9fe4	0.085265905
30	0x3daaa112	0.08331503
31	0x3da46a01	0.08028031
32	0xbea035bc	-0.31290996
33	0x3d1a68bf	0.03769755
34	0xbecf616f	-0.40504023
35	0xbe40b1bb	-0.18817799
36	0x3e49720b	0.1967241
37	0xbe8d92f3	-0.27651176
38	0x3e2bb51f	0.16768311
39	0x3e08ea57	0.13370644
40	0x3e861e72	0.26195103
41	0xbe91f5b4	-0.2850777
42	0x3e4ad86f	0.19809125
43	0x3e1efde8	0.15526545
44	0xbd11c891	-0.035591666
45	0xbe3c6e0a	-0.18401352
46	0x3e83d0cb	0.25745234
47	0x3e380abb	0.17972843
48	0x3e9f3d57	0.31101486
49	0xbe455a5f	-0.19272755
50	0x3eb86d17	0.3602073
51	0xbd8f7b43	-0.07005932
52	0x3e02bbb8	0.12766922
53	0x3e0878e5	0.13327368
54	0x3e8113e7	0.25210497
55	0x3e1c9289	0.15290274
56	0x3eb0aa4d	0.3450493
57	0x3d8d6346	0.069037005
58	0xbe08d3a8	-0.1336199
59	0xbd99f93d	-0.075182416
60	0xbe2b1db9	-0.16710557
61	0x3ecce174	0.40015757
62	0x3e64481d	0.22293134
63	0x3e0d8f28	0.13824141
64	0x3d8c4bdb	0.06850406
65	0x3ddaf1c5	0.10690645
66	0xbec4122c	-0.38295114
67	0x3e9f4e47	0.31114408
68	0xbce60356	-0.028077763
69	0xbea7170e	-0.32634777
70	0x3ea07794	0.3134123
71	0xbe4e2912	-0.20132855
72	0x3e4e41dd	0.20142312
73	0x3dd1c57e	0.10242747
74	0xbe912ee3	-0.28356084
75	0x3ad7402b	0.0016422322
76	0x3d8e354b	0.069437586
77	0x3d895787	0.06706148
78	0x3e723673	0.23653583
79	0x3ed7f8c9	0.42181996
80	0xbeb954ca	-0.361975
81	0xbd285de1	-0.041105155
82	0x3e2f371e	0.1711087
83	0xbdd762ed	-0.105169155
84	0x3e2ddd35	0.16978915
85	0x3e5ce4e8	0.21571696
86	0x3da8a416	0.08234422
87	0xbeafe92e	-0.3435759
88	0x3eaa6668	0.33281255
89	0x3e53dec3	0.20690446
90	0xbe69f26d	-0.22846384
91	0xbde52944	-0.111895114
92	0x3e644fe0	0.22296095
93	0x3da6a35b	0.08136626
94	0xbc245054	-0.010028917
95	0xbdeea187	-0.11651903
96	0x3de3f820	0.111313105
97	0x3dfd9864	0.12382582
98	0xbd137953	-0.036004376
99	0x3d80acc8	0.062829554
100	0xbe8b1a6f	-0.27168605
101	0x3d240b57	0.040049877
102	0xbe273e4b	-0.16332357
103	0x3e5501b8	0.20801437
104	0xbe23abb2	-0.15983465
105	0x3e713101	0.2355385
106	0x3d125e30	0.035734355
107	0x3d9b8fc4	0.075957805
108	0xbea0f19f	-0.31434342
109	0x3dc6621e	0.09686683
110	0xbe5bcf4c	-0.21465796
111	0x3e60aec1	0.21941663
112	0xbe23731b	-0.15961878
113	0x3bf7ea73	0.0075657903
114	0xbe3b8f6c	-0.1831643
115	0x3e6b3181	0.22968103
116	0x3e44d0cc	0.19220275
117	0x3deb0cab	0.114770256
118	0x3e7bb599	0.24580993
119	0xbdb1031e	-0.08643173
120	0x3e267374	0.1625498
121	0x3ef1fdae	0.47263855
122	0x3e2ad5e7	0.1668316
123	0x3e89c31a	0.26906663
124	0x3eae7ac5	0.3407804
125	0x3d410f24	0.04713358
126	0x3d02d7c8	0.031944066
127	0xbec041f0	-0.37550306
128	0xbea83ada	-0.328574
129	0x3e636904	0.22208029
130	0x3eb0e458	0.34549212
131	0x3b909b31	0.0044130315
132	0x3e99bc76	0.30026597
133	0x3e5aa12a	0.21350542
134	0x3ee8c793	0.45464763
135	0x3e6f6915	0.2337993
136	0xbe403f49	-0.18774141
137	0x3e299eed	0.16564532
138	0x3caed815	0.02134327
139	0x3e4e69fb	0.20157616
140	0x3e6c3b0f	0.23069404
141	0xbe7ee3a4	-0.24891526
142	0xbe971634	-0.29509127
143	0xbe44c7f2	-0.19216898
144	0xbd8645db	-0.065562926
145	0x3e5ae236	0.21375355
146	0xbcd23a85	-0.02566267
147	0xbe4f9bed	-0.20274325
148	0x3d8bf22d	0.06833301
149	0xbcbf04f5	-0.023317793
150	0xbe4026ff	-0.18764876
151	0x3d1e018c	0.038575694
152	0x3d2f3d0c	0.04278283
153	0x3e50ced2	0.20391396
154	0x3d69c803	0.05707551
155	0x3eea34af	0.4574332
156	0x3e415b1c	0.18882412
157	0xbde5c53e	-0.112192616
158	0x3ea50a6f	0.32234523
159	0x3e9ab14a	0.30213386
160	0xbdf57b9a	-0.11986466
161	0x3e319073	0.17340259
162	0x3e50eed7	0.2040361
163	0x3e5863bb	0.21131794
164	0x3e462dad	0.19353361
165	0xbe93e87d	-0.28888312
166	0xb9a1c66f	-0.00030856158
167	0x3dd49d54	0.103815705
168	0xbe44cc32	-0.1921852
169	0x3eca526d	0.3951601
170	0x3e857737	0.26067516
171	0xbe46874c	-0.19387549
172	0x3e8fc254	0.28077948
173	0x3e2a072f	0.16604303
174	0x3eec4f86	0.46154422
175	0x3eca37bb	0.39495644
176	0x3e164289	0.14673819
177	0xbb193613	-0.0023378178
178	0x3de08fde	0.109649405
179	0xbdb08ec6	-0.08620982
180	0x3ecbe94a	0.39826423
181	0x3d9de546	0.07709746
182	0x3d9cac39	0.07650036
183	0xbe94a6a1	-0.29033378
184	0x3ea6695a	0.32502252
185	0xbea2a6c4	-0.31767857
186	0x3e7a3e0d	0.24437733
187	0x3ead7727	0.3387997
188	0xbe3631be	-0.17792413
189	0x3e6434ca	0.22285762
190	0x3e0dc783	0.13845639
191	0x3d78fc9b	0.06078778
192	0xbe235cfa	-0.15953436
193	0xbdb2da86	-0.08733086
194	0xbe873645	-0.26408592
195	0x3e2cff9c	0.16894382
196	0x3dcfe333	0.10150757
197	0x3d5f27c5	0.054481287
198	0x3e81a63d	0.25322142
199	0x3d3df2ef	0.046374258
200	0x3e218d32	0.15776518
201	0x3c2c9c25	0.010535275
202	0x3e6a3475	0.22871573
203	0xbd9b203c	-0.075745076
204	0x3e349582	0.17635158
205	0xbe26344e	-0.1623089
206	0x3e36eb25	0.17863138
207	0x3ddbd4d5	0.10733954
208	0x3e8483d9	0.25881842
209	0x3e995e6c	0.2995485
210	0x3edcb99f	0.43110368
211	0xbea71b97	-0.32638237
212	0x3e237250	0.15961576
213	0x3e5a38fb	0.21310799
214	0xba071448	-0.00051528635
215	0x3dfb39b7	0.122668676
216	0x3e6249e6	0.22098503
217	0x3e507dbb	0.20360462
218	0x3e8d71e9	0.2762597
219	0x3d99ae28	0.07503921
220	0x3e611423	0.21980338
221	0x3ea7ac6c	0.32748735
222	0x3e025f31	0.12731625
223	0xbdb97b5b	-0.09056731
224	0xbe9487b7	-0.29009792
225	0x3ed8e7f7	0.42364475
226	0x3e32882d	0.1743476
227	0x3e88684f	0.2664208
228	0x3ec0e32b	0.37673315
229	0x3ea9fe2b	0.33201727
230	0x3edf7d86	0.43650454
231	0x3d8cb07e	0.06869601
232	0xbda374fa	-0.07981296
233	0x3ea1af8e	0.3157925
234	0x3ed9227f	0.4240913
235	0xbce1f3fa	-0.027582157
236	0x3e3e26ac	0.1856944
237	0xbda477e8	-0.08030683
238	0xbd43a7ee	-0.047767572
239	0x3dcd348c	0.10019788
240	0xbd3c3da1	-0.04595721
241	0xbdb21f0d	-0.08697329
242	0xbe22a4be	-0.15883157
243	0x3c87e4f0	0.016588658
244	0x3e17d813	0.1482852
245	0x3dbd0644	0.09229711
246	0x3ea964dc	0.33084762
247	0x3ee6203c	0.44946468
248	0xbcce9e04	-0.025221832
249	0x3e2bb4d9	0.16768207
250	0xbeaa6ebe	-0.33287615
251	0x3e1f4086	0.15551957
252	0xbe0a36bf	-0.13497446
253	0xbe52311a	-0.20526543
254	0x3e868a46	0.2627737
255	0x3e579ce4	0.21055943

bn1.weight f4 [400]
0	0xa4aa9691	-7.398082e-17
1	0xb91ef891	-0.00015160652
2	0x3f6f58d3	0.9349491
3	0xbbbaa72d	-0.0056961984
4	0x3f115d2f	0.5678281
5	0xbb201536	-0.0024426705
6	0xbb8e189d	-0.00433643
7	0xbb0432f5	-0.0020171974
8	0x3b00e9b1	0.001967054
9	0xb8069b00	-3.2092445e-05
10	0x341fcdfc	1.4882966e-07
11	0xba119150	-0.0005552964
12	0xb6bf77d3	-5.706193e-06
13	0xbb6564d3	-0.0035002723
14	0xb6cc0359	-6.0800635e-06
15	0xbcf021d6	-0.02931301
16	0xbb968ab1	-0.00459417
17	0xb592757e	-1.0912042e-06
18	0x3f6f2fdc	0.934324
19	0xbcce77b0	-0.025203556
20	0x3f6fe3b5	0.9370683
21	0x80000161	-4.95e-43
22	0xbc40205d	-0.011726466
23	0x80000160	-4.93e-43
24	0x80000162	-4.96e-43
25	0xaf29a832	-1.5430215e-10
26	0xbce8a507	-0.028399004
27	0xbc9ccb79	-0.019139992
28	0x0000015f	4.92e-43
29	0x3f6f3a10	0.9344797
30	0xbcbc7c08	-0.023008361
31	0x3eedf6e0	0.46477413
32	0x3f2a51ae	0.66530883
33	0x3f458ec8	0.7717099
34	0xaa98587f	-2.706203e-13
35	0x3d3b9bca	0.04580287
36	0xb3c45af6	-9.143507e-08
37	0xaa203991	-1.4230827e-13
38	0xbabbe876	-0.0014336247
39	0xb90ac1ad	-0.00013232855
40	0x80000162	-4.96e-43
41	0xb94f32f7	-0.00019760044
42	0xbb0bc00a	-0.002132418
43	0xbc40624e	-0.011742188
44	0xbcd56342	-0.026048306
45	0x38db79fe	0.000104654566
46	0x3f574efc	0.84104896
47	0x3e87939a	0.264798
48	0x3c617a8a	0.013762126
49	0x392a6dbe	0.00016253346
50	0x3ed797f7	0.42108127
51	0x3f20af66	0.62767637
52	0xbc808373	-0.01568768
53	0x9403d044	-6.654883e-27
54	0xbaee2f45	-0.0018172046
55	0xbcb1a524	-0.02168519
56	0xba266666	-0.0006347656
57	0x3f1db974	0.61611104
58	0xb2fa020e	-2.9104765e-08
59	0x3f8afdb8	1.0858679
60	0x3cbcf3a3	0.023065394
61	0x4019f3f9	2.405516
62	0xbc408bbf	-0.011752068
63	0xbcd10db8	-0.025519237
64	0x8000015f	-4.92e-43
65	0x3c1003c3	0.008789959
66	0xbb339d0f	-0.0027406847
67	0x3f947526	1.1598251
68	0x3ece97d8	0.40350223
69	0xbc5b63d9	-0.013390505
70	0xaf8d976d	-2.5755345e-10
71	0x3cf6592d	0.03007182
72	0x3f8ebb45	1.11509
73	0x00000160	4.93e-43
74	0xb9e08c45	-0.00042829118
75	0xbce9e8f5	-0.028553465
76	0xbb65b66f	-0.0035051366
77	0x3e871633	0.26384124
78	0x3a092de4	0.00052329735
79	0xb6092d5d	-2.0440996e-06
80	0x8000015f	-4.92e-43
81	0x80000161	-4.95e-43
82	0xb9bacb18	-0.00035628
83	0x3f1013ce	0.5628022
84	0xa8dba07b	-2.4383482e-14
85	0x3f2e547a	0.6809765
86	0xbd318dbc	-0.04334806
87	0x3bc09715	0.0058773854
88	0xac63de9c	-3.2382213e-12
89	0x3f4af001	0.79272467
90	0xbce187d8	-0.027530596
91	0xbd0b0242	-0.0339377
92	0x3c036f11	0.008022086
93	0x3c3226bd	0.010873494
94	0xaa8b2e02	-2.4723284e-13
95	0xbb8da43b	-0.0043225563
96	0x80000160	-4.93e-43
97	0x3f5e9e40	0.8696022
98	0xbb32b4b7	-0.002726836
99	0x3f263457	0.64923614
100	0xb1f04654	-6.9929147e-09
101	0x3f0d1fb7	0.5512652
102	0x3f9c23fb	1.219848
103	0xbc429c66	-0.011878109
104	0xac989559	-4.3366808e-12
105	0xb95dc443	-0.00021149316
106	0xbc81ba3a	-0.01583587
107	0xbbcd3635	-0.0062625655
108	0xb7d875ab	-2.5804e-05
109	0x8000015f	-4.92e-43
110	0xb9868976	-0.00025660888
111	0xb95596dc	-0.00020369462
112	0xb387d4fb	-6.325168e-08
113	0xbbdfa662	-0.0068252543
114	0xbd06f9e3	-0.032953154
115	0xbc02edb1	-0.00799124
116	0x3c602ec6	0.013683027
117	0x3d9d1e92	0.076718464
118	0xbc994895	-0.018711368
119	0xa1ae1876	-1.1797173e-18
120	0x31857402	3.883998e-09
121	0x82aab70f	-2.5084325e-37
122	0xbd087e3e	-0.03332352
123	0x17b4e51e	1.1690065e-24
124	0x3f0e61fe	0.55618274
125	0x32a65312	1.936272e-08
126	0x3abf936b	0.0014616078
127	0xac671230	-3.283717e-12
128	0x3b851f45	0.0040625655
129	0xbc1ff0ca	-0.009761998
130	0x3be24339	0.006904986
131	0xbc8514a6	-0.016245198
132	0xbc3eb5d3	-0.01164003
133	0xbc152dbf	-0.009105145
134	0xbca0dc90	-0.019636422
135	0x9e0a761f	-7.330086e-21
136	0xbb43a9aa	-0.0029855766
137	0xbcf4e366	-0.029893588
138	0x3a6de9b2	0.0009075656
139	0xaba52924	-1.1735374e-12
140	0xb99bde86	-0.00029729697
141	0xbc955c48	-0.01823248
142	0x3222630b	9.452161e-09
143	0x00000161	4.95e-43
144	0xbc8051a8	-0.015663937
145	0x9ee9db4c	-2.4760534e-20
146	0x3f55fa2a	0.83584845
147	0x0e67d7fc	2.8576941e-30
148	0xbbc744c1	-0.006081194
149	0xac98bcc5	-4.3410575e-12
150	0x3ce35d42	0.02775443
151	0xb071f162	-8.8018315e-10
152	0x3fe51b7a	1.789901
153	0x1a71189e	4.9857518e-23
154	0xb914ff8e	-0.00014209581
155	0x31753a18	3.5685215e-09
156	0xba7a8ed6	-0.00095580274
157	0xbc92c11b	-0.017914345
158	0xbc02e2af	-0.007988616
159	0x3f2a2f4f	0.6647844
160	0x3d3a3922	0.045464642
161	0xbcf8f81b	-0.030391743
162	0x3c50ed58	0.0127519
163	0x3e6b5533	0.2298172
164	0xbb65eadc	-0.0035082614
165	0x3900cde5	0.00012283733
166	0xb914846d	-0.00014163712
167	0x3d0ab607	0.033865
168	0x3f03a556	0.5142416
169	0x3eb96b3f	0.36214635
170	0xb521d8d1	-6.0292683e-07
171	0x3bbb8f44	0.0057238657
172	0x3d6379e3	0.055536162
173	0x3ecfcfa3	0.40588102
174	0x3c191fac	0.00934593
175	0x9d234919	-2.161066e-21
176	0x3f138551	0.576253
177	0xaf84e41c	-2.4172742e-10
178	0xbcf4d88f	-0.02988842
179	0x3c90fbad	0.017698133
180	0xbb28c7d6	-0.0025753877
181	0xb9f41055	-0.00046551475
182	0xbb9c2041	-0.004764587
183	0x3bb0fa1b	0.0054009086
184	0xbbb4cc3c	-0.0055175107
185	0x278aff53	3.8579517e-15
186	0xb0a94ab5	-1.2317601e-09
187	0xb9bd7271	-0.00036134155
188	0x80000160	-4.93e-43
189	0xbc242abf	-0.010019957
190	0x9466a1e6	-1.1643961e-26
191	0xbb66e82b	-0.0035233598
192	0xbc5d966e	-0.013524635
193	0xbcc8828c	-0.024476312
194	0xbc30a495	-0.010781427
195	0x3f0bab08	0.5455785
196	0x3c9cfecf	0.019164471
197	0x80000161	-4.95e-43
198	0xbb7c6d6c	-0.003851737
199	0x3fefe0d1	1.8740484
200	0xbc26a787	-0.010171778
201	0x3dd001e7	0.10156613
202	0xaf1d4cf9	-1.4306413e-10
203	0x80000160	-4.93e-43
204	0x16e75b88	3.7377827e-25
205	0x3f3c7d49	0.7362867
206	0xb92fdff2	-0.00016772727
207	0x8c71b494	-1.8620305e-31
208	0xbd3f52be	-0.04670977
209	0x9ef7c457	-2.6233347e-20
210	0x3f9465a2	1.1593516
211	0xba2c9077	-0.0006582806
212	0x3f5c2883	0.85999316
213	0x3a3466b3	0.00068817585
214	0xb661ac42	-3.362788e-06
215	0xbc9ef472	-0.01940367
216	0x3fd9710e	1.6987627
217	0xbbe342a5	-0.006935435
218	0x80000160	-4.93e-43
219	0x3fd11b9c	1.6336551
220	0x40015783	2.0209663
221	0x3c02bb47	0.007979221
222	0x3f172d32	0.5905334
223	0x3faccc2e	1.3499811
224	0x3ca2e849	0.019886153
225	0xb9330368	-0.00017072039
226	0x3c017c9d	0.007903245
227	0x80000160	-4.93e-43
228	0xae671e6c	-5.255034e-11
229	0x3f87e89c	1.0617862
230	0xb99c09cd	-0.0002976194
231	0xbcfbfa9a	-0.030759145
232	0xb5df6543	-1.6644266e-06
233	0x3fcabd87	1.5839089
234	0xaad23fb7	-3.7347705e-13
235	0xbb7fe9f0	-0.003904935
236	0x401fd123	2.4971397
237	0xa68381e1	-9.125155e-16
238	0x3c650e5e	0.013980476
239	0x3ab9b75b	0.0014169024
240	0x35191874	5.7032526e-07
241	0xbc87f37e	-0.016595598
242	0x80000160	-4.93e-43
243	0xac164f4c	-2.13603e-12
244	0x3f29cd18	0.66328573
245	0xba4f196d	-0.0007900212
246	0x33d8a145	1.00876186e-07
247	0x800001d8	-6.61e-43
248	0xbb800105	-0.0039063715
249	0xbd02ee18	-0.031965345
250	0x3f45d7c7	0.77282375
251	0x3b8928e0	0.004185781
252	0x3f381fb2	0.71923363
253	0x9b5fe494	-1.8519985e-22
254	0x3f921b99	1.1414672
255	0x3fabf750	1.3434849

bn1.bias f4 [400]
0	0xb08eecdc	-1.0399179e-09
1	0xbb09a538	-0.002100302
2	0xbd8a2015	-0.067444004
3	0xbbfdbddc	-0.0077435803
4	0xbdbe5dc6	-0.092952296
5	0xbc14ba08	-0.009077556
6	0xbbbbdf7e	-0.0057334295
7	0xbb61c96e	-0.0034452337
8	0xbb177113	-0.002310817
9	0xba49e8a7	-0.00077022094
10	0xb887ff16	-6.484815e-05
11	0xbb9723ad	-0.004612407
12	0xba1c1c34	-0.00059551303
13	0xbb273eff	-0.0025519726
14	0xbaad1d17	-0.0013207522
15	0xbce586eb	-0.028018435
16	0xbc434a96	-0.011919638
17	0xb779c839	-1.48881745e-05
18	0xbd9f2ee2	-0.07772614
19	0xbc9a121b	-0.018807461
20	0x3d89c929	0.067278214
21	0x9f9fb4a7	-6.7637984e-20
22	0xbc808f1b	-0.015693238
23	0xb8be7778	-9.082159e-05
24	0xa4ca0660	-8.7614335e-17
25	0xbcacea54	-0.02110783
26	0xbce3b02c	-0.027793966
27	0xbc972f26	-0.0184551
28	0xb6c2880b	-5.797488e-06
29	0xbd88bda1	-0.06676794
30	0xbcd945f8	-0.026522622
31	0x3e4a7dda	0.19774571
32	0x3e3841f3	0.17993908
33	0x3eb82427	0.35965082
34	0xad208e4e	-9.126545e-12
35	0x3d765837	0.060142722
36	0xba0803e3	-0.00051885674
37	0xb198f8ba	-4.452059e-09
38	0xbb216987	-0.002462955
39	0xba683321	-0.00088577165
40	0xa3aa07a2	-1.843467e-17
41	0xbb23bb88	-0.0024983604
42	0xbba2efd3	-0.004972437
43	0xbc80f223	-0.01574046
44	0xbcdd6c2c	-0.02702912
45	0xba127c7b	-0.0005588007
46	0xbda3fd6e	-0.08007322
47	0xbd15df60	-0.03658998
48	0xba2a83a0	-0.0006504599
49	0xbc5220e1	-0.012825222
50	0x3e333976	0.17502388
51	0x3d7feccf	0.062481698
52	0xbc6ba017	-0.01438143
53	0xac4afc58	-2.8846005e-12
54	0xbc3777a0	-0.011197954
55	0xbcc038fd	-0.023464674
56	0xbac08b54	-0.001468996
57	0xbd9e15a2	-0.0771897
58	0xb5a690ae	-1.2410071e-06
59	0x3b8eb195	0.0043546655
60	0x3cb92087	0.022598518
61	0xbe29370a	-0.16524902
62	0xbc97f2a4	-0.018548317
63	0xbce310ae	-0.027717914
64	0xa33be1b6	-1.01850865e-17
65	0xbc34a394	-0.011025328
66	0xbb8189f8	-0.0039532147
67	0xbf23d621	-0.6399861
68	0x3dae2386	0.08502869
69	0xbc91662b	-0.017748913
70	0xb5aa5daa	-1.2693247e-06
71	0xbcfffb3a	-0.031247724
72	0xbda2d4a1	-0.07950712
73	0xb0d99e73	-1.5833862e-09
74	0xbb22a340	-0.0024816543
75	0xbcec915e	-0.02887791
76	0xbb944c5c	-0.0045257043
77	0x3d5af038	0.053451747
78	0xbc4d6d00	-0.012538195
79	0xb7e8e229	-2.776187e-05
80	0xab24562d	-5.8384097e-13
81	0xb58cab1a	-1.048061e-06
82	0xbb8b9bb7	-0.004260506
83	0xbe09cadb	-0.1345629
84	0xafe22fde	-4.1143172e-10
85	0xbe37bd35	-0.1794327
86	0xbd3a2b22	-0.04545129
87	0xbb9fb8cc	-0.0048743244
88	0xb07ae012	-9.1267893e-10
89	0xbd249df1	-0.040189687
90	0xbd0e330c	-0.03471665
91	0xbd17927a	-0.037004925
92	0xbc399b6f	-0.011328562
93	0xbc8618b9	-0.01636921
94	0xb5737919	-9.0700775e-07
95	0xbbd9d3d0	-0.0066475645
96	0x88932055	-8.854842e-34
97	0xbede6708	-0.43437982
98	0xbbd9ab1f	-0.0066427137
99	0xbe0f384c	-0.1398632
100	0xb7ab7949	-2.0441266e-05
101	0xbda88b5e	-0.08229707
102	0x3e31e64f	0.17373012
103	0xbc9e90bc	-0.019356124
104	0xb71b23af	-9.247028e-06
105	0xbb58a31c	-0.0033056205
106	0xbc8c7617	-0.017146153
107	0xbc4adeb5	-0.012382199
108	0xba60e322	-0.00085787673
109	0xad0f65f9	-8.151251e-12
110	0xbc909037	-0.017646892
111	0xbbbb6325	-0.005718606
112	0xb8f3b3e1	-0.00011620648
113	0xbc138bb3	-0.009005475
114	0xbd1139c5	-0.035455484
115	0xbc2ad9f5	-0.010427942
116	0xbc8c1b21	-0.01710278
117	0xbc14d654	-0.009084303
118	0xbca2ba38	-0.019864187
119	0xb11c5acd	-2.2752602e-09
120	0xba321f2d	-0.00067948067
121	0xa28e45ff	-3.856329e-18
122	0xbd0ebec2	-0.03484989
123	0xb6109dcf	-2.1549529e-06
124	0xbe132bcc	-0.14372176
125	0xbace87a1	-0.0015756973
126	0xbbf3b8f5	-0.00743782
127	0xb63bfe13	-2.8013062e-06
128	0xbc678569	-0.014130929
129	0xbc092eb4	-0.008372951
130	0xbc5b8ced	-0.013400299
131	0xbc916a97	-0.017751021
132	0xbbba5b7a	-0.0056871744
133	0xbc273828	-0.01020626
134	0xbc955cf0	-0.018232793
135	0xacbce9a4	-5.3692207e-12
136	0xbb92b7d0	-0.0044774786
137	0xbcf4ddef	-0.029890982
138	0xbc4a8e35	-0.012363006
139	0xb28afd67	-1.6180548e-08
140	0xb9db96eb	-0.00041883378
141	0xbcb6f0f1	-0.022331687
142	0xb9bbc875	-0.00035816772
143	0x8b88c999	-5.2688625e-32
144	0xbc8ac7ec	-0.016941033
145	0xa09cb661	-2.6548116e-19
146	0xbe1d7372	-0.1537607
147	0xb966cbb8	-0.000220104
148	0xbc23c07b	-0.009994621
149	0xb76df0da	-1.4182378e-05
150	0xbc4ad6db	-0.012380327
151	0xb6c53f1a	-5.8784035e-06
152	0x3e263c2a	0.16233888
153	0xa0af6f66	-2.971987e-19
154	0xbba7b4ef	-0.0051180045
155	0xb542958d	-7.2488257e-07
156	0xbaccfbf0	-0.0015639048
157	0xbc9255cb	-0.017863175
158	0xbb183659	-0.0023225753
159	0xbdc5775a	-0.09641905
160	0xbd50a70b	-0.050940555
161	0xbd07f183	-0.033189308
162	0xbc962eb9	-0.018332826
163	0xbb90eb8c	-0.0044226106
164	0xbbb5ec65	-0.005551862
165	0xbb507d26	-0.0031812876
166	0xbb00ce87	-0.001965435
167	0xbd3d8fb5	-0.046279628
168	0x3df67fbd	0.12036083
169	0x3c77e615	0.015130539
170	0xb78d13af	-1.6817676e-05
171	0xbcf930e4	-0.03041882
172	0xbc6f7d9e	-0.014617352
173	0x3d86f21a	0.06589146
174	0xbc4bd9e4	-0.012442086
175	0xaff70db7	-4.4938783e-10
176	0xbd636653	-0.055517506
177	0xb4219fe3	-1.505246e-07
178	0x3d867e0e	0.06567012
179	0xbc0b3e59	-0.008498752
180	0xbcdd13b8	-0.026986942
181	0xbad92ce2	-0.0016569162
182	0xbc83d3ff	-0.016092299
183	0xbbed4b55	-0.0072416463
184	0xba5a9784	-0.00083386176
185	0xb795196d	-1.7774024e-05
186	0xb527ffee	-6.2584775e-07
187	0xbb0ebdfc	-0.002178072
188	0xa86b91f1	-1.30767665e-14
189	0xbbfe862a	-0.0077674584
190	0xa754993b	-2.9503977e-15
191	0xbbd121f0	-0.0063822195
192	0xbc5cd715	-0.013479014
193	0xbccc64c5	-0.024950394
194	0xbc64f3b0	-0.013974115
195	0x3e0e00c4	0.1386748
196	0xbc00f26a	-0.007870296
197	0x95d838f5	-8.733157e-26
198	0xbaf2d245	-0.00185258
199	0x3e25b17f	0.1618099
200	0xbcec136d	-0.028817857
201	0xbd37dd5e	-0.044888847
202	0xb873ec68	-5.8155885e-05
203	0x9aa849b7	-6.9602264e-23
204	0xbc456dc2	-0.012050094
205	0xbe1ac864	-0.15115505
206	0xbc0e6e1d	-0.008693245
207	0x8e1c8b8a	-1.929567e-30
208	0xbd411682	-0.047140606
209	0xad989e18	-1.7350607e-11
210	0x3e061cbb	0.13096897
211	0xbb069598	-0.0020535942
212	0x3bc4f0b0	0.0060101375
213	0xbb9ddfec	-0.0048179533
214	0xb966a115	-0.00021994517
215	0xbcb96625	-0.022631714
216	0x3dddd049	0.10830743
217	0xbcc25a5d	-0.02372473
218	0xa30cd0bd	-7.633617e-18
219	0xbdf55ff9	-0.11981196
220	0xbf3b26f6	-0.73106325
221	0xbc3329e7	-0.010935283
222	0x3b4dd38a	0.0031406605
223	0xbcd85417	-0.026407285
224	0xbc6883cb	-0.014191578
225	0xbb29b2e6	-0.0025893985
226	0xbc861760	-0.016368568
227	0x98dc9329	-5.701726e-24
228	0xb5a5558c	-1.2318355e-06
229	0xbeeac6ce	-0.458548
230	0xbb43f6da	-0.0029901774
231	0xbd09bb23	-0.033625733
232	0xb6efec91	-7.150295e-06
233	0xbdfceca4	-0.12349823
234	0xba89eb90	-0.0010522474
235	0xbc3f5644	-0.011678282
236	0x3e969472	0.2941013
237	0xb27f4279	-1.4858068e-08
238	0xbceaaf72	-0.028648112
239	0xbc106873	-0.008813965
240	0xbb634b5e	-0.0034682374
241	0xbc27e254	-0.010246832
242	0x9f8de283	-6.0090555e-20
243	0xba81da71	-0.000990702
244	0xbe252fde	-0.16131541
245	0xbc9ad3a2	-0.018899743
246	0xb91aeef3	-0.000147756
247	0xb7574d24	-1.2832959e-05
248	0xbbad4722	-0.0052880207
249	0xbd0f8f34	-0.03504868
250	0xbed1c7c9	-0.40972736
251	0xbbc4eea8	-0.0060098954
252	0xbe029003	-0.12750249
253	0xae7c1183	-5.731372e-11
254	0x3ced3b1f	0.028958855
255	0x3e36ee8b	0.17864434

bn2.weight f4 [300]
0	0x3fdc90ce	1.7231691
1	0x3f99f367	1.2027406
2	0x3fe88d22	1.816807
3	0x3fe49c6f	1.786024
4	0x404019eb	3.001582
5	0x3d239a97	0.03994235
6	0xbebb9b58	-0.36641955
7	0x3ff760f1	1.9326459
8	0x400bd874	2.1850863
9	0x3f98666c	1.1906257
10	0x3fe60428	1.7970018
11	0x3fee03dc	1.8594928
12	0x3f493111	0.78590494
13	0x3fa1d5e4	1.2643399
14	0x3fe0c76f	1.7560862
15	0x3f5b9560	0.85774803
16	0x3f2e59d2	0.68105805
17	0x3f4be7a4	0.7965033
18	0xbf7b5d27	-0.98189014
19	0xba35d57d	-0.0006936414
20	0x403c9960	2.9468613
21	0x3e92c276	0.28663987
22	0x3feb6af1	1.8392011
23	0x3f8a2256	1.0791728
24	0x3f9300f4	1.1484666
25	0x3fb33f73	1.4003738
26	0x3f006bb8	0.50164366
27	0x3fdbd4d1	1.7174321
28	0x40275330	2.6144524
29	0x3ff1c003	1.8886722
30	0xbfd6785b	-1.675548
31	0x80000160	-4.93e-43
32	0x3ff2696e	1.8938425
33	0xbee5aa32	-0.4485641
34	0x3fdc9978	1.7234335
35	0x3fd02668	1.6261721
36	0x4003cb4c	2.0592833
37	0x4035b6e3	2.8392875
38	0xbf0670b6	-0.52515733
39	0x401b0422	2.4221272
40	0xbd51e6af	-0.051245388
41	0x3f988eb7	1.1918553
42	0x3eda9be7	0.4269707
43	0x3f87caa8	1.0608721
44	0x40048992	2.0708966
45	0xbee782a3	-0.45216855
46	0x40033f4d	2.0507386
47	0x4006939f	2.10276
48	0x3fb364f9	1.401519
49	0x3fbceebd	1.4760357
50	0x4005c36d	2.0900528
51	0x3fd4a16e	1.6611764
52	0x3fe9ba75	1.8260027
53	0x3fbd2129	1.4775745
54	0x3c8db6f1	0.017299147
55	0xbf676b23	-0.9039785
56	0xbe7b8fac	-0.24566525
57	0x3fe7d37e	1.8111417
58	0x4024c084	2.5742502
59	0x401c634a	2.4435601
60	0x3f50b228	0.81521845
61	0x3fd68842	1.6760333
62	0x3ee8cc79	0.454685
63	0x3fee6dfe	1.8627317
64	0x3ff07ce8	1.8788118
65	0x3fe02154	1.7510171
66	0x407401e7	3.812616
67	0xbe95c0d2	-0.29248673
68	0x3fd9048f	1.6954516
69	0x4033609f	2.8027723
70	0x3e624613	0.22097044
71	0x3f52e9f3	0.8238823
72	0x3f9cf4ae	1.226217
73	0x400f0703	2.234803
74	0x3fd6a485	1.6768957
75	0x400ab17a	2.1670823
76	0x3c18bca9	0.009322324
77	0x3e713be6	0.23558006
78	0x3fb111c2	1.3833544
79	0x3fe2187b	1.7663721
80	0x40002eab	2.0028484
81	0x3fa8bbfc	1.3182368
82	0x3fbfc398	1.4981565
83	0x40163a9b	2.347327
84	0xbb0312b2	-0.0020000157
85	0x3f971492	1.1803153
86	0x3ecbc1b3	0.39796218
87	0x400b7d33	2.1795166
88	0x3de2d9e6	0.11076717
89	0xb9e8f06b	-0.00044429614
90	0x3f6e1bea	0.93011343
91	0x40195d21	2.3963091
92	0x3f79c5a1	0.9756718
93	0x3fba657a	1.4562218
94	0x3f3aabfc	0.7291868
95	0xbfaf1ffc	-1.3681636
96	0x3ff0ab6c	1.8802314
97	0x3fa58160	1.2930107
98	0x3ff77860	1.933361
99	0x3ff06f90	1.8784046
100	0x3f1967c0	0.59923935
101	0x3ff15809	1.8854991
102	0x3fca4e1b	1.5805086
103	0x3f32526f	0.69657034
104	0x401e3df5	2.4725316
105	0xbf92dd06	-1.1473701
106	0x3fffa104	1.9971013
107	0x3fc6962a	1.5514576
108	0x3f64c61f	0.8936481
109	0x3fe54a72	1.7913344
110	0x3fa07055	1.2534281
111	0xbf86c780	-1.0529633
112	0x4014ca32	2.324841
113	0x3e22052a	0.15822282
114	0x3f551457	0.8323416
115	0x3fc9eff8	1.5776358
116	0x3f4353ec	0.7629993
117	0x3fd2beea	1.6464512
118	0x3ea23d37	0.31687328
119	0xbfcb10df	-1.5864524
120	0x3fdf45ca	1.7443173
121	0x400a6568	2.1624393
122	0x3f6a566d	0.91538125
123	0x3ebbe8ef	0.36701152
124	0x3fe39219	1.777896
125	0x3ff2f99b	1.8982424
126	0x3fef46cc	1.869348
127	0x408a49c2	4.3215036
128	0x3ff7bc8b	1.9354414
129	0x3f012a8d	0.5045555
130	0xbbb7d32c	-0.0056098904
131	0x3fed663c	1.8546824
132	0xbd803b76	-0.06261341
133	0x3f7e823e	0.99417484
134	0x400e55ae	2.2239795
135	0x3ef16e79	0.47154596
136	0x401789fd	2.3677971
137	0x3ff2370e	1.8923051
138	0x3ff619c1	1.922661
139	0x3f33e6da	0.70274127
140	0x3fbc1e34	1.4696717
141	0x403ccf69	2.9501593
142	0x400d7419	2.210211
143	0xbf31ec16	-0.69500864
144	0x3eedcb69	0.46444252
145	0x3e298196	0.1655334
146	0x3ffab4e7	1.9586457
147	0x3f64ba6d	0.89346963
148	0x3ffad262	1.9595454
149	0x40051bad	2.0798142
150	0x3f485e22	0.78268635
151	0x3feb9349	1.8404323
152	0x3fcfca08	1.623353
153	0xbf85c2bf	-1.0450057
154	0x38a6546a	7.93122e-05
155	0x3ef9f46b	0.4881929
156	0x3fe28987	1.769822
157	0xbeefea78	-0.46858573
158	0xbf830f22	-1.0238993
159	0x3f0efb62	0.5585233
160	0xbf156c63	-0.5836851
161	0x3f5c6b6f	0.8610143
162	0x3de92ed3	0.11385884
163	0xbf39ad79	-0.72530323
164	0x3e451d42	0.19249442
165	0x3ff509f4	1.9143662
166	0x400a58f0	2.1616783
167	0x3fd94e8c	1.6977096
168	0x3fc7e6ea	1.5617344
169	0x3fe214ad	1.766256
170	0xbf6b243a	-0.9185215
171	0x3fac8330	1.3477535
172	0x3f855ec8	1.041955
173	0x3f3d7b21	0.74016005
174	0x40121df1	2.2830775
175	0x3fc00640	1.5001907
176	0x3face568	1.3507509
177	0xa380e3ff	-1.3974348e-17
178	0x3ff587cf	1.918207
179	0x401a3f03	2.410096
180	0x3ff0ba74	1.8806901
181	0xc00a2b76	-2.1589026
182	0x3fde0699	1.7345763
183	0x3f86a1f1	1.051817
184	0x334ed8db	4.816034e-08
185	0x3ece4c0d	0.40292397
186	0x3eca6663	0.3953124
187	0x3fb962a2	1.4483225
188	0xbec33324	-0.38124955
189	0x3f269add	0.6508005
190	0x3fe5f083	1.7964023
191	0x3dc201d5	0.09473006
192	0x4015e602	2.3421636
193	0x401aa957	2.4165857
194	0x3f9e93e6	1.2388885
195	0xbda11e32	-0.078670874
196	0x4034988b	2.8218105
197	0x3d460f10	0.04835421
198	0xa2006e69	-1.7405685e-18
199	0x3ff0cb07	1.8811959
200	0x3fca574a	1.5807889
201	0x400500cb	2.0781734
202	0x40003952	2.0034986
203	0x40151ba3	2.3298118
204	0x3f7cedd1	0.9880038
205	0x3f40607c	0.75147223
206	0x3fcff44e	1.6246431
207	0x3e274b99	0.16337432
208	0x3efac99d	0.48981944
209	0xbf86b2c1	-1.0523301
210	0x3e618087	0.22021686
211	0x400c4024	2.1914148
212	0x3fb371d1	1.4019109
213	0x3f35bf62	0.7099515
214	0x3fda8c24	1.7074018
215	0x3fbcc766	1.4748352
216	0x3fba6dc5	1.4564749
217	0x3fa90fe3	1.3207973
218	0x3d9892e6	0.07449894
219	0x3ff1582e	1.8855035
220	0x3f36f177	0.71462196
221	0x3e23dbb8	0.16001785
222	0x3fe813ee	1.8131082
223	0x40180a59	2.3756316
224	0x3f984696	1.1896541
225	0x4002ff9a	2.0468507
226	0xbbeaa15f	-0.00716035
227	0x3db32769	0.08747751
228	0x3fe8df9c	1.819324
229	0x3dbbb7c3	0.09165909
230	0x4006de25	2.1073086
231	0x3ffe9c9f	1.9891547
232	0x401e2f5f	2.4716413
233	0x3f87ce84	1.0609899
234	0x400439b3	2.0660217
235	0x00070497	6.44495e-40
236	0x80000160	-4.93e-43
237	0x4018adf3	2.385617
238	0x3fc68cbb	1.5511698
239	0x3e9f03f5	0.31057706
240	0x4000f1e3	2.0147636
241	0x400dd960	2.2163925
242	0xbeb9aea6	-0.3626606
243	0x400351f8	2.051878
244	0x3ffb6a70	1.9641857
245	0x3fe17579	1.7613975
246	0x3d23e4c3	0.040013086
247	0x400aa323	2.166207
248	0x3ffd4ded	1.9789406
249	0x3f7f6ae1	0.9977246
250	0xbed7caf1	-0.4214702
251	0x3ff17e0b	1.886659
252	0xbd60cf55	-0.054885227
253	0x3f8bedb6	1.0931919
254	0x3ef44d09	0.47715023
255	0x3f77c522	0.96785176
