trained_data/nowalls/target_critic_ddpg.pth (torch, 507042 bytes, 11 tensors)

fc1.weight f4 [400, 6]
00000000: 0c50 803e 2162 6dbd 15b0 03bf 4775 3e3f
00000010: 1c5c 22bf 58e3 cdbd 62c7 773e 0009 54bd
00000020: 9a02 01bf 5508 3e3f b2f8 1bbf b71c a8bd
00000030: cfd5 cfbc 68c8 4d3e d6f7 8fbf 0a2a 0040
00000040: e868 9e3d 0923 24bf 4863 8d3e a6cf 9cbd
00000050: c35b 05bf b1ba 3c3f abbf 1bbf b9b4 1dbe
00000060: a826 7b3d 06f7 db3d 7584 eebf 964c 8a3e
00000070: d5b8 25bf 026e 96bd 08a8 7f3e 77d2 6abd
00000080: a09b 03bf bc15 343f c5ac 1bbf 78de c3bd
00000090: 0f6d 7a3e b8a8 5cbd 8f3c 00bf 6be0 373f
000000a0: b294 17bf cf82 a9bd e295 733e 0857 49bd
000000b0: 914b 02bf a502 3e3f 3f05 1cbf 680f 96bd
000000c0: 03e8 813e fad4 8abd 36fa 06bf c1ae 3a3f
000000d0: 8b13 20bf 2b6e dabd 0448 783e 2f06 55bd
000000e0: 36c9 02bf 0f2b 3b3f 1a7b 1dbf 261f aabd
000000f0: 37b3 8c3e 11e6 9abd c513 05bf ab02 3b3f
00000100: 059f 1bbf 0e81 18be e767 7b3e 8573 5ebd
00000110: 6582 fdbe 8b93 483f 208e 24bf 950f bfbd
00000120: 396d 733e d977 46bd ab4d 03bf 6fae 3f3f
00000130: 2a4d 1ebf f421 99bd bba0 863e ca45 8dbd
00000140: 1cf2 04bf 4b23 3d3f 1c6a 1cbf 4190 e1bd
00000150: 0948 5b3e bd4c f5bc 93ff febe e3ae 353f
00000160: b874 21bf 42d1 d9bc 3020 813e 116f 73bd
00000170: fda2 03bf b5f6 393f cab3 1dbf e623 d3bd
00000180: c910 6a3e ea39 2abd 032c 00bf 90e4 3c3f
00000190: f4a9 1cbf 3fdf 61bd bc79 883e 8bb6 8ebd
000001a0: 7ee8 04bf b019 3c3f a4ef 1cbf 0ced 07be
000001b0: 70d2 4a3d 2ee6 123e 868d 9cbf 87ba 9f3f
000001c0: dcbd cdbf 9627 3ec0 2abf 673e fa7f 22bd
000001d0: a39f 01bf 1fc4 2b3f 9a38 17bf 7ba2 42bd
000001e0: a131 843e 9ffa 98bd eb4f be3e 0feb a5bf
000001f0: 36d0 b3bf d238 c0be f1f6 5b3e 8a90 fcbc
00000200: eeec fdbe d508 3b3f f6bd 19bf 0f2d f1bc
00000210: c8a1 803e 4676 70bd a185 03bf 06a4 3c3f
00000220: fbb4 1dbf 6abe ccbd 4ab6 3b3e eb50 91bb
00000230: 9d76 f9be dd07 303f ca93 20bf 226c dd3c
00000240: f332 183e dfc9 d63c bf16 f6be ccea 193f
00000250: 1af7 0ebf 58a3 a63d 46be 423e bfbe 29bc
00000260: 926a fcbe 2d14 363f 46b4 21bf e9c0 773c
00000270: 5e9b 743e ffea 4bbd 6146 02bf 9f94 3d3f
00000280: f2d3 19bf 2a7f 9dbd 4834 723e 9e48 45bd
00000290: da38 02bf 014a 3d3f f19c 1ebf 0c59 94bd
000002a0: c839 323e 3e9e 653b 757b f7be 68fa 2e3f
000002b0: 4ab2 1ebf 8eab 2a3d b3b5 853d 1a89 c83d
000002c0: 8f09 adbf 6ad1 e03f 17eb d9bf 1e70 9fc0
000002d0: 7b9e 893e 3b55 92bd f83a 01bf 93f4 413f
000002e0: f6e9 21bf 86c1 0dbe 8c90 f93b a609 263e
000002f0: b0a3 ef3d a6c2 58bf 92bd c63e 21fc d53e
00000300: 09dc 043e b91c f43a 82cc f5bf d3cc f23f
00000310: da5b 09c0 48ca 87bf 6373 483e 32d0 bdbd
00000320: a7b2 f33f 3ddb 0e40 5690 463f 124c 5340
00000330: fc53 853e 23a9 85bd 060a 04bf 28a5 3c3f
00000340: 7e44 1cbf 24b6 f7bd 5e7f 7c3e 10e9 63bd
00000350: b29f 00bf d273 353f 450b 25bf 94d3 b7bd
00000360: 086d 573e 52a5 debc 99cb febe 3f61 3c3f
00000370: aa48 1ebf 3e87 aabc e018 723e 14a1 42bd
00000380: 6e12 02bf 7d35 3f3f 1f51 1dbf 0aea 93bd
00000390: 44ba 863e c484 89bd a820 07bf 3b05 3b3f
000003a0: 79a7 1ebf 19a5 fdbd df78 793e 3a3b 58bd
000003b0: 22ac 04bf 92da 363f 0cab 1dbf 9d56 acbd
000003c0: a8b6 113e 65b6 013d 06ff d6be 6174 263f
000003d0: 5d39 16bf e1b6 b03d a9c8 793e c736 5abd
000003e0: 683b 02bf 04f7 3d3f c8c8 19bf 7ef1 afbd
000003f0: 8cc4 643e 37d7 1ebd 8ba8 e3be 87ff 283f
0.2506107 -0.05795491 -0.51440555 0.743977 -0.634218 -0.10053128 0.24197152 -0.051766396
-0.50394595 0.74231464 -0.60926354 -0.08208602 -0.025370507 0.2009598 -1.1247509 2.0025659
0.07734853 -0.6411596 0.27614808 -0.07656793 -0.5209314 0.7372237 -0.6083934 -0.15400971
0.061316162 0.10740475 -1.8634173 0.27011555 -0.64735156 -0.07345201 0.24966443 -0.05732962
-0.5140934 0.70345664 -0.608105 -0.09563917 0.24455665 -0.05387184 -0.50092405 0.7182681
-0.59211266 -0.08276903 0.23787645 -0.049155265 -0.50896555 0.74222785 -0.60945505 -0.07327157
0.25372323 -0.06778903 -0.5272554 0.72922903 -0.6252982 -0.10665544 0.24246222 -0.05200785
-0.51088274 0.7311258 -0.61515963 -0.08306722 0.2748048 -0.07563413 -0.5198329 0.73050946
-0.6078952 -0.1489298 0.24551354 -0.054309387 -0.49513546 0.7835013 -0.64279366 -0.09329144
0.23772134 -0.04845414 -0.51290387 0.7487554 -0.61836493 -0.07477179 0.26294503 -0.06898077
-0.5193193 0.7388198 -0.6109941 -0.110138424 0.21414198 -0.029943818 -0.49804363 0.7096998
-0.63068724 -0.02658904 0.2521987 -0.059432093 -0.51420575 0.7264207 -0.6160246 -0.103095815
0.22857966 -0.041559137 -0.50067157 0.7378626 -0.6119683 -0.055144545 0.26655376 -0.06968411
-0.51917255 0.73476696 -0.6130316 -0.1327402 0.049517095 0.14345619 -1.223069 1.2478799
-1.6073565 -2.9711661 0.22631517 -0.03967283 -0.5063421 0.6709613 -0.5907074 -0.047518235
0.25819114 -0.07469677 0.37170348 -1.2962359 -1.4047916 -0.3754335 0.2148092 -0.03083064
-0.49594826 0.7306035 -0.6005548 -0.02944043 0.2512343 -0.058706544 -0.51375777 0.7368778
-0.6160428 -0.09997256 0.18331257 -0.004434695 -0.48723307 0.68762 -0.6272551 0.0270291
0.14863186 0.026219307 -0.4806423 0.60123897 -0.558458 0.08136624 0.19017896 -0.010360419
-0.49300057 0.71124536 -0.631657 0.015121677 0.23887393 -0.049784657 -0.5088864 0.740549
-0.6008903 -0.0769027 0.23652756 -0.048164956 -0.50868 0.73941046 -0.61958224 -0.07243547
0.17404854 0.0035036947 -0.48336378 0.6835084 -0.619908 0.041667514 0.06528797 0.09791775
-1.3518542 1.7563908 -1.7024869 -4.982436 0.26878724 -0.07145163 -0.50480604 0.75763816
-0.6324762 -0.13843355 0.0076161083 0.16214618 0.11701143 -0.8467201 0.38816506 0.41793922
0.12974562 0.0018624283 -1.9203036 1.8968757 -2.1462312 -1.0608606 0.19575267 -0.09268226
1.9038895 2.2321312 0.7756399 3.301518 0.26040637 -0.06526401 -0.51577795 0.7368951
-0.6104201 -0.120952874 0.24657962 -0.055642188 -0.50243676 0.7087985 -0.6447032 -0.08975902
0.21037686 -0.02717844 -0.49764708 0.73585886 -0.61829627 -0.020816442 0.23642302 -0.047516897
-0.5080937 0.7469099 -0.61451906 -0.07222374 0.26313984 -0.06714776 -0.52784204 0.73054856
-0.61974293 -0.123850055 0.24362515 -0.052790858 -0.51825154 0.7142726 -0.6158912 -0.08414958
0.14229834 0.031668086 -0.41991442 0.6502133 -0.5868128 0.086286314 0.24392952 -0.053274896
-0.50871897 0.7420504 -0.6007199 -0.08590983 0.22340602 -0.038779464 -0.44464526 0.66014904

fc1.bias f4 [400]
00000000: 8aba 1dbf 0b1e 1ebf 3864 8e3f 6306 19bf
00000010: 8acb 2fbf 6588 1fbf dc78 20bf 4ae7 1fbf
00000020: 4ebe 20bf ca16 1fbf 537a 1bbf df15 1bbf
00000030: b28b 21bf 9371 1cbf 39bb 27bf 76fd 1dbf
00000040: 33b3 21bf 9afc 1bbf 8aa6 cf3f 458c 24bf
00000050: f967 1f3f 6478 25bf 9aed 1dbf 7979 2cbf
00000060: 211b 31bf 0a6b 2abf 8d83 1fbf 393b 21bf
00000070: 969f 2dbf 7e95 e23f d2cf 18bf a6da b2bf
00000080: 591d e13f 42fa 0740 c50c 1bbf bcd9 1fbf
00000090: 0dee 26bf 2768 20bf 73a1 1fbf 966b 20bf
000000a0: 8696 26bf fc1d 1fbf eb07 1fbf 25c5 1cbf
000000b0: 1291 1fbf e100 1ebf 990e 983f dcc2 53bc
000000c0: 5fc0 30bf c198 23bf 7851 ebbf ef01 7abf
000000d0: 40ed 1bbf 66df 20bf 1f4f 20bf 60bb 1bbf
000000e0: 4c54 24bf dd91 05bf b7a8 1dbf 36ab 80bf
000000f0: 14a9 22bf a470 2c3e 82d7 1abf 1565 18bf
00000100: d7d9 27bf e3d0 2fbf 18de 45bf 4a2c 463e
00000110: 3901 88bb cdf6 18bf 3c64 1fbf 37c9 2dbf
00000120: 2979 0f40 c29d 29bf 54eb 1dbf 14f3 1cbf
00000130: 5c2d 1dbf ef40 9abf 606b 30bf 4547 1bbf
00000140: b089 23bf d0c4 26bf 748f 20bf 36ce 0fbf
00000150: c40d 1abf aa3c 2b40 866d 1bbf 858e 1fbf
00000160: 5a07 19bf 6d72 a93f 9e9d 22bf 2fad 1fbf
00000170: 2b6f 28bf 2858 5fbf e8e4 1dbf a119 1cbf
00000180: a6d7 1dbf 3d50 97bf 87fa 18bf 6c9b c4bd
00000190: de9b 20bf 7565 ccbe c79f d8bf 8e73 20bf
000001a0: 8a31 21bf 5e36 1dbf 0e9a 1bbf 64a3 20bf
000001b0: 5248 1fbf 32e6 21bf 5717 25bf f55f 2abf
000001c0: 57fe 21bf f72c 1abf 623c 1ebf 9211 1abf
000001d0: 93f3 2ebf 1d9a 29bf 6e39 1fbf 836a 20bf
000001e0: c403 22bf b05f 1ebf e8db 1dbf 1b07 12bf
000001f0: 16cb 06bf 5103 29bf b143 1dbf 72e7 1ebf
00000200: 1da6 28bf 3826 1fbf d290 35bf 43cd 1ebf
00000210: 3834 23bf e5c8 29bf 79cd 1bbf dc23 1ebf
00000220: 5b29 26bf 49a8 19bf a614 27bf 83da 1cbf
00000230: f687 1bbf be4f 1ebf 1a1c 2fbf dbdd 23bf
00000240: 9341 19bf bfae 1fbf 3139 83bf 1a59 2abf
00000250: a4a9 20bf f8ba 21bf 4ad0 2cbf ed15 1dbf
00000260: cffb 893f 38c6 46bf 9be7 22bf 5e92 1dbf
00000270: 7add 1cbf f278 1fbf 95e0 1ebf ab9c b73f
00000280: 5cd0 2cbf 45f4 1cbf 4815 42bf 1823 98be
00000290: 84dd 1abf da1d 1fbf c68f 22bf ffc4 2abf
000002a0: ab06 58bf 4f54 9bbf 0f19 1bbf fd92 26bf
000002b0: 486a 05bf 8fc7 893f d100 4ebf aed7 20bf
000002c0: 026c 82be a241 1fbf 1411 0dbf ea53 26bf
000002d0: dd08 25bf 40db 1abf 9bee 1dbf 5072 49bf
000002e0: daf8 22bf 47f9 2bbf e3e1 1bbf c849 1fbf
000002f0: ecb4 22bf 9fbc 23bf 72ab 20bf 28ef 21bf
00000300: 8a8d 24bf 595c 1dbf 0bee 22bf fb00 c9bf
00000310: 5d1f 21bf 69e6 21bf b439 1dbf 8b5b 313f
00000320: ea26 25bf ede5 55bf e70b 25bf b357 29bf
00000330: 4cad 24bf 3f48 26bf dfe3 27bf 52e3 20bf
00000340: fbf4 27bf 278c 1cbf 2da0 dc3f 375f 1fbf
00000350: cc8c a73e 297a 44bf c3d0 1dbf af71 1cbf
00000360: e584 833f d5b3 28bf 7736 22bf 618b 83bf
00000370: 0f69 623f f834 30bf b7c4 9d3f 6d9f 37c0
00000380: bb7e 34bf 4120 1abf bb96 27bf a1a3 22bf
00000390: 6b2c 1fbf 13e3 01bf d77e 1ebf 1200 22bf
000003a0: 3688 1dbf bb9e 053d f48b 28bf 3473 1fbf
000003b0: ae57 e03f 6198 1ebf 8e68 29bf b9a4 37bf
000003c0: 4ca8 30bf 645b 24bf 9131 26bf d090 2cbf
000003d0: 4c71 89be 1651 28bf 4ade 21bf 83d4 27bf
000003e0: a9d3 21bf 851c 1fbf 224a a8bf 78cf 24bf
000003f0: 2d56 e2be 8e41 1ebf effc 31c0 c579 023f
-0.6161276 -0.6176459 1.1124334 -0.5977537 -0.6866995 -0.62317497 -0.62684417 -0.62462294
-0.6279038 -0.6214415 -0.60733527 -0.6058025 -0.63103783 -0.611108 -0.65520054 -0.61714876
-0.6316406 -0.60932314 1.6222699 -0.64276534 0.62268025 -0.64636827 -0.61690676 -0.6737285
-0.6918202 -0.6656958 -0.62310106 -0.6298099 -0.67821634 1.7701871 -0.5969211 -1.3972976
1.7587081 2.1246495 -0.6056636 -0.6244161 -0.65206987 -0.62658924 -0.62355727 -0.62664163
-0.6507343 -0.6215513 -0.62121457 -0.6123832 -0.62330735 -0.6172009 1.1879455 -0.012924876
-0.69043535 -0.6390496 -1.8384237 -0.976592 -0.6090889 -0.6284088 -0.6262073 -0.60832787
-0.64191127 -0.52175695 -0.61585563 -1.005225 -0.6353924 0.16839844 -0.6048509 -0.5952924
-0.6556677 -0.6867811 -0.77292013 0.19352832 -0.0041505364 -0.5975159 -0.6226232 -0.67885154
2.24177 -0.66256344 -0.6168721 -0.6130841 -0.6139734 -1.2051066 -0.6891384 -0.60655624
-0.6388197 -0.6514406 -0.6271889 -0.5617403 -0.60177255 2.6755776 -0.60713995 -0.6232684
-0.5977684 1.3238045 -0.63521755 -0.6237363 -0.6579463 -0.8724389 -0.6167741 -0.60976607
-0.6165718 -1.1821362 -0.59757274 -0.09599957 -0.62737834 -0.39921156 -1.692376 -0.6267632
-0.62966216 -0.6141108 -0.60781944 -0.62749314 -0.6221973 -0.63241875 -0.6448874 -0.6655267
-0.63278717 -0.6022486 -0.61810887 -0.6018306 -0.68340415 -0.66250783 -0.62197006 -0.62662524
-0.63286996 -0.6186476 -0.61663675 -0.5704209 -0.52653635 -0.66020685 -0.61431414 -0.6207191
-0.6587847 -0.6216769 -0.70924103 -0.62031955 -0.63751554 -0.66322166 -0.608604 -0.6177347
-0.64906853 -0.6002241 -0.6526588 -0.6127092 -0.60754335 -0.61840427 -0.68402255 -0.640104
-0.59865683 -0.62376016 -1.0251828 -0.6654221 -0.6275885 -0.63175917 -0.67505324 -0.6136158
1.0779971 -0.7764621 -0.6363465 -0.61551464 -0.61275446 -0.6229392 -0.62061435 1.4344686
-0.6750543 -0.61310226 -0.7581372 -0.29714274 -0.60494256 -0.62154925 -0.6350063 -0.6670684
-0.84385175 -1.2135104 -0.6058511 -0.65068036 -0.521153 1.0764025 -0.80469996 -0.628291
-0.25473028 -0.6220952 -0.55104184 -0.6497179 -0.6446665 -0.604908 -0.6169221 -0.7869005
-0.6366097 -0.6717724 -0.6089155 -0.62221956 -0.63557315 -0.6395969 -0.62761605 -0.6325555
-0.6427847 -0.61469036 -0.63644475 -1.5703424 -0.6293848 -0.63242203 -0.61416173 0.6928031
-0.64512503 -0.83553964 -0.64471287 -0.66149443 -0.6432693 -0.6495399 -0.6558208 -0.62846863
-0.65608186 -0.61151356 1.7236382 -0.6225466 0.32724607 -0.767489 -0.6164667 -0.6111097
1.0274931 -0.658994 -0.63364357 -1.027691 0.88441557 -0.68830824 1.2325658 -2.8691056
-0.70505875 -0.60205466 -0.6546437 -0.6353093 -0.6217715 -0.5073711 -0.6191229 -0.6328136
-0.61535966 0.03262208 -0.6583855 -0.6228516 1.7526758 -0.6195126 -0.6617516 -0.7173572
-0.690068 -0.6420195 -0.6491938 -0.67408466 -0.2684425 -0.6574873 -0.6322981 -0.6555864
-0.6321359 -0.6215289 -1.3147624 -0.6437907 -0.44206372 -0.6181878 -2.7810628 0.50967056

fc2.weight f4 [300, 400]
00000000: 9120 9daf b89d 15b3 c6ea be3d 4e02 c1b3
00000010: 1c34 f5bd 3a31 e236 7484 85b7 5e6d 16bc
00000020: 5e9f 393b 86ca 6333 7cad 8e32 403f 52b7
00000030: af6c adb7 240d bbba 6f14 16b5 af75 303b
00000040: c6da b334 bf87 d433 d381 ee3d 3106 78bb
00000050: 18f0 203d fb57 4733 5e53 01ba 6bc9 0933
00000060: 6e03 4630 2005 81b6 91e8 7dbc 506c 1eb9
00000070: 26ec c033 df70 0f3e 9cc3 2bbc aeab e0bc
00000080: 0908 4e3e e47c 4d3e 071c 06b4 2f7f 533b
00000090: 511f 5f33 f7d0 c6b3 4d29 fcb5 902f 95b4
000000a0: f5ba 4c2f 0c49 a235 3365 58bb 0e1d cc36
000000b0: d531 8639 6e22 9636 6fdb cc3d 9cf8 c43d
000000c0: ddd3 c9ba 1ea1 db3a 5ca0 86bd f6d3 143e
000000d0: dc18 c13b 1fa1 88b0 7363 90b6 ddd3 a737
000000e0: f894 aa35 5a78 0a3c 010a 6633 d1cd 813c
000000f0: 754f 9138 e1a1 b7be c53f 2938 48da 8d39
00000100: beb5 5ab2 6cc2 0539 0b14 7cb8 fa29 053e
00000110: 38f2 943d 000e 05bd 0cb9 24b2 7950 8b3b
00000120: fae4 6a3e 5879 f9b2 8e20 acb5 1adf 6c3c
00000130: c7d1 0436 fb14 c83d 1fb5 0a3c bd4b 9d34
00000140: bd6c 2a31 330e 5d31 7892 eeb5 d421 55bd
00000150: 219a 9032 8b06 b93d 754f b23b 3849 c138
00000160: e4bd 08b2 f451 8c3e 49a9 e4b8 4875 af3c
00000170: 01a3 1f38 aecc 28bb 1234 bc32 dd0f aeb6
00000180: 734b 932f de42 4d3d 3a3f 85b6 8c27 ca39
00000190: 30d7 a3b4 b53e 27bd b8f0 3f3b cf6e bc38
000001a0: 1531 bab7 e94a 90b5 1708 773c f9df d8b8
000001b0: 8fbd 9335 30ff 48b0 eaa4 dfb4 aad5 3a38
000001c0: 73aa 23b4 d3c9 4438 2966 06bd 3030 e8b6
000001d0: 8c41 5d38 97f7 d6bb 4a56 143b 5d45 0c32
000001e0: 46a8 6033 43cf 6a39 4590 4d3b 9885 da31
000001f0: 7961 03bd 781c 32b3 5fab c5b6 a87f c733
00000200: 9949 f838 8973 0d3c f8b6 15bb 826d 25b9
00000210: 64bb 7d39 4195 6339 1d6a 8939 99a6 9e31
00000220: 3215 14b7 02b7 673b c13b 5eb7 c02e 9f33
00000230: 2946 ffb8 fb6b 2e39 020e 0636 047d 2c30
00000240: 4c5b 9f3b 792e c7af a0e8 1abe 01fa bdb3
00000250: b3d9 6eb9 ded7 97b3 0e22 39ba 283f a532
00000260: 8244 c239 50c8 7434 f30c 1434 7d03 fa32
00000270: 9f46 4536 f093 5a39 5e6c c03b 1cbb 473e
00000280: fab2 1abc ba8a df3c cd06 70b8 e990 943d
00000290: 3dc4 07b7 0d79 8436 6448 1535 4c25 d4bb
000002a0: 43de c7bc d177 813d ca56 0fb2 c890 b0b9
000002b0: 31ad 97bc 54cd c43c 26ca 0137 0cf8 08b0
000002c0: 4912 72bd 4b89 1f33 ddc2 e8bc f6f7 143c
000002d0: 1d3c 813a 5458 8035 6d2d 1838 281b 24b7
000002e0: 13f2 153b 7c2b 8933 7b5e 6833 c8ed 7735
000002f0: 7bc6 32b3 234b c3b9 377f 3cb1 519b 34b7
00000300: 3aa4 54b8 f452 aebc 5867 5e3c 95fa 2fbd
00000310: 53df a23c f3b3 27b1 77a5 00b9 5f7c 01bd
00000320: 0901 cc3b f2e9 25bc 04a1 9a34 042f 41b7
00000330: e555 b137 ef97 773c 6c38 93b6 b875 46af
00000340: f00e 14bc 9275 ec2f cb8e 823e 3f17 7e36
00000350: ff0a 43bc 3da3 1937 e1cc a8b2 fbba 37b7
00000360: 2fa8 6b3d ab95 9cb9 1152 f533 6cc8 eabd
00000370: 3c94 633e d398 78bb 758c 653e a7a9 4c3e
00000380: 71b1 b33a d756 9335 37e8 4abc b7cd f031
00000390: 1b75 d3b1 123b 063e ca73 c637 ccbe dc3a
000003a0: cffb d336 289c bcbe 8a9b 19b2 256f 7535
000003b0: 9cf7 bdbe bfa3 c3b8 1282 3aba 6ac5 cd36
000003c0: 4b90 a634 ddec 9abc b757 a1b0 d052 99b5
000003d0: a001 39bd 2aea 88b5 3e4a 9633 a460 1532
000003e0: eecb b0b6 3f36 1dba a0b7 db3c 07e6 6eb8
000003f0: 3d5b 6b3c 5116 af31 6808 ae3e d139 80bd
-2.8581273e-10 -3.483521e-08 0.09322123 -8.987682e-08 -0.1197283 6.7410556e-06 -1.5916514e-05 -0.009181349
0.002832375 5.303675e-08 1.6609867e-08 -1.2531702e-05 -2.0673817e-05 -0.0014270884 -5.590909e-07 0.0026925614
3.3500527e-07 9.8967114e-08 0.11645856 -0.0037845487 0.03929147 4.6413316e-08 -0.0004933382 3.2080987e-08
7.2036854e-10 -3.845096e-06 -0.015497343 -0.00015108404 8.983652e-08 0.140079 -0.010483649 -0.027425613
0.20120253 0.20067173 -1.2489919e-07 0.0032271852 5.1949716e-08 -9.258104e-08 -1.8787483e-06 -2.778802e-07
1.8620112e-10 1.20912e-06 -0.0033019304 6.083056e-06 0.000255956 4.4743565e-06 0.10002791 0.09617731
-0.0015398223 0.0016756391 -0.06573555 0.14533982 0.005892856 -9.941096e-10 -4.303112e-06 2.0006608e-05
1.2709343e-06 0.008451546 5.3560147e-08 0.015845211 6.928939e-05 -0.3586569 4.035213e-05 0.00027056248
-1.27305935e-08 0.00012756296 -6.010015e-05 0.13004294 0.07272762 -0.032484055 -9.588131e-09 0.0042515364
0.2293891 -2.9042596e-08 -1.2824473e-06 0.014457488 1.979164e-06 0.09769627 0.008466034 2.9298636e-07
2.4800066e-09 3.2167804e-09 -1.777501e-06 -0.052034214 1.6833896e-08 0.09034451 0.005441601 9.216595e-05
-7.959418e-09 0.27406275 -0.00010903419 0.021418229 3.8060363e-05 -0.0025756764 2.190976e-08 -5.187451e-06
2.6792754e-10 0.050112598 -3.9710694e-06 0.00038557907 -3.0517685e-07 -0.040831286 0.0029287767 8.985178e-05
-2.2195783e-05 -1.0750638e-06 0.015077612 -0.00010341401 1.1007522e-06 -7.312222e-10 -4.1656978e-07 4.4544846e-05
-1.5242567e-07 4.6918005e-05 -0.03281227 -6.9197486e-06 5.275155e-05 -0.0065602767 0.002263444 8.164844e-09
5.2307108e-08 0.0002239319 0.003136651 6.359823e-09 -0.03207538 -4.1469747e-08 -5.8910077e-06 9.28988e-08
0.0001183927 0.008633503 -0.0022844654 -0.00015776421 0.00024197769 0.00021704008 0.00026209737 4.617345e-09
-8.826422e-06 0.0035356884 -1.3246144e-05 7.412518e-08 -0.00012172416 0.00016634159 1.997571e-06 6.2750893e-10
0.0048631784 -3.623091e-10 -0.15127802 -8.846474e-08 -0.00022778548 -7.0707515e-08 -0.00070622645 1.9237248e-08
0.00037053606 2.2797144e-07 1.3788285e-07 2.9105417e-08 2.9396394e-06 0.00020845211 0.0058722934 0.1950497
-0.009442085 0.02728783 -5.7226793e-05 0.07254202 -8.092317e-06 3.9479987e-06 5.561217e-07 -0.0064741727
-0.024397975 0.06321681 -8.343429e-09 -0.00033677206 -0.018515201 0.02402369 7.7360655e-06 -4.982901e-10
-0.05909947 3.714494e-08 -0.02841323 0.009092322 0.0009859834 9.56245e-07 3.628193e-05 -9.781485e-06
0.0022879883 6.3874694e-08 5.410264e-08 9.236069e-07 -4.162437e-08 -0.0003724928 -2.7429914e-09 -1.07649985e-05
-5.0697687e-05 -0.02127979 0.013574444 -0.042963583 0.01988188 -2.4403988e-09 -0.00012268672 -0.03161275
0.0062257093 -0.010126578 2.880189e-07 -1.1514643e-05 2.1140042e-05 0.015111907 -4.3875098e-06 -1.8049817e-10
-0.0090367645 4.301169e-10 0.25499567 3.786248e-06 -0.011904477 9.1575175e-06 -1.9650942e-08 -1.0951185e-05
0.05753344 -0.0002986615 1.1423629e-07 -0.11464009 0.22224516 -0.0037932887 0.22416861 0.19986592
0.0013709498 1.0977627e-06 -0.012384466 7.0083064e-09 -6.1542216e-09 0.13108471 2.3657358e-05 0.001684153
6.3176044e-06 -0.36837888 -8.941138e-09 9.143135e-07 -0.37102973 -9.328825e-05 -0.0007114719 6.132458e-06
3.1024896e-07 -0.018911773 -1.1739222e-09 -1.142349e-06 -0.045167565 -1.020094e-06 6.998424e-08 8.694915e-09
-5.2689493e-06 -0.0005997158 0.026820958 -5.695785e-05 0.014365015 5.0957074e-09 0.33990788 -0.062610276

fc2.bias f4 [300]
00000000: 14b2 613d 17de 34be 8fa8 953d 752a 97be
00000010: 8612 b9be f537 873e 431e 573e 6f62 cb3d
00000020: 70bf e33e d427 523e 7a16 de3d 4da9 0b3d
00000030: 58d1 4f3e 6f5a 87be a5ce adbe 2be6 3a3e
00000040: da41 4a3e 7c95 88be 8c10 013e e104 333e
00000050: 020e 94be 13dd 973e 6e48 01be 2388 6ebe
00000060: 439f 463e 013b 593e ece5 3d3e 71d4 ec3d
00000070: 613d babe b858 9c3d 715a ba3d 9d64 993d
00000080: 1819 9cbe 387c 1b3d 304e cdbe 60a1 3dbe
00000090: 19a4 443e 8df3 89be 67ff 2a3e 29d0 103e
000000a0: dba8 813e b2fe 90be 7ab7 3f3e 9bb0 143e
000000b0: 1d99 2cbd f261 37be 11cb 863e 7252 443e
000000c0: 3bf6 a33e 0a79 46be 5c45 bd3e 7663 82bd
000000d0: 7655 f03d 9b21 013e 310e 783e ebc5 1f3e
000000e0: c7bc ac3e a6e2 713d 3165 0abe 7759 a2bd
000000f0: 4356 29be 8bb3 d03e 844c 593e db1b 1c3e
00000100: a732 743d 2ef8 c53d 4ff4 c0be 8b8d 9b3e
00000110: 223f 36bc 0968 a4be d09d 9b3e 2af1 4cbe
00000120: 2a07 423e f831 d73d 56cf 8dbe f5de 8bbb
00000130: 15ce 823d 71b4 863d 8dcb 7c3e 65d8 d53e
00000140: 2702 b7be 720a 4cbd a258 243e 907c dcbd
00000150: 5cd2 273e 3fa5 513e 71f4 953d b564 acbe
00000160: 1fe6 a53e 8ba8 4d3e ad6b 62be 38e2 eebd
00000170: 9661 6d3e f16a d23d 95e3 adbc 529d ebbd
00000180: fbaa fc3d a9a1 073e c71b 1abd 5e18 5d3d
00000190: c82c 8abe 3535 003d 3f64 1ebe 927f 493e
000001a0: 16d4 2bbe 0f6b 713e 3b12 de3c db27 873d
000001b0: 6f23 9fbe 86a5 b33d 9f66 57be 1217 643e
000001c0: e7f7 28be 8138 853b 21ed 35be 256a 6f3e
000001d0: 18f0 383e 9249 d73d 9d56 723e 1883 a3bd
000001e0: 3073 313e e249 f13e 09aa 1f3e c5cb 843e
000001f0: 7e4b ad3e a226 1a3d e6b4 4a3d 0272 bbbe
00000200: e3ef a6be 6e81 583e e28d ac3e 3789 6f3c
00000210: 5318 963e fb84 4e3e 2403 e83e da6d 643e
00000220: 24f9 42be a84b 343e 2854 533c 1a78 443e
00000230: 80c8 6c3e 01b9 78be ecae 94be da12 53be
00000240: 7551 78bd 8641 543e 6522 09bd a5b4 57be
00000250: 1d1f 733d 188b fcbc 9010 3ebe e061 f83c
00000260: 7146 663d 4159 553e 7833 553d f327 e53e
00000270: 53ce 2d3e dfab e1bd f1f9 a53e a658 933e
00000280: 63dc 06be 4ef1 263e d804 463e b893 563e
00000290: 7462 3d3e 4456 90be f379 d2bb f350 c13d
000002a0: 3dbd 42be 2651 c83e 7929 863e 0940 50be
000002b0: 026f 933e 7e18 1f3e af48 eb3e 669a be3e
000002c0: ecbc 0b3e 5ac4 fdbb f91c cd3d 51ef b8bd
000002d0: 3893 cf3e db6f a43d 2224 8a3d dd97 91be
000002e0: 2bc0 a23e b70b a1be 37b1 6f3e 78e7 a63e
000002f0: 27bc 31be 7138 5a3e 1af6 053e ed7b 643d
00000300: 1d16 29be cc46 bcbd 990b 84be 3b88 263e
00000310: bd40 db3d 6abd 3f3d 21ac 7c3e a448 1b3d
00000320: 503c 163e 534b 2c3b 225f 6e3e 382e a9bd
00000330: 0634 293e c491 23be efb2 343e e86d d03d
00000340: 33ae 813e 2cb3 9c3e d662 d63e c460 a5be
00000350: e0c9 2f3e 822b 553e bd5d 123a 6823 0e3e
00000360: 458d 663e bfce 4a3e 4d1c 893e 83af 873d
00000370: 54cd 5f3e 51dc a23e 6d63 0f3e 457a bcbd
00000380: 8daf 91be f2e4 dc3e 9e34 2c3e e30c 843e
00000390: 1890 c13e fa8e a53e f791 dd3e 0c66 753d
000003a0: da4d a8bd f5ca 9e3e f516 d83e 3e99 04bd
000003b0: 16ec 373e b76d a7bd e45b 44bd 031a c03d
000003c0: bc7e 3abd 901f b2bd b025 1fbe 3be3 0d3c
000003d0: 5b92 0b3e ba54 aa3d 8d0b a53e 9641 e63e
000003e0: 0e32 bfbc 11e2 203e 54b1 a7be 1a13 243e
000003f0: b031 07be 3839 50be 8988 813e 5350 4b3e
0.05510147 -0.17662846 0.073075406 -0.2952458 -0.36146945 0.2640988 0.21007638 0.09930884
0.44481993 0.20523006 0.10844131 0.034097005 0.20294702 -0.26436183 -0.3394672 0.18251865
0.19751683 -0.26676548 0.12603968 0.1748233 -0.28916937 0.29660854 -0.12625286 -0.2329412
0.19396691 0.21213914 0.1854474 0.115639575 -0.36374953 0.07634109 0.090992816 0.074898936
-0.30487895 0.03796026 -0.40098715 -0.18518591 0.19203223 -0.26943627 0.16698991 0.14141907
0.2532414 -0.28319317 0.18722335 0.14520495 -0.042138208 -0.17908457 0.26326802 0.19172075
0.32023796 -0.1938211 0.3696698 -0.06366627 0.117350504 0.12610476 0.24224164 0.15602843
0.33737776 0.05905404 -0.13515164 -0.0792722 -0.16536812 0.4076198 0.21220595 0.15245001
0.05961862 0.09666477 -0.37686393 0.30381426 -0.0111234505 -0.32110623 0.3039384 -0.20013872
0.18948045 0.10507578 -0.27697247 -0.004268522 0.06386963 0.06577385 0.24687023 0.41766658
-0.3574383 -0.04981465 0.16049436 -0.10765946 0.1638884 0.20473193 0.07322014 -0.33670583
0.3240213 0.20083825 -0.22111388 -0.116642416 0.23181757 0.10274304 -0.021226684 -0.11504616
0.123372994 0.13245262 -0.037624147 0.053978316 -0.2698729 0.031300742 -0.15467928 0.1967757
-0.16780123 0.23575996 0.027108302 0.06599399 -0.3108172 0.087718055 -0.2103524 0.22274426
-0.16500817 0.0040655737 -0.17766239 0.23380335 0.18060338 0.10512079 0.23665853 -0.079839885
0.17329097 0.4712668 0.15592207 0.25936714 0.33846658 0.0376345 0.049488924 -0.3661042
-0.32604894 0.21143124 0.33701998 0.014620117 0.29315433 0.20167916 0.45314896 0.2230753
-0.19040352 0.17606986 0.012898482 0.1918644 0.2312336 -0.24289323 -0.29039705 -0.2061266
-0.06062456 0.2072812 -0.033480067 -0.21065004 0.059355844 -0.030828044 -0.18561006 0.030320108
0.056219522 0.20834829 0.052051038 0.4475704 0.16973238 -0.1101911 0.32417253 0.2877857
-0.13170008 0.16302988 0.19337785 0.20954788 0.18494588 -0.28190815 -0.006423229 0.09439268
-0.19017501 0.3912441 0.26203516 -0.20336927 0.2879563 0.15536687 0.4595389 0.37227172
0.13646287 -0.007744354 0.10015292 -0.09030021 0.40542006 0.08029147 0.06745173 -0.28436175
0.31787238 -0.3145425 0.23407446 0.32598472 -0.1735693 0.21310593 0.13082162 0.055782247
-0.16512342 -0.09193191 -0.25790098 0.16262905 0.10705707 0.0468115 0.24675037 0.037911072
0.14671445 0.0026290014 0.23278478 -0.08260769 0.16523752 -0.15973574 0.17646383 0.10177213
0.25328216 0.30605447 0.4187228 -0.3230039 0.17166853 0.20817378 0.0005583426 0.13880694
0.22514828 0.1980543 0.26779404 0.06625273 0.2185567 0.31808713 0.14002772 -0.092030086
-0.28454247 0.4314342 0.16816947 0.25791082 0.37805247 0.32335645 0.43275425 0.059911773
-0.08217974 0.3101422 0.42205015 -0.032372706 0.17961153 -0.08175223 -0.047939196 0.09379961
-0.04553102 -0.08697426 -0.1554172 0.008660133 0.13630049 0.083169416 0.32235375 0.44971913
-0.023339298 0.15711237 -0.32752478 0.16022912 -0.13202548 -0.20334327 0.2529948 0.1985486

bn1.weight f4 [400]
00000000: 4f17 b7b8 e6e6 b5ba 8079 703f 1724 13bc
00000010: b7c4 0f3f eb50 e0bb 92af adbb 5572 dcba
00000020: 3560 fa3a fe92 21ba b592 0e37 0620 87bb
00000030: 9ed5 73ba 1efa 85bb a16a 0aba f228 5dbc
00000040: bd84 0cbc edd8 97b9 a030 703f 649e c9bc
00000050: b47a 673f 6d04 f4b5 c555 42bc 73f9 32b6
00000060: 41b8 0ab4 dbf3 6eb9 52f4 44bc 4026 18bb
00000070: bd41 0e36 088d 6b3f c7de bcbc f731 f23e
00000080: 3665 2d3f 5d88 473f dc34 e7b8 a0ec 8b3b
00000090: cea9 0eb9 4c53 5bb9 746d 3cbb 578d a0ba
000000a0: 1489 f4b4 5c31 a0ba af06 03bb 911f 91bc
000000b0: da1f c4bc 11a9 4839 18d6 563f a262 883e
000000c0: c73d 633c f06b 4539 11ed d93e 6828 1f3f
000000d0: b3b3 6ebc 101e 08b7 a14f b0bb 1a3b d3bc
000000e0: 9fa2 ffba 7fc9 1c3f e1a9 1cb9 a745 873f
000000f0: cda9 e538 ecff 1840 44de 5abc 4c4a ddbc
00000100: 8c56 6ab6 457f 3e3c 0588 4dbb 9400 953f
00000110: 3b42 df3e 20e4 58bc 4fcc 0eb9 995b 0b3c
00000120: 4f76 8c3f f026 1935 14c8 b8ba e29c bebc
00000130: 210f d2bb cd1b 8e3e 302d ed39 3e80 c2b9
00000140: c64b 52b6 b3c5 fcb4 013a 32bb 8ff5 103f
00000150: c585 e9b8 0f82 2e3f 3382 f4bc 794f cb3b
00000160: 7293 8fb8 2256 473f d16a f0bc 47c5 c2bc
00000170: f2ae 443c bfa7 4b3c b335 60b8 b10d 0abc
00000180: 0026 c7b4 e5d6 5b3f 70a5 f1bb 5c47 263f
00000190: da5d 81b9 ae84 0f3f ed1c 963f 2d74 84bc
000001a0: b78b 5cba 43ee 0abb 8b6f 62bc 837c 19bc
000001b0: 1b49 d8ba 2b4f ceb6 e234 61bb ef21 fab9
000001c0: f3cc 94b9 3669 53bc 7890 00bd f41d 57bc
000001d0: fdbc 9d3c 7ddd 8a3d bd79 4fbc bc3d 69b8
000001e0: 52bf 6d39 05fd 7db9 5040 0cbd 77d1 8f37
000001f0: 2195 0b3f 03f5 2839 cb03 f73a 5560 ffb8
00000200: 484b f23b 9e0a 1ebc f4bb 9e3a 8af7 84bc
00000210: 02a4 58bc 3c34 31bc 0bbd a8bc 1b26 07b8
00000220: bf00 9dbb d48c f9bc 420d 9d3a 3f44 abb8
00000230: 5dcf 44bb 1aef acbc 3872 a539 e997 1a35
00000240: 943f 81bc 2dda 9db6 661f 553f a4a9 4938
00000250: dc84 d4bb bacf e6b8 0124 223d 6287 9bb9
00000260: edc1 e13f 4a8a 3238 3b20 c5ba d247 8037
00000270: 5487 24bb 7afc 99bc 57d0 2838 f5bf 273f
00000280: dfc9 dc3c 1f72 f2bc 6e5b 713c fd01 6c3e
00000290: f2fa c1bb 81a1 2139 7be6 37ba bdba 103d
000002a0: e7b0 023f c6c6 aa3e ba56 d3b9 41d5 103c
000002b0: af8f 5c3d 919a d83e c8ba 563c 64ee 7ab8
000002c0: ee5e 133f f59b 16b9 3b2f aabc 1c0a 5e3c
000002d0: ec9b 03bc aad1 1ebb 8aa1 d7bb 7efd 1e3c
000002e0: f460 233a abeb ca38 13c2 72b9 a746 a5ba
000002f0: 289f 37b7 8af1 2abc 11e6 74b7 befb acbb
00000300: ad3d 80bc 1528 92bc 939c fcbb 0b14 0f3f
00000310: e5bc c33c 40e7 c8b6 073c 81bb 06f9 ed3f
00000320: 2064 3ebc 3e18 c23d c110 2db9 b6d2 6138
00000330: a0a0 0f39 5e18 3e3f 4c6f fdb9 05a9 41b5
00000340: 54a7 3bbd 03ec 77b7 cd80 943f 7fd3 9bba
00000350: 4974 613f 9f92 3a3b 64fd 0eba 4dd8 bbbc
00000360: 4b7b d73f a6b8 12bc 86fe 20b7 a728 cc3f
00000370: 80e7 0040 0950 043c e52b 183f d0c4 ab3f
00000380: 027f a93c 4cc5 0bbb 3c5f 283c 466c c0b6
00000390: 8349 0eb9 13b5 883f c0db 6ebb 5621 51bb
000003a0: a2f1 60ba 04fe c93f 9c60 f3b8 d184 23bc
000003b0: 67c4 1d40 4b1a abb9 ff08 a13c 1fd7 2e3b
000003c0: 5376 fe3a d6d1 5abc 7d98 ceb5 e3a4 60b9
000003d0: 30b6 283f 46a5 84bb c95d 7938 f294 2435
000003e0: 87f5 bdbb cbfa 96bc d76b 443f b483 d63b
000003f0: cced 373f 551c d0b6 0ef8 913f caf2 ac3f
-8.7304616e-05 -0.0013878017 0.93935394 -0.008980772 0.5615954 -0.0068455837 -0.0053004706 -0.0016818742
0.0019102158 -0.0006163566 8.498017e-06 -0.0041236905 -0.0009301546 -0.004088654 -0.0005280171 -0.013498532
-0.008576569 -0.00028962587 0.93824196 -0.02461166 0.90421605 -1.8180705e-06 -0.011861269 -2.6669265e-06
-1.2919283e-07 -0.00022788292 -0.012021141 -0.0023216158 2.1197914e-06 0.9201207 -0.023055447 0.47303745
0.6773256 0.7794245 -0.00011024784 0.0042701513 -0.00013605432 -0.00020916498 -0.0028751763 -0.0012249154
-4.554828e-07 -0.0012221741 -0.0019992997 -0.017715247 -0.02394097 0.00019136468 0.8392043 0.2663775
0.013869709 0.00018827594 0.4256368 0.6217103 -0.014569211 -8.113231e-06 -0.0053805863 -0.025785018
-0.0019503421 0.6124496 -0.00014940604 1.0568131 0.00010951199 2.3906202 -0.013358656 -0.027012967
-3.4919094e-06 0.011627023 -0.0031361592 1.1640801 0.43605217 -0.013237983 -0.00013618286 0.008505725
1.0973605 5.7053603e-07 -0.0014097714 -0.023268167 -0.006410495 0.27755585 0.0004523783 -0.0003709811
-3.1336544e-06 -4.7082503e-07 -0.0027195218 0.5662469 -0.00011135222 0.68167204 -0.02984724 0.0062045422
-6.846235e-05 0.77865803 -0.029347809 -0.02377571 0.012004601 0.0124301305 -5.3455773e-05 -0.008426116
-3.7094287e-07 0.8587478 -0.007374458 0.64952636 -0.00024674722 0.5606183 1.1727577 -0.016168678
-0.0008413153 -0.0021199144 -0.013820539 -0.009368065 -0.0016501279 -6.148495e-06 -0.0034363796 -0.00047708998
-0.0002838146 -0.012903502 -0.031387776 -0.0131297 0.019255156 0.06780527 -0.012663302 -5.5609024e-05
0.00022673354 -0.00024222217 -0.03424102 1.7144468e-05 0.5452443 0.00016113002 0.0018845735 -0.00012177291
0.007394228 -0.009646086 0.0012110458 -0.016231317 -0.013222696 -0.010815676 -0.020597955 -3.2221997e-05
-0.0047913487 -0.03046266 0.00119821 -8.166627e-05 -0.0030030825 -0.021110106 0.00031556352 5.759053e-07
-0.015777387 -4.7043636e-06 0.83251035 4.8080125e-05 -0.0064855646 -0.00011005947 0.039585117 -0.00029664772
1.7637306 4.25673e-05 -0.0015039513 1.5292233e-05 -0.0025105076 -0.018797148 4.0248353e-05 0.6552728
0.026951728 -0.029595433 0.014731271 0.23047633 -0.0059198076 0.00015414321 -0.000701524 0.035334338
0.5105118 0.33354777 -0.00040309672 0.008839906 0.053847965 0.42305425 0.013106056 -5.9826663e-05
0.57566726 -0.00014363213 -0.020774474 0.013552215 -0.00803278 -0.0024233856 -0.0065805363 0.009703992
0.00062324037 9.676007e-05 -0.00023151217 -0.0012609557 -1.0944706e-05 -0.010433564 -1.45971e-05 -0.0052790334
-0.01565441 -0.017841378 -0.007709095 0.5588996 0.023893783 -5.9873855e-06 -0.0039439234 1.8591621
-0.011620551 0.0947728 -0.00016504807 5.384042e-05 0.0001369738 0.7425593 -0.00048338843 -7.214406e-07
-0.045813873 -1.4777298e-05 1.1601807 -0.0011888592 0.8806806 0.002846874 -0.0005454628 -0.022930289
1.6834501 -0.008955156 -9.596004e-06 1.5949906 2.0141296 0.0080757225 0.5944198 1.3419437
0.020690445 -0.0021327315 0.010276612 -5.7346506e-06 -0.0001356956 1.068026 -0.00364469 -0.003191074
-0.0008580928 1.5780644 -0.00011605138 -0.009980396 2.4651124 -0.0003263525 0.01965761 0.0026678515
0.0019413925 -0.013355693 -1.5392576e-06 -0.0002142373 0.65902996 -0.0040480224 5.945357e-05 6.1311505e-07
-0.0057970914 -0.018430134 0.7672705 0.006546462 0.71847224 -6.2021813e-06 1.1403825 1.3511593

bn1.bias f4 [400]
00000000: ac62 7bb9 690f b0bb 0e13 86bd 3045 37bc
00000010: e5ae bebd d6f4 70bc 83bd c9bb a5f5 3cbb
00000020: e4b3 0eba cc8c 2cbb 9d80 c1b9 c37e 31bc
00000030: d939 6dbb 19ca deba 4353 f0ba f35d 53bc
00000040: 7e2e 78bc 14ca 11ba 5ea2 9ebd 692f 95bc
00000050: 51c5 8e3d 4cde 9db7 7651 81bc b35f daba
00000060: a943 90b6 a2d5 c3bc b2b8 40bc 78d0 f9ba
00000070: 7484 15ba ad98 8dbd 905c d9bc 49c5 493e
00000080: f6f4 293e 45bf bc3e 6cc9 16b9 7c81 973b
00000090: e15c 9aba fe6d e1b9 fe9d 5dbb c631 06bb
000000a0: 72f0 1ab7 83e4 9fbb 8387 9abb befd abbc
000000b0: c315 c9bc 443f 1fba fdb1 a0bd 4b5e 19bd
000000c0: fdb8 c4b9 97e1 4cbc 7bb6 393e d353 833d
000000d0: a8bc 5abc 16bf 2db8 a387 85bc 25d7 d9bc
000000e0: b8a7 e2ba 796e b3bd 61de d1b9 8f68 013c
000000f0: 675a d838 1f21 19be 8827 a4bc bf86 e9bc
00000100: f806 97b8 3a3a 49bc d054 85bb 92a6 1cbf
00000110: 5b68 af3d 75a2 8fbc 852d dcb9 e812 10bc
00000120: 2bbf 96bd bf96 7cb9 bb15 96bb e533 c0bc
00000130: 5bd1 d2bb 0c23 6a3d 29ed 1ebc c681 0eba
00000140: bedd a1b7 bb65 83b8 a73d 10bc 046f 04be
00000150: 82de 90b9 f7a0 36be 2c38 00bd 1c17 a3bb
00000160: 519e e7b8 96fb 10bd 60b0 10bd f66b d4bc
00000170: cd1c 45bc bb32 6cbc 88a2 61b9 3c67 1ebc
00000180: 75f5 78b6 9c66 e0be 2353 45bc 69f0 0bbe
00000190: 0373 88ba ac3c b0bd ad02 353e 3629 abbc
000001a0: f42b f0ba 61f2 fcbb 603d 75bc 1530 77bc
000001b0: 2c19 a4bb 4eca 16b8 9ea8 c5bc 4811 c9bb
000001c0: 74e4 deba 5af5 73bc 7b50 0abd a675 79bc
000001d0: 57fd 9ebc 9517 6bbc da80 5cbc 5797 8ab9
000001e0: 52df 2dbb e2ff 09ba 592b 11bd 48d4 01ba
000001f0: 91d6 0cbe e7f2 4ebb 884e 02bc 272b 31ba
00000200: 2426 6ebc 095c 07bc 1b04 68bb 6da5 90bc
00000210: 8abc b4bb 459e 28bc 282b 9abc 4b65 01b9
00000220: ded2 9abb 96b0 f8bc 947a 51bc fbc5 5cb9
00000230: b8dd 5dbb 71d2 c7bc a315 18bb c918 dfb7
00000240: 9779 8bbc e944 a8b7 8ed0 1fbe 347e 19bb
00000250: 61d5 28bc 81c6 68ba ee90 4dbc 089a 62ba
00000260: dfab 373e 02ff 71b8 e32a 19bc 84d5 02b9
00000270: 6897 35bb ca4e 95bc cfcd 523b ffde babd
00000280: b0fb f5bc 5046 04bd 18cc a1bc e0ac 17bc
00000290: aea3 f6bb 6ac7 6bbb ebc3 50bb 1e22 3abd
000002a0: 1fef fc3d 1890 8c3a decd 71ba 462c febc
000002b0: 5917 7ebc 563e 833d f81a 7dbc 2dc1 9fb9
000002c0: d17b 53bd 1d4f acb9 6b3c 9f3d 48b0 c2bb
000002d0: e86a e3bc e17e 8fbb c116 9dbc 697c 43bc
000002e0: 810a 013b 7701 34ba de3d 1bba 7260 85bb
000002f0: 09c6 c2b8 c37a 00bc bcab 19b8 99ef efbb
00000300: 3038 66bc 6000 95bc 6bb5 24bc c7ab 0a3e
00000310: bd88 e4ba 458b ecb7 d563 f7ba 1983 253e
00000320: f98c dfbc 1ced 30bd 9f0b b5ba d232 3ab9
00000330: 77ad 9dbc 9e47 18be 993a 34bc 696e bbb6
00000340: 3753 3abd 7326 1db8 e532 0c3e eee4 36bb
00000350: 4122 d43b b668 0cbc cb97 ecba 91a7 cdbc
00000360: 96e1 d93d fdcf c7bc cb9c 31b8 75c0 08be
00000370: 6352 36bf 6328 34bc 87f1 e33b 5504 d7bc
00000380: 1c1b 67bc 3c8a e9bb 9bbb 61bc b6ef 0fb8
00000390: ac6d 01ba 0666 debe 8d57 0dbc 3298 6fbb
000003a0: cf3a 8dba c1e9 fcbd bec2 9fbb be08 8dbc
000003b0: 5351 923e 7229 4aba 9882 e7bc 3c57 32bc
000003c0: 8d24 25bc 90ea 06bc 6edd fdb7 4c1c a6bb
000003d0: c4bd 24be 4bb2 c6bc 2d98 0aba 8b60 d8b9
000003e0: ed7a c5bb 0fcb a5bc 0376 cfbe 494d d0bb
000003f0: 77d1 0ebe f189 09b8 050e bf3c 037b 363e
-0.00023973983 -0.005372931 -0.06546603 -0.011185929 -0.09310702 -0.014706811 -0.0061566248 -0.002883294
-0.0005443676 -0.0026329039 -0.00036907653 -0.010833445 -0.003619781 -0.0016997486 -0.0018335361 -0.012900817
-0.015147803 -0.0005561423 -0.07745813 -0.018211083 0.06971229 -1.8819374e-05 -0.015785914 -0.0016660601
-4.299411e-06 -0.023905579 -0.011762785 -0.0019059321 -0.0005703636 -0.06913886 -0.026533395 0.19704165
0.16597351 0.36864677 -0.0001438015 0.00462359 -0.0011776948 -0.00042997295 -0.0033816095 -0.0020476445
-9.235098e-06 -0.0048795356 -0.0047158613 -0.020995017 -0.02454651 -0.0006074796 -0.078464486 -0.03744344
-0.0003752186 -0.012504957 0.18136017 0.064124726 -0.013350643 -4.1424377e-05 -0.016300028 -0.026591847
-0.0017292416 -0.08761305 -0.00040029272 0.007898464 0.000103165214 -0.14954041 -0.020038381 -0.028506635
-7.201539e-05 -0.012281949 -0.0040689483 -0.61191666 0.08564826 -0.01753352 -0.00041995585 -0.00879357
-0.07360681 -0.0002408875 -0.004580227 -0.023462245 -0.0064336485 0.05716233 -0.009700098 -0.0005436208
-1.9295952e-05 -6.2655155e-05 -0.008803762 -0.12932974 -0.00027631602 -0.1783484 -0.03130357 -0.00497712
-0.00011044427 -0.03539618 -0.035324454 -0.025930386 -0.012030792 -0.014416392 -0.0002151822 -0.009668168
-3.7097755e-06 -0.43828285 -0.012043747 -0.13665928 -0.0010410253 -0.08605322 0.17676802 -0.020893674
-0.0018323646 -0.0077193235 -0.014968246 -0.015087147 -0.0050078835 -3.5951198e-05 -0.024128255 -0.0061360933
-0.001700534 -0.014890039 -0.03376816 -0.0152258035 -0.019407911 -0.014348884 -0.013458455 -0.00026434168
-0.0026530814 -0.0005264265 -0.03544173 -0.0004952592 -0.13753726 -0.0031577887 -0.007953294 -0.00067584444
-0.014535461 -0.008261689 -0.0035402838 -0.017657006 -0.0055156397 -0.010291641 -0.018819407 -0.00012340133
-0.0047248444 -0.03035764 -0.012785573 -0.00021054588 -0.0033854079 -0.024392338 -0.0023206256 -2.6595213e-05
-0.017025752 -2.005925e-05 -0.15606901 -0.002342117 -0.01030478 -0.0008879677 -0.012546761 -0.0008644168
0.17936657 -5.7696372e-05 -0.009348604 -0.00012477307 -0.0027708653 -0.018226046 0.0032166129 -0.091245644
-0.03002724 -0.032293618 -0.01975064 -0.009257525 -0.0075268364 -0.0035977014 -0.0031855057 -0.045442693
0.12350296 0.0010724096 -0.0009224097 -0.03102697 -0.015508496 0.06408374 -0.015448324 -0.0003047077
-0.051631752 -0.0003286534 0.07775196 -0.0059414245 -0.027760938 -0.004379139 -0.019175889 -0.011931517
0.0019690099 -0.00068666734 -0.00059219997 -0.004070335 -9.287528e-05 -0.007841769 -3.6637983e-05 -0.0073222634
-0.014051482 -0.018188655 -0.010053019 0.1354209 -0.0017435771 -2.8198245e-05 -0.0018874357 0.16163291
-0.0272889 -0.043194875 -0.0013812667 -0.00017757274 -0.019247754 -0.1487107 -0.011000299 -5.5858877e-06
-0.045489516 -3.7467526e-05 0.1369129 -0.0027907449 0.00647381 -0.008569887 -0.0018050609 -0.025104316
0.1063873 -0.024391169 -4.2346113e-05 -0.13354667 -0.7121946 -0.010995957 0.0069562825 -0.026247183
-0.0141055845 -0.0071270745 -0.013777639 -3.4317105e-05 -0.0004937302 -0.43437213 -0.008626831 -0.0036559221
-0.0010774973 -0.123492725 -0.00487551 -0.017216083 0.2857767 -0.00077118643 -0.028260514 -0.010885056
-0.010079515 -0.008234635 -3.0263061e-05 -0.005069291 -0.16088015 -0.024254939 -0.0005286958 -0.0004127066
-0.006026617 -0.020238427 -0.40519723 -0.0063568694 -0.13947092 -3.2791813e-05 0.023322115 0.17820363

bn2.weight f4 [300]
00000000: 930e da3f 012a 993f 99b0 e53f 3833 de3f
00000010: 2b66 3d40 adc4 cf3c b5d8 c2be bd4b f43f
00000020: db24 0c40 d2d9 983f bef9 e23f f960 eb3f
00000030: c7a4 4b3f 2054 9d3f a00b de3f c31f 5e3f
00000040: 0843 2b3f 3fde 443f 15c4 77bf 8c67 b9bb
00000050: 4fdc 3840 cf90 8c3e 2328 e73f 5f0a 873f
00000060: 7b6b 903f 40ed b23f 9f44 fc3e 48a2 d83f
00000070: 2e8c 2540 4fd7 ee3f 09b5 d2bf b429 cbb6
00000080: 9f5a ee3f 13ef d3be 2412 d63f 008c cc3f
00000090: ceff 0340 b225 3240 c37e 08bf 3e9a 1840
000000a0: a147 8cbd 12e9 943f 6521 c93e 12b8 853f
000000b0: fa4f 0340 18e1 d2be 88c8 0140 337a 0640
000000c0: 231d b23f b3f0 bb3f af7d 0540 b1fb d03f
000000d0: 8dae e63f cb75 bc3f 20f3 9a3d a7b7 65bf
000000e0: 4b48 86be 9e2e e53f 817e 2340 d155 1b40
000000f0: 423d 4f3f 61f2 d43f c09e e33e ce3f ed3f
00000100: d296 ed3f 714a dd3f 9dfb 6d40 6227 9ebe
00000110: 4fd5 d63f 14be 3040 8e9f 553e cf00 4b3f
00000120: ac46 9a3f 3afc 0c40 692a d43f 2571 0940
00000130: c307 573c 4b43 673e e567 ac3f 1d12 e33f
00000140: 985a fd3f 497f a73f 78c1 bc3f 1d1a 1540
00000150: ea3f c537 788e 973f 3e7f cc3e 0857 0840
00000160: ef46 c73d e8c3 f5bb a9df 663f 254e 1840
00000170: 0efb 793f 5d97 b63f 1838 343f efa7 a7bf
00000180: 1e0c ef3f 5e9a a03f e1bc f53f 8996 ed3f
00000190: ed72 143f 0aae ee3f 525e c73f 1608 2f3f
000001a0: ed54 1d40 744c 92bf 85e4 fc3f 4324 c43f
000001b0: fed6 5e3f e460 e23f 68aa 9d3f 16f1 86bf
000001c0: cdef 1340 6ad7 1d3e 6db3 4e3f 4e8a c83f
000001d0: a400 403f 99e2 cf3f b6fc 9c3e e181 c5bf
000001e0: dd35 de3f 7aa6 0a40 6beb 663f bf42 b63e
000001f0: fbac e43f 5654 f03f d5a8 ec3f 296b 8740
00000200: ebd3 f43f 4a21 fd3e 2249 a5bc d8ba ec3f
00000210: 7b7c 42bd d1e1 793f 3794 0e40 9205 ec3e
00000220: 3f8f 1640 988c f23f dba4 f33f bc98 2c3f
00000230: 7958 bb3f 0758 3940 631c 0c40 3cdc 31bf
00000240: f137 e83e 6b6b 313e a590 f83f f6ae 673f
00000250: 8e44 f83f afed 0340 bfcb 413f 1ccd e83f
00000260: 201f ce3f 5788 85bf e08c b5b9 f33b f93e
00000270: b23e e33f 424d d6be 117e 83bf 9585 0b3f
00000280: ba34 15bf 5df9 583f fa7e cb3d b18c 3abf
00000290: cd08 3c3e 28e1 f13f 0e14 0940 556c d63f
000002a0: ee29 c43f ccd5 e23f 9d8b 6cbf 837d ac3f
000002b0: ad4b 853f 8fa2 3a3f d017 1240 466f ba3f
000002c0: 133b aa3f 77b9 1fb8 a786 f23f 3816 1940
000002d0: 4320 f13f 3870 06c0 6047 db3f 25f4 843f
000002e0: df6d 363a b195 d83e 8274 bf3e ee0d b83f
000002f0: 8b37 a9be 6090 233f 587b ea3f 9100 ba3d
00000300: d513 1540 c565 1940 8c41 9b3f 6b38 52bd
00000310: 60fa 3140 ffc4 343d db3b 8bb5 60eb ed3f
00000320: 6681 c73f ddc7 0340 611d 0040 d7b7 1340
00000330: d1ef 783f 574a 413f 1589 cf3f 407e 333e
00000340: d144 f53e 06a5 85bf 6b4b 713e 2b5d 0a40
00000350: 1cd7 b03f 448d 2e3f 35d8 da3f 2a84 ba3f
00000360: 2ebc b83f b0bb a63f f179 7d3d 606f ee3f
00000370: 1be1 2f3f b535 163e a2ed e83f 8cd4 1640
00000380: 16b1 953f 0505 0340 995d 25bc ec2b 9a3d
00000390: 00c8 e93f 0b4f a03d 8b26 0740 fca3 fb3f
000003a0: 38dc 1c40 3eef 883f 7a8b 0440 da94 86b9
000003b0: 3248 90b7 d962 1740 3323 c63f 6d69 913e
000003c0: 1e32 0040 5677 0c40 9190 99be 0a23 0240
000003d0: bd73 fc3f 8e8b de3f 5083 d73c 558a 0a40
000003e0: dea7 fb3f 2377 7b3f fb68 c9be 07b8 ee3f
000003f0: ca5a 40bd 3484 893f ba5b ee3e 164d 733f
1.7035698 1.1965944 1.7944518 1.7359381 2.9593608 0.025362337 -0.3805596 1.9085613
2.1897495 1.1941473 1.7732465 1.8388969 0.79548305 1.2291298 1.7347298 0.86767215
0.66899157 0.7690162 -0.9678357 -0.0056580957 2.8884466 0.2745423 1.8059124 1.055004
1.12828 1.3978653 0.49271104 1.6924524 2.586681 1.8659457 -1.6461498 -6.0547263e-06
1.8621405 -0.41393337 1.6724286 1.5980225 2.062488 2.7835507 -0.53318423 2.3844142
-0.068496 1.1633627 0.3928329 1.0446799 2.0517564 -0.41187358 2.0278645 2.1012084
1.3915142 1.468283 2.085796 1.632681 1.8022019 1.4723448 0.07565904 -0.89733356
-0.2622703 1.7904851 2.5545962 2.4271128 0.80952847 1.6636468 0.44457054 1.8535097
1.8561652 1.7288343 3.7184823 -0.30889422 1.6783847 2.7616014 0.20861647 0.7929811
1.2052817 2.2028947 1.6575443 2.1475308 0.013124409 0.22584264 1.3469206 1.7739903
1.9793272 1.3085719 1.4746542 2.3297188 2.3513992e-05 1.1840353 0.39940828 2.130312
0.097303264 -0.0075001605 0.9018503 2.3797696 0.97648704 1.4264942 0.7039809 -1.3098124
1.8675573 1.2547109 1.9198266 1.8561565 0.5798786 1.8646863 1.5575659 0.68371713
2.4583085 -1.1429582 1.9757239 1.5323566 0.870468 1.7685819 1.2317629 -1.0542324
2.3115113 0.15414205 0.8074253 1.5667207 0.7500098 1.6241027 0.30661553 -1.5430261
1.7360188 2.166411 0.9020297 0.35597798 1.786529 1.8775737 1.8489023 4.231831
1.9127172 0.4943946 -0.020176474 1.849452 -0.047481995 0.97610193 2.2277963 0.46098
2.352493 1.8949156 1.9034685 0.67420554 1.4636375 2.8959978 2.1892326 -0.69476676
0.4535518 0.17326133 1.9419142 0.90501344 1.9395921 2.061382 0.75701517 1.8187594
1.6103249 -1.0432233 -0.0003462797 0.4867855 1.7753508 -0.41855818 -1.0272847 0.54500705
-0.5828358 0.847555 0.09936328 -0.7287093 0.18362732 1.8896837 2.141849 1.675181
1.5325296 1.7721496 -0.9240053 1.3475803 1.041372 0.72904295 2.2827034 1.4565208
1.3299278 -3.808128e-05 1.8947343 2.3919811 1.883797 -2.1005993 1.7131157 1.0387007
0.0006959121 0.42301705 0.37393576 1.4379251 -0.33050188 0.63892174 1.8318892 0.09082139
2.3293355 2.3968365 1.2129378 -0.051323336 2.7809067 0.044133183 -1.0373727e-06 1.8587456
1.5586364 2.0590737 2.0017931 2.3080957 0.9724093 0.7550406 1.6213709 0.1752863
0.47904065 -1.0440986 0.23563926 2.1619365 1.3815646 0.68184304 1.7097231 1.4571583
1.4432428 1.3026028 0.06188387 1.8627739 0.6870286 0.14668925 1.819752 2.3567228
1.1694667 2.0471814 -0.010093116 0.07527909 1.826416 0.07827576 2.1117275 1.9659419
2.450941 1.0698011 2.071013 -0.00025669375 -1.7199756e-05 2.3654082 1.5479492 0.28400746
2.003059 2.1947837 -0.29993108 2.0333886 1.972282 1.7386339 0.026307732 2.164693
1.9660604 0.98228663 -0.39337906 1.8649911 -0.046961583 1.074347 0.46554357 0.950395

bn2.bias f4 [300]
00000000: 47ff 913f cd4a 7abc 8976 933f fce4 543a
00000010: f17e 523e 3e27 c03e 6b2b 6c3f b333 943f
00000020: 7a50 533e 7ffe 77be 1c87 923f d87a 923f
00000030: 6c78 8abe 86a1 89bd 4d0b 103d 578f eabd
00000040: 0ca9 8e3f 3b3b 92be 2e25 413f 3121 fbbb
00000050: 8e0b 003e 3857 8a3f 38cf 2cbe 54b7 9dbe
00000060: c4c7 8f3f 92dc 20be 6bf6 8d3f 2b28 aebd
00000070: 52dd 463e c679 933f 7679 873f 9db4 08b7
00000080: b0e6 053d cfb0 903e a2c3 a1be ec18 24be
00000090: da2b 77be 0d51 873d ebd1 893f e577 d2be
000000a0: 1cc9 8a3f 1763 88be c212 a23e 5242 903f
000000b0: ecd0 8e3f b589 62be fff4 11bf be72 37be
000000c0: b4e6 13bf 1984 263d 6ebc 23be 1f75 c4be
000000d0: 9fda 913f 9a8d 77be b707 0bbd 6208 2f3f
000000e0: b02d 853f 75fc 933f 3a87 6e3f 7744 623f
000000f0: a96a 97bd a1eb 0dbf d5ce 8d3f bd6a 7fbe
00000100: e1e4 933f 1165 8f3f 13e6 ec3d b527 863f
00000110: 71c2 28be caa4 fc3d 1c50 8a3f 5c6b a0be
00000120: 40e2 8f3f 4e27 b1be 3efc 073c 5101 8a3f
00000130: 4fbf ccbc ab12 8ebe 2f47 edbe 3acf e63c
00000140: fdba ae3d ccd6 333f 19c1 903f 0dbb 6c3f
00000150: 0eea 82ba e963 92be 59c8 8b3f 2789 633d
00000160: 71ec 893f 707c b0bb e051 a9be 9a93 643f
00000170: 3074 f7be 9c78 5fbe 176d ee3e 9db9 bb3e
00000180: 9e14 a1be 9d6c 02bf 5e8a ecbe f447 943f
00000190: 9e66 92be f7a0 933f 06de d8bd 3f98 8e3f
000001a0: 19a8 6c3f eb82 263f bfda 943f ccb2 8f3f
000001b0: 3cb8 0dbe 9e98 943f 17e7 97be bb2d 313f
000001c0: 5700 613f c9f7 6bbe b9e9 97be 58a0 1bbe
000001d0: 81da 8d3f df2a 913f d17d 8b3f e96e 7f3f
000001e0: bdaa 37be 6885 573e 6f97 8f3f 9448 8b3f
000001f0: ac74 e7bc 3fd1 913f 4c89 77be 8087 3b3e
00000200: 663b 9d3d 5208 8b3f be4f 873f 30b8 36be
00000210: f783 c4bc 3f72 903f 9f0e 083e 8d9b 8d3f
00000220: bc06 643f 4541 1ebe 4f4c 953f b0fe ff3e
00000230: 062a 37be be27 dd3d d911 173e 39ee ebbe
00000240: 7131 aebe f8bd 3b3e d635 8e3f 118d 3e3f
00000250: df75 913f 1a6e 8f3f c919 a1be aed7 953f
00000260: 8c18 09be 8963 3e3f 02df 45ba 8ffb d5be
00000270: c902 80be c34b 95be 14a3 353f 7701 f1be
00000280: e727 acbe 0ab8 8f3f b13e 7e3f 6d86 053f
00000290: e338 8a3f edf7 313d edde 8a3f 3320 923f
000002a0: 2a76 c4bb a0d8 19bd 4d24 2a3f a87d 7d3f
000002b0: 54ec 00bf c5d9 8c3f 199c 79bd 5027 ad3e
000002c0: 9aa6 8f3f 244f 89b9 7f7f 943f 1f0c 7a3f
000002d0: 532a 0bbe 8ffc a33c 40a3 923f 36ad 82bd
000002e0: d4fe 7aba 2a5c 073f ca09 5c3e decc c3be
000002f0: ef20 3bbe e24e 8c3f 6ca7 cebe e642 f53e
00000300: 00c4 603f 1650 5f3f 7fbc a3be 8d25 87bd
00000310: e659 b8be 4f4d 573f 726f 69b9 687e 953f
00000320: 64c3 8f3f 7bfb 8c3f 05ce a8bd 3a05 633f
00000330: 67de 8d3f d66d 93bd 7fd8 5cbe 7528 2b3e
00000340: 891b 75be 1227 483f 8f36 a8be 5791 b13d
00000350: 18c1 4fbe 505d d83e cf22 2ebe 4987 57be
00000360: 23a1 abbe 2dbd 3cbe 2b85 8a3f 86c4 943f
00000370: aca3 f43e 867f 893f 28ce 85be 2c99 5c3f
00000380: ce2c c3bd dcd5 1dbe 2200 82bb 78c0 8a3f
00000390: 4ee2 13bd 1d09 8a3f b919 813d 9c9e 963f
000003a0: 9848 803f 602d 71be 7189 00bc 742d a0ba
000003b0: 2f9d 29b8 51a6 713f 5e28 c4be 5a8d cbbe
000003c0: 1f4b fdbe afd0 813f 39cf 22be 019e 8d3f
000003d0: f076 4cbe 6de1 923f e2d5 883f 98fa b0bd
000003e0: f454 02bf 79e3 8e3f 16b6 513e 8056 ebbe
000003f0: 414b 22be 6c75 85be 5938 8a3f e256 8f3f
1.140603 -0.015276623 1.1520549 0.00081212795 0.20556237 0.3752994 0.9225375 1.1578277
0.20636168 -0.24218176 1.1447482 1.1443739 -0.27045 -0.06720261 0.035167027 -0.11453121
1.1145339 -0.28560814 0.75447357 -0.007663869 0.12504408 1.0807867 -0.16875923 -0.3080393
1.1232839 -0.15709141 1.1090826 -0.08503755 0.19420364 1.1521537 1.0583942 -8.148284e-06
0.032690704 0.28259894 -0.31594568 -0.16025132 -0.24137822 0.06607256 1.0767187 -0.41107097
1.0842624 -0.266381 0.31654936 1.1270239 1.1157508 -0.22122844 -0.5701446 -0.17914864
-0.577739 0.040653322 -0.15989849 -0.38370606 1.1394843 -0.2417511 -0.033942904 0.68372166
1.0404568 1.1561419 0.9317509 0.8838572 -0.07393391 -0.55437666 1.1078745 -0.24943061
1.1554223 1.1202718 0.11567321 1.0480868 -0.16480424 0.123361185 1.0805697 -0.3133191
1.1240921 -0.346003 0.008299885 1.0781652 -0.024993567 -0.27748618 -0.4634337 0.028174985
0.08531759 0.7024963 1.1308929 0.92472917 -0.0009987967 -0.2859185 1.0920516 0.05555072
1.0775281 -0.005385928 -0.33070278 0.8928772 -0.48330832 -0.21823353 0.46567604 0.3666505
-0.31461042 -0.5094698 -0.46199316 1.1584458 -0.28593916 1.1533498 -0.105892226 1.1140212
0.92443997 0.65043515 1.1629256 1.122644 -0.13839811 1.1609075 -0.29668495 0.69210404
0.87891144 -0.23043741 -0.29670504 -0.15197885 1.1082307 1.1341208 1.0897771 0.9977861
-0.17936225 0.21046984 1.1218089 1.0881524 -0.028253876 1.1391982 -0.24173468 0.18313408
0.07677345 1.0861914 1.057121 -0.178437 -0.023988707 1.1284865 0.13286828 1.1063095
0.89072776 -0.15454586 1.1663913 0.49999 -0.17887124 0.10798596 0.14752902 -0.46080187
-0.34022096 0.18334186 1.111018 0.74434 1.1364096 1.1205475 -0.31464985 1.1706445
-0.1338827 0.7437063 -0.00075481844 -0.41793486 -0.25002125 -0.29159364 0.7095196 -0.4707143
-0.33624193 1.1228039 0.9931441 0.5215824 1.079861 0.04344933 1.0849282 1.1416076
-0.0059955316 -0.037560105 0.6646164 0.9901986 -0.5036061 1.1003958 -0.060939882 0.33819056
1.1222718 -0.0002618964 1.1601409 0.97674745 -0.13590364 0.02001789 1.145607 -0.063806936
-0.00095747155 0.52875006 0.21488109 -0.3824224 -0.18274282 1.0961573 -0.40362108 0.47902602
0.8779907 0.87231576 -0.3197975 -0.06598959 -0.36006087 0.8410234 -0.00022262128 1.1679201
1.1231503 1.1014246 -0.0824242 0.8867985 1.1083497 -0.07198684 -0.21566962 0.16714652
-0.23936285 0.78184617 -0.32854125 0.086702995 -0.20288503 0.42258692 -0.17005466 -0.21047701
-0.33521375 -0.1843154 1.082189 1.1622474 0.47781122 1.0742042 -0.26133847 0.8617122
-0.0953003 -0.15413612 -0.003967301 1.0839987 -0.036104493 1.0784031 0.06303734 1.1767154
1.0022154 -0.23552465 -0.007845269 -0.0012220577 -4.043913e-05 0.94394404 -0.38312048 -0.3975628
-0.49471375 1.014181 -0.15899362 1.1063844 -0.19967246 1.1475044 1.0690272 -0.08641547
-0.5091088 1.1163169 0.20479617 -0.45964432 -0.1584902 -0.26066148 1.0798446 1.119839
