trained_data/withwalls_1/actor_ddpg.pth (torch, 504034 bytes, 10 tensors)

fc1.weight f4 [400, 6]
0.03882664 0.009271949 0.16974004 -0.096731134 0.2962644 0.11729608 0.018676136 0.0076978425
-0.058548436 -0.29797107 0.13469034 -0.12237527 -0.017644452 0.0482419 -0.26891884 0.031040063
-0.04071363 0.022075046 -0.011385394 0.043701008 0.21961911 -0.07378085 0.28530964 0.055224724
-0.0078830365 0.04547656 -0.40701437 -0.14443135 -0.008029958 -0.12412721 0.027649151 0.0019589707
-0.07147385 -0.48021188 0.40559655 -0.05073626 0.06361447 -0.0075128046 0.3399629 -0.07677878
-0.19230235 0.111348495 0.08524856 -0.026004313 -0.07003283 -0.024761122 -0.15910317 -0.055279575
0.019214004 0.027596561 -0.2144234 -0.122666016 0.21169694 0.089475274 0.06564389 -0.010951322
-0.30300102 0.048776112 -0.28521034 0.32773203 0.029254232 0.0047904085 0.08283249 0.18358
0.36451578 -0.35150743 -0.028284984 0.050671402 -0.44345325 0.15127577 -0.025764026 0.19036187
0.036739815 -0.0008284383 -0.18356255 0.15303849 -0.17289196 -0.21876588 -0.003953775 0.040148593
0.23810469 0.1506767 -0.062832065 0.041359 -0.002580748 0.033261094 -0.37189382 0.1429586
-0.17284144 0.21511927 0.009628042 0.022929184 -0.15342376 -0.046732157 0.119358845 -0.059050467
0.02576225 0.027742648 -0.3448083 -0.005531251 -0.23417215 0.14757043 -0.0033380783 0.041190013
0.032196954 -0.16274178 -0.51262313 0.066888705 0.079723194 -0.0074502 0.2986522 0.1250544
-0.02516962 0.28830633 0.018925834 0.02534226 0.10007601 0.049945373 -0.03413201 0.16851006
-0.013666881 0.047755606 -0.12155274 -0.38870415 0.20696588 -0.31899863 -0.009955709 0.03471472
0.034621656 -0.15551212 0.07568999 -0.059320044 -0.005549354 0.044276502 0.022513296 -0.06520736
-0.058002014 -0.23635168 0.012424818 0.022570616 0.2285857 -0.4232679 0.38234887 0.035674658
0.008362071 0.024280222 0.08224503 -0.30179134 0.2871273 0.028762864 -0.009873463 0.0543018
0.32462358 -0.029833108 -0.21637118 -0.3573799 -0.022104159 0.04687465 0.08399937 -0.09988825
0.18060938 -0.2604361 0.012733429 0.027103182 -0.38683584 -0.5077842 -0.21320419 -0.20748264
0.023949321 0.011697549 -0.15602365 -0.29100335 0.3298282 -0.1961433 0.025216717 0.019178372
-0.73271966 0.23374167 -0.22520459 -0.12475054 0.02564577 0.007757422 0.3100185 0.33899152
0.24860618 0.20661815 0.02849708 0.014777953 0.061262682 -0.23916982 0.2722634 0.07932331
0.03364465 0.003831632 0.19664243 -0.37928328 0.21961068 -0.44571766 0.015615538 0.022690875
-0.09540045 -0.30376622 -0.1425803 0.0830449 0.05071885 -0.037651572 0.01258623 0.2976854
0.16497332 -0.37653092 -0.0006957121 0.04148912 0.18061493 0.10948982 -0.103561565 -0.11753412
0.029285142 0.010377834 0.2249073 -0.34852284 0.19267142 -0.44212073 0.021295032 0.01426908
-0.4177486 -0.03147072 0.36752173 -0.30227447 0.022233648 0.009727167 0.38087353 0.23689689
0.2699559 -0.05523704 0.025788546 0.0073560593 -0.19698541 -0.20643485 0.35300058 -0.13787015
0.0052126003 0.020126792 0.41809666 -0.23599009 -0.18899444 0.013884879 0.031654503 0.022996737
0.18141711 -0.29268295 -0.5112197 0.21626668 0.015847784 0.024742726 0.87832713 -0.008400501
00000000: af08 1f3d 5fe9 173c 55d0 2d3e f91a c6bd
00000010: f8af 973e ed38 f03d b2fe 983c 2f3e fc3b
00000020: 7cd0 6fbd aa8f 98be 44ec 093e e39f fabd
00000030: 198b 90bc 4c99 453d bbaf 89be bb47 fe3c
00000040: 56c3 26bd bad6 b43c ce89 3abc d4ff 323d
00000050: d5e3 603e 6a1a 97bd 1b14 923e 5233 623d
00000060: da27 01bc a145 3a3d 3064 d0be d0e5 13be
00000070: 1690 03bc 6836 febd 7980 e23c 1362 003b
00000080: e260 92bd 55de f5be 5aaa cf3e d3d0 4fbd
00000090: 4e48 823d f92d f6bb 9e0f ae3e 313e 9dbd
000000a0: e8ea 44be ae0a e43d cc96 ae3d ff06 d5bc
000000b0: 5f6d 8fbd d6d7 cabc f1eb 22be d66c 62bd
000000c0: b066 9d3c 2f12 e23c cf91 5bbe 5238 fbbd
000000d0: 15c7 583e d03e b73d 4e70 863d 2c6d 33bc
000000e0: f322 9bbe 76c9 473d 1707 92be 7ecc a73e
000000f0: 92a6 ef3c dcf8 9c3b 15a4 a93d 65fc 3b3e
00000100: d0a1 ba3e c8f8 b3be e9b5 e7bc d18c 4f3d
00000110: 4e0c e3be 09e8 1a3e 140f d3bc 39ee 423e
00000120: 7d7c 163d 8e2b 59ba d2f7 3bbe 1fb6 1c3e
00000130: 970a 31be 2a04 60be ab8e 81bb da72 243d
00000140: b7d1 733e fe4a 1a3e 19ae 80bd 0e68 293d
00000150: c421 29bb c93c 083d de68 bebe bd63 123e
00000160: 59fd 30be 3a48 5c3e efbe 1d3c fcd5 bb3c
00000170: 1e1b 1dbe 386a 3fbd 6972 f43d e7de 71bd
00000180: 5b0b d33c 8d44 e33c b78a b0be 7f3f b5bb
00000190: d3ca 6fbe b41c 173e a9c3 5abb dcb6 283d
000001a0: f4e0 033d c8a5 26be 453b 03bf f2fc 883d
000001b0: ea45 a33d cf20 f4bb f1e8 983e 430e 003e
000001c0: 8530 cebc e39c 933e 5a0a 9b3c 929a cf3c
000001d0: a7f4 cc3d 8593 4c3d 02ce 0bbd e78d 2c3e
000001e0: 0eeb 5fbc 629b 433d a5f0 f8bd 3b04 c7be
000001f0: ddee 533e ca53 a3be 451d 23bc 0631 0e3d
00000200: 70cf 0d3d 923e 1fbe 5a03 9b3d 93f9 72bd
00000210: 5bd7 b5bb 475b 353d ce6d b83c 708b 85bd
00000220: 8593 6dbd 2d06 72be 7791 4b3c 03e6 b83c
00000230: 5f12 6a3e 92b6 d8be 3bc3 c33e 971f 123d
00000240: 1101 093c 51e7 c63c 1570 a83d 6584 9abe
00000250: 5902 933e 19a0 eb3c 4ec4 21bc 906b 5e3d
00000260: 1035 a63e 9064 f4bc 6890 5dbe 80fa b6be
00000270: c813 b5bc a2ff 3f3d dd07 ac3d 3692 ccbd
00000280: aaf1 383e e157 85be df9f 503c 7e07 de3c
00000290: 590f c6be 25fe 01bf 3352 5abe 5476 54be
000002a0: 5e31 c43c 14a7 3f3c aac4 1fbe 64fe 94be
000002b0: 3edf a83e cad9 48be 4a93 ce3c f61b 9d3c
000002c0: 8493 3bbf fa59 6f3e 089c 66be 367d ffbd
000002d0: 1417 d23c f931 fe3b bfba 9e3e 4c90 ad3e
000002e0: 9e92 7e3e b593 533e b572 e93c 3a1f 723c
000002f0: 94ee 7a3d efe8 74be 1c66 8b3e 4274 a23d
00000300: f9ce 093d 1e1c 7b3b a25c 493e 6b31 c2be
00000310: 9fe1 603e 1b35 e4be 50d8 7f3c 37e2 b93c
00000320: 5061 c3bd 3f87 9bbe 9200 12be 7213 aa3d
00000330: 92be 4f3d 8938 1abd 7a36 4e3c 396a 983e
00000340: c4ee 283e a9c8 c0be 7360 36ba 7ff0 293d
00000350: 1ff3 383e 333c e03d 1618 d4bd bbb5 f0bd
00000360: 65e7 ef3c ca07 2a3c 194e 663e 9671 b2be
00000370: a84b 453e a65d e2be eb72 ae3c dcc8 693c
00000380: 25e3 d5be 71e7 00bd cf2b bc3e b8c3 9abe
00000390: 5723 b63c b25e 1f3c db01 c33e 1995 723e
000003a0: a937 8a3e 3c40 62bd 8042 d33c 190b f13b
000003b0: 8bb6 49be a863 53be 7ebc b43e d52d 0dbe
000003c0: 76ce aa3b f1e0 a43c c410 d63e 63a7 71be
000003d0: c287 41be 677d 633c 27a8 013d a763 bc3c
000003e0: 68c5 393e 8ada 95be 4bdf 02bf 0375 5d3e
000003f0: 36d3 813c 42b1 ca3c 0cda 603f 41a2 09bc

fc1.bias f4 [400]
-0.4202245 0.036915254 0.20318566 0.2426986 -0.5002318 -0.055999037 0.36273548 0.01846928
-0.25500175 0.15970874 -0.11925301 -0.24833867 -0.21189702 0.19876659 0.10627994 -0.33504117
-0.49850988 0.12906961 -0.22639117 0.57721174 0.13892789 -0.074637696 0.18949951 -0.11790973
0.15723303 0.0072738156 0.20296611 0.3883083 0.032946568 -0.3270894 0.10075321 0.23981282
-0.27117682 -0.0016797306 -0.28790998 0.07671246 -0.3419956 -0.33648458 0.17431884 0.1585845
0.39514872 0.19328965 -0.048676852 0.5222476 -0.17141953 -0.31989962 -0.37292707 0.09166053
-0.15995143 0.080422916 0.043421987 -0.29229423 0.079954624 -0.21687232 -0.098861225 -0.28871003
0.34880352 0.21419296 -0.36442065 0.27056322 0.12331582 -0.18981792 0.41199517 -0.29520255
0.24603792 -0.44293058 0.31165972 0.51831317 -0.065606445 -0.09286126 -0.18142995 -0.3615099
0.08209527 0.07390458 -0.07616994 -0.32568696 0.4514632 0.026647346 -0.035936505 -0.6781237
0.17598568 -0.2819601 -0.111835316 0.22830309 0.40625438 -0.064317115 0.2277733 -0.32308483
0.18511544 -0.31915623 0.36122745 -0.07789569 -0.2664855 -0.4726287 0.1327498 0.095285304
0.43495256 -0.15824173 -0.30987558 -0.39331597 -0.089729816 -0.13966867 0.2133158 -0.18232134
-0.4275047 0.4987499 0.3178044 -0.010933033 -0.4099501 0.1266192 0.1217814 -0.17790182
-0.38233653 -0.09217586 -0.18396 0.35993293 0.16002038 0.103643954 0.07717603 0.5669112
-0.13595843 0.3571189 -0.35087666 -0.124380715 0.19684397 -0.6232427 0.077639684 0.098853625
-0.053088143 -0.42336792 -0.27919483 0.3146232 0.16959545 0.28861022 -0.07978483 0.24468938
0.37555233 -0.21629488 0.007290528 -0.3621508 -0.21361098 -0.22378391 0.3474054 -0.4325155
-0.02023258 0.23309474 0.6231846 -0.03847175 -0.13179976 -0.34097412 -0.06493488 0.12450022
0.3147843 0.444944 -0.034292553 -0.4989472 -0.39476833 -0.2756266 0.5637652 0.23679776
0.04666839 0.16547674 -0.45207465 0.30129993 0.14648642 -0.27046716 0.05254504 -0.43606323
0.4194002 0.4403174 -0.2455864 -0.17985366 0.1725791 0.34077463 -0.10077145 -0.1903259
0.06299772 -0.19251837 -0.3359102 0.44447035 0.008561511 -0.20932491 0.16907333 -0.15106346
-0.022414336 0.2453906 0.5060858 0.025491586 0.21096464 0.18133995 -0.20651361 0.06415183
0.12125377 -0.1205114 -0.4134352 -0.43292663 -0.34308526 -0.32155326 0.28657916 -0.42458504
-0.16059949 -0.0025445966 0.02502446 0.016509095 -0.22638619 0.009786087 0.07872425 -0.046216555
0.5220699 0.17459606 -0.10458352 0.2209239 -0.15917954 0.11605052 -0.50392896 0.22013992
-0.1011177 0.22269768 0.021072404 0.28458753 0.19476435 0.25207484 -0.17280176 -0.3065363
-0.5735547 0.15338857 -0.22055896 0.030474061 0.4146449 0.48395482 -0.21499047 -0.088266306
0.6138908 0.171946 -0.13912547 -0.18003531 -0.026763355 0.06490249 0.06900557 0.08011638
-0.13295567 -0.08919587 -0.03673686 -0.18227679 -0.4049065 0.048673414 -0.24266754 -0.3821824
-0.011808668 -0.3882591 -0.6263403 -0.060999062 -0.22145888 -0.08300389 -0.05810124 -0.18364502
00000000: aa27 d7be 7334 173d e70f 503e fb85 783e
00000010: 310f 00bf 3f5f 65bd 77b8 b93e e34c 973c
00000020: 978f 82be b08a 233e ec3a f4bd 7e4c 7ebe
00000030: 88fb 58be 7889 4b3e 4ca9 d93d 848a abbe
00000040: b03c ffbe d32a 043e 16d3 67be 26c4 133f
00000050: 1d43 0e3e a6db 98bd 290c 423e a87a f1bd
00000060: b201 213e 3059 ee3b 59d6 4f3e 58d0 c63e
00000070: fbf2 063d 4378 a7be b357 ce3d 7e91 753e
00000080: b0d7 8abe 682a dcba f068 93be 6c1b 9d3d
00000090: 0c1a afbe b547 acbe a380 323e fa63 223e
000000a0: ef50 ca3e b9ed 453e 6161 47bd 05b2 053f
000000b0: 9a88 2fbe e2c9 a3be 4cf0 bebe 84b8 bb3d
000000c0: 4fca 23be c5b4 a43d 41db 313d 97a7 95be
000000d0: 40bf a33d c713 5ebe c177 cabd cdd1 93be
000000e0: 6096 b23e 6655 5b3e 5895 babe 4387 8a3e
000000f0: 018d fc3d a15f 42be 08f1 d23e ca24 97be
00000100: 5df1 7b3e ccc7 e2be dd91 9f3e 2cb0 043f
00000110: ac5c 86bd 0b2e bebd c6c8 39be d317 b9be
00000120: 9121 a83d 495b 973d fcfe 9bbd 71c0 a6be
00000130: 2f26 e73e 894b da3c 2832 13bd 8499 2dbf
00000140: 9735 343e 135d 90be ea09 e5bd 49c8 693e
00000150: 9300 d03e b1b8 83bd 673d 693e 606b a5be
00000160: e78e 3d3e 7268 a3be cef2 b83e c787 9fbd
00000170: ca70 88be 64fc f1be 90ef 073e f124 c33d
00000180: 1ab2 de3e 1f0a 22be 03a8 9ebe b660 c9be
00000190: 44c4 b7bd 4e05 0fbe 756f 5a3e 72b2 3abe
000001a0: e5e1 dabe 265c ff3e 42b7 a23e 7720 33bc
000001b0: fbe4 d1be 77a8 013e 8768 f93d e52b 36be
000001c0: 9dc1 c3be b3c6 bcbd 0360 3cbe 2149 b83e
000001d0: 62dc 233e 4843 d43d 770e 9e3d 1821 113f
000001e0: b038 0bbe 4ad8 b63e 1ba6 b3be 51bb febd
000001f0: 7791 493e d58c 1fbf 8e01 9f3d c573 ca3d
00000200: f472 59bd aec3 d8be a0f2 8ebe 4b16 a13e
00000210: 6eaa 2d3e b8c4 933e 3b66 a3bd da8f 7a3e
00000220: 6548 c03e 687c 5dbe 62e5 ee3b d46b b9be
00000230: d6bc 5abe 9c27 65be 1fdf b13e ac72 ddbe
00000240: ccbe a5bc 63b0 6e3e 0789 1f3f 8e94 1dbd
00000250: 84f6 06be 2994 aebe 94fc 84bd f9f9 fe3d
00000260: 682b a13e b3cf e33e 5976 0cbd 0276 ffbe
00000270: 131f cabe ee1e 8dbe eb52 103f 1d7b 723e
00000280: 5b27 3f3d bc72 293e 5476 e7be fc43 9a3e
00000290: 8900 163e ac7a 8abe 7839 573d ae43 dfbe
000002a0: 9fbb d63e 4871 e13e 007b 7bbe 8f2b 38be
000002b0: 93b8 303e 037a ae3e 4361 cebd cbe4 42be
000002c0: f304 813d 8923 45be 6cfc abbe 9e91 e33e
000002d0: 9445 0c3c 4559 56be 8f21 2d3e 61b0 1abe
000002e0: 459e b7bc ac47 7b3e d78e 013f bbd3 d03c
000002f0: 1d07 583e 2eb1 393e 4e78 53be 0962 833d
00000300: e653 f83d aece f6bd c7ad d3be 8fa8 ddbe
00000310: dfa8 afbe a1a2 a4be 81ba 923e 3663 d9be
00000320: 3174 24be 3fc3 26bb 1900 cd3c 153e 873c
00000330: c8d1 67be d355 203c 2e3a a13d 924d 3dbd
00000340: 5fa6 053f 4fc9 323e e22f d6bd e039 623e
00000350: f6ff 22be e5ab ed3d 7d01 01bf 5c6c 613e
00000360: cc16 cfbd dc0a 643e 09a0 ac3c 75b5 913e
00000370: 4e70 473e f40f 813e f2f2 30be 53f2 9cbe
00000380: 7bd4 12bf e511 1d3e 35da 61be bda4 f93c
00000390: 564c d43e edc8 f73e 7626 5cbe f7c4 b4bd
000003a0: f327 1d3f 9d12 303e e876 0ebe 2d5b 38be
000003b0: d33e dbbc 99eb 843d cb52 8d3d 0e14 a43d
000003c0: 8825 08be 53ac b6bd 6479 16bd c4a6 3abe
000003d0: e84f cfbe c65d 473d d77d 78be 69ad c3be
000003e0: 2579 41bc e6c9 c6be d757 20bf 27da 79bd
000003f0: 1ec6 62be f2fd a9bd 91fb 6dbd 710d 3cbe

fc2.weight f4 [300, 400]
-0.070015706 -0.5453111 0.017007329 0.05245992 0.034228854 -0.27935493 0.07124794 0.031060195
0.07459079 0.10859626 0.09345583 -0.05290684 -0.21651037 0.103696205 0.035218652 0.13155572
0.049260475 -0.00788031 0.010395118 -0.03104279 -0.070936315 0.1767285 0.07302626 0.038509
0.025766851 0.07961644 0.039977007 0.0043505873 -0.19182512 0.06075912 0.060959402 -0.09403565
0.03644634 0.18095188 -0.07114266 0.12300813 -0.05722252 0.033514183 0.08086908 -0.15056117
-0.22396286 -0.003225538 0.009586159 -0.016107084 0.07828758 0.18971874 -0.017276203 0.035060205
0.037361756 -0.22668637 -0.25669122 0.104832605 0.014026025 0.04340066 0.106305785 0.01881574
-0.11730804 -0.045871735 0.029764263 -0.0040955 0.07917419 0.0017623282 -0.025058584 -0.18229361
0.005517936 -0.046094302 -0.04448519 -0.09496329 0.028901286 -0.082069725 0.06525308 0.08174688
0.013173482 0.03458736 0.027515462 0.0055251424 0.18082622 -0.087591395 0.016801013 0.02325012
0.059340216 -0.0037164628 -0.017190432 0.11358745 0.007199262 -0.0056078904 -0.160784 0.2017573
0.031677842 0.11565804 0.006132681 -0.21501046 0.10469739 0.031053433 0.05563459 0.11952861
-0.106616266 -0.13057095 0.032066673 -0.06021431 0.052922744 -0.08046474 0.085199945 -0.2562234
0.107707016 0.015646288 0.06782114 0.039056145 0.010951767 0.05980448 0.17445596 -0.030625278
0.020302799 -0.05106788 0.112812646 0.08434395 -0.016450634 -0.03240945 -0.056593746 -0.021590836
0.13752057 -0.037269488 -0.04095704 -0.04931401 0.2567348 -0.17351747 0.1555712 0.007445486
-0.02359707 0.0044122925 -0.022840165 0.00966462 -0.0724056 -0.020219855 -0.057952296 0.009951924
0.055515017 0.023643129 0.0017644947 -0.04829121 -0.08647945 -0.10590758 -0.17767155 0.07663763
-0.005788739 0.1043088 -0.016446885 0.116117924 -0.21035853 0.065529406 -0.0075596394 -0.13255428
0.09315651 -0.027506776 0.012542722 -0.046931043 0.091936894 0.09748997 0.25968048 -0.3053129
-0.03605904 0.0009084124 -0.05782499 0.055590134 0.20999028 0.07273491 0.27054235 -0.026465258
-0.002752479 -0.045559317 -0.004509872 -0.25895238 0.009923547 -0.05059347 -0.09144008 -0.15902448
-0.28744772 0.04903853 -0.21240172 -0.23692244 0.14238499 -0.12541714 -0.021980103 0.1006585
-0.15430349 0.16406274 0.04850108 -0.08221832 0.015194805 0.13276888 0.09260202 0.034531213
-0.060497217 -0.14889626 0.035386514 0.14115429 0.08349906 0.0970387 0.116144404 -0.2591997
0.057967164 0.3561728 -0.007753713 0.04995166 0.0709789 -0.00091465283 0.038378187 0.02323458
-0.008709789 0.02496858 0.06149812 0.05257286 0.015988678 0.058010083 -0.08717092 -0.10695264
0.004681352 -0.12899324 0.09180841 0.0756755 0.088804804 -0.011651432 0.0032372214 -0.096116826
0.072699204 0.06326516 -0.018182848 0.024374496 0.12620752 -0.024546107 0.07934538 0.051291563
0.025481967 0.13570593 0.02239834 -0.005764914 -0.10159656 0.013801255 -0.061378367 0.14354883
0.31548512 0.044455845 0.11485845 0.25887898 0.087053165 0.14564002 -0.07511392 -0.022065964
-0.059463486 -0.09173834 0.10064078 0.109833814 0.0041111843 0.0029448078 0.32050058 -0.015856978
00000000: 6564 8fbd 8299 0bbf f452 8b3c 37e0 563d
00000010: 8e33 0c3d 9c07 8fbe 71ea 913d f371 fe3c
00000020: 0ec3 983d b767 de3d c565 bf3d d8b4 58bd
00000030: e5b4 5dbe ad5e d43d 6f41 103d 8bb6 063e
00000040: 5ac5 493d 6a1c 01bc 4950 2a3c 734d febc
00000050: 0f47 91bd 51f8 343e cb8e 953d 9dbb 1d3d
00000060: 0115 d33c f20d a33d eebe 233d 5f8f 8e3b
00000070: ce6d 44be 8ede 783d 91b0 793d c395 c0bd
00000080: c248 153d 734b 393e 3eb3 91bd b0eb fb3d
00000090: 2962 6abd 2b46 093d b09e a53d b52c 1abe
000000a0: 8556 65be 8c63 53bb 440f 1d3c 01f3 83bc
000000b0: 3d55 a03d a145 423e d386 8dbc 4a9b 0f3d
000000c0: a408 193d 7920 68be 086d 83be 7ab2 d63d
000000d0: 6acd 653c e4c4 313d d9b6 d93d 7723 9a3c
000000e0: 333f f0bd 00e4 3bbd 2fd4 f33c 8b33 86bb
000000f0: 1426 a23d ecfd e63a a947 cdbc 2dab 3abe
00000100: cdcf b43b 61cd 3cbd 1a36 36bd 1d7c c2bd
00000110: 64c2 ec3c 2c14 a8bd 68a3 853d e96a a73d
00000120: 97d5 573c 7aab 0d3d 1b68 e13c 410c b53b
00000130: 822a 393e 1e63 b3bd 47a2 893c 0977 be3c
00000140: ba0e 733d e68f 73bb f3d2 8cbc 89a0 e83d
00000150: c9e7 eb3b 65c2 b7bb 90a4 24be 7799 4e3e
00000160: a0c0 013d 1fde ec3d a8f4 c83b b42b 5cbe
00000170: 966b d63d c563 fe3c 19e1 633d 6acb f43d
00000180: a159 dabd 64b4 05be 5858 033d 48a3 76bd
00000190: 85c5 583d b3ca a4bd 4f7d ae3d b72f 83be
000001a0: 7f95 dc3d a52c 803c cfe5 8a3d 56f9 1f3d
000001b0: 0a6f 333c 8bf5 743d 95a4 323e dde1 fabc
000001c0: 0e52 a63c 8e2c 51bd 510a e73d 85bc ac3d
000001d0: 7bc3 86bc c5bf 04bd d8ce 67bd 44df b0bc
000001e0: 31d2 0c3e e4a7 18bd 92c2 27bd 7dfd 49bd
000001f0: be72 833e 90ae 31be 0f4e 1f3e 43f9 f33b
00000200: a44e c1bc fe94 903b 4c1b bbbc 5b58 1e3c
00000210: 6349 94bd 1ca4 a5bc 635f 6dbd 650d 233c
00000220: b763 633d 3caf c13c 9e46 e73a 01cd 45bd
00000230: 231c b1bd 13e6 d8bd 88ef 35be 31f4 9c3d
00000240: 76af bdbb da9f d53d 9ebb 86bc 3ccf ed3d
00000250: 3a68 57be 4834 863d dab6 f7bb 4fbc 07be
00000260: d7c8 be3d e455 e1bc fd7f 4d3c c43a 40bd
00000270: 6949 bc3d d2a8 c73d d7f4 843e f951 9cbe
00000280: a5b2 13bd 8622 6e3a e6d9 6cbd 7bb2 633d
00000290: b107 573e 0af6 943d 8784 8a3e abcd d8bc
000002a0: ef62 34bb 689c 3abd 8cc7 93bb 6895 84be
000002b0: 5f96 223c 193b 4fbd f044 bbbd 50d7 22be
000002c0: 592c 93be a0dc 483d d67f 59be cc9b 72be
000002d0: 5fcd 113e 5a6d 00be 9e0f b4bc 0b26 ce3d
000002e0: bc01 1ebe 1000 283e 12a9 463d 1462 a8bd
000002f0: a2f3 783c 91f4 073e 21a6 bd3d 9a70 0d3d
00000300: eecb 77bd 4378 18be 73f1 103d c08a 103e
00000310: 8e01 ab3d 3abc c63d 1edd ed3d d3b5 84be
00000320: fa6e 6d3d 485c b63e dc12 febb 1d9a 4c3d
00000330: 635d 913d 50c5 6fba 7232 1d3d 7256 be3c
00000340: 81b3 0ebc e88a cc3c 74e5 7b3d a456 573d
00000350: b0fa 823c fb9b 6d3d ab86 b2bd fc09 dbbd
00000360: 0766 993b ce16 04be 0c06 bc3d c2fb 9a3d
00000370: 4bdf b53d a6e5 3ebc 9027 543b e6d8 c4bd
00000380: 52e3 943d 2a91 813d 32f4 94bc 06ad c73c
00000390: 8b3c 013e eb14 c9bc d57f a23d 1a17 523d
000003a0: 8fbf d03c 7ff6 0a3e b97c b73c 9be7 bcbb
000003b0: db11 d0bd a91e 623c e267 7bbd 77fe 123e
000003c0: 4487 a13e 5517 363d e83a eb3d c98b 843e
000003d0: ee48 b23d a822 153e 54d5 99bd aec3 b4bc
000003e0: fc8f 73bd 50e1 bbbd c11c ce3d 8df0 e03d
000003f0: 1db7 863b adfd 403b a718 a43e 7ee6 81bc

fc2.bias f4 [300]
0.03401109 0.017754778 0.005109104 -0.012776361 -0.0015418762 0.09146904 -0.022910614 0.08135948
-0.04495854 0.061491724 0.0311206 0.04261853 0.06422024 0.023484247 0.066421784 -0.013016895
-0.037392523 0.004408992 0.054902323 0.027071359 0.049608655 0.043775003 0.041104645 -0.0054273247
0.010800087 0.002803943 0.023305006 0.084123865 0.04264342 0.0023324585 0.028358534 -0.03172391
0.036096126 -0.039737288 -0.036374107 0.011471005 0.09729815 0.057507027 0.063915424 0.015479237
0.028328141 -0.021149311 -0.00019383735 0.08660464 -0.03659858 0.05256329 0.034029953 -0.019152518
0.059590768 0.015028151 -6.710084e-05 0.07872206 0.0077243918 -0.012273535 0.032825734 0.006372272
-0.03217199 -0.04129831 0.074248195 0.028050737 -0.010622641 -0.03889517 -0.0063386206 -0.02841855
0.07326194 0.06346702 0.01637479 -0.014067103 0.037136164 0.07668136 -0.031024668 0.02319321
-0.025509289 0.028057126 0.048597768 -0.009120882 0.0058182 -0.0014516499 0.02195976 0.027854763
0.01695269 -0.0063935723 0.032707658 0.0074631884 -0.017605232 -0.0028356297 -0.02287014 0.044622835
0.05005818 0.028650966 0.009564834 0.06876223 0.068529606 -0.044346992 -0.0060919053 0.012654769
0.058665495 -0.040990196 0.07229692 0.034145534 -0.0039809314 0.0272429 0.013752199 0.050805755
-0.011416277 -0.024003208 -0.018329311 0.0155144185 0.053811245 0.024145352 -0.044708088 -0.035664517
0.061556064 0.020614281 -0.004360747 -0.048359726 0.058984917 -0.010055158 -0.03158497 0.015128267
-0.0035343186 0.050350644 -0.016463794 0.067258984 0.035413675 -0.0066206004 0.026195971 0.018572016
0.044059582 0.047303133 0.032737367 -0.014257934 0.0039049084 0.07177105 0.00022563424 0.01825346
0.0030763093 -0.065919764 -0.010416279 0.065828964 0.08300903 0.06352065 -0.052620526 0.041891444
-0.002740131 0.0018389288 0.066911384 0.05081366 -0.05917959 -0.044335227 -0.012121334 0.01872908
-0.050556857 0.0034330045 -0.0029693397 -0.047040652 0.013433204 0.01012486 0.052344203 0.01938275
-0.025217086 0.024505166 0.07880976 0.017802652 0.005773217 0.047935814 0.0033446872 0.04332394
-0.017960211 0.016276468 -0.006765349 -0.010470075 0.02174452 0.060172386 -0.02957393 0.05068986
-0.044435207 0.03726394 0.015349452 -0.0044243587 0.016327659 -0.03011211 -0.052234758 -0.032154292
-0.033484608 0.041756324 0.038609806 -0.0056241825 0.016345065 0.0018538487 -0.038912028 0.05319293
0.0040787 -0.0045774193 0.059399236 0.07278514 0.062648974 0.072392285 0.013334562 0.0014068261
-0.036048032 -0.05109439 -0.02810491 -0.02140985 0.06480788 -0.00632693 0.039591286 -0.02589208
0.058390167 -0.017120553 -0.021184485 -0.00030331514 0.05054822 -0.0069775633 -0.00058265746 -0.01116873
0.003305882 0.015016197 -0.0022970904 0.016027542 -0.009378877 0.0069643934 0.075852364 0.065402836
0.0718614 0.0072257738 -0.02735789 0.049344476 0.04134453 0.040942855 -0.030207384 0.05982838
-0.012603105 0.08356941 0.076205954 0.053691003 -0.02608965 -0.022096047 -0.00080902287 -0.01711204
-0.021028431 -0.036401764 0.07753923 0.027491366 -0.044458777 0.050756924 -0.027869415 -0.023619866
0.028588286 -0.04842376 -0.045375846 -0.008996903 0.014883331 -0.04564694 -0.011860953 0.035155136
00000000: 364f 0b3d 7872 913c 456a a73b f153 51bc
00000010: c818 caba 1f54 bb3d 0aaf bbbc cd9f a63d
00000020: 7226 38bd bfde 7b3d a1f0 fe3c c590 2e3d
00000030: e785 833d 0962 c03c 2508 883d d144 55bc
00000040: e728 19bd 4e79 903b 42e1 603d c1c4 dd3c
00000050: 7232 4b3d 6b4d 333d 585d 283d b3d7 b1bb
00000060: d9f2 303c 5bc2 373b 24ea be3c 2249 ac3d
00000070: deaa 2e3d 29dc 183b 2850 e83c eef0 01bd
00000080: 88d9 133d 91c3 22bd 04fd 14bd e2f0 3b3c
00000090: 4144 c73d 7d8c 6b3d 17e6 823d a09c 7d3c
000000a0: 6b10 e83c 5241 adbc d140 4bb9 c65d b13d
000000b0: 65e8 15bd 9b4c 573d fe62 0b3d bee5 9cbc
000000c0: 7315 743d a238 763c 7db8 8cb8 0839 a13d
000000d0: e51c fd3b f016 49bc 4774 063d 7ece d03b
000000e0: c7c6 03bd 6b28 29bd 700f 983d a9ca e53c
000000f0: 960a 2ebc 8b50 1fbd 34b4 cfbb 05ce e8bc
00000100: 5b0a 963d fffa 813d 6c24 863c b579 66bc
00000110: 171c 183d 1e0b 9d3d 7227 febc b0ff bd3c
00000120: dbf8 d0bc 0fd8 e53c 740e 473d c06f 15bc
00000130: 99a6 be3b 4a45 beba f4e4 b33c ac2f e43c
00000140: 5ee0 8a3c 2c81 d1bb 77f8 053d c38d f43b
00000150: d938 90bc f9d5 39bb 295a bbbc 6fc6 363d
00000160: ce09 4d3d 6eb5 ea3c d2b5 1c3c 36d3 8c3d
00000170: 4059 8c3d 31a5 35bd 9b9e c7bb f355 4f3c
00000180: 3b4b 703d 56e5 27bd 6810 943d 30dc 0b3d
00000190: 7972 82bb 812c df3c e750 613c b219 503d
000001a0: 560b 3bbc 60a2 c4bc 5a27 96bc 3030 7e3c
000001b0: 2e69 5c3d 79cc c53c d41f 37bd f514 12bd
000001c0: 3622 7c3d 48df a83c 99e4 8ebb d914 46bd
000001d0: 2b9a 713d 64be 24bc 3e5f 01bd 8ddc 773c
000001e0: 07a0 67bb 7a3c 4e3d 14df 86bc 14bf 893d
000001f0: ee0d 113d 9ff1 d8bb ef98 d63c 5724 983c
00000200: d277 343d eec0 413d 9e17 063d 1c9a 69bc
00000210: 7ee9 7f3b b3fc 923d 3b98 6c39 4888 953c
00000220: e89b 493b f100 87bd 0aa9 2abc 56d1 863d
00000230: a300 aa3d 1d17 823d 9f88 57bd 5d96 2b3d
00000240: c593 33bb 3608 f13a d608 893d fc21 503d
00000250: 4c66 72bd db98 35bd 8f98 46bc ba6d 993c
00000260: b514 4fbd 42fc 603b 4199 42bb b3ad 40bd
00000270: f116 5c3c bee2 253c e066 563d 93c8 9e3c
00000280: 1094 cebc 0fbf c83c 0367 a13d ded6 913c
00000290: 412d bd3b 5858 443d 8a32 5b3b 7274 313d
000002a0: 4b21 93bc 3a56 853c dcaf ddbb ad8a 2bbc
000002b0: 9021 b23c 5277 763d 0745 f2bc 2ca0 4f3d
000002c0: b101 36bd 13a2 183d 457c 7b3c 36fa 90bb
000002d0: 95c1 853c acad f6bc 1df4 55bd 38b4 03bd
000002e0: 2827 09bd ae08 2b3d 5125 1e3d 104b b8bb
000002f0: 16e6 853c d7fc f23a 3862 1fbd d4e0 593d
00000300: 9ea6 853b 2dfe 95bb 9d4c 733d 6010 953d
00000310: 1b4e 803d 6842 943d 3579 5a3c 4065 b83a
00000320: 1aa7 13bd 5a48 51bd 453c e6bc b663 afbc
00000330: feb9 843d 2352 cfbb 792a 223d a11b d4bc
00000340: 872a 6f3d 6740 8cbc 168b adbc 4506 9fb9
00000350: a60b 4f3d 0ba4 e4bb 7bbd 18ba 0dfd 36bc
00000360: 7fa7 583b 7f06 763c c88a 16bb 314c 833c
00000370: dca9 19bc 9135 e43b 7c58 9b3d ecf1 853d
00000380: 122c 933d 2fc6 ec3b a71d e0bc 6f1d 4a3d
00000390: e258 293d b2b3 273d 7a75 f7bc 9a0e 753d
000003a0: 417d 4ebc 7026 ab3d de11 9c3d 19eb 5b3d
000003b0: f6b9 d5bc c502 b5bc 9b14 54ba 8d2e 8cbc
000003c0: d143 acbc 041a 15bd e3cc 9e3d 9335 e13c
000003d0: 681a 36bd 7ee6 4f3d 664e e4bc 737e c1bc
000003e0: fb31 ea3c fe57 46bd 06dc 39bd bf67 13bc
000003f0: 37d9 733c 49f8 3abd 7154 42bc d5fe 0f3d

bn1.weight f4 [400]
0.966325 1.4036148 0.9445548 1.1551986 0.95273525 1.3985585 1.0777949 1.0190554
0.98109347 1.0346515 1.1508387 1.0765063 1.1719681 0.9556146 1.1830413 1.00462
0.8632302 1.1065893 0.9225408 0.8980794 1.2434992 1.3572353 0.92252827 1.4084516
1.3864243 1.0007995 1.228455 1.4008046 1.1784124 1.1377441 1.121189 1.0124885
1.3135198 1.2033821 1.3644693 0.97010314 1.2002643 1.1062278 1.2186782 1.1629735
1.4963071 1.0523653 1.1180508 1.0437831 0.9997238 1.0815542 0.97059315 0.950237
1.069186 1.5086019 1.0479821 0.9555061 1.2854589 0.9089637 1.0955542 1.1060274
0.997998 1.0559788 1.1153947 1.0955085 1.2717206 0.9319406 1.0195504 1.0631261
0.98843193 1.1956925 1.1186239 1.0042353 1.2098044 1.1968911 1.1081606 0.946673
1.1951532 1.1542538 0.9538683 1.0515763 1.4273376 1.1147227 0.9932584 1.0475532
0.9737752 1.2149693 0.92309 0.9728539 1.0002606 1.1791855 1.4188122 1.3028734
1.0843283 1.0272089 1.0006446 1.1315341 1.0410593 1.083054 1.1697756 1.089323
1.0377614 1.1072708 1.2559351 0.97296196 1.1775576 1.1700543 1.0316905 1.277639
1.0211147 0.9098495 1.0172153 0.9474059 0.9809145 1.2168766 1.1886466 0.9757701
1.0228497 1.213115 1.0656399 0.9465103 0.92729497 1.0191453 0.99240524 0.8116
1.1663333 0.94932526 1.003424 0.8209928 1.7781746 1.1040783 1.3249251 0.9647604
1.0875719 0.9488639 1.0220624 0.84429765 1.0630584 1.0697695 1.22746 1.1403639
1.2058829 0.7816166 1.0411499 1.1942879 1.3558153 1.1060184 1.1371818 1.0089713
1.1075222 1.018295 1.0793017 1.2646385 1.1170005 1.0599731 0.9758897 1.2590182
1.1245531 0.84636486 0.99458414 1.0737069 1.1091782 1.142007 1.1877812 1.4227471
1.3586729 1.0232782 1.042742 1.2215695 1.2323085 0.95405436 1.3840785 1.1530297
0.8898098 1.223795 1.0328157 1.3652081 0.9781166 1.2402214 1.0420022 1.0999353
1.6142524 1.070854 1.2124138 1.3254813 1.3577536 1.172901 1.0814687 1.2174283
1.2439538 1.2891827 0.92077893 1.0268248 1.0199313 1.0159183 1.2377353 1.03987
1.2211797 1.3600874 1.0321958 1.0169293 1.0689985 1.086045 1.3951082 1.0899218
1.0943327 1.5269834 1.1504303 1.5894632 1.0348302 1.1125352 0.916323 0.90999293
1.0444883 0.9032404 0.9459007 1.0465418 1.026584 1.0518236 1.1459941 1.3923389
1.1276913 1.413751 0.9093298 1.0898314 1.0089661 0.8438058 1.0499833 1.2151176
1.0190126 1.1788094 1.1151615 1.0303017 1.1154894 1.0752219 1.1170324 1.0689282
0.95163375 1.3186442 1.045582 0.95740515 1.2326394 0.90030175 0.94963574 1.2993867
1.389876 1.0297246 1.4395405 1.3635219 1.0909158 1.4371837 1.0423176 0.9727084
1.111281 1.3134444 1.0638053 1.0031269 0.81974816 1.2879914 1.6170402 1.2501845
00000000: 1361 773f a6a9 b33f 58ce 713f 8cdd 933f
00000010: 75e6 733f f703 b33f 2ff5 893f 6870 823f
00000020: f128 7b3f 766f 843f af4e 933f f5ca 893f
00000030: 0d03 963f 29a3 743f e66d 973f 6397 803f
00000040: a8fc 5c3f b8a4 8d3f a22b 6c3f 88e8 653f
00000050: fb2a 9f3f e3b9 ad3f d02a 6c3f 2448 b43f
00000060: 5a76 b13f 331a 803f 033e 9d3f 914d b33f
00000070: 38d6 963f 99a1 913f 1f83 8f3f 3999 813f
00000080: 6b21 a83f 6d08 9a3f eea6 ae3f ae58 783f
00000090: 43a2 993f df98 8d3f a6fd 9b3f 51dc 943f
000000a0: fe86 bf3f e8b3 863f 4a1c 8f3f af9a 853f
000000b0: e6ed 7f3f 5e70 8a3f cb78 783f bb42 733f
000000c0: 16db 883f de19 c13f 4724 863f 0c9c 743f
000000d0: eb89 a43f d8b1 683f 1f3b 8c3f 4e92 8d3f
000000e0: cc7c 7f3f 502a 873f 41c5 8e3f 9f39 8c3f
000000f0: bec7 a23f a993 6e3f a180 823f 8414 883f
00000100: e009 7d3f 740c 993f 112f 8f3f c88a 803f
00000110: dfda 9a3f ba33 993f 35d8 8d3f 2959 723f
00000120: c8fa 983f 97be 933f b730 743f 0d9a 863f
00000130: 00b3 b63f 3caf 8e3f 2f46 7e3f 3916 863f
00000140: 5549 793f 1d84 9b3f a04f 6c3f f40c 793f
00000150: 8a08 803f 8def 963f a39b b53f 8ec4 a63f
00000160: 45cb 8a3f 957b 833f 1f15 803f 1cd6 903f
00000170: 6e41 853f 83a1 8a3f 35bb 953f f06e 8b3f
00000180: 5ed5 843f 0dbb 8d3f 7bc2 a03f 0914 793f
00000190: 35ba 963f 57c4 953f 6f0e 843f ad89 a33f
000001a0: e3b3 823f e6eb 683f 1c34 823f 3189 723f
000001b0: 361d 7b3f 9dc2 9b3f 9225 983f 12cc 793f
000001c0: bdec 823f 5a47 9b3f e366 883f 804e 723f
000001d0: 3463 6d3f 5a73 823f 450e 7e3f 05c5 4f3f
000001e0: 694a 953f fb06 733f 3370 803f 962c 523f
000001f0: 3a9b e33f 7052 8d3f 2597 a93f 8afa 763f
00000200: 8e35 8b3f bfe8 723f f1d2 823f e423 583f
00000210: 4c12 883f 35ee 883f 691d 9d3f 72f7 913f
00000220: 5f5a 9a3f 0718 483f 6644 853f 6dde 983f
00000230: 5b8b ad3f 0392 8d3f 2c8f 913f f925 813f
00000240: 4ac3 8d3f 7e57 823f 8f26 8a3f addf a13f
00000250: dff9 8e3f 33ad 873f e8d3 793f 8227 a13f
00000260: 5bf1 8f3f 5eab 583f 119d 7e3f 3a6f 893f
00000270: 8df9 8d3f 492d 923f 3709 983f 941c b63f
00000280: fee8 ad3f c8fa 823f 9278 853f 645c 9c3f
00000290: 49bc 9d3f e83c 743f 7c29 b13f 7a96 933f
000002a0: 93ca 633f 51a5 9c3f 4e33 843f 24bf ae3f
000002b0: d965 7a3f 93bf 9e3f 5460 853f aeca 8c3f
000002c0: d39f ce3f be11 893f 6030 9b3f 5fa9 a93f
000002d0: dfca ad3f 9f21 963f 916d 8a3f b1d4 9b3f
000002e0: e139 9f3f f003 a53f 2bb8 6b3f ff6e 833f
000002f0: 1c8d 823f 9c09 823f 1c6e 9e3f 761a 853f
00000300: 9e4f 9c3f 5817 ae3f fe1e 843f bd2a 823f
00000310: f1d4 883f 8603 8b3f e892 b23f 8f82 8b3f
00000320: 1813 8c3f 3174 c33f 4d41 933f 8873 cb3f
00000330: 5175 843f 8e67 8e3f 2594 6a3f 4cf5 683f
00000340: cbb1 853f c33a 673f 8c26 723f 15f5 853f
00000350: 1b67 833f 28a2 863f efaf 923f 2938 b23f
00000360: 3058 903f cbf5 b43f d6c9 683f 987f 8b3f
00000370: cd25 813f a803 583f da65 863f f988 9b3f
00000380: 016f 823f 3ae3 963f 9dbd 8e3f ede0 833f
00000390: 5bc8 8e3f dfa0 893f ebfa 8e3f a4d2 883f
000003a0: 459e 733f 55c9 a83f a2d5 853f 8118 753f
000003b0: 21c7 9d3f 2d7a 663f 541b 733f 4e52 a63f
000003c0: 75e7 b13f 04ce 833f dd42 b83f e387 ae3f
000003d0: 21a3 8b3f a3f5 b73f aa6a 853f 6b03 793f
000003e0: 753e 8e3f f21e a83f c62a 883f 7666 803f
000003f0: 04db 513f e7dc a43f 2cfb ce3f 0c06 a03f

bn1.bias f4 [400]
-0.11215302 0.0472544 -0.056751132 -0.047334645 -0.12093534 0.015158768 -0.046593495 -0.052323185
-0.01730691 -0.07705143 -0.07339611 -0.005289713 -0.06605425 -0.05143292 -0.028815895 0.031298872
-0.12390965 -0.059297003 -0.107612014 -0.06539911 0.027625693 0.010574215 -0.088664345 0.013494139
-0.005414586 -0.07650222 0.03962859 0.10116125 -0.045125358 -0.08101711 -0.08335572 -0.022783935
-0.04860456 -0.024137164 -0.07826263 -0.05979103 -0.04822804 -0.03982595 -0.05124928 0.06346761
0.0044815214 -0.060935378 -0.083499156 -0.0065061636 -0.021191198 -0.051997557 -0.12002117 -0.09256067
-0.070430025 0.027153954 -0.06519762 -0.13509764 0.014758611 -0.107345924 -0.013121558 -0.008148795
0.012816166 -0.05990742 -0.030511318 0.0028883978 0.015055357 -0.12647058 -0.13238226 -0.08166323
-0.1285206 -0.041944966 -0.027482716 0.007333492 -0.030415788 -0.011536123 0.022941165 -0.13844346
0.010207691 -0.064358294 -0.06879198 -0.098316595 -0.0074977884 -0.07235877 -0.07487006 -0.11132868
-0.08740245 -0.060387418 -0.15979104 -0.090079874 0.009146842 -0.057859715 0.025560841 0.05493293
-0.019787498 -0.10814714 -0.0829977 -0.086596645 -0.0064600855 -0.039793655 -0.058024257 -0.049566977
0.02179728 -0.017095026 0.09346814 -0.109041765 -0.040985025 -0.05327846 -0.06850612 0.0044920472
-0.062143873 -0.07252717 -0.05321369 -0.17516993 -0.13117234 -0.042275295 -0.03495897 -0.09764509
-0.030962683 -0.047208916 -0.07247715 -0.048086513 -0.07920871 -0.07632631 -0.11075014 -0.19659893
-0.044971697 -0.02469317 -0.08067086 -0.1702675 0.038087726 -0.09668124 0.038614303 -0.12169875
-0.06371613 -0.13565594 -0.08003532 -0.12098071 -0.08472315 -0.087719396 0.036142442 -0.052926842
0.006344316 -0.24070294 -0.05060812 0.016342672 0.039921053 -0.035612714 -0.016043074 -0.07191201
-0.08770282 -0.048023857 -0.12706177 0.05777635 -0.15820444 -0.0776945 -0.12588246 0.044358525
-0.0048631667 -0.18106514 -0.096818924 -0.127296 -0.034119297 -0.059990108 0.04214081 0.15045954
0.048806075 -0.075584345 -0.112162404 -0.024184847 -0.00087399647 -0.0446538 0.06384837 -0.058853123
-0.11861689 0.0056283777 -0.03759952 0.034709778 -0.09047968 0.049967825 -0.14662729 -0.058857262
0.0111836735 0.02374069 -0.008128808 -0.0054152496 0.035712354 0.03497917 -0.04569166 -0.06301784
-0.01570654 -0.033660058 -0.033352394 -0.052984852 -0.008192577 -0.08387564 -0.09144938 -0.07132778
0.025953243 -0.015566564 -0.07390062 -0.010882899 0.011265939 -0.05635528 0.006702198 -0.0688869
-0.030162074 0.053748984 -0.017130539 0.06605679 0.029366469 -0.048443034 -0.0680866 -0.12402928
0.01735594 -0.15008529 -0.13214749 -0.076385826 -0.0781797 -0.05866557 -0.10692506 -0.017216511
-0.0025740336 0.037045892 -0.12623297 -0.059717998 -0.09354652 -0.15476802 -0.037052047 0.037066072
-0.13817605 0.026250724 -0.08323343 -0.018558845 0.009542423 -0.021601297 -0.01674719 -0.012647814
-0.13068385 0.026001178 -0.03025075 -0.14788765 -0.047721297 -0.10676873 -0.0918802 0.05504308
-0.03690827 -0.0702148 0.01879876 -0.00029014656 -0.06017974 0.033741366 -0.054527696 -0.08230192
-0.029253008 -0.112863764 -0.12468498 -0.061753977 -0.21844395 -0.0069595333 0.05880232 0.033763178
00000000: 7cb0 e5bd d48d 413d e073 68bd f9e1 41bd
00000010: f3ac f7bd 7b5c 783c d2d8 3ebd d650 56bd
00000020: 39c7 8dbc 24cd 9dbd b350 96bd 5455 adbb
00000030: 7347 87bd 53ab 52bd 500f ecbc 3f33 003d
00000040: 58c4 fdbd 6ae1 72bd b063 dcbd f8ef 85bd
00000050: 474f e23c 793f 2d3c a795 b5bd 8516 5d3c
00000060: d76c b1bb 32ad 9cbd 9751 223d a12d cf3d
00000070: 5ed5 38bd 4cec a5bd 67b6 aabd 60a5 babc
00000080: 9315 47bd 4dbb c5bc 2848 a0bd 70e7 74bd
00000090: c48a 45bd 8920 23bd c4ea 51bd 4efb 813d
000000a0: bad9 923b 6097 79bd 9b01 abbd a831 d5bb
000000b0: 2a99 adbc 64fb 54bd a9cd f5bd 7390 bdbd
000000c0: 9e3d 90bd f871 de3c 5486 85bd 0957 0abe
000000d0: 1ace 713c 2ed8 dbbd cefb 56bc 8682 05bc
000000e0: e5fa 513c 7c61 75bd dff2 f9bc 464b 3d3b
000000f0: beaa 763c 8181 01be 378f 07be 0d3f a7bd
00000100: e79a 03be 7cce 2bbd 6f23 e1bc ca4d f03b
00000110: 882a f9bc 0202 3dbc 1cef bb3c 1fc4 0dbe
00000120: 293e 273c 48ce 83bd cfe2 8cbd 365a c9bd
00000130: 02b0 f5bb d630 94bd 7955 99bd 4a00 e4bd
00000140: 0e00 b3bd cc58 77bd 43a0 23be cc7b b8bd
00000150: a3dc 153c 4ffe 6cbd f864 d13c 5a01 613d
00000160: 6419 a2bc 3f7c ddbd b3fa a9bd 9559 b1bd
00000170: 20af d3bb acfe 22bd d8aa 6dbd be06 4bbd
00000180: 3690 b23c de0a 8cbc 396c bf3d 4a51 dfbd
00000190: eadf 27bd 843a 5abd f04c 8cbd 0632 933b
000001a0: 938a 7ebd 2089 94bd 99f6 59bd bf5f 33be
000001b0: 0b52 06be dc28 2dbd 2331 0fbd 26fa c7bd
000001c0: 74a5 fdbc 235e 41bd e66e 94bd 5df6 44bd
000001d0: 2d38 a2bd f850 9cbd f8d0 e2bd 3b51 49be
000001e0: 3e34 38bd 5549 cabc c436 a5bd 9b5a 2ebe
000001f0: e001 1c3d d000 c6bd 082a 1e3d 323d f9bd
00000200: 9a7d 82bd 64e9 0abe 8fe9 a3bd bcc4 f7bd
00000210: 5583 adbd 3aa6 b3bd 190a 143d d1c9 58bd
00000220: fbe3 cf3b d57a 76be 764a 4fbd 11e1 853c
00000230: 4284 233d a3de 11bd c46c 83bc 9b46 93bd
00000240: 899d b3bd aab4 44bd 7b1c 02be e5a6 6c3d
00000250: 5800 22be 4b1e 9fbd 55e7 00be 49b1 353d
00000260: 335b 9fbb 2469 39be 0049 c6bd e259 02be
00000270: adc0 0bbd 30b8 75bd d89b 2c3d 1112 1a3e
00000280: e1e8 473d f7cb 9abd 67b5 e5bd 4d1f c6bc
00000290: e91c 65ba e7e6 36bd efc2 823d f90f 71bd
000002a0: 69ed f2bd 416e b83b f401 1abd d72b 0e3d
000002b0: 694d b9bd 10ab 4c3d 7725 16be 5014 71bd
000002c0: ba3b 373c d67b c23c b12e 05bc 6872 b1bb
000002d0: 1e47 123d 5146 0f3d 2e27 3bbd 7f0f 81bd
000002e0: 00ab 80bc 21df 09bd 859c 08bd a506 59bd
000002f0: 293a 06bc fec6 abbd d049 bbbd 4d14 92bd
00000300: e59b d43c e70a 7fbc 3559 97bd 304e 32bc
00000310: c694 383c cbd4 66bd 1d9e db3b 9314 8dbd
00000320: 7416 f7bc e527 5c3d 5855 8cbc c848 873d
00000330: f391 f03c 346c 46bd fd70 8bbd 1003 febd
00000340: 0b2e 8e3c f5af 19be ac51 07be 2c70 9cbd
00000350: ae1c a0bd 4f4b 70bd 87fb dabd a409 8dbc
00000360: 1eb1 28bb 6fbd 173d 3743 01be dc9a 74bd
00000370: 5195 bfbd 827b 1ebe e3c3 17bd 98d2 173d
00000380: 067e 0dbe c20b d73c 4a76 aabd b808 98bc
00000390: d357 1c3c 34f5 b0bc 6731 89bc c738 4fbc
000003a0: fdd1 05be 6c00 d53c 6cd0 f7bc dc6f 17be
000003b0: 6877 43bd 90a9 dabd b02b bcbd da74 613d
000003c0: 202d 17bd c7cc 8fbd dbff 993c d01e 98b9
000003d0: 087f 76bd 6334 0a3d 6f58 5fbd e98d a8bd
000003e0: 01a4 efbc 1e25 e7bd d75a ffbd bdf1 7cbd
000003f0: c5af 5fbe cc0c e4bb b4da 703d 424b 0a3d

bn2.weight f4 [300]
1.3134512 1.2818404 1.1239675 1.2668607 0.97264767 1.1183022 1.0146524 1.1829113
1.0867622 1.258801 1.3109133 1.1470542 1.1491772 0.93538034 1.1648984 1.1193522
1.1740681 1.0580913 1.0252528 1.7477322 1.7727991 1.1869794 1.2516696 1.1823528
1.0140109 0.99092925 1.0529613 1.3229736 1.1772498 1.3305113 1.7496116 1.1642126
1.098783 1.0058714 1.1058964 1.133837 1.2512891 0.961834 1.2056918 1.2820482
1.3722553 1.0197188 1.1387948 1.2189406 1.2166753 0.985637 1.1189618 1.1564007
1.0230156 1.2176795 1.0634322 1.188672 1.2303095 1.0923578 1.1771436 0.99106765
1.0862774 1.1959229 1.097876 1.0247838 0.9641318 1.0770175 1.3459681 1.1181571
1.0679388 1.1678461 1.5003729 1.3473424 1.0998493 1.2233385 1.2533671 1.1240939
1.1371783 1.5173717 1.1889291 1.0493412 1.3878243 1.0902723 1.2239707 1.0459071
1.0950733 1.2125281 1.1362245 1.1380876 1.1402684 1.0776742 1.031638 1.1426213
1.0958683 1.1303601 1.1233749 1.1054946 1.470525 1.292606 1.277679 1.0195343
1.1907824 1.2506968 1.2020932 1.2369136 1.2601795 1.3071109 1.0485886 1.061701
1.178796 1.1661383 1.0311573 1.0108432 1.2079326 1.1554875 1.6505482 1.1448002
0.89829016 1.2313721 1.0932777 1.2591369 1.1136218 1.0209049 1.2305931 1.2958548
1.1884321 1.2339412 1.7997022 1.5541539 1.1220497 1.2421595 1.0073062 1.6323725
1.0152038 1.2102203 1.3179911 1.4783208 1.0691136 1.1009157 1.1869864 1.3550042
1.0462003 1.0859519 1.9520816 1.1029272 0.91182935 1.0968988 1.3153185 1.4607766
1.0387896 1.2152023 1.198012 1.121431 1.2697179 1.5115452 1.1839501 1.364008
1.3657334 1.1282582 1.0262076 1.2747108 0.9775499 1.0394462 1.3418576 0.9593058
1.0877973 1.0582435 1.1680218 1.1745307 1.13524 1.2242095 1.0934516 0.9486274
0.8712966 1.121544 0.83545 1.0779209 1.0380924 1.223438 1.2409014 1.9994308
1.1412271 1.0291113 1.0900348 1.208826 1.166893 1.2629462 1.2450793 1.1241459
1.1310464 0.9637095 1.2293378 1.1708853 1.6117085 1.3494139 1.1600776 1.0999556
1.0736349 1.051907 1.0592655 1.0216292 0.87872636 1.092789 0.897686 1.7118772
1.0777614 1.1645246 1.0628076 1.3178324 1.1332242 1.6985238 1.0348393 1.0268055
1.2382073 1.0123107 1.0731223 1.0440476 1.1598328 0.9307932 1.1824778 1.4145131
1.2391094 1.0663254 1.302772 1.2212892 1.2254769 1.0292354 1.3866396 0.9540162
1.332718 1.0461279 1.504709 1.160723 1.8641517 1.1492018 0.9806562 1.0877138
0.9381443 1.0982502 1.0523299 1.4235107 1.6554615 1.1969042 0.93846977 1.2359816
1.1290269 1.0681916 1.1290387 1.3733287 1.2005575 1.242782 1.190592 1.0980662
1.2610219 1.0713022 1.1248938 1.21781 1.1308062 1.2784648 1.3617154 1.2411662
00000000: 2b1f a83f 5913 a43f 2bde 8f3f 7e28 a23f
00000010: 70ff 783f 8724 8f3f 21e0 813f a369 973f
00000020: 061b 8b3f 6420 a13f 02cc a73f acd2 923f
00000030: 3d18 933f 1675 6f3f 641b 953f ef46 8f3f
00000040: dd47 963f 896f 873f 7c3b 833f b0b5 df3f
00000050: 15eb e23f f1ee 973f b636 a03f 5657 973f
00000060: 1ccb 813f 8aad 7d3f 70c7 863f 3357 a93f
00000070: 1fb0 963f 324e aa3f 46f3 df3f eb04 953f
00000080: eca4 8c3f 65c0 803f 038e 8d3f 9221 913f
00000090: 3e2a a03f c13a 763f 1c54 9a3f 281a a43f
000000a0: 10a6 af3f 2586 823f 07c4 913f 3f06 9c3f
000000b0: 04bc 9b3f b552 7c3f 243a 8f3f f004 943f
000000c0: 2df2 823f ecdc 9b3f 8c1e 883f 6726 983f
000000d0: c87a 9d3f 61d2 8b3f a4ac 963f 9cb6 7d3f
000000e0: 230b 8b3f 0014 993f 3387 8c3f 1e2c 833f
000000f0: 57d1 763f b6db 893f af48 ac3f c61f 8f3f
00000100: 38b2 883f fb7b 953f 380c c03f b775 ac3f
00000110: ddc7 8c3f 5b96 9c3f 556e a03f 4fe2 8f3f
00000120: 0f8f 913f 3c39 c23f d42e 983f d050 863f
00000130: 3aa4 b13f 0b8e 8b3f 12ab 9c3f 49e0 853f
00000140: 5d2b 8c3f 1f34 9b3f ce6f 913f dbac 913f
00000150: 51f4 913f 3af1 893f b70c 843f 6a41 923f
00000160: 6a45 8c3f a4af 903f c0ca 8f3f d980 8d3f
00000170: 2a3a bc3f 1d74 a53f fc8a a33f 1a80 823f
00000180: 8f6b 983f d516 a03f 31de 993f 2f53 9e3f
00000190: 904d a13f 694f a73f 2738 863f d2e5 873f
000001a0: cae2 963f 0544 953f f6fc 833f 4f63 813f
000001b0: 899d 9a3f 04e7 933f 2a45 d33f d088 923f
000001c0: 58f6 653f 9a9d 9d3f 86f0 8b3f 662b a13f
000001d0: 298b 8e3f 03ad 823f 1384 9d3f 92de a53f
000001e0: 8b1e 983f c9f1 9d3f a45c e63f 84ee c63f
000001f0: 539f 8f3f 15ff 9e3f 69ef 803f 95f1 d03f
00000200: 33f2 813f 80e8 9a3f efb3 a83f 9e39 bd3f
00000210: b7d8 883f ceea 8c3f 2cef 973f c770 ad3f
00000220: e4e9 853f 7900 8b3f cfdd f93f b82c 8d3f
00000230: a66d 693f 2e67 8c3f 5b5c a83f bafa ba3f
00000240: 0ff7 843f c08b 9b3f 7558 993f 0d8b 8f3f
00000250: 1e86 a23f 507a c13f ad8b 973f d097 ae3f
00000260: 5ad0 ae3f c46a 903f c55a 833f b929 a33f
00000270: b640 7a3f 930c 853f fdc1 ab3f 1195 753f
00000280: f13c 8b3f 8674 873f bd81 953f 0657 963f
00000290: 8b4f 913f e6b2 9c3f 39f6 8b3f 3fd9 723f
000002a0: 4b0d 5f3f c18e 8f3f 0de0 553f 50f9 893f
000002b0: 36e0 843f 9e99 9c3f dbd5 9e3f 59ed ff3f
000002c0: bb13 923f ebb9 833f 4386 8b3f cfba 9a3f
000002d0: c05c 953f 39a8 a13f c25e 9f3f 03e4 8f3f
000002e0: 21c6 903f aab5 763f f15a 9d3f 92df 953f
000002f0: 774c ce3f 98b9 ac3f 6c7d 943f 58cb 8c3f
00000300: de6c 893f e3a4 863f 0396 873f bfc4 823f
00000310: 36f4 603f 83e0 8b3f c0ce 653f cb1e db3f
00000320: 16f4 893f 240f 953f 140a 883f bbae a83f
00000330: 7e0d 913f 3a69 d93f 9d75 843f 5d6e 833f
00000340: 947d 9e3f 6693 813f 125c 893f 5aa3 853f
00000350: 6775 943f 7748 6e3f 6f5b 973f c40e b53f
00000360: 239b 9e3f 5a7d 883f 3cc1 a63f 3453 9c3f
00000370: 6ddc 9c3f fcbd 833f 687d b13f 683a 743f
00000380: 8196 aa3f 85e7 853f 4e9a c03f 9292 943f
00000390: 869c ee3f 0b19 933f 490c 7b3f 353a 8b3f
000003a0: 3a2a 703f 7693 8c3f bfb2 863f 9935 b63f
000003b0: 2ae6 d33f 2834 993f 8e3f 703f a534 9e3f
000003c0: f483 903f 81ba 883f 5784 903f 3cc9 af3f
000003d0: deab 993f 7b13 9f3f 5265 983f 6f8d 8c3f
000003e0: 2a69 a13f 6e20 893f 85fc 8f3f 33e1 9b3f
000003f0: 42be 903f bca4 a33f b14c ae3f 89de 9e3f

bn2.bias f4 [300]
-0.10079751 -0.023524925 -0.023294888 -0.022155637 -0.09110293 -0.02251403 -0.00076079334 0.010616883
0.010736666 0.011840269 -0.047305036 -0.029354392 -0.04509772 -0.14052765 -0.109227784 0.007943686
0.012264357 0.020912034 -0.06886641 -0.05568622 0.010144692 -0.021245282 -0.03923367 -0.085743085
0.025114035 -0.006983335 -0.0021016165 -0.030139865 -0.04754823 -0.041181006 -0.04105931 0.0076598614
-0.024764875 -0.111184314 -0.043973878 -0.0051770057 0.008784254 -0.13243493 -0.046691053 0.010552652
-0.13040309 0.057178546 -0.0015927287 0.03065893 -0.036890432 -0.048624456 -0.044351675 -0.043506697
-0.025553335 -0.024063988 -0.13462512 -0.030701466 -0.011011112 0.013385334 -0.018532505 -0.030179562
-0.011953204 0.00046425924 0.04574923 -0.023781057 -0.14537914 -0.089397945 -0.061035644 -0.0052982047
0.042407405 -0.0024238734 -0.09748853 -0.057747107 -0.007398271 -0.022846244 -0.0968665 -0.029566247
-0.031588618 -0.13823453 -0.038672328 -0.0052538733 -0.088334665 0.04187144 -0.030068217 0.018423473
0.02121564 -0.05451655 -0.024521558 -0.0009553639 0.045982897 0.003171497 0.022179704 -0.035470553
-0.021541484 -0.0144251175 0.016254399 -0.02252019 -0.06379325 -0.07571151 -0.13649699 -0.036769
-0.10442057 -0.06685573 0.020538514 -0.10517801 0.059631564 -0.008075935 0.026237203 0.052727867
0.0060616266 0.034366287 -0.036287222 -0.00932187 -0.022247257 0.03548305 -0.08029804 -0.005952751
-0.14639255 0.0013293403 -0.10151538 -0.022848452 -0.055425625 -0.079760134 -0.02026106 0.0018776956
-0.0775451 -0.022000426 -0.016690273 -0.14627723 -0.009150204 0.0056947703 0.0015739001 -0.06631754
0.027022965 -0.03040333 -0.054145917 -0.07788097 -0.04907748 -0.028768973 -0.03955245 -0.08766461
-0.009322501 -0.02221451 0.02038851 0.029763056 -0.12478655 0.013728274 -0.05361561 0.029730275
0.029677 0.058879983 -0.064648226 -0.061124843 0.005825889 -0.008349129 -0.035819583 -0.03968169
-0.065458484 0.016690725 -0.00830394 -0.026274266 -0.05841846 -0.028213637 -0.02754213 -0.12692189
-0.03190921 0.03571345 -0.059847616 -0.08249145 -0.08794616 0.018741656 -0.045788683 -0.035498895
-0.10685048 0.020102754 -0.13470908 0.028525539 -0.015856616 -0.010444631 -0.069962755 0.020609418
0.011245333 -0.06471587 -0.02815123 -0.024881737 -0.07861025 -0.046138037 -0.072033964 -0.00019712973
-0.10639062 -0.106880836 -0.045958135 -0.020618035 0.061654527 -0.081073165 -0.08418051 -0.011497533
0.05585755 -0.023160206 -0.027380997 -0.0054913466 -0.12743437 -0.007895736 -0.11064482 -0.0116558485
0.0398528 0.016481802 0.011625057 -0.0361173 0.006183475 -0.07392368 0.0497794 0.03859751
-0.013514245 0.004762239 -0.022066379 -0.05076838 -0.08067285 -0.06551963 0.014636794 0.030351458
-0.007640911 -0.035903823 -0.03751922 0.07440511 -0.04677593 0.057513885 -0.036322743 -0.078094654
-0.033084765 -0.022357408 -0.06979392 0.04764318 0.014927525 0.0423532 -0.023387142 0.027067607
-0.058739625 0.0060868873 -0.030855335 -0.03679213 -0.076819725 -0.055261116 -0.0723301 -0.036618613
-0.029981576 0.0063657486 -0.03362472 -0.010585606 -0.011863624 -0.024802083 -0.04763878 -0.024921337
-0.03342764 -0.07888806 -0.05295608 -0.028117966 0.07636617 -0.027747244 0.030805219 0.00482186
00000000: ed6e cebd 58b7 c0bc ecd4 bebc bd7f b5bc
00000010: 2c94 babd 586f b8bc fa6f 47ba 6ff2 2d3c
00000020: d7e8 2f3c b0fd 413c edc2 41bd 9f78 f0bc
00000030: 63b8 38bd 7be6 0fbe d1b2 dfbd 3c26 023c
00000040: 71f0 483c b74f ab3c d509 8dbd 3c17 64bd
00000050: ec35 263c 960a aebc 7cb3 20bd 129a afbd
00000060: f3bb cd3c 76d4 e4bb 46bb 09bb e1e7 f6bc
00000070: efc1 42bd 6aad 28bd cf2d 28bd 93ff fa3b
00000080: b5df cabc 9ab4 e3bd f41d 34bd dfa3 a9bb
00000090: d5eb 0f3c 069d 07be 1e3f 3fbd 08e5 2c3c
000000a0: 6388 05be 0d34 6a3d 1bc3 d0ba 7028 fb3c
000000b0: 6c1a 17bd 702a 47bd 1aaa 35bd 1434 32bd
000000c0: 3a55 d1bc d721 c5bc 2bdb 09be a481 fbbc
000000d0: f367 34bc 294e 5b3c 7bd1 97bc 213b f7bc
000000e0: 5fd7 43bc d267 f339 8b63 3b3d 7ed0 c2bc
000000f0: 45de 14be 4516 b7bd 8300 7abd 909c adbb
00000100: 63b3 2d3d d9d9 1ebb 11a8 c7bd 3b88 6cbd
00000110: 326d f2bb 0c28 bbbc f261 c6bd ea34 f2bc
00000120: 1163 01bd 5a8d 0dbe e066 1ebd af28 acbb
00000130: cee8 b4bd 6381 2b3d 9f51 f6bc d3ec 963c
00000140: 6ccc ad3c bf4c 5fbd 6fe1 c8bc 6371 7aba
00000150: 9058 3c3d e4d8 4f3b 36b2 b53c 9249 11bd
00000160: c477 b0bc 5457 6cbc f227 853c 437c b8bc
00000170: 09a6 82bd a30e 9bbd dec5 0bbe 179b 16bd
00000180: 74da d5bd a8eb 88bd 6340 a83c 9267 d7bd
00000190: 3a40 743d ed50 04bc 67ef d63c 2df9 573d
000001a0: 9ca0 c63b aac3 0c3d e9a1 14bd c2ba 18bc
000001b0: e13f b6bc ad56 113d 4c73 a4bd 4b0f c3bb
000001c0: eee7 15be 423d ae3a 4ce7 cfbd ad2c bbbc
000001d0: fb05 63bd 4859 a3bd 86fa a5bc 021d f63a
000001e0: f7cf 9ebd 3d3a b4bc 0aba 88bc b3c9 15be
000001f0: bdea 15bc 329b ba3b 534b ce3a 7ed1 87bd
00000200: 445f dd3c 6810 f9bc 1cc8 5dbd 0f80 9fbd
00000210: 7805 49bd e9ac ebbc c001 22bd 8189 b3bd
00000220: 67bd 18bc 34fb b5bc ce05 a73c a7d1 f33c
00000230: 1790 ffbd 8eec 603c 0b9c 5bbd e88c f33c
00000240: 2e1d f33c 232c 713d 4a66 84bd 0b5e 7abd
00000250: 19e7 be3b c9ca 08bc 8eb7 12bd 4589 22bd
00000260: 190f 86bd fdba 883c 400d 08bc 213d d7bc
00000270: 3248 6fbd 4920 e7bc 08a0 e1bc d0f7 01be
00000280: 3bb3 02bd 4448 123d c622 75bd 47f1 a8bd
00000290: 1e1d b4bd 1a88 993c ea8c 3bbd 4a67 11bd
000002a0: 6dd4 dabd 88ae a43c 2df1 09be 64ae e93c
000002b0: bce5 81bc f51f 2bbc a248 8fbd 15d5 a83c
000002c0: 583e 383c c189 84bd 699d e6bc c9d4 cbbc
000002d0: 69fe a0bd 3dfb 3cbd 8b86 93bd 9cb4 4eb9
000002e0: 53e3 d9bd 57e4 dabd 993e 3cbd 27e7 a8bc
000002f0: 7589 7c3d b009 a6bd d566 acbd 2660 3cbc
00000300: e3ca 643d 79ba bdbc 1d4e e0bc c1f0 b3bb
00000310: 287e 02be 1e5d 01bc c099 e2bd 2cf8 3ebc
00000320: b13c 233d d804 873c 0677 3e3c bcef 13bd
00000330: bf9e ca3b 4c65 97bd 7ce5 4b3d 6c18 1e3d
00000340: da6a 5dbc 8e0c 9c3b 8dc4 b4bc 81f2 4fbd
00000350: cf37 a5bd 282f 86bd 2acf 6f3c 9fa3 f83c
00000360: 9b60 fabb e30f 13bd c1ad 19bd b561 983d
00000370: 1e98 3fbd ae93 6b3d 28c7 14bd 17f0 9fbd
00000380: e483 07bd e226 b7bc 1df0 8ebd 7f25 433d
00000390: 9492 743c 8d7a 2d3d 6496 bfbc e3bc dd3c
000003a0: f698 70bd 8374 c73b 54c4 fcbc 58b3 16bd
000003b0: a953 9dbd 7b59 62bd ce21 94bd 66fd 15bd
000003c0: ec9b f5bc c597 d03b 13ba 09bd 406f 2dbc
000003d0: a55f 42bc bd2d cbbc e220 43bd d527 ccbc
000003e0: 6ceb 08bd 1090 a1bd 79e8 58bd a657 e6bc
000003f0: de65 9c3d 304e e3bc 3a5b fc3c b200 9e3b
