trained_data/withwalls_1/critic_ddpg.pth (torch, 506930 bytes, 11 tensors)

fc1.weight f4 [400, 6]
00000000: 11ad 8d3e 7739 ebbc 0d08 1dbf b720 0b3f
00000010: 92e4 263d 832b 693d 34b5 8b3e c89a cfbc
00000020: ce20 16bf ce43 003f 8330 493d d664 5c3d
00000030: 8645 883e 7ef9 a6bc f51d 30bf 337d 053f
00000040: 7a98 2a3d d822 393d bd0e 953e 2544 22bd
00000050: 90e7 1bbf e517 0b3f 4d05 3e3c bd80 833d
00000060: 7d2c 8d3e 3ed0 e4bc 72aa 1dbf 73d0 0b3f
00000070: 5cb6 1b3d ab09 673d 338f 863e 76b9 94bc
00000080: fd0f 1bbf e00f 063f 2bc3 3c3d 0241 5f3d
00000090: 09bb 273e a5cc cdbb f9c4 2740 fdc4 ff3f
000000a0: cb54 3bbe 6f9a 6d40 e0a5 3f3e 6d0a c3bc
000000b0: 1881 fbbf e544 c93f 9c27 b0bf 0eab 593f
000000c0: 729e 903e aab7 06bd 3515 20bf f88f 0b3f
000000d0: b641 b13c 20d2 733d 9c7c 8c3e 9a53 dabc
000000e0: 48ae 1cbf 4d14 0a3f 1f0d fc3c 802d 633d
000000f0: c4b8 8b3e b40d d1bc e428 1bbf b09b 083f
00000100: 82c2 153d 56f7 5f3d df6f 883e 0948 aabc
00000110: b4d7 1dbf 8df4 df3e 006d 553c a428 5b3d
00000120: 8a6e 8e3e 1180 f1bc 3cc6 18bf 98da 073f
00000130: 60f5 ed3c 08f6 6a3d c7ee 8d3e ab71 ecbc
00000140: 4710 22bf b784 0c3f 1c23 ba3c 1c25 663d
00000150: ba97 8b3e 536c cfbc 40de 1bbf 1f3a 093f
00000160: 3e87 0f3d b2a6 713d da9b 8e3e 36f6 fbbc
00000170: 61c1 1dbf eb05 0b3f e1b6 003d 9ab0 6d3d
00000180: 4a29 743e c3c1 813a e4eb 25bf 13e0 033f
00000190: 014c 813d c109 413d e526 823e 476a 2cbc
000001a0: 8a55 1ebf 6757 f33e 4367 453d a279 373d
000001b0: 0328 8d3e f2c1 e1bc 9d07 24bf 4914 0a3f
000001c0: 13a8 ba3c b253 813d f05e 8d3e 9c4a e6bc
000001d0: 816b 1ebf fa3a 093f b945 193d 69fc 6c3d
000001e0: ca7e 893e fd51 b8bc f31f 1dbf 1a23 053f
000001f0: 486a a53c 3ccc de3d ee62 703e 2c09 7d3b
00000200: c3bb 20bf 005e 093f e0fe 5e3d df37 143d
00000210: 1e06 cb3e 9cbd 4cbe 6a23 e7bf c072 59be
00000220: 4bde c4bf 91c3 18c0 aefc 853e 26d8 8abc
00000230: 63c3 1dbf 2d7a 073f 961a 1c3d 8395 553d
00000240: 53a1 8a3e 9840 c7bc 12d5 17bf 299c 063f
00000250: b135 883d 0e32 5e3d 9530 823e 6f7b 33bc
00000260: 40d9 1cbf 1976 043f 7742 393d 031f 3b3d
00000270: 6361 843e 55d7 61bc 18b0 21bf 1d25 043f
00000280: fa7a 813c 2c2c 4e3d 06fa 8f3e 0625 04bd
00000290: 1d1e 1fbf f438 0b3f 3c56 173d bdcc 9f3d
000002a0: 0622 963e bf7f 27bd 20bd 28bf ac7b 103f
000002b0: 8a68 76bc c1e4 853d 9aa6 7d3e 887a 5abc
000002c0: ec34 15bf f616 fb3e 9e04 373d 3e7d 923d
000002d0: 0073 893e 9f7c b7bc 1217 22bf 788f 0b3f
000002e0: 4b02 3b3d 7915 573d e769 8f3e 0b9a 07bd
000002f0: e658 1cbf 5ad3 0a3f a8ec e63c 76cc 823d
00000300: 2147 8e3e f82f 16bd e08b 1bbf 70af 0d3f
00000310: 35bc 6c3d a60f 8b3d 738b 883e d2d5 aabc
00000320: 7940 20bf 0312 0a3f 048d 293d 965c 4f3d
00000330: 4f83 8a3e 4913 c3bc 4d09 1cbf 4062 093f
00000340: 7d40 233d ea81 603d 95ca 8a3e 8923 d3bc
00000350: 5aac 1bbf 87db e93e 15aa 083d f852 823d
00000360: 6733 833e 3c7c 51bc e034 1bbf b774 093f
00000370: 1b8a 4a3d e6f3 403d 511e 7b3e cb93 b0bc
00000380: a95e 18bf 97dc 013f 5dd0 163d f7b0 403d
00000390: 22fe 8c3e 642a e0bc 5fcc 1dbf d9b0 083f
000003a0: 9a56 f83c 2592 713d cd6d 903e 5feb 07bd
000003b0: aefc 1fbf 64fb 103f 0ce8 233d 2fb1 783d
000003c0: 77de 8c3e 3886 dfbc 6fc6 1ebf 3cb0 033f
000003d0: ed67 3d3d 0cef 5d3d 42d4 8a3e 7031 c6bc
000003e0: 02bd 18bf 0e6a 073f 595d 2d3d 2f32 663d
000003f0: 89e5 8a3e b8fd efbc 99e7 1abf 1f67 073f
0.27671102 -0.028713925 -0.6134041 0.54346794 0.040745325 0.05692626 0.27286685 -0.02534236
-0.58643806 0.5010346 0.04911853 0.053807102 0.26615542 -0.020382639 -0.6879571 0.52144164
0.04164932 0.045199245 0.29112807 -0.03961577 -0.6090021 0.54333335 0.0115979435 0.06421039
0.27573004 -0.027931329 -0.61588204 0.54614943 0.03801571 0.056405704 0.26281127 -0.01815484
-0.6057127 0.52367973 0.046084564 0.054505356 0.16379942 -0.006280499 2.6213973 1.9981991
-0.18294065 3.7125509 0.1871562 -0.023808682 -1.9648771 1.572415 -1.3762088 0.85026634
0.28245884 -0.03289 -0.6253236 0.54516554 0.021637779 0.059526563 0.2743882 -0.026651192
-0.6120343 0.53937227 0.030767975 0.055463314 0.27289402 -0.02551923 -0.6060927 0.5336256
0.03656245 0.054679237 0.2664785 -0.020786302 -0.6165726 0.43741265 0.013026476 0.053505555
0.2781871 -0.029480012 -0.5967748 0.5306792 0.029047668 0.05736354 0.27721235 -0.028862795
-0.6330609 0.54890007 0.02272182 0.056187734 0.27264196 -0.025320208 -0.60886 0.5360431
0.035041086 0.058996864 0.2785328 -0.030757051 -0.616232 0.54305905 0.031424407 0.05802975
0.23843876 0.0009899664 -0.64813066 0.51513785 0.06313325 0.047128443 0.254203 -0.010523385
-0.6184927 0.4752762 0.04819418 0.044793732 0.2756959 -0.0275583 -0.64074117 0.539372
0.022785222 0.06314792 0.27611494 -0.028111748 -0.6188279 0.53605616 0.03742001 0.057857905
0.26854545 -0.022500033 -0.61376876 0.52006686 0.02019228 0.10878798 0.23475239 0.0038610203
-0.627865 0.5365906 0.054442286 0.036186095 0.39653105 -0.19994205 -1.8057683 -0.2123518
-1.5380338 -2.3869364 0.26169342 -0.01694877 -0.6162626 0.529208 0.03811129 0.05214454
0.27076206 -0.024322793 -0.59309494 0.5258203 0.06650866 0.054246955 0.2542769 -0.010954722
-0.61269 0.517427 0.0452294 0.045683872 0.2585555 -0.013784249 -0.6315932 0.5161913
0.01580571 0.050335094 0.2812044 -0.03226187 -0.62155324 0.5438378 0.036947474 0.078027226
0.29322833 -0.040893313 -0.6591358 0.5643871 -0.0150395725 0.06537772 0.24770585 -0.013334878
-0.5828388 0.49040955 0.044682138 0.07152794 0.2684555 -0.022398291 -0.6331645 0.5451579
0.045656484 0.052510712 0.28010485 -0.03310589 -0.6107315 0.54228747 0.028189018 0.06386654
0.27788642 -0.03666684 -0.6076031 0.5534582 0.057796676 0.06790094 0.2666889 -0.02085391
-0.6259838 0.53933734 0.04139425 0.050625406 0.27053306 -0.023812907 -0.6095169 0.5366554
0.039856423 0.054811396 0.27107683 -0.02577378 -0.6080986 0.456753 0.033365328 0.06363481
0.25625154 -0.012785967 -0.60627556 0.5369372 0.049448114 0.0471076 0.24523284 -0.021554848
-0.5951944 0.5072722 0.036819804 0.047043767 0.27537638 -0.027363963 -0.6163997 0.5339485
0.030314732 0.058977265 0.2820877 -0.03318345 -0.62494934 0.5663359 0.04001622 0.06071585
0.27513477 -0.02728568 -0.62021536 0.5144079 0.04624169 0.05418305 0.27115065 -0.024193496
-0.59663403 0.528962 0.04232535 0.056200203 0.27128246 -0.029295787 -0.6050964 0.52891725

fc1.bias f4 [400]
00000000: 248e 02bf ae36 03bf bc72 febe 33b5 fdbe
00000010: 3cb4 02bf caa7 05bf 9a25 613f e297 9d3f
00000020: 55c2 01bf f2ba 02bf 1fd1 02bf f50f 2abf
00000030: 5a3f 00bf 246b 01bf e07c 04bf b4cb 01bf
00000040: 8199 0abf 0ab5 02bf 6626 0abf 426d 02bf
00000050: 7a09 0bbf 9247 0bbf e551 30c0 ccbe 03bf
00000060: 790c 03bf 4a06 06bf f39c 0bbf 1528 02bf
00000070: 9d3a 03bf e129 0ebf 2fcf 03bf 9fc5 01bf
00000080: d724 04bf ed1e 04bf c159 03bf 2d0a f1be
00000090: f987 05bf 08a5 0abf 9132 03bf c55c 03bf
000000a0: e2a5 01bf e8f5 03bf 35bd 03bf 5b0e 07bf
000000b0: c013 c2be 5f77 08bf 69d1 c9bd eb69 0bbf
000000c0: ad39 03bf bd3a 04bf ff16 0bbf 2ac1 0cbf
000000d0: ca60 03bf f1bf 03bf c4dc 01bf 9fbc 02bf
000000e0: 885b 02bf 6c67 77bf 36f0 04bf 0ab0 a4be
000000f0: ea4e 06bf eaf5 28be 0b31 02bf 65e1 02bf
00000100: afc1 08bf 2969 05bf 8481 3cbe b3f2 10bf
00000110: 27e5 02bf 0b87 04bf b74e 05bf 84c5 04bf
00000120: f3a6 01bf 1658 8340 b24c 02bf 2791 03bf
00000130: 7963 0cbf f415 02bf 5e2b 08bf bb67 4740
00000140: 0d60 e3be 5274 07bf dc82 973f 815c 9240
00000150: 10f6 04bf 698c 03bf 7e0e 08bf 3643 09bf
00000160: 9240 02bf b05f 02bf a326 01bf 7fcb 22bf
00000170: 5989 02bf 4ac1 01bf 65fe 8d3f 7339 04bf
00000180: 4e2b 04bf 4c88 f8be a9a8 05bf 0841 0dbf
00000190: 2e20 05bf 72c9 04bf f60e 05bf 2d3d 02bf
000001a0: a9d6 08bf e173 02bf 91df 05bf a2a3 01bf
000001b0: ae2d 06bf be74 08bf 80c8 02bf 06f5 03bf
000001c0: c9aa 07bf d0a5 00bf ae98 02bf 3164 02bf
000001d0: ab93 04bf d456 03bf cccd 04bf 80b3 31bf
000001e0: 6ff6 01bf 0490 05bf b217 03bf b056 02bf
000001f0: 294d 01bf d2ca 0f3e 61d9 fcbe 9ace 06bf
00000200: 3579 08bf b66d 0abf 5be4 05bf a1d3 01bf
00000210: f9ea 02bf 0630 00bf 47ef 09bf 9faf f4be
00000220: ee3d 03bf 72a1 02bf 6d03 04bf f251 09bf
00000230: 688a 08bf e1d3 02bf 2e50 febe be38 00bf
00000240: 75b6 05bf 8b81 af3e 2b10 08bf a91d 0abf
00000250: 5c5b 07bf b2f0 05bf 682f 8d40 5b84 0abf
00000260: cc51 05bf 663f 09bf c821 05bf 4475 04bf
00000270: 8f00 fdbe a830 09bf 6774 02bf 563c 05bf
00000280: ce4d 07bf d43a 6bc0 e32c 02bf 4a08 01bf
00000290: 0f3c 90be 5059 03bf 6ea6 03bf 7135 04bf
000002a0: b22f 08bf e656 09bf 01ae 01bf 8cb3 73be
000002b0: cc3c 04bf e567 03bf 1095 05bf 2de1 01bf
000002c0: caa6 febe e6ec 4abf f21d 05bf e039 03bf
000002d0: b2cc 03bf 969e 07bf 3539 01bf fff7 04bf
000002e0: 78cc 693e 13e1 04bf add9 f8be d058 05bf
000002f0: 256b acbf 1f5d 813e fc8e a9bf 16b1 03bf
00000300: 0deb 04bf af67 03bf 2461 0dbf 7591 febe
00000310: c1ff 04bf fe19 08bf c897 07bf e59f 04bf
00000320: a15b 08bf b5f1 13bf 0f6a 12bf 0e19 03bf
00000330: 2460 00bf e6f7 003f d05a 03bf 91a8 0ebf
00000340: aa40 01bf 24f1 08bf 771c 0dbf b61d 07bf
00000350: f4d8 00bf fc4b 00bf c31c 06bf 0f33 04bf
00000360: 3879 9540 d0bf 0bbf 636c afbf 5b79 02bf
00000370: 3fb1 02bf 8330 0bbf 2ca1 04bf 2949 bc3f
00000380: 4aaf 71be a8ef 02bf 8726 03bf 23b9 04bf
00000390: 03d0 04bf 38f0 02bf 6d10 02bf 1af3 06bf
000003a0: 7d1d fdbe 6341 02bf 27c1 02bf 6140 03bf
000003b0: 38a3 05bf 6dae 05bf 53a9 01bf ad59 02bf
000003c0: 3fca 03bf 77ab 00bf e627 03bf f2dc 08bf
000003d0: e114 05bf 012b 01bf bf1b 07bf c9c2 02bf
000003e0: 2ad2 1ebf 1e7a 00bf dfae 02bf 8d5c 07bf
000003f0: 1ddb 04bf ad1b 0fbf 42b0 06bf af61 06bf
-0.5099814 -0.5125531 -0.4969691 -0.49552307 -0.51056266 -0.5220915 0.87948 1.2311976
-0.5068715 -0.51066506 -0.51100343 -0.664306 -0.50096667 -0.5055411 -0.51753044 -0.5070145
-0.5414048 -0.51057494 -0.5396484 -0.50947964 -0.54311335 -0.5440608 -2.7549984 -0.5146301
-0.51190907 -0.52353346 -0.5453636 -0.5084241 -0.5126131 -0.5553265 -0.5148801 -0.5069217
-0.51618713 -0.5160969 -0.5130883 -0.47078076 -0.521606 -0.5415807 -0.51249033 -0.5131343
-0.5064374 -0.515471 -0.5146058 -0.5275628 -0.37905693 -0.53307146 -0.09854395 -0.54458493
-0.5125988 -0.5165213 -0.54331964 -0.54982245 -0.51319563 -0.51464754 -0.50727487 -0.5106906
-0.50920916 -0.96642184 -0.5192903 -0.32165557 -0.52464163 -0.16500059 -0.50856084 -0.51125175
-0.5342054 -0.52113587 -0.18408781 -0.5662033 -0.5113091 -0.5176856 -0.52073234 -0.51863885
-0.5064537 4.1045027 -0.5089828 -0.5139336 -0.54839283 -0.5081475 -0.53191173 3.1157062
-0.44409218 -0.52911866 1.183681 4.573792 -0.5193796 -0.51386124 -0.53147113 -0.5361818
-0.50879776 -0.5092726 -0.5044958 -0.6359176 -0.50990826 -0.5068556 1.109326 -0.5165016
-0.5162858 -0.48541486 -0.5221048 -0.55177355 -0.5200223 -0.5186988 -0.51975954 -0.50874597
-0.53452545 -0.5095807 -0.5229426 -0.5064031 -0.5241345 -0.53303134 -0.5108719 -0.5154575
-0.5299497 -0.5025301 -0.5101422 -0.5093413 -0.51787823 -0.51304364 -0.5187652 -0.6941452
-0.5076665 -0.52172875 -0.5120803 -0.50913525 -0.5050836 0.14042214 -0.49384597 -0.52659
-0.5330995 -0.54073656 -0.5230157 -0.50713545 -0.5113979 -0.5007328 -0.53880733 -0.47790238
-0.5126637 -0.51027596 -0.5156773 -0.53640664 -0.5333619 -0.5110455 -0.49670547 -0.5008658
-0.5223153 0.3427852 -0.5314967 -0.5395151 -0.5287378 -0.52320397 4.412037 -0.5410821
-0.5207794 -0.53612363 -0.5200467 -0.51741433 -0.4941449 -0.5358987 -0.50958866 -0.5204519
-0.52853096 -3.6754656 -0.5084974 -0.50403273 -0.2817082 -0.51308155 -0.51425827 -0.51644045
-0.5319778 -0.5364822 -0.50656134 -0.2379896 -0.5165527 -0.51330405 -0.52180576 -0.50734216
-0.49736625 -0.7926773 -0.5199882 -0.51260185 -0.51484215 -0.5297636 -0.50477916 -0.5194091
0.22831905 -0.51905936 -0.48603573 -0.5208864 -1.3470198 0.25266358 -1.324676 -0.51442087
-0.5192116 -0.51330084 -0.5522635 -0.4972035 -0.5195275 -0.5316466 -0.52965975 -0.5180648
-0.53264815 -0.5779069 -0.5719308 -0.51210105 -0.501467 0.50378263 -0.51310444 -0.5572596
-0.50489295 -0.5349295 -0.5512156 -0.5277971 -0.50331044 -0.5011594 -0.52387637 -0.5164041
4.671047 -0.5458956 -1.3704952 -0.50966424 -0.51051706 -0.543709 -0.5180843 1.4709827
-0.23602024 -0.51146936 -0.51230663 -0.51844996 -0.518799 -0.51147795 -0.50806314 -0.52714694
-0.4943656 -0.5088102 -0.5107598 -0.5127011 -0.5220218 -0.5221928 -0.50648993 -0.50918084
-0.5148048 -0.50261635 -0.51232755 -0.53462136 -0.51984984 -0.50456244 -0.5277671 -0.5107847
-0.62039435 -0.50186336 -0.5104808 -0.52875596 -0.5189684 -0.55901605 -0.526127 -0.52492803

fc2.weight f4 [300, 400]
00000000: 0c04 0080 6001 0080 6001 0080 95c5 2ebc
00000010: 1a33 1bbc fe50 d2bb 24fd 3a3e 5546 243e
00000020: 6101 0080 9901 0000 c018 728b c05e 2dbd
00000030: 6101 0000 9935 09b6 dfb6 45b1 6fe4 47ba
00000040: d632 baba 04ff c5b8 f8ad d230 6101 0080
00000050: b1a2 c8b8 2ec4 9d23 cb0c 893e 6816 bf3b
00000060: 5f01 0000 6201 0080 d5d8 dbbb e40b a739
00000070: 6101 0080 603c 7c3c 5f01 0080 361f 3dbd
00000080: d4cc 763c 6201 0080 74d4 fc3b adac 3ebc
00000090: 6201 0000 8479 fbbc 6001 0000 a700 0080
000000a0: 40c8 61b8 6101 0000 1e76 b33c 32e9 21bc
000000b0: 98e1 2a10 6001 0000 a8aa 32be 2984 a3ab
000000c0: 6101 0000 5f01 0000 7809 44b8 6001 0080
000000d0: e2e6 5aa1 de1e 833b 5f01 0080 7027 353b
000000e0: 6001 0080 33cf b83d 6201 0080 59b0 893d
000000f0: 6a01 0080 ae47 3c3f e2a8 2dba 6101 0000
00000100: 6101 0000 e83f cd26 ff01 a5bc 12d9 20bc
00000110: 6101 0000 6201 0080 7584 b8b1 b5b4 b8ac
00000120: 6101 0080 a771 adbe 585b 872a 38de b43a
00000130: 6001 0000 7c01 0080 6101 0080 09b6 a7be
00000140: 80f1 49ba 7701 0000 e137 113b 82d2 b53d
00000150: 2095 0e2e 6101 0080 d6b8 823c 87e4 473a
00000160: 6001 0000 c219 cd3a 6001 0080 e2b9 7c3e
00000170: fe9f c922 6101 0080 cfe7 5b3e 6001 0080
00000180: 5f01 0080 3004 239c 313d 1b06 b0f6 763c
00000190: 5e60 abbc 5f01 0000 d9fc d0bc 6201 0000
000001a0: 5f01 0000 3826 423a 2308 0c3d b2dd 78bc
000001b0: 099f 58aa 6001 0000 b220 9727 6001 0080
000001c0: aea0 653b fa03 0000 6001 0000 6201 0000
000001d0: c2e5 11b1 6001 0000 7a62 223c f1f1 4e3e
000001e0: 6001 0080 d5e5 f03b e1e5 5ab5 bc39 c81d
000001f0: 68bd 0f36 bfa5 7e3e 9e01 0080 62e5 7a31
00000200: 6101 0080 6c9b 8fba 5ac6 463c 6101 0080
00000210: 6201 0080 85fc 6fbd d20a b63a 9a9b 77b6
00000220: 6201 0080 6101 0080 65a2 0737 7392 39bc
00000230: 59c6 1f3b 39a4 7036 6001 0000 da71 15ba
00000240: b965 c5aa e548 7dbd 51a2 d436 acf5 7eaf
00000250: cd4d c2ad db8b a5bc 90df af3d dae8 93bc
00000260: 6101 0000 5f01 0000 6001 0000 6001 0080
00000270: 6a01 0080 b0c8 8fb2 3f55 8abb 5f01 0000
00000280: 6101 0000 4013 c33e edca a92d f1eb 3f9e
00000290: e9dc 463c 6f38 fd3c 6101 0080 956a 0fbb
000002a0: a6cc 8cbc f4a2 c7ac 6409 14a2 ce3f 96bd
000002b0: 129f 8b2f 6101 0080 653e 7327 6101 0080
000002c0: 6001 0080 698f 99bd 62b2 44b4 bf7e d4ba
000002d0: 6101 0000 eafe 35aa 1237 b1b4 6001 0000
000002e0: bcb3 12bd 6001 0000 9764 efbc 5b91 63bc
000002f0: 4123 c9bd fefd 063f 8e40 07be 6101 0080
00000300: 5f01 0080 5f01 0080 6101 0000 0d02 df2a
00000310: 6901 0000 bdf6 893c 6001 0080 6001 0000
00000320: cd3f ecba ec85 fcba 6001 0000 5f01 0080
00000330: 1d7a 3c0c 5478 7c3e c6d0 d6bc 6101 0000
00000340: a370 323a fa80 26ba 5f01 0080 6f01 0080
00000350: 5f01 0080 5f01 0080 ac82 ebba b13c 5cbd
00000360: ac77 8dbe 6001 0000 71ac 9abd 6001 0000
00000370: 21f2 0fbc cf76 b1b2 5f01 0080 b674 b83d
00000380: 0ae4 3d3d 8f52 70bb 6101 0080 6201 0000
00000390: 6101 0000 6001 0080 5f01 0000 7501 0000
000003a0: 5f01 0080 5f01 0000 6d75 61bb 6001 0080
000003b0: 6af0 d0b7 8704 fabb 1aaa 5f8e 6101 0080
000003c0: debc 2c3b 6101 0080 6101 0000 6001 0000
000003d0: 6001 0080 6001 0080 7936 38bc 6101 0000
000003e0: c403 e7bd 6801 0000 5f01 0080 6101 0000
000003f0: 5f01 0080 01e2 b8bc 6001 0000 6101 0080
-1.452e-42 -4.93e-43 -4.93e-43 -0.010667224 -0.009472633 -0.0064183464 0.18260628 0.16042455
-4.95e-43 5.73e-43 -4.6626124e-32 -0.04232669 4.95e-43 -2.0445789e-06 -2.8771223e-09 -0.0007625287
-0.0014205824 -9.4411924e-05 1.5328956e-09 -4.95e-43 -9.567047e-05 1.710506e-17 0.26767573 0.0058315285
4.92e-43 -4.96e-43 -0.006709198 0.0003186158 -4.95e-43 0.015395254 -4.92e-43 -0.046172343
0.015063483 -4.96e-43 0.007715756 -0.011637849 4.96e-43 -0.030697592 4.93e-43 -2.34e-43
-5.3830678e-05 4.95e-43 0.021906909 -0.009882258 3.370038e-29 4.93e-43 -0.17447913 -1.1618528e-12
4.95e-43 4.92e-43 -4.673886e-05 -4.93e-43 -7.4166844e-19 0.0040014824 -4.92e-43 0.0027641915
-4.93e-43 0.09023895 -4.96e-43 0.06723089 -5.07e-43 0.73546875 -0.0006624592 4.95e-43
4.95e-43 1.4242054e-15 -0.020142553 -0.009817379 4.95e-43 -4.96e-43 -5.3701634e-09 -5.249657e-12
-4.95e-43 -0.33875772 2.40442e-13 0.0013799137 4.93e-43 -5.32e-43 -4.95e-43 -0.3275607
-0.0007703528 5.25e-43 0.002215855 0.08878042 3.241951e-11 -4.95e-43 0.015957277 0.0007625301
4.93e-43 0.0015647935 -4.93e-43 0.24680284 5.4650557e-18 -4.95e-43 0.21475147 -4.93e-43
-4.92e-43 -5.393759e-22 2.9197216e-35 0.015073463 -0.020919975 4.92e-43 -0.025511192 4.96e-43
4.92e-43 0.0007406208 0.034187447 -0.015189575 -1.923983e-13 4.93e-43 4.1946368e-15 -4.93e-43
0.00350384 1.427e-42 4.93e-43 4.96e-43 -2.123088e-09 4.93e-43 0.009911174 0.20209481
-4.93e-43 0.007351617 -8.1545846e-07 5.2999255e-21 2.141891e-06 0.24867915 -5.8e-43 3.6510177e-09
-4.95e-43 -0.0010956354 0.012132252 -4.95e-43 -4.96e-43 -0.05859043 0.0013888723 -3.689644e-06
-4.96e-43 -4.95e-43 8.0844375e-06 -0.01132642 0.00243797 3.5858377e-06 4.93e-43 -0.0005700864
-3.5064814e-13 -0.061837096 6.3369885e-06 -2.3188446e-10 -2.2089797e-11 -0.02020829 0.08587563 -0.018055368
4.95e-43 4.92e-43 4.93e-43 -4.93e-43 -5.07e-43 -1.6738653e-08 -0.004221588 4.92e-43
4.95e-43 0.38100624 1.9303193e-11 -1.0160247e-20 0.01213763 0.030910699 -4.95e-43 -0.0021883596
-0.017187428 -5.6740116e-12 -2.0062712e-18 -0.073363885 2.539698e-10 -4.95e-43 3.3756849e-15 -4.95e-43
-4.93e-43 -0.074980564 -1.8318818e-07 -0.001621209 4.95e-43 -1.616447e-13 -3.3008888e-07 4.93e-43
-0.03581594 4.93e-43 -0.02922277 -0.013889636 -0.09821177 0.5273131 -0.1320822 -4.95e-43
-4.92e-43 -4.92e-43 4.95e-43 3.961418e-13 5.06e-43 0.016841287 -4.93e-43 4.93e-43
-0.0018024385 -0.0019265986 4.93e-43 -4.92e-43 1.451974e-31 0.24655277 -0.026222598 4.95e-43
0.00068069453 -0.00063516165 -4.92e-43 -5.14e-43 -4.92e-43 -4.92e-43 -0.001796802 -0.053768817
-0.27630365 4.93e-43 -0.07552422 4.93e-43 -0.008785755 -2.065954e-08 -4.92e-43 0.09006636
0.046360053 -0.0036670303 -4.95e-43 4.96e-43 4.95e-43 -4.93e-43 4.92e-43 5.23e-43
-4.92e-43 4.92e-43 -0.0034402267 -4.93e-43 -2.4907484e-05 -0.007629934 -2.7568773e-30 -4.95e-43
0.002635769 -4.95e-43 4.95e-43 4.93e-43 -4.93e-43 -4.93e-43 -0.011243456 4.95e-43
-0.11280015 5.04e-43 -4.92e-43 4.95e-43 -4.92e-43 -0.022568705 4.93e-43 -4.95e-43

fc2.bias f4 [300]
00000000: d773 563b f7c6 a6be 9a25 e8bd bc15 213e
00000010: 6b62 263c 3709 d2bd 6b09 4fbe 4017 debb
00000020: 12ca 2f3e f822 1bbb 5c1c 0c3e 232b 31be
00000030: 0c91 293e e7da 913d 419a f13d 3edb bdbd
00000040: 4f82 d8bd 90e5 90bd bab1 a73d febf 723e
00000050: 2a4a c53b 770b 86bb f957 063e abed 0f3e
00000060: 5799 233d 231e 773e 14f1 b93c c97c 523e
00000070: 9d43 813e 415a 533d a53c fe3d 90ec 773d
00000080: 5e2d 343e 3cb2 0a3e 8951 f53c 5ed5 df3d
00000090: f828 9b3d d4fc 5f3e 30a8 5fbd f420 453e
000000a0: 0684 94be ef86 fa3d 8cfa bf3c 650b 1a3e
000000b0: c9b0 863e 4ac3 0f3e 39c7 cdbb 7c31 983e
000000c0: 4240 e43d 56eb f93d 2dfa d43d cf5c c23c
000000d0: c765 7c3d 7c9d 5ebe a3cb 183d 3d56 223e
000000e0: 61ab cc3c 5feb a73d 8e9f 5a3e f628 02bd
000000f0: 5823 bebd 5633 e43d 6dcc 47be c8ee 193e
00000100: 2342 3e3e 8ffd 35be 568c 633d b6ea c23d
00000110: 1c33 0f3e 8e80 003e bf3d 573e f008 483e
00000120: f0af d73c 1fb8 863e e9be 4e3d 2e32 40be
00000130: b398 133e d885 133e f850 51be 21fb dbbd
00000140: c6ed f13d 7e4a 133e 4e9e 233e cb81 da3d
00000150: 9a1e 05be 66f1 fc3d ab3e 9abc cf30 e3bd
00000160: e67e 14be 9d3b 9abe 7372 6bbb 8259 11be
00000170: 66c7 c6bb 8f77 f53d 99c7 443e 2a0f 903e
00000180: 2c2c c1bd 0482 0c3e a087 6c3e 5694 2cbd
00000190: c560 093e 7ce9 4c3e 4f67 ae3d 5227 9fba
000001a0: ac1a 90bd b5a3 8f3c 921d 88be 92ae 87be
000001b0: 1dbb 4cbc 287d 4a3e a450 c2be c233 72bd
000001c0: 88b4 033e 852e 143e 872d 483e 6449 ef3c
000001d0: ba9c 103e d8b1 1d3e 7911 29be 00ea 523e
000001e0: b078 123e af79 1fbe d6bb dc3d cd71 7fbd
000001f0: 3313 433b eeca 7abe b293 8f3e 91aa 183e
00000200: 224c 8f3d f3c9 3b3e d7d9 4bbe f198 0d3d
00000210: dd86 f4bd 51e5 243e e70e 293e d5c8 813d
00000220: ac2d 273e a8e1 573e ccf3 a3be 1e37 173e
00000230: bc6b 143e f90f 1d3e 3388 0f3e 182a f23d
00000240: ea35 d63d 6822 acbb 7e66 02bd dbde e7bd
00000250: 58e6 99be 8304 6ebe b2cc 8bbc f28d a23d
00000260: cecb 383e 0a4a 083e 34e1 3d3d 9b61 97be
00000270: 001c 7cbe 1de3 c13d b74e 17be 10e8 ad3d
00000280: 8f1d 3d3e 1d56 b53d 3d06 a83d 863c 983e
00000290: 8538 0e3e fc19 cf3d 3d05 0cbe 5467 b33d
000002a0: 0250 c1bc b33e 16be 5596 65be 0568 94be
000002b0: 6be8 d53d e01c 363e ddab dcbd b41f e23d
000002c0: 5afc a43e f318 903e dc61 5cbe 21a5 23be
000002d0: 9e63 0c3d e3ae 203e 0951 0f3e f7d2 97be
000002e0: 3c3f cf3d 72e4 2c3e f0ed abbd 9f5b 663d
000002f0: 9295 e7bd b481 0d3e 36c2 d63c 45c4 0d3e
00000300: fc68 84be 3f1d 633e 44dd 9aba 9beb 943c
00000310: ec20 82be 3bcf 053e 8d49 733e 6fa4 2d3e
00000320: 4c49 aa3d 9cbd 063e 061a 44bd 3547 523e
00000330: 4b2e 873e 9d85 013e 9ecd c33d 694a 1b3e
00000340: 4fc1 da3d b0fb aabd 5050 213e 5ec1 483d
00000350: 5a52 7abd 7f23 10bc 9585 21be b967 093e
00000360: 1c9b de3d cead 253d b17d 933e 346a 843d
00000370: 31a0 573d f894 4a3e f11c 7ebe b975 223d
00000380: 5b80 d13d 5bca 803e 3dcd ff3c c39d b7be
00000390: 1bda 09be 84c4 afbd d968 f43d c161 df3d
000003a0: 9576 223e 3d25 083e 8f84 eebd f2f9 dd3c
000003b0: d55f 0e3c 0329 223e e326 36be a9dc c93d
000003c0: 5538 b43c 59de 70be 70ff 643e 6edf 1b3e
000003d0: 55be 0b3e a457 193e cc5f 0c3d b8a9 ce3d
000003e0: cac2 213e 5bc6 2b3e d92d 0b3d 7c8c 1f3d
000003f0: 2f4d 11be c0a8 f43d 11c9 01be b853 1a3e
0.0032722855 -0.32573673 -0.11335297 0.15730947 0.010155301 -0.10255664 -0.20218436 -0.006777674
0.17166927 -0.0023671966 0.13682693 -0.17301612 0.16559237 0.071218304 0.11797 -0.09270333
-0.105717294 -0.070750356 0.081881955 0.23706052 0.006020804 -0.004090722 0.13119496 0.14055507
0.03994116 0.2413259 0.022697963 0.20555414 0.25246897 0.051599745 0.12413911 0.060528338
0.17595431 0.13544554 0.029946106 0.109293684 0.075761735 0.2187379 -0.054603755 0.19250852
-0.29006976 0.12232768 0.0234349 0.15043409 0.2630675 0.1403934 -0.0062798527 0.29725254
0.11145069 0.1220309 0.1039928 0.023725895 0.0616205 -0.21739763 0.037303578 0.1585321
0.024984064 0.0819919 0.21349928 -0.031777345 -0.09284085 0.11142604 -0.19511576 0.15032494
0.18579917 -0.17772506 0.055553757 0.09517424 0.1398434 0.1254904 0.21019648 0.1953466
0.02632901 0.26312348 0.050475035 -0.18769142 0.14413719 0.14406526 -0.20441043 -0.107412584
0.1181293 0.14383885 0.15978357 0.10669287 -0.12999955 0.123507306 -0.01882871 -0.11093294
-0.14501533 -0.30123606 -0.0035926371 -0.14194301 -0.0060662506 0.119856946 0.19216765 0.2813657
-0.09432253 0.13721472 0.23098612 -0.04213365 0.13415821 0.20010942 0.08515798 -0.0012142456
-0.07036337 0.017534116 -0.2658506 -0.26500374 -0.012495783 0.19774306 -0.3795215 -0.05913139
0.12861836 0.14470871 0.19548617 0.0292098 0.14122286 0.15399873 -0.16510572 0.20597076
0.14303851 -0.15573762 0.10778014 -0.06236439 0.0029766082 -0.24491474 0.2804237 0.14908816
0.06996943 0.18338756 -0.19907318 0.034569684 -0.11939786 0.16103102 0.16509591 0.06337134
0.16326016 0.21082175 -0.3202194 0.1476712 0.14494222 0.15338124 0.140168 0.11824435
0.10459502 -0.005253125 -0.031836025 -0.11321803 -0.3005855 -0.23243909 -0.01706538 0.0793723
0.18046495 0.13309494 0.04635735 -0.29566655 -0.24620056 0.094671465 -0.14776121 0.08491528
0.18468307 0.088543154 0.08204315 0.29733676 0.13888748 0.10112378 -0.13673873 0.08759943
-0.023597721 -0.14672355 -0.22420628 -0.2898561 0.10444721 0.17784452 -0.10774968 0.11041203
0.3222378 0.28144035 -0.21521705 -0.1598096 0.03427469 0.15691714 0.13995756 -0.2965314
0.10119483 0.1688402 -0.08394992 0.05623972 -0.11307825 0.13819009 0.026215654 0.13844402
-0.25861347 0.22179125 -0.001181521 0.018178752 -0.25415742 0.13067333 0.23758526 0.16957258
0.083147615 0.13158268 -0.04787638 0.20534976 0.26402506 0.12648626 0.09560703 0.15165104
0.10681402 -0.08348787 0.15753293 0.049012534 -0.061113693 -0.008797525 -0.15773614 0.13418473
0.108694285 0.040448956 0.28806832 0.06465569 0.052643005 0.1978339 -0.24815728 0.03966305
0.1022956 0.25154385 0.031225795 -0.3586255 -0.13462107 -0.08582404 0.119340606 0.10907317
0.15865548 0.13295455 -0.11646377 0.027096722 0.00868984 0.15835957 -0.17788272 0.09856541
0.021999517 -0.23522319 0.22363067 0.1522195 0.13646825 0.14974838 0.034271047 0.10090965
0.15796962 0.16774885 0.03397927 0.038952336 -0.141896 0.11946249 -0.12674357 0.15070999

bn1.weight f4 [400]
00000000: 5035 5abb 5f01 0080 6201 0080 97e2 b8bc
00000010: 1d03 d5bc d123 8cbc ff8f 9d3f 78c5 0540
00000020: 39e9 870c f4cc 34bc f755 90b8 51ac 693b
00000030: 585e 0000 177f b9bc 90e6 403b aeb4 25bd
00000040: ee84 3bbc b870 4abb 92a2 b83c ef67 67b7
00000050: f0a4 593d e621 1ab7 ee38 923f 4351 00bc
00000060: d66c e3b5 4805 ee36 7ab7 80bc a380 4d3b
00000070: 5f01 0000 d929 573d 2a9c e637 e8f8 68bc
00000080: 1230 e33c 75c1 0332 0f7a b8bc db11 4eb9
00000090: 47de 07b8 a5d8 4a3d 1151 a738 3d75 36b2
000000a0: b55e 98bc 4832 3539 256d dcbb 21be 48bc
000000b0: 24d9 14bc 7156 003a cbc3 9b3e c4d4 b9bb
000000c0: 3d80 73b7 5f01 0000 482b f63b 6101 0080
000000d0: 19c8 66b2 f3f3 74bc 1cd7 62a4 e8af 9dbd
000000e0: a4fd d0b4 080a 063f 43f1 b193 7dc1 273e
000000f0: c105 2bae 9570 0640 9f2d c4bc 3d7a 92ba
00000100: 6001 0080 c5fc 753b d6c5 c63f 611d 01bd
00000110: 4a9d c99a 6101 0080 e8b4 db3c 24dc 1cbc
00000120: 12c6 883a 391e 3a3f 6030 0230 8127 3cbd
00000130: 6101 0000 0f9f aebc be43 6daa 2c57 2b3f
00000140: a640 eabc 5a5a b69d 5415 db3f c6d7 5c3f
00000150: 059e f439 d34e 058f e103 1d3c 6883 55bb
00000160: 6001 0080 8dbc e1bb 5f01 0080 1fd9 e13f
00000170: 340e 35bc e4b7 303a 09f9 bc3f 20c4 d435
00000180: 2b36 41aa 111e 56bc 86bf a432 6b5b 7ebc
00000190: c8a3 b33b 4d07 a3bb 2287 d5bc e18c 78b8
000001a0: 5f01 0000 05cc 00bd f158 01bd 66e5 02bb
000001b0: 13f1 bdbb 2fd7 b918 4bd5 f33a 3809 60a1
000001c0: 2092 7abc 2ab6 95bb 3bcf acb1 6101 0000
000001d0: b621 cc3c 6001 0080 50c8 8cbc ac9a d23e
000001e0: 9889 003a eb1a dfbb 81fc 1abd 5b17 4bbb
000001f0: 9aae a1bb 8d52 d93f 6d07 44bb 2e0c bfbc
00000200: 081a 27bc 5317 5bbc beaf aebc 5218 80ba
00000210: bfa7 1cbb 5edf b63f d48b 9c3b cf92 b43c
00000220: f043 1ab8 6101 0000 cf74 923b 9894 d1ba
00000230: 28c7 e73c 7ed5 07bc 8d40 b12c 7391 f1bc
00000240: 31c2 51bc b054 123f 56e9 c6bc 2537 d93c
00000250: 11ed 04b6 a021 d03b 13ad a93e fedd 423c
00000260: 7598 bf3a 3ea0 3531 cdb2 9eb2 5fdc 9334
00000270: 7c10 4597 4821 97bc 0a4b a9bc 4a7c 56bb
00000280: f4ff 2d05 c71d a43f 6999 0ebb 6bbf 16bc
00000290: 9a26 0e3f f7e8 08bd 6001 0080 9053 38bd
000002a0: 6380 5f3c ec5c 0dbc 98cc 113c 2013 0540
000002b0: 3bd8 b7bc bedc 51a9 568c 0dbc 6001 0080
000002c0: 55a7 512d 62f7 843e 7dbb aabc 92b2 c6bc
000002d0: b5de 63bb 95a6 8cbc 9e9a 3bbd 5f01 0080
000002e0: 833c d03f a27f 4e37 8cb5 c7bb 9405 8d3c
000002f0: 1586 5e3f 9fc0 5c40 4506 ac3f 24fd c11f
00000300: 5f01 0080 3906 5496 6001 0000 6cf6 e5bb
00000310: 11c0 dabc 9b5b 383c feff a2bb 6300 28b2
00000320: 91e2 9c3c 108f 4f3d 6101 0000 6001 0000
00000330: 1fd5 eb39 4eb8 1940 354a efbc 647c a591
00000340: 13dd ae37 1f2a 833a 6001 0000 4555 15b8
00000350: efb4 c990 3c22 3794 b47b adbc e705 a3bc
00000360: b6af 4f3f 8bfd cb34 0379 af3e 54b4 351f
00000370: 4073 15bd ff34 86ba aaea 3cb5 a719 6c3f
00000380: de53 c93e 7047 793c a143 b4b6 0b16 0000
00000390: 6101 0000 6001 0080 818c 3e9e 2135 a79d
000003a0: d515 5e3a 6566 6e3a 8878 c8bc cd42 03bb
000003b0: e642 f93a 4da9 dd3a 6620 e6b8 c5b2 1aab
000003c0: 5bc6 b0bb 1597 98af f101 9b39 6201 0080
000003d0: 5875 4cbb af93 c8b8 c934 22bb 564d 839e
000003e0: 4c25 f13f 6fdc 6997 1b52 ef9d 5c67 2eb0
000003f0: 916b da2c 718a 6d3c 5562 862d 2477 b4a8
-0.0033295937 -4.92e-43 -4.96e-43 -0.022568984 -0.026002461 -0.017106922 1.2309569 2.0901775
2.094041e-31 -0.011035193 -6.882467e-05 0.0035655687 3.3844e-41 -0.022643609 0.00294343 -0.040455513
-0.011445267 -0.003088994 0.022538457 -1.3792872e-05 0.053135812 -9.187008e-06 1.1423624 -0.007831874
-1.6944493e-06 7.0935675e-06 -0.015712488 0.003135719 4.92e-43 0.052530143 2.7490856e-05 -0.0142195
0.027732883 7.669191e-09 -0.02251914 -0.00019652343 -3.239352e-05 0.049523015 7.97828e-05 -1.0620451e-08
-0.018599847 0.00017280236 -0.006726878 -0.0122523615 -0.0090849735 0.0004895693 0.30422816 -0.0056711156
-1.45137865e-05 4.92e-43 0.0075124837 -4.95e-43 -1.3433259e-08 -0.01495074 -4.9188143e-17 -0.07699567
-3.8927567e-07 0.52359056 -4.4918984e-27 0.16382404 -3.888601e-11 2.1006215 -0.023947535 -0.0011175346
-4.93e-43 0.0037534696 1.5529125 -0.03152216 -8.3385766e-23 -4.95e-43 0.026819661 -0.00957397
0.0010435006 0.72702366 4.736247e-10 -0.04593611 4.95e-43 -0.02131608 -2.1073331e-13 0.6692989
-0.02859528 -4.826842e-21 1.7115884 0.86266744 0.0004665704 -6.572587e-30 0.009583444 -0.0032579545
-4.93e-43 -0.006888932 -4.92e-43 1.7644385 -0.01105075 0.0006741269 1.47635 1.5852311e-06
-1.7160637e-13 -0.013068692 1.9179208e-08 -0.015524725 0.0054821707 -0.0049752356 -0.026065413 -5.925901e-05
4.92e-43 -0.03144457 -0.03157896 -0.0019973158 -0.0057965606 4.803866e-24 0.0018602995 -7.5906353e-19
-0.015293628 -0.004568835 -5.029418e-09 4.95e-43 0.024918418 -4.93e-43 -0.01718536 0.4113363
0.00049033156 -0.006808629 -0.037838463 -0.0030989263 -0.004934144 1.6978317 -0.0029911653 -0.023321237
-0.010199077 -0.01337226 -0.021324035 -0.0009772873 -0.0023903695 1.4286916 0.004777411 0.02204266
-3.6779733e-05 4.95e-43 0.004469491 -0.0015989719 0.028293207 -0.008290647 5.037809e-12 -0.0294883
-0.0128026465 0.5716047 -0.024281185 0.026515553 -1.9807524e-06 0.0063516647 0.33139858 0.011893747
0.0014617579 2.6430054e-09 -1.847493e-08 2.7541225e-07 -6.367494e-25 -0.018448487 -0.020665664 -0.003272789
8.181432e-36 1.2821587 -0.002175892 -0.009200911 0.5552765 -0.033425298 -4.93e-43 -0.045001566
0.01364145 -0.008628111 0.008898877 2.0792923 -0.022441974 -4.6598786e-14 -0.008639416 -4.93e-43
1.191743e-11 0.25969988 -0.020841355 -0.02425507 -0.0034770195 -0.017169276 -0.04580175 -4.92e-43
1.6268467 1.2308274e-05 -0.00609464 0.017214574 0.8692334 3.4492567 1.3439413 8.2157465e-20
-4.92e-43 -1.7127187e-25 4.93e-43 -0.007017901 -0.026702913 0.011252309 -0.0049743643 -9.778975e-09
0.019151004 0.050673544 4.95e-43 4.93e-43 0.0004498148 2.401874 -0.02921019 -2.6109072e-28
2.0845362e-05 0.001000706 4.93e-43 -3.560378e-05 -7.9559293e-29 -9.2458905e-27 -0.02117715 -0.019900275
0.8112749 3.7996173e-07 0.34272012 3.8477405e-20 -0.036486864 -0.0010239183 -7.037694e-07 0.9222664
0.39321798 0.015214786 -5.372291e-06 7.908e-42 4.95e-43 -4.93e-43 -1.0087572e-20 -4.4259466e-21
0.0008471881 0.00090942375 -0.024471536 -0.002002883 0.001901713 0.0016911417 -0.00010973289 -5.4959883e-13
-0.0053947396 -2.775599e-10 0.0002956535 -4.96e-43 -0.0031197872 -9.5642514e-05 -0.00247507 -1.390215e-20
1.8839507 -7.5564587e-25 -6.334767e-21 -6.3447714e-10 6.207875e-12 0.014498339 1.5277704e-11 -2.0035683e-14

bn1.bias f4 [400]
00000000: ef95 96bc 4e4a 0f9e 3bcb 87a6 7b1e 24bd
00000010: 7682 e4bc b95e e6bc d8de 8b3e 01f6 663e
00000020: 33c5 29b1 dbde b9bc d004 f8b8 7bc8 23bc
00000030: 790e 93ae 01f3 f7bc 7eaf e5bb 8f21 46bd
00000040: f80b 31bb 1c0e f5ba c654 51bc 9834 aebb
00000050: 8472 01bd 8861 8eb9 7de7 113f 015d c7bb
00000060: 242a a2ba de9c 71ba 133d b8bc 13f9 93bc
00000070: 2edc 2198 991a b1bc 1bfe 2bba 82b5 89bc
00000080: b3f5 aabc 81f7 24ba e404 a7bc b476 19ba
00000090: 843b 22bb c2af 1e3c 91fb edba fcc9 a4ba
000000a0: ded2 b0bc 33c2 4ebb 84c1 d43b 0515 36bc
000000b0: e7d7 efbc 75a4 88bb 55ed 5e3e 59c8 46bc
000000c0: c9e8 59bb 2ae0 169e d9bf afbc 2801 1dad
000000d0: 30b1 4fb3 3333 9cbc 2ece 7bb7 03be 52bb
000000e0: dd8d a0ba b467 ba3c d686 ceaf 477b 8c3d
000000f0: f15d 47b7 2a2e 34be bad0 0ebd b686 37bc
00000100: 1d6c 4196 e6e6 86bc 8bb2 90bc 8b0e 0abd
00000110: bc0b 98b0 67a5 0491 c3e9 4cbc e229 8fbc
00000120: ad32 3cbb f97a 123e 1278 20ba 86fa 07bc
00000130: 25aa 2ca5 03d5 d5bc d07b 91b5 c373 67bd
00000140: b0c9 febc 73cd f4b0 ad31 ab3d 589f 833e
00000150: 414d 6fbb 8a20 17b1 27c4 9abb 28ac 03bd
00000160: bf0d 2eb5 2138 1fbc 7791 06a2 788b 973d
00000170: 7795 b9bc 5606 90bb 8486 25be 0eb1 2bba
00000180: 1d46 6eb8 7ee9 abbc 112d 47b3 5a0d 60bc
00000190: 8638 15bb 1a25 3fbc db64 d4bc e210 96bb
000001a0: 6b18 5ab3 8620 e7bc f212 9ebc 239a 4bbc
000001b0: f047 44bc 443a 06b9 c23e ecba 7be6 cbb4
000001c0: 211c fcbc e71e a2bc c905 3cb8 aa7f cead
000001d0: dc32 1ebc d902 5698 4fa9 99bc bf99 133e
000001e0: 13e0 8bbb fe5e dfbb d287 1bbd b13c 9fbb
000001f0: 1be2 77bb a903 24be 6c67 87bc 55a2 d8bc
00000200: 8ddc bdbc e11a 41bc d67d 83bc fd69 03bc
00000210: 6186 a8bc 1e79 edbd fece 93bb fa1c aebc
00000220: a49e 56bb da87 bea5 f7e5 59bc ebf7 6bbb
00000230: f5b2 f5bb c709 3bbb bf48 f2b4 da69 02bd
00000240: 248c e1bc 645b a4bc cb3f ecbc 88d8 98bc
00000250: 4a3e 65b9 1255 91bb cb7c 953e 3179 35bc
00000260: d849 55bb 6566 afb9 4ea9 12b9 b3b3 0bbb
00000270: 4c95 80b6 a2ba dbbc 3dd8 e9bc 8dac 78bc
00000280: 263d d6ac a13f 4f3f a91b 43bc 67ee 1ebc
00000290: ba9a 0bbd ac8c 0bbd 1450 658f 720d 4fbd
000002a0: 542f 5ebc b6f5 85bc 8c7d 3ebc be0f e4be
000002b0: fc95 abbc d99a 3db8 4f57 e7bc ba58 ada4
000002c0: b734 99b5 0559 35be b41f a6bc dbbe ddbc
000002d0: 3584 31bc 194b dfbc d88d cdbc df04 1199
000002e0: a810 96be 5944 cab8 7092 c2ba dd66 d1bb
000002f0: a3e4 22bc a0a0 973e 2131 9dbe 5499 e5af
00000300: c2df 8691 b636 62b1 41d7 938f 7050 96bc
00000310: 36bb f6bc e5a6 77bc 83bb 41bc ec18 36b9
00000320: 4c68 db3b f02e 86bc f34a d992 9d01 6a85
00000330: f97e b2bc fa03 b03d 63d8 85bc 04e2 31af
00000340: c03d 07bb d47f 81bc 0dd3 38b2 a7ee 35bb
00000350: 4161 8db6 501b 82b7 3f41 ecbc 5e37 a0bc
00000360: fa36 b63e 19b6 eab9 4bdd c6bd c356 9bb1
00000370: dd41 21bd 2a2e 00bc 930b 78ba 1c73 b13e
00000380: 71dd 6c3d 4c2b 65bc 2fb6 05bb b603 09ae
00000390: 3487 6fa4 882e ccab 83a9 bfb2 a050 41b4
000003a0: 51bd c7bb 4527 79bb fdb3 d1bc 9fa3 3dbc
000003b0: 0e75 77bc a774 d2bb 87c7 70ba 318d 5eb7
000003c0: a354 8ebb 767b 8fb6 8c10 9bba ae89 0b9b
000003d0: 3f4e 90bc 573a cdbb b257 6fbb 4ee8 8cb9
000003e0: 9d5f cabd 1d34 02b4 ddc6 02b4 cf5d 79b9
000003f0: f8fc 2aba 7a37 59bc bdb5 72b7 239b b8b7
-0.01838204 -7.585723e-21 -9.422592e-16 -0.04006813 -0.02789424 -0.02812134 0.27318454 0.2255478
-2.4704832e-09 -0.022689274 -0.00011826458 -0.009996529 -6.687357e-11 -0.03026724 -0.0070094457 -0.048371848
-0.002701519 -0.0018696222 -0.012776559 -0.0053163283 -0.03160335 -0.00027157017 0.5699385 -0.006084085
-0.0012372178 -0.00092167954 -0.02249006 -0.018063104 -2.0919925e-24 -0.021619128 -0.0006560997 -0.016810182
-0.020869112 -0.00062929845 -0.020388074 -0.0005854175 -0.0024754712 0.009685459 -0.0018156638 -0.0012572403
-0.021584924 -0.0031548857 0.0064927954 -0.01111341 -0.029277755 -0.0041699954 0.21770222 -0.012132728
-0.0033250323 -7.98729e-21 -0.021453785 -8.9246735e-12 -4.8357094e-08 -0.019067382 -1.5008771e-05 -0.0032156713
-0.001224931 0.022754528 -3.7566988e-10 0.06859451 -1.1883197e-05 -0.17595735 -0.034867026 -0.011201551
-1.562453e-25 -0.016467523 -0.01766326 -0.033705276 -1.1062791e-09 -1.0463932e-28 -0.012506905 -0.017476026
-0.0028716729 0.14304723 -0.00061214075 -0.008299476 -1.4976269e-16 -0.026102548 -1.0839376e-06 -0.056506883
-0.031102031 -1.7811729e-09 0.08359084 0.25707507 -0.0036514553 -2.1991888e-09 -0.00472309 -0.032146603
-6.4840054e-07 -0.009717972 -1.8237395e-18 0.073996484 -0.022654278 -0.0043952866 -0.16164595 -0.00065495155
-5.680892e-05 -0.020985361 -4.6374286e-08 -0.013675058 -0.0022769286 -0.011666561 -0.025926998 -0.0045796493
-5.077929e-08 -0.02821375 -0.019296143 -0.012426886 -0.011980042 -0.00012800941 -0.0018024074 -3.7979393e-07
-0.030775132 -0.019790126 -4.482808e-05 -2.3476183e-11 -0.0096556805 -2.766029e-24 -0.01875749 0.14414118
-0.004268655 -0.006816744 -0.037971325 -0.00485953 -0.0037823978 -0.16017021 -0.016528808 -0.026444593
-0.023176456 -0.011786194 -0.016051214 -0.008020875 -0.02057189 -0.11595367 -0.0045107594 -0.021254051
-0.0032748366 -3.3051803e-16 -0.013299457 -0.0036005925 -0.00749814 -0.0028539763 -4.5128942e-07 -0.03183923
-0.027532645 -0.02006311 -0.028839013 -0.018657938 -0.00021862346 -0.00443519 0.29196772 -0.011076258
-0.0032545235 -0.0003345489 -0.00013986716 -0.0021316826 -3.8320777e-06 -0.026822392 -0.028545493 -0.015177858
-6.0890347e-12 0.80956465 -0.01190845 -0.009700394 -0.034083106 -0.034069702 -1.1305994e-29 -0.05054993
-0.013561089 -0.016352516 -0.011626612 -0.4454326 -0.020945542 -4.5205325e-05 -0.028239874 -7.51771e-17
-1.141473e-06 -0.1770974 -0.02027879 -0.027068546 -0.010834743 -0.027257489 -0.02509205 -7.497308e-24
-0.29309583 -9.644841e-05 -0.0014844667 -0.006390436 -0.009942207 0.29614735 -0.30701545 -4.1763804e-10
-2.1279374e-28 -3.2918428e-09 -1.4578232e-29 -0.018348902 -0.030118566 -0.015115474 -0.011824491 -0.00017366157
0.0066957828 -0.016379803 -1.3713102e-27 -1.10029234e-35 -0.02178906 0.085945085 -0.016338533 -1.6178353e-10
-0.002063617 -0.015808024 -1.0758197e-08 -0.0027760656 -4.2134493e-06 -1.5509926e-05 -0.028839706 -0.019557651
0.3558882 -0.0004476763 -0.09710177 -4.5209574e-09 -0.039369453 -0.007823506 -0.0009462174 0.34658134
0.05782837 -0.013987374 -0.002040278 -3.115349e-11 -5.1939385e-17 -1.4507987e-12 -2.2312411e-08 -1.8003857e-07
-0.0060955663 -0.0038017791 -0.02559852 -0.011574655 -0.015103592 -0.0064225974 -0.00091850053 -1.3265105e-05
-0.0043435856 -4.276105e-06 -0.0011830493 -1.1542297e-22 -0.017615436 -0.006263058 -0.0036520776 -0.0002687596
-0.09881518 -1.2126152e-07 -1.217954e-07 -0.00023781437 -0.00065226806 -0.013257856 -1.4466638e-05 -2.200675e-05

bn2.weight f4 [300]
00000000: 8346 bfbf 432d c53f 3e3a 0a40 a83f 0abf
00000010: ee7c afbf 0bd1 c53d ccf7 b53f 2837 a3bf
00000020: 5412 003e 1452 dabf 23e3 01bf 3b90 eb3f
00000030: 2235 d382 d229 0239 645f 01bf 3e7e 31be
00000040: 647a b43f ae99 10be 03a5 ac31 efdc 84bf
00000050: 3f67 9d2d c4c1 9cbf 33fb fdb3 21ea 9039
00000060: c839 c8bc da38 b33f 5e00 01be 950f 28bd
00000070: 069b 923f 562c 3740 2800 243f 84c6 5040
00000080: 3561 cebc 547f f93f f85f 2cbd 79d7 973d
00000090: e6f8 5540 539f f13d a873 55be eee3 5040
000000a0: d17c ea3f 621c 0640 37d1 0c3f 6da0 dc3c
000000b0: bea7 df3f a3a6 4ebe 91fd 98bf 5930 db3f
000000c0: 4b4f d53e 2aa6 563e 898b 913f c411 9dbf
000000d0: 03ae dfb1 fdf6 b43f 28cf e93f e8f6 99a4
000000e0: 9041 dbbd 06e1 0bbf 0476 3340 286d a712
000000f0: f18e 94be c891 c537 c1fa cc3f 9a12 8cb2
00000100: ed7e 2a40 e2e6 0140 f776 3a40 4dfc c43d
00000110: acea d53e 97aa ffbe ae6a a5be 6bee 7ab4
00000120: 5f01 0080 536e a03f 97d8 c2bf f8ea 953f
00000130: 6af7 9508 58fe f4ab f283 a03f 9c89 983f
00000140: 6ed0 0abf cf42 cd35 19ef 4c3f 15bb 54be
00000150: 746a 943f a012 162b 288a 9ebe 4464 c03f
00000160: a9bc 583f c779 eb3f 1d3b d5bf 62e0 d93e
00000170: f4bb a1bf 88a2 bd3d 7541 b4be 4c4c b53f
00000180: d7cc bf3c 6bde 9f3c 42cc ae3f 58ee 06c0
00000190: d727 7c33 e07e 5e3e 5205 fcbe c089 a0bf
000001a0: 305f a53f b3a9 81b6 e71c ef3f f618 0940
000001b0: 0183 6ab4 205b 2940 69e4 0840 d460 d1bd
000001c0: 267c 1d3f 0acd 0ac0 575d 4a36 b026 983f
000001d0: f30c 2133 117b eebe 5c90 6b3f 392f 5b40
000001e0: 4c70 7ab9 cc68 beba 84a9 ca3f be36 cd3f
000001f0: 70bf a03f 505f 913f 6d45 ca3f 62a0 183e
00000200: c13a 5f2e 7624 903f 841d 773f b5ff a93f
00000210: 7b92 24b3 108f b3be 368d 1040 cdbb 8ca6
00000220: 06ad 0940 f132 0f40 e0b0 e23f 59f8 ac94
00000230: 63da 4a3d 43ff 22be b9fc 0e3b f4dc 0840
00000240: eb0d 4440 6f90 b7be e3a0 9d3f 9a4d 25bd
00000250: 710e df3f 8af6 a63f 1199 0440 685d 94be
00000260: 7eb5 48be cf5b 18be 9585 4640 d3d8 ca3f
00000270: 9822 1a40 73be 7b3e b9b6 f02c 3200 36be
00000280: c6ea 583f 982a 74bf fd1f 2940 e964 f03f
00000290: 5618 44be b91b 9f3e 8aff c73c df58 ac3f
000002a0: 55a0 3cbe edc0 f43d cb95 0140 a4be b93f
000002b0: d9be 40bd 5746 6a40 6864 7abe e55c b13f
000002c0: 7d9d bcbf 30bc 1c40 01aa e23f 8fb0 3b3b
000002d0: 7b05 d23f d878 633f 65d8 11ba f054 e43f
000002e0: 95d5 2e40 436d 3e40 f7ee 8a39 10b2 5c40
000002f0: 9751 313e d2f7 c9bb 4738 f8bf a11b c0be
00000300: 5e16 c03f 0b9b a83f 6552 acbf 02fa e73f
00000310: 5e39 983f 88b8 4840 dbeb 0340 1b74 25b1
00000320: 1a26 1b3c 7ba9 683f 4f61 823f f34b 1e3e
00000330: 0a00 933f e3f7 8b3c 198c efbd c5ed 6f3d
00000340: 46d4 ba3b 99b3 53bf 52d5 14c0 a58e ad0a
00000350: 45c9 b3be f49c 1bbd 5c1e 2f3c c575 313e
00000360: 6001 0080 354e cdbe 70cd 6c40 16d5 ce3f
00000370: c02b 2c3c faed 18bb 04e0 b93f 4294 303f
00000380: e016 2f40 5b2c 913f 07ab 57bf 23a3 1740
00000390: 51d2 cebe dab3 073b 4710 90bc 849d 0e3c
000003a0: affd 0abc 833d 3640 2a75 fcbd 6cc2 d73f
000003b0: 7a17 dbbe 5201 453f ecdd ae3f fd79 e7be
000003c0: f991 5440 04fc 8e3f b3d7 073e 4dba 5e40
000003d0: 892f aca6 1e56 9abc 08e8 b03f 4a52 e33e
000003e0: e295 09c0 3b88 c33c c8fd fd3f d3ac fd39
000003f0: f41f e93f b13c d2be 19e8 06ba d32c 9db7
-1.4943393 1.5404438 2.1598048 -0.5400338 -1.371 0.096590124 1.4216247 -1.2751207
0.12506992 -1.7056298 -0.5073721 1.8403391 -3.103416e-37 0.00012413345 -0.5053618 -0.17333314
1.4099851 -0.14121124 5.0246185e-09 -1.0379924 1.7894684e-11 -1.2246633 -1.18269234e-07 0.0002764026
-0.024441615 1.4001725 -0.12597796 -0.041030485 1.1453559 2.862081 0.6406274 3.2621164
-0.025192836 1.9491982 -0.04208371 0.07414145 3.3433166 0.11797967 -0.208449 3.2639117
1.8319341 2.0954823 0.55006737 0.026931966 1.7473066 -0.20180754 -1.1952382 1.712413
0.41662058 0.20961824 1.1370708 -1.2271047 -6.509937e-09 1.4137875 1.8266344 -6.677145e-17
-0.107058644 -0.54640234 2.804078 1.0566091e-27 -0.29015306 2.3552115e-05 1.6014024 -1.6306604e-08
2.663997 2.029717 2.913511 0.09618435 0.41780603 -0.49934837 -0.32307953 -2.33698e-07
-4.92e-43 1.2533668 -1.5222348 1.1712332 9.025778e-34 -1.7407837e-12 1.2540267 1.1916995
-0.5422429 1.5293134e-06 0.80052334 -0.20774491 1.1594987 5.331655e-13 -0.3096478 1.5030599
0.8466287 1.8396538 -1.6658665 0.42554003 -1.2635484 0.09259516 -0.3520619 1.4163909
0.023413105 0.019515237 1.3656085 -2.1082973 5.8709556e-08 0.21728086 -0.4922281 -1.2542038
1.2919674 -3.864255e-06 1.8680695 2.1421485 -2.1840607e-07 2.6461868 2.138941 -0.102235466
0.6151756 -2.1687646 3.0154677e-06 1.1886806 3.749751e-08 -0.46578267 0.9201715 3.4247572
-0.00023883692 -0.0014527082 1.5832982 1.6032331 1.2558422 1.1357212 1.5802437 0.14904931
5.0756514e-11 1.1261127 0.9652941 1.328116 -3.831745e-08 -0.35070086 2.2586188 -9.765355e-16
2.1511855 2.2374842 1.7710228 -1.7465518e-26 0.049524676 -0.15917687 0.0021818115 2.138486
3.0633495 -0.35852382 1.2314724 -0.04035721 1.7426282 1.3043988 2.0718424 -0.28977513
-0.19600484 -0.14878772 3.1019032 1.584742 2.4083614 0.2458437 6.8414966e-12 -0.17773512
0.84733236 -0.9537749 2.6425774 1.8780795 -0.19149908 0.31075838 0.024413843 1.3464621
-0.18420537 0.1195086 2.0247676 1.4511304 -0.047057007 3.6605432 -0.24452364 1.3856474
-1.4735562 2.448986 1.7708131 0.0028639173 1.6407923 0.8885627 -0.00055635563 1.7838421
2.731786 2.9754188 0.00026499454 3.448368 0.1731628 -0.0061635757 -1.9392174 -0.3752108
1.5006826 1.3172315 -1.3462645 1.8123171 1.1892507 3.136263 2.0612705 -2.4076658e-09
0.009469533 0.90883607 1.0185946 0.1545866 1.1484387 0.017085975 -0.116966434 0.058576364
0.0057015745 -0.8269592 -2.32552 1.6712951e-32 -0.35114494 -0.03799148 0.010688391 0.17330082
-4.93e-43 -0.4009873 3.700039 1.6158779 0.010508478 -0.0023335204 1.4521489 0.68976223
2.7357712 1.1341661 -0.8424534 2.369332 -0.40394834 0.0020706565 -0.017585887 0.008704547
-0.008483334 2.8475044 -0.12327035 1.6856208 -0.4279135 0.7695514 1.3661475 -0.45210257
3.3214095 1.1170659 0.13265876 3.480121 -1.1947782e-15 -0.018839892 1.382081 0.4439872
-2.1497731 0.02386867 1.9843073 0.00048384684 1.8212876 -0.4106193 -0.00051462796 -1.8736731e-05

bn2.bias f4 [300]
00000000: 6cdd b23f 1a78 d9be de53 20bf 46be a23e
00000010: 17a6 ae3f d85e 4abd ce17 dcbe 553b b53f
00000020: e897 af3d ac14 a33f a213 a83b 8c96 66be
00000030: 30e4 f58c d5fe 4cbb 7c37 a93f f84d 00bf
00000040: 81ad 94be 99bc 2b3e c0bd 46bb 6a15 4ebe
00000050: 9acd 82b0 5e31 b33f f924 03b7 88ec d3bb
00000060: 5d43 6a3c 0bf7 6dbe 38b9 7ebc aaa7 c5bd
00000070: f0de 73be 688d 8a3f e255 46be 2b77 a03f
00000080: 3ea7 07bd 9501 da3c ecdc 82bc ebc1 513d
00000090: 6907 903f 7307 99be 9362 853f 8c04 af3f
000000a0: 4e9c 5ebe b665 a53f 7c11 70be 0343 f03e
000000b0: cb0d abbe 2e38 a5be f59e b23f 7768 92be
000000c0: 41f6 80be 1950 8ebe 48d6 94be 6f71 b13f
000000d0: 3a87 38b9 77ea 18bf dbb8 2fbe 6e96 a2aa
000000e0: ec5f 6a3e 7ae0 a63f 4720 263f 6589 0bb0
000000f0: aefd 453f b2cd 12bb 0503 2ebf f358 1fb8
00000100: ffc3 b23f 4bfb 95be 2ec4 883f e7af cf3e
00000110: 19b0 e1bd 2b87 9d3f 907e 7b3e a8eb 4cb7
00000120: 2474 27b3 62f3 cabe d79b a43f 0c14 47bf
00000130: 2acc 828e af36 98b4 d1cd c0bd d5e6 7fbe
00000140: d480 993f f714 83b9 b419 99be a8b1 463f
00000150: 5115 dbbe da00 4eac 9af9 933f 0ade 35be
00000160: 2df7 72bc 1aff 60be 0b96 a83f fa4f 6dbe
00000170: 523d b43f 54e9 8bbe 4c19 993f 22ed 7abe
00000180: 6a1f 66bd edf6 09bd 6ab3 9ebe d509 183e
00000190: 2b6d e9b5 21d1 f43e ae34 d53d 33cd b43f
000001a0: 119b 45bf fd84 e7ba 1a1f 5e3d 3554 b5be
000001b0: f877 acb9 dbe5 083f ebb3 99be 445e b1be
000001c0: 48ac 26be 1b4e 863f 4f6c 2dba c015 4bbe
000001d0: 23d7 5bb8 c653 46bd e4a8 f5be 1531 c43e
000001e0: 55b4 3dbb 32be 77bb 4836 51be 1d4e 5fbe
000001f0: e72e 20bf e9ae 0bbe bf84 37be 3ed2 9abe
00000200: f6de 13b5 cdbc 323f 2f67 d4be b9c2 463f
00000210: 3e8e 42b4 9d24 ae3c 4c2a 08bf e90d 3db9
00000220: 86f8 b6be 7433 07bf 3948 4bbe b66d 3ba5
00000230: ecbd 08bd e7bf 46bc 19b1 9fbc 6e61 9b3f
00000240: 2cc9 a53f a3d0 81bc 764c 37be e4e3 4ebe
00000250: 7084 60be 453e 50be e598 13be a9af 913f
00000260: 0bcd 8f3f 37e7 383d 6b44 913f 11ba 8abe
00000270: c5ff bbbc 0aa5 1cbe 16d8 ebb3 7825 0dbe
00000280: 6535 8abe a01e 8f3f 1a27 783f 39d9 fcbd
00000290: cdf9 543f 327c 043e c30e 3fbd 4e18 0c3f
000002a0: e62a 5f3d e8a7 8fbe c901 d1be 10b8 29be
000002b0: 13d1 8d3f 0bfc 853f 7d85 b9be 52b5 d8bd
000002c0: ed0b d0be 5dc5 84be 6c8a a53d 30b2 13bc
000002d0: 91ce 23be 891c af3e 959e 05bc 0ae5 55be
000002e0: b06f 9f3f 7960 c63f 5b04 a5bc ab57 f53e
000002f0: 7f79 0f3e fa6b 56bc 1537 9f3f 0379 8c3f
00000300: 3a24 fcbd 4f83 4e3e c017 b33f 322e b4bd
00000310: be7c 2cbf 7985 ab3f a694 cfbe 3f4a 57b3
00000320: c131 b1bd 1c2d 5dbe 74c7 2ebf c845 ec3d
00000330: 14d7 cd3e b6be fd3e 9605 853f fe5a a83c
00000340: 56c7 0ebc 727a 523e ab34 613f 5d02 60b7
00000350: 5e5d c13e d435 903d 8e43 77bc 676e 17be
00000360: a91b 179e 0ba9 b3be 1256 973f e2db c3bd
00000370: 2891 cebc eb7e 06bb 7c91 70be 656d 71be
00000380: 7bd0 aa3f 1f2c 6dbe 3544 873d 5487 82bd
00000390: 7a2d 4e3f 3062 b43d 857d bd3d ac08 b3bc
000003a0: fd53 d8bc 7fd1 003f ecfe c3be 23ec 783f
000003b0: 5cf5 90be 7a1c 743e 2b93 06be 37a5 963f
000003c0: d2d9 8f3f 93ad 6ebe 0173 c3bd 6bd3 9f3f
000003d0: 0708 34b1 8035 88bc 153d 44be a771 92be
000003e0: f7bd 733f 0a36 45bd 02ff 99be 84dc 1bbc
000003f0: eecb 1abf e90b 8f3f 1ef9 a6bc cc3f bbb9
1.3973823 -0.42474443 -0.6262797 0.31785792 1.3644437 -0.049406856 -0.42986912 1.4158732
0.08573896 1.2740684 0.0051292935 -0.22518367 -3.7885562e-31 -0.0031279821 1.3220057 -0.5011897
-0.29038623 0.16771163 -0.0030325502 -0.20125356 -9.51718e-10 1.3999441 -7.816817e-06 -0.0064674057
0.014298287 -0.2323877 -0.015547089 -0.0965112 -0.23815513 1.0824404 -0.19368699 1.2536367
-0.03311848 0.026612082 -0.015974484 0.051210325 1.1252261 -0.29888496 1.0420707 1.3673263
-0.21739313 1.2921665 -0.2344417 0.46926126 -0.3340896 -0.32269424 1.395476 -0.28595325
-0.25187877 -0.27795485 -0.29069734 1.3862742 -0.00017597983 -0.59732765 -0.1716036 -2.8881362e-13
0.22888154 1.3037255 0.64893 -5.0763155e-10 0.7734021 -0.0022400436 -0.6797336 -3.7991394e-05
1.3966063 -0.29293284 1.0684869 0.4056389 -0.11019916 1.2306875 0.24559999 -1.22142155e-05
-3.8988347e-08 -0.3963881 1.2860059 -0.77764964 -3.2244077e-30 -2.8351994e-07 -0.09414256 -0.24990399
1.199244 -0.00025001887 -0.29902422 0.7761483 -0.427897 -2.9274833e-12 1.1560547 -0.17760482
-0.014829439 -0.21972314 1.317079 -0.2317504 1.4081213 -0.27326453 1.1960845 -0.24504521
-0.056182303 -0.033682752 -0.30996257 0.148475 -1.7391625e-06 0.47815803 0.104104385 1.4125122
-0.7718974 -0.0017663535 0.05422888 -0.35415807 -0.0003289578 0.5347573 -0.3002008 -0.3464223
-0.16276658 1.0492586 -0.00066155655 -0.19832516 -5.241403e-05 -0.048419736 -0.47980416 0.38318697
-0.0028946598 -0.0037802574 -0.20430863 -0.21807142 -0.6257157 -0.13640942 -0.17921732 -0.30238527
-5.508622e-07 0.6981934 -0.41484973 0.77640873 -1.8119405e-07 0.021257693 -0.5318954 -0.00018029627
-0.35736483 -0.52812886 -0.1985177 -1.6256836e-16 -0.03338425 -0.012130714 -0.019493626 1.2139108
1.2952018 -0.015846556 -0.17900261 -0.20204121 -0.21925521 -0.20336254 -0.14413793 1.1381732
1.1234449 0.04514238 1.1349005 -0.27095082 -0.022949109 -0.15297332 -1.0982346e-07 -0.13783824
-0.26993862 1.1181221 0.96934664 -0.123461194 0.83193666 0.12938002 -0.046644937 0.54724586
0.05448427 -0.2805779 -0.40821674 -0.1657412 1.1079429 1.0467542 -0.36234656 -0.10581459
-0.406341 -0.25931826 0.080830425 -0.009014651 -0.15996768 0.34201458 -0.008155485 -0.20888153
1.2455959 1.5498191 -0.020143678 0.47918448 0.14011191 -0.013087267 1.2438685 1.097443
-0.12311597 0.20167278 1.3991623 -0.087978736 -0.6737784 1.3400108 -0.40543097 -5.0126115e-08
-0.08652068 -0.21599239 -0.6827309 0.11536747 0.40203154 0.49559563 1.039233 0.020551201
-0.008714518 0.20554522 0.8797099 -1.3351991e-05 0.37766546 0.07041517 -0.01509179 -0.14788209
-7.9995934e-21 -0.35089907 1.1823142 -0.09563424 -0.0252157 -0.0020522426 -0.23492998 -0.23576887
1.3344873 -0.23161362 0.06604806 -0.06373468 0.8053814 0.0880779 0.092524566 -0.021854721
-0.026407236 0.50319666 -0.38280427 0.97235316 -0.28312194 0.23838988 -0.13142078 1.176917
1.1238348 -0.23308401 -0.0954342 1.2486395 -2.619801e-09 -0.016627073 -0.19163926 -0.28602335
0.9521174 -0.04814724 -0.30077368 -0.009513024 -0.6046742 1.117551 -0.02038246 -0.00035714952
