trained_data/withwalls_1/target_critic_ddpg.pth (torch, 507042 bytes, 11 tensors)

fc1.weight f4 [400, 6]
00000000: 862b 8b3e 32da e8bc a2ab 1cbf f63d 083f
00000010: b154 e93c 0301 953d 7536 893e e74a cdbc
00000020: 4dc0 15bf fcb5 fa3e ad9c 163d 0d88 8d3d
00000030: 31c7 853e 7bdd a4bc 07de 2fbf 6190 023f
00000040: f757 f23c 77d2 753d 8d85 923e cd08 21bd
00000050: 8a87 1bbf a630 083f 6de4 7dba 4229 a63d
00000060: 49ab 8a3e 2777 e2bc 464d 1dbf 42ed 083f
00000070: 4e0b d33c 11ca 933d d1fa 833e d021 94bc
00000080: 0da6 1abf ff21 033f 0e1e 0a3d a18a 8e3d
00000090: c3b0 283e c05f 67bb 8939 2540 90ac fe3f
000000a0: 1975 31be 4322 7040 35b1 433e 3413 b2bc
000000b0: 9922 f7bf 236a c83f 2e68 b3bf 657d 623f
000000c0: b816 8e3e 239f 05bd 94b8 1fbf f9a7 083f
000000d0: 86f2 163c 317c 9b3d c8fb 893e be0a d8bc
000000e0: 8f4d 1cbf ab2d 073f 7547 973c da97 913d
000000f0: 8d39 893e fcbb cebc f4c7 1abf a5b5 053f
00000100: bbf3 c63c 89aa 8f3d a59d 853e e216 adbc
00000110: 8683 1dbf afcc d93e dc37 21b9 bce6 8b3d
00000120: 24eb 8b3e f03b efbc 0061 18bf 1cf3 043f
00000130: 934d 883c 25ee 953d 496a 8b3e 6a42 eabc
00000140: adb4 21bf 039d 093f 9863 2a3c c6a0 933d
00000150: 4818 893e 8122 cdbc bb7d 1bbf ba53 063f
00000160: 227f ba3c 3a88 9a3d a129 8c3e f099 f8bc
00000170: 646d 1dbf d83d 083f b487 9d3c c96b 973d
00000180: fe58 6f3e 9174 a43a 729c 25bf 23f8 003f
00000190: 0bdf 523d 3043 803d 9764 7f3e a64a 28bc
000001a0: 22fe 1dbf a872 ed3e 1db8 133d 4555 733d
000001b0: 7aa2 8a3e 66bd dfbc 61b0 23bf 4328 073f
000001c0: 14e6 2a3c 5e51 a53d e7dc 8a3e 1cff e3bc
000001d0: 8d10 1ebf 2055 063f f3db cd3c 54b9 973d
000001e0: 5ac9 863e 96c2 b9bc 5fb9 1cbf 0233 023f
000001f0: 301c f63b 80c5 0a3e 28a1 6b3e d757 883b
00000200: 145e 20bf c07a 063f cb90 2f3d a752 483d
00000210: f016 cb3e c00d 4bbe 7f8f e5bf 78a2 76be
00000220: 7e81 c5bf 75eb 18c0 ab77 833e ab5d 89bc
00000230: ff64 1dbf 6f8f 043f 4f22 d43c a0a9 893d
00000240: 7a26 883e 44b3 c4bc 7d79 17bf 81bd 033f
00000250: 28c1 5e3d ef6a 8e3d 007e 7f3e 6cd9 2ebc
00000260: f579 1cbf fc8c 013f 2910 083d 04a8 753d
00000270: 84e3 813e b58c 5ebc 204f 21bf f230 013f
00000280: b431 683b e65c 863d be6e 8d3e 0430 03bd
00000290: 8ac3 1ebf 1d54 083f 3b61 c93c 88bf c93d
000002a0: c98e 933e 378f 26bd f962 28bf 718c 0d3f
000002b0: 56f8 e2bc a8f2 a93d 810d 773e aceb 72bc
000002c0: 62db 14bf 536a f53e 3b29 013d a8c8 b13d
000002d0: 12f7 863e 3f1b b5bc 23c1 21bf 76ac 083f
000002e0: 7081 093d cbfc 8a3d b28e 8c3e 2307 09bd
000002f0: 7ef4 1bbf f7db 073f 2e8b 773c 7c2e a33d
00000300: 1059 8b3e 6320 18bd e439 1bbf a2b8 0a3f
00000310: 4b11 363d 7be0 a93d a510 863e 637e a8bc
00000320: 83e6 1fbf dc2c 073f dbda ef3c 744e 863d
00000330: 1803 883e 41ec c0bc 28a9 1bbf 1e7d 063f
00000340: f657 e23c 9d07 903d 58e8 873e 432f d8bc
00000350: 513a 1bbf 38ce e33e ac09 a73c e164 a23d
00000360: f2c1 803e ef91 4cbc d1d2 1abf 0b92 063f
00000370: fc91 193d 5961 7b3d 6e21 793e f1f7 95bc
00000380: cd87 19bf fba4 003f 51e5 f23c aa73 7d3d
00000390: ff7b 8a3e 5def ddbc 2f6e 1dbf 7ec8 053f
000003a0: 8e4e 933c c295 9a3d 09e9 8d3e 6ab3 06bd
000003b0: 9ea3 1fbf 4a1d 0e3f 4177 e33c 9ded 9d3d
000003c0: 915c 8a3e 9148 ddbc fc70 1ebf c5c7 003f
000003d0: 3606 0b3d 3ffe 8e3d 1457 883e 91d4 c3bc
000003e0: 7c5a 18bf f084 043f 525b f63c a569 933d
000003f0: d3ab 893e 5161 dbbc 538f 1bbf 2ca0 053f
0.27181643 -0.028424356 -0.6119939 0.53219545 0.028482767 0.072755836 0.2679936 -0.02506013
-0.5849655 0.48966968 0.03677051 0.06910715 0.26128533 -0.020125141 -0.6869816 0.51001555
0.02958296 0.060015168 0.28617516 -0.039315034 -0.6075369 0.5319923 -0.0009685222 0.08113338
0.27083805 -0.027644707 -0.61446035 0.53487027 0.025762226 0.072162755 0.25777295 -0.01808253
-0.60409623 0.5122375 0.03372007 0.06960035 0.16473679 -0.0035304874 2.5816367 1.9896412
-0.17329825 3.7520912 0.19110568 -0.021737672 -1.9307433 1.565739 -1.4016168 0.88472587
0.27751708 -0.032622468 -0.6239102 0.53381306 0.0092130955 0.07592047 0.26949906 -0.02637231
-0.61055845 0.5280406 0.01846669 0.071090415 0.2680172 -0.025236122 -0.60461354 0.5223029
0.024286142 0.07014949 0.26096836 -0.021129075 -0.61528814 0.42538974 -0.00015374966 0.068311185
0.27327836 -0.029203385 -0.5952301 0.51933455 0.016638553 0.07320813 0.27229527 -0.028596122
-0.63166314 0.53755206 0.010399722 0.072083995 0.26776338 -0.025040867 -0.60738724 0.52471507
0.0227657 0.075455144 0.2737551 -0.03034684 -0.6149504 0.53219366 0.019229747 0.07393605
0.23373792 0.0012546947 -0.6469184 0.50378627 0.05148224 0.06262815 0.24940716 -0.010271704
-0.617159 0.46376538 0.036064256 0.05940749 0.27077085 -0.027311992 -0.6394101 0.5279581
0.010430831 0.0807216 0.2712166 -0.027831607 -0.61744004 0.5247364 0.025129294 0.074083954
0.26325494 -0.022675794 -0.61220354 0.5085908 0.0075106844 0.13551903 0.23010695 0.004160862
-0.6264355 0.5253105 0.042862695 0.04890695 0.39665937 -0.19829464 -1.7934417 -0.24085414
-1.5430143 -2.3893712 0.25677237 -0.016768297 -0.6148223 0.5178136 0.025895266 0.067218065
0.26591855 -0.024011262 -0.5916975 0.51461035 0.054383427 0.0695399 0.24950409 -0.010671955
-0.6112359 0.5060575 0.033218537 0.059974685 0.25368893 -0.013583352 -0.6301136 0.5046531
0.0035430016 0.06560688 0.27623552 -0.032028213 -0.6201712 0.53253347 0.024582496 0.09850985
0.28819874 -0.040663924 -0.6577602 0.5529242 -0.027706306 0.08298236 0.24126245 -0.014826696
-0.5814725 0.4793268 0.03153346 0.0868085 0.26360375 -0.022107719 -0.6318533 0.53388155
0.033570707 0.06786498 0.27452618 -0.03345407 -0.6091994 0.53070015 0.015108867 0.079678506
0.27216387 -0.03714026 -0.6063521 0.5418798 0.044450086 0.082947694 0.26184574 -0.020568078
-0.6246111 0.52802825 0.029279163 0.065579325 0.2656486 -0.023550155 -0.60804987 0.52534664
0.027629834 0.07032702 0.26544452 -0.026389724 -0.6063586 0.4449327 0.020390354 0.079293974
0.2514797 -0.012485965 -0.6047793 0.52566594 0.037492737 0.061372135 0.24329159 -0.018306704
-0.5997284 0.5025174 0.029650362 0.061877884 0.27047727 -0.027091676 -0.6149625 0.5225905
0.017981794 0.07548095 0.27716854 -0.032885946 -0.62359035 0.5551344 0.027766826 0.07711337
0.27023748 -0.027012141 -0.6189115 0.50304824 0.03394147 0.06982087 0.26628935 -0.02390507
-0.5951307 0.51765347 0.030072842 0.071978845 0.26888904 -0.026779803 -0.6076557 0.5219753

fc1.bias f4 [400]
00000000: a1d0 04bf ed7d 05bf 2e7f 01bf 271b 01bf
00000010: 8cf7 04bf fcf1 07bf 94be 5c3f 4d5c 993f
00000020: f009 04bf cf01 05bf d216 05bf fabd 2cbf
00000030: 1882 02bf d1b1 03bf 57c6 06bf 57fe 03bf
00000040: 58ec 0cbf 1e03 05bf 9581 0cbf 74b2 04bf
00000050: 6d69 0dbf 4898 0dbf d3bb 2ec0 ee06 06bf
00000060: 3049 05bf 4553 08bf 6c01 0ebf 586b 04bf
00000070: e08f 05bf 0139 10bf f813 06bf 6a09 04bf
00000080: 6021 06bf 5a66 06bf 4c9f 05bf ee61 f5be
00000090: 2ace 07bf ed47 0bbf f07b 05bf 689d 05bf
000000a0: faea 03bf 473c 06bf a20e 05bf 8f57 09bf
000000b0: a550 c6be 47c5 0abf c253 c3bd accd 0dbf
000000c0: 587f 05bf 6c87 06bf 3c6c 0dbf 7525 0fbf
000000d0: 97a8 05bf b10a 06bf 911f 04bf 3809 05bf
000000e0: 9d9e 04bf a621 7abf fe36 07bf 6ff2 a9be
000000f0: 1097 08bf 303c 16be c275 04bf e425 05bf
00000100: 540d 0bbf 11b6 07bf 47c6 47be 6145 13bf
00000110: c32c 05bf 9cd7 06bf ada2 07bf 6d0d 07bf
00000120: bdf3 03bf f774 8240 b590 04bf 97d5 05bf
00000130: 07cd 0ebf a459 04bf 1479 0abf 36ca 4740
00000140: 84bd e7be c5d0 09bf 7d27 983f 16cf 9140
00000150: 3647 07bf 4ad3 05bf bc5c 0abf 359a 0bbf
00000160: f985 04bf 6da4 04bf 0371 03bf 54ae 23bf
00000170: a4cd 04bf 7207 04bf dc26 8d3f 6a83 06bf
00000180: 7470 06bf c3db fcbe c7ee 07bf 1ba8 0fbf
00000190: 2a6b 07bf 6816 07bf 8e57 07bf b183 04bf
000001a0: d828 0bbf 00b9 04bf b430 08bf eda2 03bf
000001b0: 1276 08bf d2c9 0abf e90d 05bf 3137 06bf
000001c0: 6cf9 09bf 23f3 02bf c9dd 04bf b3a7 04bf
000001d0: 84de 06bf 609c 05bf 8817 07bf 642d 30bf
000001e0: 473d 04bf 73d4 07bf 705c 05bf be9b 04bf
000001f0: 3e90 03bf 3bdf 113e 9fa0 00bf 161a 09bf
00000200: c8cc 0abf 7998 0cbf 24e4 07bf d816 04bf
00000210: 5633 05bf d80c 05bf 9b3b 0cbf 2430 f9be
00000220: ec84 05bf 8fe4 04bf c747 06bf 48a5 0bbf
00000230: cbfb 09bf 921b 05bf b66e 01bf 8e7b 02bf
00000240: 1302 08bf 9dd8 b03e 877c 0abf 1371 0cbf
00000250: d6a5 09bf 0239 08bf 53d8 8c40 35dd 0cbf
00000260: 469f 07bf 4f9f 0bbf a767 07bf 81c1 06bf
00000270: a2bd 00bf 9389 0bbf 76b9 04bf 7781 07bf
00000280: 9398 09bf e032 6ac0 e16d 04bf 0a4c 03bf
00000290: ec81 90be 219b 05bf 9ded 05bf e67c 06bf
000002a0: ffa2 0abf c0ba 0bbf 55f6 03bf c712 82be
000002b0: 3e84 06bf 9bb3 05bf d8dd 07bf d129 04bf
000002c0: 4ba4 01bf e0fc 48bf 8c6b 07bf fd7d 05bf
000002d0: 9113 06bf df1e 0abf 1a7b 03bf fb3e 07bf
000002e0: 685c 4a3e a23c 07bf d84b fdbe 0ba2 07bf
000002f0: db2d abbf 9858 763e d6f8 a9bf 30fe 05bf
00000300: b22c 07bf 11ae 05bf 4acf 0fbf d48b 01bf
00000310: aa47 07bf f36a 0abf 0bdf 09bf f9e8 06bf
00000320: 0ac5 08bf 1454 16bf 50c2 14bf ac5f 05bf
00000330: 6b9e 02bf 1441 fe3e 84a9 05bf 839c 10bf
00000340: a784 03bf 7d45 0bbf b57f 0fbf ed6a 09bf
00000350: dc1a 03bf 7d8d 02bf 5564 08bf 956b 06bf
00000360: 28ba 9340 bd2a 0ebf 75b1 abbf 0bc4 04bf
00000370: a7f5 04bf 688d 0dbf 32e9 06bf 468b bd3f
00000380: fa26 78be 7037 05bf ae71 05bf 4702 07bf
00000390: 601b 07bf d833 05bf 8355 04bf a53a 09bf
000003a0: 75db 00bf 468a 04bf 4f0a 05bf 8d85 05bf
000003b0: fbec 07bf 2af8 07bf 46f0 03bf fc9d 04bf
000003c0: fffb 05bf a6ee 02bf 3c6f 05bf 1b2e 0bbf
000003d0: 7258 07bf 426d 03bf df68 09bf 870a 05bf
000003e0: f507 1ebf 4fbc 02bf d7f3 04bf 61a5 09bf
000003f0: 1824 07bf 0685 11bf fc06 09bf 49a6 08bf
-0.5188084 -0.5214527 -0.50584686 -0.50432056 -0.51940227 -0.53103614 0.862283 1.1981293
-0.51577663 -0.51955885 -0.51987946 -0.6747738 -0.5097976 -0.514432 -0.5264639 -0.51559967
-0.5504813 -0.5195788 -0.54885226 -0.518348 -0.5523899 -0.5531049 -2.7302139 -0.52354324
-0.520648 -0.5325206 -0.5547092 -0.51726294 -0.5217266 -0.5633698 -0.5237422 -0.51576865
-0.52394676 -0.52499926 -0.5219619 -0.47926277 -0.53048956 -0.54406625 -0.5214224 -0.5219331
-0.5153042 -0.52435726 -0.5197545 -0.5364923 -0.38733402 -0.5420727 -0.0953746 -0.55391955
-0.52147436 -0.5255039 -0.5524328 -0.5591653 -0.5221037 -0.52360064 -0.51610667 -0.5196719
-0.51804525 -0.97707593 -0.52818286 -0.33192775 -0.53355503 -0.14671397 -0.51742184 -0.5201094
-0.5431721 -0.53012186 -0.1950923 -0.5752774 -0.52021426 -0.52672744 -0.529826 -0.5275486
-0.5154379 4.076778 -0.51783305 -0.5227904 -0.55781597 -0.5169928 -0.54091 3.121717
-0.45261776 -0.5383418 1.1887051 4.556529 -0.52843034 -0.52275527 -0.5404775 -0.54532176
-0.51766926 -0.51813394 -0.5134432 -0.6393788 -0.5187628 -0.5157386 1.1027484 -0.5254427
-0.5251534 -0.49386415 -0.5309872 -0.56115884 -0.52897894 -0.52768564 -0.5286797 -0.51763445
-0.543592 -0.5184479 -0.53199315 -0.5142048 -0.5330516 -0.54214203 -0.5197435 -0.52427965
-0.5389621 -0.5115225 -0.5190092 -0.5181839 -0.5268328 -0.52191734 -0.5277028 -0.6881926
-0.51656 -0.53058547 -0.52094173 -0.51800144 -0.5139197 0.14245312 -0.5024509 -0.5355543
-0.5421872 -0.54920155 -0.5308249 -0.51597357 -0.5203146 -0.51972723 -0.5477845 -0.4866954
-0.5215595 -0.5191125 -0.52453274 -0.54549074 -0.5389983 -0.51995194 -0.50559556 -0.5096978
-0.53128165 0.34540263 -0.54096264 -0.5486004 -0.5376867 -0.53211987 4.401407 -0.55025035
-0.52977407 -0.5453996 -0.52892536 -0.52639014 -0.50289357 -0.54506797 -0.5184549 -0.5293192
-0.53748435 -3.6593552 -0.5173016 -0.512879 -0.28224123 -0.5218983 -0.52315694 -0.5253433
-0.5415496 -0.5458183 -0.5154775 -0.2540495 -0.52545536 -0.5222718 -0.5307288 -0.51626307
-0.50641316 -0.78510857 -0.5289848 -0.5214537 -0.52373606 -0.53953356 -0.51359713 -0.52830476
0.19761813 -0.52826893 -0.49471927 -0.5298163 -1.3373369 0.24057233 -1.3279064 -0.52340984
-0.52802575 -0.5221873 -0.56175673 -0.50603986 -0.52843726 -0.5406944 -0.5385596 -0.5269924
-0.5342566 -0.58722043 -0.58109 -0.5209911 -0.51022977 0.49659026 -0.52211785 -0.5648882
-0.51374286 -0.54402906 -0.5605424 -0.5367878 -0.5121286 -0.50997144 -0.53278095 -0.5250791
4.616474 -0.55533963 -1.341353 -0.5186164 -0.51937336 -0.55293894 -0.5269958 1.4808128
-0.24233618 -0.52037716 -0.52126586 -0.5273785 -0.52776146 -0.5203223 -0.5169298 -0.5360511
-0.50334865 -0.5177349 -0.51968855 -0.5215691 -0.5309598 -0.53113043 -0.51538503 -0.51803565
-0.5233764 -0.511454 -0.52122855 -0.54367226 -0.5286933 -0.5133859 -0.53675646 -0.5196919
-0.6173089 -0.51068586 -0.5193457 -0.53767973 -0.5278945 -0.568436 -0.5352628 -0.5337873

fc2.weight f4 [300, 400]
00000000: e62c 5037 a777 16b1 4007 e0af db59 9dbb
00000010: c406 67bc ac3a 04bc 4f3f 343e 181a 093e
00000020: fe5f 5ab2 e21c 0237 0e79 1fb3 f0d0 22bd
00000030: 91b8 f534 d846 c6b8 aee8 eeb8 da7a 2bba
00000040: 14cb 0cbb 0654 99ba 6f4f 5b39 6c44 d4b5
00000050: fec5 c838 f779 183a fc7d 8c3e 3427 173c
00000060: d96e 5934 0144 e5b5 974d 66bc ed19 003b
00000070: d8df 11b0 2752 863c 019b abb4 2ca0 44bd
00000080: d877 553c a437 15b3 20d2 603c 4958 39bc
00000090: 43f5 0735 8cdb 89bc b65f 1035 3a3d f837
000000a0: 0cb5 97ba 3922 b034 27df a33b ef57 cfbb
000000b0: d08d db37 7859 d035 baef 2cbe a6cb b1b8
000000c0: ec55 0236 4e06 8334 5d51 c2ba de13 88b1
000000d0: 78f2 3430 87e9 bd3b 638c 2434 46fc e93a
000000e0: a2b6 15b3 e865 a83d 0537 c733 2d51 753d
000000f0: d588 d731 ea66 3d3f 3d03 abbb a7b9 4bb5
00000100: ac52 1831 4695 8238 ccc9 0ebd 70bf 37bc
00000110: 0ee5 90ae fdd1 d2af 3dad a8b5 92ed 2eb9
00000120: f2d0 0db5 ba88 adbe c297 61b8 9215 ffba
00000130: 3d10 ac30 adbc b834 e47d 3eb2 114c a8be
00000140: d9a4 b6bb 6d79 2136 14f6 d83b b3d9 be3d
00000150: 8f29 db38 f174 02b3 43a8 7f3c 3794 483b
00000160: 1c2c ecb3 722c fa3a 3fe6 1f31 7ef0 7e3e
00000170: c320 4b38 f3ca 0eb6 6605 633e 989b 00b3
00000180: cb8d a6b2 4146 42b8 a256 c12d 8449 833c
00000190: 5706 afbc 562c b036 5287 2dba 97a5 0237
000001a0: 87d0 9531 49f9 873b 2209 1f3d 75a2 fabb
000001b0: 588e c6b7 d699 1933 a87d fa37 6b67 1932
000001c0: 38da 923b 9155 87b7 091a 9933 bda2 8533
000001d0: 6eec d7b8 f7c0 31b0 1266 333c 6d87 483e
000001e0: 5dfc 90b5 2ef7 313c fe0e f7b9 6a8d 1238
000001f0: 1579 773a 9882 783e 0bf9 a6b4 f78e 2137
00000200: 1573 85b8 19a9 37ba 3b87 0c3c e895 90b6
00000210: 69db a0b7 a299 49bd c476 813b 5e50 35b9
00000220: 5ea1 0bb4 050e 0433 e66c 3439 4918 43bc
00000230: b3a6 033c 12db 0c38 6a17 6d33 60bd afbb
00000240: 7aa2 e3b8 2ec0 29bd 0b8f 053b f922 d9b7
00000250: 470d a835 548e a8bc 5f05 943d f89e 9dbc
00000260: dd65 3b35 e126 7735 c7ff 94b3 5084 39b5
00000270: 6571 3134 4ee9 9cba 10a7 b6bb 04a6 1b36
00000280: f3a6 2a33 598c bc3e 9d6b af38 a458 adb8
00000290: aad7 233c e859 083d f8c7 31b1 1e9f 08bc
000002a0: ea6d 8fbc 5696 e7b9 8383 c8b8 9e80 95bd
000002b0: 9e7d bf38 58b8 8db3 e84d f536 e0a2 e6b1
000002c0: 7379 95b3 4af2 8fbd 76c1 04ba c0d8 a7bb
000002d0: b8a1 ee35 f357 28b9 5d5e d3b9 8718 fc31
000002e0: 2e09 63bd 39a7 8433 a8e6 ffbc 16d3 9abc
000002f0: 6121 b2bd bec7 fc3e dfba fbbd ea2f 2bb2
00000300: eb4c 9d31 72ca 26b3 ec49 b72e b3e4 e039
00000310: 6ea2 a737 002a b73c 1eec c9b6 64ec af33
00000320: 00a3 543a 51da cbba b0de 0830 f037 b035
00000330: a7d8 1d37 113c 623e d5e7 07bd eda2 b732
00000340: d457 88b7 3e66 33ba 48a7 a7b1 fd0e 0735
00000350: 5cfe b0b1 cf3d 47b3 ec0c 0abb b649 8ebc
00000360: 28db 87be a07d c133 5a6c b4bd a4a3 faaf
00000370: 1dfa 43bc 6ac1 ebb8 bcf5 3838 1943 ba3d
00000380: e7c0 1f3d d5bf f7bb 14c3 eeb4 606d 42b2
00000390: 1f87 c32f a438 76b2 57a2 2932 a774 c8b4
000003a0: cc3a 8bb5 3a58 6b35 82dd 2dbc 9f18 27b7
000003b0: 0ebd 55b9 b685 13bc d5d7 f5b6 5d08 60b2
000003c0: 4182 1c3b bcca 7233 977a a234 5bd1 a52f
000003d0: 47ae 89b6 58e2 5db5 10cd 41bc 2707 c732
000003e0: 9d58 f1bd 665a 3233 4e09 3bb2 b9bb fa34
000003f0: 891e 97b3 1504 cabc 6d42 a633 839f 9cb3
1.240822e-05 -2.1895887e-09 -4.0750514e-10 -0.0048019714 -0.014100734 -0.008070629 0.17602275 0.1338886
-1.2711096e-08 7.755329e-06 -3.713017e-08 -0.03975004 4.5769096e-07 -9.4545714e-05 -0.00011392064 -0.00065414386
-0.0021483349 -0.0011698015 0.00020915059 -1.5815144e-06 9.573622e-05 0.0005816514 0.27439868 0.009225655
2.0250026e-07 -1.7081621e-06 -0.014056585 0.0019546703 -5.3068794e-10 0.016396595 -3.1964012e-07 -0.048004314
0.013029061 -3.474237e-08 0.013721973 -0.011312553 5.064832e-07 -0.01682832 5.378346e-07 2.9592415e-05
-0.0011574342 3.2807455e-07 0.005000967 -0.006327621 2.6172871e-05 1.5523246e-06 -0.16888323 -8.47795e-05
1.9421523e-06 2.440524e-07 -0.0014825274 -3.9603796e-09 6.582819e-10 0.005795661 1.5324763e-07 0.0017851673
-3.485787e-08 0.08222562 9.2766676e-08 0.05989187 6.2728795e-09 0.7398516 -0.005218892 -7.589355e-07
2.2165905e-09 6.2266874e-05 -0.034860417 -0.011215076 -6.58905e-11 -3.8347983e-10 -1.2567394e-06 -0.00016682435
-5.283065e-07 -0.33893377 -5.3785516e-05 -0.0019461385 1.2519262e-09 3.440995e-07 -1.108808e-08 -0.32870534
-0.0055738506 2.4061549e-06 0.0066211317 0.093188666 0.00010450475 -3.037434e-08 0.015604082 0.003060592
-1.099763e-07 0.0019086732 2.3268425e-09 0.24896428 4.8429483e-05 -2.127778e-06 0.22170028 -2.9943834e-08
-1.9389423e-08 -4.6318633e-05 2.1980032e-11 0.016026266 -0.021365328 5.25037e-06 -0.00066195906 7.787158e-06
4.3601776e-09 0.00414959 0.03882707 -0.007648761 -2.3669723e-05 3.5763e-08 2.9860836e-05 8.929287e-09
0.00448158 -1.6133099e-05 7.1293535e-08 6.222897e-08 -0.00010296037 -6.4666444e-10 0.010949628 0.19582911
-1.0802283e-06 0.010862155 -0.0004712268 3.4940815e-05 0.0009440345 0.24268568 -3.1101112e-07 9.629634e-06
-6.36337e-05 -0.00070060935 0.008577163 -4.308986e-06 -1.9175657e-05 -0.04921878 0.0039509255 -0.00017291444
-1.3004089e-07 3.0746396e-08 0.00017206706 -0.0119076455 0.00803535 3.3582626e-05 5.5202158e-08 -0.0053631514
-0.00010854467 -0.041443042 0.002037945 -2.5884701e-05 1.252084e-06 -0.02057568 0.07227587 -0.019240841
6.981116e-07 9.2071247e-07 -6.938313e-08 -6.911041e-07 1.6525662e-07 -0.0011971386 -0.0055741146 2.3193434e-06
3.973305e-08 0.36825827 8.364695e-05 -8.2657934e-05 0.010000149 0.033288866 -2.587056e-09 -0.008338718
-0.017508466 -0.00044171762 -9.561239e-05 -0.072999224 9.130988e-05 -6.599356e-08 7.3106385e-06 -6.7123977e-09
-6.960445e-08 -0.07028635 -0.00050642283 -0.005122274 1.7779448e-06 -0.00016054492 -0.00040315362 7.3369537e-09
-0.055428676 6.1771466e-08 -0.031237915 -0.018899482 -0.08697773 0.4937114 -0.12291502 -9.964404e-09
4.578046e-09 -3.883401e-08 8.335008e-11 0.00042895004 1.9983589e-05 0.022358894 -6.0177545e-06 8.192072e-08
0.0008111447 -0.0015552734 4.979297e-10 1.3129302e-06 9.4083725e-06 0.22093226 -0.033180077 2.1378094e-08
-1.6253362e-05 -0.00068435434 -4.8793574e-09 5.031323e-07 -5.1511915e-09 -4.6389513e-08 -0.002106483 -0.017369132
-0.2653439 9.010114e-08 -0.08809729 -4.559101e-10 -0.011961487 -0.000112416994 4.4097877e-05 0.09094829
0.039002325 -0.00756071 -4.4472893e-07 -1.1317155e-08 3.5566303e-10 -1.4331963e-08 9.8740065e-09 -3.733778e-07
-1.0373419e-06 8.767271e-07 -0.010611894 -9.959708e-06 -0.00020383691 -0.009004047 -7.326695e-06 -1.3040418e-08
0.0023881348 5.65294e-08 3.0264047e-07 3.016208e-10 -4.1032067e-06 -8.265829e-07 -0.011828676 2.3169902e-08
-0.1178448 4.152607e-08 -1.0886948e-08 4.6702715e-07 -7.03704e-08 -0.02466015 7.74206e-08 -7.293331e-08

fc2.bias f4 [300]
00000000: a6b3 7a3b 252e a4be 8cd5 e6bd f7e4 243e
00000010: f09e 1e3c 2b14 dbbd 1253 4cbe 7b22 f7bb
00000020: 1783 2f3e 8eae 17ba cbe5 093e ad25 2abe
00000030: b888 2a3e 855b 8c3d 88a9 f73d abc8 cbbd
00000040: a3d5 e5bd 9261 a0bd b5c8 b23d b7f8 6f3e
00000050: 035f b3bb 434c a5bb 43b1 053e 2bb2 0f3e
00000060: 80f5 233d 1645 783e f998 c13c 913d 543e
00000070: a79d 833e 18b3 563d 68f8 003e 2f0c 683d
00000080: eed1 333e 36c3 0c3e 9e91 ad3c c9e3 e13d
00000090: eb71 963d 2e5a 613e d0bd 89bd fdbf 433e
000000a0: 4c38 90be 4f09 f63d 01b3 913c 7742 173e
000000b0: 7842 8a3e 3c9f 0f3e f03c f1bb 28ae 983e
000000c0: a2dc e73d 8ef3 fe3d 5cd1 d33d e496 bf3c
000000d0: f742 6a3d dc6b 5abe 410a 143d 63bc 233e
000000e0: 2cf6 823c 0036 aa3d 7b4c 5d3e 8ff7 2abd
000000f0: 0d9e cebd aaf0 df3d 6a0a 41be dfec 1b3e
00000100: 00cb 3c3e 233d 33be 7f55 5b3d a5b8 c23d
00000110: 443a 0f3e 5a73 033e 3b0f 5a3e c161 493e
00000120: 1ea3 963c c333 883e 4bae 533d 2e55 36be
00000130: 2c19 153e 5821 143e c9fe 4ebe d4f7 d4bd
00000140: 773e f83d 6edf 143e 335b 2d3e 449f dd3d
00000150: 0d3f 04be 23f5 003e a061 a0bc 867d e7bd
00000160: 193b 1ebe c9bb 96be c6aa 04bb d086 19be
00000170: 0e8f e0bb 12e9 f73d 8150 473e 2b58 913e
00000180: 6bc2 d0bd 8a05 0c3e a5fb 6e3e 81a4 42bd
00000190: 5b85 083e 53c1 4d3e a3eb b23d b1e2 f8ba
000001a0: af3a 6abd 2c1c f13b b1da 88be 4e2f 8dbe
000001b0: 8340 bebc 6c3e 4c3e bd2a bfbe 31ba 93bd
000001c0: bf5a 053e a9d0 143e c0b1 4a3e cdf4 203d
000001d0: 08bc 113e 8c1d 1d3e fb60 2dbe 4631 553e
000001e0: fd38 123e aa02 28be 5ba4 df3d 0776 76bd
000001f0: 8325 3c3c f3f0 7dbe 5799 913e 4372 1a3e
00000200: a5c8 8f3d 2af7 3c3e fe29 4ebe ac59 da3c
00000210: 7e9c 03be 2f59 253e 2146 2e3e 7c60 703d
00000220: 490e 243e ece5 5a3e 5479 9fbe 6e8d 183e
00000230: 17ad 143e a347 1f3e 9d1c 123e 8d01 f03d
00000240: 14d0 cc3d 0c3f a0bb b752 01bd cd62 f9bd
00000250: 5a12 9abe bd85 6cbe d076 85bc 8fd8 a73d
00000260: e33d 3a3e c4ec 083e 3be0 2e3d 408f 93be
00000270: baee 81be cacb bb3d 4605 20be feec b03d
00000280: b72c 3f3e e29f b83d a551 a83d 0119 993e
00000290: 77ab 103e d9de cb3d 1e2b 15be d8cc b53d
000002a0: 3818 03bd 8f4b 1dbe e5e6 6dbe c784 90be
000002b0: 9797 d23d 7da4 2e3e d6b8 eebd e404 e73d
000002c0: d570 a03e 4f79 903e 7881 60be 1723 2cbe
000002d0: 4381 253d 3f4a 143e fbff 0e3e 4f8b 92be
000002e0: 75ba c73d 12d1 2a3e 0167 bfbd 87ce 773d
000002f0: dd97 fbbd 32f4 0c3e c9bb e23c 71f2 103e
00000300: 5db0 82be 1d9f 623e b940 00bb d9f9 923c
00000310: e4cf 7dbe cd03 013e 6547 773e 38ae 2f3e
00000320: 57ae a13d c138 0c3e b726 1cbd a20f 543e
00000330: fc99 7e3e 81a8 fc3d 7434 c23d f07b 183e
00000340: 96e6 d73d 5458 c2bd 932a 233e 8f49 2d3d
00000350: 5613 7dbd 06b8 92bc 2b91 29be 10e8 083e
00000360: 066d dc3d 565a 123d 9de6 913e 66cd 813d
00000370: cb49 8a3d 1797 4c3e 10b2 7abe 44da 1a3d
00000380: 9c13 cb3d cc47 813e 8b28 9a3c 10cd b6be
00000390: 3f6c 13be 7c3c c0bd b055 eb3d 08c4 dc3d
000003a0: 8da1 233e 790d 093e 9714 02be f5a9 023d
000003b0: be73 c03b aaf1 233e 02f0 3dbe f11d ce3d
000003c0: b652 bb3c 0419 75be 9b91 663e 7b2a 1e3e
000003d0: e752 0b3e 530e 1a3e d4c2 4b3d e9b6 d33d
000003e0: 6da1 273e 6d30 2e3e e67a 023d 7c44 193d
000003f0: a0d1 0fbe 0314 fa3d 2d46 05be 6427 1b3e
0.0038254051 -0.32066455 -0.112711996 0.16102968 0.009681448 -0.10697206 -0.19953564 -0.007541952
0.1713985 -0.00057862035 0.13466565 -0.16615935 0.16653717 0.068533935 0.120928824 -0.09950384
-0.112223886 -0.0783111 0.08729688 0.23434721 -0.0054739728 -0.0050444915 0.13055901 0.1403281
0.04002905 0.24245104 0.023632513 0.2072661 0.25706217 0.05241689 0.1259476 0.056652244
0.1756055 0.13746342 0.0211876 0.11029775 0.07345947 0.22007057 -0.06725657 0.19116206
-0.2816795 0.12013494 0.017785551 0.14771448 0.27003837 0.14025587 -0.0073620006 0.2982037
0.11321379 0.12448798 0.103426665 0.02338738 0.05719277 -0.21330208 0.03614259 0.15989833
0.015986525 0.08311081 0.21611206 -0.041739997 -0.100887395 0.10934575 -0.18851629 0.15227078
0.18436813 -0.1750379 0.053548332 0.095078744 0.1398707 0.12836972 0.21294872 0.19666196
0.018388327 0.2660199 0.05167989 -0.17805931 0.14560384 0.14465845 -0.2021438 -0.10398832
0.12121289 0.14538357 0.16929321 0.10821393 -0.12914677 0.12593512 -0.019577801 -0.113032386
-0.15452231 -0.29440144 -0.002024339 -0.14992833 -0.006852991 0.121050015 0.19464304 0.2838758
-0.10193332 0.13673988 0.23338182 -0.047520164 0.13332121 0.20093279 0.087363504 -0.0018988458
-0.05718487 0.0073580947 -0.26729348 -0.27575153 -0.023224121 0.19945687 -0.37337294 -0.072132476
0.13022898 0.14532723 0.19794369 0.03929596 0.14231884 0.15343302 -0.16931526 0.20819578
0.14279552 -0.16407266 0.1092002 -0.060171153 0.011483553 -0.24798946 0.28437302 0.1508265
0.07020692 0.1845366 -0.20133206 0.026654087 -0.12852666 0.16147302 0.1701894 0.058685765
0.16021074 0.2137677 -0.31147254 0.14897701 0.14519154 0.15554671 0.14268728 0.11719046
0.10000625 -0.0048903283 -0.031573024 -0.12177048 -0.30092126 -0.23097892 -0.016292006 0.08195602
0.1818767 0.13371569 0.04269431 -0.2882023 -0.25377446 0.09169729 -0.15627012 0.08638953
0.18669401 0.0901487 0.082186975 0.2990189 0.14127909 0.09954614 -0.14567229 0.088769615
-0.03200552 -0.15360855 -0.2323261 -0.282263 0.1028282 0.17054935 -0.116563484 0.1128023
0.31336084 0.2821755 -0.21924388 -0.1681026 0.040406477 0.14481448 0.13964836 -0.2862191
0.09752361 0.16681316 -0.09345818 0.060499694 -0.12284825 0.13765028 0.027677434 0.14154984
-0.2552518 0.2213101 -0.0019569828 0.017941402 -0.24786335 0.12599106 0.24148329 0.17156303
0.07894581 0.13693525 -0.03812286 0.20709088 0.24863428 0.12336827 0.09482661 0.14891028
0.10542028 -0.094895035 0.1593421 0.04230648 -0.06178602 -0.017910015 -0.16559283 0.13369775
0.10762982 0.035730682 0.28496256 0.06338005 0.06752356 0.19979511 -0.24481988 0.03780581
0.099158496 0.2525009 0.01881816 -0.35703325 -0.14396761 -0.093865365 0.11490953 0.107795775
0.15979595 0.13384046 -0.12703167 0.031900365 0.0058731725 0.16010156 -0.18548587 0.100643046
0.022866588 -0.23935324 0.22516482 0.15445893 0.13605843 0.15044527 0.04974635 0.10337622
0.16370173 0.1701066 0.031855486 0.037418827 -0.1404481 0.12210848 -0.13015051 0.15151745

bn1.weight f4 [400]
00000000: 2502 0dbc f3f0 55b6 a054 f7b6 196c 23bc
00000010: 6f31 c7bc 24a8 87bc e045 9e3f 6898 0540
00000020: 568a b935 3c5e 88bc cd59 a4b6 e3d9 203b
00000030: 6cf8 c7b7 b62d c4bc 40c4 5b3b 8f39 aabc
00000040: 435c 3ebc 7c1d 58bb cfc8 cd3c 728a c2b9
00000050: 4e0e 5e3d e77e 16bb 3785 933f 6d3f fdbb
00000060: 260e 17ba 0145 b839 9457 83bc 6465 523b
00000070: 3a93 5436 67c9 583d 4d05 8939 16cd 58bc
00000080: e087 ba3c 48af 9d38 f280 babc e3e5 38b9
00000090: 336d b2ba 4c47 e03c bb1f 183a 6689 f1b9
000000a0: 9f1c a3bc a31d 013b da5e 10ba 9b16 f6bb
000000b0: 78e7 69bc b157 913a acde 9a3e 57db dbbb
000000c0: 577b 7aba ef98 52b6 d02d 043c c0c0 c3b5
000000d0: cb44 1135 0c86 77bc 7432 a0b8 7d1e a3bd
000000e0: a33d f5b9 4200 023f 9ce5 20b8 8900 2a3e
000000f0: 6bf7 37b9 d06a 0540 90ca dabc 3b3f 98bb
00000100: 199e 9bb6 3038 973b c87f c43f e089 b5bc
00000110: 771e b8b6 22fe c1b5 9fe0 ea3c c6dc 42bc
00000120: 15d2 8a3b c686 403f 9402 5fba 3305 42bd
00000130: 3bfe 8f37 97f5 c8bc 7fc3 5db8 2464 2d3f
00000140: b00d eabc 9f6f 33b9 cc96 db3f 224c 5f3f
00000150: b86b 1e3a 1735 6bb7 40ed 0f3c 7c96 5abb
00000160: 70cd 5bb7 b327 e1bb 2f59 7cb6 ad45 e03f
00000170: 83bd 7bbc 90c8 033b 7115 bb3f b0f5 6d39
00000180: 86cf 20b9 b8f3 8cbc 98e1 dc34 21b8 77bc
00000190: c66e b73b 157b f2bb b3d4 60ba 3623 9fba
000001a0: 7093 b1b3 3ae7 f0bc abbb 00bd 0199 2dba
000001b0: a5b5 e3bb 4871 f136 7285 2b3b 4eae 06b9
000001c0: 0e47 7cbc cc0b 2ebc a3ca 6cb6 5e60 d835
000001d0: e60e d23c d816 47b6 e653 8abc 7841 d53e
000001e0: ab42 0a3b 8b2b e1bb 3a21 1dbd c4c2 a6bb
000001f0: c942 c2bb c9e2 d63f 52b9 01bc 097e ccbc
00000200: a803 82bc 1cd7 23bc 68d9 6fbc 299d 61bb
00000210: b617 e0bb cd6c b43f af24 9f3b 90b4 c33c
00000220: 738d 7aba 673c 0836 dd43 993b afde afba
00000230: f878 f13c e51f 0fbc 6f0a 2a39 aa90 f0bc
00000240: b76c 8abc d907 183f d002 8dbc 690f ea3c
00000250: e2ca 84ba d04b cc3b 2278 a33e b004 493c
00000260: 7094 8f3b bd1e 8739 29c9 e0b8 9f9e 3236
00000270: 7860 8fb8 2a7d 59bc a1a8 86bc 3e72 e5bb
00000280: 29dc 50b7 1a30 a33f c338 38bb 85fd 62bc
00000290: 46bb 0e3f e95f ebbc 198f b7b5 6a35 3dbd
000002a0: ef49 7a3c ad10 3fbc 7f89 533c 4c50 0440
000002b0: 1f05 cdbc 8c40 12b7 d71e 83bc 479f 8bb6
000002c0: 340d dd38 be88 863e 247c b4bc 5e28 d1bc
000002d0: c14c aabb f83e bcbc e854 4abd 66e4 61b6
000002e0: b1aa d13f c426 833a 19e6 d2bb 7fc2 8d3c
000002f0: d36d 5c3f 8d55 5940 d26c ad3f 09ed 4138
00000300: 22e0 35b6 cf51 43b7 a92d 9736 f8fa 5fbc
00000310: 86b0 d1bc c9ec 383c 0310 0ebc dfa3 3db8
00000320: 987f 2b3c 8593 4d3d ef46 0535 45d9 dfb6
00000330: 79c7 353a 7ea3 1640 7b7b efbc cf61 8fb8
00000340: d676 5ab6 7604 6f3a 6cf8 dc36 56f2 d7ba
00000350: 6d7e d0b3 1fd3 ebb8 6533 a7bc a044 cabb
00000360: 47b8 4e3f bd65 f339 817c ae3e 775f 7436
00000370: 6275 cebc fed6 90ba 47a8 8dba c044 6c3f
00000380: 953e cd3e 1a69 813c 751b 0cba 99f5 2fb7
00000390: f7d3 c335 4a17 7ab7 e66c 44b7 0498 ceb8
000003a0: a970 573b 3b6c 4b3b 4630 c8bc 296e bbbb
000003b0: c242 073b 098b de3a 49e6 3fb9 2cac 8fb8
000003c0: aba1 a0bb 7506 2cb9 ad8a 793a 0fb0 70b6
000003d0: cab0 cbbb d033 baba 58f4 0ebb 6fa2 1cb7
000003e0: 6d2e ef3f a572 32b8 1b04 beb6 d869 11b8
000003f0: 16fb 4338 6bd1 6b3c da1a 0339 e93e 72b7
-0.008606468 -3.1879724e-06 -7.3710253e-06 -0.009974503 -0.024315564 -0.016559668 1.2365074 2.0874271
1.3823835e-06 -0.016646497 -4.898035e-06 0.0024543933 -2.3838329e-05 -0.023947578 0.0033533722 -0.0207794
-0.011618677 -0.0032976558 0.025120167 -0.00037105713 0.05421286 -0.0022963823 1.1525029 -0.007728508
-0.0005762301 0.00035146627 -0.016032971 0.003210389 3.167616e-06 0.052926447 0.00026134626 -0.01323249
0.022769868 7.518992e-05 -0.022766564 -0.00017633247 -0.0013612866 0.027377747 0.0005803068 -0.00046069472
-0.019911109 0.0019701503 -0.0005507298 -0.007510019 -0.014276378 0.0011088756 0.3024801 -0.006709497
-0.0009555122 -3.1381458e-06 0.008067563 -1.458473e-06 5.4116816e-07 -0.015107643 -7.638792e-05 -0.079647996
-0.00046775964 0.50781643 -3.8360813e-05 0.16601767 -0.0001754441 2.0846443 -0.026707917 -0.0046462095
-4.637765e-06 0.0046148524 1.5351496 -0.02216047 -5.487174e-06 -1.4453583e-06 0.02867156 -0.011893457
0.0042364695 0.7520565 -0.0008507159 -0.04736824 1.7165314e-05 -0.024531169 -5.2872576e-05 0.6773093
-0.02857098 -0.00017112352 1.7155395 0.87225544 0.0006043273 -1.40194525e-05 0.008784592 -0.0033353856
-1.3101249e-05 -0.0068711876 -3.7602838e-06 1.7521263 -0.015365007 0.0020108558 1.4615918 0.00022693607
-0.00015336098 -0.017206058 4.1142334e-07 -0.015119583 0.005597922 -0.0073999264 -0.00085766165 -0.0012141231
-8.2690235e-08 -0.029407132 -0.031428974 -0.00066222256 -0.006949144 7.1955474e-06 0.002617207 -0.0001284417
-0.0153978 -0.01062293 -3.528469e-06 1.6121301e-06 0.02564187 -2.9666608e-06 -0.016885709 0.4165151
0.0021096866 -0.006871646 -0.038361765 -0.005089136 -0.0059283716 1.6787959 -0.007917719 -0.024962442
-0.015870884 -0.010000017 -0.014639236 -0.003442595 -0.006838764 1.4095703 0.004856668 0.02388981
-0.0009557821 2.0300738e-06 0.0046772794 -0.0013417805 0.029476628 -0.008735632 0.0001621635 -0.029365856
-0.016897542 0.59386975 -0.017213255 0.028571801 -0.0010131265 0.0062346235 0.31927592 0.012269184
0.004381709 0.00025772108 -0.00010718621 2.6616397e-06 -6.83674e-05 -0.01327447 -0.01643783 -0.007002144
-1.2449026e-05 1.2749054 -0.0028110004 -0.013854389 0.55754507 -0.028732257 -1.3676209e-06 -0.046193518
0.015276416 -0.011661691 0.0129112 2.067401 -0.025026856 -8.717307e-06 -0.016005917 -4.161065e-06
0.000105405605 0.262762 -0.022031851 -0.025531944 -0.005197138 -0.022979245 -0.04939738 -3.3660558e-06
1.6380216 0.001000606 -0.006436121 0.017304657 0.8610508 3.3958466 1.3548834 4.6235542e-05
-2.7101564e-06 -1.1641953e-05 4.505466e-06 -0.013670675 -0.025596868 0.011286923 -0.00867081 -4.521373e-05
0.010467432 0.050189514 4.9649583e-07 -6.6712114e-06 0.0006934326 2.3537288 -0.029233685 -6.8369896e-05
-3.2553703e-06 0.0009117791 6.585431e-06 -0.001647542 -9.7087515e-08 -0.000112449976 -0.020410249 -0.0061727315
0.80749935 0.00046424373 0.34079364 3.6414401e-06 -0.025202457 -0.0011050401 -0.0010807597 0.92292404
0.4008681 0.015797187 -0.00053446676 -1.04879955e-05 1.4590322e-06 -1.4906584e-05 -1.1707865e-05 -9.8511606e-05
0.0032873547 0.0031039852 -0.024437081 -0.005719919 0.0020639156 0.0016978692 -0.00018300967 -6.850841e-05
-0.004902085 -0.00016405604 0.00095192605 -3.5865266e-06 -0.0062161433 -0.0014206115 -0.002181312 -9.336144e-06
1.8686043 -4.2545278e-05 -5.662919e-06 -3.466927e-05 4.6725465e-05 0.014393191 0.00012503137 -1.4438971e-05

bn1.bias f4 [400]
00000000: 402a bbbc 0ac4 0eb8 5935 5cb8 3c9a 90bc
00000010: 3033 cfbc 63b5 debc b4e1 893e d8ab 6b3e
00000020: 61f1 a3b8 5d13 ccbc f67b 99b7 318b 12bc
00000030: b369 4cb9 ef1d f9bc 723c ecbb 229e ccbc
00000040: 4916 31bb d479 f7ba 26b0 56bc b900 22bc
00000050: ce37 fdbc 237b 87bb e82e 113f c861 c3bb
00000060: f546 94bb 0618 36bb d45f b9bc 5070 94bc
00000070: 342a 08b8 af63 4ebc 60f7 64ba 9ff8 7fbc
00000080: f01e 89bc 868c 05bb 223f a7bc ea40 d5b8
00000090: aaf3 dcbb daac c73b 73d3 21bb 6962 aebb
000000a0: 0b99 b3bc 97d7 c9bb 87aa 573b b4b1 e2bb
000000b0: 85a8 05bd 8d02 a6bb 58a8 5d3e 3183 50bc
000000c0: e890 02bc c90a 6fb8 6d26 b3bc b759 97b7
000000d0: ca08 a5b6 8e5e 9cbc 1958 90ba cace 43ba
000000e0: bed1 8bbb 93cf 9c3c 98b5 75b9 834a 673d
000000f0: 7332 8bba 805a 30be 11bc 12bd c1ed 82bc
00000100: e2ad e8b7 5e9e 8dbc 974a afbc c742 c1bc
00000110: 84d0 16b8 1961 65b7 9b1b 51bc cc2a 99bc
00000120: 28ef a7bb aeff 153e 219a 22bb c2fb e0bb
00000130: 9a56 c0b8 d8d8 c8bc af67 bcb9 7976 6ebd
00000140: deae f5bc 74fa 08ba d729 aa3d c024 833e
00000150: c433 75bb 9683 2eb9 619b 83bb 2ca3 04bd
00000160: 2f2c 16ba 3035 1ebc 8988 19b8 1e44 9d3d
00000170: 3737 c9bc 9581 b2bb e64a 21be 7a05 28bb
00000180: 41f0 f7ba aa07 bebc 978a 39b7 f101 5abc
00000190: e360 01bb e232 57bc a36c bdba 216e ffbb
000001a0: 75ab dab7 7172 d6bc 5bce 9cbc 4a3a c0bb
000001b0: 727f 50bc 14de 17ba 3990 f9ba fb39 7db9
000001c0: 8142 fcbc aa44 c9bc 1841 64b9 e7cb 69b8
000001d0: 1ddc 20bc b3cc fdb7 d657 96bc 196e 173e
000001e0: 2f8e d7bb 4093 dfbb 9404 1abd 0cfd afbb
000001f0: 77a4 7cbb 8bbe 1bbe a5ca aabc 7b78 ddbc
00000200: d888 cdbc f58d 10bc 28db 33bc bca5 32bc
00000210: 1f4b d0bc f8dc e1bd f1b5 94bb 6891 b0bc
00000220: 8f05 ebbb 1fa8 87b7 3d2a 5cbc b075 30bb
00000230: 551a 0abc 13e7 3bbb 6c7c 91b9 a3b2 fdbc
00000240: b26f eebc 15c5 efbc 0756 9abc 9070 9ebc
00000250: 44f3 bdba c458 86bb df59 943e 12a3 2abc
00000260: 26d7 a0bb dfa4 ddba 58f7 79ba b2a3 73bb
00000270: 97b2 81ba b199 82bc 4efb b8bc b63a 97bc
00000280: c67c e8b8 7901 4e3f d09c 47bc 4052 2bbc
00000290: 3df1 01bd df2c efbc 80aa f0b7 251c 50bd
000002a0: 30e4 33bc 5b86 8ebc e0df 4cbc cbb6 e1be
000002b0: 8062 afbc 5e6e 59ba 8a3e 09bd 857a 8bb8
000002c0: 6beb 8eb9 fb23 32be daf4 a3bc 7dcc e0bc
000002d0: df26 44bc 80b1 e9bc 76c6 cfbc 5436 23b8
000002e0: 9de1 92be f206 e1ba af78 a1ba 1073 d0bb
000002f0: 52a5 f4bb 2962 973e dee0 9abe f5a9 bdb8
00000300: c6ad e9b5 8ecf f0b8 f0fc 87b7 9a0f b2bc
00000310: 22be e0bc dbb0 77bc ad6c 6dbc 2b94 afb9
00000320: ab21 bb3b 692c 71bc 0cce 45b7 5148 14b8
00000330: 4888 bebc d9dc ac3d 7ce9 85bc 7039 9cb9
00000340: dbe2 24b9 98da 7ebc adaa 4cb9 5534 00bc
00000350: ab96 15b9 5180 c6ba a589 e3bc fe82 c6bb
00000360: 7b6a b13e 6c0d 7ebb c136 babd 6ce8 e5b7
00000370: 65dd d9bc 4d79 02bc 17a7 acbb ef6d b03e
00000380: cd15 723d c387 66bc c30c 98bb 4f6d 12b9
00000390: 4005 68b7 aef2 22b9 3a9c ccb8 27f8 1fba
000003a0: 62b6 f9bb 62ba a0bb e5cb cebc 0102 83bc
000003b0: 61b0 7abc e39c d1bb 5dbd 80ba 972f 28ba
000003c0: df8e 7dbb 23a4 8cb9 8df1 bfba 6783 27b8
000003d0: a32f aebc 52b6 37bc 7cc7 33bb f963 dbba
000003e0: 4332 9dbd bc34 f3b9 b630 2cb9 8c23 deb9
000003f0: 95ff 3dbb 95e9 56bc 2fee eeb9 1321 11ba
-0.022847295 -3.4038014e-05 -5.250177e-05 -0.01765167 -0.025292963 -0.027186101 0.2693001 0.23014772
-7.817406e-05 -0.024911577 -1.8296745e-05 -0.008944319 -0.00019494332 -0.030409781 -0.007209354 -0.024977747
-0.002702134 -0.0018880912 -0.0131035205 -0.009887868 -0.030910399 -0.004134552 0.567122 -0.005962584
-0.0045250603 -0.0027785315 -0.022628702 -0.018119961 -3.246423e-05 -0.012597009 -0.00087343715 -0.015623241
-0.016738385 -0.0020377948 -0.020415846 -0.00010168723 -0.006742914 0.0060936036 -0.0024692684 -0.00532179
-0.021923563 -0.0061597335 0.0032908039 -0.0069181565 -0.032631416 -0.005066222 0.2164625 -0.012726591
-0.007969119 -5.6992085e-05 -0.021868909 -1.804238e-05 -4.9184064e-06 -0.019088056 -0.0011012583 -0.00074694736
-0.0042669466 0.019141948 -0.0002343267 0.056467544 -0.0010619893 -0.17222023 -0.035823885 -0.01598251
-2.7737526e-05 -0.01728743 -0.021397872 -0.023591412 -3.5956982e-05 -1.3672071e-05 -0.012762929 -0.018697165
-0.005124945 0.14648315 -0.0024811106 -0.0068659494 -9.171404e-05 -0.024517462 -0.00035935405 -0.058218453
-0.02999061 -0.00052253087 0.083087616 0.25613976 -0.0037414888 -0.00016642953 -0.0040163253 -0.032382175
-0.000572863 -0.009656236 -3.66052e-05 0.07679008 -0.024562461 -0.0054475763 -0.15751228 -0.002563803
-0.0018916206 -0.023197014 -1.1059127e-05 -0.013306127 -0.0019741587 -0.01313469 -0.0014451932 -0.007795111
-2.6067466e-05 -0.026177617 -0.019141367 -0.0058663236 -0.012725698 -0.0005793285 -0.0019040174 -0.0002414956
-0.03079343 -0.024568874 -0.00021768024 -5.5741428e-05 -0.009818104 -3.025527e-05 -0.01835243 0.14788093
-0.006578229 -0.0068229735 -0.037602022 -0.0053707417 -0.0038550177 -0.15209405 -0.020848582 -0.027034989
-0.025089666 -0.008822908 -0.010977544 -0.010903772 -0.025426446 -0.110284746 -0.0045382907 -0.02155371
-0.0071722935 -1.6171542e-05 -0.013437805 -0.0026925616 -0.00842913 -0.0028671667 -0.00027749257 -0.03096897
-0.029105995 -0.02926878 -0.01883985 -0.019340783 -0.0014492054 -0.004099937 0.28974816 -0.010414856
-0.00490846 -0.0016910097 -0.0009535453 -0.0037176427 -0.0009895143 -0.015942426 -0.022580769 -0.018460613
-0.00011085863 0.80471 -0.012183383 -0.010456622 -0.031724203 -0.0291962 -2.8689625e-05 -0.05080809
-0.010979697 -0.01739805 -0.012504548 -0.44084772 -0.021409273 -0.0008294339 -0.033506908 -6.6508575e-05
-0.0002725975 -0.17396538 -0.020014215 -0.027441258 -0.011972158 -0.028527021 -0.025363188 -3.8912825e-05
-0.28687754 -0.0017168208 -0.0012319292 -0.006361373 -0.007465997 0.29567078 -0.30249685 -9.043879e-05
-1.7410428e-06 -0.00011482752 -1.6211037e-05 -0.021735955 -0.027434412 -0.015117849 -0.014491242 -0.00033488995
0.0057108006 -0.014720061 -1.1790089e-05 -3.53533e-05 -0.023258343 0.08440561 -0.016346686 -0.00029797433
-0.00015724769 -0.0155550465 -0.00019518538 -0.007824977 -0.00014265876 -0.0015144442 -0.027775595 -0.006058096
0.3465155 -0.0038765324 -0.09092475 -2.7407157e-05 -0.026594827 -0.007963491 -0.005268942 0.34458873
0.059102822 -0.014070454 -0.004640193 -0.00013964366 -1.38295e-05 -0.00015539929 -9.7565775e-05 -0.0006102346
-0.0076206187 -0.004905031 -0.025243709 -0.015992166 -0.015300841 -0.006396876 -0.000982206 -0.0006415783
-0.0038689894 -0.00026825172 -0.0014644131 -3.993828e-05 -0.02126295 -0.011212902 -0.0027432134 -0.0016738168
-0.07675602 -0.00046387862 -0.00016421344 -0.00042369624 -0.002899145 -0.013117214 -0.00045572358 -0.00055362395

bn2.weight f4 [300]
00000000: 6e9d bcbf a662 c23f 9279 0740 ed87 0bbf
00000010: 348d acbf 90ee b53d dad9 b33f d16a a0bf
00000020: 808d d23d d771 d7bf a444 f6be 42c1 e73f
00000030: 7c61 1b35 92ff 603b 1acd 01bf ca6e 44be
00000040: bd07 b23f b9a5 03be eb1d 2e3a 675e 82bf
00000050: 5b44 1539 4ade 99bf 3473 dab9 94c1 603b
00000060: aaf8 82b9 2a01 b03f 4871 04be f081 15bd
00000070: cd48 913f 3b10 3540 c3a1 233f 7aed 4e40
00000080: ce13 f0bb 6825 f63f e547 5dbd b039 8f3d
00000090: a941 5440 9f38 df3d 6eae 50be 2d1b 4f40
000000a0: 1953 e73f 38d8 0440 8d23 0e3f 5d4c f83c
000000b0: b65e dd3f 613e 41be a51f 96bf d6c8 d83f
000000c0: e9a9 d53e 3213 623e fdae 903f 7c7d 9abf
000000d0: a3e2 4dba 9bc0 b23f ee3a e83f 5722 d2b7
000000e0: f6f6 d9bd 92aa 0bbf 7e87 3140 30d3 7736
000000f0: e564 90be 9262 4c3a f659 ce3f e9c7 02b9
00000100: f99e 2840 a00f 0140 ecb6 3840 9b8f cb3d
00000110: 9d66 d13e 1062 00bf e7e4 a7be c679 b5b8
00000120: 0b0f 7437 f6a4 9e3f 6646 c0bf 4a3b 943f
00000130: b108 fb35 1c5e 9fb7 371e 9d3f 548c 973f
00000140: 2b59 0bbf 0791 a23a b0db 4f3f c3bd 53be
00000150: 7019 943f db8b 6e39 c0b1 9cbe ec89 be3f
00000160: 67ce 573f 297a e73f c379 d2bf 0843 cf3e
00000170: 75d7 9ebf 854f 7b3d 0a69 b5be 8fd1 b33f
00000180: 4116 103d 3b53 a73c 2e38 ab3f fa8a 03c0
00000190: 2f20 6fb8 6965 5d3e dddc fabe 55a3 9dbf
000001a0: 52d2 a13f 6716 c0ba 31d5 ea3f c951 0840
000001b0: b8bb 23ba 43a2 2740 10fe 0640 d704 10be
000001c0: 6820 1e3f 383b 09c0 3cd6 b23a 1fa5 983f
000001d0: 8a0e 4cb9 1d57 e5be 8396 653f 3f79 5840
000001e0: 3f44 18bb 6021 85bb a586 c93f a6a5 cb3f
000001f0: aee8 9d3f 5111 8f3f 7951 c93f 3ac2 373e
00000200: 5b01 b638 71c8 8f3f c065 733f 50cc a83f
00000210: 8a38 7639 3544 b1be 6ff2 0f40 122d 2cb8
00000220: 3252 0840 aac8 0d40 cdab df3f 9ff1 b2b7
00000230: 9e7d 143d 29c4 18be bab5 1f3b d0a7 0740
00000240: 31e8 4140 c4e8 b6be d1b8 9b3f 8f4d 59bd
00000250: 50e1 de3f acf1 a23f 6f50 0340 aab9 93be
00000260: c4c7 49be 5f61 23be 23e1 4440 ccac c83f
00000270: 4817 1a40 c1b9 863e 2394 1d39 69ac 35be
00000280: cac1 553f a316 72bf e40a 2740 7baa ee3f
00000290: 4491 44be fff4 963e 4d24 293c 1453 ab3f
000002a0: 2baa 20be 9942 ff3d 0d6d 0040 0925 b73f
000002b0: 93c0 1bbd bfb3 6740 40a0 6fbe aac9 af3f
000002c0: bfb3 b9bf 4ecc 1b40 3d3f df3f b886 003c
000002d0: c961 cf3f d56b 643f e8ba 8bba 2f88 e13f
000002e0: af7a 2d40 83d5 3c40 c30b 5539 29bd 5940
000002f0: 4cf2 353e 72ae 84bc de5e f5bf c12d c1be
00000300: 5e31 bd3f 333a a53f 5279 a9bf b9d1 e73f
00000310: 4106 973f 57a4 4640 6828 0340 cf08 19ba
00000320: 7453 163d 55b1 653f ba14 813f 29ad 133e
00000330: 78a1 913f 1527 ac3c 75bf eabd 532e c43c
00000340: 00be d63a febd 4bbf 7b32 13c0 8622 96b8
00000350: 78fd abbe 8406 b8bc 582f 8c3c aaac 373e
00000360: 9d02 5838 d76c cdbe dd17 6a40 6899 cd3f
00000370: a11f 833b 080c 53bb 955f b63f f7ec 303f
00000380: a645 2d40 6555 903f 6115 4ebf dc09 1640
00000390: 3007 ccbe 24ec 863c 12c9 6abc 1b96 713c
000003a0: c5bd aebb f447 3440 c4cb 17be 0731 d53f
000003b0: 341d d5be 82e8 3c3f 57ee af3f f444 e8be
000003c0: 0393 5240 7a57 8b3f 67c7 063e 9854 5c40
000003d0: 80fc 39b8 e1d7 34bc 486f ab3f f188 bf3e
000003e0: 7e5d 08c0 ec2e e63c 608a fa3f 413d 8f3b
000003f0: e5ca e83f 10cc d2be 781f 5ebc 31d6 c0b9
-1.4735544 1.5186355 2.116795 -0.5450428 -1.3480592 0.08883393 1.4050858 -1.2532598
0.10280895 -1.6831616 -0.48099244 1.8105853 5.788386e-07 0.003433202 -0.50703585 -0.19182888
1.3908612 -0.12856187 0.00066420314 -1.0185059 0.00014235212 -1.2020962 -0.00041666033 0.003429507
-0.000249808 1.3750355 -0.12933838 -0.03650087 1.1350342 2.8291156 0.63918704 3.2332444
-0.0073265797 1.9230165 -0.054023642 0.06993425 3.3165076 0.108994715 -0.2037904 3.2360337
1.8072234 2.075697 0.55522996 0.03030985 1.7294528 -0.18871452 -1.1728407 1.693629
0.41731194 0.22077635 1.1303402 -1.2069545 -0.0007853901 1.3965029 1.8142984 -2.5049942e-05
-0.10642807 -0.54557145 2.7738948 3.6928795e-06 -0.28201976 0.00077966705 1.6121204 -0.00012472238
2.634703 2.0165787 2.8861647 0.099395 0.408986 -0.5014963 -0.32791826 -8.6534346e-05
1.4547036e-05 1.2394092 -1.5021484 1.1580594 1.8703487e-06 -1.89981e-05 1.2274846 1.18397
-0.54432935 0.0012402841 0.8119459 -0.20677857 1.1570263 0.00022749549 -0.30604362 1.488584
0.8429932 1.8084155 -1.6443409 0.40480828 -1.2409502 0.061355133 -0.354317 1.4048327
0.035177473 0.02042543 1.337652 -2.0553575 -5.7012014e-05 0.21620716 -0.4899663 -1.231547
1.264231 -0.0014655114 1.8346311 2.1299918 -0.0006245929 2.6192787 2.1092567 -0.14064346
0.617682 -2.1442394 0.0013644169 1.1925391 -0.00019460372 -0.44793025 0.8968279 3.3824003
-0.0023234037 -0.0040628165 1.5744215 1.5909927 1.2336633 1.117716 1.5727988 0.17945185
8.678689e-05 1.1233045 0.95077133 1.3187351 0.0002348145 -0.3462235 2.249172 -4.104997e-05
2.1300168 2.2153726 1.7474304 -2.1331767e-05 0.03625261 -0.14918579 0.0024369792 2.1196175
3.0297968 -0.3572446 1.2165776 -0.05305248 1.741251 1.2730002 2.0517843 -0.28852588
-0.19705111 -0.15955113 3.0762413 1.5677733 2.407671 0.26313594 0.00015027872 -0.1774155
0.83498824 -0.9456579 2.6100397 1.8645777 -0.1919604 0.29483792 0.010323596 1.3384728
-0.15689914 0.12463874 2.006656 1.4308177 -0.03802545 3.6203458 -0.23400974 1.3733418
-1.4507979 2.4343448 1.7441174 0.007844619 1.6201717 0.8922704 -0.0010660561 1.7619685
2.710613 2.9505317 0.00020317645 3.4021704 0.1776821 -0.016196463 -1.9169576 -0.3773022
1.4780691 1.2908386 -1.3240149 1.8110877 1.1798784 3.1037805 2.0493412 -0.00058377994
0.03670068 0.8972371 1.008445 0.14421524 1.1377401 0.02101473 -0.11462299 0.02394787
0.0016383529 -0.7958678 -2.299956 -7.158988e-05 -0.3359182 -0.022464044 0.017112419 0.1793696
5.1500847e-05 -0.401221 3.6577065 1.6062441 0.004001573 -0.0032203216 1.4247919 0.6911158
2.707376 1.127606 -0.8050137 2.3443518 -0.39849234 0.016470022 -0.014330165 0.014745261
-0.005332681 2.8168917 -0.14823824 1.6655587 -0.41623843 0.7379228 1.374461 -0.45365107
3.290223 1.0886071 0.13162003 3.4426632 -4.4342596e-05 -0.011037798 1.3393335 0.37409166
-2.1307063 0.028098546 1.9573479 0.0043713157 1.8186918 -0.41171312 -0.013557307 -0.0003678068
