trained_data/withwalls_1/target_actor_ddpg.pth (torch, 504132 bytes, 10 tensors)

fc1.weight f4 [400, 6]
0.038349744 0.009050656 0.16742268 -0.09626178 0.29715496 0.10563812 0.018410997 0.008129047
-0.06500434 -0.29692614 0.14590274 -0.12453421 -0.017841857 0.048147414 -0.26348048 0.029756775
-0.0432857 0.023313005 -0.010799936 0.044058777 0.2201759 -0.072252914 0.28496242 0.056834046
-0.008425415 0.04496332 -0.40516967 -0.14452252 -0.011841125 -0.12723759 0.026122427 0.0024696596
-0.074472345 -0.47571674 0.40840513 -0.06005964 0.0623211 -0.008972151 0.34144574 -0.07786419
-0.19001643 0.122092485 0.08467517 -0.027169598 -0.06805714 -0.025646321 -0.15777564 -0.05560412
0.018713627 0.026989505 -0.21592516 -0.12408497 0.21214734 0.08598979 0.064111166 -0.012826729
-0.30141732 0.047982812 -0.2828059 0.3324512 0.02927281 0.005720564 0.08215512 0.18222246
0.36496022 -0.3481923 -0.027282313 0.05157869 -0.44038126 0.15243009 -0.026057065 0.18936323
0.03656488 -0.0013146807 -0.18447281 0.15204437 -0.17740929 -0.22286624 -0.0035850059 0.04005059
0.23744401 0.14995775 -0.06326907 0.043777745 -0.0033154457 0.032984972 -0.37091154 0.14525934
-0.16672812 0.21538189 0.010082455 0.023924548 -0.1552914 -0.044219073 0.1210284 -0.058498275
0.02570589 0.027944861 -0.3451305 -0.0069080363 -0.23481059 0.13558754 -0.0042952104 0.03990481
0.03779117 -0.16398868 -0.51105726 0.06786654 0.07954185 -0.007633465 0.2965005 0.12616156
-0.024057444 0.27412134 0.019003082 0.02494236 0.10358411 0.049852397 -0.034556016 0.1784999
-0.0145927295 0.04682741 -0.118939884 -0.38482806 0.20698383 -0.31310132 -0.010369055 0.03419457
0.031371385 -0.15192595 0.0771973 -0.054255743 -0.0066711013 0.0432941 0.02450593 -0.06479151
-0.05726137 -0.23380642 0.012248078 0.021706155 0.2269862 -0.42361912 0.38056028 0.034711704
0.008223688 0.023745071 0.080894314 -0.3041325 0.28462103 0.029775975 -0.009579478 0.054496814
0.3243464 -0.028978549 -0.21642841 -0.34906754 -0.022198757 0.046740495 0.08177113 -0.09724075
0.17923087 -0.26271775 0.01247566 0.027150143 -0.37909612 -0.5102558 -0.21320727 -0.19536023
0.022478597 0.010257397 -0.15261808 -0.29105318 0.32845932 -0.19849168 0.025541691 0.019555716
-0.7314967 0.23247974 -0.22409248 -0.12227805 0.026687497 0.008141255 0.3058068 0.33800343
0.25082204 0.2106739 0.028539356 0.014203175 0.063938566 -0.23968922 0.27120462 0.08421365
0.032568026 0.0035139935 0.19852693 -0.37574723 0.2172418 -0.44879737 0.0145053 0.022831518
-0.09097762 -0.29814082 -0.1357742 0.083896704 0.05046816 -0.03742725 0.007812891 0.29614714
0.16322364 -0.36983746 -0.00011846497 0.04163946 0.18075533 0.11166584 -0.10292758 -0.1099616
0.028272776 0.009803829 0.22598092 -0.34526986 0.18510938 -0.44863236 0.021655703 0.014054548
-0.41359946 -0.034336478 0.3665416 -0.3033843 0.023264263 0.009082187 0.37952513 0.23280282
0.26978526 -0.05506379 0.025718179 0.0069272853 -0.19299662 -0.20727079 0.35265484 -0.13676593
0.005426697 0.019244669 0.41483295 -0.2364682 -0.19350548 0.0098757 0.030482104 0.021747088
0.18443997 -0.2928881 -0.51147544 0.21851288 0.015239922 0.023609353 0.86990595 -0.008876708
00000000: 9f14 1d3d 3449 143c da70 2b3e e524 c5bd
00000010: b224 983e cc58 d83d a9d2 963c b22f 053c
00000020: ff20 85bd b406 98be 8767 153e cb0b ffbd
00000030: 1629 92bc 3936 453d eae6 86be 7bc4 f33c
00000040: 594c 31bd eafa be3c 37f2 30bc fa76 343d
00000050: cb75 613e 56f9 93bd 98e6 913e d1ca 683d
00000060: c00a 0abc 752b 383d 6672 cfbe b6fd 13be
00000070: 4701 42bc 924a 02be b3fe d53c 03da 213b
00000080: f584 98bd 2591 f3be 7a1a d13e 1901 76bd
00000090: 6944 7f3d eeff 12bc fad1 ae3e 4377 9fbd
000000a0: ab93 42be a00b fa3d 2d6a ad3d c792 debc
000000b0: 8b61 8bbd 3c18 d2bc f08f 21be 25c1 63bd
000000c0: 524d 993c 1819 dd3c 7c1b 5dbe 4320 febd
000000d0: 273d 593e 6a1b b03d b74c 833d 3327 52bc
000000e0: 5f53 9abe a089 443d efcb 90be 0b37 aa3e
000000f0: 88cd ef3c 9273 bb3b f240 a83d 8698 3a3e
00000100: 11dc ba3e 4346 b2be 287f dfbc 2d44 533d
00000110: a779 e1be a216 1c3e a075 d5bc 6fe8 413e
00000120: 0ec5 153d 5d51 acba 71e6 3cbe 85b1 1b3e
00000130: c8aa 35be 0c37 64be 6bf2 6abb 160c 243d
00000140: 8624 733e 868e 193e 3793 81bd 4b50 333d
00000150: f347 59bb 401b 073d 1ee8 bdbe ddbe 143e
00000160: c7ba 2abe 128d 5c3e e230 253c 6afd c33c
00000170: b504 1fbe 0f1f 35bd bddd f73d e39b 6fbd
00000180: 2995 d23c 9fec e43c f2b4 b0be cf5c e2bb
00000190: 3072 70be 76d7 0a3e d6be 8cbb 3a73 233d
000001a0: eaca 1a3d a6ec 27be a6d4 02bf 9dfd 8a3d
000001b0: d6e6 a23d 2522 fabb eace 973e 7f30 013e
000001c0: 1e14 c5bc a259 8c3e 5aac 9b3c ec53 cc3c
000001d0: e823 d43d 0732 4c3d 9c8a 0dbd aec8 363e
000001e0: 5816 6fbc 19ce 3f3d c196 f3bd 2f08 c5be
000001f0: 92f3 533e d14e a0be f8e2 29bc 9b0f 0c3d
00000200: 487f 003d 7a92 1bbe 9e19 9e3d 453b 5ebd
00000210: 4199 dabb 2755 313d a9c0 c83c 69b1 84bd
00000220: e68a 6abd f36a 6fbe 2aac 483c 1bd1 b13c
00000230: 126f 683e 9be4 d8be ccd8 c23e dc2d 0e3d
00000240: a6bc 063c 0685 c23c ebab a53d 41b7 9bbe
00000250: d9b9 913e bfec f33c 3ef3 1cbc 0d38 5f3d
00000260: bb10 a63e 6c64 edbc 699f 5dbe fbb8 b2be
00000270: 2bda b5bc f672 3f3d 9f77 a73d 2926 c7bd
00000280: 4c88 373e f182 86be b666 4c3c fa69 de3c
00000290: e318 c2be 20a0 02bf 0253 5abe 830c 48be
000002a0: 0925 b83c a40e 283c ea47 1cbe ec04 95be
000002b0: d22b a83e 6741 4bbe cf3c d13c 4f33 a03c
000002c0: 5e43 3bbf 2b0f 6e3e 8078 65be ea6c fabd
000002d0: bd9f da3c e662 053c b592 9c3e c90e ad3e
000002e0: bf6b 803e e6ba 573e 5ecb e93c 6fb4 683c
000002f0: 39f2 823d 1771 75be 55db 8a3e 3578 ac3d
00000300: 0d66 053d 074b 663b a54a 4b3e f161 c0be
00000310: a274 5e3e c5c8 e5be a3a7 6d3c 2a09 bb3c
00000320: 7952 babd eaa5 98be 6408 0bbe 09d2 ab3d
00000330: b4b7 4e3d 514d 19bd a401 003c 99a0 973e
00000340: 1924 273e 565b bdbe 6570 f8b8 238e 2a3d
00000350: ed17 393e 0fb1 e43d b2cb d2bd 8c33 e1bd
00000360: 4f9c e73c 3da0 203c 8b67 673e 36c7 b0be
00000370: 508d 3d3e 24b3 e5be 4d67 b13c 0c45 663c
00000380: 4fc3 d3be 68a4 0cbd 57ab bb3e 3055 9bbe
00000390: b294 be3c 74cd 143c 1e51 c23e dd63 6e3e
000003a0: 4b21 8a3e 928a 61bd eeae d23c 48fe e23b
000003b0: e8a0 45be cb3e 54be 2d8f b43e 5e0c 0cbe
000003c0: 6fd2 b13b ffa6 9d3c fc64 d43e b824 72be
000003d0: 4d26 46be b0cd 213c 9bb5 f93c f326 b23c
000003e0: d5dd 3c3e 6ef5 95be 0ef0 02bf d7c1 5f3e
000003f0: deb0 793c 6768 c13c 28b2 5e3f 9d6f 11bc

fc1.bias f4 [400]
-0.41663867 0.03675129 0.20286332 0.24229047 -0.49805006 -0.055573296 0.35914743 0.019430785
-0.2523199 0.15632215 -0.11685713 -0.24633893 -0.21083368 0.20204544 0.1070638 -0.3330068
-0.49426275 0.12793915 -0.22251497 0.57251674 0.13436775 -0.073380366 0.18852513 -0.11878121
0.15605031 0.006784693 0.20227256 0.38300627 0.030999957 -0.32472745 0.10200988 0.23498595
-0.2716901 -0.0016266641 -0.28266472 0.07796922 -0.34173173 -0.33707497 0.17469469 0.15587685
0.39215475 0.18786314 -0.046910588 0.5195464 -0.16979595 -0.31977165 -0.36838153 0.09061066
-0.16062208 0.081362404 0.043245293 -0.28803295 0.08240287 -0.2157664 -0.09908131 -0.28739038
0.3477999 0.21492729 -0.3636518 0.2702415 0.12254215 -0.1889406 0.40493855 -0.29118252
0.24045219 -0.44165975 0.30921444 0.51191616 -0.063586935 -0.09176636 -0.18184814 -0.35651502
0.079751045 0.07524152 -0.07282951 -0.32177222 0.45050657 0.025973344 -0.032116104 -0.67486125
0.1731018 -0.2780105 -0.113210194 0.22843058 0.40598437 -0.06638276 0.22789438 -0.31989574
0.1784933 -0.31431347 0.35861817 -0.07754899 -0.2651289 -0.47243717 0.1308907 0.09962506
0.43249533 -0.156284 -0.30930513 -0.3908636 -0.08760286 -0.13782792 0.20896558 -0.17960347
-0.42486387 0.49760833 0.32003766 -0.008693716 -0.4055295 0.12762651 0.12016596 -0.1754139
-0.3802563 -0.09370401 -0.18166493 0.36104465 0.15805496 0.10503674 0.078662135 0.5615825
-0.13429303 0.3580607 -0.34756488 -0.12347655 0.19420156 -0.6202611 0.07728484 0.09761252
-0.05102242 -0.4189245 -0.2782561 0.31584463 0.1658451 0.288872 -0.080678515 0.24042192
0.37255326 -0.21101823 0.005356606 -0.36162516 -0.21300247 -0.2236442 0.3448375 -0.4312783
-0.021902796 0.23202144 0.6163327 -0.039037272 -0.13319069 -0.33889878 -0.06362441 0.122559726
0.3129316 0.44030553 -0.036456525 -0.49990538 -0.39317983 -0.2746521 0.5611338 0.23599963
0.043804187 0.16458255 -0.44557357 0.3003798 0.14405611 -0.2683873 0.05355689 -0.4373068
0.4179438 0.43919572 -0.24191429 -0.17555821 0.17046574 0.3387577 -0.10201125 -0.18861252
0.0627832 -0.19193831 -0.33154926 0.4385305 0.0076568592 -0.20769854 0.16679615 -0.15186122
-0.024738269 0.24733587 0.50292504 0.023411753 0.20906813 0.18180212 -0.20316514 0.062916234
0.12163489 -0.12251253 -0.41008294 -0.43056113 -0.34274957 -0.32078817 0.2854669 -0.4210474
-0.15935889 -0.002261707 0.024371292 0.016561586 -0.22542778 0.011816361 0.078090765 -0.04352842
0.51762664 0.17662251 -0.10334329 0.21738322 -0.15842646 0.11587972 -0.49928924 0.21578589
-0.10099482 0.22255684 0.026078798 0.28033903 0.19044699 0.25157338 -0.17240566 -0.30663761
-0.5694549 0.15326327 -0.21964508 0.028947694 0.41307637 0.47889495 -0.21415484 -0.08759372
0.60946524 0.1704251 -0.1382161 -0.17935126 -0.028739696 0.06262588 0.06729331 0.08137535
-0.12947384 -0.088048995 -0.037418358 -0.17975579 -0.40175712 0.052023288 -0.24317965 -0.37937182
-0.011010076 -0.38638374 -0.62214446 -0.058804773 -0.21978015 -0.08313733 -0.058060937 -0.18192676
00000000: aa51 d5be 8588 163d 67bb 4f3e fe1a 783e
00000010: 6b00 ffbe d3a0 63bd 2ce2 b73e 4f2d 9f3c
00000020: 1330 81be ea12 203e ca52 efbd 4640 7cbe
00000030: c9e4 57be 00e5 4e3e 4444 db3d de7f aabe
00000040: 0210 fdbe 7b02 033e f7da 63be 7590 123f
00000050: b397 093e 7248 96bd bb0c 413e 9043 f3bd
00000060: a7cb 1f3e 2152 de3b 8a20 4f3e 6619 c43e
00000070: 9ff3 fd3c ad42 a6be 8eea d03d 28a0 703e
00000080: f71a 8bbe ca35 d5ba 6eb9 90be 54ae 9f3d
00000090: 76f7 aebe 1795 acbe 2ae3 323e 2e9e 1f3e
000000a0: 82c8 c83e 325f 403e 5125 40bd fe00 053f
000000b0: fdde 2dbe 1cb9 a3be 819c bcbe 1592 b93d
000000c0: 1d7a 24be 55a1 a63d fa21 313d 0e79 93be
000000d0: d6c2 a83d def1 5cbe 24eb cabd d524 93be
000000e0: d412 b23e e615 5c3e 9230 babe 185d 8a3e
000000f0: 61f7 fa3d a579 41be 1b54 cf3e e015 95be
00000100: 1939 763e 3a21 e2be 5b51 9e3e f00c 033f
00000110: de39 82bd 00f0 bbbd 6636 3abe 2389 b6be
00000120: 8454 a33d 3a18 9a3d a327 95bd 54bf a4be
00000130: cca8 e63e 0dc6 d43c 2d8c 03bd b5c3 2cbf
00000140: 9941 313e 6457 8ebe bfda e7bd b5e9 693e
00000150: 2fdd cf3e aff3 87bd 255d 693e 60c9 a3be
00000160: f3c6 363e b2ed a0be cd9c b73e 01d2 9ebd
00000170: fabe 87be 49e3 f1be 3608 063e 3908 cc3d
00000180: 0770 dd3e ea08 20be 3e5d 9ebe 461f c8be
00000190: 2169 b3bd c322 0dbe 13fb 553e f9e9 37be
000001a0: c287 d9be 85c6 fe3e fadb a33e 1670 0ebc
000001b0: 90a1 cfbe 86b0 023e 9219 f63d b49f 33be
000001c0: f4b0 c2be e3e7 bfbd 5f06 3abe d8da b83e
000001d0: 29d9 213e 811d d73d 9d19 a13d dfc3 0f3f
000001e0: 1d84 09be bb53 b73e 06f4 b1be 46e1 fcbd
000001f0: c6dc 463e 6ec9 1ebf 8447 9e3d 13e9 c73d
00000200: e3fc 50bd 467d d6be 9577 8ebe 63b6 a13e
00000210: 4cd3 293e 08e7 933e c73a a5bd 2a31 763e
00000220: 4dbf be3e 2a15 58be 7886 af3b ef26 b9be
00000230: 521d 5abe fc02 65be 8a8e b03e 82d0 dcbe
00000240: 7e6d b3bc 0797 6d3e fbc7 1d3f 8ce5 1fbd
00000250: 2463 08be 2484 adbe 844d 82bd 9800 fb3d
00000260: 9238 a03e ba6f e13e 7053 15bd 99f3 ffbe
00000270: de4e c9be 339f 8cbe 77a6 0f3f e3a9 713e
00000280: 056c 333d 5488 283e 3822 e4be 62cb 993e
00000290: 7283 133e 0f6a 89be 785e 5b3d ade6 dfbe
000002a0: bbfc d53e 43de e03e 61b8 77be 88c5 33be
000002b0: 928e 2e3e a671 ad3e 46eb d0bd a423 41be
000002c0: 7a94 803d 7a8b 44be d3c0 a9be 1287 e03e
000002d0: 64e6 fa3b edae 54be 9ccc 2a3e 8281 1bbe
000002e0: e9a7 cabc 9d45 7d3e b2bf 003f 01ca bf3c
000002f0: f515 563e 562a 3a3e 860a 50be 3ada 803d
00000300: b71b f93d d9e7 fabd 64f6 d1be 8272 dcbe
00000310: df7c afbe 593e a4be b828 923e 8693 d7be
00000320: fa2e 23be 2639 14bb 4ea6 c73c 2aac 873c
00000330: 8ad6 66be 6999 413c 0dee 9f3d db4a 32bd
00000340: 2e83 043f 88dc 343e a6a5 d3bd b599 5e3e
00000350: 8c3a 22be 5952 ed3d d7a2 ffbe faf6 5c3e
00000360: 5fd6 cebd f1e5 633e 34a3 d53c 9988 8f3e
00000370: 8904 433e 3ace 803e 1c8b 30be 9bff 9cbe
00000380: ccc7 11bf 0cf1 1c3e a4ea 60be b723 ed3c
00000390: bf7e d33e b831 f53e 684b 5bbe 5664 b3bd
000003a0: ea05 1c3f eb83 2e3e 8588 0dbe dba7 37be
000003b0: 836f ebbc ff41 803d 13d1 893d 1fa8 a63d
000003c0: ca94 04be 0853 b4bd fe43 19bd e711 38be
000003d0: 1cb3 cdbe 5f16 553d 1604 79be 063d c2be
000003e0: 9b63 34bc 17d4 c5be dc44 1fbf 46dd 70bd
000003f0: 0c0e 61be e843 aabd 4ed1 6dbd 024b 3abe

fc2.weight f4 [300, 400]
-0.073733866 -0.5484458 0.015245345 0.0520281 0.031480975 -0.28011316 0.07236124 0.030273452
0.0722494 0.107427 0.091104 -0.05386319 -0.21478395 0.10309711 0.033525534 0.13214803
0.046771005 -0.011410783 0.009674545 -0.030722834 -0.07322241 0.17518888 0.07045164 0.039246462
0.026455699 0.078694575 0.038745295 -0.001887218 -0.19105832 0.058172375 0.055088453 -0.09330687
0.031389304 0.17740254 -0.07620006 0.12232361 -0.05853792 0.036823135 0.0734982 -0.15044455
-0.22202861 -0.0055541415 0.008772043 -0.01152945 0.0766224 0.19080314 -0.018289583 0.033192504
0.035743326 -0.23213723 -0.25834933 0.10353585 0.013230255 0.04093445 0.103333704 0.01716709
-0.117095426 -0.047294784 0.03083049 -0.005700384 0.0791337 0.0021813228 -0.027703157 -0.18655804
0.007627172 -0.04738824 -0.039952204 -0.09588437 0.02265926 -0.08140654 0.06339265 0.07927189
0.009889642 0.03070079 0.02583018 0.0034614822 0.1806521 -0.08477144 0.015176782 0.022608297
0.056978688 -0.005070499 -0.018838366 0.11069892 0.0057614315 -0.0013410444 -0.16225608 0.20170587
0.034743197 0.11077565 0.007565191 -0.21361077 0.10411038 0.033428296 0.05260298 0.1172196
-0.106787995 -0.12851557 0.031198518 -0.061821755 0.05295079 -0.08032458 0.08257641 -0.25833648
0.10607202 0.014537809 0.06790869 0.037112065 0.0098895645 0.055646867 0.17115754 -0.03220789
0.017825734 -0.054796483 0.11071958 0.08340237 -0.016600372 -0.031195208 -0.056559097 -0.022513945
0.13339673 -0.038378768 -0.040484935 -0.049259644 0.2564277 -0.16996832 0.15437505 0.006236649
-0.024799401 0.0035033082 -0.02368485 0.008146033 -0.07361698 -0.022356926 -0.058362585 0.008045703
0.05372355 0.022065924 -0.0013199542 -0.04834616 -0.08374197 -0.10787874 -0.17525335 0.0751097
-0.008782152 0.1035388 -0.019993702 0.11514567 -0.20922248 0.063726336 -0.01000384 -0.13371675
0.09272526 -0.030564591 0.010939808 -0.04553162 0.09075691 0.094369784 0.2574598 -0.30613425
-0.035336286 -0.0010885511 -0.061070483 0.054602437 0.20782445 0.07109653 0.26932746 -0.025276093
-0.00455693 -0.04657749 -0.0030636098 -0.26095587 0.006583058 -0.052210573 -0.0931746 -0.15880923
-0.28759947 0.04735228 -0.21459444 -0.24018222 0.13967094 -0.1275724 -0.020998457 0.0950164
-0.15022378 0.1619987 0.04742409 -0.08196184 0.013259846 0.1313644 0.08928182 0.030996606
-0.061787605 -0.15109828 0.032805882 0.13811801 0.08214657 0.09534158 0.1150992 -0.25947028
0.056083903 0.35308912 -0.009119484 0.050155964 0.06948586 -0.004305502 0.03652649 0.02246114
-0.0092454525 0.024441058 0.06117568 0.05224226 0.013456273 0.05636054 -0.09094533 -0.11320996
0.0038567039 -0.13045174 0.09068555 0.073386595 0.088434435 -0.010878985 0.0014666937 -0.09398808
0.07041904 0.062073734 -0.018416183 0.024714261 0.12571865 -0.022955215 0.078141704 0.050606266
0.023291284 0.13375236 0.021435427 -0.008742821 -0.09953808 0.012849084 -0.06383092 0.14175087
0.31240186 0.04344699 0.11283165 0.2555904 0.08515636 0.1435864 -0.07271692 -0.02498978
-0.061504472 -0.10087982 0.09698878 0.10869476 0.0018892244 -0.00016387773 0.31917158 -0.0154280355
00000000: c801 97bd f266 0cbf 9dc7 793c 6b1b 553d
00000010: 32f2 003d fe6a 8fbe 2132 943d 0800 f83c
00000020: 7ef7 933d b002 dc3d bc94 ba3d a69f 5cbd
00000030: 53f0 5bbe 9424 d33d 1252 093d d051 073e
00000040: f492 3f3d 4bf4 3abc fc81 1e3c 74ae fbbc
00000050: a2f5 95bd b764 333e f348 903d e6c0 203d
00000060: 9fb9 d83c 9f2a a13d 63b3 1e3d 875c f7ba
00000070: cba4 43be 2846 6e3d 6ea4 613d ac17 bfbd
00000080: 1292 003d 03a9 353e c70e 9cbd cd84 fa3d
00000090: 75c5 6fbd dbd3 163d 3986 963d 230e 1abe
000000a0: 785b 63be 84ff b5bb 9db8 0f3c 05e6 3cbc
000000b0: 34ec 9c3d e661 433e 09d4 95bc ddf4 073d
000000c0: 9867 123d 62b5 6dbe 5d46 84be 9b0a d43d
000000d0: b6c3 583c e2aa 273d 9fa0 d33d ffa1 8c3c
000000e0: bacf efbd 2db8 41bd 3990 fc3c 49ca babb
000000f0: d910 a23d 86f4 0e3b bbf1 e2bc 1209 3fbe
00000100: 5bed f93b 2c1a 42bd eca4 23bd 065f c4bd
00000110: ea9f b93c 79b8 a6bd 01d4 813d 4d59 a23d
00000120: 2a08 223c 3980 fb3c d099 d33c 09da 623b
00000130: ddfc 383e a69c adbd 0aa8 783c 0935 b93c
00000140: 7c62 693d 6e26 a6bb eb52 9abc 1eb6 e23d
00000150: 64ca bc3b fcc5 afba 7526 26be fc8b 4e3e
00000160: e24e 0e3d 58de e23d 6ce5 f73b c8bc 5abe
00000170: d337 d53d 1cec 083d 3976 573d d410 f03d
00000180: aab3 dabd 9699 03be 0994 ff3c cf38 7dbd
00000190: ede2 583d 3781 a4bd d21d a93d ae44 84be
000001a0: 4a3c d93d fe2f 6e3c b613 8b3d d202 183d
000001b0: d707 223c f8ed 633d ec43 2f3e 6cec 03bd
000001c0: 4607 923c 4772 60bd f2c0 e23d ddce aa3d
000001d0: 81fd 87bc 188d ffbc 83aa 67bd 2a6f b8bc
000001e0: 2799 083e 0e33 1dbd 88d3 25bd 7bc4 49bd
000001f0: 7e4a 833e 2d0c 2ebe 7e14 1e3e ce5c cc3b
00000200: 1d28 cbbc c297 653b bb06 c2bc f076 053c
00000210: 80c4 96bd df25 b7bc 9b0d 6fbd 20d2 033c
00000220: 3a0d 5c3d 99c3 b43c 5002 adba a006 46bd
00000230: e980 abbd 87ef dcbd 9d75 33be 1dd3 993d
00000240: 04e3 0fbc 260c d43d d5c9 a3bc 7ed1 eb3d
00000250: 6b3e 56be f482 823d 25e7 23bc 0bed 08be
00000260: bee6 bd3d 9862 fabc e13c 333c 5d7f 3abd
00000270: c2de b93d f244 c13d c5d1 833e a1bd 9cbe
00000280: c8bc 10bd b7ad 8eba 0b25 7abd cea6 5f3d
00000290: efcf 543e 0f9b 913d 4ae5 893e cf0f cfbc
000002a0: 4d52 95bb 0ac8 3ebd d8c6 48bb 029c 85be
000002b0: b1b6 d73b c1da 55bd 53d2 bebd e39e 22be
000002c0: 3d40 93be 77f4 413d a5be 5bbe 54f2 75be
000002d0: e605 0f3e 57a2 02be f504 acbc f597 c23d
000002e0: 43d4 19be fde2 253e c33f 423d 9cdb a7bd
000002f0: d33f 593c 6484 063e 63d9 b63d 98ec fd3c
00000300: 0015 7dbd 82b9 1abe 765f 063d cf6e 0d3e
00000310: 763c a83d 7242 c33d 21b9 eb3d 4ad9 84be
00000320: 3cb8 653d 19c8 b43e e369 15bc 5770 4d3d
00000330: 9a4e 8e3d 2b15 8dbb cd9c 153d 6d00 b83c
00000340: 3d7a 17bc 9d38 c83c 5a93 7a3d fbfb 553d
00000350: b377 5c3c 4fda 663d 8c41 babd a0da e7bd
00000360: c1c0 7c3b 2495 05be 58b9 b93d b64b 963d
00000370: 1d1d b53d c53d 32bc 133e c03a d37c c0bd
00000380: dc37 903d 0741 7e3d 89dd 96bc 9075 ca3c
00000390: 64bc 003e 930c bcbc c208 a03d 8448 4f3d
000003a0: 5dcd be3c 61f6 083e 5999 af3c 0d3e 0fbc
000003b0: 9fda cbbd f784 523c c9b9 82bd 2427 113e
000003c0: 23f3 9f3e 79f5 313d 4814 e73d bfdc 823e
000003d0: 7566 ae3d 5008 133e 9cec 94bd 5eb7 ccbc
000003e0: 1dec 7bbd 149a cebd 0ea2 c63d 5c9b de3d
000003f0: da9f f73a 98d6 2bb9 756a a33e dfc5 7cbc

fc2.bias f4 [300]
0.032254025 0.018305311 0.0048729666 -0.013060011 -0.0015034727 0.091661155 -0.023034634 0.08167075
-0.04495212 0.06083388 0.031346887 0.043435197 0.06363068 0.02499201 0.065367505 -0.013878009
-0.038804714 0.004621736 0.054917607 0.025440106 0.050192326 0.04407229 0.042009134 -0.004440222
0.011149921 0.0030936918 0.022814928 0.08347266 0.04172905 0.0005209805 0.027696084 -0.031806767
0.03633061 -0.039010372 -0.0356232 0.012028406 0.09796257 0.0568904 0.06323234 0.013798537
0.027965944 -0.020957602 -0.0007489136 0.086505115 -0.03607223 0.052866146 0.03440448 -0.018188626
0.058788735 0.014534184 -0.0012463578 0.07867773 0.0073106936 -0.012707695 0.03368071 0.006252677
-0.033467274 -0.04084268 0.07400171 0.027532244 -0.011484962 -0.03840452 -0.007454656 -0.02839673
0.07331847 0.0640556 0.016598033 -0.013672793 0.03696496 0.07609904 -0.030242031 0.022925423
-0.025597619 0.027613167 0.04863554 -0.009843106 0.0053733266 -0.001784231 0.022089357 0.02789397
0.016647179 -0.0054284115 0.033536155 0.0073645283 -0.017646013 -0.0023291013 -0.022611942 0.043888304
0.04819143 0.028570699 0.009319615 0.06939837 0.06764239 -0.04458718 -0.007219873 0.012644502
0.058589723 -0.041869458 0.071357444 0.033117723 -0.0040452755 0.02660761 0.013684591 0.051061325
-0.011239109 -0.023763461 -0.018479371 0.015348046 0.05447069 0.023655212 -0.044339202 -0.036103103
0.06257467 0.021329163 -0.003102418 -0.048083473 0.057515986 -0.009480093 -0.031827644 0.014335413
-0.002936681 0.05031831 -0.016022332 0.067341834 0.0357954 -0.006538042 0.026002077 0.019190578
0.044205096 0.04730226 0.03269386 -0.015076634 0.0046274797 0.07148236 -0.00060066994 0.018852651
0.0042198896 -0.068189114 -0.010055814 0.06641816 0.08361151 0.06255568 -0.053258855 0.04189395
-0.0026982762 0.001747824 0.065239206 0.05165424 -0.059470117 -0.044215318 -0.012577372 0.018730989
-0.05096718 0.0036728727 -0.0035419443 -0.046943583 0.013602969 0.009894454 0.05305985 0.019869259
-0.023349425 0.024882644 0.078775845 0.0191229 0.0062986924 0.04745886 0.0033492022 0.043983553
-0.016971238 0.015983598 -0.0055525266 -0.009913361 0.021330556 0.060849268 -0.030356076 0.050978187
-0.045521636 0.037933428 0.016546922 -0.004335314 0.015572413 -0.030125517 -0.051201303 -0.031570926
-0.033137903 0.041981433 0.037123594 -0.0051132557 0.015824007 0.0014613267 -0.03833533 0.052619047
0.0036272334 -0.005513427 0.059751846 0.072508276 0.06284376 0.07213321 0.014634992 0.00084149145
-0.036664087 -0.051054876 -0.02739413 -0.02175732 0.06439776 -0.0055119228 0.038948383 -0.025837338
0.058361948 -0.01722038 -0.022515405 -4.8659134e-05 0.050821364 -0.0066427835 -0.00051951356 -0.0118689295
0.002692406 0.013296983 -0.0032747388 0.015041211 -0.009997605 0.0062945443 0.07734588 0.065639175
0.07146149 0.0075069605 -0.027568169 0.049211025 0.041688766 0.04113364 -0.030313341 0.060553998
-0.012045726 0.082311794 0.07567071 0.053801373 -0.025476867 -0.02294187 -0.0005849565 -0.016171008
-0.02161355 -0.03683632 0.077955864 0.02659374 -0.043278124 0.05106199 -0.02752901 -0.023307962
0.028736912 -0.04785407 -0.047237486 -0.009223401 0.014600392 -0.047242075 -0.012209897 0.035221174
00000000: cc1c 043d 05f5 953c 68ad 9f3b a8f9 55bc
00000010: 2c10 c5ba d8b8 bb3d 21b3 bcbc ff42 a73d
00000020: b71f 38bd f22c 793d 9865 003d 1be9 313d
00000030: cd50 823d 0bbc cc3c 66df 853d 9760 63bc
00000040: b1f1 1ebd ee71 973b 49f1 603d c567 d03c
00000050: 7896 4d3d 2585 343d c511 2c3d 487f 91bb
00000060: 29ae 363c 89bf 4a3b 5fe6 ba3c b7f3 aa3d
00000070: 15ec 2a3d 6992 083a e6e2 e23c d047 02bd
00000080: 68cf 143d 57c9 1fbd a2e9 11bd cb12 453c
00000090: 9aa0 c83d e805 693d f57f 813d 4213 623c
000000a0: d618 e53c 47af abbc be52 44ba 9829 b13d
000000b0: 7ac0 13bd 2c8a 583d b6eb 0c3d 5000 95bc
000000c0: 75cc 703d c920 6e3c d45c a3ba ca21 a13d
000000d0: 8b8e ef3b f033 50bc c9f4 093d 42e3 cc3b
000000e0: fb14 09bd a74a 27bd 358e 973d 4d8b e13c
000000f0: 6c2b 3cbc 0f4e 1dbd 3046 f4bb 42a0 e8bc
00000100: fe27 963d 952f 833d 99f8 873c da03 60bc
00000110: 9268 173d d0d9 9b3d 23be f7bc 19ce bb3c
00000120: 19b2 d1bc 0235 e23c 0f36 473d fb44 21bc
00000130: bb12 b03b dcdc e9ba bdf4 b43c e581 e43c
00000140: aa5f 883c d1e0 b1bb 355d 093d 2452 f13b
00000150: 5f8e 90bc d6a3 18bb ae3c b9bc 39c4 333d
00000160: 6064 453d 190d ea3c 4cb1 183c bc20 8e3d
00000170: 1888 8a3d 0ca1 36bd af94 ecbb e32a 4f3c
00000180: c7fb 6f3d 4f7f 2bbd da23 923d 73a6 073d
00000190: 3b8e 84bb 34f8 d93c 5635 603c ae25 513d
000001a0: 3d24 38bc 97ab c2bc 0d62 97bc 5f76 7b3c
000001b0: a91c 5f3d 93c8 c13c 069d 35bd d9e0 13bd
000001c0: 2627 803d 7fba ae3c f051 4bbb 2df3 44bd
000001d0: e295 6b3d 6452 1bbc b45d 02bd 15df 6a3c
000001e0: 5575 40bb 921a 4e3d 4441 83bc 84ea 893d
000001f0: 339e 123d 123d d6bb 4f02 d53c 8f35 9d3c
00000200: 6710 353d 04c0 413d ffe9 053d fc03 77bc
00000210: 1da2 973b 5865 923d 4776 1dba e070 9a3c
00000220: 0047 8a3b bca6 8bbd 24c1 24bc 3f06 883d
00000230: 833c ab3d 311d 803d f525 5abd fe98 2b3d
00000240: 90d5 30bb 3e17 e53a 229c 853d 6593 533d
00000250: f096 73bd 1f1b 35bd 5211 4ebc bb71 993c
00000260: f6c2 50bd 94b4 703b f71f 68bb ea47 40bd
00000270: fdde 5e3c 591c 223c 4955 593d dbc4 a23c
00000280: 4b47 bfbc b0d6 cb3c 3b55 a13d a1a7 9c3c
00000290: 4365 ce3b 3964 423d 4a7e 5b3b 1928 343d
000002a0: 4407 8bbc 09f0 823c f8f1 b5bb a66b 22bc
000002b0: 6bbd ae3c 153d 793d 4ead f8bc 81ce 503d
000002c0: e574 3abd 1560 1b3d 698d 873c 400f 8ebb
000002d0: 6f23 7f3c cac9 f6bc 75b8 51bd 8450 01bd
000002e0: 9cbb 07bd b9f4 2b3d e90e 183d 198d a7bb
000002f0: 59a1 813c fd89 bf3a 8205 1dbd 1287 573d
00000300: e1b6 6d3b faa9 b4bb 5abe 743d 387f 943d
00000310: 3bb4 803d 94ba 933d 9bc7 6f3c 8997 5c3a
00000320: 152d 16bd eb1e 51bd a869 e0bc 683c b2bc
00000330: f9e2 833d 5c9d b4bb 5788 1f3d d3a8 d3bc
00000340: f00c 6f3d c111 8dbc 3a72 b8bc 5917 4cb8
00000350: 102a 503d b5ab d9bb f72f 08ba e675 42bc
00000360: 1473 303b 97db 593c 009d 56bb 696f 763c
00000370: ffcc 23bc 7742 ce3b 8467 9e3d d56d 863d
00000380: 675a 923d f3fc f53b a4d6 e1bc 8091 493d
00000390: d7c1 2a3d bf7b 283d af53 f8bc 7807 783d
000003a0: 705b 45bc 1693 a83d 3ff9 9a3d d45e 5c3d
000003b0: ddb4 d0bc 97f0 bbbc c457 19ba 1079 84bc
000003c0: e60e b1bc aee1 16bd 53a7 9f3d 1ddb d93c
000003d0: 6744 31bd 6126 513d 8584 e1bc 57f0 bebc
000003e0: ac69 eb3c a102 44bd 187c 41bd bf1d 17bc
000003f0: 7c36 6f3c e880 41bd 050c 48bc 1444 103d

bn1.weight f4 [400]
0.9670131 1.4046259 0.94573134 1.1556641 0.95302385 1.3942288 1.078057 1.0204548
0.98257196 1.034329 1.1499331 1.076028 1.172327 0.9565863 1.1822813 1.0070739
0.8646274 1.1050978 0.9234735 0.8989774 1.2415261 1.3546871 0.92371356 1.4063022
1.3860492 1.0017207 1.2295496 1.3976938 1.1754903 1.137195 1.1214317 1.0142031
1.3079354 1.2010734 1.3566257 0.971308 1.1939429 1.1037948 1.2157592 1.160711
1.4940462 1.0523919 1.1139431 1.0452716 1.0005592 1.0819834 0.97153515 0.9511957
1.0696642 1.5096837 1.0507175 0.95406204 1.2804339 0.90941954 1.0914199 1.106715
0.9994903 1.0521866 1.1165583 1.0960598 1.2712941 0.9315179 1.0144783 1.0656503
0.9888016 1.197256 1.1185501 1.0051581 1.204795 1.1974658 1.1084318 0.9480107
1.1943643 1.1509223 0.95569426 1.0512218 1.4279537 1.1146663 0.9951409 1.0462682
0.9751885 1.2129858 0.92490005 0.9704485 1.0013578 1.1759948 1.4191523 1.2970661
1.0802176 1.0265882 1.001508 1.1333307 1.0430404 1.0811192 1.1690686 1.087629
1.0394222 1.1048784 1.2548139 0.9750062 1.1776133 1.1709538 1.0305469 1.2767886
1.0221289 0.91115224 1.0149362 0.948855 0.98130375 1.214272 1.1878974 0.976906
1.023972 1.2128371 1.0654714 0.9484679 0.92996097 1.019191 0.9933036 0.81221455
1.1622043 0.95048064 1.0028486 0.8214707 1.7751687 1.1045974 1.3244001 0.96685845
1.0842289 0.94798064 1.0225211 0.84645486 1.0620359 1.0685656 1.2242322 1.1384264
1.2057571 0.78482044 1.0425144 1.1925799 1.3545712 1.105682 1.1376191 1.0096406
1.1073579 1.0195951 1.073691 1.266052 1.1167332 1.0604699 0.9765483 1.2585166
1.1255288 0.84635985 0.9956837 1.0717998 1.1087521 1.1380619 1.1886283 1.4239817
1.3580878 1.0243154 1.0427974 1.2172341 1.2329252 0.9558068 1.3852807 1.1503488
0.89184266 1.2236406 1.0329237 1.3628149 0.9804487 1.2424455 1.043557 1.1012295
1.6142174 1.0721998 1.2116507 1.3240739 1.3556495 1.1733296 1.0834023 1.2136596
1.2445744 1.2849255 0.9223086 1.0273757 1.0193477 1.0163878 1.2319198 1.0416291
1.2222933 1.3583101 1.0319587 1.0185276 1.0716116 1.0854069 1.3922619 1.0888262
1.095364 1.5294768 1.1491028 1.5863476 1.0356814 1.1079044 0.91844815 0.911208
1.0450488 0.9032097 0.94620514 1.0471117 1.0281805 1.0523571 1.144772 1.3912721
1.126224 1.414061 0.9099414 1.0898741 1.0087689 0.8465096 1.0496056 1.2160418
1.0181166 1.1810055 1.1148583 1.0320909 1.1164271 1.0736427 1.1173544 1.0704161
0.9515894 1.3187714 1.0452759 0.9560723 1.2286236 0.90192425 0.9516456 1.2976519
1.3885349 1.0306311 1.436934 1.3613614 1.0907975 1.4339972 1.0417172 0.97501916
1.1116172 1.3087146 1.0634953 1.0020542 0.8210904 1.2840073 1.6146964 1.2465091
00000000: 2c8e 773f c8ca b33f 731b 723f cdec 933f
00000010: 5ff9 733f 1776 b23f c6fd 893f 439e 823f
00000020: d689 7b3f e564 843f 0231 933f 49bb 893f
00000030: d00e 963f d7e2 743f fe54 973f cce7 803f
00000040: 3958 5d3f d873 8d3f c268 6c3f 6223 663f
00000050: 54ea 9e3f 6366 ad3f 7e78 6c3f b601 b43f
00000060: 0f6a b13f 6238 803f e261 9d3f a1e7 b23f
00000070: 7776 963f 9b8f 913f 138b 8f3f 68d1 813f
00000080: 6d6a a73f c6bc 993f e9a5 ad3f a4a7 783f
00000090: 1fd3 983f 2649 8d3f ff9d 9b3f 2e92 943f
000000a0: e83c bf3f c7b4 863f b095 8e3f 76cb 853f
000000b0: 5312 803f 6f7e 8a3f 87b6 783f 9081 733f
000000c0: c2ea 883f 513d c13f e97d 863f 693d 743f
000000d0: 42e5 a33f b8cf 683f a6b3 8b3f d6a8 8d3f
000000e0: 99de 7f3f 0dae 863f 62eb 8e3f b04b 8c3f
000000f0: c4b9 a23f f577 6e3f 6dda 813f 3b67 883f
00000100: 1a22 7d3f af3f 993f a62c 8f3f 05a9 803f
00000110: b936 9a3f 8f46 993f 18e1 8d3f d4b0 723f
00000120: eee0 983f 6c51 933f 61a8 743f 708e 863f
00000130: 30c7 b63f 63ad 8e3f 8ec1 7e3f 1eec 853f
00000140: f4a5 793f 1e43 9b3f 40c6 6c3f 506f 783f
00000150: 7e2c 803f ff86 963f c8a6 b53f 4306 a63f
00000160: 9244 8a3f 3e67 833f 6a31 803f fb10 913f
00000170: 5982 853f 1d62 8a3f 0aa4 953f 6d37 8b3f
00000180: c90b 853f a86c 8d3f be9d a03f 029a 793f
00000190: 08bc 963f d0e1 953f f6e8 833f cf6d a33f
000001a0: 1fd5 823f 4641 693f 6ee9 813f 29e8 723f
000001b0: b936 7b3f 446d 9b3f 060d 983f 8316 7a3f
000001c0: 8411 833f 3f3e 9b3f 5e61 883f cbce 723f
000001d0: ec11 6e3f da74 823f 2549 7e3f 4bed 4f3f
000001e0: 1cc3 943f b352 733f 585d 803f e74b 523f
000001f0: ba38 e33f 7363 8d3f f185 a93f 0984 773f
00000200: 03c8 8a3f dcae 723f f9e1 823f 44b1 583f
00000210: cbf0 873f c2c6 883f a4b3 9c3f f5b7 913f
00000220: 4056 9a3f fee9 483f 1d71 853f 75a6 983f
00000230: 9762 ad3f fd86 8d3f 819d 913f e73b 813f
00000240: e7bd 8d3f 1882 823f b56e 893f fe0d a23f
00000250: 1df1 8e3f 7abd 873f 12ff 793f 1217 a13f
00000260: 5411 903f 0aab 583f 21e5 7e3f bc30 893f
00000270: 97eb 8d3f 03ac 913f f924 983f 0845 b63f
00000280: d2d5 ad3f c41c 833f 637a 853f 54ce 9b3f
00000290: 7ed0 9d3f c1af 743f e150 b13f a13e 933f
000002a0: cd4f 643f 41a0 9c3f d836 843f b870 ae3f
000002b0: b0fe 7a3f 7408 9f3f 4793 853f 17f5 8c3f
000002c0: ad9e ce3f d83d 893f 5f17 9b3f 417b a93f
000002d0: ec85 ad3f aa2f 963f edac 8a3f 3359 9b3f
000002e0: 374e 9f3f 7078 a43f 6b1c 6c3f 0c81 833f
000002f0: fc79 823f ff18 823f 8caf 9d3f 1a54 853f
00000300: 1b74 9c3f 1bdd ad3f 3917 843f 1d5f 823f
00000310: 922a 893f 9dee 8a3f a335 b23f a85e 8b3f
00000320: e334 8c3f e5c5 c33f cd15 933f 700d cb3f
00000330: 3591 843f d0cf 8d3f 6b1f 6b3f ed44 693f
00000340: 29c4 853f c038 673f 803a 723f c207 863f
00000350: 6b9b 833f a3b3 863f e487 923f 3415 b23f
00000360: 1c28 903f f3ff b43f ebf1 683f ff80 8b3f
00000370: 571f 813f dab4 583f 7a59 863f 42a7 9b3f
00000380: a551 823f 302b 973f adb3 8e3f 8e1b 843f
00000390: 15e7 8e3f 206d 893f 7805 8f3f 6503 893f
000003a0: 5d9b 733f 80cd a83f 9acb 853f 27c1 743f
000003b0: 8a43 9d3f 82e4 663f 0c9f 733f 7519 a63f
000003c0: 83bb b13f b8eb 833f 74ed b73f 1741 ae3f
000003d0: 419f 8b3f 388d b73f fd56 853f db9a 793f
000003e0: 7949 8e3f f683 a73f 9d20 883f 5043 803f
000003f0: fb32 523f 5a5a a43f 5fae ce3f 9c8d 9f3f

bn1.bias f4 [400]
-0.11100826 0.04717925 -0.055856705 -0.04689601 -0.120469734 0.01495757 -0.047346804 -0.05222411
-0.016831212 -0.07736445 -0.073286876 -0.0042787762 -0.0649777 -0.050326653 -0.028356178 0.03347045
-0.12270695 -0.06021543 -0.10627948 -0.06408016 0.026949035 0.010407841 -0.0883487 0.013020031
-0.0050634095 -0.075831056 0.039864507 0.10109484 -0.04575031 -0.07985048 -0.08335274 -0.022893421
-0.049925916 -0.023097873 -0.078171365 -0.058692288 -0.04902118 -0.03926274 -0.052650157 0.064233884
0.003761956 -0.06145393 -0.08449623 -0.006243827 -0.02029345 -0.051085807 -0.118225925 -0.09152461
-0.069268145 0.029711677 -0.065710865 -0.13342366 0.014783979 -0.10638482 -0.0133745875 -0.007964011
0.013820727 -0.060023554 -0.029667903 0.003236064 0.014821075 -0.12434319 -0.13242497 -0.07989839
-0.12870553 -0.040724684 -0.02739728 0.008150545 -0.029802503 -0.0110888565 0.023270458 -0.13723028
0.009707842 -0.06557113 -0.06817063 -0.09771909 -0.006576135 -0.07206727 -0.07385632 -0.11140311
-0.0875502 -0.06075783 -0.15817134 -0.08990754 0.009181124 -0.058381587 0.02585575 0.05557174
-0.019993309 -0.108081706 -0.0815416 -0.08476909 -0.004451767 -0.03933243 -0.05864079 -0.049275596
0.020872334 -0.017683126 0.09333003 -0.10763986 -0.040297896 -0.05236313 -0.067469455 0.0045371135
-0.06128101 -0.07084804 -0.05329201 -0.17391554 -0.1301379 -0.042007618 -0.035761684 -0.09689415
-0.030844463 -0.04742579 -0.07232278 -0.04631453 -0.07793203 -0.075082995 -0.10840919 -0.19446452
-0.045663267 -0.023595931 -0.0795163 -0.16771337 0.038345017 -0.09543221 0.038822997 -0.1186282
-0.06288274 -0.13506141 -0.0809884 -0.1184866 -0.0842254 -0.08618435 0.036205728 -0.05267259
0.0054352656 -0.23726834 -0.050294798 0.016588163 0.040641055 -0.035231233 -0.016444543 -0.07110692
-0.08611935 -0.046275623 -0.1267509 0.057620745 -0.15818442 -0.0770601 -0.12581158 0.044781365
-0.003980955 -0.17967197 -0.09591257 -0.12799926 -0.033112742 -0.059680928 0.042454112 0.15129203
0.047921054 -0.074904464 -0.10950705 -0.024599057 -0.0028573088 -0.04318805 0.064239465 -0.059199966
-0.11624872 0.006285957 -0.035933673 0.03492538 -0.08966436 0.049510688 -0.14566697 -0.05595403
0.011841487 0.024743145 -0.007306701 -0.004900665 0.035815936 0.035832196 -0.04553018 -0.06289378
-0.01582951 -0.034579314 -0.03230353 -0.052349944 -0.008477385 -0.0819219 -0.09366428 -0.06954491
0.026052607 -0.01547236 -0.0735952 -0.009432655 0.0118275825 -0.055793136 0.0065706694 -0.06704505
-0.029242173 0.054082125 -0.017848646 0.066394314 0.0300012 -0.04921292 -0.06645812 -0.12274648
0.017816449 -0.14878361 -0.1313326 -0.077266246 -0.076381266 -0.05745727 -0.10581399 -0.018321456
-0.002528735 0.037149373 -0.1242287 -0.06089121 -0.09579036 -0.1518349 -0.03659788 0.03829278
-0.1382207 0.026532868 -0.08264947 -0.017358879 0.010078613 -0.02114938 -0.016312068 -0.011136618
-0.12942663 0.025974056 -0.029798897 -0.14736265 -0.047375396 -0.10555693 -0.09069616 0.055964366
-0.035533555 -0.06914043 0.017928278 -0.00023273796 -0.05943844 0.033948444 -0.054374427 -0.08111707
-0.02836311 -0.11284268 -0.12472305 -0.061452962 -0.21681386 -0.008577848 0.05891826 0.035024513
00000000: 4c58 e3bd 073f 413d 00ca 64bd 0816 40bd
00000010: d6b8 f6bd 9810 753c b9ee 41bd f3e8 55bd
00000020: 9ce1 89bc 4171 9ebd 6e17 96bd fa34 8cbb
00000030: 0713 85bd 5223 4ebd 374b e8bc 5018 093d
00000040: c84d fbbd 74a4 76bd 0ea9 d9bd 753c 83bd
00000050: 39c4 dc3c a685 2a3c 2af0 b4bd f851 553c
00000060: f5ea a5bb 504d 9bbd f748 233d d00a cf3d
00000070: ad64 3bbd a688 a3bd d7b4 aabd fc8a bbbc
00000080: 1e7f 4cbd c037 bdbc 4f18 a0bd 5367 70bd
00000090: 6fca 48bd f8d1 20bd b1a7 57bd 0e8d 833d
000000a0: 268b 763b 1eb7 7bbd 5c0c adbd 0499 ccbb
000000b0: 733e a6bc 5a3f 51bd 6f20 f2bd 4171 bbbd
000000c0: 75dc 8dbd e765 f33c 6b93 86bd 36a0 08be
000000d0: 8138 723c 49e0 d9bd 1621 5bbc 7c7b 02bc
000000e0: 5570 623c 42db 75bd 1a0a f3bc 2514 543b
000000f0: 18d4 723c a4a7 febd 699a 07be c4a1 a3bd
00000100: 62cb 03be edce 26bd 4370 e0bc dd89 053c
00000110: 6124 f4bc 09ae 35bc b0a1 be3c 1886 0cbe
00000120: a40d 1f3c 284a 86bd 0b9d 8bbd f220 c8bd
00000130: 9e7c d7bb 0198 93bd fb41 97bd 5027 e4bd
00000140: 854d b3bd 34dd 78bd abf7 21be 7221 b8bd
00000150: 6d6c 163c 8821 6fbd 70cf d33c 319f 633d
00000160: 02c9 a3bc f159 ddbd 48ff a6bd 6b9b adbd
00000170: 21e0 91bb 0b1b 21bd 5331 70bd 35d5 49bd
00000180: 75fc aa3c 34dc 90bc d123 bf3d 4972 dcbd
00000190: 680f 25bd b97a 56bd 6d2d 8abd 11ac 943b
000001a0: cc01 7bbd c718 91bd b948 5abd ea16 32be
000001b0: df42 05be 2e10 2cbd d87a 12bd 7170 c6bd
000001c0: 87ad fcbc 8c41 42bd f71d 94bd 4eb4 3dbd
000001d0: d49a 9fbd 1dc5 99bd a305 debd b521 47be
000001e0: 6809 3bbd 414c c1bc 71d9 a2bd 0ebd 2bbe
000001f0: aa0f 1d3d f671 c3bd dd04 1f3d 57f3 f2bd
00000200: aac8 80bd 8a4d 0abe 3fdd a5bd 1aa9 f2bd
00000210: 5e7e acbd 6c81 b0bd 754c 143d 37bf 57bd
00000220: 501a b23b 79f6 72be eb01 4ebd e6e3 873c
00000230: 3c77 263d a04e 10bd b5b6 86bc 81a0 91bd
00000240: 575f b0bd 828b 3dbd fdca 01be bb03 6c3d
00000250: 19fb 21be b0d1 9dbd c0d4 00be aa6c 373d
00000260: ac72 82bb eefb 37be cf6d c4bd 3d12 03be
00000270: 3aa1 07bd fd73 74bd 5de4 2d3d 4cec 1a3e
00000280: de48 443d 8367 99bd 3b45 e0bd f683 c9bc
00000290: b041 3bbb f4e5 30bd fb8f 833d aa7b 72bd
000002a0: cf13 eebd 6efa cd3b 302f 13bd ea0d 0f3d
000002b0: f3a1 b7bd b8cb 4a3d b929 15be 0e30 65bd
000002c0: cc02 423c 23b2 ca3c 0d6d efbb c295 a0bb
000002d0: bbb3 123d c8c4 123d db7d 3abd 74ce 80bd
000002e0: e3ac 81bc 0aa3 0dbd b550 04bd e56c 56bd
000002f0: bbe4 0abc abc6 a7bd 0fd3 bfbd 906d 8ebd
00000300: 476c d53c c87f 7dbc 15b9 96bd 6c8b 1abc
00000310: 7ac8 413c 5887 64bd c54e d73b ea4e 89bd
00000320: 488d efbc 3885 5d3d 5337 92bc bef9 873d
00000330: 14c5 f53c 7d93 49bd 321b 88bd 8262 fbbd
00000340: cdf3 913c bb5a 18be 0e7c 06be c43d 9ebd
00000350: c86d 9cbd 5058 6bbd 01b5 d8bd e116 96bc
00000360: 22b9 25bb f129 183d 9e6b febd 1069 79bd
00000370: bc2d c4bd 9c7a 1bbe a9e7 15bd e4d8 1c3d
00000380: ba89 0dbe 755b d93c 2044 a9bd 3534 8ebc
00000390: c420 253c 7741 adbc e3a0 85bc 5d76 36bc
000003a0: 6a88 04be 8bc7 d43c d11c f4bc 3ce6 16be
000003b0: b40c 42bd 3b2e d8bd e9be b9bd e43a 653d
000003c0: a28b 11bd 7f99 8dbd 53de 923c 1f0b 74b9
000003d0: b975 73bd 860d 0b3d b8b7 5ebd b520 a6bd
000003e0: c159 e8bc 101a e7bd cc6e ffbd 1ab6 7bbd
000003f0: 7404 5ebe 1a8a 0cbc 4654 713d dd75 0f3d

bn2.weight f4 [300]
1.3076053 1.2834702 1.125571 1.2674608 0.97452205 1.1188687 1.0162932 1.182632
1.0868126 1.2567533 1.3130289 1.1487614 1.1472783 0.9361563 1.1633816 1.1197704
1.1702874 1.0584383 1.0278403 1.7421995 1.7735938 1.1865345 1.2513285 1.1818529
1.0144275 0.9918038 1.0526015 1.3206012 1.1756576 1.3243351 1.7400695 1.1632025
1.0988045 1.010599 1.1065898 1.1338547 1.2515115 0.96021175 1.2054112 1.2804683
1.3663454 1.020504 1.1391058 1.2192326 1.2159264 0.9858196 1.1196549 1.158535
1.022014 1.2162447 1.0601559 1.1892008 1.2314069 1.0923599 1.1770653 0.99279237
1.084059 1.1954715 1.0971323 1.0258808 0.9624315 1.0769916 1.3457665 1.1190646
1.0678912 1.1684418 1.4919221 1.3462665 1.1001582 1.2231131 1.2497897 1.1247897
1.1377262 1.517939 1.1897924 1.049173 1.3825029 1.0896853 1.2222486 1.0474457
1.0950963 1.2120754 1.1372136 1.1389247 1.1416931 1.0780461 1.0331135 1.1380991
1.0932643 1.1299207 1.1247075 1.1066774 1.4658834 1.2913905 1.2784444 1.0225605
1.1913282 1.2501953 1.2020276 1.2365907 1.2616338 1.3045038 1.0493946 1.0635756
1.1804651 1.1672641 1.0302837 1.0118473 1.2035779 1.1572686 1.640216 1.1453242
0.9005284 1.228917 1.0938699 1.2562563 1.1101813 1.0222625 1.2300236 1.293696
1.1890314 1.2323563 1.7914288 1.5492191 1.1215227 1.2428746 1.0103352 1.6307808
1.0167537 1.208418 1.3160131 1.4714178 1.0696943 1.1005563 1.186655 1.3525658
1.0476319 1.0839326 1.9514002 1.102895 0.918518 1.097298 1.3115156 1.4618673
1.0411358 1.2146963 1.1989386 1.1219387 1.2685301 1.513068 1.1820095 1.360032
1.3641201 1.130328 1.0268745 1.27235 0.9783808 1.0403398 1.3416767 0.9627539
1.0882105 1.0597937 1.168614 1.1761374 1.1363312 1.2234688 1.0927454 0.9503682
0.87255496 1.1217115 0.8383036 1.0783993 1.0384961 1.2232921 1.2372404 1.9982603
1.1408155 1.0309621 1.0901268 1.2060589 1.1681702 1.2633249 1.247495 1.124915
1.1305581 0.96384436 1.226098 1.169511 1.6104409 1.3470156 1.1598806 1.099911
1.0755434 1.0519712 1.059211 1.0204941 0.8795869 1.0930122 0.899799 1.7108195
1.0795801 1.1658725 1.0631078 1.3174114 1.1330516 1.6915988 1.0358285 1.0275183
1.2382911 1.0148213 1.0716041 1.0431488 1.158761 0.9318722 1.1822361 1.4128826
1.2396728 1.0651897 1.2981452 1.2193985 1.2242867 1.030573 1.3834543 0.957451
1.3310268 1.047606 1.4957833 1.1614423 1.8641049 1.1503788 0.98451596 1.0884706
0.93889105 1.0973843 1.0514011 1.4206055 1.6456981 1.1988903 0.9397329 1.2351097
1.1279349 1.0695144 1.1306537 1.3735565 1.1998771 1.2446969 1.1903591 1.0971471
1.2624847 1.0715531 1.1243874 1.2165253 1.1319454 1.2759396 1.3596237 1.2373182
00000000: 9c5f a73f c048 a43f b612 903f 283c a23f
00000010: 477a 793f 1737 8f3f e515 823f 7c60 973f
00000020: ad1c 8b3f 4bdd a03f 5511 a83f 9d0a 933f
00000030: 04da 923f f0a7 6f3f b0e9 943f a354 8f3f
00000040: facb 953f e87a 873f 4590 833f 6500 df3f
00000050: 1f05 e33f 5de0 973f 882b a03f f546 973f
00000060: c3d8 813f dbe6 7d3f a5bb 863f 7609 a93f
00000070: f37b 963f d083 a93f 99ba de3f d2e3 943f
00000080: a0a5 8c3f 4f5b 813f bca4 8d3f 2722 913f
00000090: 8731 a03f 70d0 753f ea4a 9a3f 63e6 a33f
000000a0: 68e4 ae3f e09f 823f 38ce 913f d00f 9c3f
000000b0: 7aa3 9b3f ac5e 7c3f da50 8f3f e04a 943f
000000c0: 5bd1 823f e8ad 9b3f 30b3 873f bb37 983f
000000d0: be9e 9d3f 73d2 8b3f 13aa 963f a427 7e3f
000000e0: 72c2 8a3f 3605 993f d56e 8c3f 1050 833f
000000f0: e961 763f dcda 893f 1442 ac3f 823d 8f3f
00000100: a9b0 883f 808f 953f 4ef7 be3f 7652 ac3f
00000110: fcd1 8c3f f88e 9c3f 1cf9 9f3f 1cf9 8f3f
00000120: 03a1 913f d34b c23f 1e4b 983f 4d4b 863f
00000130: dbf5 b03f cf7a 8b3f a472 9c3f b312 863f
00000140: 1e2c 8c3f 4925 9b3f 3790 913f 49c8 913f
00000150: 0023 923f 6afd 893f 103d 843f 3bad 913f
00000160: 16f0 8b3f 3ea1 903f 6af6 8f3f 9ba7 8d3f
00000170: 11a2 bb3f 494c a53f 11a4 a33f 43e3 823f
00000180: 717d 983f 6606 a03f 0adc 993f 9b48 9e3f
00000190: 377d a13f fbf9 a63f 9052 863f 3f23 883f
000001a0: 7b19 973f e968 953f 56e0 833f 3684 813f
000001b0: d70e 9a3f 6121 943f 99f2 d13f fc99 923f
000001c0: 0789 663f 274d 9d3f ee03 8c3f 02cd a03f
000001d0: 6c1a 8e3f 7fd9 823f 6a71 9d3f d597 a53f
000001e0: 2e32 983f dabd 9d3f 8a4d e53f d04c c63f
000001f0: 0e8e 8f3f 8416 9f3f aa52 813f 6dbd d03f
00000200: fc24 823f 71ad 9a3f 1e73 a83f 6b57 bc3f
00000210: beeb 883f 07df 8c3f 50e4 973f e020 ad3f
00000220: cd18 863f 4ebe 8a3f 7bc7 f93f aa2b 8d3f
00000230: ff23 6b3f 4374 8c3f bedf a73f 781e bb3f
00000240: f043 853f 2b7b 9b3f d276 993f b09b 8f3f
00000250: 325f a23f 36ac c13f 164c 973f 8715 ae3f
00000260: 7d9b ae3f 97ae 903f a070 833f 5ddc a23f
00000270: 2a77 7a3f db29 853f 10bc ab3f 0a77 763f
00000280: 7b4a 8b3f 52a7 873f 2595 953f ac8b 963f
00000290: 4d73 913f a09a 9c3f 15df 8b3f 554b 733f
000002a0: c35f 5f3f 3e94 8f3f 119b 563f fd08 8a3f
000002b0: 71ed 843f d694 9c3f e55d 9e3f fec6 ff3f
000002c0: 3e06 923f 91f6 833f 4689 8b3f 2360 9a3f
000002d0: 9a86 953f a1b4 a13f ebad 9f3f 37fd 8f3f
000002e0: 21b6 903f 81be 763f c7f0 9c3f 89b2 953f
000002f0: ed22 ce3f 026b ac3f f876 943f e2c9 8c3f
00000300: 68ab 893f fea6 863f 3a94 873f 8d9f 823f
00000310: 9b2c 613f d3e7 8b3f 3a59 663f 22fc da3f
00000320: ae2f 8a3f 4f3b 953f eb13 883f f0a0 a83f
00000330: d607 913f 4f86 d83f 0796 843f b885 833f
00000340: 5380 9e3f aae5 813f 532a 893f e685 853f
00000350: 4852 943f 2d8f 6e3f 8353 973f 56d9 b43f
00000360: 99ad 9e3f 2358 883f 9f29 a63f 4015 9c3f
00000370: 6db5 9c3f d1e9 833f 0815 b13f 821b 753f
00000380: 165f aa3f f417 863f d475 bf3f 24aa 943f
00000390: fd9a ee3f 9d3f 933f 3d09 7c3f 0153 8b3f
000003a0: 2a5b 703f 1777 8c3f 5094 863f 67d6 b53f
000003b0: 3ca6 d23f 3d75 993f 5692 703f 1318 9e3f
000003c0: 2c60 903f d9e5 883f 43b9 903f b3d0 af3f
000003d0: 9395 993f 3a52 9f3f b05d 983f 516f 8c3f
000003e0: 1999 a13f a728 893f edeb 8f3f 1ab7 9b3f
000003f0: 96e3 903f fd51 a33f 2608 ae3f 7160 9e3f

bn2.bias f4 [300]
-0.10169403 -0.023097178 -0.023114113 -0.022800662 -0.0890334 -0.02130255 -1.9054801e-07 0.010883126
0.011539055 0.01215564 -0.044999383 -0.02792944 -0.04591372 -0.13901475 -0.10941261 0.007013049
0.010721648 0.021598553 -0.06699675 -0.056362703 0.01012632 -0.020450935 -0.037870873 -0.083379164
0.025902284 -0.006161904 -0.0015556216 -0.02913166 -0.047932517 -0.0422812 -0.039722107 0.008241002
-0.024198882 -0.10403287 -0.042048547 -0.0043430254 0.008805298 -0.13251504 -0.045636125 0.009675049
-0.12954156 0.05824861 -0.0017155036 0.030173615 -0.03570621 -0.04774987 -0.04309843 -0.04237239
-0.023932463 -0.02378439 -0.13488238 -0.030883918 -0.012851366 0.013300412 -0.017677763 -0.028815392
-0.01256659 0.0009665216 0.045675084 -0.022506353 -0.14537376 -0.0873409 -0.061118867 -0.004744667
0.042111475 -0.0028336975 -0.09660297 -0.056096252 -0.0067187725 -0.02373483 -0.095138125 -0.029271845
-0.031155517 -0.13649677 -0.037765577 -0.005439502 -0.0884152 0.042158213 -0.028464137 0.019302672
0.020824052 -0.053037625 -0.023420261 -0.00030028567 0.046197083 0.006052139 0.023085035 -0.036647946
-0.023260139 -0.014706251 0.017055493 -0.02096937 -0.06313129 -0.074162096 -0.13734728 -0.034636784
-0.10406298 -0.065548696 0.019510409 -0.104205705 0.059911363 -0.008247852 0.027566567 0.05377229
0.006987444 0.034693103 -0.034235816 -0.008350116 -0.021435894 0.03540646 -0.077740535 -0.005849525
-0.14545481 0.0023792943 -0.09916014 -0.02166842 -0.05582735 -0.07937702 -0.018964808 0.0015630939
-0.07528747 -0.019955155 -0.01558436 -0.1459233 -0.008373802 0.0058612097 0.0038205222 -0.06393213
0.027881231 -0.030597711 -0.05390188 -0.07526849 -0.047410484 -0.028973924 -0.038896706 -0.08505128
-0.008299535 -0.023900855 0.02197249 0.030205257 -0.11741221 0.013239874 -0.052674502 0.029999813
0.030495573 0.05851679 -0.06518002 -0.058852468 0.0068952297 -0.0089241415 -0.03538291 -0.039979585
-0.066672415 0.017377958 -0.0064821625 -0.024363253 -0.05688474 -0.027059713 -0.024922337 -0.124465995
-0.030409483 0.037034355 -0.059101503 -0.08022447 -0.08811163 0.01865575 -0.04460663 -0.03345356
-0.10486819 0.0209555 -0.13232152 0.02914039 -0.014894136 -0.009613979 -0.06968505 0.02137076
0.010329245 -0.06315931 -0.026425181 -0.023826798 -0.07800849 -0.04506508 -0.07083542 0.0016583742
-0.104895405 -0.105952926 -0.04593932 -0.019768795 0.06091656 -0.08089473 -0.08196337 -0.011850531
0.05604254 -0.023804232 -0.023144862 -0.0039599165 -0.12607391 -0.006939919 -0.108726956 -0.010976438
0.039795477 0.017002331 0.0127982525 -0.03494084 0.0071826526 -0.07220639 0.04889701 0.040573306
-0.013480998 0.006410966 -0.022455106 -0.05088208 -0.0790919 -0.06420984 0.015004565 0.02942814
-0.008058762 -0.03609842 -0.03820304 0.074504845 -0.04618335 0.057072736 -0.03406737 -0.07492335
-0.035549182 -0.021479802 -0.07008899 0.047537673 0.016761377 0.043146297 -0.021832233 0.028286688
-0.05737487 0.0059765466 -0.030067895 -0.035369825 -0.07442608 -0.05372586 -0.070753716 -0.03548905
-0.029465742 0.006911103 -0.03286603 -0.011381226 -0.01040271 -0.024582466 -0.045773044 -0.023907097
-0.033705212 -0.076281615 -0.053837765 -0.02813305 0.076302245 -0.028867237 0.030511037 0.005125986
00000000: f644 d0bd 4b36 bdbc cf59 bdbc 74c8 babc
00000010: 2557 b6bd af82 aebc 7099 4cb4 244f 323c
00000020: 4e0e 3d3c 7328 473c 4651 38bd 48cc e4bc
00000030: 0610 3cbd e259 0ebe b813 e0bd b8cd e53b
00000040: daa9 2f3c 73ef b03c 9835 89bd 94dc 66bd
00000050: dde8 253c b888 a7bc 7d1e 1bbd b2c2 aabd
00000060: 0731 d43c cce9 c9bb 00e6 cbba 85a5 eebc
00000070: e354 44bd 0d2f 2dbd a6b3 22bd 4505 073c
00000080: bc3c c6bc 2f0f d5bd 193b 2cbd f04f 8ebb
00000090: 1944 103c 06b2 07be f2ec 3abd 1984 1e3c
000000a0: 8ba6 04be 1896 6e3d c0da e0ba a82e f73c
000000b0: ad40 12bd 5e95 43bd fb87 30bd ac8e 2dbd
000000c0: 030e c4bc 7bd7 c2bc 9b1e 0abe 4500 fdbc
000000d0: 898e 52bc f9e9 593c f5d0 90bc 420e ecbc
000000e0: 19e4 4dbc 2b5e 7d3a cc15 3b3d 3e5f b8bc
000000f0: dcdc 14be c9df b2bd c757 7abd 2779 9bbb
00000100: 157d 2c3d 8eb5 39bb c7d7 c5bd 2fc5 65bd
00000110: 2629 dcbb 8c6f c2bc c7d7 c2bd 82cb efbc
00000120: db39 ffbc cfc5 0bbe 14b0 1abd da3d b2bb
00000130: 0713 b5bd 17ae 2c3d 9f2d e9bc a320 9e3c
00000140: 3497 aa3c fb3d 59bd d9db bfbc a96f 9db9
00000150: 2739 3d3d 0651 c63b d41c bd3c 281c 16bd
00000160: 0c8c bebc 7df2 70bc f6b7 8b3c f5c7 abbc
00000170: fa4a 81bd 4ce2 97bd c4a4 0cbe 4ddf 0dbd
00000180: f91e d5bd 653e 86bd 4bd4 9f3c cd69 d5bd
00000190: 9e65 753d 0022 07bc 48d3 e13c 5540 5c3d
000001a0: eef6 e43b 5b1a 0e3d db3a 0cbd edce 08bc
000001b0: 549a afbc 5d06 113d 6e36 9fbd 5fad bfbb
000001c0: 1bf2 14be efed 1b3b 7914 cbbd f881 b1bc
000001d0: 38ab 64bd 6b90 a2bd 165c 9bbc bae0 cc3a
000001e0: 5130 9abd fe78 a3bc 8b55 7fbc eb6c 15be
000001f0: 4532 09bc 640f c03b ba61 7a3b d9ee 82bd
00000200: 2e67 e43c 0da8 fabc 38c8 5cbd 5e26 9abd
00000210: 7f31 42bd b95a edbc 2752 1fbd 5e2f aebd
00000220: c6fa 07bc bacb c3bc a7ff b33c 0471 f73c
00000230: d075 f0bd 0eec 583c 38c1 57bd 2bc2 f53c
00000240: dad1 f93c 4daf 6f3d 1a7d 85bd 490f 71bd
00000250: 61f1 e13b 9036 12bc aced 10bd a2c1 23bd
00000260: 8c8b 88bd 385c 8e3c 5268 d4bb 7295 c7bc
00000270: f9ff 68bd 55ac ddbc ee29 ccbc 07e8 febd
00000280: 4f1d f9bc 56b1 173d 6b14 72bd ba4c a4bd
00000290: df73 b4bd f2d3 983c 71b5 36bd 9a06 09bd
000002a0: 22c5 d6bd deaa ab3c 4b7f 07be d4b7 ee3c
000002b0: 8906 74bc f383 1dbc 09b7 8ebd bb11 af3c
000002c0: fe3b 293c ab59 81bd 9f79 d8bc 6b30 c3bc
000002d0: eac2 9fbd 2996 38bd 2912 91bd ce5d d93a
000002e0: 67d3 d6bd d9fd d8bd de2a 3cbd 2bf2 a1bc
000002f0: a583 793d 23ac a5bd 69dc a7bd bb28 42bc
00000300: dd8c 653d 1801 c3bc 4b9a bdbc 30c2 81bb
00000310: 8519 01be 4368 e3bb 3dac debd 85d6 33bc
00000320: 9500 233d 7948 8b3c c3af 513c 201e 0fbd
00000330: 755c eb3b f2e0 93bd 3b48 483d 3230 263d
00000340: 67df 5cbc 1513 d23b c5f3 b7bc ba69 50bd
00000350: effa a1bd 7380 83bd b5d5 753c 4813 f13c
00000360: e608 04bc f0db 13bd ca7a 1cbd ff95 983d
00000370: c12a 3dbd 1ac5 693d 3a8a 0bbd 6a71 99bd
00000380: 059c 11bd 69f6 afbc d18a 8fbd ddb6 423d
00000390: 284f 893c 2cba 303d 83d9 b2bc 7cb9 e73c
000003a0: e901 6bbd e8d6 c33b f250 f6bc f3df 10bd
000003b0: b36c 98bd a60f 5cbd 53e7 90bd f75c 11bd
000003c0: 2462 f1bc 8976 e23b 889e 06bd 5278 3abc
000003d0: 2170 2abc 2b61 c9bc 847c 3bbd d1d8 c3bc
000003e0: 7a0e 0abd 8939 9cbd fd84 5cbd 4877 e6bc
000003f0: 5a44 9c3d fc7a ecbc 48f2 f93c e3f7 a73b
