tmp/ddpg/actor_ddpg.pth (torch, 504034 bytes, 10 tensors)

fc1.weight f4 [400, 6]
0	0x3d5dd3f8	0.054157227
1	0x3cc63764	0.024196334
2	0xbd9d3b4f	-0.07677328
3	0x3eb40b5c	0.35164917
4	0x3deaa10b	0.11456498
5	0xbd4ad1c6	-0.04951646
6	0x3d3d2bf7	0.046184506
7	0x3cdfcb49	0.027318614
8	0x3ea06faf	0.31335208
9	0x3f15e2b8	0.5854907
10	0xbdd9b4df	-0.106302015
11	0x3bc45f14	0.0059927795
12	0x3d2f62a8	0.042818695
13	0x3c85516b	0.016274175
14	0x3e488511	0.19582011
15	0x3ebd2abf	0.36946675
16	0x3e112a47	0.14176284
17	0xbdcc339f	-0.099707834
18	0x3d458d16	0.048230253
19	0x3c909106	0.017647278
20	0xbe654ce6	-0.22392616
21	0xbd0e74a2	-0.0347792
22	0xbe645399	-0.22297515
23	0x3d9afa74	0.075673014
24	0x3d362012	0.04446418
25	0x3c4c1580	0.012456298
26	0xbc99f893	-0.018795287
27	0xbcb2b35f	-0.021814046
28	0x3e43498b	0.19071023
29	0x3d637755	0.055533726
30	0x3d07835a	0.03308425
31	0x3d1043fa	0.035221078
32	0x3e2f8059	0.17138804
33	0x3f2618e3	0.64881724
34	0x3eed8a00	0.46394348
35	0xbe387264	-0.18012387
36	0x3cdf5895	0.027263919
37	0x3d1c778b	0.038199943
38	0xbd5d8e46	-0.05409076
39	0xbeb4a4ac	-0.35281885
40	0xbe97aa02	-0.29621893
41	0x3d852271	0.0650071
42	0xb8def623	-0.000106316314
43	0x3d75df14	0.060027197
44	0x3e822d34	0.25425112
45	0xbe62ad42	-0.22136405
46	0x3e391c32	0.18077162
47	0xbe8f5351	-0.27993253
48	0xbb52bb21	-0.0032154995
49	0x3d5b9572	0.05360932
50	0x3e277392	0.1635268
51	0xbe2eac26	-0.17057857
52	0xbeaaeff2	-0.3338619
53	0xbd99f19b	-0.07516786
54	0x3d3ade8f	0.045622405
55	0x3c87b593	0.016566074
56	0x3e997102	0.2996903
57	0x3eaf6fad	0.3426489
58	0x3e6f5089	0.23370565
59	0xbd167aee	-0.03673833
60	0x3d4caf23	0.04997171
61	0x3bc74c02	0.006082059
62	0xbe2f6ce9	-0.1713139
63	0xbd222bc2	-0.039592512
64	0xbd83b91a	-0.0643179
65	0xbcc062e7	-0.02348466
66	0x3c43a5e3	0.011941406
67	0x3d58d8d9	0.052941177
68	0xbea3ec67	-0.32016298
69	0x3ea58e13	0.32334957
70	0x3efcdf44	0.49389088
71	0xbe5e1a68	-0.2168976
72	0x3d10ec8b	0.035381835
73	0x3d242d78	0.040082425
74	0xbde0de81	-0.10979939
75	0xbcfabd0c	-0.030607723
76	0x3e4caea2	0.19988492
77	0xbd2efed6	-0.0427235
78	0x3d747dec	0.0596904
79	0x3d07781e	0.033073537
80	0x3dddf826	0.10838346
81	0xbe3ca084	-0.18420607
82	0x3e493ee8	0.19652903
83	0xbdf99d75	-0.12188236
84	0x3c8db7b6	0.017299514
85	0x3d239335	0.03993531
86	0x3d79677e	0.060889713
87	0x3f788ae3	0.97086924
88	0xbd98ee38	-0.074673116
89	0x3d2eb188	0.042649776
90	0x3d026904	0.031838432
91	0x3d03e554	0.032201126
92	0xbea818c0	-0.32831383
93	0xbca66bb9	-0.020315038
94	0xbeb30d2c	-0.34970987
95	0x3d3b7ad6	0.045771442
96	0x3d093af4	0.033503488
97	0x3d0699fd	0.0328617
98	0x3dba2dad	0.09090743
99	0xbdbf139d	-0.09329913
100	0x3d3d5612	0.04622466
101	0xbc5ba84e	-0.013406826
102	0x3cfc2b8d	0.030782485
103	0x3d2f1985	0.042748947
104	0x3ec5516f	0.3853869
105	0xbf04a81b	-0.5181901
106	0x3d9877b3	0.07444706
107	0x3dfab544	0.12241605
108	0x3d883694	0.06651035
109	0x3c218df6	0.009860506
110	0xbe0637cd	-0.13107224
111	0xbc586519	-0.013207697
112	0x3e85a5bb	0.26103005
113	0xbe1a4b6a	-0.1506783
114	0x3ccda345	0.025102267
115	0x3d02ce83	0.031935226
116	0xbe4a215b	-0.19739287
117	0x3eeecca4	0.46640503
118	0x3df43625	0.1192439
119	0xbdd999ad	-0.106250145
120	0x3cd68cd9	0.026190208
121	0x3d0cede1	0.034406547
122	0x3e5e0e32	0.21685103
123	0xbda33395	-0.07968823
124	0xbdc19a9f	-0.0945332
125	0xbda52cc4	-0.08065179
126	0x3d94bc29	0.07262451
127	0xb91a4641	-0.00014712756
128	0x3c9dc6e7	0.019259883
129	0x3d2961e9	0.04135314
130	0xbe8aa682	-0.2708016
131	0x3e60dda9	0.21959557
132	0x3d7e9e15	0.062162478
133	0x3c639fb1	0.013893054
134	0x3d5eadc6	0.054364942
135	0xbd596e39	-0.053083632
136	0x3dca826b	0.098881565
137	0x3e43ace0	0.19108915
138	0x3d2280d6	0.03967365
139	0x3c797481	0.015225531
140	0xbd190202	-0.03735543
141	0x3eb576f2	0.3544231
142	0x3e983a7e	0.29732126
143	0xbdb37212	-0.087619916
144	0x3c9ee4f0	0.019396275
145	0x3d23f8b0	0.04003209
146	0xbba9b027	-0.0051784697
147	0x3f477ad4	0.77921796
148	0xbdd61cbd	-0.104547
149	0xbd534bde	-0.051586024
150	0x3d830903	0.06398203
151	0x3c81bd65	0.01583738
152	0x3d6e5276	0.05818411
153	0x3ca4352a	0.020044882
154	0x3eb38fca	0.3507064
155	0xbddc194b	-0.10747012
156	0xbc17753c	-0.009244259
157	0x3d86a1d5	0.06573836
158	0x3d98f02b	0.074676834
159	0xbd848477	-0.06470578
160	0x3e37156d	0.17879267
161	0xbdf7d11c	-0.12100431
162	0x3d61544c	0.055012032
163	0x3bd7c137	0.0065843123
164	0xbe85b0a7	-0.26111338
165	0xbe9235ab	-0.2855657
166	0x3ba107f7	0.0049142796
167	0xbdf9ae6e	-0.12191473
168	0x3cf70b50	0.030156761
169	0x3ce2eb02	0.027699951
170	0xbe4d4f21	-0.20049717
171	0x3e8a1674	0.26970255
172	0x3ee27e4d	0.44236985
173	0x3cc6bd84	0.02426029
174	0x3c6a2d4c	0.014293026
175	0x3d39c150	0.045350373
176	0xbc9a86ac	-0.018863045
177	0xbde41283	-0.11136343
178	0xbf10391e	-0.56337154
179	0xbc16df62	-0.009208532
180	0x3d3fa3dd	0.04678713
181	0x3cdc1660	0.026866138
182	0x3e406f5a	0.18792477
183	0x3e04d6d1	0.12972571
184	0x3cb839ff	0.022488592
185	0x3e569ef8	0.2095908
186	0xbb942d7c	-0.0045220237
187	0x3d88e7ad	0.06684814
188	0x3e98dc36	0.29855508
189	0xbea99aa8	-0.33125806
190	0x3eebf776	0.46087235
191	0xbd9c0475	-0.076180376
192	0xbc169106	-0.00918985
193	0x3d7468a0	0.05967009
194	0x3e8a6c3f	0.2703571
195	0xbe537a0b	-0.20652024
196	0xbeee9617	-0.46598884
197	0xbdd2c788	-0.10291964
198	0x3d20650a	0.03915886
199	0x3c2ce610	0.010552898
200	0x3df1a181	0.117983826
201	0xba9f274d	-0.001214245
202	0xbe9ff14a	-0.31238776
203	0x3e4aabdd	0.19792123
204	0x3d37033c	0.04468082
205	0x3c58dda0	0.013236433
206	0xbe1f57fb	-0.15560906
207	0x3d2b4f63	0.041823756
208	0x3d8a4f47	0.06753402
209	0xbda370b5	-0.079804815
210	0x3d2f5ca0	0.042812943
211	0x3cbb8ee9	0.022895293
212	0xbdf27b9f	-0.11839985
213	0xbe52b61b	-0.2057728
214	0x3ca5e9e3	0.020253127
215	0x3dd04429	0.101692505
216	0xbcb55edf	-0.022139965
217	0x3d8183f0	0.06323993
218	0xbdd80607	-0.105480246
219	0x3cfe585c	0.031047992
220	0x3ea87033	0.328981
221	0xbe409a1e	-0.18808791
222	0x3c03dca5	0.008048211
223	0x3d381c4b	0.044948857
224	0xbe6cd4df	-0.23128079
225	0x3ebb5235	0.36586156
226	0x3effb7b8	0.49944854
227	0xbe001a2f	-0.12509988
228	0x3d37923f	0.044817206
229	0x3c020429	0.007935562
230	0xbe850baa	-0.2598546
231	0x3ed3ec0d	0.4139103
232	0x3dc18b6f	0.09450423
233	0xbd324841	-0.043525938
234	0x3c86d4cb	0.01645889
235	0x3d2f2bd8	0.042766422
236	0x3d03d136	0.03218194
237	0x3f10ae86	0.565163
238	0xbe37fc1f	-0.1796727
239	0xbd685537	-0.056721892
240	0x3d06f2a7	0.032946255
241	0x3d0f85a4	0.03503956
242	0xbe49674a	-0.19668308
243	0xbe11596d	-0.1419427
244	0x3ee96b61	0.45589736
245	0xbe29ab93	-0.16569357
246	0xbb0a070a	-0.0021061325
247	0x3d2cdd92	0.042203493
248	0x3ed7bc6a	0.42135936
249	0xbe8b6e70	-0.27232695
250	0xbe1ec2c2	-0.15503982
251	0x3ea1436c	0.3149675
252	0x3c93ce24	0.018042631
253	0x3d2ba2c3	0.04190327
254	0x3cc97d13	0.024595773
255	0x3f544b29	0.82927185

fc1.bias f4 [400]
0	0x3e4a69fc	0.19766992
1	0x3e3be41b	0.18348734
2	0x3e690122	0.22754338
3	0xbe535abd	-0.20640083
4	0x3dbe0ee7	0.09280186
5	0x3e85aa6f	0.26106593
6	0xbd7ab6ff	-0.061209675
7	0x3e7a2e08	0.24431622
8	0x3d3f0cef	0.046643194
9	0x3e7994cf	0.24373172
10	0xbcf1256b	-0.029436788
11	0x3e81f845	0.25384727
12	0xbe2a034b	-0.16602819
13	0xbd50ea8f	-0.051004943
14	0xbd72ccc5	-0.059277315
15	0xbdce16f6	-0.10062973
16	0x3e0455d1	0.12923361
17	0x3dadc701	0.084852226
18	0x3dc4a05b	0.09600898
19	0xbdccae81	-0.099942215
20	0x3dc51340	0.09622812
21	0xbe6305a1	-0.22170116
22	0xbeb9f4f4	-0.36319697
23	0xbe0afd7c	-0.13573259
24	0x3ac6ef2a	0.0015177478
25	0x3cb19401	0.02167702
26	0x3dfc98ab	0.123338066
27	0x3de2ed5c	0.11080429
28	0x3e4bb68a	0.19893852
29	0x3ab0b392	0.001348125
30	0x3e05feb8	0.13085449
31	0x3e36eb0f	0.17863105
32	0xbbfe958b	-0.0077692918
33	0xbc1c897a	-0.009554261
34	0x3e1f71d4	0.15570766
35	0xbb193a09	-0.002338054
36	0x3df3b618	0.11899966
37	0x3ce39857	0.027782602
38	0x3da7981c	0.081833094
39	0x3d2a8282	0.04162837
40	0x3e8f9c78	0.28049064
41	0x3da4225d	0.08014367
42	0x3d1e0f24	0.038588658
43	0x3e0f238a	0.13978401
44	0x3df01d7e	0.11724375
45	0xbca6e33f	-0.020372031
46	0xbce63d25	-0.028105328
47	0x3e18e691	0.14931704
48	0xbec2da90	-0.38057375
49	0x3e59211e	0.2120404
50	0x3e3e7e09	0.18602766
51	0x3e331ba5	0.17491014
52	0x3d8d642c	0.06903872
53	0xbe0b65a6	-0.13612995
54	0xbd92d1fa	-0.07168956
55	0x3ddf13c3	0.10892441
56	0x3d8121d9	0.06305284
57	0xbcc3ecf0	-0.023916692
58	0x3d393f75	0.045226533
59	0x3e4757ae	0.19467041
60	0x3e061ea1	0.13097622
61	0x3c3e8901	0.011629344
62	0x3e304d1e	0.17216918
63	0x3dd6dd36	0.104914114
64	0x3d9fb21a	0.07797642
65	0x3e8e6499	0.27811125
66	0x3d8a79bc	0.067615
67	0x3cd0c561	0.025484743
68	0x3db52a32	0.08845939
69	0x3e89100d	0.26770058
70	0x3e339acc	0.17539519
71	0xbc7c1ba8	-0.015387453
72	0x3c47bb60	0.01219067
73	0xbc1cc8ec	-0.009569388
74	0x3d98b8e1	0.07457138
75	0x3d32d2aa	0.043657936
76	0xbcc651c9	-0.02420892
77	0x3e128312	0.14307812
78	0x3e302882	0.17202953
79	0xbc4f17a1	-0.012639911
80	0x3e0d176a	0.13778463
81	0x3e226c65	0.15861662
82	0x3cd6b4c4	0.026209243
83	0x3dce4764	0.100722104
84	0x3d62660f	0.055273112
85	0x3db8bc6d	0.09020314
86	0xbc6d897e	-0.014498113
87	0xbce0ca3a	-0.02744018
88	0x3ea3f604	0.32023633
89	0x3dfee8bc	0.12446734
90	0x3e295413	0.16535978
91	0x3d6bd2e4	0.057574168
92	0x3d5f4430	0.054508388
93	0xbb691c80	-0.0035569966
94	0x3dbc6f89	0.09200961
95	0x3e8faa06	0.28059405
96	0x3d931403	0.07181551
97	0x3e152ded	0.145683
98	0xbecd0050	-0.400393
99	0x3dc8dcb6	0.09807722
100	0x3d162fa6	0.036666535
101	0xbdc2212f	-0.094789855
102	0x3dacad3f	0.084314816
103	0x3d957845	0.0729833
104	0xbe07ea78	-0.13273036
105	0x3c8a6b33	0.01689682
106	0x3d651c46	0.055935167
107	0x3ec09cf4	0.37619746
108	0xbe4d2eb9	-0.20037355
109	0xbd0914d7	-0.03346714
110	0x3dd210dc	0.10257122
111	0x3e41031b	0.18848841
112	0x3e95976a	0.29217082
113	0x3d9636a5	0.07334641
114	0xbe5e23b7	-0.21693312
115	0xbd3bfdbf	-0.045896288
116	0xbcae27ef	-0.021259276
117	0x3d64f701	0.055899624
118	0x3df76b43	0.120810054
119	0x3e4a6858	0.19766366
120	0x3df41d32	0.11919631
121	0x3d863e2f	0.06554829
122	0x3cf0d11d	0.029396588
123	0x3d7cb3f5	0.061695058
124	0xbd42167f	-0.047384735
125	0xbd9301b8	-0.07178062
126	0xbe5292c2	-0.20563796
127	0xbddd90a0	-0.10818601
128	0x3d8bb75d	0.06822083
129	0xbbe62bb1	-0.0070242514
130	0x3d8d7276	0.06906597
131	0x3e6911a3	0.22760634
132	0x3eacd124	0.33753312
133	0x3defd696	0.11710851
134	0xbe15cb86	-0.1462842
135	0x3d863012	0.065521374
136	0x3dff6d86	0.12472062
137	0x3e0af4b8	0.13569915
138	0xba7783b7	-0.0009441929
139	0xbe8d551e	-0.27604002
140	0xbcd99858	-0.026561901
141	0x3e67ae8d	0.2262518
142	0x3e02dd89	0.12779821
143	0xbd2f08e0	-0.042733073
144	0x3dbea448	0.09308678
145	0x3e374c1d	0.17900129
146	0x3e9d6b86	0.30746096
147	0x3e9bdd00	0.30442047
148	0xbd6ef1b3	-0.05833597
149	0x3dac8b97	0.08425062
150	0xbd9bb972	-0.0760373
151	0x3e63de31	0.22252728
152	0x3e182307	0.14857112
153	0xbc72ab2c	-0.014811318
154	0x3ebc0dad	0.36729184
155	0x3d1fee1f	0.03904545
156	0x3dfff28c	0.12497434
157	0xbeb1c948	-0.34723878
158	0xbe8a83fc	-0.2705382
159	0x3e871804	0.2638551
160	0xbd9a1e86	-0.07525353
161	0x3e0ad0b1	0.13556172
162	0xbb988c68	-0.0046554096
163	0x3dbc1542	0.09183742
164	0x3dbfff81	0.093749054
165	0xbd98761a	-0.07444401
166	0x3dd04534	0.101694494
167	0x3e826054	0.25464118
168	0xbc5ae7dc	-0.013360944
169	0xbd64715b	-0.055772167
170	0x3ec45b40	0.38350868
171	0x3de68b7e	0.11257075
172	0x3daeef03	0.085416816
173	0x3e1f4582	0.15553859
174	0x3e46de10	0.19420648
175	0xbdff5c1f	-0.124687426
176	0x3df13ec1	0.117795475
177	0x3ec49fbd	0.3840312
178	0x3e12e818	0.14346349
179	0x3e6b205a	0.2296156
180	0x3dfa5dc7	0.12224918
181	0xbdcaee3d	-0.099087216
182	0x3dea2e85	0.11434654
183	0x3e6a5012	0.22882107
184	0xbc9c6fea	-0.019096334
185	0x3dd98755	0.10621516
186	0xbea2b98c	-0.31782186
187	0x3de7c71d	0.11317275
188	0xba8af9b6	-0.0010602984
189	0x3e767c70	0.24070907
190	0xbe3bd13c	-0.18341535
191	0x3c096571	0.008386002
192	0x3d9e5e31	0.07732809
193	0xbcf08185	-0.029358635
194	0xbd4d8cc4	-0.050183073
195	0x3da9f7d0	0.082992196
196	0x3e4dc348	0.20094025
197	0xbed26052	-0.41089112
198	0x3ddc3b30	0.107534766
199	0x3dc1388a	0.09434612
200	0xbde6abeb	-0.112632595
201	0x3dcdd7fa	0.1005096
202	0xbe0d29bd	-0.13785453
203	0x3da3ac3e	0.07991837
204	0x3e326bef	0.17423986
205	0xbe79df3b	-0.24401562
206	0x3e47ea95	0.1952308
207	0x3e46afb4	0.19402963
208	0xbe1b4cf8	-0.1516608
209	0xbd90ab4b	-0.070639215
210	0xbd7fd2a2	-0.062456734
211	0x3ebaaf0c	0.36461675
212	0xbda38de4	-0.07986048
213	0xbe108139	-0.14111795
214	0x3e492104	0.196415
215	0x3de3f261	0.111302145
216	0x3e5ce3c0	0.21571255
217	0xbe63477d	-0.2219524
218	0xbe279e4b	-0.16368978
219	0xbc52c7e8	-0.012865044
220	0xbdc96553	-0.09833779
221	0x3e5034b6	0.20332608
222	0x3d6455d9	0.055745933
223	0xbc54afb8	-0.012981348
224	0x3e0651f4	0.131172
225	0xbd913a1f	-0.07091164
226	0xbd03e112	-0.032197066
227	0x3e4bb7d9	0.19894351
228	0x3e4068d9	0.18789996
229	0x3e3aa5f5	0.1822737
230	0x3d9ecd73	0.0775403
231	0xbcc290f2	-0.023750756
232	0x3e5f57f2	0.21810892
233	0xbe1b0e25	-0.15142114
234	0x3bcb495b	0.006203813
235	0xbe9e8de1	-0.3096762
236	0x3d0c0a27	0.03418937
237	0xbe2bbd29	-0.16771378
238	0x3e0d95eb	0.1382672
239	0x3ceb790d	0.028744245
240	0xb9a64df8	-0.0003172008
241	0x3d1fc86c	0.039009497
242	0x3d0e5268	0.034746557
243	0x3e89e1ef	0.26930186
244	0x3d803f89	0.06262118
245	0x3ddd2870	0.107987285
246	0x3d0038cf	0.031304177
247	0x3e4c8ac6	0.19974813
248	0xbd4e1984	-0.050317302
249	0xbd8c445b	-0.06848975
250	0x3e28a6c1	0.16469862
251	0x3ea2c251	0.31788877
252	0x3d83db2f	0.0643829
253	0x3e8e43c9	0.2778609
254	0x3e18de69	0.14928593
255	0x3e17461e	0.14772841

fc2.weight f4 [300, 400]
0	0x3da38d7f	0.079859726
1	0x3d7117fb	0.05886076
2	0x3c11d30f	0.008900418
3	0xbd69c60d	-0.05707364
4	0x3da86268	0.082218945
5	0x3e14783a	0.14498988
6	0xbbff2963	-0.007786916
7	0xbcda158f	-0.026621608
8	0x3da2cb6d	0.07948957
9	0x3e0b876e	0.13625881
10	0x3dc21214	0.094761044
11	0x3d8ee64c	0.069775194
12	0xbcb1df21	-0.021712841
13	0xbc607925	-0.013700758
14	0x3d1f4d8d	0.038892318
15	0x3c89fd44	0.0168444
16	0x3d437f14	0.047728613
17	0x3d2dab38	0.042399615
18	0xbbdfd5e9	-0.00683092
19	0x3cf7d86c	0.030254565
20	0x3cccf5a8	0.025019482
21	0xbc45dea9	-0.012077012
22	0x3da9cf45	0.08291487
23	0xbb8b4302	-0.0042499313
24	0x3d49e799	0.049293134
25	0xbd3daa4f	-0.046304997
26	0xbcd5e3d2	-0.02610961
27	0x3c9378ef	0.018002002
28	0xbc9c868a	-0.019107122
29	0x3cf30882	0.029667143
30	0x3ddc19f2	0.10747136
31	0xbda18af4	-0.07887831
32	0xbd11d9a0	-0.035607934
33	0xbb358b5a	-0.0027701468
34	0xbb47995e	-0.0030456404
35	0x3d818cba	0.063256696
36	0xbd3ce184	-0.046113506
37	0x3d82e85a	0.06391974
38	0xbc235605	-0.009969239
39	0x3c1c6a9e	0.009546904
40	0x3d5a31d4	0.053270176
41	0x3d849f10	0.06475651
42	0x3d991dd7	0.074763946
43	0xbd00b73b	-0.031424742
44	0x3df68255	0.120365776
45	0x3c166607	0.009179599
46	0x3d3ae29b	0.045626264
47	0x3c8e752e	0.01738986
48	0xbd79f678	-0.061026067
49	0x3de0ec15	0.10982529
50	0x3d589b35	0.052882392
51	0xbd86ed03	-0.06588175
52	0x3dcb5ea6	0.09930162
53	0x3d81ea5f	0.06343531
54	0x3e14e2f4	0.14539701
55	0x3e964853	0.29352054
56	0x3cc0fae3	0.023557132
57	0xbca43080	-0.020042658
58	0x3e225195	0.15851434
59	0x3df6d517	0.120523624
60	0x3d17c449	0.037052426
61	0x3c3dca0c	0.011583816
62	0xbbf39ccc	-0.007434463
63	0x3c517e5a	0.012786472
64	0x3d6481f3	0.05578799
65	0x3e0d8198	0.13818967
66	0x3d563e68	0.05230561
67	0xbd509e21	-0.050932053
68	0x3b431d06	0.0029771938
69	0x3ceb0954	0.028690971
70	0x3d2fc892	0.042915888
71	0xbd44b0f7	-0.04802033
72	0xbd285a82	-0.04110194
73	0x3da90520	0.08252931
74	0x3db1fad6	0.08690421
75	0x3cbc9293	0.02301911
76	0xbb070b77	-0.0020606199
77	0x3dafac44	0.08577779
78	0xbd91b020	-0.07113671
79	0x3bcb2fae	0.006200752
80	0xbd1f4590	-0.0388847
81	0x3d6ca3cc	0.057773396
82	0xbbd42cfb	-0.0064750887
83	0x3e2bb13c	0.16766828
84	0x3b20c11a	0.002452916
85	0xbd2d1301	-0.04225445
86	0xbcb07e22	-0.02154452
87	0x3c8741cf	0.016510872
88	0x3d864401	0.065559395
89	0x3c90c6f1	0.017672988
90	0x3da23b1b	0.0792143
91	0x3b8c8a1c	0.004288925
92	0xbc78f422	-0.015194925
93	0x3da8ba5e	0.08238672
94	0x3d72d4a0	0.059284806
95	0x3d7f480e	0.062324576
96	0xbc37eed1	-0.011226372
97	0x3d998773	0.07496538
98	0xbd57edbc	-0.052716956
99	0x3e048009	0.12939467
100	0xbcf21bfc	-0.02955436
101	0x3d9288d5	0.07155005
102	0xbd54d0a3	-0.051956784
103	0x3d95a98d	0.0730773
104	0x3e57cb2d	0.21073599
105	0x3d93dcd1	0.07219852
106	0x3d09dd08	0.033658057
107	0xbc88da40	-0.016705632
108	0x3d13e147	0.036103513
109	0xbcb72618	-0.022357032
110	0x3d8b773b	0.06809851
111	0x3d844833	0.064590834
112	0x3d9ff2bf	0.07809972
113	0x3dc51842	0.096237674
114	0x3da755b7	0.08170646
115	0x3b40cc82	0.002941877
116	0xbc256499	-0.010094785
117	0x3dc6cb7f	0.097067825
118	0x3cfd24af	0.030901281
119	0x3d952d42	0.07284023
120	0x3e488b28	0.19584334
121	0xbbd4b56b	-0.0064913533
122	0xbc78ca95	-0.015185018
123	0xbddd04d2	-0.10791935
124	0x3d5a62c0	0.05331683
125	0x3dad3409	0.084571905
126	0xbd801b8d	-0.06255255
127	0x3dd9fc93	0.10643878
128	0x3debcf83	0.11514189
129	0x3bd0acec	0.00636827
130	0xbce8053b	-0.028322807
131	0xbc103e51	-0.00880392
132	0x3e175c7e	0.14781377
133	0x3dab391d	0.08360503
134	0xbdabdac4	-0.083913356
135	0xbd03ade1	-0.032148246
136	0x3e10065b	0.14064924
137	0x3df8e44a	0.12152918
138	0x3d443a10	0.047906935
139	0x3a4c9614	0.0007804346
140	0xbd2a3459	-0.04155383
141	0x3d8aaff0	0.06771839
142	0xbe0628bc	-0.13101476
143	0x3dc2d3f9	0.09513087
144	0x3b2243f0	0.0024759732
145	0x3df7e8fb	0.121049844
146	0x3cb591f4	0.022164322
147	0x3dc3186f	0.09526145
148	0x3d2194e1	0.039448623
149	0xbb196fb9	-0.002341254
150	0x39a548d5	0.00031525517
151	0x3d8cbcf2	0.06871976
152	0x3dcff521	0.101541765
153	0x3d752222	0.059847005
154	0x3db12292	0.08649172
155	0x3e238b6f	0.15971158
156	0x3e2ccd5b	0.16875212
157	0xbd5cf351	-0.053942982
158	0x3d01d4cd	0.031697083
159	0x3db77935	0.08958665
160	0x3bdf0b4f	0.006806768
161	0xbc9a04e3	-0.018801158
162	0x3e00ce1a	0.12578622
163	0x3d24ef6b	0.04026739
164	0x3d5ce78e	0.053931765
165	0x3bc8eca7	0.006131727
166	0xbcc155c5	-0.023600468
167	0x3e027612	0.12740353
168	0x3de78680	0.11304951
169	0x3d33c842	0.043892153
170	0x3dec591c	0.11540434
171	0x3d7ef72b	0.062247436
172	0xbcb05922	-0.021526877
173	0xbc504a15	-0.012712975
174	0x3e524900	0.2053566
175	0x3c97ed4c	0.01854577
176	0xbbac364c	-0.005255496
177	0xbc0859a0	-0.0083221495
178	0xbd8bfd4b	-0.06835421
179	0xbd1d7328	-0.0384399
180	0xbcec2738	-0.028827295
181	0xbdc1187d	-0.09428499
182	0x3daedd2c	0.08538279
183	0x3e0aaa64	0.13541561
184	0x3da438a8	0.08018619
185	0x3e8ebe26	0.27879447
186	0xbc4c5e25	-0.012473618
187	0x3cd7e585	0.02635456
188	0x3d8b12df	0.06790709
189	0xbd1688f7	-0.036751714
190	0x3dc43b29	0.095815964
191	0xbdb125b9	-0.08649773
192	0x3be00b2f	0.0068372707
193	0xbd056491	-0.03256661
194	0x3d9b3b07	0.07579618
195	0x3c47c4a5	0.01219288
196	0x3dd9666f	0.10615241
197	0x3da1110d	0.0786458
198	0x3e356753	0.17715196
199	0x3d2b6d38	0.041852206
200	0x3d4f68a1	0.05063689
201	0x3def2a8b	0.11678036
202	0xbb81daa0	-0.0039628297
203	0xbe10ba2e	-0.14133522
204	0x3dd4f4b9	0.1039824
205	0x3d84d7de	0.06486486
206	0x3d2be327	0.041964676
207	0xbcf35c29	-0.029707031
208	0xbc8e8d6b	-0.017401418
209	0x3db7f3c4	0.089820415
210	0xbcad76d1	-0.02117482
211	0x3ca17d2e	0.01971301
212	0x3d6a6bf6	0.057231866
213	0x3ca15207	0.019692434
214	0x3dac4ecc	0.08413467
215	0x3dec0cef	0.115259044
216	0xbc5f88d3	-0.013643461
217	0x3cd86d26	0.026419234
218	0x3dee3ddf	0.11632895
219	0x3d353b19	0.044245813
220	0x3c4149ea	0.011797408
221	0x3d3db711	0.046317164
222	0x3cad4e41	0.021155478
223	0x3c2dd138	0.010608964
224	0x3d9f2de5	0.077724256
225	0x3d89222e	0.066959724
226	0x3da1d5dd	0.07902119
227	0x3e1d1c34	0.1534279
228	0x3d25eb81	0.040507797
229	0x3df8741d	0.12131522
230	0x3d58ea19	0.052957628
231	0xbc8d99b1	-0.0172852
232	0x3c8665b7	0.016405923
233	0xbd3e9dd4	-0.046537235
234	0x3dc8d447	0.09806114
235	0x3d0db9ce	0.034601025
236	0x3b61cd46	0.0034454628
237	0x3d406b4d	0.04697733
238	0x3dc5cf42	0.09658672
239	0x3df308f5	0.11866943
240	0x3e7524a2	0.23939756
241	0x3e45d02e	0.19317695
242	0x3ddf116c	0.10891995
243	0x3d90da5b	0.07072898
244	0xbd44a214	-0.048006132
245	0x3b9408f1	0.0045176675
246	0x3dd9428f	0.10608398
247	0x3d736854	0.059425667
248	0xbd6c2902	-0.057656296
249	0x3df09b6c	0.11748394
250	0x3dabedbf	0.08394956
251	0x3dbd9a08	0.09257895
252	0x3c27cdef	0.0102419695
253	0x3def19dc	0.11674854
254	0x3d8a656a	0.067576244
255	0x3d83eddf	0.06441855

fc2.bias f4 [300]
0	0x3d36901b	0.044571023
1	0x3d921749	0.071333475
2	0xbcf4c8cc	-0.029880904
3	0x3e034eb0	0.12822986
4	0x3d54ab50	0.05192119
5	0x3d53e045	0.051727552
6	0x3cd5bd5c	0.02609127
7	0x3df6953d	0.12040184
8	0x3c7bf859	0.015379035
9	0xbcecb6d8	-0.02889578
10	0x3dc79c16	0.09746568
11	0x3d47f34b	0.048816007
12	0x3b06edc5	0.00205885
13	0x3dc50224	0.09619549
14	0x3cbc61f0	0.022995919
15	0x3c315121	0.010822565
16	0x3ad19ad2	0.0015991575
17	0x3dfc79a8	0.123278916
18	0x3db661b9	0.08905358
19	0x3ca97f44	0.020690568
20	0x3d8f5197	0.06997984
21	0x3d60b268	0.05485764
22	0x3dc394ee	0.095498905
23	0xbd58c960	-0.05292642
24	0x3cb07681	0.021540882
25	0x3d9fb69b	0.07798501
26	0x3d9863d9	0.074409194
27	0x3dae5111	0.08511556
28	0x3d94a122	0.07257296
29	0x3d7412d5	0.059588272
30	0x3d8c605e	0.06854318
31	0x3bf3fd2e	0.007445953
32	0x3d0ccfba	0.03437779
33	0x3ca2317e	0.01979899
34	0x3d917fc5	0.07104448
35	0x3d415c16	0.04720696
36	0x3ccdca03	0.02512074
37	0x3cdf747e	0.027277227
38	0xbc361e0c	-0.011115562
39	0xbc6f9c92	-0.014624732
40	0xbc99434c	-0.018708847
41	0xb9e2c14f	-0.00043250105
42	0x3d9a6559	0.07538862
43	0x3d1346d1	0.035956208
44	0x3ce3cf76	0.027808886
45	0xbd4ae9b9	-0.0495393
46	0x3c7fbc3c	0.015608843
47	0xbcaccf3e	-0.021094915
48	0x3d9857f0	0.07438648
49	0x3d954348	0.072882235
50	0x3d08b041	0.033371214
51	0x3d13e49c	0.03610669
52	0x3d8ee6d8	0.06977624
53	0x3d2d5f13	0.042326998
54	0x3d06a72c	0.03287427
55	0x3d969e7d	0.07354448
56	0xbd3c5a1b	-0.04598437
57	0x3d376e48	0.044782907
58	0x3d3e0829	0.0463945
59	0x3d7310c7	0.059342172
60	0x3c5e2347	0.013558215
61	0x3b82cc2c	0.0039916243
62	0x3da0dfb0	0.07855165
63	0x3d81ce71	0.06338204
64	0xbd09127c	-0.033464894
65	0x3d5cc443	0.053898107
66	0xbbf6db7c	-0.007533489
67	0x3cc00bb9	0.02344309
68	0x3b700aea	0.00366276
69	0x3d751a90	0.059839785
70	0x3cde03ab	0.027101358
71	0x3b9f7492	0.004866191
72	0xbce81be5	-0.028333614
73	0x3d4be5d8	0.049779743
74	0xbccf6213	-0.02531532
75	0x3d623a4d	0.05523138
76	0x3d21fa97	0.03954562
77	0xbc8d2a76	-0.017232161
78	0x3b4e837a	0.0031511472
79	0x3d55ff6c	0.052245542
80	0x3d91d456	0.07120578
81	0x3c90fba9	0.017698126
82	0x3a8f9097	0.0010953125
83	0x3dac7f07	0.08422666
84	0xbc9d2bc8	-0.019185916
85	0x3c26868e	0.010163916
86	0x3c5d5e9f	0.013511329
87	0x3cc197fe	0.023632046
88	0x3d4443ec	0.047916338
89	0x3d3b701e	0.04576122
90	0x3cd3de86	0.025862943
91	0x3d084568	0.033269316
92	0x3bdf80ca	0.006820773
93	0x3c7ff350	0.015621975
94	0x3ce5d0d0	0.028053671
95	0x3c64e2aa	0.013970057
96	0x3d2e9b97	0.04262885
97	0x3dcd313f	0.100191586
98	0xbb384b2b	-0.0028120975
99	0x3d48c57d	0.049016465
100	0xbb2069e7	-0.0024477185
101	0x3dd0b015	0.10189835
102	0x3d18dfc8	0.03732279
103	0x3d648b2d	0.05579679
104	0xbaf9261c	-0.001900855
105	0x3cfc10b3	0.030769682
106	0x3d6ed1c0	0.058305502
107	0x3c0e823f	0.008698045
108	0xbcc75121	-0.024330677
109	0x3ce950c7	0.0284809
110	0x3d92c5dc	0.07166645
111	0xbcd50d6d	-0.026007378
112	0x3cf623ad	0.030046308
113	0x3d16f127	0.036851075
114	0x3a3462b5	0.00068811636
115	0x3d4a4308	0.049380332
116	0x3d1781b9	0.036988948
117	0x3d182594	0.037145212
118	0x3b50cfca	0.0031862133
119	0x3bb2f1ab	0.005460938
120	0x3bc6f54b	0.0060717217
121	0x3cc1d8f5	0.023663023
122	0x3d22acc8	0.03971556
123	0x3da75bcd	0.081718065
124	0x3d3b5b7b	0.04574154
125	0x3db4c9e2	0.088275686
126	0x3d044877	0.03229567
127	0x3ad8aca9	0.0016530949
128	0xbcb2dac7	-0.021832837
129	0xb9ab8ad6	-0.00032719102
130	0x3bea4d45	0.0071503245
131	0x3de4fbd7	0.11180847
132	0x3d0d9098	0.034561723
133	0x3cf5cc36	0.030004602
134	0x3d3eb0d5	0.04655536
135	0x3d8735d5	0.066020645
136	0x3c737678	0.014859788
137	0x3cb99dcf	0.022658257
138	0xbcb086bf	-0.021548627
139	0x3d9b649a	0.075875476
140	0x3d0b3327	0.03398433
141	0x3d991e01	0.07476426
142	0x3cd2af22	0.025718275
143	0xbc9a200a	-0.018814106
144	0x3da26c4f	0.079308145
145	0x3cfbf2a6	0.030755352
146	0x3d1d519d	0.03840791
147	0xbaa0aa89	-0.0012257855
148	0x3d48293b	0.048867445
149	0x3b58d385	0.003308506
150	0x3d2a3dfa	0.04156301
151	0x3dc4c9ef	0.09608828
152	0xbd34abaf	-0.044109043
153	0x3d8bae6e	0.06820379
154	0xb9e75584	-0.00044123468
155	0x3df654a4	0.12027863
156	0x3ca1ea28	0.019764975
157	0x3d5e9bb6	0.054347716
158	0xb9e7da7d	-0.0004422254
159	0x3db49b48	0.0881868
160	0x3db7d49a	0.089760974
161	0x3bea4fb2	0.0071506137
162	0x3d1e7eb8	0.038695067
163	0x3d83457e	0.06409739
164	0x3c8c1dca	0.017104048
165	0xbd1b2d8b	-0.03788523
166	0xbd0d0bf8	-0.034435242
167	0x3d4643cb	0.048404496
168	0x3c50c592	0.012742417
169	0x3d1f70eb	0.038926046
170	0xbc14fda8	-0.0090936795
171	0x3cda9941	0.026684405
172	0x3da89c75	0.08232967
173	0x3d1abc29	0.0377771
174	0x3d93d8f0	0.07219112
175	0x3d26af04	0.04069425
176	0x3d427f07	0.047484424
177	0x3b9c9942	0.004779012
178	0x3d8d72d2	0.06906666
179	0x3d3d3b9b	0.046199422
180	0x3cc94603	0.024569517
181	0x3d84c346	0.06482558
182	0x3b3f2596	0.002916669
183	0x3d856c06	0.065147445
184	0x3d1c81d9	0.03820977
185	0x3c928361	0.017884912
186	0xbb7b3632	-0.0038331863
187	0x3cf3c250	0.029755741
188	0x3d9e548a	0.07730968
189	0x3d943176	0.072359964
190	0x3dabbe51	0.08385909
191	0x3d989ebc	0.07452151
192	0x3cb8c1b3	0.0225533
193	0x3c89142a	0.016733248
194	0x3d983805	0.0743256
195	0x3b999b6c	0.004687717
196	0x3c9753f0	0.018472642
197	0xbc23e830	-0.010004088
198	0x3d94f58e	0.07273398
199	0x3d880a8b	0.06642636
200	0xbc8d8575	-0.017275551
201	0xbba23ee2	-0.004951344
202	0x3c1f47f0	0.009721741
203	0xbcad054c	-0.02112069
204	0x3cff36f4	0.031154133
205	0x3da080a3	0.078370355
206	0x3cc8c39e	0.02450734
207	0x3d22140e	0.039569907
208	0x3d36ae5d	0.04459988
209	0x3d80dd53	0.06292214
210	0xbc3cb2fd	-0.0115172835
211	0x3de304ba	0.11084886
212	0xbc378204	-0.011200432
213	0x3d0ea601	0.034826282
214	0x3bfcc9a3	0.0077144667
215	0x3da1434c	0.07874164
216	0x3d69f990	0.057122767
217	0x3d69e4fa	0.057103135
218	0x3d289426	0.04115691
219	0xbcd40a36	-0.025883775
220	0x3c2c61d4	0.010521371
221	0x3d429687	0.047506835
222	0x3deed7b7	0.11662238
223	0x3dc8485c	0.097794265
224	0x3d592735	0.053015906
225	0x3ca745aa	0.02041896
226	0x3c41501a	0.011798883
227	0x3d7a40fb	0.061097126
228	0xbc33d32f	-0.010975643
229	0x3bbd1b96	0.0057711108
230	0x3d8ce453	0.06879487
231	0xbc522d41	-0.012828172
232	0x3d96c2db	0.073613845
233	0x3c0a025c	0.008423414
234	0x3d3b6bde	0.045757167
235	0x3c4d31f0	0.012524113
236	0x3d0f8b40	0.03504491
237	0x3d00f414	0.03148277
238	0x3d9eb351	0.07749046
239	0x3c3e26cd	0.0116059305
240	0x3d9ee269	0.07758028
241	0x3da881dc	0.08227894
242	0x3cfcc864	0.030857272
243	0xbcd36ba1	-0.025808157
244	0x3da16d91	0.07882226
245	0x3d4daaf3	0.050211858
246	0x3d81c8ce	0.063371286
247	0x3dbaff5f	0.091307394
248	0x3d1c31c0	0.038133383
249	0x3cf0389e	0.029323872
250	0x3d918841	0.071060665
251	0x3d856b8a	0.06514652
252	0xbc101e87	-0.008796341
253	0x3d2d19d9	0.04226098
254	0x3d4fbbaa	0.05071608
255	0xbb96bde7	-0.004600275

bn1.weight f4 [400]
0	0x3f6b1312	0.91825974
1	0x3f78c229	0.97171265
2	0x3f7cc50d	0.98738176
3	0x3f862bd7	1.0482129
4	0x3f8a31da	1.0796463
5	0x3f90977f	1.1296233
6	0x3f737733	0.9510376
7	0x3f84ba7b	1.0369409
8	0x3f96f0b3	1.1792206
9	0x3f8b58f7	1.0886525
10	0x3f91b3b9	1.1382972
11	0x3f750a0c	0.95718455
12	0x3f4d0075	0.8007882
13	0x3f5f47d5	0.8721898
14	0x3f8bdbab	1.0926412
15	0x3f87ee5e	1.0619619
16	0x3f75445b	0.9580743
17	0x3f83914b	1.0278715
18	0x3f615408	0.88018847
19	0x3f8a3f2f	1.0800532
20	0x3f70d2e1	0.94071776
21	0x3f949167	1.1606873
22	0x3f85bb0b	1.0447706
23	0x3f8648b6	1.049094
24	0x3f7ae347	0.9800305
25	0x3f6f9a90	0.9359522
26	0x3f877fc7	1.058587
27	0x3f8eae05	1.1146857
28	0x3f7d1429	0.98858887
29	0x3f83a8b7	1.0285863
30	0x3f8a4964	1.0803647
31	0x3f8e982a	1.1140187
32	0x3f9075dd	1.1285969
33	0x3f834982	1.0256808
34	0x3f5f2c55	0.8717702
35	0x3f7163d7	0.9429297
36	0x3f9aab8f	1.2083606
37	0x3f800d0b	1.000398
38	0x3f7c0796	0.98449075
39	0x3f9335eb	1.150083
40	0x3f798cb2	0.9748031
41	0x3f9bfebc	1.2187114
42	0x3f80c31f	1.0059546
43	0x3f8ee4d5	1.1163584
44	0x3f7c7c37	0.98627037
45	0x3f70b1f7	0.9402155
46	0x3f810122	1.0078471
47	0x3f800319	1.0000945
48	0x3f8ae996	1.0852535
49	0x3f7bfc38	0.9843173
50	0x3f5cc111	0.86232096
51	0x3f8d4640	1.1037064
52	0x3f6de913	0.9293377
53	0x3f7f857c	0.99813056
54	0x3f799324	0.97490144
55	0x3fa11d4c	1.2587066
56	0x3f93dfb7	1.1552647
57	0x3f5b756e	0.8572606
58	0x3f83a4ad	1.028463
59	0x3f8b6e0e	1.0892961
60	0x3f70f887	0.9412922
61	0x3f8b8b4b	1.0901884
62	0x3f90c6ec	1.1310706
63	0x3f919bf2	1.1375716
64	0x3f739513	0.95149344
65	0x3f7d294d	0.98891145
66	0x3f902463	1.1261104
67	0x3f910ae2	1.1331446
68	0x3f933508	1.1500559
69	0x3f80b59d	1.0055424
70	0x3f71fd3b	0.94527024
71	0x3f96af0a	1.1772168
72	0x3f8d7039	1.1049873
73	0x3f826471	1.0186902
74	0x3f8931dc	1.0718341
75	0x3f50db95	0.81585056
76	0x3f6969ea	0.9117724
77	0x3f92cd26	1.1468856
78	0x3f866da4	1.050221
79	0x3f8c5c76	1.0965717
80	0x3f97e2e6	1.1866119
81	0x3f91778e	1.136461
82	0x3f83d310	1.0298786
83	0x3f90155e	1.1256521
84	0x3f6c8cc4	0.9240229
85	0x3f80cc4d	1.0062348
86	0x3f91b2d5	1.13827
87	0x3f808180	1.003952
88	0x3f718a52	0.94351685
89	0x3f6dd81f	0.929079
90	0x3f6103eb	0.87896603
91	0x3f8457bd	1.0339276
92	0x3f67b5c0	0.90511703
93	0x3f91dc16	1.139529
94	0x3f765dbc	0.9623678
95	0x3f9a55f5	1.2057482
96	0x3f90a544	1.1300435
97	0x3fa79815	1.3093287
98	0x3f99c91c	1.2014499
99	0x3f694808	0.91125536
100	0x3f88943a	1.0670235
101	0x3f847386	1.0347755
102	0x3f8bf044	1.0932698
103	0x3f8389bd	1.0276409
104	0x3f9ec585	1.2404028
105	0x3f92b815	1.1462427
106	0x3f7c2e42	0.98508084
107	0x3fa1146e	1.258436
108	0x3f9419d6	1.1570385
109	0x3f6c274d	0.9224747
110	0x3f6a96cd	0.91636354
111	0x3f8fc030	1.1230526
112	0x3f8f67ba	1.120353
113	0x3f7dda31	0.9916106
114	0x3f6171cb	0.8806426
115	0x3f86b9bc	1.0525432
116	0x3f96e2c1	1.178795
117	0x3f80105d	1.0004994
118	0x3f94e31b	1.1631807
119	0x3f82184e	1.0163667
120	0x3fa7cc67	1.3109254
121	0x3f7edb23	0.99553126
122	0x3f83774f	1.0270785
123	0x3fa4d6ee	1.2878091
124	0x3f4f2f20	0.8093128
125	0x3f91d93f	1.1394423
126	0x3f8125e0	1.0089684
127	0x3f914663	1.1349605
128	0x3f8f8d10	1.1214924
129	0x3fa39ec5	1.2782828
130	0x3f832dfa	1.0248406
131	0x3f870a06	1.0549934
132	0x3f86009b	1.0468935
133	0x3f6726b3	0.90293425
134	0x3f9b9faf	1.2158107
135	0x3f99f1b3	1.2026886
136	0x3f5d290a	0.86390746
137	0x3f9bb112	1.2163413
138	0x3f9ea6ae	1.2394617
139	0x3f9a88b6	1.2072971
140	0x3f90daea	1.1316807
141	0x3f86f709	1.0544139
142	0x3f90bdbf	1.1307906
143	0x3f8b8bd5	1.0902048
144	0x3f739288	0.95145464
145	0x3fafcd06	1.3734443
146	0x3f78b523	0.9715139
147	0x3f80b1c2	1.0054247
148	0x3f7a479a	0.97765505
149	0x3fa043e1	1.2520715
150	0x3f6ef47a	0.9334179
151	0x3f810325	1.0079085
152	0x3f9646eb	1.1740392
153	0x3f5c86d4	0.8614323
154	0x3f6f0078	0.9336009
155	0x3f659df5	0.8969415
156	0x3f85f93e	1.0466688
157	0x3f890d57	1.0707196
158	0x3f791f5f	0.97313493
159	0x3f626e46	0.88449514
160	0x3f8a7417	1.0816678
161	0x3f9303fc	1.1485591
162	0x3fa4923c	1.2857127
163	0x3f911e21	1.133732
164	0x3f8b0f3a	1.0864022
165	0x3f77064e	0.96493995
166	0x3f9d6466	1.2296264
167	0x3f85f5af	1.0465602
168	0x3f859281	1.0435334
169	0x3f73d3e0	0.9524517
170	0x3f5cc57f	0.86238855
171	0x3f80b180	1.0054169
172	0x3f9adcdf	1.2098655
173	0x3f831481	1.0240632
174	0x3fa5de0b	1.2958387
175	0x3f813742	1.0094988
176	0x3f55eb93	0.8356258
177	0x3f731050	0.94946766
178	0x3f8ca0f5	1.098662
179	0x3f697141	0.91188437
180	0x3f9801dd	1.1875569
181	0x3f9865b9	1.1906043
182	0x3f9526c4	1.1652455
183	0x3f864961	1.0491143
184	0x3f907a87	1.1287392
185	0x3fa76f8d	1.3080918
186	0x3f985e23	1.1903728
187	0x3f876cab	1.0580038
188	0x3f98574a	1.1901639
189	0x3f8c56c1	1.0963975
190	0x3f893850	1.072031
191	0x3f8abbdb	1.0838579
192	0x3f5ff7fa	0.8748776
193	0x3f8db363	1.107037
194	0x3f89d8dc	1.0769305
195	0x3f80da9f	1.0066718
196	0x3fa59718	1.2936735
197	0x3f9acd5a	1.2093918
198	0x3f902115	1.1260096
199	0x3f81112e	1.0083368
200	0x3f6c3f2e	0.92283905
201	0x3f900243	1.125069
202	0x3f7b022c	0.9805019
203	0x3f8bed68	1.0931826
204	0x3f7db0d8	0.9909797
205	0x3f919668	1.1374025
206	0x3f7b52d9	0.9817329
207	0x3f876913	1.0578941
208	0x3f814e8e	1.0102098
209	0x3f8ece96	1.1156795
210	0x3f782263	0.9692747
211	0x3f84d70b	1.0378126
212	0x3f85867f	1.043167
213	0x3f885270	1.0650158
214	0x3f853747	1.0407494
215	0x3f5e8b81	0.86931616
216	0x3f5d4a7d	0.86441785
217	0x3f841d94	1.0321527
218	0x3f8e03de	1.109493
219	0x3f8686f1	1.0509931
220	0x3f8a44b9	1.0802222
221	0x3f7a7d5e	0.97847545
222	0x3f8cb309	1.0992137
223	0x3f70670b	0.9390723
224	0x3f8377db	1.0270952
225	0x3f7ad90a	0.97987425
226	0x3f9b318c	1.2124496
227	0x3f863265	1.0484129
228	0x3f5e9f78	0.8696208
229	0x3f951ddd	1.1649739
230	0x3f8cf469	1.1012088
231	0x3f8ea088	1.114274
232	0x3f84bb6f	1.03697
233	0x3f838c09	1.027711
234	0x3f96a561	1.176922
235	0x3f95bd04	1.1698308
236	0x3f7bd9e4	0.9837935
237	0x3f862b40	1.0481949
238	0x3f7d396b	0.9891574
239	0x3f9260f0	1.1435833
240	0x3f8d2148	1.1025782
241	0x3f926fe8	1.1440401
242	0x3f9b52e5	1.2134672
243	0x3f898e82	1.0746615
244	0x3f8fb465	1.1226927
245	0x3fb0d73e	1.3815687
246	0x3f8fceab	1.1234945
247	0x3f784776	0.9698404
248	0x3f921080	1.1411285
249	0x3f93cb08	1.1546335
250	0x3f6d551e	0.92708004
251	0x3f87ca6f	1.0608653
252	0x3f85ec84	1.0462804
253	0x3f905393	1.1275505
254	0x3f6b1498	0.918283
255	0x3f93d381	1.1548921

bn1.bias f4 [400]
0	0xbe040920	-0.12894106
1	0xbdf543ae	-0.119757995
2	0xbdd30d85	-0.10305313
3	0xbde4e09b	-0.111756526
4	0xbd3232fd	-0.043505657
5	0xbcfea86c	-0.03108617
6	0xbe049aa9	-0.12949623
7	0xbdd07987	-0.101794295
8	0xbcd267a3	-0.025684183
9	0xbdfcfcba	-0.12352891
10	0xbba33c97	-0.004981588
11	0xbddd8e52	-0.10818161
12	0xbe62dd15	-0.22154649
13	0xbdb15f4f	-0.08660757
14	0xbe09cf29	-0.13457932
15	0xbd94be86	-0.07262902
16	0xbdfd427e	-0.12366198
17	0xbdda3512	-0.106546536
18	0xbe18fc6a	-0.14940038
19	0xbd92634e	-0.07147847
20	0xbdf2b985	-0.11851791
21	0xba264595	-0.0006342766
22	0xbd9d3f5b	-0.076781
23	0xbd82e9a1	-0.063922174
24	0xbe23c4c8	-0.15993035
25	0xbdb96608	-0.09052664
26	0xbdbe0198	-0.09277648
27	0xbd91087d	-0.07081697
28	0xbe00b328	-0.12568343
29	0xbdb4b451	-0.08823455
30	0xbce66274	-0.028123118
31	0xbc809599	-0.015696334
32	0xbd77529c	-0.060381517
33	0xbd7e23f0	-0.06204599
34	0xbdfa621a	-0.12225743
35	0xbdf692fc	-0.12039754
36	0xbc200bb6	-0.009768417
37	0xbd657e3a	-0.056028582
38	0xbdc5a1c5	-0.09649996
39	0xbcf24aec	-0.029576741
40	0xbdc945c1	-0.098277576
41	0xbcb9adae	-0.022665825
42	0xbe12814a	-0.14307132
43	0xbd4a7d05	-0.049435634
44	0xbd921183	-0.07132246
45	0xbe00bb30	-0.12571406
46	0xbe3cf11b	-0.1845135
47	0xbd24d361	-0.04024065
48	0xbdc2f62e	-0.09519611
49	0xbc512508	-0.012765177
50	0xbe1cb7fb	-0.15304558
51	0xbd7ba134	-0.061433032
52	0xbe0ccc8a	-0.137499
53	0xbdc40d1b	-0.09572812
54	0xbe1c5220	-0.15265703
55	0xbc90e2c8	-0.017686263
56	0xbdaaf424	-0.083473474
57	0xbde297c8	-0.11064106
58	0xbda2729a	-0.07932015
59	0xbd0162bf	-0.031588312
60	0xbdd8f934	-0.10594407
61	0xbdc3c680	-0.09559345
62	0xbb9251d4	-0.004465321
63	0xbd72a904	-0.059243217
64	0xbdcc249f	-0.099679224
65	0xbdc3b02b	-0.09555086
66	0xbd2caa38	-0.04215452
67	0xbd8c2911	-0.0684377
68	0xbcb6f22e	-0.022332277
69	0xbd954767	-0.072890095
70	0xbe0702cd	-0.13184662
71	0x3d4f29cf	0.05057698
72	0xbe187a7d	-0.14890476
73	0xbddcd6c2	-0.10783149
74	0xbd421ac7	-0.047388818
75	0xbdf5c5e0	-0.12000632
76	0xbe039ccf	-0.12852786
77	0xbd37c41e	-0.044864766
78	0xbda9204f	-0.082581155
79	0xbd838858	-0.0642249
80	0xbc3493a2	-0.0110215265
81	0xbc8f90e7	-0.01752515
82	0xbdca6a98	-0.098836124
83	0xbd907198	-0.07052916
84	0xbdc8822d	-0.09790454
85	0xbd581273	-0.05275197
86	0xbdb6a28e	-0.089177236
87	0xbe0afbe6	-0.13572654
88	0xbdfd07c0	-0.12354994
89	0xbd38eb25	-0.045146126
90	0xbe146696	-0.14492258
91	0xbd2b9fc9	-0.04190043
92	0xbe1d1251	-0.15339018
93	0xbd3f0b87	-0.046641853
94	0x3be3f0db	0.0069562024
95	0xbd4d8809	-0.05017856
96	0xbd6e7b18	-0.05822286
97	0xbbe40e70	-0.006959729
98	0xbd4f3399	-0.050586317
99	0xbe027cd2	-0.12742928
100	0xb925929d	-0.00015790244
101	0xbda1c6e3	-0.07899263
102	0xbdc5e2cc	-0.09662399
103	0xbda4485b	-0.08021613
104	0xbdbe48a2	-0.09291197
105	0xbd2d9b3d	-0.042384375
106	0xbde3eb00	-0.11128807
107	0x3a96bab7	0.0011499737
108	0x3c031cd3	0.008002478
109	0xbdc79f2a	-0.09747155
110	0xbdf3527a	-0.118809655
111	0x3cc8ab83	0.024495846
112	0x3c9e3dbc	0.019316547
113	0xbda1b6d8	-0.07896203
114	0xbe5972a7	-0.21235143
115	0xbccb6156	-0.024826687
116	0xbb995425	-0.0046792203
117	0xbd9d903a	-0.07693525
118	0x3c8caf16	0.017173331
119	0xbdd71098	-0.10501212
120	0x3d12c377	0.03583094
121	0xbdb2679d	-0.08711169
122	0xbcae5774	-0.021281935
123	0xbd5c6ed9	-0.05381665
124	0xbe41781c	-0.18893474
125	0xbd23c0c6	-0.039978765
126	0xbe109cd0	-0.14122319
127	0xbd7e6e0b	-0.062116664
128	0xbcff030e	-0.031129386
129	0x3cdeb18d	0.027184272
130	0xbe0d0ab4	-0.13773614
131	0xbdbc908c	-0.09207258
132	0xbd6eb962	-0.058282264
133	0xbdf25ea9	-0.11834461
134	0x3b6cfc52	0.0036161137
135	0xbd46e4df	-0.048558112
136	0xbe1bf0a9	-0.15228523
137	0xbd2aa05c	-0.041656837
138	0xbd5b2632	-0.053503223
139	0xbcb881b5	-0.022522787
140	0xbd8916db	-0.066938125
141	0xbd203c7d	-0.039120186
142	0xbd514d30	-0.051099002
143	0xbda7e5f9	-0.08198161
144	0xbe115d4d	-0.14195748
145	0x3ca3b14a	0.019981999
146	0xbdd4160e	-0.10355769
147	0xbdf289f8	-0.11842722
148	0xbdfdf926	-0.12401037
149	0xbd0f0e45	-0.034925718
150	0xbdf82baa	-0.12117703
151	0xbd02bedf	-0.03192031
152	0xbbb8c95f	-0.0056392397
153	0xbe3294fa	-0.17439643
154	0xbdb9fef8	-0.090818346
155	0xbe258276	-0.16163048
156	0xbdebb6fc	-0.11509511
157	0xbd9b5676	-0.075848505
158	0xbdefae0a	-0.11703117
159	0xbe00100a	-0.12506118
160	0xbde51b4b	-0.11186846
161	0xbd299bd8	-0.04140839
162	0x3d05146f	0.03249019
163	0xbd95df03	-0.07317927
164	0xbb65f79c	-0.0035090214
165	0xbdf3d9e2	-0.11906792
166	0xbcad8ecb	-0.021186253
167	0xbc4f4fe0	-0.012653321
168	0xbd17ce49	-0.037061963
169	0xbe153b4a	-0.14573398
170	0xbddcf899	-0.10789604
171	0xbdf2ed45	-0.11861662
172	0xbd974a3d	-0.07387207
173	0xbc934c7f	-0.017980812
174	0xbb6794fd	-0.0035336607
175	0xbd7e44e0	-0.062077403
176	0xbdfa040b	-0.122078024
177	0xbe000714	-0.125027
178	0xbdb85399	-0.0900032
179	0xbe0483fc	-0.12940973
180	0xba40718c	-0.00073411386
181	0xbd251842	-0.040306337
182	0xbc992689	-0.018695133
183	0xbd700d4d	-0.058606435
184	0xbdbc9ef1	-0.09210003
185	0x3c88fc49	0.016721861
186	0xbc61e6c9	-0.013787934
187	0xbbc194c1	-0.0059076254
188	0xbd4ae1ee	-0.04953187
189	0x3c13dff3	0.009025562
190	0xbd36bfe5	-0.0446166
191	0xbd9216b5	-0.07133237
192	0xbe273250	-0.16327786
193	0xbce96f7b	-0.02849554
194	0xbdc9a133	-0.098451994
195	0xbdb75854	-0.08952394
196	0x3d67d048	0.056595117
197	0xbc25ebd5	-0.0101270275
198	0xbd9cc76e	-0.07655226
199	0xbd2804a2	-0.041020043
200	0xbe43d0b9	-0.1912259
201	0xbd4c935c	-0.04994522
202	0xbdec7c36	-0.11547129
203	0xbd63880d	-0.05554967
204	0xbdd3eccd	-0.103479005
205	0xbce256b0	-0.027629226
206	0xbdc58653	-0.09644761
207	0xbdc73f1d	-0.09728835
208	0xbd84f0e8	-0.06491262
209	0xbdb14838	-0.08656353
210	0xbdb9d062	-0.09072949
211	0xbd83a871	-0.06428612
212	0xbdb1b18f	-0.08676445
213	0xbdd5a55a	-0.10431929
214	0xbd10e581	-0.035375122
215	0xbe241524	-0.1602369
216	0xbdde93c8	-0.10868031
217	0xbda65528	-0.08121711
218	0xbd33315c	-0.043748245
219	0xbe205d5e	-0.15660617
220	0xbdff2f17	-0.124601535
221	0xbda77739	-0.08177037
222	0xbdc0bfb9	-0.09411568
223	0xbdda60c9	-0.106629916
224	0xbdec0b2f	-0.115255706
225	0xbe1da600	-0.15395355
226	0xbca4ff39	-0.02014123
227	0xbce50405	-0.027956018
228	0xbdf87e4b	-0.121334635
229	0xbd464d83	-0.048413765
230	0xbd677816	-0.056511007
231	0xbc5f2535	-0.013619711
232	0xbdab11f7	-0.08353036
233	0xbdf0efff	-0.117645256
234	0xbd5f4ef1	-0.054518644
235	0xbcaba433	-0.02095232
236	0xbdb1aabc	-0.08675143
237	0xbdbbc541	-0.091684826
238	0xbe089db1	-0.13341404
239	0xbc7948d7	-0.01521512
240	0xbdac6b38	-0.08418888
241	0x3c66f143	0.014095607
242	0x3cedfadc	0.029050283
243	0x3d8fbce3	0.07018449
244	0xbd0eb34a	-0.034838952
245	0x3c0b8456	0.008515438
246	0xbd43b919	-0.047783945
247	0xbdd114e2	-0.10209061
248	0xbdc06cb9	-0.09395737
249	0xbd565584	-0.052327648
250	0xbe0944ba	-0.13405123
251	0xbd108440	-0.035282373
252	0xbd7ebd72	-0.062192388
253	0xbc025514	-0.0079548545
254	0xbdeeb081	-0.11654759
255	0xbd76c30b	-0.0602446

bn2.weight f4 [300]
0	0x3f83eb4a	1.030618
1	0x3fa1feca	1.265588
2	0x3f865ede	1.0497701
3	0x3eccdcf8	0.40012336
4	0x3f9b9bec	1.2156959
5	0x3fac6510	1.3468342
6	0x3faa72a2	1.3316233
7	0x3ed45eb0	0.4147849
8	0x3f89fd0c	1.0780349
9	0x3f944a3d	1.1585156
10	0x3ebbd586	0.36686343
11	0x3f946edb	1.159633
12	0x3f078393	0.5293514
13	0x3f04de14	0.51901364
14	0x3f1419cf	0.5785188
15	0x3fb037c4	1.3767018
16	0x3f950323	1.1641582
17	0x3ed7cdf3	0.42149314
18	0x3f9f82a1	1.246174
19	0x3fa63bca	1.2986996
20	0x3f8bf6c0	1.0934677
21	0x3ecd94ff	0.40152737
22	0x3ed7715e	0.4207868
23	0x3f9cdfab	1.2255758
24	0x3f4574d3	0.77131385
25	0x3f97001c	1.1796908
26	0x3f8df70d	1.1091019
27	0x3f9b08fa	1.2112114
28	0x3f2767bc	0.6539266
29	0x3f9af9e0	1.2107506
30	0x3fa02e7e	1.2514188
31	0x3fa78f9e	1.3090703
32	0x3f81a96a	1.0129826
33	0x3f8d13c1	1.1021653
34	0x3f93c13d	1.1543347
35	0x3f12a42b	0.5728175
36	0x3f8be815	1.0930201
37	0x3f8aead1	1.085291
38	0x3f9b0dfb	1.2113642
39	0x3f9d2a37	1.2278508
40	0x3f92c6a6	1.1466873
41	0x3fa2db04	1.2723088
42	0x3f9de530	1.2335567
43	0x3f4dc5e7	0.803801
44	0x3f5b1fcf	0.8559541
45	0x3f95a022	1.1689494
46	0x3fa5d1b6	1.2954624
47	0x3f9641dc	1.1738849
48	0x3eeb8653	0.4600092
49	0x3f9c0d98	1.2191648
50	0x3f832b1a	1.0247529
51	0x3fb0f391	1.382433
52	0x3f35f08f	0.7107019
53	0x3fb1ad87	1.3881081
54	0x3f9396b2	1.1530364
55	0x3efd773c	0.4950503
56	0x3f9650d3	1.1743416
57	0x3eb370bf	0.35046956
58	0x3f8b70bd	1.089378
59	0x3eeb3e03	0.4594575
60	0x3f8c5b32	1.0965331
61	0x3f859255	1.0435282
62	0x3eec5929	0.46161774
63	0x3f8e1d59	1.1102706
64	0x3fabc6fd	1.3420101
65	0x3f9bc66f	1.2169932
66	0x3f976f44	1.183083
67	0x3fa04e07	1.2523812
68	0x3f82b207	1.021058
69	0x3f309f71	0.6899329
70	0x3f748edf	0.95530504
71	0x3f5f0a2f	0.87124914
72	0x3f8e33ca	1.1109555
73	0x3f0e4bd3	0.5558445
74	0x3f9e476b	1.2365545
75	0x3f231896	0.6370939
76	0x3f91a3cb	1.1378111
77	0x3f9e13d7	1.2349805
78	0x3fa31631	1.2741147
79	0x3f9b584b	1.213632
80	0x3f3a9124	0.72877717
81	0x3f9a6a72	1.2063735
82	0x3f94449d	1.1583439
83	0x3ef17a73	0.47163734
84	0x3f8c2b26	1.0950668
85	0x3f8cda05	1.1004034
86	0x3f94e817	1.1633328
87	0x3f944b10	1.1585407
88	0x3ec2f34e	0.38076252
89	0x3fa598d6	1.2937267
90	0x3f9b5a22	1.2136881
91	0x3f42e1bd	0.761257
92	0x3f8dafe8	1.1069307
93	0x3f92a28d	1.1455857
94	0x3f935925	1.151158
95	0x3f9496ab	1.160848
96	0x3f0acf5d	0.5422266
97	0x3ebc1d62	0.36741167
98	0x3f984c33	1.1898254
99	0x3f8e9aa2	1.114094
100	0x3fa4549a	1.2838318
101	0x3edc2a7f	0.43001172
102	0x3f7a4977	0.9776835
103	0x3f898444	1.0743489
104	0x3f8df7fa	1.1091301
105	0x3f17de5d	0.59323674
106	0x3f941b67	1.1570863
107	0x3f8efa74	1.1170182
108	0x3f950e14	1.1644921
109	0x3f910833	1.1330627
110	0x3ebca01f	0.36840913
111	0x3f949b51	1.1609899
112	0x3f8826f1	1.0636884
113	0x3f69fbff	0.9140014
114	0x3fa91d29	1.3212024
115	0x3f3ba463	0.7329771
116	0x3f9190b5	1.1372286
117	0x3fac3808	1.3454599
118	0x3f8c6735	1.0968996
119	0x3f939b45	1.153176
120	0x3f229c68	0.63519907
121	0x3f994507	1.197419
122	0x3f7c3c8f	0.98529905
123	0x3fa8972d	1.3171135
124	0x3f97721d	1.18317
125	0x3eaa5c2e	0.33273453
126	0x3f9c4665	1.2208983
127	0x3f9f28b4	1.2434297
128	0x3f8ee490	1.1163502
129	0x3f56731c	0.8376939
130	0x3f8c64b9	1.0968238
131	0x3ed8d8d7	0.42352936
132	0x3f9ebab4	1.2400727
133	0x3fa509b3	1.2893585
134	0x3f80e9f7	1.00714
135	0x3f93e842	1.1555254
136	0x3f8a72f0	1.0816326
137	0x3f13a2ab	0.57670087
138	0x3f8861b1	1.0654813
139	0x3f8504e6	1.039212
140	0x3f89775f	1.0739554
141	0x3f63cb6c	0.8898227
142	0x3fa4b2ac	1.2867026
143	0x3f9f8238	1.2461615
144	0x3f0148aa	0.505015
145	0x3f971482	1.1803133
146	0x3f97a9d3	1.1848701
147	0x3f98a58c	1.1925521
148	0x3f2771ce	0.6540803
149	0x3f8c8fe2	1.098141
150	0x3fa5812f	1.2930049
151	0x3ee82925	0.4534389
152	0x3f9b1d97	1.2118405
153	0x3f3d476b	0.739371
154	0x3f994642	1.1974566
155	0x3ebfda13	0.37471065
156	0x3fa420a9	1.2822467
157	0x3f9c044e	1.2188814
158	0x3f947a43	1.1599811
159	0x3fa52ada	1.2903702
160	0x3f847a88	1.0349894
161	0x3f4c465b	0.79794854
162	0x3f929a82	1.1453402
163	0x3f88a559	1.067546
164	0x3f9b4bbe	1.213249
165	0x3f8c73b9	1.0972816
166	0x3f989105	1.1919256
167	0x3f9bdeef	1.2177409
168	0x3f60332b	0.87578076
169	0x3edfc08f	0.43701598
170	0x3f9cc2c6	1.224694
171	0x3f320cb7	0.6955065
172	0x3f9379c5	1.1521536
173	0x3f8fe47b	1.1241602
174	0x3fa3da0d	1.2800919
175	0x3f87077f	1.0549163
176	0x3f71efd8	0.945066
177	0x3f8db000	1.1069336
178	0x3ee37dcc	0.44431913
179	0x3f9f906f	1.2465953
180	0x3f9fc807	1.2482919
181	0x3ec3cf3e	0.3824405
182	0x3f913210	1.1343403
183	0x3ec5713e	0.3856296
184	0x3f8d9b25	1.1062971
185	0x3f98ba46	1.1931846
186	0x3fb45211	1.4087545
187	0x3eda8c62	0.4268523
188	0x3f5f4142	0.8720895
189	0x3f907b82	1.1287692
190	0x3f97d9bd	1.1863323
191	0x3f9216c7	1.1413201
192	0x3ef1a6d4	0.47197592
193	0x3f8f6c34	1.1204896
194	0x3f135918	0.5755782
195	0x3fa08ee6	1.2543609
196	0x3ed1b5a0	0.4095888
197	0x3f9884fe	1.1915586
198	0x3f9c8685	1.2228552
199	0x3f4e59d2	0.80605805
200	0x3f9c5a14	1.221499
201	0x3f9b1974	1.2117143
202	0x3f94dc79	1.1629783
203	0x3f882c37	1.0638493
204	0x3f052600	0.5201111
205	0x3f9551a1	1.1665536
206	0x3fb07ff7	1.3789052
207	0x3f14574b	0.579457
208	0x3f310dc2	0.6916162
209	0x3f2448a8	0.64173365
210	0x3f9934b5	1.196921
211	0x3fa13630	1.2594662
212	0x3faad8d8	1.3347425
213	0x3f66c3e4	0.90142655
214	0x3f9e54cd	1.2369629
215	0x3fa3be9e	1.2792547
216	0x3fa1c224	1.2637372
217	0x3f8c9d76	1.0985553
218	0x3fa9d6cc	1.3268676
219	0x3fa2c22a	1.2715504
220	0x3f998994	1.199511
221	0x3fc02567	1.5011414
222	0x3eb43912	0.3519979
223	0x3ebf007f	0.37305066
224	0x3ed4639e	0.41482252
225	0x3f99729f	1.1988105
226	0x3f9c04c1	1.2188951
227	0x3ecc8146	0.39942378
228	0x3f90cd39	1.1312629
229	0x3f9e7001	1.2377931
230	0x3f9e49ed	1.236631
231	0x3f9943cf	1.1973819
232	0x3f0639d7	0.52432007
233	0x3fa0352f	1.251623
234	0x3fa04b06	1.2522895
235	0x3fa58466	1.293103
236	0x3f9b2c8f	1.2122973
237	0x3fa035eb	1.2516454
238	0x3edc2a0f	0.43000838
239	0x3f79b840	0.9754677
240	0x3f27f1c8	0.65603304
241	0x3f984914	1.1897302
242	0x3f122ba5	0.57097846
243	0x3f6e4be1	0.9308453
244	0x3ebcbe84	0.36864102
245	0x3fabfb3e	1.3436048
246	0x3ecca230	0.3996749
247	0x3f8b1f9b	1.086902
248	0x3fa5370a	1.2907422
249	0x3f082d06	0.531937
250	0x3f902f67	1.1264466
251	0x3f750b33	0.95720214
252	0x3f886584	1.065598
253	0x3f98d213	1.193911
254	0x3f46c0f5	0.7763818
255	0x3f94698a	1.1594708
