tmp/ddpg/actor_ddpg.pth (torch, 504034 bytes, 10 tensors)

fc1.weight f4 [400, 6]
000000 34 7a 0a 3d 94 61 64 bc fe 12 a7 bd d9 1c 39 3d
       0.03380795 -0.01393928 -0.08157919 0.045193527
000010 42 e1 5b bb c5 b7 d7 bd 1c 9a 58 3c 4b 41 28 bc
       -0.0033551012 -0.10533098 0.013220336 -0.010269473
000020 87 14 f0 3c 15 bf a7 3d f7 8f ed 3d 94 a7 72 bc
       0.029306663 0.08190743 0.11599725 -0.014810462
000030 d6 8d 27 3c aa 73 93 bc 92 78 c0 bd f8 fb 2f 3d
       0.010226687 -0.017999489 -0.09397997 0.042964906
000040 37 b7 a3 3c 6f 5a e6 bd b9 20 9f bb d2 17 89 3c
       0.019984825 -0.112477176 -0.0048561958 0.016734991
000050 5a 7d ab 3d 0c 04 1b 3d a2 b0 d2 3d 71 67 24 bd
       0.08373518 0.037845656 0.10287596 -0.040137712
000060 1a 09 ea 3b e8 05 ef bc 9f a9 05 be 3e 73 d4 bc
       0.0071421983 -0.029177621 -0.13052987 -0.025933858
000070 3d 98 92 bc ac ca 00 be a5 c4 88 39 46 f8 8a 3c
       -0.017894858 -0.12577313 0.00026086453 0.01696409
000080 70 f4 c8 bb 01 3e 21 bd 84 8f ab bc 40 f1 04 3e
       -0.006132655 -0.039365772 -0.020942457 0.12982655
000090 b7 7f ec bc 60 8f 38 3c 87 2a 73 bd 17 5e cd 3c
       -0.028869493 0.011264652 -0.05936673 0.02506928
0000a0 18 59 d1 bc dc f2 01 be 40 e3 ff bc ba 6f 01 3d
       -0.025555179 -0.126903 -0.031236291 0.03160069
0000b0 5a c7 19 3d 0e 03 eb bd 70 3b 1a 3e 7e 9d e8 3e
       0.037543632 -0.11475192 0.15061736 0.45432657
0000c0 3f ed 0c 3d e3 c2 cc bc ee 4d da 3a 88 ff 6a 3d
       0.034405943 -0.024995273 0.0016655305 0.0573726
0000d0 3d 5b a1 3c e4 68 2b 3e d3 c1 98 bc e9 dc 67 bc
       0.019696826 0.16739231 -0.01864711 -0.01415179
0000e0 91 cd 22 be 81 82 2f 3b 00 63 13 3d 7b b8 1a be
       -0.1589873 0.0026780667 0.035983086 -0.15109436
0000f0 6b 8a 1e bc 41 44 3c 3c 3d 05 0c bd 37 70 70 bd
       -0.009676556 0.011490882 -0.034184683 -0.058700766
000100 11 aa e5 3d ff 1e d2 bd 16 2c ce bc c1 05 36 bc
       0.11214078 -0.10259818 -0.025167506 -0.01110977
000110 ed b3 e5 bd 00 1f d4 bb cf 9f 25 3d 90 40 4d be
       -0.11215959 -0.006473422 0.04043561 -0.2004416
000120 de a0 6d bc 23 55 5c bc ec a0 df bd 57 9e 82 3d
       -0.014503686 -0.013448033 -0.10919365 0.06377857
000130 14 34 75 3d 9f c5 39 be 60 28 05 3d 59 4d 44 3d
       0.05986412 -0.18141793 0.032509208 0.047925327
000140 73 88 9a bc 1b 07 c2 3c a3 9b 9a 3d 38 07 b3 bc
       -0.018863892 0.023685029 0.075492166 -0.021854028
000150 4b 5c 45 3d 9e 58 a2 bc f3 92 cb bd 6f 39 19 bd
       0.04818372 -0.019817647 -0.09940138 -0.03740829
000160 83 3e 3e 3d 0f 80 72 3d 02 87 ea 3c 01 0b 35 bd
       0.046446335 0.059204157 0.02862883 -0.044199947
000170 2c 58 fe bd 31 50 7e 3d f5 a5 f8 3b 77 a3 08 3e
       -0.12419161 0.062088195 0.007588143 0.13343607
000180 8e b6 0d 3c 47 89 83 3b f4 0b 0b bd 9d bf 8e 3c
       0.008649481 0.0040141675 -0.033946946 0.017425353
000190 ba 2a 8d 3d 10 8d cc bd 69 fa fb 3b fe a6 a3 bc
       0.06892915 -0.09987843 0.0076897633 -0.019977089
0001a0 04 21 aa 3d e0 c8 ef bd 65 ba f7 bd a6 8f 8a 3e
       0.083070785 -0.11708236 -0.12096099 0.2706272
0001b0 51 bd 7b bc 41 b6 af 3c 88 d1 6a bd 2c 15 a1 bd
       -0.015364961 0.02144921 -0.05732873 -0.07865366
0001c0 75 2d 8d bd 7f 01 86 3c 95 7f ed 3c 64 aa 8d bc
       -0.06893436 0.016358135 0.0289915 -0.017293163
0001d0 38 f6 86 bd 61 cd 8b 3d 87 1a 8a 3d 5a 7d d4 3d
       -0.06589931 0.06826282 0.06743341 0.103754714
0001e0 48 16 78 3b bf 2c 99 bc 8c c8 0a be 9b 64 47 3e
       0.0037855078 -0.018698094 -0.13553065 0.19471972
0001f0 1f fe 6e be 68 47 19 3d 74 16 db bc de 08 e5 bc
       -0.23339127 0.037421614 -0.026744105 -0.02795833
000200 57 46 f5 bd 52 05 aa 3c ea 32 db bc 0f 33 da bd
       -0.11976307 0.02075449 -0.026757676 -0.1065427
000210 12 93 e5 bb 23 43 1a 3d 27 b5 0e 3c 77 92 5f bd
       -0.0070060575 0.037661683 0.008710182 -0.05458304
000220 5c 61 92 3d 03 6a de 3d c7 b2 bf bc 91 49 c1 3c
       0.07147476 0.10860064 -0.023400677 0.02359465
000230 85 bd 40 3d a6 f0 fc bd 4e b8 b3 3d 32 95 e1 bc
       0.04705574 -0.123505875 0.08775388 -0.027536962
000240 97 88 d3 bb 84 22 61 3c 9e fc 09 be 49 fc d4 bd
       -0.0064554918 0.013741139 -0.13475272 -0.10399682
000250 52 12 47 bd 1e 02 de bd 6b c8 25 bd 76 51 e4 3c
       -0.048601456 -0.108402476 -0.040474337 0.027870875
000260 d1 23 1e bd b7 15 91 bd 27 bb 10 be 4f 13 b2 bc
       -0.038608376 -0.0708422 -0.14133893 -0.021737723
000270 21 c6 f8 bb 30 5b 9c bc 44 d7 04 be 72 a5 a5 ba
       -0.007591978 -0.01908645 -0.12972742 -0.0012637808
000280 ee 4d 27 bc 6c 57 1f be d3 c3 77 bc fd da 00 bd
       -0.010211451 -0.15560693 -0.015122372 -0.031458843
000290 d6 ea f5 bd 19 06 56 3b ed e0 cf 3c 80 df 1a be
       -0.12007682 0.0032657443 0.025375808 -0.15124321
0002a0 38 60 a0 bc e3 9b 71 bc 69 31 25 be 3e e2 f4 3c
       -0.01957713 -0.014746639 -0.1613213 0.029893037
0002b0 4a 2c 92 bc fc 57 38 be a7 e3 8e bc 9d a1 14 3d
       -0.017843384 -0.18002313 -0.017442537 0.03628694
0002c0 0f 6f cc 3c dd a6 47 3d 75 b3 37 3d b5 6b 78 3d
       0.0249553 0.048743118 0.044848878 0.060649592
0002d0 fd ed 08 3d 8d 5d a7 bc 42 d4 12 be 09 c9 6d bb
       0.03343009 -0.02043035 -0.14338782 -0.0036283156
0002e0 21 fb b6 bc e9 b1 56 3e 92 96 2a 3b 9c 31 24 bc
       -0.022336544 0.20966305 0.0026029688 -0.010021593
0002f0 e1 ed e9 bd ec 07 65 3d b2 eb 52 3d 0e a1 df bd
       -0.11422325 0.055915758 0.051494308 -0.109193906
000300 11 b6 17 3d aa 7d 45 bd 84 83 78 bd b6 78 8f 3d
       0.037038866 -0.048215546 -0.060672298 0.07005446
000310 38 82 8f 3d 10 8c 00 bc 82 35 30 bc 87 7e 20 bb
       0.07007259 -0.0078458935 -0.010754945 -0.0024489479
000320 cd 30 8c bd 18 fa 97 bc 7d 48 8d 3d c9 c0 fe bd
       -0.068452455 -0.018551871 0.06898592 -0.124391146
000330 bd e2 d3 3b 9f 0d 52 3c c8 52 a8 ba 25 ba 37 3d
       0.0064662383 0.01282063 -0.0012842054 0.044855256
000340 ee c1 6f 3d fe df 3e 3e ce bc fe 3c a8 88 04 bd
       0.058534555 0.18640134 0.031095888 -0.032356888
000350 3f 51 bd ba 8c 14 57 bc d3 3b 76 3b 52 d2 89 bc
       -0.0014443769 -0.013127457 0.003757228 -0.016823921
000360 5f 5f 14 3c d1 04 a9 bc ba 1e ea bd 48 90 16 bd
       0.009055941 -0.02063218 -0.11431642 -0.03675869
000370 e0 03 bc bb fe 10 80 bd c6 1b 6c bd 3d f8 fd 3c
       -0.0057377666 -0.06253241 -0.057643674 0.031002158
000380 4d a7 2c bd 79 56 9e bd 65 6f 21 bd 38 ff 33 bd
       -0.042151738 -0.07731337 -0.039412875 -0.043944567
000390 ec 68 74 3c f2 15 bc bb f5 68 45 bd e7 4a 55 3d
       0.014917593 -0.005739921 -0.048195798 0.052073386
0003a0 af 6f 27 3b 1e f5 cc 3c fd 60 02 3d ce ac 81 bc
       0.0025548746 0.025019225 0.031830776 -0.01582947
0003b0 52 55 d4 bd 72 dc 16 3c 19 7e 33 3d 99 59 62 3e
       -0.10367836 0.009207832 0.043821428 0.22104491
0003c0 60 1c 04 3d d3 6a 57 bc da 51 21 bd 33 b9 3a bb
       0.032253623 -0.0131480275 -0.0393847 -0.0028491735
0003d0 a1 d2 2e bd 17 18 91 bd ae 39 b0 bc d4 6c a6 3b
       -0.04268134 -0.07084673 -0.021511879 0.0050788913
0003e0 32 23 15 be ed c9 b7 3c a1 90 15 3c 4c fd f1 bd
       -0.14564207 0.022435153 0.0091287205 -0.11815891
0003f0 3b 54 06 3d 56 41 c1 bb 02 f8 d5 bc 41 c0 eb 3c
       0.032795172 -0.005897681 -0.026119236 0.028778197

fc1.bias f4 [400]
000000 70 c7 83 3c 75 32 40 3c 49 8a 4a 3e c3 d9 9a bd
       0.01608631 0.01173078 0.19779314 -0.07561066
000010 ed 99 28 be fa 0a 36 3d 23 7a 40 bd 68 6c 73 bd
       -0.16464968 0.04444406 -0.04699148 -0.059429556
000020 0e 5a 64 bd b5 73 bc bd 07 66 b8 bc 44 78 17 be
       -0.055749945 -0.09201757 -0.022509588 -0.14791971
000030 9b 89 b4 bd a3 ec cf bd f8 a8 84 b9 9c 92 19 be
       -0.08815309 -0.10152557 -0.00025302893 -0.14997333
000040 0b 8b 14 3e 83 62 ab 3d 00 62 54 3d eb 78 18 be
       0.14506166 0.08368399 0.051851273 -0.14889877
000050 b9 36 6a bd 81 77 c3 bd e4 80 b4 bc 56 54 e5 3b
       -0.057181094 -0.09544278 -0.022034116 0.006998579
000060 23 47 b9 bd 14 35 98 bd 67 d3 23 be c0 9f a8 bd
       -0.090467714 -0.07431999 -0.15998612 -0.08233595
000070 9e 68 9e bd 86 6f b6 3c f7 65 08 be ee 5b a9 bd
       -0.07734798 0.022269975 -0.13320147 -0.08269487
000080 2d 3d fa bc 64 64 db bd d2 32 1c be b9 a0 26 bd
       -0.030546749 -0.10712507 -0.15253761 -0.04068062
000090 fd fb 1c bd e1 e4 52 bd 2c 67 83 bd c4 5d 7b bd
       -0.038326252 -0.051487807 -0.06416163 -0.06136872
0000a0 5a 6e fd bd 4c d4 09 be a2 97 89 bd fa a4 90 bd
       -0.123745635 -0.13459891 -0.06718375 -0.07062717
0000b0 69 b5 d9 3c 91 bc 4a bd a9 30 00 bd 1d 75 2b 3d
       0.02657576 -0.049496237 -0.031296406 0.041859735
0000c0 48 47 7b 3d 3d 3d e0 bd ba 7e 4f bd 01 b1 38 bd
       0.061347276 -0.1094918 -0.050657965 -0.04509068
0000d0 37 d2 ea 3d f9 3b 22 be de 07 13 be 7c 99 09 be
       0.114658765 -0.1584319 -0.1435847 -0.13437456
0000e0 c6 58 80 bd c5 96 2f bd fa 4e 1f bc da c7 82 3d
       -0.06266932 -0.042868394 -0.009723419 0.06385775
0000f0 db 83 66 3c 9d 9a dd 3d ba cb e3 bd e1 6b cb bd
       0.014069523 0.10820506 -0.11122842 -0.09932686
000100 e8 db 60 bd 4a 64 b7 bd d0 68 74 bd 2a a6 0c bd
       -0.05489722 -0.089546755 -0.05967027 -0.034338154
000110 17 48 a5 bd 69 1e d1 bd 9a 67 6d 3d fd 4f fe bd
       -0.08070391 -0.102108784 0.05796013 -0.124176
000120 cf 6d 01 be 8f 45 e0 3b 61 a4 88 bd da 0a 6e bd
       -0.12639545 0.0068442295 -0.06671978 -0.058115818
000130 c8 78 0c 3b e3 db 2f bd 39 66 3e bc 73 2a b3 3d
       0.0021434296 -0.04293431 -0.0116210515 0.08748331
000140 ff c0 5f 3c 3e dc e8 bb 58 09 b1 bd 66 48 1d 3e
       0.013656854 -0.007106333 -0.0864436 0.15359649
000150 d6 fc 69 bd 87 16 7e bd 97 be 35 3e 1e c0 3c 3d
       -0.05712589 -0.062033202 0.17748486 0.046081655
000160 e8 4c 83 bd 53 23 81 3d e5 a5 8e bd f3 13 41 3d
       -0.06411153 0.06305566 -0.069652356 0.047138166
000170 d4 eb 4a bd 4f a3 34 3d be 25 ef 3d bb 8c 8f bd
       -0.04954131 0.044101056 0.116771206 -0.07009264
000180 95 31 9a 3c 14 b7 83 bd 5b a2 3b 3e 07 cb cd bd
       0.01882247 -0.06431404 0.18323652 -0.1004849
000190 d4 8b 5b 3d 2a c8 05 3e 8a 5e 5c 3d db d3 ec 3c
       0.053600147 0.13064638 0.053801097 0.028909614
0001a0 4f 4b cf bd 58 aa 99 bd cf 6b 90 3c c3 e6 20 3d
       -0.10121786 -0.075031936 0.017629532 0.03928257
0001b0 23 1f 06 3d a9 24 0c be 88 84 f7 bd 57 e5 d5 3c
       0.032744538 -0.1368586 -0.12085825 0.026110334
0001c0 db e5 a2 bd b0 19 88 bd 4e e0 1b be 62 52 84 bd
       -0.07953998 -0.066455245 -0.15222284 -0.06461026
0001d0 0c 11 a8 bd cd ac cb 3c 2c f3 0a be 1b cf 5b bd
       -0.082063764 0.024862671 -0.13569325 -0.053664308
0001e0 33 eb 3a 3d 96 30 44 3c 84 3b f3 bd d9 2a 29 bd
       0.04563446 0.011974474 -0.11876586 -0.04130063
0001f0 d0 31 94 bd 5e 88 2f 3d db 4f b7 bd 41 1e f3 bd
       -0.072360635 0.04285466 -0.08950778 -0.11871005
000200 26 a6 d1 bd 01 ee 6a 3d b4 b9 e3 bd 20 57 ce bb
       -0.102367684 0.057355884 -0.111194044 -0.006297007
000210 8e af c9 3c 4b ad 02 bd 9d 4c 8f bb 44 44 f9 3d
       0.024619844 -0.031903546 -0.0043731467 0.12171224
000220 28 c1 12 bd f7 89 70 3d 2b 4c 1b 3e a5 ab b8 bd
       -0.03582874 0.058725324 0.15165775 -0.090171136
000230 56 ed d1 bd e0 4e f8 bd 1f 0b a8 bd 96 0f d5 bc
       -0.10250346 -0.12124419 -0.08205246 -0.026008409
000240 76 e5 3e bd 62 3d 6b 3d b8 45 92 3c 70 bb 35 3d
       -0.04660555 0.057431586 0.01785551 0.044368207
000250 7f 3b 17 bd 0b 2e 8d 3d 10 1c 89 bd 8f cb 83 3d
       -0.036921974 0.068935476 -0.066948056 0.0643531
000260 0a e4 e1 bd 15 5a 22 bd ba 68 97 bd 65 dc 39 3d
       -0.11029823 -0.03963669 -0.07393022 0.0453762
000270 a6 59 04 be c7 d8 c2 bd de 30 89 bc d3 50 06 3e
       -0.12924823 -0.09514003 -0.016746935 0.1311677
000280 d8 9c 78 bd bc cd 83 bc a4 08 32 bd cc 0b 32 bd
       -0.060696453 -0.016089313 -0.04346527 -0.04346828
000290 dd 8f 98 bd 2a 79 03 be 20 5f a9 bd 56 62 16 be
       -0.07449315 -0.12839189 -0.08270097 -0.1468595
0002a0 d1 29 64 bd 6c 05 07 be 4a 91 4e 3e 0b 32 69 bd
       -0.05570394 -0.13185662 0.20172611 -0.05693249
0002b0 8e 8a 22 be e8 9d d6 3c 5b b3 56 3c 31 33 e9 bd
       -0.15873167 0.026198342 0.013104285 -0.11386717
0002c0 96 36 0e be 60 69 24 3c 96 16 40 3b e1 f4 22 be
       -0.1388801 0.010034889 0.0029310337 -0.15913726
0002d0 8c 2d 0a bc b1 e0 f9 bd d2 14 94 bb f9 94 a0 3d
       -0.008433711 -0.122010596 -0.0045190835 0.07840914
0002e0 d8 68 79 3d 8b bc 02 bd 87 e3 c4 bd f7 2a 47 bd
       0.060891002 -0.03191809 -0.0961371 -0.04862496
0002f0 1a d5 b7 bd 34 85 13 3c ba 05 d0 bc d4 83 c8 3c
       -0.08976193 0.009003926 -0.025393356 0.024476923
000300 f4 23 4b 3d f4 10 16 bd 87 cf 5a 3d 58 00 bc 3d
       0.049594834 -0.03663726 0.05342057 0.09179753
000310 6d 31 1b 3d 3c e5 0e 3e d6 cc a1 3c 0e 34 c3 bd
       0.037888933 0.13954633 0.019750994 -0.09531413
000320 45 9c 90 bd e2 b9 a3 3d 0a 7f 4e be 97 c9 46 3c
       -0.07061056 0.07994439 -0.20165649 0.012133024
000330 27 32 aa 3d 90 73 9f bc d3 8b 97 3c dd 54 95 bd
       0.08310347 -0.019464284 0.01849929 -0.07291577
000340 1a f4 b4 3d 21 c7 01 be 3f 3b 25 3d e4 99 23 bd
       0.08835621 -0.12673618 0.040339705 -0.039941683
000350 6b fb a9 bd 60 8a d5 bc c7 87 14 3c 14 c6 e3 bd
       -0.08299907 -0.026066959 0.009065575 -0.11121765
000360 91 46 4b 3d 25 36 20 3d f5 3f 69 3d 71 70 ba bd
       0.049627844 0.039114136 0.05694576 -0.09103478
000370 3b d9 a3 bc dc c4 9c bb eb 2d 9a 3d 8e 30 e7 bd
       -0.020001044 -0.0047842097 0.075282894 -0.11288558
000380 de 34 8f bd 1f 0f 12 be 39 04 78 bc c3 d4 8d 3b
       -0.069925055 -0.1426358 -0.0151377255 0.0043283417
000390 ce 87 07 3e cc 4e 11 be d4 b3 49 3e b7 b5 19 bd
       0.13235399 -0.14190215 0.19697505 -0.037526812
0003a0 34 e9 36 bc de d7 47 bc df 79 74 bd 00 78 c4 bd
       -0.011163998 -0.012197463 -0.059686538 -0.09593201
0003b0 39 85 08 3e e9 b9 b2 bb f1 69 fe bd e4 2c 25 3b
       0.1333207 -0.005454291 -0.124225505 0.002520376
0003c0 85 91 0c be dd 2d d5 bd fe 39 ce bd ed 8d 0f 3d
       -0.13727386 -0.10409138 -0.10069655 0.03504746
0003d0 a9 0d 29 3d 7a 35 74 bd d5 25 82 bd 3a 0d 87 bd
       0.041272793 -0.05962131 -0.06354872 -0.0659432
0003e0 ec 79 18 3d 3f f5 db bc 44 4d f6 bd 9f 02 19 be
       0.03722565 -0.02685034 -0.12026456 -0.14942406
0003f0 5e 79 ce bd 04 b2 08 bd 7b b3 0c be c2 b9 e5 bb
       -0.10081743 -0.033372894 -0.13740341 -0.0070106694

fc2.weight f4 [300, 400]
000000 7f be 1a bd 26 42 da bc ee 90 fd 3c 22 1b 48 bb
       -0.037779327 -0.02664287 0.030952897 -0.003053375
000010 93 b5 41 bd 3b 39 88 bc a5 cd d7 3d 3d b8 b4 3d
       -0.047292303 -0.016628852 0.105372705 0.08824203
000020 f3 9d c0 bc d7 55 24 3c 28 8a 40 bd ba d0 9f 3c
       -0.023512816 0.010030231 -0.047006756 0.019508708
000030 43 63 74 bc 5a 45 c9 bc d4 ad 7b 3c 9b 6b 7a 3d
       -0.014916244 -0.024569202 0.015361268 0.061137777
000040 eb 48 fb bc 62 4d 07 bd bc 41 15 3d bf 11 28 bc
       -0.030674418 -0.033032782 0.036439642 -0.010258137
000050 20 fd 97 3d 86 b1 37 3b 36 79 89 3d ad af 29 bd
       0.07421327 0.0028029396 0.06712572 -0.041427303
000060 c4 9b 19 3b 96 bd df bc d7 c2 7f bc 91 d4 56 3d
       0.002343879 -0.027312081 -0.015610418 0.052448813
000070 8e 4b 18 bd 03 5e 0c 3d 2e c7 fb bc 43 8d 47 3d
       -0.03718143 0.034269344 -0.030734625 0.048718702
000080 28 46 c6 3c 4d 6f 38 bc b0 52 28 3d 14 01 96 3c
       0.024203375 -0.011257005 0.041094482 0.018311061
000090 ff 29 0f 3d 5d cd 14 bc b4 36 85 3d 6c b4 42 3d
       0.03495216 -0.009082166 0.065045744 0.047535345
0000a0 16 09 3e 3d fc c8 56 3d 46 f8 89 3d ba 5e 28 3d
       0.046395384 0.052437767 0.067368075 0.041105963
0000b0 da 13 0e 3d 30 5a 10 3c c9 ac 46 bc c2 6b 11 bd
       0.0346869 0.008810565 -0.012126156 -0.035503156
0000c0 cb cf 4a bb 30 e9 9c 3c 71 8c 4e 3d 10 46 82 bd
       -0.0030946608 0.019154161 0.050426904 -0.063610196
0000d0 c7 cb ba bb 48 8f aa 3c ec 8e 7e 3b 76 90 ca bc
       -0.0057005617 0.020820275 0.0038842512 -0.024727087
0000e0 53 11 c2 bd 02 89 a0 3c 9c 08 11 bd 7b ce 80 3d
       -0.094759606 0.01959658 -0.0354086 0.06289383
0000f0 b1 18 b7 3c 01 62 9c 3c 55 97 0e bd 2b 61 a8 bd
       0.022350641 0.0190897 -0.03481229 -0.08221658
000100 8a 92 a2 bd e7 fa 81 bc 61 c7 1e bd ce b2 ff 3c
       -0.07938106 -0.01586671 -0.03876436 0.03121319
000110 fc 24 6e 3d 7b 71 33 bc 98 2f 35 bd 25 ab 9c 3c
       0.05814074 -0.010952349 -0.044234842 0.019124577
000120 df d6 ea b9 5e 48 5b bc b6 ab 89 3b d4 3a 5e 3c
       -0.0004479205 -0.013383953 0.0042013777 0.01356383
000130 98 cd 1d bd cc ea 06 3d 3c 7a df bc d0 49 b5 3c
       -0.038526148 0.032938763 -0.027279966 0.022129923
000140 f3 4e dc bc e4 19 8c 3d 3a f2 9b bc f3 c7 54 3c
       -0.026893115 0.06840876 -0.019036401 0.012987125
000150 ed f1 34 3d 4d f5 19 be d1 95 7f 3c 40 8f ec 3d
       0.04417603 -0.15034981 0.015599684 0.1155076
000160 76 0a 14 bd c6 8a 70 3d 94 3f 4f bd 55 59 2d 3b
       -0.03614279 0.058726095 -0.050597742 0.002645095
000170 2e 1c 37 3d 2d ef 2e bc 8c 7a 50 3d cc b4 36 3c
       0.04470461 -0.010677141 0.05089812 0.011151504
000180 b1 e7 70 3d 6c 64 82 3d 74 77 00 bb 6d aa 8d 3c
       0.05881471 0.0636681 -0.001960245 0.01729318
000190 39 7e 28 3d 35 1c 24 3d cc 96 df 3b 00 a1 92 3c
       0.041136 0.040065963 0.0068233963 0.017899036
0001a0 48 88 e9 bc 8b 1d e2 3c 32 a0 99 3d 3e 09 88 3d
       -0.028507367 0.027601978 0.07501258 0.06642388
0001b0 c0 07 5e 3c 85 28 93 3d b1 6f 33 3c 72 a9 25 3d
       0.013551652 0.07185463 0.010951922 0.0404448
0001c0 78 e3 85 3d a8 5d 16 3c 2c bc 3d 3d 28 45 f7 3c
       0.06537527 0.009177603 0.046322033 0.030184343
0001d0 f6 05 7a 3d d6 a1 7a b9 63 b5 69 bc de 8d cd 3d
       0.06104084 -0.00023902146 -0.014264437 0.10036825
0001e0 da 55 7e bc 11 93 0f 3c c6 12 ff 3c aa da a5 bc
       -0.015523398 0.008763091 0.031136882 -0.020245869
0001f0 59 6c 85 3d 60 69 d4 3c 63 c3 45 3d cd 1e aa 3c
       0.06514806 0.025929153 0.04828204 0.02076664
000200 c4 81 28 39 4e e3 1e b9 00 b4 b7 bd c4 2d 53 3d
       0.0001607007 -0.00015152732 -0.08969879 0.051557317
000210 43 0f 50 3d 0e 8e e0 3c af d5 85 3c ac 25 58 bc
       0.050795805 0.027411487 0.016337244 -0.013192575
000220 c9 7d 4d bc 4e 64 6b 3c 79 7f 3f 3d aa a6 26 bc
       -0.012542197 0.014367176 0.046752427 -0.010171572
000230 a1 03 26 bd bb 8a ea bc f4 a9 8d 3c c7 94 47 3c
       -0.040530805 -0.028630605 0.017292954 0.012181467
000240 fe 7e a7 3c 4d 11 8e 3c 72 61 68 3d 97 00 61 3b
       0.020446297 0.017342234 0.056733556 0.0034332627
000250 64 32 3c 3d 44 b3 81 3c 02 af be 3c c8 69 12 bc
       0.045946494 0.01583255 0.02327681 -0.008936353
000260 cc ab 8e bc ad c0 1d bc 54 18 a2 bd 70 8f ff bc
       -0.017415904 -0.009628457 -0.079147965 -0.031196326
000270 79 a9 2d 3c eb b2 55 bd db 37 9a bc 76 42 46 3d
       0.010599487 -0.052172583 -0.018825462 0.048403226
000280 7d 70 6f bb 29 d9 03 bd ea af b6 bc 9c 71 5e 3d
       -0.0036535554 -0.032189522 -0.02230068 0.054307565
000290 13 c3 9f 3c e2 1c 4d bd cf 89 b0 3c 03 af 24 bc
       0.019502198 -0.050076373 0.021550087 -0.010051492
0002a0 f5 97 53 3d 74 c6 df bc 05 76 85 bd c0 7f 51 3d
       0.05165859 -0.02731631 -0.06516651 0.051147223
0002b0 81 4b 44 bd ad 34 e9 3b 06 c5 1b 3c dc 1e b9 bc
       -0.04792357 0.007116875 0.009507423 -0.022597723
0002c0 68 9c a4 bc f1 4d 8e 3b bf 58 23 3d 25 97 2b bd
       -0.020094112 0.0043427874 0.039879557 -0.04189219
0002d0 48 14 18 bc 45 42 6d 3d 33 32 d2 3c ae 03 90 bc
       -0.009282179 0.057924528 0.025658702 -0.01757988
0002e0 17 db 48 3c 31 18 06 3a da 7d 83 3d 9a 52 1c bd
       0.012259266 0.0005115299 0.06420489 -0.038164712
0002f0 58 e6 08 bc 0a 2a 29 3d bf 1b 5f 3d 88 e8 1a 3d
       -0.0083556995 0.041299857 0.05446982 0.037819415
000300 e1 ce 82 bc 98 37 90 bc 79 2d 7c 3c a7 d7 01 3d
       -0.015967788 -0.017604634 0.015391701 0.031699803
000310 55 5b d3 bc 6c a6 b1 3c 49 0e f3 3b a4 41 c9 3b
       -0.025800386 0.021685801 0.0074174744 0.006141858
000320 e1 5a 9a bb a2 c3 1a 3d 4f 72 8e 3c 12 b8 0e bc
       -0.0047105406 0.037784226 0.017388491 -0.008710878
000330 32 7f bf 3b 8b 1b 11 bc 0c 3e b7 bb 20 9f 69 3c
       0.0058440203 -0.008856664 -0.0055921134 0.01425913
000340 58 88 08 3d e8 b7 0e 3b 4f f5 41 3b 93 79 18 3d
       0.033333153 0.0021777097 0.0029595678 0.037225317
000350 76 fd 89 bc 7d 71 9c bc 19 26 40 3c 07 25 b2 3c
       -0.016844492 -0.019097084 0.011727833 0.021746172
000360 66 58 68 3d 62 d4 22 3d aa b1 c1 3c 8c 1a 9a 3c
       0.05672493 0.039753325 0.023644287 0.018811487
000370 61 5e 8d bb 42 dc 0a 3d 36 57 2e bd f6 95 ba bc
       -0.0043142294 0.03390146 -0.04256364 -0.022776585
000380 8f 27 1e 3d 02 0b db 3a 1b 98 e4 bc 3b de 2b bb
       0.038611945 0.0016711655 -0.02790456 -0.002622499
000390 fe 39 2e 3d 20 64 6b 3d 6e d8 c7 bc 97 f5 88 bc
       0.042535774 0.057468534 -0.024395194 -0.016718669
0003a0 b3 6d 8c bd 8c db ba 3c aa 7f 29 3d ad 0a a1 3c
       -0.06856861 0.022809766 0.041381516 0.01965841
0003b0 66 b1 97 3d 33 9d aa 3c e2 42 16 bd 0d 60 4d 3d
       0.07406883 0.020826912 -0.03668488 0.05014043
0003c0 56 b7 c9 bc 38 78 5a bd 64 09 0b 3d 29 b8 04 bd
       -0.024623554 -0.053337306 0.033944502 -0.03240219
0003d0 aa 1c b0 bc cd 1c fe bc 55 b6 20 bd c3 2c b5 bc
       -0.021498043 -0.031019593 -0.039236385 -0.02211607
0003e0 a5 fc 6b 3d 11 fd 2b bd ca 7a 53 bd 49 91 84 bb
       0.057613987 -0.04198939 -0.051630773 -0.0040456397
0003f0 c2 fa 39 bb d7 1c 46 bd c4 2f 55 3a 8f f2 fa 3c
       -0.0028378223 -0.048367348 0.0008132423 0.03063324

fc2.bias f4 [300]
000000 28 e7 a1 bb 96 80 d8 bc 87 05 1b bd 85 ef 9c 3c
       -0.004940886 -0.026428502 -0.03784707 0.01915718
000010 cd 0d 12 bc 9c ae 8e 3c c8 89 42 3b 6a cc 52 3c
       -0.008914423 0.017417245 0.0029684175 0.012866119
000020 30 c4 ed bc dc 50 e8 bc dc 18 c0 bb f0 32 a6 3c
       -0.029024214 -0.02835887 -0.0058623385 0.02028796
000030 5b 2c 55 3d f1 08 0f 3d 0a 9e ab bc df 4f 68 3d
       0.052044254 0.034920637 -0.020949382 0.056716796
000040 69 3b 4c 3d 69 3c 20 3a 3e 3b b2 bc d8 4d ac 3c
       0.049861345 0.00061125174 -0.021756765 0.021033213
000050 c9 33 cb bb e1 a2 12 3d 7f f5 2a bd 77 aa 18 bd
       -0.0062012416 0.035799865 -0.04173803 -0.037271943
000060 06 b6 5c 3d 41 93 13 bd 33 98 53 3d d8 52 09 3b
       0.05388453 -0.036029104 0.05165882 0.002095392
000070 a9 6b 4c 3d bc 67 77 3d f8 eb 2e bc 07 97 03 3b
       0.04990736 0.060401663 -0.0106763765 0.0020079033
000080 c3 09 29 3d 6a 2d 0d bd 35 68 77 bc ed 76 0a bd
       0.041269075 -0.03446714 -0.0151005285 -0.033804823
000090 6d 4c d6 bc 81 81 3d 3d e7 b4 1a 3d 1f 87 1f 3d
       -0.02615949 0.046266083 0.03777018 0.03894722
0000a0 58 5d 6e 3c 27 a2 ec bc cb f6 11 3d 1a 8c 5b 3d
       0.014548622 -0.028885914 0.03563575 0.053600408
0000b0 cb 44 f9 bc e4 e4 20 bc 7a 04 ca bc a4 bd 13 3c
       -0.03042831 -0.009820197 -0.024660338 0.009017382
0000c0 55 d5 77 3d c0 9b 5c 3d ba 93 18 bd 3e 1d 29 bd
       0.060506184 0.053859472 -0.037250258 -0.041287653
0000d0 34 51 9d 3b 9d c2 37 bd 35 dd 00 bc 8f 9b 1f bc
       0.00480094 -0.044863332 -0.00786524 -0.009741678
0000e0 34 c4 0c bb d7 d4 19 3d 58 05 71 3d 74 8d 56 ba
       -0.002147925 0.037556496 0.058842987 -0.00081845303
0000f0 bf 3e 70 3d 3f e1 08 3d 28 d5 a9 bb 06 28 18 3d
       0.05865359 0.033417936 -0.005182881 0.037147544
000100 07 06 39 3d 1e d1 21 3d 67 1d c2 bc 05 12 42 bd
       0.045171764 0.03950607 -0.02369566 -0.047380466
000110 19 19 3e bd 2a 8b ac 3c 2d bb b2 3c f3 1e 26 bd
       -0.046410654 0.021062452 0.021817768 -0.04055686
000120 cb cb bf 3c f4 32 7c 3d 28 16 1d 3d 74 e9 4b 3d
       0.023412606 0.06157203 0.038351208 0.049783185
000130 54 5e 80 3d 4b b8 00 bd fc 78 4f 3d 39 a7 7f 3c
       0.06267992 -0.031425755 0.05065249 0.015603834
000140 c5 27 6a 3d 63 80 ae bc af 68 8a 3c b8 85 23 bc
       0.057166833 -0.021301454 0.01689562 -0.0099806115
000150 a7 73 41 3d a6 b6 06 3d 6a 4c b2 bc e0 08 40 bc
       0.047229435 0.03288903 -0.021764953 -0.011720866
000160 9c 00 96 3c f2 db c4 3c 0b 74 90 bc cb 51 bd bb
       0.018310837 0.02403066 -0.017633459 -0.0057775727
000170 ff 8b 55 3d 4b c3 ed 3c 1c 69 14 bd 90 26 5f 3c
       0.052135464 0.029023787 -0.036233053 0.013620034
000180 55 47 d8 bb e1 0d 23 bd 32 6c 20 3d 83 42 6a bc
       -0.0066003003 -0.039808158 0.039165683 -0.014298084
000190 62 db 71 3c 68 36 da 3b b9 97 d1 3b 13 08 29 3d
       0.014761778 0.0066593178 0.0063962606 0.041267466
0001a0 a6 aa 2c 3d b2 6d 4e 3d 8a 50 53 3d cf fb 61 3d
       0.04215493 0.050397582 0.05159048 0.055171784
0001b0 fc ac 41 bd 42 3c a6 3b 38 03 4c bc e7 cb 14 3d
       -0.04728411 0.0050731013 -0.012451939 0.03632727
0001c0 1e b5 37 bb 3f c4 28 bd 4c f9 92 bc ad a7 7e bc
       -0.0028031538 -0.04120278 -0.01794114 -0.015542907
0001d0 4e f8 48 3d 16 a5 11 bb a6 61 61 3c e5 97 c9 3c
       0.049064927 -0.0022223643 0.013756191 0.024608562
0001e0 6e 06 fa bc 16 6e 02 3c 9f 6e ba 3c 1a 8b da 3c
       -0.030520644 0.007960817 0.022757826 0.026677657
0001f0 82 86 05 3d 35 c2 65 3d 90 3f 02 3d a1 13 50 bd
       0.03259898 0.056093413 0.0317989 -0.05079997
000200 37 b3 3a 3c dd 36 1c bd 7a cc 25 bc 62 78 0e bd
       0.011395267 -0.03813826 -0.010119552 -0.034782775
000210 f2 e6 1d bb 8c 00 4c 3d fd f5 d9 bc 68 36 13 bc
       -0.0024093953 0.04980521 -0.026606554 -0.008985139
000220 53 95 8c bc 3f 96 0d 3d 72 50 dd bc 81 4d 82 3c
       -0.017161047 0.034567114 -0.027015898 0.015906097
000230 17 fa 3d bd 75 81 3d bd 18 ec a8 bc cc b9 82 3b
       -0.046381082 -0.046266038 -0.02062039 0.003989434
000240 71 db 0f bb b5 7f 07 3d e8 77 87 3d 74 35 59 3c
       -0.0021950866 0.033080775 0.06614667 0.013257373
000250 a2 e6 49 3c 66 dd 06 bc a7 59 76 bc f0 ef b2 3c
       0.012323054 -0.008231496 -0.015036023 0.021842927
000260 e6 fb 68 3c 79 8f 5f 3d 83 4b e1 3c 3d cf b8 3c
       0.0142202135 0.054580186 0.027501827 0.022559756
000270 c6 55 93 3b 66 6d 21 bd 55 e1 67 bc 07 0c a4 bc
       0.004496309 -0.03941097 -0.014152844 -0.020025266
000280 b1 44 a3 3c 40 0b 3e bd a4 d6 72 3d 52 35 76 3d
       0.019930216 -0.046397448 0.05928673 0.060109444
000290 e4 bf 03 bd b4 f2 f8 bc f5 2e 4a bc 43 30 ae 3c
       -0.032165423 -0.030389167 -0.012340297 0.021263247
0002a0 62 40 6f 3d d7 36 be bc 09 2e d3 ba 0f c5 14 bd
       0.05841101 -0.023219509 -0.0016111742 -0.036320742
0002b0 bb 21 13 3d aa 3f 64 3d 87 f5 3b bd c9 73 7a 3d
       0.03592084 0.055724777 -0.04588845 0.061145578
0002c0 06 22 1d 3d ea ca dc bc ab af fa bc 3c 5d 5b 3d
       0.038362525 -0.026952226 -0.030601343 0.053555712
0002d0 94 ea 61 3d ae c2 c2 bb f9 d4 e5 3b b3 6a 2f bd
       0.05515535 -0.005943618 0.0070139137 -0.042826366
0002e0 03 03 c9 bc 2e 92 56 3d 33 09 44 3d 36 a7 31 bd
       -0.024537569 0.0523855 0.047860336 -0.043372355
0002f0 96 9e c0 bc ca 50 3c 3c b0 dc 6c b9 9e eb 9a bc
       -0.02351312 0.011493871 -0.00022588926 -0.01891118
000300 2d f4 c7 3c 9f 50 37 bd d5 6c 2e 3d cd 53 b9 bc
       0.024408424 -0.04475462 0.04258426 -0.022622967
000310 a1 22 2d bc 30 7a 4d bc fa 97 a1 3b b0 b6 49 3d
       -0.010567338 -0.012541339 0.004931447 0.04924649
000320 8e c6 58 3d c3 6e c9 bc 80 28 81 ba 4f 86 7b bb
       0.05292373 -0.024588948 -0.0009853989 -0.0038379615
000330 80 de 98 3b 81 19 a8 bc be 7a 14 bd ea b5 0b 3a
       0.004665196 -0.020519974 -0.03624987 0.00053295365
000340 cf ed 51 3d a1 64 17 bd 94 f2 7f 3d b5 30 20 3d
       0.051252183 -0.0369612 0.0624872 0.03910895
000350 4d 8c 67 3d 24 85 0e 3d 1c fd d8 bc ce b7 d3 bc
       0.056530286 0.03479494 -0.02648788 -0.02584448
000360 a8 35 38 bd e1 0d 05 3d c1 c0 2f bd ba e6 29 3d
       -0.044973046 0.03248394 -0.042908434 0.041479804
000370 fa b0 ea 3b 31 b5 19 3d dc de d7 bc 84 1d d2 3c
       0.0071622105 0.037526313 -0.026351385 0.02564884
000380 05 3a c3 3c d1 b4 3e bd 2d 5f 55 3d 69 1b 76 3d
       0.023831377 -0.04655916 0.05209272 0.060084734
000390 ce bb 9a 3c 1a 7c c5 bc 15 cc 01 bd 18 22 5f bc
       0.01888838 -0.024107028 -0.03168877 -0.013618968
0003a0 ac c0 51 3d d2 ce 02 ba e7 25 5b bc 8a 64 1d bd
       0.051209137 -0.0004989925 -0.013375736 -0.03842596
0003b0 46 5c 61 3d 67 9f c3 3c 3d ec 0f 3d 0d 49 13 bd
       0.05501964 0.02387972 0.035137404 -0.03595834
0003c0 92 21 91 3d db 5e 8e bc 53 68 42 3d 56 ec 41 3d
       0.07086481 -0.017379215 0.047462773 0.04734453
0003d0 4b a0 46 3d d5 5a 32 3d c4 8f 13 3d 0f e3 57 3c
       0.04849271 0.043543655 0.036025777 0.013176694
0003e0 e7 b8 81 3d 59 9d ac bc c9 80 15 bd b1 d6 2f bc
       0.063340954 -0.021071123 -0.036499772 -0.010732339
0003f0 ba c9 42 3d be 65 2b bc c1 7e 01 3d fe 37 b8 bc
       0.047555663 -0.010461269 0.031615023 -0.022487637

bn1.weight f4 [400]
000000 8a b7 7d 3f 42 df 82 3f 5c 20 87 3f d6 48 8a 3f
       0.99108183 1.0224383 1.055675 1.0803478
000010 a0 4c 83 3f 5d 75 7f 3f 42 c1 89 3f 53 bf 89 3f
       1.0257759 0.9978846 1.0762103 1.0761513
000020 e3 6d 81 3f 00 00 80 3f cc 72 90 3f 00 00 80 3f
       1.011166 1.0 1.1285033 1.0
000030 00 00 80 3f c7 3b 80 3f 27 ef 7f 3f 9a 5c 81 3f
       1.0 1.0018243 0.9997429 1.0106385
000040 c2 61 7f 3f 07 80 95 3f 10 b4 84 3f 3d da 7e 3f
       0.9975854 1.1679696 1.0367451 0.99551755
000050 b8 7b a3 3f 00 00 80 3f 6f 59 81 3f 28 98 8a 3f
       1.2772131 1.0 1.0105418 1.0827684
000060 a1 0c 89 3f cd e9 8e 3f 00 00 80 3f 00 00 80 3f
       1.0706979 1.11651 1.0 1.0
000070 00 00 80 3f 74 67 80 3f 73 e5 7d 3f 50 9b 81 3f
       1.0 1.0031571 0.99178237 1.0125523
000080 7b 11 81 3f 00 00 80 3f b4 50 80 3f 88 01 82 3f
       1.008346 1.0 1.0024629 1.0156717
000090 2a 11 86 3f c3 6e 86 3f db 77 7c 3f 53 33 7f 3f
       1.0473988 1.0502552 0.98620385 0.9968769
0000a0 c4 97 7e 3f 00 00 80 3f ce b3 7d 3f f8 96 7e 3f
       0.99450326 1.0 0.99102485 0.9944911
0000b0 07 0b 81 3f 4f ab 8c 3f e5 d2 7f 3f 37 2b 83 3f
       1.008149 1.0989779 0.99931175 1.0247563
0000c0 c4 1d 82 3f 55 fa 84 3f fd bf 86 3f 9f 13 84 3f
       1.0165334 1.0388895 1.052734 1.0318488
0000d0 81 4d 81 3f 83 a6 81 3f 76 ab 88 3f 00 00 80 3f
       1.0101777 1.012894 1.0677326 1.0
0000e0 ec 30 8b 3f 26 9f 82 3f 86 41 80 3f f8 8d 7e 3f
       1.0874305 1.0204818 1.0019996 0.9943538
0000f0 a7 2d 8c 3f b4 ad 81 3f 55 f3 8e 3f 6d 5f 8d 3f
       1.0951432 1.0131135 1.1168009 1.1044747
000100 6b cc 90 3f 70 35 80 3f 8b 01 7e 3f c5 42 7f 3f
       1.1312383 1.0016308 0.99221104 0.9971126
000110 f0 6c 86 3f 00 00 80 3f 23 ce 80 3f 94 4c 86 3f
       1.0501995 1.0 1.0062908 1.049212
000120 57 33 8e 3f 6f 62 88 3f 00 00 80 3f b8 e8 8f 3f
       1.1109418 1.065504 1.0 1.1242895
000130 65 f7 80 3f cf 4a 8b 3f b4 56 7c 3f 50 fb 80 3f
       1.0075499 1.0882205 0.985698 1.0076694
000140 99 f5 7d 3f 6a 90 81 3f 58 ef 88 3f c0 ed 85 3f
       0.9920288 1.0122197 1.0698042 1.046318
000150 44 3f 82 3f 8a 4b 8e 3f 9a a7 80 3f f2 36 89 3f
       1.0175557 1.1116803 1.0051148 1.0719893
000160 00 00 80 3f 02 2f 7d 3f 8c ff 86 3f e0 57 93 3f
       1.0 0.98899853 1.0546737 1.1511192
000170 11 d3 83 3f c7 01 81 3f dc bc 7e 3f 56 da 7e 3f
       1.0298787 1.0078667 0.99506927 0.99551904
000180 ce ac 89 3f 77 56 7d 3f be 9c 88 3f 2f 92 80 3f
       1.0755861 0.9896006 1.0672834 1.0044612
000190 ac 59 85 3f b7 a1 81 3f 02 41 81 3f f7 0c 84 3f
       1.0417991 1.0127476 1.0097964 1.0316457
0001a0 4f 0a 7e 3f 00 00 80 3f aa f1 7e 3f fc a8 81 3f
       0.9923448 1.0 0.995875 1.0129695
0001b0 c6 99 80 3f 8b e7 87 3f 00 00 80 3f c5 ce 8a 3f
       1.0046928 1.0617536 1.0 1.0844351
0001c0 07 5c 7c 3f 6b 09 7e 3f c2 ca 7c 3f 01 50 7d 3f
       0.9857792 0.9923312 0.98746884 0.989502
0001d0 2a 09 7f 3f be ed 81 3f f8 38 97 3f 7d 9e 94 3f
       0.9962336 1.0150678 1.181426 1.1610867
0001e0 7c ca 7e 3f ff 49 86 3f 5b 44 7e 3f 51 c7 85 3f
       0.99527717 1.0491332 0.9932305 1.0451452
0001f0 08 0d 80 3f 24 d0 83 3f 53 57 7d 3f 00 00 80 3f
       1.0003977 1.0297894 0.9896137 1.0
000200 00 00 80 3f e5 33 81 3f 46 89 88 3f 88 e8 7d 3f
       1.0 1.0093962 1.0666893 0.9918294
000210 6a e2 9d 3f 3c 2e 7d 3f 4f 15 7e 3f ba c8 85 3f
       1.2334721 0.98898673 0.99251264 1.0451882
000220 88 4f 80 3f a4 37 80 3f 6f e0 82 3f 00 00 80 3f
       1.0024271 1.001698 1.0224742 1.0
000230 39 c8 81 3f 8d 58 8a 3f b9 bb 8c 3f 43 66 86 3f
       1.0139228 1.0808274 1.0994788 1.0499958
000240 b9 67 8c 3f 47 08 80 3f 63 2f 84 3f cd ea 7b 3f
       1.0969154 1.0002526 1.0326961 0.9840515
000250 34 c6 81 3f cd 01 83 3f 5b 71 83 3f 92 73 82 3f
       1.0138612 1.0234925 1.0268968 1.0191519
000260 00 00 80 3f b5 16 7b 3f 12 56 90 3f 92 5c 7d 3f
       1.0 0.98081523 1.1276267 0.98969376
000270 00 00 80 3f 00 00 80 3f 46 d6 80 3f af b0 82 3f
       1.0 1.0 1.0065391 1.021017
000280 98 14 82 3f 82 8d 79 3f e1 18 7f 3f b6 7f 7f 3f
       1.0162535 0.9748155 0.9964734 0.99804246
000290 00 00 80 3f 27 8d 93 3f cd ce 8a 3f 00 00 80 3f
       1.0 1.1527451 1.084436 1.0
0002a0 d0 f7 84 3f 00 00 80 3f 37 45 85 3f c3 96 80 3f
       1.0388126 1.0 1.0411748 1.0046009
0002b0 00 00 80 3f 8d af 80 3f 54 68 83 3f 12 fa 84 3f
       1.0 1.0053574 1.0266213 1.0388815
0002c0 d8 86 87 3f 69 e9 7c 3f 22 93 80 3f eb e8 80 3f
       1.0588026 0.98793656 1.0044901 1.0071081
0002d0 56 e4 7d 3f 57 5c 80 3f 7a c4 7d 3f a0 58 7e 3f
       0.9917654 1.002818 0.99127924 0.9935398
0002e0 5c 17 89 3f 07 ea 7e 3f fe a4 81 3f 78 7a 7f 3f
       1.0710254 0.9957585 1.0128477 0.9979625
0002f0 00 00 80 3f f9 e1 7c 3f 02 73 7f 3f 4b a4 7e 3f
       1.0 0.98782307 0.99784863 0.9946944
000300 f7 0d 7e 3f be 43 83 3f 76 95 7b 3f 7d a1 80 3f
       0.9924006 1.0255048 0.98274934 1.0049282
000310 87 9d 7f 3f d9 a3 7e 3f 2d c7 7f 3f 00 00 80 3f
       0.9984974 0.9946876 0.99913293 1.0
000320 40 59 7f 3f 89 ac 7f 3f 79 19 81 3f 51 e9 7e 3f
       0.9974556 0.9987264 1.0085899 0.9957476
000330 5c cc 7f 3f 75 9b 7b 3f 03 81 87 3f e9 eb 82 3f
       0.999212 0.98284084 1.0586246 1.0228244
000340 23 10 83 3f 2c e4 80 3f a6 ca 90 3f 12 e3 80 3f
       1.02393 1.0069633 1.1311843 1.0069296
000350 d8 c4 85 3f e4 03 83 3f 60 1a 81 3f 48 88 85 3f
       1.0450697 1.0235562 1.0086174 1.0432215
000360 ae d1 7d 3f ad 1d 81 3f f7 f9 80 3f 00 00 80 3f
       0.9914807 1.0087181 1.0076283 1.0
000370 b2 b4 7d 3f 99 a1 7c 3f 40 07 80 3f 00 00 80 3f
       0.99103844 0.9868408 1.0002213 1.0
000380 00 00 80 3f 18 ce 95 3f a3 36 7e 3f 46 e5 81 3f
       1.0 1.170352 0.9930212 1.0148094
000390 c0 bb 84 3f 00 00 80 3f 4f be 84 3f b1 6e 8a 3f
       1.0369797 1.0 1.0370578 1.081503
0003a0 fc a4 8e 3f e5 49 90 3f 8a a4 80 3f 00 00 80 3f
       1.1144099 1.1272551 1.0050213 1.0
0003b0 40 2e 85 3f 5d 3b 7e 3f 00 00 80 3f 54 e9 81 3f
       1.0404739 0.9930933 1.0 1.0149331
0003c0 cb f3 85 3f a8 a9 89 3f 95 d6 83 3f 8d 84 80 3f
       1.0465025 1.07549 1.029986 1.0040451
0003d0 e8 14 81 3f f0 64 89 3f 00 00 80 3f aa 5e 81 3f
       1.0084505 1.0733929 1.0 1.0107014
0003e0 16 ce 7d 3f ec 13 7e 3f bb 6e 88 3f 00 00 80 3f
       0.9914259 0.9924915 1.0658792 1.0
0003f0 f6 47 8d 3f 61 07 7f 3f 00 00 80 3f e0 fe 80 3f
       1.1037586 0.99620634 1.0 1.0077782

bn1.bias f4 [400]
000000 cd a6 1d bc cd a0 b5 39 63 4f 73 bb 11 81 25 3d
       -0.009622288 0.00034642816 -0.0037126176 0.04040629
000010 c0 24 43 3c 93 ac a9 bb 71 a5 95 bc 67 26 37 bc
       0.011910617 -0.005178043 -0.018267365 -0.011178589
000020 4b 41 84 3c 00 00 00 00 4f 9f 43 3c 00 00 00 00
       0.016144415 0.0 0.011939838 0.0
000030 00 00 00 00 ad cd 1e 3a 79 d5 e9 b7 cb 61 2b bc
       0.0 0.000605787 -2.787517e-05 -0.010460327
000040 f6 30 2a bc ba c6 35 3b 0c 60 52 bc aa 02 4a bc
       -0.01038765 0.0027736858 -0.012840282 -0.012329737
000050 f6 c4 44 3c 00 00 00 00 01 7b e0 3b b6 1e 0e bc
       0.01200985 0.0 0.0068506007 -0.008674314
000060 9c 03 9c 3c 97 94 e9 3c 00 00 00 00 00 00 00 00
       0.01904469 0.028513236 0.0 0.0
000070 00 00 00 00 96 d4 fe bb 4b 24 db 3b 08 7c 3a 3c
       0.0 -0.007776807 0.006687676 0.01138211
000080 22 53 6f bb 00 00 00 00 75 50 26 bb 28 99 c7 3b
       -0.0036518057 0.0 -0.0025377546 0.0060912557
000090 58 db a1 3b be fd 49 3c 0f bb 6b bc 98 b1 00 bc
       0.004939478 0.012328563 -0.01438786 -0.007854842
0000a0 42 fa 20 bc 00 00 00 00 db a9 1a bc 33 fd 06 bc
       -0.009825291 0.0 -0.009439911 -0.008239078
0000b0 be ba e2 3c d7 50 2d 3d a7 a0 ff bb 48 7b 14 3c
       0.027676936 0.042313423 -0.0078011337 0.009062596
0000c0 2e 97 5a 3b 6c 5b 5f 3c a1 b3 91 ba a6 8a 14 bc
       0.003335427 0.0136326365 -0.0011116156 -0.0090662595
0000d0 8b 00 89 3b 8e 2d 7f 3b 8e 3e c9 bb 00 00 00 00
       0.004180973 0.0038937065 -0.0061414903 0.0
0000e0 b6 86 f6 3c 93 e4 a7 3c ac 48 d3 3a c6 40 e5 bb
       0.030093532 0.020494735 0.001611968 -0.006996247
0000f0 2c 9d 81 3c 36 b4 bb bb a9 06 43 3c 95 85 f0 3c
       0.015822016 -0.00572827 0.011903443 0.029360572
000100 b0 cc 45 bc d0 0d e2 bb 11 ae 03 bc 9e aa 89 bb
       -0.012072727 -0.0068986192 -0.008037106 -0.0042012474
000110 7e bc 20 3c 00 00 00 00 35 32 ad bb bb cf 46 3b
       0.009810565 0.0 -0.005285526 0.003033622
000120 74 c6 60 3c 28 9e b4 3b 00 00 00 00 f3 47 93 bc
       0.01371919 0.0055120178 0.0 -0.017978644
000130 14 8f 64 ba 37 f0 4b 3c 15 af 86 bc bc f8 00 bb
       -0.000871883 0.012447408 -0.016440907 -0.0019679507
000140 b6 9b 12 bb 06 93 e0 ba 34 24 33 3d a6 27 50 bb
       -0.0022370643 -0.001713366 0.043735698 -0.0031761914
000150 39 17 46 3c 37 0c aa 3b 8b 90 48 bc 2d b1 16 3b
       0.012090498 0.0051894444 -0.012241493 0.0022993789
000160 00 00 00 00 68 b3 64 bc 00 56 9d ba 07 3d 9c 3c
       0.0 -0.013958789 -0.0012003779 0.019072069
000170 cd 00 5a 3b d5 ce 80 3b b9 cd 10 bc 25 78 bc bb
       0.0033264637 0.0039309063 -0.008838111 -0.005751627
000180 c8 a1 be ba e1 c4 81 bc 11 7c 39 bc 7d 50 03 bc
       -0.0014544064 -0.01584095 -0.011321084 -0.008014795
000190 8c b8 f9 bb 94 d6 d7 3a 40 f2 f3 3b 89 ef 28 3c
       -0.0076208767 0.0016467148 0.00744465 0.010311016
0001a0 38 96 42 3a 00 00 00 00 e5 32 ac bb ca 6f 0d 3c
       0.0007422897 0.0 -0.0052550905 0.00863261
0001b0 0d fe e7 3b ec 34 20 bc 00 00 00 00 2b 78 3a 3b
       0.0070798458 -0.009778243 0.0 0.0028452973
0001c0 88 57 5c bc 8e ae ba bb d8 d8 62 bc 1d 6c ec bb
       -0.013448603 -0.005697078 -0.013845645 -0.0072150365
0001d0 57 cf 5d bb 08 46 27 3c e4 74 83 39 ec ba 43 3c
       -0.0033845508 0.010209568 0.00025073357 0.011946421
0001e0 25 a5 a4 bb d1 72 88 3c c0 92 26 bc d6 97 79 3c
       -0.0050245696 0.016656311 -0.010166824 0.015233954
0001f0 82 a2 33 ba 10 39 8b 3c bb 27 3f bc 00 00 00 00
       -0.00068525237 0.016994983 -0.011667187 0.0
000200 00 00 00 00 fd cd f5 3a bd ac ea bc cb 00 11 bc
       0.0 0.0018753406 -0.028646821 -0.008850287
000210 bb 41 33 3c 00 c9 5a bc 64 ed 5a bc 03 1c c3 bb
       0.010940964 -0.013353586 -0.013362262 -0.005954267
000220 2e eb 39 3b e1 4f 87 bb 45 4c b6 3b 00 00 00 00
       0.0028368938 -0.0041293954 0.0055632913 0.0
000230 01 05 92 bb 51 85 d5 3c 0b f8 ee 3a d1 5d 55 3b
       -0.004456163 0.026064547 0.0018231882 0.003255714
000240 2e d8 4c 3c 53 d8 c0 3b a4 70 cc 3b d7 dc a7 bc
       0.012502713 0.005885163 0.0062390137 -0.020491047
000250 54 b3 df 3b 17 25 64 3c df be c8 ba eb b1 16 bb
       0.0068267975 0.0139248585 -0.0015315673 -0.002299423
000260 00 00 00 00 0d 2b a9 bc f1 6c 39 3c 8b a2 36 bc
       0.0 -0.020650411 0.011317478 -0.011147152
000270 00 00 00 00 00 00 00 00 1b 08 7c 3c 75 87 0a 3b
       0.0 0.0 0.015382792 0.0021137868
000280 b4 f8 90 3c 32 9d 94 bc 87 3f 65 bb 26 71 24 bb
       0.017696716 -0.018141363 -0.0034980492 -0.0025091856
000290 00 00 00 00 6a 87 4b 3c 7f 58 1b bd 00 00 00 00
       0.0 0.012422422 -0.037926193 0.0
0002a0 83 ff 29 3d 00 00 00 00 51 62 40 3a c1 50 e6 3a
       0.04150344 0.0 0.0007338869 0.0017571674
0002b0 00 00 00 00 db 4d 7a b9 69 47 70 3c b4 65 98 3c
       0.0 -0.00023870861 0.014665463 0.018603183
0002c0 e5 ac 10 3c 2f 04 06 bc 99 8c 45 3c 80 43 38 3b
       0.008830284 -0.008179708 0.012057447 0.0028116405
0002d0 37 84 26 bc 82 32 0a bc 9a ad 25 bc 54 b3 15 bc
       -0.010163358 -0.008434894 -0.010112191 -0.009136993
0002e0 cd 51 9b 3c f1 a5 9f bb d4 4b 00 3d a9 d7 fe 3b
       0.018959904 -0.0048720767 0.031322315 0.0077771735
0002f0 00 00 00 00 03 1e 19 bb 01 09 c6 bb df 0b 23 bb
       0.0 -0.0023363836 -0.006043554 -0.0024878902
000300 7b 69 15 bc af f4 e1 3c e7 81 bd bc 0a 48 f7 3b
       -0.009119387 0.027582495 -0.023133231 0.0075464295
000310 32 03 5b bb 77 5c 1c bc b3 ca 09 bb 00 00 00 00
       -0.0033418653 -0.00954353 -0.002102536 0.0
000320 77 5a 17 bc 75 16 10 bb 84 c4 c0 bb 9c b4 a8 bb
       -0.009237877 -0.0021986042 -0.0058828015 -0.0051484834
000330 47 aa a4 bb 3c d7 f7 bb 04 d9 91 3c 0d cd 44 3c
       -0.0050251815 -0.0075634997 0.017803676 0.012011779
000340 0a 98 53 bb 37 2c 73 3b c9 2c a9 3b 88 af e6 3b
       -0.0032286667 0.0037105212 0.0051628095 0.007039968
000350 5c 3e 2f 3c ef e6 0e 3c ca 59 ae 3b 76 32 3b bc
       0.01069602 0.008722051 0.0053207623 -0.011425605
000360 50 e2 2f bc fa ae dd bb d4 ef 8c 3b 00 00 00 00
       -0.010735109 -0.0067652436 0.0043010507 0.0
000370 87 f6 18 bc 70 1a 77 bc d6 1a 2a bc 00 00 00 00
       -0.00933612 -0.015081987 -0.010382375 0.0
000380 00 00 00 00 81 31 17 bb fc ea e9 bb 59 d4 7b bb
       0.0 -0.0023070278 -0.007138608 -0.003842613
000390 a1 4f b4 3b 00 00 00 00 82 9f 58 3b 19 e7 9f 3a
       0.0055026566 0.0 0.0033054058 0.001219961
0003a0 59 ec 99 3c 64 06 0b 3c 73 b3 7e 3b 00 00 00 00
       0.018789457 0.00848541 0.0038864284 0.0
0003b0 f0 c0 06 bc 5d 8b f4 bb 00 00 00 00 2d 09 d8 bb
       -0.008224711 -0.0074629025 0.0 -0.0065928907
0003c0 56 35 78 3c 13 2e 34 3b 42 24 07 3c 75 c1 11 3b
       0.015149435 0.0027493283 0.008248391 0.0022240554
0003d0 2d 48 c3 bb 7b c0 b7 bb 00 00 00 00 cd 66 62 ba
       -0.0059595318 -0.0056076623 0.0 -0.00086365343
0003e0 cb 02 a7 b9 d6 f6 03 bc 99 d5 ba bc 00 00 00 00
       -0.00031854803 -0.008054456 -0.02280693 0.0
0003f0 45 ce df bb 9f e0 43 3c 00 00 00 00 75 0e ea bb
       -0.006830009 0.011955409 0.0 -0.0071428367

bn2.weight f4 [300]
000000 67 c9 8d 3f fe e9 7a 3f a8 c6 81 3f c2 86 83 3f
       1.1077088 0.98013294 1.013875 1.02755
000010 e1 e3 8c 3f 12 9e 80 3f 74 c9 92 3f 42 da 8b 3f
       1.1007043 1.0048239 1.1467729 1.0925982
000020 7d 24 94 3f 65 90 8c 3f b9 a5 89 3f a3 97 8a 3f
       1.1573635 1.0981566 1.07537 1.0827526
000030 30 08 8e 3f 5e fb 91 3f c2 f4 86 3f b2 87 98 3f
       1.1096249 1.1404836 1.0543444 1.1916411
000040 8e 13 93 3f 38 4f 97 3f 6e bd 8b 3f 75 15 83 3f
       1.1490343 1.1821051 1.0917184 1.0240923
000050 05 03 84 3f 64 7e 94 3f 14 e0 82 3f 6e 82 83 3f
       1.0313421 1.1601071 1.0224633 1.0274179
000060 c6 47 a0 3f a4 71 96 3f fe 0d 8d 3f 40 fc 96 3f
       1.2521904 1.175343 1.1019895 1.179573
000070 b5 64 8d 3f 6b 95 8b 3f ec 9b 8a 3f 59 ff 85 3f
       1.1046358 1.0904974 1.0828834 1.0468551
000080 c5 cd 95 3f 6d 96 7f 3f f7 c6 85 3f b0 e6 83 3f
       1.1703421 0.99838907 1.0451344 1.0304775
000090 f1 b3 8e 3f 28 f3 90 3f 02 d9 98 3f db a6 95 3f
       1.1148664 1.1324205 1.1941226 1.1691545
0000a0 0d 70 96 3f 55 5d 90 3f 00 4e 8f 3f 79 01 8f 3f
       1.1752945 1.1278483 1.1195679 1.1172324
0000b0 74 b8 8e 3f 21 7a 91 3f dc b1 8a 3f 03 27 89 3f
       1.1150041 1.1365396 1.0835528 1.071503
0000c0 22 9e 91 3f ac fa 96 3f 37 22 7f 3f c3 94 98 3f
       1.1376383 1.1795249 0.9966158 1.1920398
0000d0 db 26 8c 3f 3e bf 97 3f 3e 26 93 3f 19 9a 83 3f
       1.0949358 1.1855237 1.1496046 1.0281402
0000e0 5b ba 82 3f dc 89 90 3f c0 4c 8a 3f c8 05 85 3f
       1.0213121 1.1292071 1.0804672 1.0392389
0000f0 c3 c9 85 3f 6f c0 83 3f 20 06 87 3f 60 87 92 3f
       1.0452198 1.0293101 1.0548744 1.1447563
000100 1b b1 8b 3f 7b ef 8d 3f 29 d6 8f 3f 06 f2 97 3f
       1.0913423 1.1088709 1.1237231 1.1870735
000110 97 c1 8f 3f 6f 89 88 3f 7f a5 9e 3f dd 66 8a 3f
       1.1230954 1.0666941 1.2394255 1.0812641
000120 35 90 8f 3f 81 42 89 3f 80 0c a7 3f c1 1d 88 3f
       1.1215883 1.072342 1.305069 1.063408
000130 20 c5 89 3f 6c d0 9d 3f 19 36 88 3f 2a 4c a8 3f
       1.0763283 1.232923 1.0641509 1.3148243
000140 2c d4 96 3f cf 2d 82 3f 85 27 a3 3f db 41 9e 3f
       1.17835 1.017023 1.2746435 1.2363847
000150 57 59 86 3f 68 96 8c 3f 3c 75 8e 3f 05 37 84 3f
       1.0496014 1.09834 1.1129527 1.0329291
000160 3a 72 87 3f 71 c5 8b 3f 00 4d 9c 3f c3 1c 93 3f
       1.0581734 1.0919629 1.2210999 1.1493152
000170 96 2e 92 3f 7e f9 89 3f d0 51 8d 3f f9 a8 98 3f
       1.1420467 1.0779264 1.1040592 1.1926566
000180 2c a0 8a 3f 67 3d 86 3f 04 6f 8a 3f 0c 4e 8e 3f
       1.083013 1.0487489 1.0815129 1.1117568
000190 0d c2 9c 3f 02 0b 95 3f da 86 90 3f 12 67 94 3f
       1.224672 1.1643984 1.1291153 1.1593955
0001a0 86 01 96 3f 9e 98 91 3f c4 29 87 3f 9a 38 98 3f
       1.1719215 1.13747 1.0559621 1.1892273
0001b0 e3 7f 85 3f 53 be 8e 3f 8f fc 86 3f 08 09 94 3f
       1.0429653 1.1151832 1.0545825 1.1565256
0001c0 34 5f 80 3f 6c ff 8f 3f c6 54 90 3f bc c6 af 3f
       1.0029054 1.1249824 1.1275871 1.3732524
0001d0 da 52 7f 3f 2f 2b 83 3f 98 a1 81 3f 36 63 9a 3f
       0.99735796 1.0247554 1.012744 1.2061527
0001e0 fb 82 9b 3f 76 7a 90 3f 77 08 95 3f 35 fc 86 3f
       1.2149347 1.1287372 1.1643208 1.0545717
0001f0 75 38 88 3f 4e 55 9c 3f 7f 5e 83 3f 4a a4 99 3f
       1.0642229 1.2213533 1.0263213 1.2003262
000200 84 4f 96 3f 57 ea 8c 3f 8a 14 9c 3f 53 56 86 3f
       1.1743016 1.1009015 1.2193768 1.0495094
000210 94 c3 98 3f 26 1f 8d 3f db 46 9a 3f 35 d4 a9 3f
       1.1934686 1.1025131 1.2052873 1.3267885
000220 02 b9 82 3f 01 fc 88 3f 25 11 8b 3f 30 ab 8d 3f
       1.021271 1.0701905 1.0864607 1.1067867
000230 7e 17 99 3f 19 ce 88 3f cb 59 9b 3f 58 0d 81 3f
       1.1960294 1.0687896 1.2136778 1.0082197
000240 6d 59 9c 3f 47 65 8d 3f 6a 07 8c 3f fa 32 97 3f
       1.221479 1.1046532 1.0939763 1.1812432
000250 ad 12 7f 3f f7 4a 90 3f 11 eb 90 3f 91 bc 8b 3f
       0.9963787 1.1272877 1.1321737 1.0916921
000260 b8 08 95 3f c1 e9 9b 3f fd ef 99 3f 56 69 9d 3f
       1.1643286 1.2180711 1.2026364 1.2297771
000270 98 d8 97 3f 79 c6 91 3f 13 ee 89 3f cb 1a 93 3f
       1.1862974 1.1388694 1.077578 1.1492552
000280 27 75 96 3f 72 f4 84 3f a3 f8 8d 3f bc cc 8d 3f
       1.1754502 1.0387099 1.1091503 1.1078105
000290 dc 06 99 3f 16 81 8c 3f 69 30 93 3f 0d 69 8a 3f
       1.1955218 1.0976894 1.1499149 1.0813309
0002a0 15 c7 8b 3f 42 27 85 3f 44 f1 85 3f 52 95 83 3f
       1.092013 1.0402606 1.0464253 1.0279944
0002b0 c3 d2 95 3f 59 89 a1 3f e6 a1 93 3f c1 fd 8d 3f
       1.1704944 1.262004 1.1533782 1.1093065
0002c0 db b5 89 3f fb c8 8e 3f 00 f7 86 3f 7a 66 85 3f
       1.0758623 1.1155084 1.0544128 1.0421898
0002d0 40 44 8e 3f fb 6a 82 3f 07 25 8c 3f 17 bb 87 3f
       1.1114578 1.0188898 1.09488 1.060397
0002e0 f7 00 97 3f c4 20 9b 3f 80 99 88 3f ef fd 83 3f
       1.179717 1.2119374 1.0671844 1.0311869
0002f0 87 34 95 3f 48 ac 9e 3f 1d 57 87 3f 84 b4 88 3f
       1.1656655 1.2396326 1.057346 1.0680089
000300 e3 b0 84 3f ad 13 87 3f 68 6e 84 3f 3e cf 96 3f
       1.0366482 1.055288 1.0346193 1.1781995
000310 c2 30 82 3f 5b 01 82 3f c4 a7 9c 3f d3 b8 83 3f
       1.017113 1.0156664 1.2238698 1.0290779
000320 ec c4 93 3f 6e 43 95 3f 56 dd 8d 3f cd f7 9c 3f
       1.1544471 1.1661203 1.1083171 1.2263123
000330 e3 56 94 3f f7 9d 9c 3f 48 79 87 3f b0 9f 89 3f
       1.1589016 1.2235707 1.0583887 1.0751858
000340 e8 6c 83 3f 84 b5 88 3f 99 06 95 3f 0f 6c 97 3f
       1.026761 1.0680394 1.1642638 1.1829852
000350 fc a0 94 3f a9 8a 8e 3f ab 66 96 3f e0 c5 8e 3f
       1.1611629 1.1136066 1.1750082 1.1154137
000360 18 96 82 3f f5 c7 8e 3f 7e 9b 8b 3f c2 fc 87 3f
       1.0202055 1.1154772 1.0906827 1.062401
000370 58 66 9a 3f 8e 79 89 3f a2 3c 9a 3f ad 86 98 3f
       1.2062483 1.074022 1.2049754 1.19161
000380 0b fb 9c 3f 32 da 93 3f d6 f7 9a 3f 50 9a 9e 3f
       1.2264112 1.1550963 1.2106884 1.2390842
000390 64 18 92 3f b1 b5 90 3f 0e 61 82 3f 4a 6f 8b 3f
       1.1413693 1.1305448 1.0185869 1.0893338
0003a0 36 90 9a 3f 31 6c 9c 3f 8b b7 8e 3f f5 53 8a 3f
       1.207526 1.2220517 1.1149763 1.0806872
0003b0 7b 82 9a 3f 4b 70 9a 3f da 1d 8d 3f 20 45 8b 3f
       1.207107 1.2065519 1.1024735 1.088047
0003c0 29 33 90 3f 42 6d 81 3f c1 0a 82 3f f2 f2 88 3f
       1.1265613 1.0111468 1.0159532 1.0699141
0003d0 c9 f9 8d 3f 1f 58 88 3f 0b 1a 9b 3f 52 f2 90 3f
       1.1091853 1.0651892 1.2117323 1.132395
0003e0 79 1e 80 3f 8a 1f 85 3f 10 04 8d 3f 1c b4 95 3f
       1.00093 1.040025 1.1016865 1.169559
0003f0 b2 03 87 3f a8 a3 93 3f 3e b0 98 3f dd 51 8d 3f
       1.0548003 1.1534319 1.1928785 1.1040608
