tmp/ddpg/critic_ddpg.pth (torch, 506930 bytes, 11 tensors)

fc1.weight f4 [400, 6]
0	0x3d6f698b	0.058450263
1	0x3c30a86b	0.0107823415
2	0x3d531108	0.051529914
3	0xbead8820	-0.33892918
4	0xbe6565a5	-0.22402056
5	0xbea1d601	-0.31608585
6	0x3cc45f3d	0.023971194
7	0x3cf42c3e	0.029806253
8	0x3dc4adec	0.096034855
9	0x3e5b9f70	0.2144754
10	0xbe728f68	-0.23687518
11	0xbe2d6854	-0.1693433
12	0x3d18de10	0.03732115
13	0x3d09f6c1	0.03368259
14	0xbe39c6a5	-0.18142183
15	0xbe2b6775	-0.16738684
16	0xbec57169	-0.38563088
17	0xbfe062b8	-1.7530127
18	0x3d2ce172	0.04220719
19	0x3c89db51	0.016828211
20	0x3e2f6510	0.17128396
21	0xbe20ad6b	-0.15691154
22	0x3e3f194d	0.18661995
23	0xbe9987b5	-0.2998635
24	0xbbcf83b2	-0.006332838
25	0x3d503a0f	0.05083662
26	0x3bc9701b	0.006147397
27	0x3e301b34	0.17197877
28	0x3e380d02	0.17973712
29	0x3f9978ff	1.199005
30	0x3d138673	0.036016893
31	0x3cf27db0	0.029600948
32	0x3bda2518	0.006657254
33	0x3e566640	0.20937443
34	0xbec145e7	-0.37748644
35	0xbec91e76	-0.39281052
36	0x3d059f0a	0.032622375
37	0x3cb8b0b1	0.02254519
38	0x3d056306	0.03256514
39	0x3d5908e0	0.05298698
40	0x3e486f94	0.19573814
41	0xbf9c387c	-1.2204738
42	0x3d40e8e2	0.047097094
43	0x3c2f71aa	0.010708252
44	0xbd8d6853	-0.06904664
45	0x3e037228	0.12836516
46	0x3e54be33	0.2077568
47	0x3f383f0d	0.7197121
48	0x3d2f5307	0.04280379
49	0x3c90c13d	0.017670268
50	0x3d660339	0.056155417
51	0x3d839f50	0.06426871
52	0xbea9762c	-0.3309797
53	0xbe74696f	-0.23868345
54	0x3d420188	0.04736474
55	0x3ca61a25	0.020276139
56	0x3e220dbe	0.15825555
57	0x3e6609f3	0.22464733
58	0xbe06bac3	-0.13157181
59	0xbea1f36f	-0.31631038
60	0x3d82927e	0.063755974
61	0xba0fda51	-0.0005487549
62	0xbc0ab813	-0.008466738
63	0x3dd95271	0.106114276
64	0x3e125911	0.14291789
65	0x3f16192b	0.58632153
66	0x3d182b53	0.037150692
67	0x3c912d37	0.017721755
68	0x3d570706	0.052496932
69	0x3d6f3f30	0.05840987
70	0x3e7c403d	0.2463388
71	0x3f91660c	1.1359267
72	0xbc764592	-0.015031235
73	0x3d604a55	0.05475839
74	0x3e8498f3	0.2589794
75	0x3da671de	0.08127187
76	0x3e831333	0.25600585
77	0xbf7137af	-0.9422559
78	0x3d652a8d	0.055948783
79	0x3b24c633	0.002514255
80	0xbe71dad6	-0.23618636
81	0xbe165e1f	-0.14684342
82	0xbdf4e974	-0.1195859
83	0xbf246e50	-0.64230824
84	0x3d79785c	0.0609058
85	0x3cbba41f	0.022905407
86	0xbe4f9e4a	-0.20275226
87	0x3e4ea333	0.20179443
88	0x3d75a488	0.059971362
89	0xbee9f1e9	-0.45692375
90	0xbc945220	-0.018105567
91	0x3d8baf6e	0.0682057
92	0xbd2ea4b3	-0.04263754
93	0xbe30e2eb	-0.17274062
94	0x3dc1e9ed	0.09468446
95	0xbec03101	-0.37537387
96	0x3c1dd84b	0.009634088
97	0x3d04e2b8	0.03244278
98	0x3db1cd24	0.086817056
99	0x3e3e75c0	0.18599606
100	0x3e67d05a	0.22638074
101	0xbf454b90	-0.77068424
102	0x3d3f3cea	0.04668895
103	0xbc8f160b	-0.017466566
104	0x3e85eb9d	0.2615632
105	0x3d009386	0.03139069
106	0xbecc8739	-0.39946917
107	0x3f01df52	0.50731385
108	0xbb430561	-0.0029757845
109	0x3d499a44	0.049219385
110	0x3e1a7e61	0.15087272
111	0xbe913ccb	-0.28366694
112	0x3e267d70	0.16258788
113	0x3de11826	0.10990934
114	0x3d91d38c	0.071204275
115	0xbc262c60	-0.010142416
116	0xbe827ccf	-0.25485846
117	0xbcac697c	-0.021046393
118	0xbd8b5b53	-0.06804528
119	0xbf37420a	-0.7158514
120	0x3d65185c	0.055931434
121	0x3c8e5859	0.017376112
122	0x3e17c25f	0.1482024
123	0x3e93d2f3	0.2887188
124	0xbe010d46	-0.1260272
125	0x3f149f82	0.5805589
126	0xbca1192f	-0.019665329
127	0x3d2c6d4d	0.042096425
128	0xbe2a6eee	-0.16643879
129	0xbea4c90e	-0.32184643
130	0x3e383a6f	0.1799104
131	0x3e888386	0.26662844
132	0xbc04aa4c	-0.008097243
133	0x3d867c14	0.06566635
134	0x3dc02abb	0.0938315
135	0xbe431bdd	-0.19053598
136	0xbde358da	-0.111009315
137	0xbdc1d893	-0.094651364
138	0x3d151bd9	0.03640351
139	0x3ca08a4f	0.0195972
140	0xbd5771df	-0.05259883
141	0x3eb6f300	0.3573227
142	0xbbf38420	-0.007431522
143	0xbec053f1	-0.37564042
144	0x3d95c517	0.073129825
145	0xbc01ee83	-0.007930401
146	0xbe1e86af	-0.15481065
147	0x3c8cbaaa	0.017178852
148	0xbd634deb	-0.05549423
149	0xbeec7c11	-0.46188405
150	0xbcca1623	-0.024668759
151	0x3d9afe97	0.075680904
152	0xbdf65451	-0.12027801
153	0xbc89d5cf	-0.016825585
154	0x3e0b78bd	0.13620277
155	0x3ee75fa7	0.45190164
156	0x3b3fa70b	0.0029243852
157	0x3d58ad1f	0.052899476
158	0xbe411c68	-0.18858492
159	0xbe63f7d7	-0.22262512
160	0xbd897d6d	-0.06713376
161	0xbfde42a4	-1.7364087
162	0x3d199a17	0.037500467
163	0x3cdcd861	0.026958646
164	0xbd2e60cd	-0.042572785
165	0x3ec58076	0.3857457
166	0xbe26dc50	-0.1629498
167	0x3efb5e13	0.4909521
168	0xbb89a578	-0.0042006336
169	0x3d5ae11b	0.053437334
170	0x3da6bdf8	0.081417024
171	0xbed650b2	-0.4185844
172	0x3e631636	0.22176442
173	0xbe267aae	-0.16257736
174	0x3d1aba99	0.03777561
175	0x3c9b4c6d	0.018957341
176	0xbab1a2d8	-0.001355256
177	0x3e205247	0.15656386
178	0x3e4889a7	0.1958376
179	0x3e8cf676	0.27531785
180	0x3d2de59c	0.0424553
181	0x3c80b574	0.015711524
182	0xbece1db8	-0.4025705
183	0x3d83ed87	0.06441789
184	0x3d7e573f	0.062094923
185	0xbec0e407	-0.3767397
186	0x3d216309	0.039401088
187	0x3c8522cb	0.016251942
188	0x3deb1a70	0.11479652
189	0xbe140ba0	-0.1445756
190	0x3ea79f17	0.32738563
191	0x3ecbf668	0.3983643
192	0x3d587467	0.052845385
193	0x3c7d6f03	0.015468362
194	0xbe212019	-0.157349
195	0x3dc66c0a	0.096885756
196	0x3d88fee1	0.06689239
197	0xbe2a686c	-0.16641396
198	0x3d939d83	0.07207777
199	0x3c4bcb07	0.012438542
200	0xbe83c53b	-0.25736412
201	0x3e7efa60	0.24900198
202	0xbed46479	-0.41482905
203	0x3eaa5025	0.3326427
204	0x3d375425	0.04475798
205	0x3cacbecf	0.021087078
206	0xbec4a439	-0.38406542
207	0xbe42f80d	-0.19039936
208	0xbe16788b	-0.14694421
209	0x3d814b64	0.06313208
210	0x3d15fbe8	0.03661719
211	0x3c439370	0.011937007
212	0xbeeb0f76	-0.45910233
213	0xbd06bfc3	-0.032897722
214	0xbef62b0d	-0.4807972
215	0xbedb331c	-0.4281243
216	0x3bd1b6e0	0.006399974
217	0x3d4a9c14	0.049465254
218	0x3ee42796	0.44561452
219	0x3e1fdfca	0.15612713
220	0xbf0b520e	-0.5442208
221	0x3caaa727	0.020831658
222	0x3d08e4bc	0.033421263
223	0x3cb69e9a	0.022292424
224	0xbd12a7f5	-0.035804708
225	0xbe81622c	-0.25270212
226	0xbd36d48d	-0.044636298
227	0x3f0eeee8	0.5583329
228	0xbc89e85c	-0.01683443
229	0x3d8b7e2c	0.06811175
230	0x3de56245	0.11200384
231	0x3d19b32d	0.03752439
232	0x3b347fc5	0.0027541977
233	0x3e9a523c	0.30140865
234	0x3d1f506c	0.038895056
235	0x3cd65bac	0.02616676
236	0x3d8253c6	0.06363635
237	0x3eb8090a	0.35944396
238	0xbd98ad3e	-0.07454918
239	0x3f407077	0.7517161
240	0x3d6ea698	0.058264345
241	0x3ba22c88	0.004949156
242	0xbd74a524	-0.059727803
243	0xbdca2de2	-0.09872033
244	0x3e1706a8	0.14748633
245	0xbdadc1d2	-0.08484234
246	0x3d4224ef	0.047398504
247	0x3c9618a5	0.018322298
248	0xbdbaa061	-0.09112621
249	0x3eadea93	0.33968028
250	0xbcf6236d	-0.03004619
251	0xbf382ff7	-0.7194819
252	0x3d03c4c4	0.032170072
253	0x3cb6f7a2	0.022334877
254	0x3eb6ae04	0.35679638
255	0xbdcc6114	-0.09979454

fc1.bias f4 [400]
0	0xbe934427	-0.28762934
1	0x3ecf5917	0.40497658
2	0xbe42582a	-0.18978944
3	0x3d4c413a	0.049866892
4	0x3eb36440	0.35037422
5	0x3e5e8886	0.21731767
6	0x3dfc6d5a	0.12325545
7	0xbb7d6949	-0.0038667491
8	0xbdbac189	-0.09118945
9	0xbc8d838c	-0.01727464
10	0xbec0ee23	-0.37681684
11	0x3ec4ac4a	0.38412696
12	0x3e34a378	0.17640483
13	0x3e841bfe	0.25802606
14	0xbcf355f8	-0.029704079
15	0xbf493788	-0.7860036
16	0x3dc0e73b	0.09419104
17	0x3ee25586	0.44205874
18	0xbd99eab9	-0.07515473
19	0x3e2dd0c7	0.16974173
20	0xbcbe440e	-0.02322581
21	0x3d7d8507	0.061894443
22	0xbe42f53d	-0.19038863
23	0xbebc922c	-0.3683027
24	0x3e8a6ade	0.27034658
25	0xbe1595f6	-0.14607987
26	0x3e0837bb	0.1330251
27	0x3edae932	0.4275604
28	0x3c613672	0.013745891
29	0x3d9f33df	0.077735655
30	0x3e87858e	0.26469082
31	0x3c85042c	0.01623734
32	0xbf305586	-0.688805
33	0x3e286460	0.1644454
34	0x3f103cb6	0.5634264
35	0x3eab53af	0.33462283
36	0xbe0fa86b	-0.1402909
37	0xbe7e1d21	-0.248158
38	0xbea29447	-0.31753752
39	0x3df0bfd8	0.11755341
40	0xbee3031d	-0.44338313
41	0x3e39183d	0.18075652
42	0x3ea245e8	0.3169396
43	0x3ae52a01	0.0017483832
44	0x3e2de681	0.16982462
45	0xbd9ab12a	-0.075533226
46	0xbd9e8d78	-0.07741827
47	0x3de76ff8	0.11300653
48	0x3ea1148e	0.31460994
49	0x3edb4dda	0.42832834
50	0x3e9cb703	0.30608377
51	0xbe6d25fc	-0.23159021
52	0xbeacba57	-0.33735916
53	0x3e9219ed	0.28535405
54	0x3e927595	0.28605333
55	0xbe00bc40	-0.12571812
56	0x3da77eee	0.08178507
57	0x3e418ef3	0.18902187
58	0xbe6b68d0	-0.22989202
59	0xbd4e958b	-0.050435584
60	0x3e53f89d	0.20700307
61	0x3e009b1b	0.12559168
62	0xbd71dcc1	-0.059048418
63	0x3e230ba5	0.15922411
64	0xbdb480c6	-0.08813624
65	0x3d1c73b6	0.038196288
66	0x3e49a73d	0.19692703
67	0x3ed5ebf2	0.41781574
68	0x3ee88528	0.4541409
69	0xbe98ea95	-0.29866472
70	0xbe487a4a	-0.195779
71	0xbe6a2398	-0.2286514
72	0xbd8c27fd	-0.06843565
73	0xbe4c529c	-0.19953388
74	0xbd5e061c	-0.054205045
75	0x3e8ec941	0.2788792
76	0x3e910b00	0.28328705
77	0x3ea03f5e	0.31298345
78	0xbf1885d9	-0.59579235
79	0xbed9b748	-0.42522645
80	0x3e16d9e7	0.1473156
81	0xbbe40182	-0.0069581876
82	0x3e8ddff1	0.27709916
83	0xbdb39acd	-0.0876976
84	0x3ce74551	0.028231295
85	0xbea71a3b	-0.326372
86	0xbd6282c6	-0.055300497
87	0x3ed5333e	0.41640657
88	0x3e5803eb	0.21095245
89	0x3da7b14c	0.081881136
90	0xbe676e9d	-0.2260079
91	0xbf0cc8cf	-0.5499391
92	0xbe920578	-0.28519797
93	0x3eefbe33	0.46824798
94	0x3e141540	0.14461231
95	0xbdaaccd3	-0.08339848
96	0xbeeba8fd	-0.46027365
97	0x3e4b68a4	0.19864136
98	0xbe9709c3	-0.29499635
99	0x3ecaf2af	0.39638278
100	0x3ca48f6b	0.020087918
101	0xbe7dcb51	-0.2478459
102	0xbdbd71db	-0.09250232
103	0x3efbf6f5	0.4921185
104	0x3e262824	0.1622625
105	0x3dfd3b1d	0.123647906
106	0xbe58257d	-0.2110805
107	0x3d554ae9	0.052073393
108	0xbeeec22d	-0.4663252
109	0xbd57bd11	-0.052670542
110	0xbe5888bb	-0.21145909
111	0x3e55025e	0.20801684
112	0x3e985d93	0.2975889
113	0x3e310fd4	0.17291194
114	0x3d787d4e	0.060666375
115	0x3e4637b8	0.19357193
116	0x3ebfdb9f	0.37472245
117	0x3e5eecf0	0.21770072
118	0xbe05be28	-0.1306082
119	0x3ed9b8ef	0.42523906
120	0x3dea5224	0.11441448
121	0x3d7f1afa	0.062281586
122	0xbe3f8058	-0.18701303
123	0xbe1c0a11	-0.15238215
124	0x3c837d0f	0.016050844
125	0x3e96ec8a	0.2947734
126	0xbdb73aa1	-0.089467295
127	0xbd50248c	-0.050816104
128	0xbf02053d	-0.50789243
129	0xbe5af2aa	-0.21381631
130	0xbe7e0153	-0.24805193
131	0x3ec315fc	0.3810271
132	0xbf07a22b	-0.52981824
133	0xbe9f6f24	-0.3113948
134	0x3da72ab5	0.081624426
135	0x3ed051db	0.4068745
136	0xbed78afc	-0.42098224
137	0x3e9f1f3b	0.31078514
138	0x3ba4fd49	0.0050350768
139	0x3e4907b3	0.19631843
140	0x3e9615c7	0.2931349
141	0xbef3b4b4	-0.47598803
142	0x3d7e2d4a	0.06205491
143	0x3eada6ca	0.33916312
144	0xbc6290d4	-0.013828475
145	0x3e5a9142	0.21344474
146	0xbe491a9f	-0.19639061
147	0xbf22f85a	-0.63660204
148	0x3db35b6e	0.08757673
149	0x3e8e2580	0.27762985
150	0xbe9ccdaa	-0.3062566
151	0x3f0292bb	0.5100514
152	0x3e2a0d70	0.16606688
153	0x3e01dd78	0.1268214
154	0x3e1ea451	0.15492369
155	0xbe37f06f	-0.17962812
156	0xbe1a4e2b	-0.15068881
157	0xbbb5b6e1	-0.0055454825
158	0xbe157a22	-0.14597371
159	0xbf095d77	-0.5365824
160	0x3ccb1def	0.024794547
161	0x3de6b12f	0.11264264
162	0x3ed0ca73	0.40779456
163	0x3dc6c618	0.09705752
164	0x3f0180e2	0.50587285
165	0xbe9625d6	-0.29325742
166	0xbe27b87e	-0.16378972
167	0xbec56acb	-0.3855804
168	0x3e2ab2d9	0.16669787
169	0x3e417773	0.18893223
170	0xbedb3556	-0.4281413
171	0xbf158333	-0.5840332
172	0xbd59390e	-0.053032927
173	0x3ec30296	0.3808791
174	0xbd8cbe20	-0.06872201
175	0xbd2ebac9	-0.0426586
176	0x3d8fcfa7	0.070220284
177	0x3e2e7343	0.17036156
178	0x3e9aee3b	0.3025988
179	0x3e2bfef7	0.1679648
180	0xbe334ebc	-0.17510504
181	0x3d211889	0.03933004
182	0x3ed37832	0.4130264
183	0x3e60e7b4	0.21963388
184	0x3d9abf6c	0.07556042
185	0x3e732e71	0.23748185
186	0xbdab3851	-0.08360351
187	0x3e79212a	0.24329057
188	0x3ef764df	0.48319146
189	0x3e251080	0.16119576
190	0xbd0f9153	-0.0350507
191	0x3e03fade	0.12888667
192	0x3ec2e0f0	0.3806224
193	0x3c98a6b4	0.018634178
194	0x3ee5d817	0.44891426
195	0xbec6018b	-0.38673052
196	0x3dd7dbdc	0.10539982
197	0xbe1f2edd	-0.1554522
198	0xbe49411d	-0.19653745
199	0x3e5dccab	0.21660106
200	0x3e9cc900	0.306221
201	0x3ea827f5	0.32842985
202	0x3d5cd751	0.05391628
203	0x3c9db708	0.019252315
204	0xbea5c3db	-0.32375988
205	0xbdddc74d	-0.10829029
206	0xbd16f415	-0.03685387
207	0xbd10324d	-0.03520422
208	0xbe56e9cc	-0.20987624
209	0xbe65068f	-0.22365783
210	0x3efa9778	0.48943686
211	0x3e446f21	0.19183017
212	0xbd48fb79	-0.049067948
213	0xbe823aab	-0.25435385
214	0xbea44d3d	-0.32090178
215	0xbe564c5b	-0.20927565
216	0x3d616f1a	0.055037595
217	0x3cfdbd31	0.030974003
218	0xbdd3d0f4	-0.10342589
219	0x3d81345b	0.06308814
220	0xbe61d485	-0.22053726
221	0x3e4ef219	0.2020954
222	0x3f0d4196	0.551782
223	0xbe28319a	-0.16425171
224	0x3d91b48a	0.07114513
225	0x3e85f15c	0.26160705
226	0xbd67c42c	-0.05658357
227	0xbed00713	-0.40630397
228	0x3e8de6bd	0.27715102
229	0xbe21d2bc	-0.15803045
230	0xbdf0e8cc	-0.117631525
231	0x3ca6a6bd	0.020343179
232	0x3ebb49b5	0.36579672
233	0x3ecacef0	0.39611006
234	0xbec8553d	-0.39127532
235	0xbcaa1e68	-0.020766452
236	0xbd88eeaf	-0.0668615
237	0xbde6850e	-0.11255847
238	0xbd97dd4d	-0.07415257
239	0xbd15a460	-0.036533713
240	0x3f005263	0.5012571
241	0xb9025910	-0.00012430944
242	0xbddde644	-0.10834935
243	0xbe39b28d	-0.18134518
244	0xbec4bbc7	-0.38424513
245	0x3ea9f533	0.33194885
246	0xbe6fd675	-0.23421653
247	0xbce5e915	-0.028065244
248	0xbe29dd0d	-0.1658823
249	0xbe15bcd8	-0.1462282
250	0x3e9242bf	0.28566548
251	0xbf08c179	-0.53420216
252	0x3d4ffa81	0.05077601
253	0xbe2e8aff	-0.1704521
254	0xbcddc23e	-0.027070161
255	0x3e4c203c	0.19934171

fc2.weight f4 [300, 400]
0	0x3d4618aa	0.048363365
1	0xbd9df7c0	-0.0771327
2	0x3c998782	0.018741373
3	0x3d803d8b	0.062617384
4	0x3cfa42de	0.030549463
5	0x3d22a9e9	0.03971282
6	0xbc402115	-0.011726637
7	0x3dfcc730	0.123426795
8	0xbd962c66	-0.07332687
9	0x3ca6f8fc	0.020382397
10	0x3d8b29cb	0.06795081
11	0xbc66dbde	-0.014090506
12	0x3d87787b	0.06614777
13	0xbd3f9424	-0.046772137
14	0xbcb58e0b	-0.022162458
15	0x3e9fd125	0.31214252
16	0xbbb02b7a	-0.0053762766
17	0x3de8c822	0.11366297
18	0xbde64632	-0.112438574
19	0xbd11c5e4	-0.035589114
20	0x3d0c3834	0.034233287
21	0x3e16beb7	0.1472119
22	0x3a4300ec	0.0007438797
23	0xbd086d06	-0.033307098
24	0xbd6c1454	-0.057636574
25	0xbcdc46b4	-0.026889183
26	0x3d3dff8f	0.046386298
27	0x3d091560	0.03346765
28	0xbe1c44f2	-0.15260676
29	0x3c501bac	0.01270191
30	0xbd8c32e6	-0.068456456
31	0x3cf355b0	0.029703945
32	0x3be826cc	0.007084703
33	0xbd33717f	-0.04380941
34	0xbd5a7989	-0.05333856
35	0xbcfaede6	-0.030631017
36	0xbc3126f6	-0.010812512
37	0xbdbb7269	-0.091526814
38	0x3d48ddef	0.049039777
39	0x3d8c56be	0.06852482
40	0x3cb80bd3	0.022466576
41	0xba586d6f	-0.0008256053
42	0xbcb64839	-0.022251235
43	0x3c9931fe	0.018700596
44	0x3cd3f016	0.025871318
45	0x3b2178c6	0.0024638637
46	0xbced1178	-0.028938994
47	0x3e029fda	0.12756291
48	0x3dce64f2	0.100778475
49	0x3d6a40da	0.057190754
50	0x3c41765e	0.011808006
51	0x3ce30d5f	0.027716337
52	0x3d8236b8	0.06358093
53	0xbb9d4e6b	-0.004800608
54	0xbd7a8aa9	-0.061167393
55	0x3dcd8861	0.10035778
56	0x0000016b	5.09e-43
57	0xbc8d6704	-0.017261036
58	0xbdc9e481	-0.09858037
59	0x3e277e4b	0.1635677
60	0xbccf350f	-0.025293855
61	0xbd32c7e4	-0.04364766
62	0x1edfe659	2.3706313e-20
63	0xbc384a84	-0.011248235
64	0x3dabb646	0.08384375
65	0x3e0d68b9	0.1380948
66	0x3db1fffc	0.08691403
67	0xbdef838d	-0.11695013
68	0x3c5e3876	0.013563266
69	0x3e8314b7	0.25601742
70	0xbd80bbba	-0.06285806
71	0xbd4cb85b	-0.049980503
72	0x0000015f	4.92e-43
73	0x3e15e6e3	0.14638858
74	0x003bbdb1	5.486343e-39
75	0xbd9ede46	-0.07757239
76	0x3db1d6b4	0.086835295
77	0xbb575e92	-0.0032862765
78	0x3e7e5ec5	0.24840839
79	0xbbce56e3	-0.006296979
80	0x3d2ec5a7	0.042668965
81	0xbba15ce9	-0.004924406
82	0x3d02c148	0.03192261
83	0x3e4e399c	0.20139164
84	0xbc8b0090	-0.016968042
85	0x3d8d1446	0.068886325
86	0x3cc38bbb	0.02387034
87	0xbb3c3617	-0.0028718763
88	0x3e61b2ef	0.22040914
89	0x3c2a3329	0.010388174
90	0xbc7fa32d	-0.015602869
91	0x3d2cb26d	0.042162348
92	0xbdc9291e	-0.098222956
93	0xbcf223c3	-0.029558068
94	0xbb75c704	-0.0037502656
95	0xbd1697dd	-0.03676592
96	0x3cc14835	0.023594001
97	0xbd1a5ae6	-0.037684344
98	0x3de729f6	0.112873
99	0xbaf378e6	-0.0018575459
100	0x3d331297	0.0437189
101	0xbc0feb32	-0.008784102
102	0x3d03dbfc	0.032192215
103	0x3ca83938	0.020535097
104	0xbd5f59b1	-0.054528896
105	0x3c9440bb	0.018097272
106	0xbe2b6fa0	-0.167418
107	0x3cff71a9	0.031182127
108	0x3ce5b733	0.028041458
109	0x2ba0914c	1.1409012e-12
110	0xbe1cb16e	-0.15302059
111	0xbd1b8af7	-0.037974324
112	0xbc4399f7	-0.011938564
113	0x3c14ca12	0.00908138
114	0x3d92351a	0.071390346
115	0x3d37159e	0.04469835
116	0xbd83fb18	-0.06444377
117	0x3d173e6c	0.036924765
118	0x3ce2ba25	0.027676651
119	0x3dec3876	0.115342066
120	0x3d57c711	0.05268008
121	0x3c356fde	0.0110740345
122	0x3d014b23	0.031565797
123	0xbe0e64ef	-0.1390569
124	0x3d806d62	0.06270863
125	0xbb770e0e	-0.0037697586
126	0x3dbe96ac	0.09306082
127	0x3c89a664	0.016802974
128	0x3d37611b	0.04477034
129	0x3d0cfc49	0.034420285
130	0x3ccee0e0	0.025253713
131	0xbd93b1be	-0.07211636
132	0x3ba8eddd	0.0051553086
133	0xba6583e8	-0.00087553123
134	0xbce3bf1b	-0.027801087
135	0xbd8834b0	-0.06650674
136	0xbd7e439c	-0.062076196
137	0x3e2f76fa	0.1713523
138	0x3ab5b0e4	0.0013861922
139	0x3dacdc31	0.08440436
140	0x3c7afeac	0.015319508
141	0x3db5325d	0.08847497
142	0xbe7fbfc6	-0.249755
143	0xbd8dad1e	-0.06917785
144	0x3d027213	0.03184707
145	0xbbd9eb8f	-0.006650395
146	0xbca4271b	-0.020038178
147	0x3d493169	0.049119387
148	0x3ccf1a37	0.025281055
149	0x3d985a0b	0.07439049
150	0x3c88f8ec	0.016720258
151	0xbc125c26	-0.008933103
152	0xbd0cd7a1	-0.034385327
153	0x3d2c0b62	0.042003043
154	0xbccfa43b	-0.025346866
155	0xbde550db	-0.111970626
156	0xbdbf71c0	-0.09347868
157	0x3da7a7aa	0.08186276
158	0x3dcec5df	0.10096335
159	0x3da8bdfb	0.08239361
160	0xbdac1585	-0.08402542
161	0xbe061515	-0.1309398
162	0x3d3b9838	0.045799464
163	0x3d64f780	0.055900097
164	0xbc4ab6e8	-0.01237271
165	0x3de7b035	0.11312906
166	0x3de9d725	0.11417989
167	0x3dfaac2a	0.12239869
168	0x3e00cc40	0.12577915
169	0x3d62e0cd	0.055390168
170	0x3e0cd2d9	0.13752307
171	0x3ca1a88f	0.019733695
172	0x3b1cc1c7	0.0023919211
173	0x3d0af85d	0.033928264
174	0x3d2665df	0.040624496
175	0xbbcda858	-0.0062761717
176	0x3e208734	0.15676576
177	0x3dce7d94	0.10082546
178	0xbca9c993	-0.020726
179	0xbd7f8994	-0.062387064
180	0x3de0ba1c	0.109729975
181	0xbc110509	-0.008851298
182	0x3e4fb55b	0.20284025
183	0x3e2d1fb5	0.16906627
184	0x3d76a50c	0.060215995
185	0xbcb31af2	-0.021863434
186	0xb98bacf0	-0.00026640994
187	0xbccb1209	-0.024788873
188	0xbd26aadb	-0.040690284
189	0xbd3a2572	-0.045445867
190	0xb06f79f2	-8.712099e-10
191	0xbc7d1117	-0.015445969
192	0x3d3e2101	0.046418194
193	0xbcd321ab	-0.02577289
194	0x3da0a5c8	0.0784412
195	0x3d8c0e85	0.06838707
196	0xbba1d643	-0.004938872
197	0x3c70c8c7	0.014696307
198	0x3da9790b	0.0827504
199	0xbd84bbb4	-0.06481114
200	0x3d0af1ea	0.033922113
201	0x3e802242	0.25026137
202	0x3c11fb46	0.008910006
203	0xbcd33dcc	-0.025786303
204	0x3c89292b	0.016743263
205	0x3c5ef829	0.013608971
206	0x3cae4bc6	0.021276366
207	0x3dbc1af4	0.091848284
208	0xbc866e94	-0.01641015
209	0xbc592cf0	-0.013255343
210	0xbc9bb69f	-0.019007979
211	0xbb87a1fe	-0.004139184
212	0x3cababa2	0.020955864
213	0x3c0dc391	0.008652584
214	0xbcb54e1e	-0.022131976
215	0xbd53282d	-0.051551986
216	0xbcac291a	-0.021015693
217	0xbd7ff94d	-0.06249361
218	0x3c6b718d	0.014370334
219	0xbc1879f2	-0.009306418
220	0x3e239172	0.15973452
221	0xbd66ff64	-0.056395903
222	0xbc224807	-0.009904868
223	0x39760e46	0.00023465705
224	0x3c878be8	0.016546205
225	0xbdce78cc	-0.10081634
226	0x3e9dda2d	0.30830517
227	0xbd4d20f7	-0.050080266
228	0x3e117eb3	0.14208488
229	0x3cfc7758	0.030818626
230	0xbe41765f	-0.18892811
231	0x3b2093fb	0.0024502266
232	0x3d73d763	0.05953158
233	0x3d363de1	0.044492606
234	0x3e41af44	0.18914515
235	0x3c6ea809	0.01456643
236	0x2ccce463	5.8233847e-12
237	0x3c527836	0.012846043
238	0x36156e29	2.2266852e-06
239	0xbdcc38c8	-0.09971768
240	0x3cbb0693	0.022830283
241	0x3c39de91	0.011344568
242	0x3c04e80a	0.008111963
243	0x3e2e8516	0.17042956
244	0xbd332d95	-0.043744642
245	0xbdb6065a	-0.0888793
246	0x3dd1f72a	0.10252221
247	0x3cbccc71	0.023046704
248	0x3dfef12e	0.12448345
249	0xbc9bf217	-0.019036336
250	0xbd0e8a37	-0.03479978
251	0x3d8cee84	0.06881431
252	0x3d7229c6	0.05912187
253	0xbd08c9cb	-0.03339557
254	0x3d3247e2	0.043525584
255	0x3d0957fc	0.033531174

fc2.bias f4 [300]
0	0x3cad185e	0.021129783
1	0x3c910370	0.017701834
2	0x3cbbff61	0.022948923
3	0x3ba460ad	0.0050164075
4	0x3c88a5f1	0.01668069
5	0x3c1c7921	0.009550364
6	0x3c2d4ad5	0.010576923
7	0x3bb6c42e	0.0055775857
8	0xbae32058	-0.0017328365
9	0x3c2deca6	0.010615503
10	0x3d01260a	0.031530418
11	0x3ccf0f7f	0.025275944
12	0x3ce267e8	0.027637437
13	0x3cb9ebdc	0.022695474
14	0x3c5bade2	0.013408156
15	0x3d25bdc8	0.040464193
16	0x3c8c11f9	0.017098414
17	0x3cd6b75b	0.026210478
18	0x3d2f9eb3	0.042875957
19	0x3ce5ead0	0.028066069
20	0xb979864c	-0.0002379652
21	0x3d2367b4	0.03989382
22	0x3ca808d8	0.02051203
23	0xb89af5c0	-7.389067e-05
24	0x39b7d600	0.00035063922
25	0x3d079e9f	0.033110257
26	0x3ca52510	0.020159274
27	0x3c139c8c	0.009009492
28	0x3d310579	0.04321811
29	0x3c098797	0.008394144
30	0x3c9579bb	0.018246522
31	0xb9b7bf15	-0.00035046847
32	0x3c463d12	0.012099521
33	0x3cee8809	0.029117601
34	0x3c9d6874	0.019214846
35	0x3ce21553	0.027598059
36	0x3bedcb8c	0.0072569307
37	0x3c7e1a2b	0.015509169
38	0x3cdd82e9	0.027039962
39	0x3d267294	0.040636614
40	0x3cbc480a	0.02298357
41	0x3ca9a634	0.020709135
42	0x3c10fd78	0.008849494
43	0x3cd1fed8	0.025634214
44	0x3cfe74c9	0.031061547
45	0x3c8fe821	0.017566742
46	0x3c92af9d	0.017906005
47	0x3d04656b	0.032323282
48	0x3cafff59	0.021484064
49	0x3d062bc6	0.03275659
50	0x3c08b2f4	0.008343447
51	0x3d15a56f	0.036534723
52	0xbcb5ac56	-0.022176903
53	0x3c5205d1	0.01281877
54	0x3be1250d	0.006870872
55	0x3bfed5f1	0.0077769686
56	0x3cf29b78	0.029615149
57	0x3ca99764	0.020702071
58	0x3c483215	0.012218972
59	0x3bdec519	0.006798398
60	0x3c817080	0.015800714
61	0x3d19b974	0.037530378
62	0x3c912c9e	0.01772147
63	0x3be12e68	0.006871987
64	0xbc72a4d9	-0.014809811
65	0x3bce89f7	0.006303068
66	0x3ca71563	0.02039594
67	0x3d358127	0.044312622
68	0x3ccdc790	0.025119573
69	0x3ccac638	0.024752721
70	0xba6aca8e	-0.00089565746
71	0xbbeccd96	-0.007226656
72	0x3cc309cd	0.023808384
73	0x3cb89373	0.022531247
74	0x3c97de19	0.018538522
75	0x3cfe26ea	0.031024415
76	0x3d2244b6	0.03961631
77	0x3c19cd8b	0.009387384
78	0x3cec515d	0.02884739
79	0x3d0ae23f	0.03390717
80	0x3c629e25	0.01383165
81	0x3d25a0de	0.040436618
82	0x3cf0f7c2	0.029415015
83	0x3ca5f002	0.020256046
84	0x3c598cc3	0.013278189
85	0x3c25f450	0.010129049
86	0x3cd0412c	0.025421701
87	0x3c1e6c6b	0.009669404
88	0x3cd0f79d	0.025508696
89	0x3c1c3d76	0.009536138
90	0x3ce994c9	0.02851333
91	0x3baf0c00	0.0053420067
92	0xbb915fdf	-0.0044364776
93	0x3b587931	0.003303122
94	0x3c63e2e9	0.01390908
95	0x3cfb2ae9	0.03066011
96	0xba3f894b	-0.000730653
97	0x3d123367	0.035693552
98	0x3d0356fd	0.03206538
99	0x3d0f1ba6	0.034938477
100	0x3ca4bd6d	0.020109857
101	0x3b2dc189	0.002651306
102	0x3d1627e4	0.036659136
103	0xbc5f4662	-0.01362762
104	0x3cc5c941	0.024143817
105	0x3caa4b16	0.020787757
106	0x3c770da1	0.015078933
107	0x3b359285	0.002770574
108	0x3c53a4b9	0.012917691
109	0x3cad0776	0.021121722
110	0x3c9200be	0.01782262
111	0x3cbb9e63	0.022902673
112	0x3bc05f23	0.005870716
113	0x3c8f5226	0.017495226
114	0x3c90c60c	0.017672561
115	0x3caccf9b	0.021095088
116	0x3cd08085	0.025451908
117	0x3c2e5bd3	0.01064201
118	0x3d032270	0.032015264
119	0x3d003d33	0.031308364
120	0x3c06dcaf	0.008231326
121	0xb974d041	-0.00023347234
122	0x3c89f525	0.016840527
123	0x3b626b32	0.0034548757
124	0x3c908891	0.017643245
125	0x3be64cd8	0.0070282035
126	0x3ce4ea0f	0.02794364
127	0x3c4c4316	0.012467166
128	0x3d040b81	0.032237533
129	0x3c588440	0.013215125
130	0x3d2f2416	0.042759024
131	0x3cb5ec32	0.022207353
132	0x3c70e8af	0.014703914
133	0x3d0a6fc4	0.033797994
134	0xbb54133d	-0.00323601
135	0x3c65a4cf	0.014016344
136	0x3cd2e661	0.025744619
137	0x3cb5fa16	0.022213977
138	0x3c061e64	0.008185957
139	0x3c1f6c35	0.009730388
140	0x3cee685b	0.029102495
141	0x3d0dc6b4	0.034613326
142	0x3ce2006d	0.027588094
143	0x3d1c09bf	0.038095232
144	0x3cd86463	0.026415056
145	0x3cfbe0a2	0.030746762
146	0x3d01bf25	0.03167643
147	0x3cb7a6f3	0.022418475
148	0x3c3b6d22	0.0114395935
149	0x3cc6ee35	0.024283508
150	0x3cbdabbc	0.023153178
151	0x3b85345e	0.0040650805
152	0x3c02c782	0.007982137
153	0x3cebdd42	0.028792027
154	0x3d0305bd	0.031987894
155	0x3b7460cf	0.0037289148
156	0x3cc3cdba	0.023901809
157	0x3c44e885	0.012018328
158	0x3cd4dce9	0.025984244
159	0xbc186e52	-0.009303646
160	0x3cbba1c9	0.022904294
161	0x3c555279	0.013020151
162	0x3cd651c4	0.026162036
163	0x3c8b64bc	0.017015807
164	0x3c9526ae	0.01820692
165	0x3c9d6ea3	0.019217795
166	0x3c9c03a9	0.019044714
167	0x3d43581f	0.04769146
168	0x3d289733	0.04115982
169	0x3cd33229	0.025780754
170	0x3ce6f024	0.02819068
171	0x3d150fbf	0.03639197
172	0xbbf510d2	-0.007478812
173	0x3cdb17d6	0.026744764
174	0x3cd76cbf	0.026296971
175	0x3a6eb4f0	0.0009105941
176	0x3c99a4ba	0.018755306
177	0x3c9e34e9	0.019312339
178	0x3c76ae1c	0.015056159
179	0x3c6ea06a	0.014564613
180	0x3d0d2207	0.03445628
181	0x3ccd9838	0.025096998
182	0xbcb7ae7a	-0.022422064
183	0x3cb68a81	0.02228284
184	0x3c84252b	0.016131004
185	0x3cbf3081	0.023338558
186	0x3c71ae23	0.01475099
187	0x3ce2d03e	0.027687188
188	0x3c5f9bb8	0.013647966
189	0x3cf8ea69	0.030385213
190	0x3d0623e1	0.03274906
191	0x3ba663e7	0.0050778273
192	0x3c050230	0.008118197
193	0x3c195b76	0.009360185
194	0x3c8fcef7	0.017554743
195	0x3d0b2ca8	0.033978134
196	0x3c72702c	0.014797252
197	0x3cf0bbf7	0.029386504
198	0x3ce383a4	0.027772732
199	0x3cbfb78d	0.023402954
200	0x3ca0caa6	0.01962788
201	0x3d04324a	0.032274522
202	0x3c7e1b01	0.015509368
203	0x3cf5cc85	0.03000475
204	0x3d104bfe	0.03522872
205	0x3cdcbeb3	0.026946401
206	0x3ced8e32	0.028998468
207	0x3ca930fc	0.02065324
208	0xbb7c69ce	-0.0038515213
209	0xbb1e8681	-0.0024189057
210	0x3d2c170c	0.042014167
211	0x3aef1832	0.0018241464
212	0x3bc3c467	0.0059743407
213	0x3cd35cc7	0.025801076
214	0x3b51a4e0	0.0031989142
215	0x3cd26e4f	0.025687365
216	0x3d160314	0.03662403
217	0x3ca2fd61	0.019896211
218	0xbb0480ca	-0.0020218366
219	0xba93f9bd	-0.0011289638
220	0x3d2f8c15	0.042858202
221	0x3d18509c	0.03718625
222	0x3cf6a242	0.030106667
223	0x3c112744	0.008859459
224	0x3a2268cf	0.0006195427
225	0x3c98509f	0.01859313
226	0x3c21ffe2	0.009887667
227	0x3b63f988	0.0034786183
228	0x3c8b5a30	0.017010778
229	0x3ce88282	0.028382543
230	0x3b6f96a5	0.0036558297
231	0x3c90a2bf	0.017655728
232	0x3c6349c8	0.013872571
233	0x3caf0f0a	0.021369476
234	0x3b61ecb3	0.003447336
235	0x3cfaea60	0.030629337
236	0xbc6a1695	-0.014287611
237	0x3c828d66	0.015936565
238	0x3ce77dba	0.028258193
239	0x3cd5acd8	0.026083395
240	0x3ccb1580	0.024790525
241	0xbb825c96	-0.0039783223
242	0x3c9373ef	0.017999617
243	0x3c9dd62b	0.019267162
244	0x3ce2a150	0.02766481
245	0x3ccd2c21	0.025045456
246	0x3cbd37c4	0.02309788
247	0x3a1ad9bc	0.0005907079
248	0x3cc1cdf0	0.023657769
249	0x3d2077b7	0.03917667
250	0x3c13a6af	0.009011908
251	0x3c11728d	0.008877409
252	0x3cedb9ce	0.029019263
253	0xbb2e99b9	-0.0026641919
254	0x3c5ca420	0.013466865
255	0x3b921abb	0.004458753

bn1.weight f4 [400]
0	0x3f378530	0.71687603
1	0x3eff5ca9	0.49875382
2	0x3f092b51	0.5358172
3	0x3f583902	0.84461987
4	0x3f5e9443	0.8694498
5	0x3edc4c7e	0.4302711
6	0x3f53d85c	0.82752013
7	0x3f0d850f	0.55281156
8	0x3f306012	0.6889659
9	0x3f00d43e	0.50323856
10	0x3f0a158e	0.5393914
11	0x3f4de38d	0.8042534
12	0x3f548f25	0.8303092
13	0x3f424012	0.75879014
14	0x3e688bc8	0.22709572
15	0x3f76eef7	0.9645838
16	0x3f3051d9	0.6887489
17	0x3f488537	0.7832827
18	0x3f1d5f4f	0.61473554
19	0x3f5241e6	0.82131803
20	0x3e77901a	0.24176064
21	0x3fa9487b	1.3225244
22	0x3f09dcef	0.5385274
23	0x3f346922	0.7047292
24	0x3f407ed5	0.7519353
25	0x3f47b9ea	0.7801806
26	0x3f1f1cec	0.62153506
27	0x3ebfb09b	0.37439427
28	0x3f43298f	0.7623529
29	0x3eb3b565	0.3509933
30	0x3f1bdc83	0.6088335
31	0x3f430bc8	0.7618985
32	0x3ee21849	0.44159153
33	0x3e7e58a8	0.24838507
34	0x3f24adb4	0.6432755
35	0x3f70e218	0.9409499
36	0x3f275234	0.65359807
37	0x3f628ade	0.88493145
38	0x3f3dac2b	0.7409083
39	0x3e8b162b	0.2716535
40	0x3f568db3	0.83809966
41	0x3eb213a9	0.34780625
42	0x3f4231f4	0.7585747
43	0x3f2c255c	0.67244506
44	0x3e3e1bf4	0.18565351
45	0xbb518979	-0.003197281
46	0x3e96f1b4	0.2948128
47	0x3f52dee0	0.8237133
48	0x3e95ac7c	0.29233158
49	0x3f0b81d4	0.54494977
50	0x3f1bbb23	0.6083242
51	0x3f13c543	0.5772287
52	0x3f1bcbfa	0.6085812
53	0x3f106446	0.56403005
54	0x3f24ab35	0.6432374
55	0x3f2acbf7	0.66717476
56	0xb89efc31	-7.5810014e-05
57	0x3f0de107	0.5542149
58	0x3f0d71b7	0.5525164
59	0x3f4d1506	0.80110204
60	0x3f4f16ed	0.80894357
61	0x3f039827	0.5140404
62	0x3d2402ad	0.040041614
63	0x3f4d1a20	0.8011799
64	0x3f598689	0.8497091
65	0x3f584f16	0.84495676
66	0x3f18b69f	0.5965366
67	0x3f2c69cb	0.6734893
68	0x3ee9bebe	0.45653337
69	0x3f3fd4ce	0.7493409
70	0x3f3d5b97	0.7396788
71	0x3f21be5d	0.63181096
72	0x39bf0046	0.00036430563
73	0x3f9147ab	1.1349996
74	0x3c914b0d	0.017735982
75	0x3f26ce5d	0.65158635
76	0x3ed71213	0.42005977
77	0x3f18e4e4	0.5972426
78	0x3f834215	1.0254542
79	0x3f4e67e6	0.80627286
80	0x3ed8505e	0.42248815
81	0x3f175d7b	0.59127015
82	0x3f82c27d	1.0215603
83	0x3f880da1	1.0629159
84	0x3ea4d5eb	0.32194456
85	0x3f3fb4ee	0.7488545
86	0x3ef4acd2	0.477881
87	0x3e38fe07	0.18065654
88	0x3eee2748	0.46514344
89	0x3f171aed	0.5902546
90	0x3f2b672f	0.6695432
91	0x3f3d33b3	0.7390701
92	0x3f1e3443	0.61798495
93	0x3f6a4839	0.91516453
94	0x3f2a74f9	0.66584736
95	0x3ecdcc35	0.4019486
96	0x3f4d7d2c	0.8026912
97	0x3f3f41bf	0.74709696
98	0x3f470b02	0.7775117
99	0x3f0353d6	0.512998
100	0x3f75877c	0.9590986
101	0x3f0ad5b4	0.54232335
102	0x3eff8a02	0.4990998
103	0x3f21233f	0.62944406
104	0x3f5257c0	0.82165146
105	0x3eea5542	0.45768172
106	0x3f46bbd4	0.7763035
107	0x3ee22fbe	0.4417705
108	0x3f52bdc2	0.823208
109	0xbb32f06c	-0.0027303947
110	0x3f79dd5d	0.976034
111	0x3f3f8d4b	0.7482497
112	0x3f3c7b31	0.73625475
113	0x3e18b1b7	0.14911543
114	0x3eecc4d4	0.46243918
115	0x3f1d569e	0.6146029
116	0x3f2e678d	0.68126756
117	0x3f3ea1a6	0.74465406
118	0x3f124c6f	0.5714788
119	0x3f69d161	0.9133511
120	0x3ee47cc5	0.44626442
121	0x3f349ff8	0.7055659
122	0x3f0672b3	0.5251877
123	0x3f0ea6d2	0.557233
124	0x3f363444	0.711735
125	0x3f5c1aab	0.8597819
126	0x3f1497d1	0.58044153
127	0x3f240e73	0.6408455
128	0x3eec7a8f	0.46187255
129	0x3f26b081	0.65113074
130	0x3f52140e	0.8206185
131	0x3f28c748	0.6592908
132	0x3edba12c	0.42896402
133	0x3f3aa627	0.7290978
134	0x3efd36db	0.49455914
135	0x3f0993ea	0.53741324
136	0x3f606212	0.87649643
137	0x3f46f5dc	0.777189
138	0x3d5c0cc8	0.053723127
139	0x3f554ecb	0.83323354
140	0x3ebbd76b	0.36687788
141	0x3f4b4948	0.79408693
142	0x3f1043a8	0.56353235
143	0x3f53b4b8	0.8269763
144	0x3f2e9ce5	0.6820815
145	0x3f6bb7af	0.92077154
146	0x3ee5c1db	0.44874462
147	0x3f2cde42	0.6752664
148	0x3ef13afd	0.47115317
149	0x3eeac2f4	0.45851862
150	0x3f28987e	0.65857685
151	0x3f78d667	0.9720215
152	0x3eb787f8	0.35845923
153	0x3f36aae3	0.713545
154	0x3f057dee	0.5214528
155	0x3f47ce48	0.78049135
156	0x3f0f756c	0.56038547
157	0x3f361d0a	0.7113806
158	0x3f1087ab	0.5645701
159	0x3f44f197	0.76931137
160	0x3f81509d	1.0102726
161	0x3f7777eb	0.96667355
162	0x3f1328f6	0.57484376
163	0x3efad517	0.489907
164	0x3e7e054f	0.24806713
165	0x3f8e9325	1.1138655
166	0x3f451372	0.76982796
167	0x3ec62077	0.38696644
168	0x3f39315d	0.7234095
169	0x3f214b4c	0.6300552
170	0x3f28d9e0	0.6595745
171	0x3eef0a59	0.46687582
172	0x3f1a9f9e	0.60399806
173	0x3f86cd9f	1.05315
174	0x3f577da8	0.8417611
175	0x3f3657ac	0.71227527
176	0x3f3b9379	0.732719
177	0x3f2e0bc6	0.67986715
178	0x3f5f51ca	0.87234175
179	0x3ecd02fa	0.40041333
180	0x3f27125a	0.6526238
181	0x3e99c2b7	0.30031368
182	0x3f66597a	0.8998028
183	0x3f966f86	1.1752784
184	0x3f09a8d3	0.5377323
185	0x3f3e857c	0.7442243
186	0xbaeacdcb	-0.0017914114
187	0x3f3e074d	0.7422989
188	0x3f327e90	0.6972437
189	0x3f022a90	0.50846195
190	0xa7df9b07	-6.2063015e-15
191	0x3ecd64ad	0.40115872
192	0x3e9a097c	0.3008536
193	0x3eae1806	0.34002703
194	0x3f62a935	0.8853944
195	0x3f411ec5	0.75437576
196	0x3ecfe458	0.406039
197	0x3f6f17d4	0.93395734
198	0x3f09bd7b	0.5380475
199	0x3f2d2da5	0.67647773
200	0x3f28ff6c	0.6601474
201	0x3f5b9714	0.857774
202	0x3f48058a	0.7813345
203	0x3f10f8ab	0.5662944
204	0x3f362a60	0.7115841
205	0x3f2c59a0	0.67324257
206	0x3e9ee8f8	0.31037116
207	0x3fa8f3a8	1.3199358
208	0x3f515d14	0.8178265
209	0x3e5f4a90	0.21805787
210	0x3f205e34	0.6264374
211	0x3f1b2f83	0.6061937
212	0x3f32c45a	0.6983086
213	0x3f3961cb	0.72414845
214	0x3eb28509	0.34867123
215	0x3f1f49e3	0.6222212
216	0x3f13b27d	0.57694227
217	0x3e897f0b	0.2685474
218	0x3f2893d8	0.6585059
219	0x3f84d6b4	1.0378022
220	0x3f5497d2	0.8304416
221	0x3f2d1216	0.6760572
222	0x3eddffc6	0.43359202
223	0x3f087efc	0.5331876
224	0x3f0ab798	0.5418639
225	0x3f0e0bf3	0.55486983
226	0x3f2a2e47	0.66476864
227	0x3f530310	0.8242655
228	0x3f89d966	1.076947
229	0x3f1c5db6	0.6108049
230	0x3f758513	0.9590618
231	0x3f4e0958	0.8048301
232	0x3f45b457	0.772283
233	0x3f31b65e	0.69418895
234	0x3f8d48b5	1.1037813
235	0x3f13e9a7	0.577784
236	0xbb3b5254	-0.0028583007
237	0x3f33683b	0.7008092
238	0x3d09e6da	0.033667423
239	0x3f517643	0.8182108
240	0x3f77cfac	0.9680126
241	0x3ee3a544	0.44462025
242	0x3e4b9061	0.19879295
243	0x3e99126d	0.2989687
244	0x3f2a577f	0.6653976
245	0x3f4fa26e	0.81107223
246	0x3ed55a17	0.41670296
247	0x3e675ecb	0.22594754
248	0x3f499ae0	0.78751945
249	0x3f2fbef4	0.68650746
250	0x3f60b1ed	0.87771493
251	0x3f4a68b8	0.7906604
252	0x3f4cf123	0.80055445
253	0x3efadaba	0.48995
254	0x3e389801	0.18026735
255	0x3f3a4d4f	0.72774214

bn1.bias f4 [400]
0	0xbd949344	-0.07254651
1	0xbd11b47c	-0.035572514
2	0xbd85b3fd	-0.06528471
3	0xbdead602	-0.114666
4	0xbd82bf0b	-0.06384095
5	0xbe0d6de2	-0.13811448
6	0xbd5e5abf	-0.05428576
7	0xbe0d81ca	-0.13819042
8	0xbde13ab6	-0.10997526
9	0xbe396efc	-0.18108743
10	0xbda7a3b7	-0.08185523
11	0xbd5d3f4d	-0.054015446
12	0x3c609588	0.013707526
13	0xbd957655	-0.07297961
14	0xbe3eb55d	-0.18623872
15	0xbc46de8e	-0.012138022
16	0xbd770452	-0.060306855
17	0xbbcdcdca	-0.0062806355
18	0xbc719f29	-0.014747419
19	0xbcd01d91	-0.025404723
20	0xbdd8c2df	-0.10584044
21	0x3c75a877	0.014993778
22	0xbd423dde	-0.047422282
23	0xbd10f893	-0.03539331
24	0xbd00a960	-0.03141153
25	0xbc35d97a	-0.011099214
26	0xbc1675bf	-0.009183346
27	0xbd80546d	-0.06266103
28	0xbceee38d	-0.029161239
29	0xbca74b09	-0.020421522
30	0xbd71f4b3	-0.059071254
31	0xbd532689	-0.051550422
32	0x3b2ac7fa	0.0026059137
33	0xbe45845a	-0.1928877
34	0xbdb3bdc5	-0.0877643
35	0xbc4b0350	-0.0123909265
36	0xbc7d504f	-0.015461042
37	0xbdc3252f	-0.095285766
38	0xbc8404b7	-0.01611553
39	0xbd0b9eef	-0.034087118
40	0xbd35193e	-0.044213526
41	0xbdde57f1	-0.10856617
42	0xbd857d07	-0.06517988
43	0xbd9be4f4	-0.07612029
44	0xbe26b933	-0.16281585
45	0xbb51cfb0	-0.003201466
46	0xbe693764	-0.22775036
47	0xbdea1ba5	-0.11431054
48	0xbe04ab6f	-0.12956022
49	0xbd67293f	-0.05643582
50	0xbc8e485b	-0.017368486
51	0xbde22b9d	-0.11043475
52	0xbd976ac8	-0.07393414
53	0xbc7d3611	-0.015454785
54	0xbad9da3f	-0.0016620829
55	0xbe1f9dab	-0.1558749
56	0xb52b636f	-6.384716e-07
57	0xbdb38238	-0.08765072
58	0xbe22ff5d	-0.15917726
59	0xbd2c3453	-0.042042088
60	0xbd5cab85	-0.05387451
61	0xbdcc25c5	-0.099681415
62	0xbe0b296d	-0.13590021
63	0xbcfdeb84	-0.030996092
64	0x3ced5cc7	0.028974904
65	0xbdd13e0f	-0.10216915
66	0xbe11732e	-0.14204094
67	0xbd152bc8	-0.036418706
68	0xbdaf3c43	-0.08556416
69	0xbe133e29	-0.14379181
70	0xbda13c56	-0.07872836
71	0xbd1f52b2	-0.038897224
72	0xbc86e44b	-0.01646628
73	0x3cf6dbc3	0.030134087
74	0xbd99977e	-0.07499598
75	0x390726ad	0.00012889011
76	0xbdc6d389	-0.09708316
77	0xbd0aa4ff	-0.03384876
78	0xbd6adfa3	-0.057342183
79	0xbd505693	-0.050863814
80	0xbdcde0ee	-0.100526676
81	0xbdc130e3	-0.094331525
82	0x3cddfea3	0.02709896
83	0xbd2e9c00	-0.042629242
84	0xbddeb7f5	-0.10874931
85	0xbcc6b30f	-0.024255304
86	0xbe40ee32	-0.18840864
87	0xbe23f084	-0.16009718
88	0xbd9962bc	-0.07489535
89	0xbd42ddd7	-0.047574844
90	0xbd4b11c4	-0.04957749
91	0xbb25eafa	-0.002531706
92	0xbd4a6545	-0.049412984
93	0xbd044d7c	-0.032300457
94	0xbe00614f	-0.1253712
95	0xbe0c8ca7	-0.1372553
96	0xbd8d2db1	-0.068934806
97	0xbd08b80e	-0.033378653
98	0xbcad1d0c	-0.021132015
99	0xbdcfc119	-0.10144252
100	0xbd78efc2	-0.060775526
101	0xbe2ef002	-0.17083743
102	0xbe5b6e69	-0.21428837
103	0xbdb2a919	-0.08723659
104	0xbdcc4063	-0.09973218
105	0xbe496792	-0.19668415
106	0xbd57e159	-0.052705143
107	0xbe1a9fbe	-0.151
108	0xbd94a367	-0.07257729
109	0xbaea4281	-0.0017872603
110	0xbca99bbe	-0.020704146
111	0xbdabc529	-0.08387215
112	0xbc8b3364	-0.016992278
113	0xbd622ba4	-0.0552174
114	0xbd5fa301	-0.054598812
115	0xbc2a8867	-0.010408497
116	0xbd83b62c	-0.06431231
117	0xbd4d6f38	-0.050154895
118	0xbd01ed51	-0.031720463
119	0xbcbd2d3e	-0.023092862
120	0xbe0e77d2	-0.13912895
121	0xbd1539c9	-0.03643206
122	0xbdcf048d	-0.1010829
123	0xbe0304f6	-0.12794861
124	0xbe1e275c	-0.15444702
125	0xbd9d5501	-0.07682229
126	0xbd04febb	-0.032469492
127	0xbb2d118a	-0.002640816
128	0xbd7e6210	-0.06210524
129	0xbe094981	-0.13406946
130	0xbd83fe47	-0.06444984
131	0xbc929a60	-0.017895877
132	0xbd5e0704	-0.05420591
133	0xbb5942fe	-0.0033151503
134	0xbc8f1ff3	-0.01747129
135	0xbdc17e86	-0.094479606
136	0xbd33b8b4	-0.04387732
137	0xbce2aaee	-0.027669396
138	0xbdfe1213	-0.12405791
139	0xbda24859	-0.079239555
140	0xbd6ed2f1	-0.05830664
141	0xbd46179f	-0.04836237
142	0xbe31c952	-0.17361954
143	0xbd82df59	-0.063902564
144	0xbc65b7ca	-0.0140208695
145	0x3cce8e7f	0.025214432
146	0xbe0e0ba4	-0.13871628
147	0xbd117acd	-0.035517503
148	0xbe409b3e	-0.1880922
149	0xbda81e39	-0.082088895
150	0x3b88c7b7	0.0041741985
151	0xbd0501f9	-0.032472584
152	0xbdb1bb3b	-0.086782895
153	0xbda6e005	-0.08148197
154	0xbd8aebf6	-0.06783287
155	0xbd9681b1	-0.073489554
156	0xbd4993ee	-0.049213342
157	0x3d8b20c7	0.06793361
158	0xbd8e3125	-0.06942967
159	0xbc4b63af	-0.012413903
160	0xbdd2ded5	-0.10296408
161	0xbd364492	-0.044498987
162	0xbd3d8ddc	-0.046277866
163	0xbd24874c	-0.04016809
164	0xbe501206	-0.20319375
165	0x3bc92de1	0.0061395024
166	0xbe0839a3	-0.13303237
167	0xbde51677	-0.111859255
168	0xbdb1a788	-0.08674532
169	0xbd176d13	-0.036969256
170	0xbdf110fe	-0.11770819
171	0xbd24662c	-0.0401365
172	0xbdc7456d	-0.09730039
173	0x3d284284	0.04107906
174	0xbd6f2281	-0.058382515
175	0xbcabf5e5	-0.020991275
176	0xbd309f0c	-0.04312043
177	0xbcf059a0	-0.029339612
178	0x3be041e4	0.0068437923
179	0xbe2d312e	-0.16913292
180	0xbe196beb	-0.14982574
181	0x3d0def4e	0.034652047
182	0xbd843cd0	-0.064569116
183	0xbc3516a3	-0.01105276
184	0xbdaeb82f	-0.08531224
185	0xbd3e453b	-0.046452742
186	0xbaee96d9	-0.0018202915
187	0xbd884ded	-0.06655488
188	0xbd6af84c	-0.0573657
189	0xbe088b53	-0.13334398
190	0x8000015f	-4.92e-43
191	0xbe0d14fd	-0.13777538
192	0xbdd48601	-0.10377122
193	0xbdf9aa4f	-0.12190687
194	0xbc0fa2f8	-0.008766882
195	0xbd95c61c	-0.07313177
196	0xbd86bd17	-0.06579035
197	0xbd450cad	-0.04810779
198	0xbdc32a2d	-0.09529529
199	0xbd51000c	-0.051025435
200	0xbd4b3bd2	-0.049617596
201	0x3ba56522	0.0050474564
202	0xbdc60c74	-0.09670344
203	0xbce18d4c	-0.027533196
204	0xbd03ee8a	-0.03220991
205	0x3c549bbd	0.012976584
206	0xbde2e1f5	-0.11078254
207	0x3d0f6a13	0.03501327
208	0x3c1ce7e0	0.009576768
209	0xbd8785f5	-0.06617347
210	0xbd812e30	-0.06307638
211	0xbd6327e1	-0.055457953
212	0x3c85dcb9	0.0163406
213	0xbdb14166	-0.08655052
214	0xbe11f1c4	-0.14252383
215	0xbda784e8	-0.08179647
216	0xbc5447d4	-0.012956578
217	0xbdf3f9ff	-0.11912917
218	0xbe135780	-0.14388847
219	0x3c5a4c3e	0.013323842
220	0xbd8ca786	-0.0686789
221	0xbd8970d4	-0.067109734
222	0xbdbf1397	-0.09329908
223	0xbe1727c5	-0.14761265
224	0xbdfa0254	-0.12207475
225	0xbda44e88	-0.08022791
226	0xbde53db5	-0.1119341
227	0xbdb8dd66	-0.090266034
228	0xbe6ec9de	-0.23319194
229	0xbc736bae	-0.014857216
230	0xbd8f17d1	-0.069869645
231	0x3c8f94b2	0.017526958
232	0xbc118130	-0.008880898
233	0xbd923bc5	-0.071403064
234	0xbcc52922	-0.024067465
235	0xbcfdd426	-0.03098495
236	0xbac27ff4	-0.0014839158
237	0xbbb8d7d2	-0.005640962
238	0xbdfb3f3a	-0.12267919
239	0xbdbda6fe	-0.09260367
240	0xbd0a5590	-0.033773005
241	0xbda0c8ed	-0.078508236
242	0xbe02d5f4	-0.12776929
243	0xbe55ed04	-0.20891196
244	0xbdf5e8ea	-0.120073155
245	0xbd7b20b1	-0.061310474
246	0xbe0f1961	-0.13974525
247	0xbddfce61	-0.109280355
248	0xbb5c6d49	-0.0033634475
249	0x3c00e178	0.007866256
250	0xbd8d8611	-0.06910337
251	0xbc8ed3bc	-0.017434947
252	0x3d815fe5	0.063171186
253	0xbda6831f	-0.08130478
254	0xbe075b27	-0.13218366
255	0xbd80d2bb	-0.06290194

bn2.weight f4 [300]
0	0x3ffdfc98	1.984271
1	0x40060100	2.093811
2	0x3f83c368	1.0294008
3	0x3feb3fe7	1.8378876
4	0x3fca4b44	1.5804219
5	0x3f8e8b9e	1.1136358
6	0x4068d514	3.6380053
7	0x400f05bb	2.2347248
8	0x3ffd9a57	1.9812726
9	0x401e319b	2.4717777
10	0x3ffa27df	1.9543418
11	0x40651268	3.5792484
12	0x406690c5	3.602586
13	0x3fedaaba	1.8567727
14	0x3ffb9c20	1.965702
15	0x3fb7212f	1.4307002
16	0x3ffb2139	1.9619514
17	0x3ffcc8e5	1.9748808
18	0x407dd347	3.9660203
19	0x3ff45e72	1.9091322
20	0x3fbc2748	1.4699488
21	0x3ed5020d	0.41603127
22	0x4084fb1d	4.1556535
23	0x3ffb9d96	1.9657466
24	0x40153da9	2.3318884
25	0x3ebca562	0.36844927
26	0x3f198a71	0.5997687
27	0x40156174	2.334073
28	0x3fa6b2a3	1.3023266
29	0x3f8cab05	1.0989691
30	0x3f990fa1	1.1957895
31	0x406b6976	3.6783118
32	0x406f90a5	3.7432034
33	0x4005535a	2.0832124
34	0x40840e26	4.126727
35	0x3fe3e23a	1.7803414
36	0x40755bd4	3.8337297
37	0x4081f980	4.0617065
38	0x40798f86	3.899385
39	0x407087af	3.7582815
40	0x3fe3b389	1.7789165
41	0x40703b5f	3.7536237
42	0x4001da15	2.0289357
43	0x40020900	2.0317993
44	0x3f049c55	0.51801044
45	0x3fbb2a89	1.4622356
46	0x3f874963	1.0569271
47	0x406fad7c	3.7449636
48	0x40752433	3.8303344
49	0x3ff55b18	1.9168425
50	0x3ff0de42	1.8817828
51	0x4069e47f	3.6545713
52	0x400c98ed	2.1968338
53	0x3ff05773	1.8776687
54	0x4075153c	3.829421
55	0x400a2b23	2.1588829
56	0x40751aaa	3.8297524
57	0x3fa7600f	1.307619
58	0x4071c63c	3.7777243
59	0x40776450	3.8654976
60	0x3ff2ed08	1.8978586
61	0x3fb3330a	1.3999951
62	0x40003051	2.002949
63	0x3f886817	1.0656766
64	0x3ff564d7	1.9171399
65	0x407424d8	3.8147488
66	0xc00c1c02	-2.1892095
67	0x3fa281c5	1.2695853
68	0xc00159ff	-2.021118
69	0xbfeece2c	-1.8656669
70	0x3fdb4458	1.7130232
71	0x406bd0a1	3.6846087
72	0x40003152	2.0030103
73	0xbff8079b	-1.9377321
74	0x3ff506d7	1.9142712
75	0x407af7a9	3.921366
76	0x4057ee37	3.3739145
77	0x4072e48d	3.7951996
78	0x3fd42e13	1.6576561
79	0x406ec2ce	3.73064
80	0x3fffc2a0	1.998127
81	0x3f80aede	1.0053365
82	0x3f138ecc	0.57639766
83	0x3fe09378	1.7545004
84	0x3fe39a35	1.7781435
85	0x3fcf47bc	1.6193767
86	0x4004d04b	2.0752132
87	0x4001dacf	2.02898
88	0x405cd2b8	3.4503613
89	0x406f421f	3.7384107
90	0x40862c77	4.192928
91	0x400f0408	2.234621
92	0x3ff75286	1.9322059
93	0x40852402	4.1606455
94	0x400edcdd	2.2322304
95	0x407daa6a	3.9635262
96	0x3fb13a3b	1.3845896
97	0x405eae36	3.479383
98	0x3fc7cb36	1.560889
99	0x406a5550	3.661457
100	0x3ff8472a	1.9396718
101	0x3fb26d11	1.3939534
102	0x3e8fd991	0.28095677
103	0x3fc7219a	1.5557129
104	0x3fb48115	1.4101893
105	0x3f72aa28	0.9479089
106	0x401191d6	2.2745261
107	0x40834136	4.1017103
108	0x3ffaa2b3	1.9580902
109	0x406e9dee	3.7283893
110	0x407f0b18	3.985052
111	0x3ff8b470	1.9430065
112	0x401846a7	2.3793123
113	0x3ffdd1dc	1.9829669
114	0x400e0c5b	2.219504
115	0xbfef94d0	-1.8717289
116	0x3f618d86	0.8810657
117	0x3fa74a36	1.3069522
118	0x405069bc	3.2564535
119	0x4062439e	3.535377
120	0x4000ed37	2.0144784
121	0x400c1655	2.188863
122	0x3ff0ae51	1.8803197
123	0x4072fe50	3.796772
124	0x400de27b	2.2169483
125	0x3f3f6888	0.7476888
126	0x3fb9e7aa	1.4523823
127	0x3ff59a13	1.9187645
128	0x4057f38d	3.3742402
129	0x40553fc9	3.3320181
130	0x40824bf8	4.0717735
131	0xbfe165bb	-1.7609171
132	0x3f9284ec	1.1446815
133	0x405b1202	3.422974
134	0x401aa4c6	2.416307
135	0x408266d8	4.075054
136	0xbfb83da9	-1.4393817
137	0x400a41a6	2.1602569
138	0x4001ad1e	2.0261912
139	0x408155b6	4.0417128
140	0x40010b9b	2.0163333
141	0x4054554b	3.3177059
142	0xc019cac8	-2.4030018
143	0x407213a8	3.7824497
144	0x405b1d58	3.423666
145	0x3e5e3a61	0.21701957
146	0x40045140	2.067459
147	0xc0068b10	-2.1022377
148	0x400a993a	2.1656022
149	0x40089248	2.1339283
150	0x40021caa	2.0329995
151	0x407dd30b	3.966006
152	0x40869147	4.205234
153	0x3fe518dd	1.7898213
154	0x3fd7dd6b	1.6864446
155	0x3f992edf	1.1967429
156	0xc00c3d91	-2.1912577
157	0x406f23d9	3.736563
158	0x3ff22565	1.8917662
159	0x3fbe5fea	1.4873021
160	0x3f716683	0.94297045
161	0x3f8b930f	1.0904254
162	0x406177fd	3.5229485
163	0xbfc63ac8	-1.5486689
164	0x407fc179	3.9961836
165	0x3fed9ee6	1.8564117
166	0x3ff6c0e4	1.9277616
167	0x3f941b6e	1.1570871
168	0x4074e412	3.8264203
169	0x40569782	3.3529973
170	0x400a0cd4	2.157033
171	0x40695fca	3.6464715
172	0x3fd02fa5	1.626454
173	0x400b6add	2.1783974
174	0x406e1bcf	3.7204473
175	0x3f8ab4f8	1.0836477
176	0x406e3ab5	3.7223332
177	0x3ffd73b2	1.9800932
178	0x3f913568	1.1344423
179	0x4004b842	2.0737462
180	0x3fd01ace	1.625818
181	0x4004141e	2.0637279
182	0x400706a4	2.1097803
183	0x3f5eb15f	0.86989397
184	0x3fff6110	1.9951496
185	0x40198fba	2.3993974
186	0x3fdc3484	1.7203526
187	0x3ff2cc6c	1.8968635
188	0x407d2018	3.9550838
189	0x4003a0f8	2.0566998
190	0x406a6350	3.6623116
191	0x3f948c07	1.1605233
192	0x3fa543af	1.291128
193	0x3f42c3b2	0.7607986
194	0x400ab600	2.1673584
195	0x4056e643	3.357804
196	0x407f51ae	3.9893603
197	0x406c707f	3.6943662
198	0xc0182e91	-2.3778422
199	0x3fdfe9c1	1.7493211
200	0x3ffab932	1.9587767
201	0x40745052	3.8174024
202	0x3f9ce322	1.2256815
203	0x4066de79	3.6073287
204	0x40684083	3.6289375
205	0x3fe29060	1.770031
206	0x407495ad	3.8216355
207	0x3ff361fb	1.9014276
208	0x3fd5c78e	1.6701524
209	0x406857f4	3.6303682
210	0x3f80b0cc	1.0053954
211	0x405dc862	3.4653554
212	0x408505cb	4.156957
213	0x3fa269c0	1.2688522
214	0x4010ebed	2.2643998
215	0x3f6e504a	0.9309126
216	0xbfead7e0	-1.834713
217	0x40108f44	2.2587442
218	0x40813b97	4.038524
219	0x3fbabc0e	1.458864
220	0x3f95ada9	1.1693622
221	0x405614a6	3.3450103
222	0x40011357	2.0168054
223	0x407643e9	3.847895
224	0x3fecc501	1.8497621
225	0x3f2672d8	0.6501899
226	0x3fa92808	1.3215342
227	0x400fffd7	2.2499902
228	0xc019e764	-2.404748
229	0x4040332e	3.0031238
230	0x40163f2f	2.3476064
231	0x400cb85d	2.1987526
232	0x3ffc3bbc	1.970573
233	0xc0023236	-2.0343146
234	0x406e29d8	3.721304
235	0x4003988c	2.0561857
236	0x3fc49454	1.5357766
237	0x4005c836	2.090345
238	0x406804d2	3.6252942
239	0x40013d1b	2.0193546
240	0x4072213a	3.783278
241	0x40707d9e	3.757667
242	0x3ff68fa1	1.9262582
243	0x4086c64a	4.211705
244	0x406d0f1c	3.7040472
245	0x4001d43e	2.0285792
246	0x4009a217	2.1505182
247	0x408e4246	4.44559
248	0x40709761	3.7592394
249	0x3fa75868	1.3073854
250	0x3f9477ce	1.1599061
251	0x40794ee5	3.8954403
252	0x3fec3000	1.8452148
253	0x3fd6aae8	1.6770906
254	0x400a9e76	2.1659217
255	0x40014537	2.0198495
