tmp/ddpg/critic_ddpg.pth (torch, 506930 bytes, 11 tensors)

fc1.weight f4 [400, 6]
00000000: accb 2b3e 8af5 143e cc7d aebe 9c27 bc3d
00000010: aa41 50bd 67a1 283c 9b70 1f3e 2191 0c3e
00000020: 0c02 85be 65bc f63d 599c 7dbd 00f7 35bd
00000030: e1b2 253e c3b1 063e e90a 7ebe da67 fe3d
00000040: d949 80bd b4c6 33bd b134 1e3e adc3 0d3e
00000050: 3d1c 85be 24a6 f53d 01ea 7bbd ec5b 36bd
00000060: 39e9 1b3e 35f0 0f3e d159 85be dd5b f43d
00000070: 1f1f 78bd d233 37bd 0316 243e 502e 083e
00000080: aaf2 84be dc2c fa3d 76d7 82bd 002d 34bd
00000090: e3cb 213e af79 32bc 0775 a63e 6cc5 99be
000000a0: 544f a6bf 5f22 21bd 7c57 ae3e 3c9e d7bc
000000b0: 89f4 d0be 0e12 2a3f be40 303e 8b37 91bd
000000c0: b256 143e d020 173e d13d 85be e433 ee3d
000000d0: 11e9 6abd 9410 3abd 3171 283e 0225 073e
000000e0: 1766 89be ad37 043e 901f 8abd 11a5 1abd
000000f0: 863b 2a3d 9fbd 553e 4e43 05bf f9a0 5bbf
00000100: d7b7 f0bf 4b89 b53f 3027 1a3e 678e 113e
00000110: 0a0f 85be 3242 f23d d40a 76bd a1a0 37bd
00000120: c6b5 283e 28ca 033e 41e0 84be 7ea8 fd3d
00000130: a05d 86bd 4277 32bd 1338 193e e1ad 113e
00000140: 913e 85be e387 f23d 3ca7 76bd b959 39bd
00000150: 49a1 273e 59b5 043e 2be9 84be 7fe3 fc3d
00000160: 2487 85bd a4e8 32bd 7274 123e b4e9 183e
00000170: 385f 85be 2add ec3d 7b72 68bd 2ac7 3abd
00000180: 0c71 193e 2453 123e 8015 85be 8283 f13d
00000190: 9924 76bd dfda 37bd 1e0b 1a3e 68b7 113e
000001a0: f603 85be e3a1 f23d 8f50 74bd f9ea 37bd
000001b0: caee 0f3e 3f4e 1b3e 6861 85be 730e eb3d
000001c0: a2bf 63bd 31bc 3bbd 4ce3 2a3e 90b8 013e
000001d0: 53da 84be e52e ff3d 2314 88bd b2aa 31bd
000001e0: 7ccc 1b3e 7a0c 103e 0311 85be 88f2 f43d
000001f0: 3b04 77bd 2b3f 37bd f535 123e b0ba 183e
00000200: c042 85be 36da ec3d 2348 6dbd 9c51 3cbd
00000210: 48f8 1c3e b6ef 0e3e 4515 85be 3cf8 f43d
00000220: d835 79bd ebcf 36bd 7bec 133e 5185 173e
00000230: 2974 84be 17df ed3d 0082 6dbd f547 3abd
00000240: 93b0 5e3d 4e49 163e 0b03 22be bbc4 89bf
00000250: 3750 e83e e3aa fb3d e369 2c3e d33e 003e
00000260: c985 85be abf8 023e 4236 87bd d405 31bd
00000270: 22bd 1f3e 31d2 0f3e 3981 89be cfbd 0a3e
00000280: b243 97bc 202e 49bd 24d1 173e d8d3 133e
00000290: 7135 85be 38ed f03d faba 70bd 8bbf 38bd
000002a0: 1795 133e add8 173e b905 85be 6629 ee3d
000002b0: af75 69bd 5e5b 3abd 7ad0 cebc 0a5a 793e
000002c0: 2bc8 2d3f b98b a8bf 8564 b63f 2fcb f83d
000002d0: 26ef 553e 073f af3d 86a4 83be 2071 0f3e
000002e0: df9b aabd cdc5 24bd cf30 103e b50f 1b3e
000002f0: 6f2c 85be db71 eb3d a87c 64bd 87a5 3bbd
00000300: 28ea 183e 59c9 123e 0c22 85be e7da f13d
00000310: 9b75 72bd 3156 38bd 4bf7 303e c0e3 f73d
00000320: 51d0 84be a2d9 013e 33d4 8cbd b571 2fbd
00000330: 880c 1c3e abcf 0f3e 802c 85be ec1b f43d
00000340: 54c4 77bd 5628 37bd ff30 103e 5715 1b3e
00000350: ccf5 85be e101 e63d 3ef9 5fbd e99d 3bbd
00000360: c482 213e df9d 0a3e 523b 85be 7d94 f93d
00000370: b058 82bd 9323 35bd aac8 233e 3bdb 063e
00000380: a5ad 85be d2a0 fb3d 0f73 84bd 2986 2fbd
00000390: 619d 2e3e cdd8 fc3d c6ed 84be feed 003e
000003a0: 02ec 8abd bbc4 31bd ff6c 213e 724f 0a3e
000003b0: 5ff3 84be 4418 f83d 7c75 81bd b34b 35bd
000003c0: e030 1c3e 5ead 0f3e 8920 85be 3038 f43d
000003d0: 25ea 77bd 2d1b 37bd b895 ba3e c1d2 37bc
000003e0: 0c4b 02be 5bcb bb3d 92ea d3bf f1b7 21be
000003f0: 737c 133e d6ed 173e 1bd6 85be 5c48 ee3d
0.16776913 0.1454679 -0.3408035 0.091872424 -0.050843872 0.010292388 0.155703 0.13727237
-0.25978124 0.12047652 -0.061916683 -0.04442501 0.16181518 0.13153748 -0.2480885 0.12422152
-0.06264085 -0.04389067 0.15449788 0.13844176 -0.25998107 0.119945794 -0.06150246 -0.044521257
0.15225686 0.14056475 -0.26045087 0.11931584 -0.060576554 -0.044727154 0.16024022 0.13298917
-0.25966388 0.122155875 -0.06388752 -0.043988228 0.15800433 -0.010893269 0.3251116 -0.30033433
-1.2992959 -0.03933942 0.3405112 -0.02632057 -0.40811566 0.664338 0.17212197 -0.07090672
0.14486197 0.1475861 -0.26023725 0.11630991 -0.057351176 -0.045425966 0.16449429 0.13197711
-0.268357 0.12911864 -0.06744301 -0.037755076 0.041560672 0.20873116 -0.52055824 -0.857925
-1.8806103 1.4182523 0.15054011 0.14214478 -0.25988036 0.11829032 -0.06006892 -0.044830922
0.16475591 0.12870085 -0.25952342 0.12385653 -0.06560826 -0.043570764 0.14962797 0.14226486
-0.26024297 0.118423246 -0.06021808 -0.04525158 0.16370119 0.12959804 -0.25959143 0.12348079
-0.06519917 -0.043678895 0.14302233 0.149329 -0.2604921 0.11565621 -0.056749802 -0.045600094
0.1498453 0.14289528 -0.25992966 0.11792661 -0.060093496 -0.044886466 0.15043303 0.1423012
-0.25979584 0.11847284 -0.05964714 -0.04490182 0.14055935 0.15166567 -0.26050878 0.11477365
-0.055602677 -0.04583377 0.1668827 0.12668061 -0.25947818 0.12460116 -0.06644466 -0.04337568
0.15214723 0.1406726 -0.2598954 0.11960322 -0.06030677 -0.044737976 0.14278395 0.14914966
-0.2602749 0.11565058 -0.057930123 -0.045976266 0.15329087 0.1395863 -0.2599279 0.119614094
-0.060842365 -0.04463188 0.14445679 0.1479695 -0.25869873 0.11614817 -0.057985306 -0.04547878
0.054367613 0.14676401 -0.15821473 -1.0763162 0.453737 0.122884534 0.16837268 0.12523966
-0.26078632 0.12790172 -0.06602146 -0.04321845 0.15599492 0.14045025 -0.26856402 0.13548969
-0.018464897 -0.049116254 0.14825875 0.1443628 -0.26017335 0.11763996 -0.058772065 -0.045104545
0.14412342 0.14828749 -0.2598093 0.1162899 -0.056996997 -0.04549729 -0.025245894 0.24350753
0.6788356 -1.316764 1.4249426 0.12148129 0.20892009 0.085569434 -0.2571146 0.14007998
-0.08330511 -0.0402277 0.14081119 0.1514271 -0.26010463 0.114963256 -0.055782944 -0.045812156
0.14933074 0.1433462 -0.26002538 0.118093304 -0.05919419 -0.045004074 0.17281835 0.12103987
-0.25940183 0.12680677 -0.06876411 -0.04283305 0.15239155 0.14044063 -0.26010513 0.11919388
-0.060489967 -0.0447162 0.1408119 0.15144859 -0.2616409 0.11230827 -0.054681055 -0.04580489
0.1577254 0.13536786 -0.2602182 0.12186525 -0.06364572 -0.04422338 0.15994516 0.13169567
-0.26109043 0.122865334 -0.06467258 -0.042852554 0.17052223 0.12346039 -0.25962657 0.12590787
-0.06783296 -0.043400507 0.15764235 0.13506868 -0.25966927 0.12114003 -0.063212365 -0.044261646
0.1525302 0.14030978 -0.26001385 0.119247794 -0.060526032 -0.04470365 0.3644235 -0.011219681
-0.1272394 0.09169646 -1.655596 -0.15792824 0.14402942 0.14836821 -0.26139912 0.11634895

fc1.bias f4 [400]
00000000: a2f1 3f3b 256c e4bc c1a8 d7bc 7998 e7bc
00000010: ab0e edbc ad01 d7bc 65cd 7f3f de12 35bf
00000020: 594b 01bd 162a d1bc c450 993e 8cdc f1bc
00000030: dac9 cabc d7fd f5bc f411 cebc 647a 03bd
00000040: 1911 f3bc d00c f3bc c92f 07bd d6d1 c4bc
00000050: 16e6 efbc 3121 04bd bc18 eabc c983 ffbc
00000060: 4c16 873e fdf2 c3bc 8d42 3dbd 19d0 f8bc
00000070: d292 02bd 849f 21bf 21cf 23bc 2bab 06bd
00000080: 6511 f6bc 0e4a b4bc ad5a edbc 81d7 08bd
00000090: 3fdc ddbc c5e4 dabc b9aa bbbc 6055 debc
000000a0: d43e edbc 2272 ccbf 4d3c 02bd cce3 03bd
000000b0: 1f31 ddbc c847 eabc 5771 3bc0 797e 01bd
000000c0: 1591 d5bc 7732 d9bc 39de e9bc e018 debc
000000d0: 4170 b4bc 2e30 ecbc 193f 09bd bfde e5bc
000000e0: a5c9 d9bc b203 15bd 013b d2bc 66c2 edbc
000000f0: 9dc0 cebc f551 28bc 4059 08be 752e eabc
00000100: 3cc1 8f3f bc4e 94bc 595a f0bc 5ac1 58bc
00000110: ece3 fdbc 1ea6 d5bc 2aea bebc eeae a23e
00000120: e5d5 fbbc f73c 00bd c827 04bd 3303 eabc
00000130: fd6a 06bd ceae e8bc 2c2b f7bc 6ff2 f2bc
00000140: 839e cdbc 8714 fbbc 7b53 85bc 613f c1bc
00000150: cbd0 47bc e23d eabc b998 02bd f74e f5bc
00000160: a8cf d4bc 0864 c9bc 17ee dcbc a7ca e8bc
00000170: cca5 f2bc 542b 453b 5854 e6bc 973f d7bc
00000180: 814c f8bc 2fe2 05bd f1ef f9bc 7f51 e4bc
00000190: cdec dabc 0529 f2bc 33c6 dcbc 868b 05bf
000001a0: ca33 c6bc 509e abbc 0ee1 21bc 3c0d cebc
000001b0: 5040 fabc 90ba 09c0 1de6 f6bc 8a3b debc
000001c0: 69e6 94bc ab99 ccbc c4e1 edbc 0a15 d3bc
000001d0: 9158 cabc d2a9 af3f eb49 c6bc da70 06bd
000001e0: fe8f d2bc f4bd cfbc 3f71 cebc 29a1 c5bc
000001f0: c575 dfbc a83f e6bc dd4c 06bd 3b68 d7bc
00000200: 9caa 0bbd aa87 edbc 4db1 e6bc 5a52 03bd
00000210: 6efc 2fbc 946f d3bc d798 02bd b12d d8bc
00000220: ea1c 06bd 7109 8a3e 80ec e8bc 476c d2bc
00000230: dec9 e7bc d8dc 04bd 351e b7bc f775 c6bf
00000240: c63a f4bc 193a eebc 4d94 02bd e4d6 03bd
00000250: 0cfc e6bc 0250 e8bc e734 bebc 994c edbc
00000260: 4d9a e4bc 02c1 eebc 6d78 efbc a4a5 cdbc
00000270: 79f7 e7bc 6136 c8bc ba33 edbc 1bfb efbc
00000280: ea8f 25bd 0bb9 04bd 08db c5bc e978 f6bc
00000290: fa27 dbbc 94c7 f4bc ab59 f8bc 683e e9bc
000002a0: 40bd 02bd 65ac 07bd 66b2 e8bc de46 f63f
000002b0: 3f43 fdbc 6fc1 ccbc eb62 02bd 1092 f2bc
000002c0: 57c6 c7bc c5e3 dbbc 8551 dfbc 7e72 e1bc
000002d0: 7247 ebbc 1c21 05bd 11fe eabc c8d0 d3bc
000002e0: 6259 633e dee9 efbc 4d31 efbc cde5 efbc
000002f0: 515a edbc e2e2 cebc 669d f1bc 24bd 01bd
00000300: 3933 09bd bb0f 05bd 7abc 01bd a072 d4bc
00000310: 4e15 06bd 4c7a dbbc 9b5f dfbc 9dc7 0fbd
00000320: cace dbbc f99c f0bc 4992 70bc 384a bdbc
00000330: 48c6 f1bc 8151 b9bc 0d72 fabc 6e8c 1a3e
00000340: 01a4 e6bc 92a3 d6bc 4eda b1bc 17b4 edbc
00000350: e78d 9fbc 504b 9bbc a775 fdbc a47d 643f
00000360: 46c5 60bd c6f0 fabc ae00 eabc 8392 f4bc
00000370: dd22 e6bc ce21 e1bc ac43 dbbc ba30 5fbd
00000380: d272 02bd 61e8 f6bc 91b3 d4bc c6ad c6bc
00000390: 2118 f1bc cb42 f2bc 4bf4 cebc 0e4c fdbc
000003a0: ac62 20bd 5826 cfbc 8388 e8bc 7ff4 e4bc
000003b0: 2f91 c4bc e10d e5bc 2d13 87be b439 b7be
000003c0: b806 00bd 19a9 dfbc 9e2c 12bd 6507 07bd
000003d0: 3aad fdbc 7ea8 dbbc aaed f0bc 561b c3be
000003e0: 8e24 b8bc 52c6 e1bc d773 01bd 0a18 47bd
000003f0: 1ff1 ebbc 7943 f9bc 6061 f3bc b27f 29bf
0.0029288311 -0.027883599 -0.026325585 -0.028270947 -0.028937658 -0.026245916 0.9992278 -0.70731914
-0.031565998 -0.025532763 0.29944432 -0.02952411 -0.024754453 -0.030028267 -0.025155045 -0.032099143
-0.029671239 -0.029669195 -0.033004556 -0.024025839 -0.029284518 -0.032258216 -0.028576247 -0.03119077
0.263842 -0.023919577 -0.046206046 -0.030372666 -0.0318783 -0.63134027 -0.009998114 -0.032878082
-0.030037591 -0.022007968 -0.028973902 -0.033408646 -0.02708256 -0.026720414 -0.022908555 -0.02714032
-0.028960623 -1.597233 -0.03179579 -0.032199666 -0.027000962 -0.028598681 -2.9287927 -0.031614754
-0.026070157 -0.026513321 -0.028548347 -0.02711147 -0.022026183 -0.028831568 -0.03350744 -0.028060315
-0.02658541 -0.036380477 -0.0256629 -0.02902336 -0.02523833 -0.010273446 -0.13315296 -0.028586606
1.1230845 -0.01810395 -0.029339956 -0.013229692 -0.03099247 -0.026080187 -0.023305018 0.31774086
-0.030741641 -0.03130814 -0.0322645 -0.028565979 -0.032816876 -0.028403666 -0.030171953 -0.029656617
-0.025099998 -0.030649437 -0.016275158 -0.023589792 -0.012195776 -0.028593961 -0.03188393 -0.02994488
-0.025977924 -0.024583831 -0.026968999 -0.028416945 -0.029620074 0.003008564 -0.02811639 -0.02627544
-0.030309917 -0.03268641 -0.03050992 -0.027870892 -0.026724244 -0.029560575 -0.026949978 -0.5216602
-0.024194617 -0.020949513 -0.009880317 -0.025152795 -0.030548245 -2.1520119 -0.030139023 -0.027128
-0.018176274 -0.024975618 -0.029038318 -0.025766868 -0.024700435 1.37237 -0.024205169 -0.032822467
-0.025703426 -0.025359131 -0.025200484 -0.024124699 -0.027277837 -0.028106526 -0.032788146 -0.026294818
-0.034098253 -0.028995354 -0.028160715 -0.03206096 -0.010741336 -0.02581004 -0.03188404 -0.026388975
-0.03274242 0.26960328 -0.028433084 -0.025686396 -0.0282945 -0.032437176 -0.022353271 -1.550475
-0.029813182 -0.029080437 -0.031879712 -0.032187358 -0.028196357 -0.028358463 -0.023218585 -0.028967189
-0.027905608 -0.029144768 -0.029232228 -0.025103398 -0.028316246 -0.024439992 -0.02895533 -0.029294541
-0.04042045 -0.032403033 -0.024152294 -0.030086951 -0.02675246 -0.029880323 -0.030316195 -0.02847214
-0.031918764 -0.033123393 -0.02840538 1.9240377 -0.030915854 -0.02499458 -0.031832617 -0.029610664
-0.024386568 -0.026842007 -0.027260551 -0.027520414 -0.028720591 -0.03250228 -0.028685601 -0.02585639
0.22202066 -0.029286321 -0.029198313 -0.029284382 -0.02897373 -0.02525467 -0.029493999 -0.03167452
-0.033496115 -0.032485705 -0.031673886 -0.025933564 -0.03273516 -0.026791714 -0.027267268 -0.035102475
-0.026832003 -0.029371725 -0.014683315 -0.02310668 -0.029513493 -0.022621872 -0.030571962 0.15092632
-0.028154375 -0.026201043 -0.021710541 -0.029016538 -0.019476844 -0.01895681 -0.03093989 0.8925421
-0.054875635 -0.030632388 -0.028564777 -0.029855018 -0.028092796 -0.02748194 -0.026765667 -0.05448983
-0.031847782 -0.030140104 -0.02596453 -0.024252784 -0.02943045 -0.029572865 -0.025262972 -0.030920055
-0.0391566 -0.025286838 -0.028385406 -0.027948616 -0.02399501 -0.02796072 -0.26381817 -0.35786211
-0.031256407 -0.027302312 -0.03568708 -0.032966036 -0.03096639 -0.026813742 -0.029410202 -0.38106793
-0.022478368 -0.027560387 -0.031604614 -0.04860691 -0.028801499 -0.030427681 -0.029709518 -0.6621047

fc2.weight f4 [300, 400]
00000000: 4b80 403e 0f0a 0b37 9604 0d37 5f01 0000
00000010: 5f01 0000 6001 0080 6f6b 993e 962c 66bd
00000020: 5f01 0000 e871 24bc d32d c43e 7161 3b38
00000030: 5f01 0080 67ac babb 8eec 133b 6101 0000
00000040: 2eba 9c24 6101 0000 6501 0000 6101 0000
00000050: 6101 0080 46f9 e53a 5f01 0000 6201 0080
00000060: cefe cf3e f79d 76bc 6f67 d13d 5f01 0080
00000070: e6b8 892d 8466 b2bc 5337 c53c 5f01 0080
00000080: bd0a 26ba 5f01 0080 6001 0000 6001 0000
00000090: 5f01 0000 8b08 efbc 0e9d 853c e8d2 923c
000000a0: 5f01 0000 88f7 39be 6c01 0000 6001 0000
000000b0: 6001 0000 7689 36a8 4fcb dfbe 6001 0080
000000c0: cc32 a59f 5f01 0080 6101 0000 8e68 8637
000000d0: 6001 0000 5f01 0080 6101 0080 8b36 0bbc
000000e0: 1a0a ca39 5f01 0080 8fc9 05bd 6001 0000
000000f0: 7901 0080 533d 3c15 1b4b c23d 6596 86b1
00000100: 9807 d33e 6101 0080 3d00 0080 dd5e 461c
00000110: 9ade 64b8 9235 b7af 6101 0000 f5ab 8b3e
00000120: 6001 0000 c676 23bb 6001 0080 8601 0080
00000130: 5f01 0000 6101 0080 a356 8198 631f 5db8
00000140: 6101 0080 c810 dfbc 960e 293e 6101 0000
00000150: 5d96 46ac c360 ed2e 25c8 7aa6 2ef7 1fb7
00000160: 6001 0000 6101 0000 a3b9 503d be01 0080
00000170: faf5 5936 77bc 1b3e 36e3 f036 42d0 000e
00000180: 5f01 0000 74f6 5cba d52c d0b0 bcf4 a4b1
00000190: 6201 0080 5cbb 292d 6001 0080 17f7 173e
000001a0: 5f01 0000 5f01 0000 6201 0080 fab0 4c3d
000001b0: 53d1 0f2f aec6 5dbc 6101 0000 8cb6 b7b9
000001c0: c78e a234 6101 0000 6201 0000 a513 0a1e
000001d0: 8056 15bd b44d b73e 6001 0000 c765 1f9c
000001e0: 6001 0000 2a42 e5a4 6101 0000 6201 0000
000001f0: 6001 0000 4248 39ba 6101 0080 1bf8 9aa5
00000200: 6001 0000 6101 0000 db00 3c2f eec0 e2a5
00000210: 6a01 0080 6401 0080 6201 0000 5f01 0080
00000220: 8601 0080 5cfd 81bd c118 4435 6201 0000
00000230: 8f60 3201 5f01 0080 f900 0400 a4d7 003e
00000240: 482a 3526 f6e0 021f 5fbf fd38 5f01 0000
00000250: 5f01 0000 290a 6637 6001 0080 b501 0080
00000260: 6001 0000 5f01 0000 5f01 0000 5f01 0080
00000270: a001 0080 7315 7abc 6001 0000 6001 0080
00000280: 032b 893d 6001 0000 683e 8609 c0a5 382f
00000290: 1453 62a3 5f01 0080 5f01 0080 5f01 0000
000002a0: 2f30 91ac f6c0 d73d 9efb 909c 57d0 e83e
000002b0: 3ad1 acb0 2eb3 ea06 a456 37aa d04c 2513
000002c0: e60f 8b35 5f01 0000 5f01 0080 dd6a b938
000002d0: 43c6 0c3d a802 0000 c482 5fb1 6001 0000
000002e0: 04fb cdbe 6101 0080 6001 0000 0096 1e33
000002f0: 6101 0080 5f01 0080 af68 28a6 6101 0080
00000300: 5f01 0080 5f01 0080 f249 7096 6101 0000
00000310: 5f01 0080 bea0 a682 5f01 0080 6c98 a43d
00000320: 6101 0000 5f01 0000 7c01 0000 e153 c402
00000330: 2daf 233a 6201 0080 5f01 0000 6efb 9b3d
00000340: bddc eb2e 6101 0000 b2ab 063e 767d 03b0
00000350: 777e f9b8 0ac3 69a2 001d bd23 1bc8 ad3e
00000360: 6001 0000 6101 0080 beef 7eba a401 0080
00000370: 6001 0080 4999 0030 6001 0080 2a30 563a
00000380: e38e 872f 5b0a 68bc 6201 0000 a623 f63d
00000390: 5f01 0080 6001 0080 6101 0000 6101 0080
000003a0: 0887 95b8 c781 97b1 aeee cca1 7701 0000
000003b0: e84b b33c c4bf cfbc 0306 a83d 0e51 a0be
000003c0: 6001 0000 6001 0000 6001 0000 6201 0000
000003d0: 6501 0080 5f01 0080 5f01 0000 e072 08bf
000003e0: 66d4 db3d 6201 0080 6101 0000 85e0 8f3d
000003f0: 5f01 0000 6201 0000 2b12 0080 4448 aebd
0.1879894 8.287388e-06 8.405323e-06 4.92e-43 4.92e-43 -4.93e-43 0.29964778 -0.056194864
4.92e-43 -0.010036923 0.3831621 4.4675024e-05 -4.92e-43 -0.0056968215 0.0022571418 4.95e-43
6.7969616e-17 4.95e-43 5e-43 4.95e-43 -4.95e-43 0.0017545603 4.92e-43 -4.96e-43
0.40624088 -0.01505231 0.102248065 -4.92e-43 1.5657208e-11 -0.021777399 0.024074232 -4.92e-43
-0.00063339976 -4.92e-43 4.93e-43 4.93e-43 4.92e-43 -0.029178878 0.016310241 0.017922834
4.92e-43 -0.18160832 5.1e-43 4.93e-43 4.93e-43 -1.0132837e-14 -0.437098 -4.93e-43
-6.9964255e-20 -4.92e-43 4.95e-43 1.6022732e-05 4.93e-43 -4.92e-43 -4.95e-43 -0.008496891
0.0003853597 -4.92e-43 -0.032662924 4.93e-43 -5.28e-43 3.8014674e-26 0.094869815 -3.917011e-09
0.4121673 -4.95e-43 -8.5e-44 6.563531e-22 -5.456675e-05 -3.332557e-10 4.95e-43 0.2727963
4.93e-43 -0.002494262 -4.93e-43 -5.47e-43 4.92e-43 -4.95e-43 -3.34332e-24 -5.2719737e-05
-4.95e-43 -0.027229682 0.1650947 4.95e-43 -2.822096e-12 1.07947006e-10 -8.700742e-16 -9.5346895e-06
4.93e-43 4.95e-43 0.050958287 -6.25e-43 3.2478697e-06 0.15208612 7.179008e-06 1.587749e-30
4.92e-43 -0.00084290584 -1.5146734e-09 -4.8008513e-09 -4.96e-43 9.64814e-12 -4.93e-43 0.14840351
4.92e-43 4.92e-43 -4.96e-43 0.049973466 1.3080141e-10 -0.013536138 4.95e-43 -0.00035040488
3.0278736e-07 4.95e-43 4.96e-43 7.3097216e-21 -0.036459446 0.3580147 4.93e-43 -5.274023e-22
4.93e-43 -9.9425005e-17 4.95e-43 4.96e-43 4.93e-43 -0.0007067957 -4.95e-43 -2.6882864e-16
4.93e-43 4.95e-43 1.7098804e-10 -3.9335485e-16 -5.07e-43 -4.99e-43 4.96e-43 -4.92e-43
-5.47e-43 -0.063471526 7.305171e-07 4.96e-43 3.2762714e-38 -4.92e-43 3.67691e-40 0.1258226
6.285429e-16 2.7714654e-20 0.00012099626 4.92e-43 4.92e-43 1.3711434e-05 -4.93e-43 -6.12e-43
4.93e-43 4.92e-43 4.92e-43 -4.92e-43 -5.83e-43 -0.015263903 4.93e-43 -4.93e-43
0.06697657 4.93e-43 3.2318013e-33 1.6793589e-10 -1.2269077e-17 -4.92e-43 -4.92e-43 4.92e-43
-4.1264973e-12 0.10534851 -9.594162e-22 0.4547145 -1.2574113e-09 8.82843e-35 -1.6283725e-13 2.08638e-27
1.0360934e-06 4.92e-43 -4.92e-43 8.841392e-05 0.034368765 9.53e-43 -3.2525103e-09 4.93e-43
-0.40230572 -4.95e-43 4.93e-43 3.6923666e-08 -4.95e-43 -4.92e-43 -5.842858e-16 -4.95e-43
-4.92e-43 -4.92e-43 -1.9410379e-25 4.95e-43 -4.92e-43 -2.448377e-37 -4.92e-43 0.08036885
4.95e-43 4.92e-43 5.32e-43 2.8847756e-37 0.000624406 -4.96e-43 4.92e-43 0.07616316
1.0725774e-10 4.95e-43 0.13151434 -4.7835813e-10 -0.00011896801 -3.1680641e-18 2.0503703e-17 0.3394173
4.93e-43 -4.95e-43 -0.00097250554 -5.89e-43 -4.93e-43 4.678396e-10 -4.93e-43 0.0008170629
2.4657884e-10 -0.014162625 4.96e-43 0.12018518 -4.92e-43 -4.93e-43 4.95e-43 -4.95e-43
-7.130025e-05 -4.4094324e-09 -1.3886756e-18 5.25e-43 0.02188678 -0.025359996 0.08204272 -0.3131184
4.93e-43 4.93e-43 4.93e-43 4.96e-43 -5e-43 -4.92e-43 4.92e-43 -0.53300285
0.10733871 -4.96e-43 4.95e-43 0.070252456 4.92e-43 4.96e-43 -6.517e-42 -0.08509877

fc2.bias f4 [300]
00000000: ab3e ab3e 1a56 763e 3390 783d 39a4 c13e
00000010: 471c 103e d1c1 273e 4d44 033e 9233 703e
00000020: 761e c63e 1292 4c3d 86f7 753e 39f4 db3d
00000030: 27c1 8a3d eca5 343e 7ff8 c83d f1a1 063e
00000040: e0e1 d43d eed0 063e 06b7 8a3e 23d8 303e
00000050: 8b12 a33e f897 ee3d 998b 093e 6436 223e
00000060: 48b0 aa3e b354 d93e 50aa 093e 65a5 d23d
00000070: 47d9 103d 3555 e83e 6d39 df3e 371e f13d
00000080: f43c a03e c840 0e3e 9a0d 923d 2663 253e
00000090: 3397 dc3d 25a6 033e 62eb a13e f64c cb3d
000000a0: d325 c9bd c369 d23e 9f69 403e 4267 e93d
000000b0: c8a5 113e ad77 fe3d 7664 d03d cf98 273e
000000c0: 8457 833e de24 ac3d 2be1 c43d 9fe6 483d
000000d0: bc69 9b3d 5dd4 983d 5595 043e b2a1 c23e
000000e0: 7465 bb3e e07a c83d 9e6e 133e a08e d63d
000000f0: acd1 cf3d 9f66 073e d269 0d3e f66b 5d3c
00000100: 070a 8d3e d59f 243e cacd 273d cc93 133e
00000110: fe92 853e 3f9f 833e 9741 613e 11ff 2b3d
00000120: b247 f33d cdea ee3c aae4 893e b3ce c33e
00000130: 6120 dc3d 53a1 0d3e 52bb e83d be18 1b3d
00000140: 26a1 1b3e 8fc5 0b3e a5f5 cc3d deac e63d
00000150: a4a4 153e 07ad da3e a06b db3e 92e9 e63d
00000160: a240 973c 48d7 dc3d 602f da3d 1c44 113e
00000170: c4d7 ae3e 0563 be3e b4ab 953c c98a 823e
00000180: 219f 163e 3026 b53e 626a d93d 6740 c73e
00000190: f444 ef3d 3d45 163e ccf8 8c3e 34fe 9f3d
000001a0: 88ad ab3d f81a c53d 0356 393c 52a4 0f3e
000001b0: d5a7 de3e 9588 413d b805 b23d 92bc 233e
000001c0: 7bac 6b3d c8aa 763d 3737 b33e 71f4 743d
000001d0: 3fc3 223c 05b6 293e c781 053e 811b 203e
000001e0: 08fa c43d 3cc1 bc3d 1685 103e ea4b 8a3d
000001f0: 9b41 a63d 6872 c13d 155f 8d3e 8fe8 9f3d
00000200: fc14 7e3e 504f 003e 63fc 083e 9209 053e
00000210: 02a5 ad3d dc5d a63e 2caf 093e 8884 b33d
00000220: ed94 003e 3091 fd3d 5ea3 453d 3be6 fc3d
00000230: 2d50 d23d a122 b43d 8abf c43d b16f 3f3e
00000240: 0934 d53d e492 f63d 3ee7 103e 96e2 db3d
00000250: b61e c23d b14a e83e 3a74 9a3e a2e0 dd3d
00000260: e75c bf3e 57df 7d3d 1b4c ef3e 8282 0e3e
00000270: e7e6 0f3e 8635 1b3d e76e df3d 4e27 193e
00000280: 5e11 223e e7ab 443e 8dd1 a03d 6984 253e
00000290: 4995 253e 77f0 05be 7437 e83d 77d7 f43c
000002a0: 5b23 803e 654a b3bd 71b3 9a3e 8331 0b3e
000002b0: 66c5 cd3e 68de b63e 8862 c9bd a2c7 093e
000002c0: 8f6b 193e f62f 063e 0306 fa3d 64d9 033e
000002d0: 750d bc3e 5ad1 993e 0b32 873e 7a83 893e
000002e0: d255 0a3e 9cce cf3d 3bb6 ce3d 0431 afbd
000002f0: f139 893e 9b15 103e 8dc4 c23e 1f38 ad3e
00000300: 7327 443e 8b87 30bd 1b77 3b3e 238b 283e
00000310: 55b9 503e 48c0 cc3d 6e4d 113e 58b8 713d
00000320: a2b9 0c3e e401 093e 2255 f8bd 0461 933e
00000330: f0ac 1e3e 58c5 1a3e 1cc9 c13e c499 8c3e
00000340: 6240 273e 7b4b 133e 32d5 2e3e 97ce 4c3e
00000350: d0a3 033e b214 5c3e 7866 443d 82cb 853e
00000360: a59b c73d f3c1 f93d 9d6d 093e a855 263e
00000370: aeae a43d c0b0 923e 2fb7 f13d 22b0 23be
00000380: e4ab a23e 5ac3 ec3d 4c83 123e e082 f83d
00000390: 9e4d a43d 58e8 163e 2125 b13c 60b5 2c3e
000003a0: e4bd 193d 6c05 a13d 4bb5 073e de0a f63d
000003b0: 2743 c03e 0f90 d33d a3f0 f13d 7104 c63d
000003c0: be7a a73d 005c ca3d 3831 ec3d 2ac9 bb3e
000003d0: 1dc8 723d f48a 8d3d cf25 353e bcb5 123e
000003e0: 63c3 1f3e 0059 1c3d a4ee e5bd 504b b73e
000003f0: 6b3e b53b b487 d53e feca 5d3e 4a01 273e
0.3344625 0.24056283 0.060684394 0.37820604 0.14073287 0.16382529 0.12819023 0.23457173
0.38695115 0.04994399 0.24020204 0.10739941 0.06775122 0.17641419 0.09813022 0.13147713
0.10394645 0.13165638 0.2709276 0.1726995 0.31850085 0.116500795 0.13432159 0.15841061
0.33337617 0.42447433 0.13443875 0.10285453 0.03536346 0.45377508 0.435985 0.11773341
0.31296504 0.138919 0.071315005 0.16151103 0.107710265 0.12856348 0.31624895 0.099267885
-0.098216675 0.41096315 0.18790291 0.11396648 0.14223397 0.1242517 0.101754114 0.16366886
0.25652707 0.08405469 0.0961326 0.049048062 0.075885266 0.0746238 0.1294759 0.3801399
0.3660084 0.097890615 0.14397666 0.10476422 0.101474136 0.1322274 0.13809898 0.013514509
0.27546713 0.16076596 0.04096774 0.14411849 0.2608871 0.25707433 0.21997677 0.041991297
0.11878909 0.029164696 0.2693227 0.38243636 0.10748363 0.13831072 0.113638535 0.037865393
0.15198192 0.13649581 0.100077905 0.112634405 0.14613587 0.42710134 0.4285555 0.11275019
0.018463437 0.10783249 0.10653567 0.14186138 0.3414899 0.3718492 0.018270351 0.2549651
0.1470914 0.35380697 0.10615994 0.38916323 0.11683074 0.1467485 0.27533567 0.07812157
0.08382708 0.096242845 0.011312011 0.14027527 0.4348742 0.047249395 0.08692497 0.15989903
0.057537537 0.060221463 0.35003063 0.05980343 0.009934246 0.16573341 0.13037787 0.15635492
0.09618002 0.09216544 0.14113268 0.06752761 0.08117982 0.094456494 0.27611604 0.07808029
0.24812692 0.12530255 0.13377528 0.12991932 0.08478738 0.32493484 0.13445729 0.08765513
0.1255681 0.12381208 0.048251502 0.123486005 0.102691986 0.087956674 0.09606846 0.1869495
0.104103155 0.12039736 0.14150712 0.10736577 0.09478514 0.45369485 0.301668 0.10833861
0.37375566 0.06198057 0.4673775 0.13916972 0.14052926 0.03789284 0.10909825 0.149564
0.15826938 0.192062 0.07852469 0.16163792 0.16170229 -0.13080011 0.11338702 0.029887898
0.25026974 -0.08754424 0.30215028 0.13593106 0.40189666 0.35716558 -0.098332465 0.1345506
0.14982437 0.13104233 0.12208178 0.12875897 0.36729017 0.30042535 0.26405367 0.2685812
0.135093 0.101468295 0.100933515 -0.08554271 0.26802018 0.14070742 0.3804058 0.3383188
0.19155674 -0.043098014 0.18307154 0.16459326 0.20383199 0.09997612 0.14189693 0.059013695
0.13742688 0.13379627 -0.12125613 0.28784955 0.15495658 0.15114343 0.37848747 0.27461064
0.16333154 0.14384262 0.17073515 0.20000683 0.12855458 0.2149227 0.047949284 0.26131827
0.09746484 0.12195196 0.1342072 0.16243613 0.0804113 0.28650475 0.118025176 -0.15985158
0.31771767 0.11560698 0.14307898 0.121343374 0.08022617 0.1473707 0.02162415 0.16866064
0.03753461 0.07862362 0.13252752 0.120137915 0.37551233 0.10330211 0.11813476 0.09668816
0.08177708 0.09880829 0.11532825 0.36676913 0.059272874 0.06911269 0.17690204 0.14327139
0.15601878 0.038170815 -0.11227158 0.35799646 0.0055311224 0.41705096 0.21659467 0.16309085

bn1.weight f4 [400]
00000000: 0469 83bd bc5c 7eba 8b68 b0bb 6001 0080
00000010: 6001 0080 6101 0080 494b bd3f 55e1 d73e
00000020: 3f98 86aa 979c 1cbd 1544 263f 1f76 d7bc
00000030: 1a3b 88af 0eb3 ccbc 70d4 87bc 6001 0000
00000040: 76d2 f3ba 5f01 0080 5f01 0000 919a 75a0
00000050: 54e7 a3b8 d6dd 8c3b c7f2 0fa8 69f4 8925
00000060: b329 ca3f c223 083b c79c e9bb 6001 0080
00000070: ec24 75b4 ac3a 7e3f e85d ee3a 8d89 a6a7
00000080: 82d0 61bb 6101 0080 6101 0000 ee98 7fba
00000090: 6001 0000 fab1 4ebc 392a af3c 6d22 c7bc
000000a0: 8832 5c8a dbd9 403f a0c7 8bb3 5f01 0000
000000b0: 6001 0080 18f4 d9b6 4783 a93f ba40 92b2
000000c0: 5837 a9b5 d963 16b1 6001 0000 ad3c 6335
000000d0: ac9b 92b3 6001 0080 5f01 0080 b03b 01bc
000000e0: 11da 643b 6001 0080 cfc8 8fbc 6101 0080
000000f0: 6301 0080 e00f 9fb8 aa40 993c c6cd ddbb
00000100: baee c83f 3e72 e8b1 6401 0000 9c13 a4b7
00000110: 00e8 1b3a 2c1d 1ebc f30f 0db5 80e8 163f
00000120: 6c91 c7a2 1b31 c9bc 971f bf34 6301 0080
00000130: 2968 af36 6001 0080 66d1 88bb 512e edbb
00000140: 0063 14ba 224d 9abc fce5 6d3f 5f01 0000
00000150: 1744 dcb9 2871 ca32 0f96 44b9 aadc 29bc
00000160: 1d2d 4cad 9001 0000 eef9 39bd 1eae e0b6
00000170: c538 21bc c2fc aa3c d09b 78bb 0c73 84b9
00000180: 6001 0080 80f5 2d3d f5b5 70ba 4893 f8bb
00000190: d991 0fb4 efe1 02ba 5f01 0080 6d36 853f
000001a0: 43fe 9a9c dbf1 ca37 f4fa 11bb d317 aebc
000001b0: 37ef b7b8 dd52 3c3f 93ba 09b5 bd81 1abc
000001c0: 3413 3fbc 6001 0080 3f88 2dac 081f 4bba
000001d0: 42ac c4bc e69b bb3f 8f2d 01b0 36a3 291c
000001e0: 35f3 9ca9 6b70 cdb8 41ea 8706 6101 0080
000001f0: 9e58 0db8 7f66 d0bc 6101 0080 8f6b 90b3
00000200: da51 49b7 6001 0080 84ab 442f 36b7 4327
00000210: cbe2 2f30 6201 0000 d329 82ad b3c9 0daa
00000220: 5f01 0080 daa8 b93f 9eb1 af34 6101 0080
00000230: cfae 9a38 d542 b9b0 13d2 1aba b5f2 443f
00000240: cd65 57b2 c563 2db9 9301 e8bc 6001 0000
00000250: eb65 81b9 8d50 31bc 6101 0080 6201 0000
00000260: 103d bf2f 5121 1792 3b44 edae 6901 0080
00000270: bb68 be01 45b9 b2bc 6101 0080 5d4a 2d8e
00000280: 862d fdbc 6001 0000 1a30 abaf 147d 212e
00000290: 2b74 bfb9 2386 7f06 460b 96b5 6001 0080
000002a0: 74ef f9b8 ba9f b9bc 4dbf 97b8 baca cd3f
000002b0: b047 9bba f19a 4c2d 583c 85ab 2209 3693
000002c0: c186 39ba 6001 0000 b735 e5b3 6055 77bc
000002d0: f3a9 2fbd 6301 0000 d9f6 04bb e966 eeaa
000002e0: 700b de3f 6001 0000 d72e 7fb9 494c afbb
000002f0: 5f01 0080 6201 0000 e987 4328 5f01 0080
00000300: a23b aaba 5fec 93ba 7a02 a22c 6c35 0400
00000310: 6101 0000 7d08 04bb 8232 74ac ef3c 583d
00000320: 656d 1fad 6001 0080 df37 0080 26c5 beb6
00000330: 91db edbb 6001 0080 6201 0080 7f5f c23e
00000340: 7068 40bc 6101 0080 df49 493d e096 c4ba
00000350: f402 e2bc a631 fcb9 aa34 55b7 c124 a43e
00000360: 98bc 349e cda7 89ab 4adf b3bc 5f01 0000
00000370: 6001 0000 da25 8eba 7e14 0130 6a23 243d
00000380: 5181 27b0 599f 2abd 6001 0080 62f3 7f3d
00000390: 0b23 48b9 262c 3dae aca3 4f92 8c75 d6a3
000003a0: 6aa2 d5bb dc16 16bc 7510 15bc 6801 0000
000003b0: 0839 4c3d 8a9c 65bc cf71 ce3f 5c27 ef3e
000003c0: d126 9c33 45ce 2c9b 0ec7 f0b7 a915 4bb4
000003d0: 00e2 9499 6001 0080 6101 0080 820d 423f
000003e0: 0577 cdbc bbf0 a2ae 58c4 07b2 aeab 6f3d
000003f0: 18e8 f5b8 1d1a 7bb5 38b6 0db4 e4ae 073f
-0.064165145 -0.00097031496 -0.0053835562 -4.93e-43 -4.93e-43 -4.95e-43 1.47886 0.42164102
-2.3908824e-13 -0.038235273 0.64947635 -0.026301442 -2.478025e-10 -0.024987724 -0.01658079 4.93e-43
-0.0018602151 -4.92e-43 4.92e-43 -2.0803449e-19 -7.815534e-05 0.004298906 -7.9907386e-15 2.393133e-16
1.5793976 0.0020773266 -0.007129285 -4.93e-43 -2.2830835e-07 0.99308276 0.0018185945 -4.622339e-15
-0.0034456556 -4.95e-43 4.95e-43 -0.00097502663 4.93e-43 -0.012615675 0.021382438 -0.024308408
-1.06021186e-32 0.7533242 -6.5090035e-08 4.92e-43 -4.93e-43 -6.49552e-06 1.3243188 -1.7026071e-08
-1.2607588e-06 -2.188463e-09 4.93e-43 8.4652385e-07 -6.826971e-08 -4.93e-43 -4.92e-43 -0.007887766
0.0034920017 -4.93e-43 -0.017551808 -4.95e-43 -4.97e-43 -7.584668e-05 0.018707592 -0.006768915
1.5697854 -6.7650765e-09 4.99e-43 -1.9559455e-05 0.00059473515 -0.00965051 -5.25498e-07 0.58948517
-5.409303e-18 -0.024559548 3.5599507e-07 -4.97e-43 5.2275323e-06 -4.93e-43 -0.004175353 -0.0072381874
-0.0005660504 -0.018835608 0.92929053 4.92e-43 -0.000420124 2.3567353e-08 -0.00018747918 -0.010367552
-1.1606075e-11 5.6e-43 -0.045404367 -6.69599e-06 -0.009840195 0.020872477 -0.0037934668 -0.0002526272
-4.93e-43 0.042470455 -0.0009182387 -0.0075859167 -1.3370972e-07 -0.0004992773 -4.92e-43 1.0407234
-1.025659e-21 2.41929e-05 -0.0022274824 -0.021251595 -8.770677e-05 0.7356394 -5.130798e-07 -0.009430346
-0.011662293 -4.93e-43 -2.466041e-12 -0.00077484595 -0.02400792 1.4656951 -4.699467e-10 5.6128355e-22
-6.9699814e-14 -9.796101e-05 5.112556e-35 -4.95e-43 -3.369955e-05 -0.025439499 -4.95e-43 -6.725087e-08
-1.1999591e-05 -4.93e-43 1.7887031e-10 2.7161005e-15 6.398692e-10 4.96e-43 -1.4797863e-11 -1.2593294e-13
-4.92e-43 1.4504654 3.2725524e-07 -4.95e-43 7.375853e-05 -1.3479516e-09 -0.0005905937 0.7693284
-1.2537794e-08 -0.00016535733 -0.028321063 4.93e-43 -0.00024680732 -0.010822427 -4.95e-43 4.96e-43
3.4786085e-10 -4.7688264e-28 -1.07896324e-10 -5.06e-43 6.994526e-38 -0.021816859 -4.95e-43 -2.1359701e-30
-0.030905496 4.93e-43 -3.1138897e-10 3.6718253e-11 -0.0003651691 4.8058718e-35 -1.1179152e-06 -4.93e-43
-0.00011917847 -0.022659171 -7.2358736e-05 1.6077492 -0.0011846926 1.1630461e-11 -9.466967e-13 -2.2976132e-27
-0.000707727 4.93e-43 -1.0673414e-07 -0.015096039 -0.042886686 4.97e-43 -0.0020288734 -4.23487e-13
1.734724 4.93e-43 -0.00024336144 -0.00534967 -4.92e-43 4.96e-43 1.0854145e-14 -4.92e-43
-0.0012987743 -0.0011285654 4.604592e-12 3.86506e-40 4.95e-43 -0.002014666 -3.4702523e-12 0.052792486
-9.062394e-12 -4.93e-43 -2.0043e-41 -5.6853924e-06 -0.0072588404 -4.93e-43 -4.96e-43 0.37963483
-0.01174365 -4.95e-43 0.049142715 -0.0014998578 -0.027589299 -0.00048102177 -1.2708051e-05 0.3205929
-9.568121e-21 -9.78101e-13 -0.021957058 4.92e-43 4.93e-43 -0.0010845021 4.695905e-10 0.040072836
-6.0938016e-10 -0.041655872 -4.93e-43 0.062487967 -0.00019086541 -4.3012836e-11 -6.5519424e-28 -2.325171e-17
-0.0065196054 -0.009160724 -0.009098162 5.04e-43 0.049859077 -0.014014373 1.6128482 0.46709716
7.271377e-08 -1.4294156e-22 -2.8702922e-05 -1.8913728e-07 -1.5394122e-23 -4.93e-43 -4.95e-43 0.7580186
-0.025081167 -7.4096694e-11 -7.902678e-09 0.058513336 -0.00011725741 -9.3542786e-07 -1.3197939e-07 0.53001237

bn1.bias f4 [400]
00000000: bfa6 d03c e181 24bc f8d0 9dbc e083 09b3
00000010: 188f e6b0 d926 f1ae e4af e93b 2a91 b73d
00000020: 51dd 87b9 c64c b9bc 357f ab3d c05b d0bc
00000030: 77cb fbba 1036 32bd a5a4 ecbc 2473 358d
00000040: 2148 2bbc 4745 41ab c75c 64a5 2925 adb3
00000050: 31bc 66bc 6864 ddbc 333e 53b9 0411 26b8
00000060: 0b2e 403d 71a3 73bc 9539 123c cefe a7ac
00000070: 4a85 8eb5 775f 823e 70d0 cebc 8d89 f4b7
00000080: e428 ddbc f8d0 ada1 103e 868f 1a9f acba
00000090: 3916 89a8 e0d6 85bc 497c 1d3d 0cfc b1bc
000000a0: 9387 c8b5 f808 ea3d 5fff f0b8 665a 9ea9
000000b0: beb3 ab9c f7dd 94bc e64a 5e3e 2458 e4bb
000000c0: a7c2 28bc a048 2bbb dd98 608f 78c4 b6b6
000000d0: 1716 43bc 428b 098c 3b5d cf9d 2f2e 86bc
000000e0: 30d0 03bc c679 6e8f e3a5 8dbc 341f c0ac
000000f0: 6101 0080 16ac 13bc bb29 423d 6bb6 32bc
00000100: 1926 083e 6350 afb9 040f f1a0 7e8c 28bc
00000110: 39bc 25bc 9356 89bb e681 4ebc 48ff 443d
00000120: 6ca4 9fb7 9666 14bd 210c 88bb 8167 96af
00000130: 7494 52ba 92e8 d1a9 5751 89bc 96d0 d8bc
00000140: 028c 5fbc 246d 0dbc 2289 d43d 26d5 29a6
00000150: 0c4b efbb 86dd 1eb4 06a9 dcbc e336 d5bc
00000160: 62a5 9eba 54bb 97a1 c741 2bbd 98df dfbb
00000170: 5d7e c5bc b9e4 9f3c 5e5e c1bc 9094 40bc
00000180: b0c7 00b4 e5a0 cdbc 24ba d1bc f1c2 b5bc
00000190: 2bcd aebb ba46 83bc db07 30b0 9322 2a3d
000001a0: 2e0f 8db8 4332 13bc 24b1 30bc 7573 b6bc
000001b0: 6221 62bb c70c 7d3d 76af 4ebb c2a7 b4bc
000001c0: d82e d6bc 9c86 59af 0cbd 25ba 81b5 a1bc
000001d0: 8dba 50bc 314a 923e 0485 13bb 7228 1e9d
000001e0: 69f3 c8ba bfd7 25bc 520d 5bb6 b3dd c8a5
000001f0: 70c2 fbbb 24f7 2fbd bab0 b1a6 7ae5 14bc
00000200: 04fa 3cbb 7b04 f195 3825 ffaf 9b15 dea7
00000210: 6559 58b9 10ea 25b2 5dcd ebb8 f8ec d2ba
00000220: 6101 0080 0de8 41bd 60bb 21b5 e626 d7ae
00000230: 0521 13bc 2455 1dbb 9457 9fbc df6e 103e
00000240: b874 8fbb 942d 4fbc 2dd5 f0bc ebd5 2499
00000250: 2031 31bc 3570 ddbc 416b 8dac 54f1 17a1
00000260: 00fe 7eb6 f749 aeb4 186b bbba 2f82 8b98
00000270: 1042 79b4 ce89 bfbc b378 f0a2 13c8 20b4
00000280: 68e5 d4bc 9317 2fa9 21cc adb5 714c 32b3
00000290: 4c93 82bc 2ca1 a6b3 778e 65bb 3486 02a6
000002a0: 896e 33bc 5976 8bbc c47e 84bc 1436 273d
000002b0: 4070 96bc 72e4 a5ae 430a 81ad 5b3c e4b5
000002c0: 3abe 9ebc 9b98 0d98 2d4d 73bb 9249 7cbc
000002d0: 7f21 2fbd f60c c098 d7cf 05bc f5d9 2dbb
000002e0: 15c0 173d fbc5 a5a2 4cd3 01bb 4a51 9cbc
000002f0: d919 7eaf 74c4 2da5 8ba0 8bb9 e712 a2b1
00000300: e25b 5abc b71e 08bc 11c6 d0ba 8317 ac99
00000310: f096 598f 71a1 86bc 0c15 f4b9 ae6a 173d
00000320: efae 8aba 8afd 0cb4 fa8c 72af d8c6 a7bb
00000330: 7b2d 8fbc 6627 4cae 6c23 7daf 18f7 a4bd
00000340: fe1b 76bc c8de cca6 7ddc b33d 17fb 26bb
00000350: 2fa9 e3bc 49a2 1dbc 1f68 abbb b2bb c33d
00000360: fcbb c1a7 5412 b6b8 6533 f0bc e768 ce8b
00000370: 05c3 7fb4 a259 8ebb ff66 6bba 03ab 843c
00000380: 45c2 38b1 d3c9 a3bc 29fb 2f9f b2a1 813d
00000390: 3357 46bc 2fd6 07b8 15a1 e1b5 5934 0cb7
000003a0: f795 04bd c315 20bc c64b e5bc 5f01 0080
000003b0: f2dd d5bc d51c fdbb 33b0 d73e b2d9 603e
000003c0: 7c87 61bb 408c 6eb6 4e04 01bb 90aa 10bb
000003d0: 99d3 00b3 efe3 55b3 05c4 28a5 0216 973e
000003e0: 1fea 79bb 6f70 dbba c11a 58ba e219 203d
000003f0: 982d f5bb 3bd4 76bb bf07 08bb 02d3 df3d
0.025470136 -0.010040731 -0.019264683 -3.2017738e-08 -1.6775372e-09 -1.0966312e-10 0.0071315635 0.08963235
-0.000259141 -0.022619616 0.08373872 -0.025434375 -0.0019210418 -0.04350859 -0.028887102 -5.5913527e-31
-0.010454209 -6.8663516e-13 -1.9807282e-16 -8.0627e-08 -0.014082954 -0.027025416 -0.00020145699 -3.959333e-05
0.04691891 -0.01487051 0.008924861 -4.7747145e-12 -1.0618617e-06 0.2546346 -0.025245875 -2.9151119e-05
-0.026997037 -1.177825e-18 -1.3237326e-29 -0.0013169975 -1.5219693e-14 -0.016337812 0.038448606 -0.02172663
-1.4940618e-06 0.11427492 -0.000114916584 -7.032291e-14 -1.1362293e-21 -0.018172247 0.21708259 -0.006968515
-0.010300315 -0.0026135817 -1.1073493e-29 -5.4468946e-06 -0.011907122 -1.0596002e-31 -5.488884e-21 -0.016379444
-0.008045241 -1.1757759e-29 -0.017291015 -5.4604325e-12 -4.95e-43 -0.009013196 0.04740308 -0.01090775
0.13295783 -0.00033438494 -4.0836925e-19 -0.010287402 -0.010115677 -0.0041912287 -0.012604212 0.048095018
-1.9030842e-05 -0.036230646 -0.0041518365 -2.7358385e-10 -0.00080329855 -9.321809e-14 -0.016762419 -0.026466649
-0.01364422 -0.008631978 0.103777185 -5.8922523e-16 -0.0073026475 -1.4795486e-07 -0.026936065 -0.026027149
-0.0012103731 -1.0281743e-18 -0.041810777 -0.0068320744 -0.024108106 0.019518243 -0.023604568 -0.01175417
-1.1993575e-07 -0.025101135 -0.025601454 -0.022187682 -0.0053345165 -0.016024936 -6.403959e-10 0.04153688
-6.7262314e-05 -0.008984151 -0.010784421 -0.022271851 -0.003450476 0.061779764 -0.0031537688 -0.02205265
-0.026145384 -1.9783858e-10 -0.00063224207 -0.019739868 -0.01273979 0.2857223 -0.0022509703 -2.0932036e-21
-0.0015331331 -0.010122239 -3.2641296e-06 -3.48447e-16 -0.007683091 -0.0429603 -1.2329744e-15 -0.009087915
-0.0028835544 -9.7346194e-26 -4.6410675e-10 -6.1640803e-15 -0.00020632667 -9.657484e-09 -0.00011243925 -0.0016092351
-4.95e-43 -0.04734044 -6.024984e-07 -9.783978e-11 -0.00898004 -0.0024007047 -0.01945094 0.14104794
-0.0043779276 -0.012645144 -0.029398525 -8.521802e-24 -0.010814935 -0.027031044 -4.0193686e-12 -5.1480185e-19
-3.7996797e-06 -3.2463842e-07 -0.0014298884 -3.606211e-24 -2.3213966e-07 -0.02338114 -6.5179926e-18 -1.4973948e-07
-0.025988296 -3.8878253e-14 -1.2948914e-06 -4.1513378e-08 -0.015939377 -7.7592944e-08 -0.0035027543 -4.528469e-16
-0.010951647 -0.017024206 -0.016173728 0.040823057 -0.018364072 -7.543911e-11 -1.467016e-11 -1.700489e-06
-0.019377816 -1.8300869e-24 -0.0037124858 -0.0153984 -0.042756554 -4.9643924e-24 -0.008167229 -0.0026527618
0.037048418 -4.493296e-18 -0.001980978 -0.01908173 -2.3110348e-10 -1.5071919e-16 -0.0002663176 -4.7169695e-09
-0.013327571 -0.008308104 -0.0015928169 -1.779388e-23 -1.07279955e-29 -0.016434403 -0.00046554988 0.036966972
-0.0010580699 -1.3130753e-07 -2.2059857e-10 -0.0051201396 -0.017477741 -4.6419223e-11 -2.30228e-10 -0.08054942
-0.015021322 -1.4215729e-15 0.08782289 -0.002547925 -0.027790634 -0.009621211 -0.005230918 0.095572844
-5.3772074e-15 -8.68185e-05 -0.029321382 -7.9506153e-32 -2.3819673e-07 -0.004344181 -0.0008979886 0.016194826
-2.6885953e-09 -0.019993698 -3.7265446e-20 0.06329669 -0.012105751 -3.2385982e-05 -1.6810687e-06 -8.356838e-06
-0.03236958 -0.009770813 -0.027990233 -4.92e-43 -0.026106808 -0.0077243843 0.42126617 0.21958044
-0.003441303 -3.55464e-06 -0.0019686404 -0.002207432 -2.999477e-08 -4.980023e-08 -1.4638091e-16 0.29508978
-0.0038133932 -0.0016741882 -0.0008243733 0.039087184 -0.007482242 -0.003766312 -0.002075657 0.109289184

bn2.weight f4 [300]
00000000: 9264 c73f bfcf de3e ace6 073d bdbf 4b3f
00000010: f4c9 ae3c 3c3d 17bf 839a c5bb 2a2c d03e
00000020: a368 5f3f 0c96 423f ba37 1abf f013 973f
00000030: 5fb9 2e3f 339f 2c3f 8220 aabd cb80 8fbd
00000040: 8147 07be 8766 bc3f 7296 083f 595a d7bd
00000050: 6ae8 243f a9e4 18b4 822e fd33 0d84 9a3f
00000060: ac44 263f 63f3 5f3f 5f01 0000 f07e e2b5
00000070: 1bcd 223f c1f1 6c3f 4f22 9c3f a708 99bd
00000080: 933e 173f 4386 c63f bc97 44be 9227 a53c
00000090: ed00 0080 9df2 9a3f 49bf 813f 5486 682b
000000a0: 1e80 0ebf b427 543f 5a4d 913f 38e5 3e3f
000000b0: eb21 e3bb 426c 263f 04f3 42be e39a d01f
000000c0: 7839 e03e d6cc 373f b14b 1ebe 0ced 1b40
000000d0: b348 6ebe 6bd5 0dbd 452b 80bd 3944 443f
000000e0: d117 403f a9bb c1bd 36c1 f8bb d0eb 2cb2
000000f0: 39ba cd23 0fc9 41be 1684 cc27 6722 623f
00000100: dc96 ba3f d48c 9606 d9dc 41bf d6e0 1fbf
00000110: 8196 5c3f 72f1 4f3f 6400 bd3e ed1f 653f
00000120: a2d2 06a5 4387 e73e 878d fc3e d348 933f
00000130: b888 cfbb 6101 0000 6301 0080 5d67 5a3f
00000140: 42e1 b33e 7acc 5731 6da8 b9bd 6101 0080
00000150: dfef ca07 c517 683f a140 5f3f 856e 933c
00000160: f7a9 84be 7cb2 e13e 7dd3 7dbd 1c0e 0000
00000170: 3d6b 293f 5eaf aa3f 6062 933f 13a5 48bf
00000180: 6e3b 043d f319 483f 0828 573f 77f3 473f
00000190: e4e4 8fbd 3655 87bb 4290 043f 540c c63f
000001a0: 205c b133 7549 4ebc 99b2 653f 02d5 b0bd
000001b0: 255c a53f b3f2 91be dfc5 5e3f 37d0 9f3d
000001c0: 76e6 0a3f fc81 253d e1c6 b23f c95c b4bd
000001d0: 1ef0 ca3f 012b f03f 3d0c 6fac cd78 e53c
000001e0: 12fd 0111 c444 11b9 7756 ccbc 84a6 adbd
000001f0: 2503 26be 1781 24bd 4f6b 3e3f f786 ac35
00000200: e32a 843f c2e9 feb9 39b2 c23f b634 2fb5
00000210: 7cae 0140 9ce5 1e3f 674a c23c ec9f f63c
00000220: 35f5 493d 6201 0000 52d0 553f 0f79 20bf
00000230: f30b 3400 1d55 f924 98a1 963d c116 c73e
00000240: 5723 5f3f 7aee d2ad 9ae2 c8be 661d 76bd
00000250: b607 e1bc 0a3c 6f3f 68c8 0f3f f9ba 35be
00000260: 1d91 553f d9ef 183f 5343 643f 7f3e a333
00000270: 26c1 bc3d c312 a13f e873 542b ce03 6b3f
00000280: 6da5 e0be 9dad 9f3e 9199 03be 9f5d 303f
00000290: ff87 e53c ea12 1dbf f7b2 1bbd 5f5c 8f3f
000002a0: c4f6 36bf 93ef 14bf 47fb 253f c55b 76bd
000002b0: 563f 563f 4561 523f ad8e b13f f3a5 bf01
000002c0: 1c2b 2cb8 9bf6 3cb5 cadc cdb7 4668 9b3f
000002d0: 4baa 3f3f e137 303f 9f0b f63e 6d0b 063f
000002e0: 5288 f712 ea44 f9bd 8cb5 19b8 57d6 a83f
000002f0: 1798 353f 5e04 26bd 747d 463f 2487 2d3f
00000300: 5f4d 87be 5ac9 a9be ea41 693f ff1b 983f
00000310: d2e6 993e 3d62 53bc 7f31 333f 3d29 c3bd
00000320: db9d bb22 34e2 ec3e 5846 c3bf 99b2 383f
00000330: 6d8b 8002 7f06 9a2c 2a30 433f 2223 8a3f
00000340: 6e57 809a 66a5 463f d4a7 8bbe 15a1 923e
00000350: d153 7cbd 7d68 c13e 5917 4b3f 98f0 223f
00000360: 9b4b 4a8d d374 a694 b00a 0080 416f ea3e
00000370: d861 b7ba 3bfd 2d3f 5691 5ebc ce31 433f
00000380: 5e4c 253f 374d d4bd 7371 2fbf 3670 e53c
00000390: 8a0b 0080 6601 0080 b353 043e 5f01 0080
000003a0: 5622 ac3e 1193 27be ca0b c13f 2203 a3b4
000003b0: 6afa 453f c99d 6907 eb37 56bc c57c 9a3b
000003c0: 03ea 763f 213f fe23 c9b0 d4bd 85bd 533f
000003d0: fd90 0140 1b1c d4bd 57aa 8f3d 6a7d a319
000003e0: 7006 3ebe bf62 8d3f edb7 16bf e1fd 373f
000003f0: e776 813f d1c1 833f 6b40 d93e c728 af3d
1.5577567 0.43517873 0.03317897 0.79589444 0.021336533 -0.5907781 -0.006030382 0.40658695
0.8726904 0.76010203 -0.6024128 1.180296 0.68251604 0.6743042 -0.083069816 -0.07006987
-0.1321087 1.4718789 0.5335456 -0.10515279 0.64417136 -1.4239289e-07 1.178969e-07 1.2071549
0.64948535 0.87480754 4.92e-43 -1.6875256e-06 0.63594216 0.9255639 1.219797 -0.074723534
0.59079856 1.5509723 -0.19198507 0.02016047 -3.32e-43 1.210529 1.0136501 8.2609375e-13
-0.5566424 0.8287308 1.1351731 0.7456851 -0.0069315336 0.6500894 -0.19038016 8.8347665e-20
0.43793845 0.7179693 -0.15458561 2.4363432 -0.2326992 -0.03462736 -0.06258253 0.766666
0.7503634 -0.094596215 -0.007591392 -1.0065335e-08 2.2305013e-17 -0.18924354 5.676458e-15 0.88333744
1.4577289 5.663066e-35 -0.7572761 -0.6245245 0.8616715 0.8122779 0.3691436 0.8950184
-1.1694012e-16 0.45220384 0.49326727 1.1506599 -0.006333437 4.95e-43 -4.97e-43 0.8531397
0.35132796 3.140285e-09 -0.09065328 -4.95e-43 3.0534565e-34 0.9066127 0.8720799 0.017997036
-0.25910923 0.44081485 -0.06196927 5.061e-42 0.6617926 1.3334768 1.1514397 -0.78376883
0.03228324 0.78164595 0.8404546 0.7810587 -0.07026079 -0.004130031 0.5178262 1.5472512
8.258962e-08 -0.012590756 0.89725643 -0.08634378 1.2918745 -0.28505477 0.8702068 0.07803386
0.54257905 0.040407166 1.3966943 -0.0880676 1.5854528 1.8763124 -3.3970736e-12 0.028011704
1.0254289e-28 -0.00013853895 -0.024943573 -0.08479026 -0.16212137 -0.040162172 0.7438249 1.2854279e-06
1.0325588 -0.00048620818 1.5210639 -6.5269285e-07 2.0262747 0.62069106 0.023717118 0.030105554
0.049306113 4.96e-43 0.83520997 -0.6268472 4.779732e-39 1.08130724e-16 0.0735504 0.38884547
0.871633 -2.398014e-11 -0.39235383 -0.06008663 -0.027469497 0.9345099 0.5616517 -0.17747106
0.8342455 0.5974098 0.8916523 7.601647e-08 0.09216528 1.2583851 7.547838e-13 0.9180268
-0.4387621 0.31187144 -0.1285155 0.68892854 0.02801895 -0.61356986 -0.03801247 1.1200064
-0.71470284 -0.5817806 0.64836544 -0.060146112 0.8369039 0.8217967 1.3871666 7.0400445e-38
-4.1048144e-05 -7.0394316e-07 -2.4540717e-05 1.2141197 0.7486922 0.68835264 0.4805574 0.52361184
1.5621497e-27 -0.121713474 -3.664712e-05 1.3190411 0.70935196 -0.04053151 0.77535176 0.67784333
-0.26426217 -0.33161432 0.911162 1.1883544 0.30058914 -0.01290184 0.699974 -0.0952935
5.0853588e-18 0.4626633 -1.5255842 0.7214752 1.8887936e-37 4.3776645e-12 0.7624537 1.0791972
-5.308081e-23 0.7759613 -0.2727648 0.2863852 -0.06160337 0.3777503 0.793325 0.63648367
-6.2337063e-31 -1.6807796e-26 -3.834e-42 0.45788005 -0.0013990952 0.67964524 -0.0135844555 0.7624787
0.6456965 -0.1036629 -0.68532485 0.028007608 -4.14e-42 -5.02e-43 0.12922554 -4.92e-43
0.33619946 -0.16364695 1.5081723 -3.0363395e-07 0.77335227 1.7575341e-34 -0.013074855 0.0047145807
0.96450824 2.7565471e-17 -0.103852816 0.8271106 2.0244744 -0.10356923 0.070149116 1.690446e-23
-0.18557143 1.104576 -0.588744 0.71871763 1.0114411 1.0293523 0.4243196 0.085526995
