tmp/ddpg/target_actor_ddpg.pth (torch, 504132 bytes, 10 tensors)

fc1.weight f4 [400, 6]
00000000: d925 5e3d e11e bf3c 93d7 9abd 34ae b63e
00000010: ed31 ee3d b27d 7dbd 8e1b 3e3d 1444 d53c
00000020: e784 9e3e 35e8 143f eafe d1bd 7ab9 a839
00000030: 939f 363d 56f1 8c3c 26f3 423e 7fd4 c13e
00000040: d8f7 183e 421b d4bd 3914 473d ecd0 9b3c
00000050: c254 61be 8d52 27bd 44f5 5cbe d3fb 8f3d
00000060: 5757 423d bf90 7d3c dda2 8fbc f520 a1bc
00000070: b409 3e3e ca9b 823d 80bf 033d 60d1 073d
00000080: 72b4 2b3e 03f7 253f b39f ed3e c999 3bbe
00000090: 822b db3c 9758 1b3d 98cf 60bd 04ea b1be
000000a0: c582 94be 4732 853d 02fc dcb8 7e70 743d
000000b0: 7107 7a3e a9cc 58be bd72 373e 42c1 8ebe
000000c0: 47ed 35bb 87e1 5e3d 5966 283e 9164 2abe
000000d0: 573b aabe 2a61 8cbd cfcf 353d c46a 873c
000000e0: 8f07 963e 8d71 b13e 62b5 773e dc37 19bd
000000f0: cd30 413d cd9b 9d3b af7b 35be 673f 45bd
00000100: 579e 9abd 620c abbc 690c 2a3c 786f 503d
00000110: 0223 a3be 6bb7 a43e 481e fd3e 3f0a 67be
00000120: f91e 123d d479 233d 863d d1bd 39be cdbc
00000130: 6e0d 4c3e 5e82 15bd 111a 653d 9fe1 ed3c
00000140: a58d dd3d 9a1a 3dbe bdfa 503e 0677 01be
00000150: ec65 8c3c fb40 253d 535e 8d3d 891b 773f
00000160: ca10 92bd d878 223d c279 083d 2330 0a3d
00000170: b978 a7be a297 afbc 9aa9 b0be dc90 053d
00000180: 3a73 013d e32b 073d 8393 b43d b968 aebd
00000190: c244 2e3d c54f aabc 915a 013d aebd 313d
000001a0: e4f5 c03e aa08 05bf bdd3 963d cf02 033e
000001b0: e8a7 823d 50ee d43b 27d6 01be b7a3 f9bb
000001c0: edd3 873e 665b 21be e9a7 d83c a0b8 033d
000001d0: dbe4 45be 34c9 ef3e 1e3e f23d 3802 d0bd
000001e0: 657a d63c b722 133d a0c4 543e 0ef3 a4bd
000001f0: 9eeb b7bd 8adc a3bd 9ab2 933d e20c 03b8
00000200: 0c0f ad3c 473d 0a3d 0898 8bbe aaa8 623e
00000210: b3bd 763d 6f33 383c f23e 5d3d 6e01 60bd
00000220: e0f2 bf3d 6f87 4c3e a5e1 283d 4387 873c
00000230: fd3f 26bd 7a9a b63e 6af9 963e 0000 9dbd
00000240: eb35 a03c 4ff9 223d e185 f63a e078 463f
00000250: aa62 cebd caf0 66bd 93c1 793d 366d 4e3c
00000260: 0c17 693d 5ea3 b33c f199 b33e bf79 e7bd
00000270: caba 18bc 9154 853d 066a 973d e70f 81bd
00000280: d37e 373e 8be1 fdbd d9e8 5d3d 8f3d d43b
00000290: fc67 84be bc99 92be 7799 8e3b 4ead 09be
000002a0: 3326 fd3c 1110 eb3c 6311 52be 572f 893e
000002b0: 27fd e13e a29a 6f3c 0935 7d3c a81e 3e3d
000002c0: 1303 7abc 57ed d7bd d68f 0ebf 2f97 8ebb
000002d0: 6a79 403d 92d2 df3c 8a4f 463e d069 093e
000002e0: 3cf7 cb3c 3580 5d3e f90f acbb fb6f 873d
000002f0: 5334 913e bbec a8be 6f2a ea3e a751 9bbd
00000300: f519 08bc e7af 793d 1048 8b3e 02df 4ebe
00000310: 8fea ecbe f8fa c4bd 3cb2 223d 00d4 3d3c
00000320: 8b8c f63d b6fa 9cbb ab06 a2be 0430 4a3e
00000330: e4d0 3c3d f74b 3f3c c0e2 1cbe 7ee4 523d
00000340: 805f 963d b16e aebd 7f25 2f3d ed9e bc3c
00000350: c1f8 edbd afa8 4fbe 4533 c83c 6cce af3d
00000360: bb00 bcbc bfe5 7b3d 1228 ddbd 56b1 003d
00000370: 072f a63e 9918 46be 923d 043c 6ae9 333d
00000380: 1ce2 6cbe f5de bd3e 0916 003f bdb3 03be
00000390: accb 433d 26c0 113c 6e2f 84be 97b4 d83e
000003a0: 9d73 c43d 2f1c 46bd f846 863c 82ad 2c3d
000003b0: 5f36 173d 3010 0d3f 80f1 3bbe 64c3 81bd
000003c0: db20 0d3d 0bbd 143d eafa 48be de63 11be
000003d0: 31db ea3e 3955 30be 2859 b7ba 9e40 313d
000003e0: ec17 d83e e976 8bbe d91d 1fbe c8d6 a23e
000003f0: c28a 9c3c a576 2d3d 9bff b93c 3d63 543f
0.054235313 0.023330154 -0.07560649 0.3567978 0.11630616 -0.06188745 0.046412997 0.026033439
0.3096077 0.5816682 -0.10253699 0.00032181648 0.044585776 0.017204922 0.19038066 0.37857434
0.14938295 -0.103567615 0.04860327 0.01902052 -0.22004989 -0.04085021 -0.21577936 0.070304535
0.047446575 0.015476405 -0.017533714 -0.019669035 0.18558389 0.06377371 0.03216505 0.03315866
0.16768053 0.64830035 0.46410903 -0.18320383 0.026754145 0.037926283 -0.054885477 -0.34748852
-0.2900602 0.0650373 -0.000105373576 0.059677593 0.24416901 -0.21171822 0.17914863 -0.2788182
-0.0027759837 0.0544143 0.16445293 -0.16639926 -0.33248398 -0.0685447 0.044387635 0.016530402
0.29302642 0.34656945 0.24190286 -0.037406787 0.04716568 0.0048098327 -0.17722963 -0.04815617
-0.07549732 -0.020879928 0.010378935 0.050887555 -0.31862646 0.32171187 0.49437165 -0.22562502
0.03567407 0.039911106 -0.10216813 -0.02511512 0.19926998 -0.03650128 0.055933062 0.029038249
0.10818032 -0.18467179 0.20408149 -0.1264306 0.017138444 0.040345173 0.069027565 0.9652639
-0.071321085 0.039666027 0.033319242 0.033737313 -0.32709292 -0.021434609 -0.34504396 0.03260885
0.03160403 0.033000838 0.08817198 -0.08516068 0.04254604 -0.02078999 0.03158051 0.043393783
0.376876 -0.51966345 0.073646046 0.1279404 0.06379682 0.0064981356 -0.12679349 -0.0076183933
0.26528874 -0.15757522 0.026447253 0.032158494 -0.19325583 0.46833193 0.11828254 -0.10156673
0.02618141 0.03592178 0.20778131 -0.080541715 -0.08980487 -0.08001049 0.072118 -3.1244832e-05
0.021125339 0.033749845 -0.27264428 0.22134653 0.060239505 0.0112427315 0.054015107 -0.054688863
0.093724966 0.19973539 0.041230816 0.01654399 -0.040588368 0.3566473 0.29487163 -0.076660156
0.01955696 0.03978854 0.001880821 0.7752819 -0.100774124 -0.056381978 0.060975622 0.01259928
0.056906745 0.021928485 0.35078385 -0.11302518 -0.009321878 0.065102704 0.07393269 -0.06301861
0.17919473 -0.123965345 0.05417714 0.006477065 -0.25860584 -0.28632915 0.0043517905 -0.13445017
0.030902004 0.028694184 -0.20514445 0.2679393 0.44138452 0.01462427 0.015454539 0.046415955
-0.015259522 -0.10543316 -0.55688226 -0.0043515186 0.04699079 0.027322087 0.19366279 0.1341927
0.024898164 0.21630938 -0.0052509275 0.066131555 0.28360233 -0.3299311 0.457355 -0.07583933
-0.00830697 0.06095877 0.27203417 -0.20202258 -0.46272704 -0.09618181 0.03972076 0.011586189
0.12038525 -0.0047906293 -0.31645712 0.19744879 0.04609765 0.011675826 -0.15320873 0.05148744
0.07342434 -0.085172065 0.04276037 0.023025 -0.11619712 -0.20279191 0.02443851 0.08584294
-0.022949567 0.0614984 -0.107986584 0.03141912 0.32457754 -0.19345321 0.00807132 0.043923773
-0.23133129 0.37084165 0.5003362 -0.12861533 0.04780166 0.008895909 -0.25817436 0.4232528
0.09592364 -0.04836672 0.016391262 0.042157657 0.036917087 0.55102825 -0.18353844 -0.06336096
0.03445516 0.036313098 -0.19626966 -0.14198253 0.45870355 -0.1722001 -0.0013988363 0.043274514
0.4220575 -0.2723916 -0.1553873 0.3180449 0.019109134 0.042349476 0.02270489 0.82963926

fc1.bias f4 [400]
00000000: 5ac4 463e afcc 313e dbba 5d3e 479f 51be
00000010: 5143 c23d 2fa5 833e 0c9b 72bd ca68 793e
00000020: 012a 413d ff3d 6b3e 8bc8 c6bc 9f2d 7f3e
00000030: 1db7 23be ce98 40bd c4eb 75bd acb5 c5bd
00000040: 14d3 fa3d 2bd8 b23d 35e8 b93d 7dfd cebd
00000050: 8f70 bf3d fe49 5abe 75d9 b4be 4d57 05be
00000060: 2698 94ba a738 9e3c 5314 ff3d ccc1 d93d
00000070: 1bf8 443e d0c8 c93a 53eb 053e cf7b 363e
00000080: aef9 eabb f4dd efbb 9f00 153e a43a 77bb
00000090: 8023 f03d 8177 ca3c 4ad5 a63d b55f 1f3d
000000a0: db1f 8d3e a3b7 a53d 17cf 1f3d 4411 0f3e
000000b0: 1bd2 f33d 51a2 b3bc b89b bbbc 1c45 193e
000000c0: a759 bebe 3cc2 503e 6b1a 3a3e be70 2e3e
000000d0: 63f5 973d ee9d fcbd dd3b 84bd 6f01 e33d
000000e0: c959 873d 48d1 b3bc 6d57 2b3d 155a 4a3e
000000f0: 53b7 013e 80ec 3f3c fbde 293e e46a d93d
00000100: 13e9 9e3d 2202 8c3e 8a3b 7a3d b651 c33c
00000110: a09e bb3d 65de 873e 3c70 2e3e 225f 4abc
00000120: 4c53 8f3c 5a5e 76bc 33e0 973d 0322 313d
00000130: 4227 aebc 615b 0f3e 26f3 2d3e fc24 50bc
00000140: faab 093e bbdb 1b3e 06d4 d53c ac22 d13d
00000150: 1c19 603d fc47 b53d 37df 64bc 4ff8 d1bc
00000160: c734 a33e d5fe f43d 2ef8 243e eb75 5f3d
00000170: c703 723d 8208 013a 116c b63d 45b3 8d3e
00000180: 3472 8e3d 7cfb 113e c385 c9be f0a5 cd3d
00000190: f0d6 023d 3f10 b8bd 9ece aa3d ee1c 923d
000001a0: 6da7 00be e52f 8a3c 73f6 783d 8a59 be3e
000001b0: e51c 44be c72e 10bd bd52 c73d ecd0 3d3e
000001c0: 9f73 903e 2cbd a03d cf15 57be 628c 30bd
000001d0: 70ad 96bc 03ed 6e3d a35f f03d a3ca 433e
000001e0: 57b2 f73d f9d9 813d 82b8 ee3c 83d1 793d
000001f0: 8b7d 32bd 48e1 91bd 3d4a 4cbe 1383 dcbd
00000200: cc3b 8d3d adc2 77bb 6c45 963d 6a3a 5e3e
00000210: 1c06 a83e 353c ee3d 242f 10be 817f 803d
00000220: 9c4e f73d 106b 0c3e 4966 fc39 0694 89be
00000230: b67d d9bc 7f5a 663e e707 043e 1b61 24bd
00000240: 66ae b93d 5e70 373e ab7b 9d3e ecc8 9a3e
00000250: 68bf 53bd dd13 ae3d f264 95bd 353b 653e
00000260: d6d1 143e 37d6 4bbc 4182 b33e e9ac 2c3d
00000270: c6b2 fc3d a963 aebe 1ad6 89be e8e7 803e
00000280: 44b1 8fbd 95f6 073e 9999 5fbb 221a bf3d
00000290: 4786 c03d dd1e 9ebd 341b cf3d bc54 7e3e
000002a0: 620f e2bc 5210 50bd d99f c13e f511 ef3d
000002b0: 42b9 b13d 97e5 153e cc27 473e 3529 f2bd
000002c0: 13ff e83d dc61 c03e 74d7 143e 5b2b 633e
000002d0: 8c25 f53d b4ee c4bd 5f9c e53d 6575 663e
000002e0: 9fb0 b1bc a1c9 db3d 36e0 a1be 5448 e03d
000002f0: 61b3 7238 7570 753e e416 3fbe 5173 153c
00000300: f1c9 a13d ccde b6bc 6de9 37bd 4681 a43d
00000310: 5ead 493e feb2 cbbe 7be1 e33d 6b3f bf3d
00000320: f344 e7bd e01d c63d 8cea 11be f945 ab3d
00000330: 561e 333e 4858 72be 244d 433e edbe 493e
00000340: d300 17be 9fde 90bd e322 77bd 905c b63e
00000350: d532 a1bd 462f 12be 50cb 433e 5ced f13d
00000360: d067 5c3e 2d9b 5dbe 0100 22be b366 0fbc
00000370: bcec c8bd 5bb2 483e b7e8 5b3d 3aa9 55bc
00000380: 9810 033e 3cec 8abd 350a 05bd 0494 473e
00000390: a0fb 383e efb3 333e d235 973d 3c4b 82bc
000003a0: 0b0e 5c3e 302c 1abe c300 ec3b 2363 9dbe
000003b0: beab 1a3d 8a43 25be a1db 123e 3758 ea3c
000003c0: 9cae 6b3a fe93 2d3d 416b 113d de72 873e
000003d0: c649 803d e959 de3d 33f5 023d 7829 4c3e
000003e0: 8249 4ebd fafd 90bd a896 263e e952 9f3e
000003f0: fc2c 893d 6ec8 8c3e 6595 113e 7d4b 103e
0.1941084 0.17363237 0.21653311 -0.20470916 0.09485496 0.25711963 -0.059229895 0.2435638
0.0471592 0.22972868 -0.024265548 0.24919747 -0.15987821 -0.047020726 -0.060039297 -0.09653792
0.12247291 0.08732637 0.09077493 -0.10106943 0.09347641 -0.21317288 -0.35322157 -0.13021584
-0.0011336848 0.019314123 0.124550484 0.10632667 0.1923527 0.001539493 0.1307805 0.17820667
-0.0071708774 -0.00732016 0.14551018 -0.0037724162 0.11725521 0.024715187 0.081461504 0.038909633
0.27563366 0.080916665 0.039015856 0.1397143 0.11905309 -0.021927984 -0.0229014 0.1496777
-0.37177774 0.20386595 0.1817414 0.17035195 0.07419851 -0.1233481 -0.064567305 0.11084258
0.06608922 -0.021950379 0.041831423 0.19760926 0.12667589 0.011714101 0.16588967 0.10616091
0.07759299 0.27345377 0.061091937 0.023842674 0.09161115 0.2653686 0.17035002 -0.012351783
0.017495774 -0.015037144 0.074158095 0.043245327 -0.021258954 0.13999702 0.16987285 -0.01270413
0.1344451 0.1522054 0.026102077 0.10211691 0.054711446 0.088516206 -0.013969234 -0.025631098
0.31876203 0.11962668 0.16110298 0.054555815 0.059085634 0.0004922227 0.08907331 0.27675834
0.06955376 0.1425609 -0.39359865 0.10041416 0.03194326 -0.08987474 0.0834019 0.07134424
-0.12563868 0.016868541 0.060781907 0.37177688 -0.19151647 -0.03520086 0.09732578 0.18536729
0.28213212 0.07848582 -0.21004413 -0.04310263 -0.018393248 0.0583315 0.11736991 0.19120269
0.120945625 0.06340403 0.029140715 0.06099082 -0.04357676 -0.07123047 -0.19950195 -0.10767188
0.06896171 -0.0037805245 0.0733746 0.2170197 0.3281716 0.11632577 -0.14080483 0.062743194
0.120755404 0.13712716 0.00048141394 -0.26870745 -0.026549201 0.22495459 0.1289364 -0.04013167
0.09066467 0.17913958 0.30758414 0.30231416 -0.05169621 0.08499882 -0.072946444 0.22385867
0.14533171 -0.0124412095 0.35060313 0.042157087 0.12338786 -0.3406041 -0.2692116 0.2517693
-0.070162326 0.13277657 -0.003411865 0.09331156 0.09400611 -0.077207305 0.101126105 0.24837011
-0.027595226 -0.050796814 0.37817267 0.11673347 0.08677913 0.14638363 0.19448775 -0.11824266
0.113767765 0.3757466 0.14535314 0.22184508 0.11970052 -0.096158415 0.11211466 0.2250572
-0.021690665 0.10731817 -0.31616372 0.109512955 5.7864356e-05 0.2396868 -0.18661076 0.009121732
0.078998454 -0.022323035 -0.044900347 0.080324695 0.1969504 -0.39784998 0.11126991 0.09338268
-0.11292448 0.09673667 -0.14249629 0.083629556 0.17492041 -0.23666489 0.19072396 0.19701739
-0.14746408 -0.070737116 -0.060336005 0.35617495 -0.078710236 -0.14275846 0.19120526 0.11812851
0.21523976 -0.21641226 -0.15820314 -0.008752513 -0.098107785 0.19599287 0.05368873 -0.013040835
0.12799299 -0.067833394 -0.032480437 0.19490057 0.18064737 0.17549108 0.07383312 -0.015905015
0.21489732 -0.15055919 0.0072022392 -0.30739698 0.037761442 -0.16139045 0.14341594 0.028606517
0.00089905574 0.042377464 0.035502676 0.26454824 0.06264071 0.10856993 0.03197212 0.19937694
-0.05036307 -0.07079692 0.16268408 0.31117943 0.06698033 0.27496666 0.14217146 0.14091296

fc2.weight f4 [300, 400]
00000000: c538 a03d 9d63 6b3d 419c 263c 64da 6abd
00000010: e0dc a33d dd7e 133e 4988 15bc 92b7 dfbc
00000020: 32fe a03d 3594 0b3e 4752 bf3d c4cd 8e3d
00000030: c212 cebc 9d67 88bc c2c2 203d 2cf8 853c
00000040: 7370 483d 4eac 223d 5db1 17bc 5b4e fa3c
00000050: 2c06 ca3c c689 61bc e24e 9e3d 912b 4cbb
00000060: ec7d 4d3d a54d 4abd 7776 dcbc 3431 a63c
00000070: a3e5 8fbc 4cd9 fb3c 28b8 d63d 3529 a5bd
00000080: 5c47 0cbd 3253 3cbb 6e12 75ba b7ae 793d
00000090: 6065 44bd f2df 863d 555f 3dbc 51d3 293c
000000a0: 168c 513d ab39 853d e2ac 993d bcbb 06bd
000000b0: cd1c f43d ba04 1b3c 8fed 303d 1d4d 813c
000000c0: bf27 80bd 6e43 e13d 721b 543d 6ffe 84bd
000000d0: 36ba c63d 9f08 813d aff8 103e 1c24 973e
000000e0: d6c4 b83c 0b4e b6bc 7dbe 213e 196f f63d
000000f0: 177d 1c3d b11f 213c 302f d2bb 3518 543c
00000100: 6b79 633d 7731 0d3e 2f45 553d 7233 51bd
00000110: 0ebd 133b f6b4 dd3c ef2a 2e3d 77a8 4abd
00000120: 4cf8 2dbd eed8 a83d 5984 b53d 18ac a83c
00000130: 1daf 70bb 0401 b13d b4c0 93bd 35a7 863b
00000140: 7417 0cbd 91ed 693d 4893 0cbc ed84 2a3e
00000150: df61 213b 6e05 1fbd 9e18 bbbc 4afc 873c
00000160: 4bf5 833d 1e2f 823c 8d61 a03d 9666 8b3a
00000170: 08ae cabc 2e7a ae3d 8bd2 6a3d b449 843d
00000180: 4b3a 2ebc eb5d 973d f8c6 5dbd 3398 033e
00000190: 66af e2bc 17e2 8c3d 5e2a 5fbd 98c1 9a3d
000001a0: 912e 533e 43f5 903d 4033 033d b829 8abc
000001b0: 9049 143d 52ff cabc 851a 853d 6e6d 833d
000001c0: 351c a73d d934 c13d e94c a13d eca4 e13a
000001d0: 2a9b 11bc 5a94 c23d d734 eb3c 428e 923d
000001e0: b30f 463e 9a72 cdbb ecf2 81bc 85b8 debd
000001f0: f6a6 513d 7f7c aa3d 3ccd 82bd 7199 d53d
00000200: 9768 f73d f229 843b 6715 d8bc 2e91 00bc
00000210: 9c90 173e 3ba2 a63d 161f afbd 3a8c 06bd
00000220: 653d 0e3e 13ce fa3d c60d 443d 3046 393b
00000230: c7df 32bd 43c0 873d cdd7 05be 333d c43d
00000240: faaf b53a 75a2 f23d f486 aa3c c639 cb3d
00000250: c849 0e3d 5472 2fbb 0a70 b5ba 34b3 8c3d
00000260: 7d0f cb3d 3597 683d e919 ae3d 9f96 213e
00000270: 7d92 2d3e ea04 5cbd 6c82 ed3c 0ef4 b63d
00000280: 7cb4 a13b e5bd 86bc 73aa ff3d da32 243d
00000290: 8c15 573d 407b a538 1024 bfbc 79a2 003e
000002a0: 9eaf e53d 2131 253d e8ec ea3d 66bb 813d
000002b0: 4d25 b3bc 2c7f 45bc d082 4f3e 1472 923c
000002c0: 1e90 d7bb 9ece 1bbc 5953 8bbd 3c22 17bd
000002d0: 4b97 edbc 6a6c bbbd dd73 a53d bb3a 0c3e
000002e0: bff6 a13d 0c79 8f3e bf1e 36bc 0105 003d
000002f0: 8982 883d d86e 1bbd 6f57 bf3d 2f77 b7bd
00000300: 4092 993b 41a9 08bd e4fb 993d d001 373c
00000310: 37c9 da3d 693f 9b3d 8277 353e c8a9 213d
00000320: fda6 563d de38 f33d f92a dabb 21ae 0ebe
00000330: 13cf cf3d c626 793d ba62 263d afde e1bc
00000340: ec98 a5bc e990 b43d d31e b0bc dbc4 943c
00000350: ba26 693d 95cb a63c 37d7 b03d 93f5 e83d
00000360: 6f03 75bc f09f ca3c 4643 e93d 1f7d 293d
00000370: 6122 933c e212 363d ae98 c33c 12ec 463c
00000380: f97c a13d 72c2 7c3d 6eab 9f3d 7074 1b3e
00000390: 7e8b 1e3d 154c f63d 4694 5a3d 1246 9bbc
000003a0: 16e5 a03c 785d 3ebd 3185 c73d 42cd 0b3d
000003b0: cd5b 4f3b 0ee7 303d e9cd c23d b290 ec3d
000003c0: f10a 7b3e 7e90 453e aa0d dd3d 0b88 8c3d
000003d0: ed14 3dbd 3325 843b d464 d83d 8840 753d
000003e0: 2c8b 75bd 7acf ef3d 3353 ac3d 8e8e bb3d
000003f0: 7c8b 043c 0ddf f33d 245d 863d 7ce8 833d
0.07823328 0.057468046 0.01016909 -0.05733718 0.08001113 0.14403863 -0.009126731 -0.027309213
0.07860984 0.13630755 0.09341865 0.069728404 -0.025155429 -0.01665097 0.039248236 0.01635369
0.048935365 0.039715104 -0.009258595 0.03055494 0.024661146 -0.013765758 0.077298895 -0.0031153897
0.050168917 -0.049390454 -0.026911957 0.020287134 -0.017565554 0.030743264 0.10484344 -0.080645
-0.03424774 -0.0028736112 -0.00093487545 0.060957637 -0.04794824 0.06585683 -0.011558373 0.010365323
0.051158987 0.0650514 0.07503678 -0.03289388 0.11919556 0.009461576 0.043195304 0.01578384
-0.06257581 0.10999189 0.051783986 -0.06493842 0.09703486 0.063004725 0.14157365 0.29519737
0.022554796 -0.02225401 0.15795322 0.12032909 0.038205232 0.009834216 -0.0064143166 0.0129452245
0.055535715 0.137884 0.05206793 -0.051074453 0.0022543105 0.027063828 0.042521413 -0.049477067
-0.042473122 0.08244501 0.08863134 0.020589873 -0.003672547 0.08642772 -0.072144896 0.004109288
-0.034202054 0.057111327 -0.008580036 0.1665227 0.0024624986 -0.038823538 -0.022838887 0.016599793
0.0644327 0.015891608 0.07831106 0.0010635431 -0.024741188 0.08519398 0.057329696 0.0645937
-0.010634015 0.0739096 -0.05414483 0.12851028 -0.027671527 0.06879061 -0.054483764 0.07556456
0.20623232 0.0707803 0.032031298 -0.016865596 0.036202967 -0.02477995 0.06499199 0.064173564
0.08159677 0.09433908 0.078759976 0.0017215288 -0.008887092 0.09500952 0.02871172 0.0715604
0.19341926 -0.006269765 -0.015862904 -0.10875038 0.051184617 0.08324527 -0.063868016 0.10429657
0.12080496 0.0040333206 -0.026377393 -0.007847114 0.14801258 0.08136412 -0.08550851 -0.032848574
0.13890608 0.12246337 0.047864698 0.0028270595 -0.043670442 0.06628468 -0.13070603 0.09581985
0.0013861649 0.118473925 0.020816304 0.09923129 0.034738332 -0.0026771026 -0.0013842594 0.06870118
0.099150635 0.056784827 0.08501036 0.15780114 0.16950412 -0.053715624 0.028992854 0.089332685
0.0049348455 -0.01644797 0.124836825 0.04008756 0.052510783 7.89077e-05 -0.023332626 0.12561978
0.11215137 0.040330056 0.114709675 0.063345715 -0.021868372 -0.012054246 0.20264745 0.017876662
-0.0065784594 -0.009509711 -0.06803007 -0.036897883 -0.029002806 -0.09151538 0.0807874 0.13694279
0.07908391 0.2802204 -0.011115729 0.031254772 0.066655226 -0.037947506 0.093428485 -0.08958279
0.004686624 -0.033364538 0.075187474 0.011169866 0.1068291 0.07580454 0.1772137 0.039468557
0.052405346 0.11876081 -0.006657955 -0.13933612 0.10146918 0.060827993 0.040621497 -0.027572004
-0.02021452 0.08816702 -0.021499073 0.018160274 0.0569217 0.020360747 0.08634799 0.113749646
-0.014954432 0.024734467 0.113897845 0.04137909 0.01796073 0.0444516 0.023876514 0.0121412445
0.07885165 0.061708875 0.077963695 0.15181136 0.03870725 0.1202623 0.05336406 -0.01895431
0.019640487 -0.046475857 0.09742201 0.034131296 0.003164041 0.0431891 0.095119305 0.11551036
0.24515893 0.192934 0.10793622 0.06861886 -0.046162535 0.004032755 0.105661064 0.059875995
-0.059947178 0.11709495 0.084143065 0.091580495 0.008089896 0.11907778 0.06560734 0.06440827

fc2.bias f4 [300]
00000000: 8171 2e3d ebaa 913d fa9e ebbc 929a fb3d
00000010: a67a 593d b1d9 593d 9a9c dc3c b4d0 f63d
00000020: 192b 863c 0ec9 e4bc fcba c83d fa94 463d
00000030: df4e 413b 1a88 c83d a74e be3c 1220 293c
00000040: 3d06 a3b9 0b04 fe3d 9a9c b43d 250e b03c
00000050: 00ce 8b3d b1f3 613d 8318 c73d 546e 5cbd
00000060: 3965 c33c 37a8 9f3d 05ad 9b3d c9c1 ab3d
00000070: 972a 973d c553 6f3d 9b0e 883d fb16 dd3b
00000080: d3f3 083d 1339 b13c 02da 903d 5263 3c3d
00000090: 6893 d73c e0a2 e03c cf28 44bc f287 7dbc
000000a0: 4b6f 8abc b285 45b9 8fd7 903d 362e 153d
000000b0: df99 f13c fee0 47bd 33db 533c abab b8bc
000000c0: e575 9a3d 7468 913d b739 0f3d 18ed 183d
000000d0: 3814 903d 2633 313d 6b8d 043d 12fb 983d
000000e0: 1fc6 3cbd c43c 393d 2aef 333d 047d 7a3d
000000f0: 8619 693c 2eec 8a3b b474 9c3d 72a2 803d
00000100: 254a 05bd 76f9 573d 1289 e2bb b19f a53c
00000110: f1b2 893b 30f3 773d a8d3 d13c 46fd 9d3b
00000120: 2e56 ecbc a1e8 513d 7167 c5bc c3f4 693d
00000130: 255a 273d 4265 84bc 2a1c 8a3b ae89 5b3d
00000140: 6400 8f3d 5816 7e3c 84da cf3a eaf5 af3d
00000150: 49e7 b0bc b1cf 213c f3b8 683c 890c c93c
00000160: ef83 3b3d 85c1 3b3d 2432 db3c a0f1 fb3c
00000170: 3640 be3b 04d9 563c 7884 f83c 27d9 6c3c
00000180: adc8 2e3d 0224 ca3d a335 c5bb 735d 503d
00000190: 6127 87bb fa7d cc3d c20f 093d 44b3 5b3d
000001a0: 2bec 15bb 47b7 053d 17b3 6b3d fee0 be3b
000001b0: 6438 c8bc 385c f13c 8864 923d 58ec e0bc
000001c0: 9f0b 033d e672 133d bc7b fd3a cff2 493d
000001d0: d4cd 123d 561e 173d 976f 7f3b cced bf3b
000001e0: 16ae 953b 591c bc3c 1a47 163d cef8 a63d
000001f0: ac77 3c3d 6472 b53d ad19 043d 2206 1bbb
00000200: ac7a b9bc c3f1 d2ba 7e18 0f3c 62a8 e73d
00000210: c300 0c3d c0c2 ff3c c451 4e3d bbfd 8a3d
00000220: 0159 643c c8c2 aa3c ed1d 9abc 520d 9c3d
00000230: 799e 043d 210a 9a3d 6928 df3c 02d0 93bc
00000240: 8c39 a43d 6d2a e23c 80ce 1a3d e34a 6a3a
00000250: 391b 403d 9840 d33b 3429 243d dee5 c23d
00000260: 8821 32bd 550d 8e3d 889a 9aba 9148 f93d
00000270: f509 9c3c 2e0a 453d ccfc ab38 a39e b23d
00000280: d671 ae3d d41e 883b 2b33 213d d989 833d
00000290: 839f 993c ddb0 16bd e8ab 08bd f2d9 403d
000002a0: e500 5c3c 9692 253d 3cef 13bc 9269 c53c
000002b0: 1f7a aa3d 6c34 163d 6770 943d a549 263d
000002c0: e755 393d 8628 7a3b a286 903d c672 3c3d
000002d0: 7418 c93c 3261 823d 8f8c 6439 2059 823d
000002e0: 6c5e 013d ad61 583c 7934 92bb 9e8f 003d
000002f0: 2fd1 9e3d dd1c 8f3d cd00 9a3d 8bc8 943d
00000300: fd4c c83c d6ed 573c ad87 9a3d 7d57 aa3b
00000310: ead9 943c dfd9 25bc 2a7f 943d 4256 8d3d
00000320: dd3f 8abc 098b 98bb cebc 053c 112a cbbc
00000330: 75d7 043d e82e 963d 4e3b ba3c 7dda 1a3d
00000340: 4607 403d c504 833d 6acc 2dbc 5991 df3d
00000350: fe13 20bc 7ce1 0b3d 2e25 133c d1f8 9c3d
00000360: dffc 613d 5d6b 6f3d 93a0 213d 3bef e7bc
00000370: c230 293c 0396 413d 68b5 ec3d 3919 cb3d
00000380: bfd2 5f3d 22a4 9d3c 58db 593c 43a4 783d
00000390: e7f2 44bc a3d9 df3b 7bae 8a3d fb05 60bc
000003a0: cca3 983d 858d e93b e4a3 313d 9374 413c
000003b0: 7a52 163d 3035 fa3c e8d3 a03d af21 393c
000003c0: 789f 9e3d 7279 a63d b83e 023d 29ef cbbc
000003d0: 27d2 9c3d e6b1 4d3d 64b5 833d 4efc b93d
000003e0: dfbb 073d 5df6 003d f371 933d 68ea 843d
000003f0: f2b3 d4bb ae68 283d d266 5a3d f346 25bc
0.042588715 0.07112678 -0.02876233 0.12285341 0.053095482 0.053186122 0.026930142 0.12051526
0.016377972 -0.027927902 0.098012894 0.04848192 0.0029496474 0.09791584 0.023230864 0.010322588
-0.0003109443 0.12403115 0.08818932 0.02149112 0.06826401 0.055164043 0.09721472 -0.053816155
0.023851978 0.07795756 0.0760136 0.08386571 0.0738117 0.0584295 0.06643411 0.0067471243
0.033435654 0.02163366 0.07072832 0.045993157 0.026315406 0.027421415 -0.01197262 -0.015474306
-0.016898772 -0.0001883719 0.070723645 0.036421023 0.029492317 -0.048798554 0.012930679 -0.022542795
0.07542018 0.07100001 0.03496715 0.037335485 0.070351064 0.04326167 0.03236143 0.07469763
-0.04608738 0.045223966 0.043929256 0.06115438 0.014227277 0.0042395806 0.07639447 0.06280984
-0.032541413 0.05272814 -0.0069133127 0.020217748 0.0042022397 0.060534656 0.02561362 0.0048214523
-0.028849687 0.051247243 -0.024097176 0.05711819 0.040857453 -0.016161565 0.004214783 0.0535981
0.069824964 0.015508257 0.0015857969 0.08591826 -0.02159466 0.009876178 0.014204252 0.02454211
0.04578012 0.04583885 0.026757307 0.030754864 0.0058059944 0.013113264 0.030336604 0.01445607
0.042671848 0.09870149 -0.006018357 0.05087037 -0.0041245674 0.099849656 0.033462293 0.053637758
-0.0022876363 0.03264549 0.05754384 0.005825161 -0.024440952 0.029462919 0.07148081 -0.027456447
0.031993505 0.035998248 0.0019339244 0.049303826 0.035840824 0.036894165 0.0038976425 0.005857205
0.004567872 0.022962736 0.0366889 0.081529245 0.046012565 0.08859709 0.03225105 -0.0023654778
-0.022641502 -0.0016093779 0.008733867 0.11311413 0.034180414 0.031220794 0.050370947 0.067866765
0.013937236 0.020844832 -0.018813098 0.07619728 0.032377694 0.07521463 0.027240949 -0.018043522
0.08018789 0.02760812 0.03779459 0.00089375506 0.04690096 0.006446909 0.040078357 0.095165
-0.04348901 0.06936137 -0.0011795321 0.12172044 0.019047717 0.04810541 8.2010025e-05 0.08721664
0.08517806 0.0041540656 0.03935544 0.06422777 0.018752819 -0.036789764 -0.033367068 0.04708285
0.013427948 0.040423 -0.009029206 0.024098191 0.08324074 0.036671087 0.072480015 0.040597577
0.04524794 0.0038171127 0.07056929 0.046007894 0.024547793 0.06366195 0.00021796137 0.063646555
0.03158419 0.0132068815 -0.0044618216 0.031386964 0.07754742 0.06987927 0.07519684 0.07264813
0.024450773 0.013179263 0.07545409 0.0051984177 0.018170316 -0.010122745 0.07250817 0.06901218
-0.016876156 -0.004655246 0.00816269 -0.024800332 0.03243204 0.073331654 0.022733357 0.037806023
0.046881936 0.06397394 -0.010607818 0.10916395 -0.0097703915 0.034150586 0.008981032 0.076646455
0.055172797 0.058452 0.039459776 -0.028312316 0.010326566 0.047262203 0.11558038 0.0991692
0.054644343 0.019243304 0.0132969245 0.060703527 -0.012020803 0.0068313642 0.06771561 -0.013673301
0.07453117 0.007127466 0.04336919 0.011807579 0.03669975 0.03054294 0.07852918 0.011299535
0.0774526 0.081286326 0.031798095 -0.024894314 0.07657271 0.050218485 0.06431082 0.090813264
0.033138152 0.03148495 0.071994685 0.06490022 -0.0064911777 0.041115455 0.053320713 -0.010087716

bn1.weight f4 [400]
00000000: 7902 6c3f 3c03 793f ffc9 7d3f daf5 853f
00000010: bd61 8a3f 59a0 903f 274d 733f 1780 843f
00000020: ee42 973f 2f16 8b3f 084c 913f a16d 743f
00000030: 364b 4d3f 1ee8 5e3f 8a90 8b3f 1d15 883f
00000040: 8ebc 753f 52bf 833f f36e 613f 6672 8a3f
00000050: 82c1 703f 9762 943f 7d9f 853f d047 863f
00000060: 5767 7a3f 2979 6f3f 8c6b 873f 597f 8e3f
00000070: 9256 7d3f 7cae 833f 63bc 8a3f 4f60 8e3f
00000080: e3b6 903f e266 833f d16b 603f 6e7f 713f
00000090: ec10 9a3f 7bf7 7f3f 686e 7d3f ba91 923f
000000a0: 4083 7a3f 7a45 9c3f 53f9 803f d3a2 8e3f
000000b0: a809 7e3f 2727 713f 5bbd 803f 54fa 7f3f
000000c0: 65a1 8a3f ca09 7c3f f094 5c3f 5eea 8c3f
000000d0: 145c 6e3f aec2 7f3f 59c7 793f 20ae a13f
000000e0: 5ecf 933f 9d89 5c3f 77de 833f 39da 8b3f
000000f0: 6c8d 713f 2f8d 8b3f 4121 903f caea 913f
00000100: 1c3b 743f 2466 7c3f c481 8f3f 3917 913f
00000110: 8938 933f 8f76 803f 4628 723f ef67 963f
00000120: 8340 8d3f b9fc 813f bdb0 893f e490 513f
00000130: d061 693f b35f 923f 8380 863f 2c94 8c3f
00000140: 1d67 973f 6d17 913f 7b58 833f a017 903f
00000150: ad41 6d3f 5e96 803f 7cd8 913f 9644 803f
00000160: 1446 713f 5814 6e3f 9204 613f a4fc 833f
00000170: f563 663f c406 923f 24c4 763f 5467 9a3f
00000180: 3653 903f 1900 a73f 3aad 993f cb00 6a3f
00000190: 7614 883f fdd7 843f 4d98 8b3f 0c4f 833f
000001a0: d4b1 9e3f 39f2 923f 3800 7d3f 6239 a13f
000001b0: 4726 943f 169f 6c3f 90a2 6a3f a882 8f3f
000001c0: ceb3 8f3f 831e 7f3f 03e7 603f b8bc 863f
000001d0: caa0 963f a73d 803f 217d 943f 2eeb 813f
000001e0: 9c0a a83f 8039 7f3f 97d0 833f 5b34 a43f
000001f0: 7dac 4f3f 8212 923f 12f8 803f 8c88 913f
00000200: 68e9 8f3f 61e8 a23f 1e96 833f 672e 863f
00000210: 5d24 863f 0c66 663f 697f 9a3f b52a 993f
00000220: fd63 5e3f 3cde 9b3f 0ce4 9e3f 83c6 993f
00000230: d002 913f 27d7 863f 9581 903f 6e83 8b3f
00000240: f5b7 733f 9911 b03f 82db 793f 9ead 803f
00000250: 1ba9 7a3f 786f a03f 7582 6f3f 8b5c 813f
00000260: 629f 953f 5f2e 5c3f 3962 6f3f df11 663f
00000270: c9df 853f 7fb7 883f dc2b 793f ca8a 623f
00000280: 94c6 893f 8b77 923f 68cc a43f 3d4b 913f
00000290: 060e 8b3f 69ed 763f a5c8 9d3f 40ad 853f
000002a0: c990 843f 5bd8 723f 819a 5d3f bbec 803f
000002b0: 6809 9b3f 65d5 833f cd07 a63f eee9 803f
000002c0: 99aa 563f de84 733f 1acb 8c3f 7783 693f
000002d0: 3461 973f eb75 983f e763 953f fcf4 853f
000002e0: 247d 903f 53d0 a73f db0f 983f 3c01 873f
000002f0: 8785 983f 3d99 8c3f a745 893f b079 8a3f
00000300: e1c6 603f b0d3 8d3f 8211 8a3f a388 803f
00000310: 6827 a53f 9fab 993f c67c 903f 8626 813f
00000320: 2580 6c3f 2f73 8f3f e909 7a3f 0df5 8b3f
00000330: dedb 7c3f 5d00 913f ee37 7c3f 7e48 873f
00000340: d1fb 803f f4f3 8e3f 862e 783f 5e07 853f
00000350: 31eb 853f 4bf1 873f 141d 853f 9754 5f3f
00000360: f1d8 5d3f da0a 843f 8c17 8e3f 4631 863f
00000370: 5a84 893f 624e 7b3f 0dfe 8b3f bbed 703f
00000380: 9057 833f 567d 7b3f ae82 9b3f 2385 863f
00000390: d55d 5f3f 5966 953f 80de 8c3f fc36 8e3f
000003a0: 3282 843f c639 833f b3ee 963f 419d 953f
000003b0: b57b 7c3f 4b1a 863f 38a9 7c3f 308c 923f
000003c0: 82c9 8c3f a8e0 923f 3696 9b3f 557e 893f
000003d0: 6ca1 8f3f c9fc b03f 7eee 8f3f 8e34 783f
000003e0: 3831 923f 37f4 933f bd86 6c3f 64fb 873f
000003f0: def0 853f 80ea 8f3f 52f4 6a3f aa01 933f
0.9219127 0.9727056 0.99136347 1.0465653 1.0811077 1.1298934 0.950396 1.035159
1.18173 1.0866145 1.1351328 0.9547978 0.8019289 0.8707293 1.0903485 1.0631443
0.95990837 1.0292761 0.8805992 1.0816162 0.9404527 1.1592587 1.0439297 1.0490665
0.97813934 0.9354425 1.0579696 1.1132613 0.9896022 1.0287623 1.0838741 1.1123141
1.1305813 1.0265772 0.87664515 0.9433507 1.2036414 0.99987 0.9899659 1.1450722
0.9785652 1.2208703 1.0076088 1.114344 0.99233484 0.94200367 1.0057787 0.99991345
1.0830504 0.98452437 0.8616476 1.1009023 0.9310925 0.9990643 0.97569805 1.2631264
1.1547658 0.8614748 1.0302266 1.0925971 0.9435642 1.0902461 1.1260148 1.1399777
0.95402694 0.98593354 1.1211476 1.1335212 1.1501628 1.0036181 0.945927 1.1750468
1.1035312 1.015525 1.0757061 0.8186171 0.91164875 1.1435455 1.0507969 1.0982718
1.1828343 1.1335274 1.0261377 1.125721 0.9267834 1.0045888 1.1394191 1.0020931
0.94247556 0.9299979 0.878976 1.0311475 0.8999627 1.1408315 0.96393037 1.2062783
1.1275394 1.3046905 1.200599 0.9140746 1.0631244 1.0378414 1.0905854 1.0258498
1.2398019 1.148017 0.9882846 1.2595637 1.1574181 0.92430246 0.916543 1.1211748
1.1226747 0.9965593 0.87852496 1.0526342 1.1767819 1.0018815 1.1600686 1.0149896
1.3128238 0.99697113 1.0298032 1.2828478 0.8112257 1.1411898 1.0075705 1.1369796
1.1243105 1.2727166 1.0280187 1.0482911 1.0479847 0.8999946 1.2070132 1.1966158
0.8687132 1.2177196 1.2413344 1.2013706 1.1328983 1.0534409 1.1289545 1.0899484
0.9520257 1.375537 0.9760057 1.0052984 0.97914284 1.2534018 0.93558437 1.0106367
1.1689265 0.86008257 0.9350925 0.8987102 1.0458919 1.0680999 0.9733255 0.88493025
1.0763726 1.1442732 1.287488 1.1351086 1.0863655 0.9645601 1.2326857 1.0443497
1.0356685 0.9486138 0.8656388 1.0072244 1.2112246 1.0299498 1.2971131 1.007139
0.8385406 0.95124614 1.0999482 0.91216224 1.1826539 1.1910986 1.1671113 1.0465388
1.128819 1.311045 1.1879839 1.0547252 1.1915749 1.0984265 1.0724381 1.0818386
0.87803465 1.1080227 1.0786593 1.0041698 1.2902651 1.20055 1.1288078 1.0089881
0.92383033 1.1207026 0.9767137 1.0934159 0.9877299 1.1328236 0.9852284 1.0568998
1.0076848 1.1168199 0.9694599 1.0392873 1.04624 1.0620512 1.0399499 0.8723845
0.8665915 1.0315812 1.1100936 1.0483787 1.0743515 0.9816648 1.0936905 0.9411275
1.0261097 0.9823812 1.2149255 1.050938 0.8725255 1.1671859 1.1005402 1.111053
1.0352232 1.0252006 1.1791595 1.1688615 0.9862626 1.0476774 0.9869571 1.1449032
1.0998995 1.147481 1.2155216 1.0741678 1.1221137 1.3827144 1.1244657 0.9695519
1.142127 1.1558903 0.92393094 1.0623593 1.0464132 1.1243439 0.91779053 1.1484883

bn1.bias f4 [400]
00000000: daea 01be ab59 f5bd e3d5 cbbd 667d e2bd
00000010: 961c 23bd c9ae febc aec1 03be 2834 cfbd
00000020: 9ec3 c4bc 2fe3 fdbd 9d51 f6bb 5510 e0bd
00000030: bf3f 60be 9bbc b3bd ea2e 09be c496 91bd
00000040: e963 fdbd 2fd4 d5bd e969 19be c1c8 8dbd
00000050: 22e4 edbd d639 f9b9 dcb1 9fbd a5cf 7dbd
00000060: a5f6 21be 9454 bbbd ef30 bdbd 450d 93bd
00000070: fb88 ffbd 45e1 afbd 66b9 d9bc 6499 89bc
00000080: e0c2 6ebd 80c8 79bd ed9b eebd 4dc6 f5bd
00000090: d54e 43bc c3b6 66bd 0e67 babd ac02 fabc
000000a0: a82e c2bd 91ed abbc 13a8 0ebe 4223 4abd
000000b0: 503b 91bd 044a fdbd 94ba 3abe 948b 1ebd
000000c0: 14ae c2bd e9a5 3fbc b581 1dbe 2013 79bd
000000d0: b90d 0dbe 665a bcbd fd82 1bbe 969c 98bc
000000e0: fc9a a9bd 5c6b ddbd 9c67 a1bd 1923 ecbc
000000f0: 107e cebd 8bbd c2bd 7a10 a2bb 4694 69bd
00000100: 9591 c6bd 9ba4 c2bd 3ad4 28bd 9935 8abd
00000110: dfe6 b8bc d9c3 93bd 51a4 06be e1d9 4a3d
00000120: 4023 17be 6b2b dbbd 91a3 39bd 1c5d f2bd
00000130: 6621 03be cb31 33bd 7db9 a6bd 38e8 7ebd
00000140: 1b51 51bc d4be 7bbc d9df d0bd 66d4 8ebd
00000150: 4047 c2bd a6ab 5bbd c1a1 b3bd 9c30 09be
00000160: b6c7 fabd b4cb 37bd 3e03 15be 96fe 2fbd
00000170: 9b83 1dbe fe5e 3bbd a8a6 ec3b 3736 46bd
00000180: 2367 6ebd b4eb 21bc 9c08 52bd 6076 febd
00000190: 3b76 913a e5e3 9fbd 7c11 ccbd 1fbe a1bd
000001a0: 7401 bfbd aa8d 28bd e8bd debd 6dcc 4a3b
000001b0: 9bd6 ee3b 5d4e c7bd 8ebe f6bd d733 c23c
000001c0: adba b03c 7e35 9abd c48d 5abe 3646 c0bc
000001d0: 6d7d a1bb 0312 99bd 6617 7a3c 7738 dbbd
000001e0: 38c6 143d c119 adbd d20e 9abc 6ec4 63bd
000001f0: e491 3fbe f9a2 1dbd 3d76 0fbe 626c 78bd
00000200: b477 f1bc 2762 d73c 205d 0abe ff7b b8bd
00000210: cfda 60bd ad43 f6bd 0e03 8f3a 5120 55bd
00000220: 5f5e 17be 6554 26bd 6c00 52bd 5eec acbc
00000230: 6d05 87bd ae35 23bd 5304 53bd 1183 a9bd
00000240: 8045 10be 1072 993c 86a4 cbbd 4c2d edbd
00000250: 89a2 f8bd b608 0bbd efd2 f4bd 17eb e9bc
00000260: d18c 0dbc 8803 33be 7fdd b1bd ff23 24be
00000270: bd92 edbd 5ebd 9bbd df9f eebd a2ef fabd
00000280: a577 e4bd f110 29bd fd05 0e3d d882 91bd
00000290: 0cd4 60ba 2563 f6bd 40f6 9cbc e1ee 55bc
000002a0: 7a9c 1dbd 1a75 16be b20d d3bd 350e ecbd
000002b0: 65e4 92bd 7bea 85bc 3efd 87bb 9c03 76bd
000002c0: b88c f5bd 393c f8bd 5972 b4bd 8b86 01be
000002d0: 13c8 78bb 8e4e 26bd f03a 8cbc 89ac 71bd
000002e0: 6e97 b9bd fb35 7a3c b711 68bc 7d04 cbbb
000002f0: a9bc 43bd 5da1 1c3c 8576 33bd b441 98bd
00000300: bf69 23be 7edc cfbc ef8b c7bd fdda bebd
00000310: 186c 663d 0cf9 5dbc 6321 95bd d0d8 24bd
00000320: 6773 43be c6eb 53bd 7f39 f5bd 5006 5fbd
00000330: 0940 d7bd 1f04 f4bc 7df3 c1bd a096 c4bd
00000340: 0759 86bd 6ea9 aebd 618c b5bd d36a 80bd
00000350: 241b aabd b438 d5bd 5737 0bbd 5eeb 20be
00000360: 7873 dbbd 4eaa a2bd c3c8 30bd 9910 20be
00000370: 13fc fdbd f605 a5bd 0036 bebd c0d5 d4bd
00000380: f99f e9bd 5006 1cbe b1c0 96bc bd9f ccbc
00000390: ffb0 f1bd 71da 40bd 3176 6bbd fb19 69bc
000003a0: 0953 adbd a4c3 f4bd 6612 58bd 361b b2bc
000003b0: d154 b0bd 2f62 bcbd 4b89 06be 7885 65bc
000003c0: f8de a5bd 246e 8a3c 9f3e fc3c 9fb7 8e3d
000003d0: 492d 10bd ac84 153c fda7 3bbd d1c7 ccbd
000003e0: f483 bebd 1f07 50bd 5231 08be 57e6 10bd
000003f0: 4558 7bbd 76a5 15bc c6aa edbd 3f43 7ebd
-0.12687245 -0.119799934 -0.09952905 -0.11059074 -0.039822184 -0.031089203 -0.12866852 -0.1011737
-0.024019059 -0.123968475 -0.0075170533 -0.10940615 -0.21899317 -0.08776208 -0.13396803 -0.071088344
-0.12372572 -0.104408614 -0.14981808 -0.069230564 -0.116157785 -0.00047536072 -0.07797596 -0.061965603
-0.15816744 -0.09146991 -0.09237849 -0.07180265 -0.12477299 -0.08587889 -0.026577663 -0.016796775
-0.058291316 -0.060982227 -0.11650834 -0.120007135 -0.0119206505 -0.05632664 -0.09101687 -0.030518852
-0.09481555 -0.020987304 -0.13931303 -0.04935003 -0.07091391 -0.12367633 -0.18235236 -0.03870733
-0.09505859 -0.011697271 -0.1538151 -0.060809255 -0.13774766 -0.0919693 -0.15186687 -0.018629353
-0.08281514 -0.10811493 -0.0788109 -0.02882533 -0.10082638 -0.09508809 -0.004945812 -0.05702617
-0.09695736 -0.09504052 -0.04121802 -0.06748504 -0.022571025 -0.07215089 -0.13148619 0.04952419
-0.1475954 -0.10701641 -0.045322005 -0.118341655 -0.12805709 -0.04374866 -0.08140848 -0.06223318
-0.012775685 -0.015365321 -0.101989456 -0.069741055 -0.09486246 -0.053630494 -0.087710865 -0.1339745
-0.12245123 -0.044872 -0.14552018 -0.0429674 -0.15382235 -0.04574489 0.0072220154 -0.048391547
-0.058203828 -0.009882856 -0.05127774 -0.12424922 0.0011097857 -0.07807139 -0.099642724 -0.07897591
-0.09326449 -0.041150726 -0.108760655 0.0030944601 0.0072887666 -0.097317435 -0.12048064 0.02370636
0.021573389 -0.07529734 -0.21343142 -0.02347098 -0.004928282 -0.074741386 0.015264368 -0.10704129
0.03632185 -0.08452178 -0.018805895 -0.05560725 -0.18707997 -0.0384855 -0.14009948 -0.060650237
-0.029476024 0.02629192 -0.13512087 -0.090080254 -0.054896172 -0.12024627 0.0010910945 -0.052032772
-0.14782093 -0.04060783 -0.051269934 -0.021108802 -0.06592832 -0.039846115 -0.051517796 -0.08276952
-0.14089012 0.018731147 -0.0994349 -0.11580905 -0.12140376 -0.033943854 -0.11954295 -0.028554482
-0.00863953 -0.17481816 -0.08684825 -0.16029356 -0.11600254 -0.07604478 -0.11651587 -0.122527376
-0.11155633 -0.041275922 0.03467368 -0.071050346 -0.00085765193 -0.12030629 -0.01916039 -0.013057441
-0.038479306 -0.14693108 -0.103053465 -0.11526147 -0.07172469 -0.01634716 -0.004150062 -0.060062036
-0.119897306 -0.121208616 -0.088108726 -0.1264898 -0.003796105 -0.04060226 -0.017117947 -0.059002433
-0.09062086 0.015271659 -0.01416438 -0.0061956034 -0.047787342 0.009559956 -0.0438142 -0.07434407
-0.15958308 -0.025373694 -0.09743487 -0.093191124 0.05625543 -0.013548147 -0.07281759 -0.04024583
-0.19086991 -0.051738523 -0.11973857 -0.05444938 -0.105102606 -0.029787121 -0.0947027 -0.09599042
-0.06559949 -0.0852841 -0.08864666 -0.06270375 -0.08305958 -0.10411206 -0.033988323 -0.15714785
-0.10715383 -0.07942639 -0.04316021 -0.15631332 -0.12401595 -0.080577776 -0.092876434 -0.10392332
-0.114074655 -0.15236783 -0.01840243 -0.024978513 -0.118013375 -0.047083322 -0.057485763 -0.014227386
-0.08463103 -0.11951378 -0.05275192 -0.02174149 -0.086099274 -0.091984145 -0.1313831 -0.014008872
-0.080991685 0.016898222 0.030791579 0.06968617 -0.035199437 0.00912587 -0.045814503 -0.099990495
-0.09302512 -0.05078804 -0.13300064 -0.03537592 -0.061363477 -0.009133687 -0.11604838 -0.06207585

bn2.weight f4 [300]
00000000: 8fda 833f ab5a a13f d43c 863f 0a5a cb3e
00000010: 1fe4 9b3f ddb2 ac3f 2384 aa3f 3fa6 d43e
00000020: 75f5 893f b55a 943f a13d bc3e 1ee3 933f
00000030: d8e7 073f 22d7 063f 7b88 143f c645 af3f
00000040: 0ead 943f b6a1 d83e e392 9f3f 3678 a63f
00000050: 1ccc 8b3f 8cde cd3e 9163 db3e e8f9 9c3f
00000060: 006e 463f 168a 963f becf 8d3f 177e 9a3f
00000070: 0c2a 283f 1ea4 9a3f 4b09 a03f a032 a73f
00000080: 2f50 813f 2bfe 8c3f 29c8 933f 96b0 123f
00000090: 1be8 8b3f 9bfc 8a3f 735a 9b3f 93f0 9c3f
000000a0: 485f 923f 5b13 a33f ef4c 9d3f aa77 4e3f
000000b0: 78be 5b3f dfdb 953f d1ee a53f fac6 953f
000000c0: 1da9 ec3e 1200 9b3f b240 833f e0f6 b03f
000000d0: 1e06 373f 35be b13f c0f4 923f e6f1 ff3e
000000e0: c404 963f 694d b33e 62ee 8a3f 5439 ed3e
000000f0: bcc5 8c3f 08d5 853f 9a07 ec3e d1f1 8d3f
00000100: 6761 ab3f f431 9b3f bb6c 973f 112f a03f
00000110: 1f9c 823f ff91 313f 12ca 733f f5cf 5f3f
00000120: 909a 8d3f 5937 0f3f 4759 9e3f a63e 233f
00000130: 1bf6 913f f7a3 9d3f b404 a33f 6741 9b3f
00000140: bd84 3a3f 086b 9a3f dc06 943f 2019 f33e
00000150: 83e8 8b3f ef63 8b3f 71d0 933f 1320 943f
00000160: 32b7 c13e fbf8 a43f cc30 9b3f 50f8 423f
00000170: fd57 8d3f e1e9 923f 061f 933f 34d5 933f
00000180: 261b 0b3f 375a bb3e c5ca 973f 01aa 8e3f
00000190: bb81 a43f 834b db3e 9608 7a3f 9f82 893f
000001a0: 29a1 8d3f 88b3 183f bcc8 933f 86a9 8e3f
000001b0: cbce 943f 4546 913f e844 bc3e 4e1d 943f
000001c0: 2c02 883f 798d 6a3f 505a a93f 8063 3c3f
000001d0: d637 913f 50e3 ab3f 2f55 8c3f 9673 933f
000001e0: 7dd6 223f 0875 993f 5eee 7b3f ec3e a83f
000001f0: bcb5 973f 4713 aa3e d9b2 9b3f 6595 9e3f
00000200: 6659 8e3f 04d0 553f 4efe 8b3f 50b6 d93e
00000210: a682 9e3f cdf6 a43f 117e 813f a288 933f
00000220: 3375 8a3f 98aa 133f eca0 883f ca60 853f
00000230: 51db 883f c826 643f 279d a43f 4228 9f3f
00000240: c1ba 013f 6957 963f 77f7 963f 55e9 983f
00000250: 6200 283f e710 8c3f 65fe a33f aa12 e83e
00000260: 6dca 9a3f 146d 3f3f 5f14 993f 74a7 c13e
00000270: 16f6 a23f 6e57 9b3f a070 943f f140 a53f
00000280: 154b 843f f1d3 4b3f cb74 923f 4ba3 883f
00000290: 3db7 9a3f 44c9 8b3f 7a30 983f 27c3 9a3f
000002a0: 308b 603f 79f0 e13e 067d 9c3f 4608 323f
000002b0: 0f74 933f 4795 8f3f 40c7 a33f 7a7c 873f
000002c0: 53f7 703f 06ab 8d3f ffbb e73e 922c 9f3f
000002d0: 2487 9f3f 8ac8 c23e 2cec 903f ebaa c33e
000002e0: 4e82 8c3f 7c29 983f 08bc b13f f4e4 db3e
000002f0: 0dbe 5f3f e4ec 8f3f 482e 973f 4c70 913f
00000300: a4ff f23e 3e3f 8f3f 300e 143f 01a8 a03f
00000310: 09d0 d13e c467 983f 212c 9c3f 4392 4e3f
00000320: 4413 9c3f 94c9 9a3f 2e95 943f 7aaf 873f
00000330: 7cf6 053f 479e 943f 08bb af3f 7c54 143f
00000340: 3af4 323f ec84 253f 2c13 993f 07bf a03f
00000350: 49ca aa3f a0e4 663f 4e61 9e3f f8e7 a33f
00000360: 68a8 a13f d8ad 8c3f 08d3 a93f 1b5f a23f
00000370: 5c44 993f 3e2a bf3f c89b b33e 65ab bf3e
00000380: fd4c d63e 0714 993f 8150 9b3f db5a cc3e
00000390: 3647 903f 381c 9e3f 52f4 9d3f 80e6 983f
000003a0: a965 063f b68f 9f3f ceb0 9f3f 6735 a53f
000003b0: 32af 9a3f 6e99 9f3f aea7 dd3e 5ee6 793f
000003c0: e65d 283f 99a1 973f 321c 133f a96b 6e3f
000003d0: b599 bb3e ca08 ac3f a247 cd3e 2c00 8b3f
000003e0: f648 a43f 7e1c 0a3f cc28 903f e7f6 743f
000003f0: 9e71 883f a1b3 983f f2ea 483f 4d9b 933f
1.0301074 1.2605795 1.0487313 0.39717132 1.2178992 1.3492085 1.3321575 0.41533086
1.0778033 1.1590182 0.3676577 1.1553686 0.5308814 0.52672017 0.5802075 1.3693168
1.1615312 0.42310876 1.2466701 1.3005435 1.0921664 0.40208852 0.428494 1.2263765
0.77511597 1.176089 1.1079023 1.206973 0.6568916 1.2081335 1.2502836 1.3062325
1.0102595 1.1015066 1.1545459 0.573007 1.0930208 1.0858339 1.2136978 1.2260917
1.1435328 1.2740282 1.2289103 0.8065134 0.8583751 1.1707724 1.2963506 1.1701348
0.46222773 1.2109396 1.0254118 1.382534 0.7149371 1.3886172 1.1480942 0.4998924
1.1720204 0.35019997 1.0853999 0.463328 1.0997844 1.0455637 0.4609955 1.1089422
1.33891 1.212462 1.1830057 1.2514364 1.0203894 0.693634 0.9523021 0.8742669
1.1062794 0.5594383 1.2370995 0.6376747 1.140323 1.2315663 1.273581 1.2129334
0.7285879 1.2063913 1.1564593 0.47480106 1.0930332 1.0889872 1.1547986 1.1572288
0.3783508 1.2888483 1.2124267 0.76160145 1.1042477 1.1477624 1.1493843 1.154944
0.543383 0.36592266 1.1858755 1.1145631 1.2852091 0.42831048 0.9766935 1.0742987
1.1064807 0.5964894 1.1545634 1.1145484 1.1625608 1.134957 0.3677132 1.1571443
1.0625663 0.9162212 1.3230686 0.73589325 1.1345165 1.3428745 1.0963496 1.1519649
0.63608533 1.198884 0.98410594 1.3144202 1.1852336 0.33217832 1.2163955 1.2389342
1.1121032 0.8352053 1.0936983 0.42521906 1.2383621 1.2887818 1.0116597 1.1526072
1.0817016 0.5768218 1.067411 1.0420163 1.069193 0.89121675 1.2860459 1.2434161
0.5067559 1.1745425 1.179427 1.1946207 0.65625584 1.0942658 1.281201 0.4532674
1.2093025 0.74775815 1.1959342 0.3782307 1.273135 1.2136056 1.159687 1.2910444
1.0335413 0.7962027 1.1441892 1.0674833 1.208717 1.0920796 1.1889794 1.2090806
0.87712383 0.4412878 1.2225654 0.69543874 1.1519793 1.1217431 1.2795181 1.0584862
0.94127387 1.1067817 0.45260617 1.2435477 1.2463117 0.38043624 1.1322074 0.38216338
1.0977266 1.188766 1.3885508 0.42948115 0.8739937 1.1244168 1.1810999 1.1362395
0.47460663 1.1191175 0.5783415 1.2551271 0.4097903 1.1906667 1.2200967 0.8069193
1.2193379 1.2092767 1.1608026 1.0600426 0.5232923 1.1610802 1.3728952 0.5794141
0.6990391 0.6465595 1.1958976 1.2558297 1.3342983 0.90192604 1.2373445 1.2805166
1.2629519 1.0990553 1.3267527 1.2685274 1.1973987 1.4934766 0.3507979 0.3743545
0.41855612 1.1959237 1.2133943 0.39913067 1.1271732 1.2352362 1.2340186 1.1945343
0.5249887 1.2465732 1.2475832 1.2906922 1.2084715 1.2468698 0.43291992 0.9761714
0.6576828 1.1846191 0.574649 0.93133026 0.36640707 1.3440182 0.40093714 1.0859427
1.2834766 0.53949726 1.126245 0.95689243 1.0659673 1.1929818 0.784835 1.1531769

bn2.bias f4 [300]
00000000: 18f5 69bc fae3 09be 69cc babd c3b7 1cbf
00000010: 07c6 0ebe 7fdb 3f3d cc0e 25bd c10c 0fbf
00000020: b01d 0dbe 3610 debc f06e 1dbf 0a21 2ebe
00000030: 16ac e6be 5733 e9be cc22 dcbe 10e7 38bc
00000040: aac7 1dbe b411 0abf 8157 eebd 9571 47be
00000050: f6e8 4bbe 3c7b 0fbf 6bbf 0cbf 8738 483d
00000060: 230c 8cbe 45ea b3bd df64 f0bd 7af5 48be
00000070: 3b82 a3be fca3 18be bbb1 3fbe a6d3 9cbd
00000080: c767 d3bd ce52 98bd 6f7b 0dbe 3ee0 dfbe
00000090: 114c 04be 794e 5dbd 41f8 27bd 9e93 2d3d
000000a0: ec74 0bbe 854a 16bd fbf6 fcbd f892 89be
000000b0: 2278 6abe 9d53 44be a5d5 e9bd 3f48 5dbe
000000c0: 0349 02bf 2aad 9cbd 2550 7dbe 5b7e 003d
000000d0: 72a9 6cbe 8a06 b53c 6b31 d7bd 7d28 e7be
000000e0: f82c 0dbe 5ccc 20bf 49ef 14be 0a30 01bf
000000f0: dd78 e3bd 6a57 e5bc 59d6 0bbf 2d91 38be
00000100: a330 ddbd 508f 17be fee1 16be 9074 fbbd
00000110: 4c32 813a 302f 8ebe 3448 90be 1c97 0bbe
00000120: 78ae 16be eaa3 debe 0516 04be f3ab b5be
00000130: baa4 b9bd feb0 0b3c cefd 5c3c 4048 083d
00000140: 6bd7 93be 36e2 29be 6ad9 87bd 346f 07bf
00000150: f565 35be 1433 d3bd 5970 7fbc c5a5 173c
00000160: 417f 18bf 24ad 49bd 9a4e b7bd 7ebf 81be
00000170: e036 debd 622f dbbc 103d 14be a8d0 3ebe
00000180: 643d dcbe 47e6 1ebf 6cfe 5fbe e6cb 3dbe
00000190: 061e e3bd d1ec 0bbf c22a 48bd ea57 83bd
000001a0: 336a 1abe a401 c1be b905 94bd ccc3 f3bd
000001b0: 5da1 5abe a783 56be 7b4e 1ebf 9075 27be
000001c0: dfb2 a73c cca4 adbd 5f40 cc3b f817 89be
000001d0: 59e6 6bbe ff43 243d e941 40bd a85e 2dbd
000001e0: 8217 c1be 23e0 40be 445c acbd 750a 0abe
000001f0: 7e0f f0bd 8994 22bf 4355 07be cfbb 55be
00000200: eadb 73be 368f 38be fba4 2ebd 13bd 0abf
00000210: 48e1 22be 02fe 5bbc 1ff1 3ebe 7614 f1bd
00000220: 4090 55be 79fc ccbe 03b1 6bbe 3249 d7bc
00000230: 6caf 4bbe ab0c 21be 05d0 9dbd 32ac dc3b
00000240: 436d ebbe 8b7a cfbd 820e 20be a738 f4bc
00000250: 2947 c4be 4fc4 86bd 4a99 babc 6400 0abf
00000260: b973 26be b8b1 40be 5c49 22be 78fe 19bf
00000270: d096 a53c 781b 36be d32f 87bd 5f65 02be
00000280: 620d 3fbd 98fb 82be 8ea2 8bbd a7fc 65bd
00000290: 9a59 1ebd e2cc 17be d471 40bd b44d 06be
000002a0: d0d1 04be bb0b 09bf 09ff 57be d492 a2be
000002b0: 7b05 c3bc 691f 1fbe 867f 36be d70f 3ebd
000002c0: ee6f f5bd 69a9 e5bd 7dff fdbe 18a8 0cbe
000002d0: 538d 41be 77df 17bf 2383 c43c 9936 1bbf
000002e0: 1f7d 4fbe 9272 0fbe 4538 8fbc 6aaa 04bf
000002f0: a56a 10be c0ea 30be a459 2fbe 8808 57be
00000300: 4c3b 05bf 48f1 b6bd 0d10 d2be c43f dabd
00000310: 281b 14bf 52fc 3dbe d50c 05be 6b71 86be
00000320: 4314 aabb 2d80 b9bd 4009 f9bd a403 40bd
00000330: 1bde f0be 2f1f 0dbe 2902 72bd e835 cdbe
00000340: 4e35 9bbe 6d43 bfbe 5dd3 9abd 14f6 3dbe
00000350: 1190 2dbc 2731 d9bd c220 433d 20d4 ffbd
00000360: c443 a7bd 4467 7cbd fdd0 1fbe c80a 3cbe
00000370: 43bd 1bbe 793f 84bd 9447 21bf 1fc4 1abf
00000380: 1d6b 0cbf f765 5fbe c336 dfbd 4c7c 15bf
00000390: db5a 02be c688 83bd 91cc 63be 4fb3 0cbe
000003a0: 4888 eabe 2e1c 1cbe 96f2 35be 87c6 1cbe
000003b0: dd28 cbbd 8695 26be a3dd 07bf 36bd 16bd
000003c0: 59c2 bdbe ed84 efbd 1325 d7be ea9c 1fbe
000003d0: 6e12 1fbf 8ee9 dc3c 7106 10bf 4647 3abe
000003e0: f7d1 3bbe ddc0 e9be bbbe 06be 8c8b 09be
000003f0: 1aa1 bbbd c47a fabd 1c38 41be 57b5 35be
-0.014279626 -0.13465872 -0.091210194 -0.612179 -0.13942729 0.046840187 -0.040297315 -0.55878836
-0.13780856 -0.02710734 -0.614974 -0.17004791 -0.45053166 -0.45546982 -0.42995298 -0.011285558
-0.15408197 -0.5393326 -0.11637784 -0.19476922 -0.19913086 -0.56047416 -0.5497958 0.048882034
-0.2735301 -0.08784918 -0.1173799 -0.19624892 -0.31935295 -0.14906305 -0.18720143 -0.07657556
-0.10322528 -0.07437669 -0.13816617 -0.4372577 -0.12919642 -0.054029915 -0.041008238 0.042377107
-0.13618821 -0.03669216 -0.12351795 -0.2686994 -0.2289739 -0.19172521 -0.114177026 -0.21609591
-0.5089266 -0.07650216 -0.24737604 0.031370502 -0.23111513 0.022097845 -0.105074726 -0.45148078
-0.13786685 -0.6281183 -0.14544405 -0.50463927 -0.11107037 -0.027995784 -0.54623944 -0.1802413
-0.10800292 -0.14800763 -0.14734647 -0.12278092 0.0009856909 -0.27770376 -0.28180087 -0.13631862
-0.14714992 -0.43484432 -0.12899025 -0.3548275 -0.09064622 0.008526085 0.013488246 0.033272028
-0.28875288 -0.16590199 -0.06633265 -0.5290406 -0.17714675 -0.10312477 -0.015590751 0.009255831
-0.59569174 -0.049237385 -0.08950539 -0.2534141 -0.1085031 -0.026755992 -0.14476418 -0.18634284
-0.43015587 -0.62070125 -0.21874398 -0.18534812 -0.11089711 -0.5465823 -0.048868902 -0.06413253
-0.15079574 -0.37696564 -0.07227654 -0.1190258 -0.21350618 -0.20948659 -0.618385 -0.1635344
0.020471035 -0.08478698 0.0062332596 -0.267761 -0.2303709 0.04010391 -0.046937857 -0.0423266
-0.37713248 -0.18835501 -0.08416036 -0.13480552 -0.11721705 -0.63507897 -0.13216119 -0.20872425
-0.2381436 -0.1802338 -0.042637806 -0.54194754 -0.1590625 -0.013427259 -0.18646668 -0.11771481
-0.20855808 -0.4003637 -0.23016743 -0.02628002 -0.19891137 -0.15727489 -0.07705692 0.0067343945
-0.45981798 -0.10130795 -0.15630534 -0.02981217 -0.3833554 -0.06580412 -0.022778172 -0.53906846
-0.16255082 -0.18817794 -0.15848297 -0.60153913 0.020213515 -0.17783916 -0.066009186 -0.12733983
-0.046643622 -0.25582576 -0.06818114 -0.05614915 -0.03865967 -0.1482425 -0.046983555 -0.13115579
-0.12970662 -0.53533524 -0.21093382 -0.31752646 -0.023806324 -0.15539326 -0.17822084 -0.046401825
-0.119842395 -0.11213953 -0.49608985 -0.13735998 -0.18901567 -0.59325355 0.023988312 -0.60630184
-0.20262574 -0.14008549 -0.017482886 -0.5182253 -0.14103182 -0.1727705 -0.17124039 -0.20999348
-0.52043605 -0.089327395 -0.4102787 -0.106566936 -0.5785394 -0.18553284 -0.12993176 -0.26258406
-0.0051904037 -0.09057651 -0.121599674 -0.046878472 -0.47044453 -0.13781427 -0.05908409 -0.4008019
-0.30314106 -0.3735613 -0.075598456 -0.18550903 -0.01059343 -0.10605078 0.047638662 -0.124916315
-0.08167222 -0.06162192 -0.15607066 -0.18363488 -0.15208916 -0.06457419 -0.62999845 -0.6045551
-0.5485094 -0.2181624 -0.10899117 -0.58392787 -0.12729971 -0.06422572 -0.22246005 -0.13740276
-0.458071 -0.15245125 -0.1776832 -0.15310107 -0.099199034 -0.16267976 -0.53072566 -0.03680154
-0.37062338 -0.116952755 -0.42020473 -0.15587202 -0.62137496 0.026966836 -0.5625983 -0.18191251
-0.18341814 -0.45654956 -0.13158695 -0.13432139 -0.09161587 -0.12230447 -0.1886906 -0.17744957
