tmp/ddpg/target_critic_ddpg.pth (torch, 507042 bytes, 11 tensors)

fc1.weight f4 [400, 6]
000000 79 28 1e 3e c1 e0 09 3e 83 3d a4 be 50 e9 d1 3d
       0.15445127 0.13464643 -0.3207818 0.10249579
000010 65 71 5c bd 9c 8c 0e 39 0c d9 1d 3e 5a 68 0c 3e
       -0.05381908 0.00013594556 0.15414828 0.13711682
000020 90 3d 79 be fe b4 03 3e 1d f9 58 bd 27 3b 51 bd
       -0.2433989 0.12862012 -0.052971948 -0.051081803
000030 85 24 24 3e 46 6d 06 3e 22 e6 6b be b0 fa 07 3e
       0.16029556 0.13127622 -0.23037007 0.13279223
000040 54 63 59 bd a4 d4 4f bd c9 9f 1c 3e 92 a4 0d 3e
       -0.053073242 -0.0507399 0.15295328 0.1383231
000050 4b 68 79 be 03 22 03 3e 62 a1 57 bd cf 86 51 bd
       -0.24356191 0.12805943 -0.05264414 -0.051153954
000060 39 52 1a 3e 8c dc 0f 3e be d7 79 be 5b 73 02 3e
       0.15070428 0.14048976 -0.24398705 0.12739317
000070 1b 2d 54 bd b5 1a 52 bd 60 86 22 3e 00 f2 07 3e
       -0.05180083 -0.051295 0.15871572 0.1327591
000080 66 54 79 be 98 95 05 3e 47 86 60 bd 83 fe 4f bd
       -0.24348602 0.13045347 -0.054815557 -0.05077983
000090 a8 1f 24 3e 02 07 51 bc 23 00 a5 3e d7 92 a0 be
       0.16027701 -0.012758018 0.32226667 -0.3136203
0000a0 3e b7 a6 bf 44 0a 2a bd dc cb ae 3e b0 d4 cf bc
       -1.3024671 -0.041513696 0.34139907 -0.025369972
0000b0 a8 2f d0 be 12 c6 24 3f 72 45 59 3e 82 7c 72 bd
       -0.4066136 0.6436473 0.21217898 -0.05920077
0000c0 92 b8 12 3e b5 32 17 3e e0 34 79 be f0 30 fe 3d
       0.1432822 0.14765437 -0.24336576 0.12411678
0000d0 c2 fb 47 bd c8 18 54 bd c1 01 25 3e a8 93 04 3e
       -0.04882408 -0.051781446 0.1611395 0.12946951
0000e0 22 71 7c be ac e0 08 3e c0 41 69 bd f5 fd 48 bd
       -0.24652532 0.13366956 -0.05694747 -0.049070317
0000f0 18 1c 52 3d b3 a9 5d 3e 9e fd 09 bf b5 4c 5f bf
       0.051296324 0.21646766 -0.53902614 -0.8722642
000100 8b 68 ec bf 55 78 ac 3f 5a 90 18 3e fb 83 11 3e
       -1.8469404 1.3474222 0.14898816 0.14210503
000110 94 3d 79 be 69 68 01 3e da a0 51 bd aa 56 52 bd
       -0.24339896 0.12637486 -0.05117879 -0.05135218
000120 e6 29 27 3e 60 76 03 3e c4 64 79 be ed 76 07 3e
       0.16324577 0.12838125 -0.24354845 0.1322896
000130 6d bd 66 bd 1b c6 4e bd 82 e4 17 3e aa d6 11 3e
       -0.056332994 -0.050481897 0.14833263 0.14242044
000140 62 64 79 be 00 51 01 3e a7 f6 50 bd 56 05 53 bd
       -0.24354699 0.12628555 -0.051016476 -0.05151876
000150 7d 19 26 3e 67 68 04 3e b9 6f 79 be 15 fe 06 3e
       0.1622066 0.12930451 -0.24359025 0.13182862
000160 8a 1d 65 bd 12 09 4f bd 96 d4 10 3e fb 04 19 3e
       -0.055936374 -0.05054576 0.14143595 0.14943306
000170 5c 68 79 be ad bd fc 3d 40 f9 45 bd b5 95 54 bd
       -0.24356216 0.12340865 -0.048333406 -0.051900584
000180 8e d8 17 3e 38 4f 12 3e 12 30 79 be 9e f7 00 3e
       0.14828703 0.14288032 -0.24334744 0.12594458
000190 d5 50 52 bd 15 3f 52 bd 52 72 18 3e 08 ad 11 3e
       -0.05134662 -0.05132969 0.1488736 0.14226162
0001a0 ed fa 78 be 0d 81 01 3e d6 7e 50 bd 86 9d 52 bd
       -0.2431447 0.12646885 -0.05090221 -0.051419757
0001b0 77 4c 0e 3e 29 76 1b 3e 16 4c 79 be c1 c8 fa 3d
       0.13896357 0.15181793 -0.2434543 0.12245322
0001c0 69 8a 41 bd 7d 3d 55 bd b8 59 29 3e 4c 5a 01 3e
       -0.04725114 -0.052060593 0.16538131 0.12632102
0001d0 55 72 79 be 8e 48 08 3e e4 cd 69 bd a6 37 4e bd
       -0.2436002 0.13308927 -0.05708112 -0.05034604
0001e0 d8 34 1a 3e d8 f8 0f 3e 5c 30 79 be 6d ca 02 3e
       0.15059221 0.1405977 -0.24334854 0.12772532
0001f0 af dc 52 bd 12 1d 52 bd 39 6a 10 3e c8 a9 18 3e
       -0.05147999 -0.051297255 0.1410302 0.14908516
000200 22 26 79 be f6 47 fc 3d 28 b6 4a bd 6e 80 56 bd
       -0.24330953 0.12318413 -0.049490124 -0.052368574
000210 70 61 1b 3e 05 d6 0e 3e e3 48 79 be 10 c6 02 3e
       0.15173888 0.1394883 -0.2434421 0.12770867
000220 45 f4 54 bd 68 d2 51 bd 96 4d 12 3e 36 99 17 3e
       -0.051990766 -0.05122605 0.14287409 0.14804539
000230 23 61 77 be 4f d0 fd 3d 15 7c 4b bd 7f 44 54 bd
       -0.24158148 0.12393247 -0.04967888 -0.051823135
000240 1a 9c 25 3d 2e 33 17 3e 7f cb 47 be e2 c1 87 bf
       0.040432073 0.14765617 -0.19511221 -1.0606043
000250 47 50 f1 3e 56 18 cc 3d 2a e2 2a 3e de a5 ff 3d
       0.4713156 0.09965579 0.16687837 0.124828085
000260 06 08 7b be 06 16 0c 3e a8 d5 66 bd 73 b8 4d bd
       -0.2451478 0.13680276 -0.056356102 -0.050224733
000270 05 c4 1d 3e a8 ad 0e 3e 49 e8 81 be 26 ff 0d 3e
       0.15406807 0.13933432 -0.25372532 0.13866863
000280 e1 58 db bb 15 bc 64 bd 46 36 16 3e 80 d4 13 3e
       -0.006693945 -0.05584343 0.14669141 0.14436531
000290 33 4f 79 be ff 93 00 3e 7c 46 4d bd eb 2f 53 bd
       -0.24346618 0.12556456 -0.050116047 -0.05155937
0002a0 38 f6 11 3e 5d ee 17 3e 6b aa 78 be 27 2f fe 3d
       0.14254081 0.14837022 -0.2428376 0.12411337
0002b0 01 99 46 bd a2 4c 54 bd 53 c3 c8 bc 72 6d 79 3e
       -0.04848576 -0.051830895 -0.0245072 0.24358156
0002c0 ab 28 2f 3f 31 14 a8 bf 0d 85 b4 3f ca e3 fe 3d
       0.6842143 -1.3131162 1.4103104 0.12445791
0002d0 a5 f7 54 3e cf 9c ad 3d ac 89 79 be 8b 45 19 3e
       0.20797594 0.084771745 -0.24368924 0.14967935
0002e0 cf a9 94 bd 4d 4a 43 bd 21 8e 0e 3e bb 35 1b 3e
       -0.07258951 -0.04767828 0.13921405 0.15157215
0002f0 50 d6 78 be e2 36 fb 3d cc 51 42 bd 2d 2c 55 bd
       -0.24300504 0.122663274 -0.04744129 -0.052044082
000300 5d 50 17 3e 96 c4 12 3e 27 31 79 be e7 15 01 3e
       0.1477675 0.14332804 -0.24335156 0.12606011
000310 00 d0 4e bd 2a e7 52 bd df 72 2f 3e 68 ea f6 3d
       -0.050491333 -0.051489986 0.17133664 0.12056428
000320 6b a6 79 be e8 b6 0a 3e e4 49 72 bd 8b 9f 4c bd
       -0.2437989 0.13546336 -0.0591525 -0.04995684
000330 b7 75 1a 3e 4c bb 0f 3e c8 71 79 be a8 4d 02 3e
       0.15083967 0.14036292 -0.2435981 0.12724936
000340 14 ab 53 bd ec 14 52 bd 3f 8f 0e 3e 0a 3c 1b 3e
       -0.051676825 -0.051289484 0.13921832 0.15159622
000350 7c a2 7a be c1 f0 f4 3d 9a c4 3c bd c6 32 55 bd
       -0.24476045 0.11959983 -0.04608593 -0.052050374
000360 9c f0 1f 3e 2b 6e 0a 3e c4 d9 79 be f4 4e 05 3e
       0.15619129 0.13518588 -0.24399477 0.130184
000370 c4 b0 60 bd 34 a7 50 bd bf f2 22 3e a4 25 07 3e
       -0.054856077 -0.050940707 0.15912913 0.13197953
000380 d6 7f 79 be e5 e0 05 3e bc 64 61 bd 7d da 4e bd
       -0.24365172 0.13074072 -0.05502771 -0.050501335
000390 fd fc 2c 3e cb ac fb 3d e8 a6 79 be 83 b9 09 3e
       0.16893382 0.12288817 -0.24380076 0.13449673
0003a0 51 2b 6f bd ef 44 4d bd 79 f1 1f 3e de 28 0a 3e
       -0.05839092 -0.05011457 0.15619458 0.13492152
0003b0 95 52 79 be 26 77 04 3e 56 f3 5c bd e3 95 50 bd
       -0.24347909 0.12936077 -0.053943 -0.050924193
0003c0 02 9a 1a 3e 35 98 0f 3e 56 58 79 be ee 5c 02 3e
       0.15097812 0.14022906 -0.24350104 0.12730762
0003d0 63 c6 53 bd 78 0b 52 bd 29 04 b8 3e 25 a3 7f bc
       -0.05170287 -0.05128047 0.35940674 -0.0156028615
0003e0 ba 1b ef bd d0 65 88 3d 52 b8 d1 bf a7 5e e8 bd
       -0.1167521 0.06660044 -1.6384375 -0.113461785
0003f0 91 dd 11 3e 2a 04 18 3e a3 86 7a be a8 54 fe 3d
       0.14244677 0.14845338 -0.24465422 0.12418491

fc1.bias f4 [400]
000000 ed 48 a6 bc 08 2e 47 bd b2 b4 40 bd a9 b7 48 bd
       -0.020298446 -0.048627883 -0.047047324 -0.049003277
000010 1c 88 4b bd 14 e6 3f bd 1f b4 7e 3f ab d1 33 bf
       -0.04969035 -0.04685028 0.9949359 -0.702418
000020 f3 fc 56 bd b1 64 3e bd 64 41 8d 3e 7d 56 4e bd
       -0.052487325 -0.046482746 0.27588952 -0.05037545
000030 39 7a 39 bd 37 f2 4f bd de 32 3b bd d0 38 59 bd
       -0.045282576 -0.050768103 -0.045702808 -0.053032696
000040 31 c1 4e bd 95 c7 4e bd a4 30 5d bd 26 51 36 bd
       -0.05047721 -0.050483305 -0.054001465 -0.044510983
000050 97 42 4d bd 49 a9 5b bd 5b f7 49 bd ee f8 54 bd
       -0.050112333 -0.05362824 -0.049308162 -0.05199521
000060 ef 1b 7c 3e 66 22 36 bd c7 ea 7f bd f3 cb 51 bd
       0.24620031 -0.0444664 -0.06247976 -0.05121989
000070 c6 62 58 bd 27 24 1f bf 11 b0 ef bc fc 9d 5c bd
       -0.052828573 -0.6216454 -0.02925876 -0.053861603
000080 6b 5e 50 bd c2 94 2d bd f2 bf 4b bd 45 4d 5f bd
       -0.050871294 -0.042378195 -0.0497436 -0.05451705
000090 c7 82 43 bd 00 04 40 bd 81 31 31 bd 51 1f 44 bd
       -0.04773214 -0.046878815 -0.0432601 -0.04788143
0000a0 b7 b7 4b bd be 92 cd bf 0d f1 57 bd e5 a6 59 bd
       -0.04973575 -1.6060407 -0.05272012 -0.05313768
0000b0 86 2b 43 bd 9c 55 4a bd 29 ac 39 c0 fd 2d 57 bd
       -0.04764893 -0.04939805 -2.9011328 -0.052534092
0000c0 04 36 3f bd 06 14 41 bd 65 f5 49 bd f6 ae 43 bd
       -0.046682373 -0.047138236 -0.049306292 -0.047774278
0000d0 d1 a9 2d bd 05 21 4b bd 8c 5d 5f bd cd a7 47 bd
       -0.042398278 -0.049592037 -0.054532573 -0.04874401
0000e0 4a 75 41 bd fe c8 6b bd 2e 10 3f bd 27 ee 4b bd
       -0.047230996 -0.057564728 -0.04664629 -0.049787667
0000f0 38 93 3b bd 39 b5 f5 bc 84 39 e8 bd 36 b3 4a bd
       -0.045794696 -0.02999364 -0.11339095 -0.049487315
000100 fc 1b 8f 3f ef a6 1c bd 05 55 4d bd 38 95 07 bd
       1.1180415 -0.038245138 -0.05012991 -0.03310129
000110 a8 dd 54 bd fa 2d 41 bd 40 29 33 bd e6 a4 92 3e
       -0.0519692 -0.047162987 -0.04374051 0.28641433
000120 ef 67 53 bd 79 bf 55 bd fe df 59 bd 21 06 4a bd
       -0.05161279 -0.052184556 -0.05319213 -0.04932225
000130 47 28 5c bd a0 45 49 bd 71 ea 50 bd 0e 9e 4f bd
       -0.05374935 -0.049138665 -0.05100483 -0.050687842
000140 e2 01 3b bd f1 4d 56 bd 77 75 a5 3c a5 74 34 bd
       -0.045656092 -0.052320424 0.020197613 -0.044056553
000150 73 23 03 bd f9 19 4a bd f3 56 58 bd 03 d2 50 bd
       -0.03201623 -0.049341176 -0.052817296 -0.050981533
000160 18 d7 3e bd 05 c1 38 bd 3a 75 42 bd 9e 5c 49 bd
       -0.046591848 -0.045105953 -0.047475077 -0.049160592
000170 4b 83 4e bd d0 d2 8a bc 95 46 48 bd b6 11 40 bd
       -0.05041818 -0.016946226 -0.048895437 -0.04689189
000180 6f 74 51 bd ac 00 5d bd d4 45 52 bd f7 fa 46 bd
       -0.05113643 -0.05395572 -0.051336125 -0.048579182
000190 6e 0a 42 bd ed 37 4e bd d7 fe 42 bd be d2 01 bf
       -0.047373228 -0.050346304 -0.047606315 -0.5071219
0001a0 c9 0c 37 bd 53 db 28 bd 26 44 f2 bc f9 c3 3a bd
       -0.044689927 -0.04122479 -0.029573511 -0.04559705
0001b0 3d 88 52 bd 45 74 08 c0 0c b5 50 bd 47 5d 4f bd
       -0.05139946 -2.1320965 -0.05095391 -0.050626066
0001c0 e7 e3 1c bd 13 81 3a bd b5 06 4c bd 04 df 3d bd
       -0.038303282 -0.04553325 -0.049811084 -0.046355262
0001d0 bb 88 3b bd 18 87 ad 3f 1d 22 37 bd c3 65 5c bd
       -0.045784693 1.3556852 -0.044710267 -0.053807985
0001e0 09 98 3d bd 9c e6 3b bd 61 64 3b bd da be 36 bd
       -0.04628757 -0.045874223 -0.045750026 -0.044615604
0001f0 21 a1 44 bd a9 98 48 bd 7e 3e 5c bd e9 25 40 bd
       -0.048005227 -0.048973713 -0.053770535 -0.046911154
000200 f2 e2 61 bd ef d6 4b bd 2f 3a 48 bd 7c 24 59 bd
       -0.055148073 -0.049765524 -0.048883613 -0.05301331
000210 e8 83 f9 bc 78 0d 3e bd 4e 53 58 bd 9a 94 40 bd
       -0.030458406 -0.046399564 -0.05281382 -0.047016717
000220 ef 0d 5c bd 52 59 80 3e 31 68 49 bd 19 83 3d bd
       -0.053724226 0.25068146 -0.04917163 -0.046267603
000230 6d b9 48 bd 34 bd 5a bd 4f ad 2d bd a6 f8 c1 bf
       -0.04900496 -0.053403094 -0.042401608 -1.5154006
000240 d4 5d 4f bd ed 2d 4c bd 98 54 58 bd 1d b9 59 bd
       -0.05062659 -0.049848486 -0.05281505 -0.053155053
000250 8e 5b 48 bd 11 43 49 bd 70 ca 32 bd 5f b9 4b bd
       -0.04891544 -0.049136225 -0.04365009 -0.04973733
000260 01 cb 46 bd 2a 7a 4c bd a7 f4 4c bd 94 fc 3a bd
       -0.048533443 -0.049921192 -0.050038006 -0.045651034
000270 2e e7 48 bd d0 11 3f bd 3c ac 4b bd 26 24 4d bd
       -0.049048595 -0.046647847 -0.049724802 -0.050083302
000280 26 68 38 bd 3f a5 5a bd d7 de 36 bd 0f 90 50 bd
       -0.0450212 -0.053380247 -0.04464611 -0.050918635
000290 f3 3b 42 bd 48 a5 4f bd 0e 8e 51 bd d8 90 49 bd
       -0.047420453 -0.050694734 -0.051160865 -0.0492104
0002a0 77 90 58 bd 2e d6 32 bd c9 3c 49 bd 86 6a f4 3f
       -0.052872147 -0.04366129 -0.049130235 1.9095008
0002b0 ad 54 54 bd 42 7d 3a bd 97 1e 58 bd b7 80 4e bd
       -0.051838566 -0.04552961 -0.052763548 -0.05041572
0002c0 07 eb 37 bd 80 71 42 bd 90 53 44 bd f9 38 47 bd
       -0.044901874 -0.047471523 -0.047931254 -0.048638318
0002d0 38 12 4b bd 49 04 5b bd 65 30 4b bd 06 48 3e bd
       -0.04957792 -0.053470884 -0.0496067 -0.046455406
0002e0 82 50 48 3e a7 19 4d bd 00 4f 4c bd 52 9d 4c bd
       0.19561961 -0.050073292 -0.049880028 -0.04995472
0002f0 ba c8 4b bd 4d a3 3b bd 72 01 4e bd d4 71 57 bd
       -0.049751975 -0.045810033 -0.050294347 -0.05259879
000300 dc 4f 5f bd 23 e5 5a bd b1 70 57 bd 08 ab 3e bd
       -0.05451952 -0.053441178 -0.052597705 -0.046549827
000310 57 2b 5c bd 98 cb 42 bd b9 4c 44 bd 4d 10 88 bd
       -0.05375227 -0.047557443 -0.04792473 -0.06643734
000320 de 88 42 bd 05 83 4d bd 7b e3 0d bd eb 5c 32 bd
       -0.047493808 -0.050173778 -0.03464077 -0.043545645
000330 96 fc 4e bd ea 3f 30 bd 23 a5 52 bd 60 5e 06 3e
       -0.050533853 -0.043029703 -0.051427018 0.13121939
000340 b6 95 48 bd 34 bf 3f bd 65 a0 5e bd 08 2a 4c bd
       -0.0489709 -0.046813205 -0.054352183 -0.04984477
000350 57 9c 1f bd f3 54 20 bd 27 46 54 bd 0b 08 60 3f
       -0.038967457 -0.039143514 -0.051824715 0.8751227
000360 1e 21 9e bd e5 df 52 bd b2 50 4b bd 7e ad 4f bd
       -0.0772116 -0.051483054 -0.049637504 -0.050702564
000370 6c ef 47 bd 56 99 46 bd 23 13 42 bd 10 6e 8b bd
       -0.048812315 -0.048486076 -0.04738153 -0.06808102
000380 38 27 58 bd 0f 1e 62 bd fa b3 3e bd 6b e2 4e bd
       -0.052771777 -0.055204447 -0.046558358 -0.050508898
000390 ef b9 4d bd 5a 4d 4e bd 70 b0 3b bd aa 27 54 bd
       -0.05022615 -0.050366737 -0.04582256 -0.05179564
0003a0 20 bd 77 bd e5 ee 3b bd 3a 55 49 bd b6 4e 47 bd
       -0.060483098 -0.045882124 -0.049153544 -0.04865905
0003b0 71 5d 51 bd eb 2c 49 bd d0 77 86 be 70 bd bb be
       -0.051114503 -0.049115103 -0.26263285 -0.36667967
0003c0 86 c9 55 bd 9f 82 44 bd c2 ce 68 bd 9c fa 5c bd
       -0.05219414 -0.047976132 -0.056837805 -0.053949937
0003d0 93 5e 54 bd a5 5f 42 bd 10 a2 4d bd a5 85 ca be
       -0.051848006 -0.047454495 -0.050203383 -0.39555088
0003e0 c2 f2 1b bd ae ac 45 bd 68 13 57 bd d9 3a 75 bd
       -0.03807331 -0.048260383 -0.05250874 -0.059870575
0003f0 dd 25 4b bd 05 06 52 bd a3 f1 4e bd de 99 28 bf
       -0.049596656 -0.051275272 -0.05052341 -0.6585978

fc2.weight f4 [300, 400]
000000 3a 79 1f 3e 7c 7e a2 38 3d 13 13 3b 0d 6a d5 b3
       0.15573588 7.7483215e-05 0.0022441887 -9.937876e-08
000010 5e 5d a7 b4 73 bd 0d 34 b4 78 9f 3e 7d 0a 8e bd
       -3.1174108e-07 1.320057e-07 0.31146777 -0.06935594
000020 d6 27 6e b7 c0 5d 3b 3a 98 bc d0 3e f8 23 0f 3a
       -1.41951805e-05 0.0007147454 0.40768886 0.0005460377
000030 e8 5e 0b 36 c1 05 55 bb 06 95 85 3b 5d fc 61 32
       2.0767857e-06 -0.003250465 0.004076603 1.31541045e-08
000040 77 20 56 3a a4 e2 0b b5 bc db 38 35 4f 60 e5 b8
       0.000816829 -5.211134e-07 6.8865097e-07 -0.0001093751
000050 6e f2 26 b8 f1 8e f4 3b a5 af 7f b7 b5 22 9d b5
       -3.9803264e-05 0.007463329 -1.524008e-05 -1.1707513e-06
000060 19 e2 cf 3e 2b 76 8d bc 75 74 e1 3d 42 f5 93 b4
       0.40602186 -0.017268261 0.110085405 -2.7559332e-07
000070 c4 d2 fa 33 9f ab 7c bc b7 de 9a 3b 50 c5 5e 37
       1.167987e-07 -0.015421777 0.0047262567 1.32781715e-05
000080 04 70 5f b8 fe 4c af b2 b8 6c bd b2 fc 3a 16 37
       -5.3271666e-05 -2.0407693e-08 -2.2051935e-08 8.95443e-06
000090 3f 9b 65 33 b2 11 c4 bb da 45 d2 38 86 7a 57 3c
       5.3459413e-08 -0.0059835548 0.00010026591 0.01315177
0000a0 3a 81 e6 36 c5 3a 34 be 1d 05 16 b8 39 93 28 b5
       6.869578e-06 -0.17600544 -3.576755e-05 -6.2799114e-07
0000b0 ff 2a 93 33 48 8f 97 b8 22 0a e1 be 28 d8 b7 38
       6.853042e-08 -7.226929e-05 -0.43953043 8.766382e-05
0000c0 88 7e ba b8 fc 17 05 b5 db 7d bd 33 22 40 aa b6
       -8.8927394e-05 -4.958126e-07 8.823891e-08 -5.073861e-06
0000d0 21 cb 69 37 0d dd 5e 33 c7 c6 1b 32 1c 31 9d bb
       1.3935177e-05 5.1889447e-08 9.067384e-09 -0.004797114
0000e0 2c 2f 13 3b d3 74 45 32 12 81 03 bd 02 aa a8 33
       0.0022458537 1.1493472e-08 -0.032105513 7.854034e-08
0000f0 24 86 07 92 54 c4 74 39 76 7c 9d 3d e6 9e 8c ba
       -4.276383e-28 0.00023342791 0.07689755 -0.0010728508
000100 38 92 c6 3e ae 5e de b4 f7 b3 03 34 af 84 d4 39
       0.3878343 -4.141961e-07 1.2265797e-07 0.00040534648
000110 c5 88 16 bb c9 b8 e4 39 93 65 21 b8 4b 82 7d 3e
       -0.0022969705 0.00043625224 -3.847999e-05 0.24756734
000120 a2 9f f3 b6 7d e9 cb bb 7d ef e0 b6 92 97 c3 36
       -7.260548e-06 -0.0062229023 -6.7036003e-06 5.829098e-06
000130 23 e4 8e 37 86 49 16 b4 87 67 9a b8 02 d0 7e bb
       1.7033954e-05 -1.3996586e-07 -7.362576e-05 -0.0038881307
000140 18 c4 8c 38 7f fa d9 bc 6b 00 2f 3e df 21 db 38
       6.7122455e-05 -0.026608704 0.17090003 0.00010449043
000150 9c 30 40 b6 d4 26 8e 33 28 b3 02 b9 fd e2 f6 ba
       -2.8638524e-06 6.619453e-08 -0.00012464507 -0.0018835958
000160 da ce 28 b6 c7 43 06 33 59 d6 af 3b bc 6d db 36
       -2.5154354e-06 3.126095e-08 0.0053661284 6.5394834e-06
000170 53 82 a1 39 6a a9 1c 3e d9 f8 cf 39 69 66 1e 39
       0.00030805412 0.15299001 0.00039667523 0.00015106205
000180 8c f9 3f b5 20 fc 8c 3b b8 a7 ae ba 6a 1c 65 ba
       -7.1516183e-07 0.0043025166 -0.001332513 -0.0008739891
000190 b5 28 4f 38 b6 b2 c9 39 1e 16 5b 34 74 a3 15 3e
       4.9390557e-05 0.00038470858 2.040401e-07 0.14613134
0001a0 6a c2 4c 38 37 7f bc b6 9c 7d 71 b8 56 26 ab 3b
       4.8818452e-05 -5.6176464e-06 -5.757586e-05 0.005223076
0001b0 e1 46 07 39 b4 a7 93 bb 56 28 3c b6 f4 9d 5c ba
       0.00012901008 -0.0045060758 -2.8037662e-06 -0.0008415871
0001c0 73 ff 45 3b 4a 17 25 32 4a 5d 81 35 14 30 cd 38
       0.0030212074 9.609559e-09 9.6384e-07 9.784117e-05
0001d0 61 ff f4 bc 51 da b4 3e 40 7f 91 b6 6b 2b 3e b2
       -0.02990693 0.35322812 -4.3361506e-06 -1.1069328e-08
0001e0 18 20 ec b6 b3 22 a7 b9 bf 58 4e 34 9f 33 61 33
       -7.0370843e-06 -0.00031878575 1.921753e-07 5.2433844e-08
0001f0 7f be 68 b7 64 d3 ca bb f6 6c 72 b5 bd 5c bd b5
       -1.3872631e-05 -0.0061897505 -9.0310584e-07 -1.4108588e-06
000200 5e d4 60 b5 46 c6 33 32 43 37 e5 38 e7 c4 87 34
       -8.375554e-07 1.04642535e-08 0.00010929864 2.5288975e-07
000210 13 46 83 35 5e d9 bc b4 f4 0b db 37 11 09 0e 36
       9.780655e-07 -3.5175884e-07 2.61124e-05 2.1164926e-06
000220 a7 42 4d 17 c1 f4 88 bd 91 08 5e 36 43 9c 97 b4
       6.63232e-25 -0.06687308 3.3085564e-06 -2.8239637e-07
000230 b0 91 a6 38 fa 83 3d b8 a0 1d 37 39 b4 46 e7 3d
       7.942633e-05 -4.5184024e-05 0.00017463276 0.112927824
000240 2c d0 07 3a 68 5f 7c 38 75 57 47 3a a1 77 7a 2f
       0.00051808613 6.0170336e-05 0.00076042797 2.2779868e-10
000250 13 dd c1 b7 58 a6 1e 3b dd 33 25 33 dc ac c5 b5
       -2.3110339e-05 0.0024208035 3.8464226e-08 -1.4727952e-06
000260 6a 27 d4 31 66 6f cd 34 e4 c3 ef 34 b5 06 bb 34
       6.174493e-09 3.826528e-07 4.4659748e-07 3.4836344e-07
000270 98 0d f2 35 24 09 81 bc 42 b5 07 b4 af 20 c9 b4
       1.8034361e-06 -0.015751429 -1.2638796e-07 -3.7462948e-07
000280 9d 00 85 3d 68 bf 55 32 8f 1d b1 b8 6a bb 71 39
       0.064942576 1.24417525e-08 -8.4455234e-05 0.00023053368
000290 1e 1c b3 b8 40 cc c3 35 c5 a3 ce 35 de c6 72 b4
       -8.5406224e-05 1.4588077e-06 1.5395859e-06 -2.2610354e-07
0002a0 ac 57 10 ba 3a 07 d1 3d 8a aa a9 b9 e6 2b db 3e
       -0.0005506228 0.102064565 -0.00032361253 0.4280693
0002b0 d1 a7 dc b9 d8 87 80 31 9a d2 d3 35 4e 7b 6a 38
       -0.00042086703 3.740734e-09 1.5782018e-06 5.5904784e-05
0002c0 f5 29 dd 39 32 a8 af 33 c6 94 0a b6 ee ce 34 3b
       0.00042183665 8.179667e-08 -2.06502e-06 0.002758916
0002d0 13 4f 5f 3c 68 79 ea 34 a6 7b 5e ba c3 af ac b4
       0.013629693 4.367423e-07 -0.0008487053 -3.216538e-07
0002e0 db f2 be be f2 4a 30 b4 1f 5b 7d b7 69 48 0e 3a
       -0.3729466 -1.6418542e-07 -1.5101191e-05 0.000542766
0002f0 c2 a3 d2 b1 b1 27 cd 33 60 0f 3e 37 9d 1f db 34
       -6.1304215e-09 9.553276e-08 1.1328462e-05 4.081493e-07
000300 ee 07 95 38 a5 9a 8e 36 43 d7 2e b9 18 45 dc 31
       7.106351e-05 4.2499328e-06 -0.00016674124 6.4106978e-09
000310 01 9d b8 b2 f2 b7 af 39 be f7 b5 36 4f 59 a4 3d
       -2.1491816e-08 0.0003351565 5.4230613e-06 0.08024847
000320 c2 84 88 b6 fd 7c 88 b5 78 50 d4 b5 7f 80 7a b9
       -4.068571e-06 -1.0169166e-06 -1.581865e-06 -0.00023889726
000330 84 72 70 3b 31 ca bd b5 af c6 75 34 7d d4 af 3d
       0.003668935 -1.4140443e-06 2.2889684e-07 0.08585451
000340 21 f4 68 3a be 87 9a 33 0e 6a 06 3e b4 b9 a2 ba
       0.00088864757 7.195875e-08 0.13126394 -0.0012414963
000350 55 e8 ba bb c8 c0 4c b9 12 59 75 39 11 52 a6 3e
       -0.0057039657 -0.00019526773 0.00023398202 0.32484487
000360 a3 ec c2 35 c2 7b 72 37 3e aa e2 bb f6 1d 80 b2
       1.4522997e-06 1.4453139e-05 -0.006917267 -1.4914786e-08
000370 ac ca 8b b4 53 17 f5 39 6d 92 8a 37 72 f6 84 3c
       -2.603823e-07 0.0004674742 1.6519067e-05 0.016230796
000380 bc 2a 67 33 1f 02 02 3b 3a ee 0d 33 86 0c f0 3d
       5.3822745e-08 0.001983769 3.3045787e-08 0.11721139
000390 87 e2 61 b8 cf 01 d4 b1 9f 1d 85 b4 ef c6 0c b5
       -5.385515e-05 -6.1702177e-09 -2.4794733e-07 -5.244355e-07
0003a0 7a 81 b5 ba a1 97 31 ba a2 7c 56 b9 ea 9f 0c 8e
       -0.0013847791 -0.00067746086 -0.0002045506 -1.7333328e-30
0003b0 ed f3 dd 3c 8f ed c3 bc 02 31 b8 3d fa 99 9f be
       0.027093852 -0.023916988 0.089937225 -0.31172162
0003c0 04 1a 5b 37 a3 23 78 34 df b7 b0 b6 a7 c8 3a b5
       1.3059474e-05 2.3109764e-07 -5.266614e-06 -6.9582387e-07
0003d0 6c fd 76 35 8e 7a 33 35 4b f6 9a 34 9c ae 0b bf
       9.201092e-07 6.6861037e-07 2.8863937e-07 -0.5456331
0003e0 ec 34 c1 3d c2 47 8e b8 01 c8 e2 35 dd 37 8b 3d
       0.09433922 -6.7844536e-05 1.6896521e-06 0.067977645
0003f0 b4 ed ce b5 84 5b 23 b6 91 4d 96 b9 b7 da ca bd
       -1.5417377e-06 -2.4342162e-06 -0.0002866802 -0.09904998

fc2.bias f4 [300]
000000 4d 8f b3 3e 30 73 74 3e 6f 33 34 3d c4 d0 be 3e
       0.35070267 0.23872066 0.043994363 0.3726865
000010 5e 79 10 3e b6 7e 1f 3e 0e ef f9 3d c1 92 72 3e
       0.14108798 0.1557568 0.12203799 0.23688795
000020 c7 75 c1 3e 26 8e 70 3d 39 e2 80 3e 80 e0 dc 3d
       0.3778517 0.058729313 0.25172594 0.107850075
000030 6f c5 68 3d 65 5f 46 3e 1a dc ad 3d 15 d4 0f 3e
       0.056828912 0.19372328 0.08489247 0.14045747
000040 e9 8c c7 3d a2 09 1b 3e 5e de 88 3e 29 fe 26 3e
       0.09743673 0.15140393 0.26732153 0.16307892
000050 4f c1 a0 3e 57 fe dc 3d 47 5d fe 3d e5 d4 fa 3d
       0.31397483 0.10790699 0.12420135 0.12247638
000060 02 cb ab 3e 0d d7 d5 3e 02 e6 0e 3e 1e 4c b2 3d
       0.3355332 0.41765633 0.13954929 0.087059245
000070 f0 02 ee 3c c1 b1 e3 3e 48 34 d8 3e 1a 37 eb 3d
       0.029054135 0.44471553 0.42227387 0.11485119
000080 e4 ea a2 3e 81 90 10 3e af b4 58 3d 27 4c 21 3e
       0.31819832 0.14117624 0.05290669 0.15751706
000090 8d cc e0 3d 1b 38 11 3e 0a a2 a3 3e 7a 88 b4 3d
       0.10976515 0.14181559 0.31959563 0.08815093
0000a0 7a 17 c3 bd b7 51 cf 3e ef 40 3d 3e 85 90 f1 3d
       -0.09525962 0.4049203 0.18481801 0.11795143
0000b0 49 65 12 3e ba bb ed 3d 5c 74 b1 3d 41 91 1b 3e
       0.1429645 0.116080716 0.08664772 0.15192129
0000c0 7d 50 87 3e 26 72 c3 3d a5 3f a1 3d 81 5b 36 3d
       0.26428595 0.095432565 0.07873467 0.04452086
0000d0 86 37 72 3d 0a 84 67 3d 53 a2 f9 3d d8 a9 bf 3e
       0.059134983 0.056522407 0.12189164 0.37434268
0000e0 7d 28 b8 3e 77 fe c2 3d 8c 57 04 3e ab c4 d6 3d
       0.3596839 0.095211916 0.12924021 0.1048673
0000f0 b7 68 eb 3d 13 13 05 3e 6e 82 0a 3e 0f 55 d1 bb
       0.11494582 0.12995557 0.13526317 -0.0063883136
000100 06 7c 8b 3e 67 17 2a 3e d7 af 33 3d ef 50 0a 3e
       0.2724306 0.1661049 0.043868866 0.13507436
000110 03 8b 83 3e 34 e3 81 3e 3f 93 66 3e 3e 7f 21 3d
       0.25691995 0.25368655 0.22517107 0.03942799
000120 f4 8f d9 3d f0 7f 29 3d 9a 3a 8a 3e d7 77 bf 3e
       0.1062316 0.041381776 0.26997834 0.37396118
000130 47 dd d3 3d 1d a7 02 3e fc 89 f7 3d 9b 17 32 3d
       0.1034494 0.12759061 0.12086865 0.043479543
000140 e1 7d 1f 3e 5d 61 08 3e 27 21 c7 3d 59 24 c8 3d
       0.15575363 0.13318391 0.0972312 0.09772558
000150 44 a7 0f 3e 35 6a d5 3e b3 5e d8 3e af 43 d3 3d
       0.1402865 0.41682592 0.4225975 0.10315644
000160 59 be 5d 3b 66 39 bf 3d 57 62 cc 3d 3d 14 1d 3e
       0.003383538 0.0933712 0.09979694 0.15339752
000170 42 9f af 3e 9f f3 b4 3e 31 b6 33 3c 30 f1 82 3e
       0.34301192 0.35342118 0.010968731 0.25574636
000180 98 b0 1e 3e 7a 03 b2 3e cf d8 f2 3d 57 b9 c3 3e
       0.15497053 0.34768277 0.11857759 0.3822734
000190 bd 27 e7 3d 28 d3 0d 3e d4 ea 8c 3e a0 39 92 3d
       0.11286876 0.13850081 0.2752291 0.07139897
0001a0 d0 9a 8c 3d cf 69 a4 3d 26 d0 24 3c 05 12 04 3e
       0.06865466 0.08027994 0.010059392 0.12897499
0001b0 65 44 d7 3e 90 46 f7 3c 7c f8 36 3d 84 9c 2d 3e
       0.42044368 0.030185014 0.044670567 0.16954237
0001c0 85 e5 76 3d 58 4b 3b 3d 13 c2 a8 3e ce e6 40 3d
       0.06027748 0.04572615 0.32960567 0.047095113
0001d0 ab 0e 31 3c b9 89 29 3e 42 eb 02 3e d3 27 1e 3e
       0.01080672 0.16556443 0.12785056 0.15444879
0001e0 ac e1 8d 3d db a3 9e 3d fd 0a 11 3e 2b 66 53 3d
       0.06927809 0.07746097 0.14164348 0.051611107
0001f0 41 74 92 3d e8 ed b9 3d 3b 43 89 3e e8 7a 7e 3d
       0.0715108 0.0907858 0.26809105 0.06212893
000200 19 af 6c 3e fb 63 01 3e 12 46 00 3e 8f 82 02 3e
       0.2311367 0.12635796 0.1252673 0.12745117
000210 41 1d c6 3d ef 0f a8 3e 03 7f 05 3e 84 4d 9c 3d
       0.096735485 0.32824656 0.13036732 0.076319724
000220 1b 25 03 3e 9d 45 fc 3d a2 5d 43 3d ba 35 f2 3d
       0.12807123 0.12317965 0.047696717 0.11826654
000230 cb 8d c1 3d e1 ab a6 3d df d7 b7 3d 1f 0e 45 3e
       0.09450873 0.08138252 0.08976721 0.19243668
000240 2d 36 d9 3d b4 d7 e1 3d e7 d3 09 3e a2 7d da 3d
       0.10606036 0.1102747 0.1345974 0.10668494
000250 fa 06 ad 3d 61 91 e4 3e f4 5a 94 3e ed 34 c7 3d
       0.08448596 0.44642165 0.28975642 0.09726892
000260 0b 13 bb 3e 09 90 81 3d 89 f6 ea 3e 8b d0 0d 3e
       0.36537966 0.06326301 0.45891216 0.13849084
000270 62 20 07 3e fe 8c 10 3d 23 c8 d4 3d 17 5d 1f 3e
       0.13195947 0.03529071 0.103897355 0.15562855
000280 09 f7 10 3e 8c 87 41 3e bd aa 81 3d 00 ec 3e 3e
       0.14156736 0.18899363 0.06331394 0.18644714
000290 a7 82 25 3e d3 39 11 be ab ab d8 3d d3 7d be 3c
       0.16163121 -0.14182214 0.10579618 0.023253357
0002a0 03 5f 84 3e 3a e3 b7 bd f5 cc 95 3e 25 ca 08 3e
       0.25853738 -0.08978887 0.29257932 0.13358362
0002b0 de ca ca 3e 54 b6 b2 3e 1f 3f c7 bd 6b 00 0e 3e
       0.396079 0.3490473 -0.09728836 0.13867347
0002c0 dc 97 1a 3e 17 94 02 3e dc 6c df 3d 82 2e 00 3e
       0.15096992 0.12751804 0.10909435 0.12517741
0002d0 a9 a3 b9 3e 50 5a 97 3e 30 0d 87 3e a1 d2 86 3e
       0.36257675 0.2956109 0.2637725 0.26332572
0002e0 93 a4 fa 3d 34 92 ba 3d 33 13 bb 3d 04 ac a7 bd
       0.12238421 0.09109917 0.09134521 -0.08187106
0002f0 45 08 80 3e 8c 7f 14 3e 45 f4 bf 3e c2 4b ac 3e
       0.2500631 0.1450178 0.3749105 0.3365155
000300 61 c1 59 3e 46 83 74 bd ce ba 43 3e 41 fc 30 3e
       0.21265174 -0.059695505 0.19114229 0.17283727
000310 c9 94 4a 3e 1f d4 ad 3d e4 19 21 3e d3 5e 30 3d
       0.1978332 0.084877245 0.15732533 0.04305918
000320 56 9b 04 3e d0 c4 00 3e d0 04 f6 bd d7 71 8c 3e
       0.12949881 0.12575078 -0.12012637 0.27430603
000330 ab 56 22 3e 61 06 18 3e 14 52 bf 3e 90 eb 8a 3e
       0.15853374 0.14846183 0.37367308 0.27132845
000340 ea a2 1e 3e 41 3c 14 3e 4c bd 2b 3e f9 4b 56 3e
       0.15491834 0.1447611 0.1677143 0.20927419
000350 44 18 f0 3d 20 3e 53 3e b5 c7 5e 3d b6 e9 7e 3e
       0.11723378 0.20629168 0.054389674 0.24893841
000360 37 3d c1 3d f6 9a fb 3d 4e 7f 00 3e 95 11 2c 3e
       0.09435504 0.12285416 0.12548563 0.16803582
000370 80 e5 8c 3d c4 f6 8f 3e bd 9a e2 3d d7 be 2c be
       0.06879711 0.28117955 0.1106467 -0.16869675
000380 30 96 a0 3e 78 f4 ca 3d d3 7c 15 3e d5 7d f5 3d
       0.31364584 0.0990991 0.14598398 0.11986891
000390 d8 5b 86 3d d5 be 14 3e d9 1a 8b 3b 97 84 37 3e
       0.065604866 0.14525922 0.004245144 0.17921673
0003a0 ca 0f 3c 3d ce d6 85 3d 78 40 05 3e 37 ed ea 3d
       0.045913495 0.06535111 0.13012874 0.114710264
0003b0 3e 6d bd 3e 90 70 bf 3d 62 d5 e5 3d 2b 8f c3 3d
       0.36997408 0.093476415 0.1122234 0.095487915
0003c0 cc 6b 9e 3d a5 a8 b0 3d c8 0d fc 3d b5 92 b7 3e
       0.07735404 0.086259164 0.12307316 0.35854116
0003d0 c9 74 63 3d 0d e4 5a 3d 56 09 3a 3e fd 02 07 3e
       0.055531297 0.053440142 0.18167624 0.13184734
0003e0 c3 d3 31 3e 39 b8 2e 3d 0c f3 f4 bd f2 54 b6 3e
       0.17365937 0.042656157 -0.1196042 0.35611683
0003f0 50 8e 0b 3c 11 80 ce 3e b0 f2 51 3e cb e4 2d 3e
       0.008517817 0.40332082 0.20502734 0.16981809

bn1.weight f4 [400]
000000 e3 73 61 bd b7 c9 8d bb ca 20 e8 bb df 76 b2 b7
       -0.05504216 -0.004327025 -0.007083987 -2.1274607e-05
000010 ce 14 c1 b5 2c 92 94 b6 31 cf bd 3f 13 ad e7 3e
       -1.4385676e-06 -4.4277604e-06 1.4828855 0.45249233
000020 5f f4 20 b9 84 34 24 bc a5 92 2e 3f 45 d6 82 bc
       -0.00015349824 -0.010022286 0.6819251 -0.015971312
000030 e6 93 94 b9 fa fd f3 bb d3 48 24 bc 18 68 08 b3
       -0.00028338953 -0.007446048 -0.010027128 -3.175964e-08
000040 6c e2 05 bc 46 83 60 b7 35 f2 19 b7 ec f4 8c b9
       -0.008171659 -1.3382005e-05 -9.175904e-06 -0.00026885362
000050 17 c8 1b bb bf 27 dc 3b 1e b4 f3 b8 4c 87 bb 38
       -0.0023770386 0.0067186053 -0.000116206924 8.942056e-05
000060 f9 b5 cb 3f e1 7c 25 3b 0c 88 90 bb 6d e5 f2 b6
       1.5914909 0.0025251436 -0.0044107493 -7.2388707e-06
000070 64 3c 28 35 79 e7 79 3f 17 f1 f5 39 ea 54 c3 b8
       6.2672757e-07 0.97618824 0.00046909667 -9.314141e-05
000080 3b ef 35 ba d8 d8 0a b6 87 0a fd b6 c7 18 48 bb
       -0.000694025 -2.0689822e-06 -7.541213e-06 -0.0030532347
000090 23 91 b8 36 c3 93 cc ba cf 2b 18 39 e2 17 3a bc
       5.5005235e-06 -0.0015608001 0.0001451217 -0.011358233
0000a0 99 41 5f b8 5e 53 41 3f c1 4e b5 ba 94 60 15 36
       -5.3228436e-05 0.75517833 -0.0013832675 2.2258946e-06
0000b0 6e 80 98 b3 c6 0c 09 b9 c6 be a8 3f 67 7e b0 ba
       -7.101413e-08 -0.00013070097 1.318322 -0.0013465405
0000c0 8c 48 b2 ba 0d f6 dc b9 bb 84 0f 36 b1 54 5e b6
       -0.0013601943 -0.00042144992 2.138592e-06 -3.3129875e-06
0000d0 47 4b 10 ba 7d af f4 b5 9d 0e 0b b6 06 a0 22 bb
       -0.0005504381 -1.823049e-06 -2.072112e-06 -0.002481462
0000e0 4f 19 80 3b 91 df 17 b5 31 66 8d bc 38 dd e7 b6
       0.003909267 -5.6577215e-07 -0.017260643 -6.9100897e-06
0000f0 45 42 01 16 47 c3 d3 ba e8 03 40 3c 46 bd fb bb
       1.0441448e-25 -0.001615622 0.011719681 -0.0076824753
000100 e7 39 c8 3f 1b 0d 0e ba 69 12 42 b8 c7 bc 83 b9
       1.564267 -0.0005418823 -4.627035e-05 -0.00025126917
000110 24 03 c8 3a c0 44 c1 bc dd ea 8d ba 90 d5 16 3f
       0.0015259725 -0.023592353 -0.0010827441 0.5891962
000120 af be 8b b7 96 ed f3 bc 66 0d 55 3a e7 30 30 b9
       -1.6658885e-05 -0.029776376 0.00081273017 -0.00016802886
000130 03 bf 39 3a 01 d5 8f b6 2b 3b 26 bc 25 cf 64 bc
       0.0007085653 -4.286529e-06 -0.010145943 -0.013965403
000140 2d 45 7c bb af f1 9a bc c4 a7 6d 3f 89 b1 3c b8
       -0.003849338 -0.018914072 0.92834115 -4.4988035e-05
000150 52 53 1b bb b0 b6 e9 b5 8f e1 24 bb 5b 1c 74 bc
       -0.0023700786 -1.7413022e-06 -0.0025158857 -0.014899339
000160 15 4e 46 b9 b7 a7 31 b4 76 88 82 bb c1 69 83 ba
       -0.0001891184 -1.6545424e-07 -0.0039835526 -0.0010026024
000170 a6 a7 0b bb ad 3a 86 3c 3c 5f 17 bc 5c 20 62 bb
       -0.0021309643 0.0163854 -0.009239014 -0.003450415
000180 ea bb 4b b5 d1 01 d6 3b 63 94 55 bb 16 0b 58 bc
       -7.5896844e-07 0.0065309783 -0.0032589666 -0.013186237
000190 b9 fd c7 b9 b6 33 92 bb c5 ba 4c b7 89 60 83 3f
       -0.00038145276 -0.004461731 -1.2202833e-05 1.0263835
0001a0 40 33 8a b9 06 f5 80 3a bf 7a b4 bb 81 2f fa ba
       -0.00026359595 0.0009838648 -0.0055077965 -0.0019087644
0001b0 83 79 11 bb cb 7f 39 3f c9 be f9 b9 a6 05 1f bc
       -0.002219767 0.7246062 -0.00047635127 -0.009705937
0001c0 32 2c 62 bc d8 8c 4b b7 b0 18 83 b8 1b 27 a2 bb
       -0.013804482 -1.2132536e-05 -6.251165e-05 -0.0049485094
0001d0 e7 20 85 bc e9 58 b9 3f 1e 3e 63 b9 d0 13 09 b5
       -0.01625104 1.4480258 -0.00021671547 -5.106531e-07
0001e0 9f e8 4c b8 d9 80 a9 ba 0a 22 09 b8 6f c0 66 b6
       -4.8854035e-05 -0.0012932076 -3.2695047e-05 -3.4384682e-06
0001f0 87 d4 96 ba 09 96 d5 bc 63 eb 66 36 a0 c5 97 ba
       -0.001150743 -0.026072519 3.4409684e-06 -0.0011579283
000200 f1 79 8e ba 48 0d 3b b7 28 0f 84 b8 18 d9 d5 b5
       -0.0010870082 -1.1149161e-05 -6.2970736e-05 -1.5932919e-06
000210 21 58 1b 39 c2 54 cf b7 df 89 70 b9 ea 4b 7c b9
       0.00014814782 -2.4715791e-05 -0.00022939545 -0.00024060873
000220 40 2c 0c 9a bc 49 ba 3f ca 11 44 b7 8b 77 88 b7
       -2.8987066e-23 1.4553752 -1.1686652e-05 -1.626813e-05
000230 ad d0 2f 3a a0 c2 0e ba a1 88 f6 bb 7b 92 49 3f
       0.00067068153 -0.00054458715 -0.0075236117 0.78739136
000240 20 8f 96 b9 47 6b 44 bb 66 c9 c8 bb a9 38 4d 35
       -0.00028716866 -0.002997117 -0.006127524 7.64509e-07
000250 be 23 25 bb 99 77 8a bc 34 6a 3f b6 f4 97 5d b8
       -0.0025198306 -0.016902732 -2.8523036e-06 -5.2832023e-05
000260 84 e7 a5 38 de f4 a1 b6 10 da 0a b9 09 b6 ae b6
       7.910936e-05 -4.82668e-06 -0.0001324194 -5.206796e-06
000270 05 e9 13 b9 78 f2 b1 bc 9e 87 ba b5 b4 35 75 b7
       -0.00014105819 -0.021722063 -1.389755e-06 -1.4615642e-05
000280 ac a1 f2 bc 96 0c 50 36 d7 63 84 ba 1a d1 58 b8
       -0.029618107 3.1001741e-06 -0.0010100555 -5.1693154e-05
000290 57 d7 88 bb f9 03 fe b7 5e d9 95 ba a0 9f a2 b6
       -0.004176061 -3.028101e-05 -0.0011432578 -4.846559e-06
0002a0 4d fb 64 bb 94 67 b9 bc df a0 3e bb 0c 74 cc 3f
       -0.0034939826 -0.022632398 -0.0029087586 1.5972915
0002b0 e7 b9 b5 bb 2d 04 56 b4 17 b7 5a b7 54 eb b8 b9
       -0.005545843 -1.9931822e-07 -1.30364415e-05 -0.00035270548
0002c0 c8 1c b1 bb 43 85 43 36 fb 55 47 ba ff c3 71 bc
       -0.0054050423 2.9134833e-06 -0.00076040596 -0.014756202
0002d0 ed fe 88 bc ab 12 7c b8 51 c9 5c bb d5 3a 4d b9
       -0.01672312 -6.0098868e-05 -0.003368933 -0.0001957224
0002e0 cb b2 db 3f 1f 93 80 b7 31 32 16 ba 23 46 df bb
       1.7163938 -1.5327298e-05 -0.0005729525 -0.006813781
0002f0 30 9a 90 b6 ea c6 c7 34 fa ad 0d 3a f5 6c e4 b7
       -4.309484e-06 3.7211367e-07 0.00054046477 -2.7230455e-05
000300 89 d2 8f bb 23 52 86 bb 04 39 b1 39 27 72 b4 35
       -0.0043891114 -0.004099147 0.0003380255 1.3444268e-06
000310 29 0a 31 35 81 cd cf bb 53 2e ce b8 35 32 53 3d
       6.5952423e-07 -0.0063416366 -9.831474e-05 0.051561553
000320 7e b5 fd b8 80 66 14 b7 ee 62 bd b5 02 1d 33 ba
       -0.00012097786 -8.845353e-06 -1.411039e-06 -0.00068326306
000330 84 48 09 bc 03 45 8d b7 31 20 24 b7 31 43 c3 3e
       -0.0083791055 -1.6840646e-05 -9.782657e-06 0.381372
000340 08 90 32 bc 50 2f 9e b6 9e 9b 40 3d 8b 73 37 bb
       -0.010898598 -4.714275e-06 0.047023408 -0.0027992453
000350 e7 28 0e bd ce c7 0b bb df d6 ab b9 57 f7 a4 3e
       -0.034706976 -0.002132881 -0.00032775753 0.32219955
000360 82 0c 36 b7 25 8a 35 b8 3f 3a bb bc c1 30 c0 34
       -1.0850958e-05 -4.328242e-05 -0.022854922 3.579826e-07
000370 88 16 3d b8 21 5a 01 bb 07 ad 69 38 30 10 58 3c
       -4.5082095e-05 -0.001973756 5.5712673e-05 0.013187453
000380 5d fb 1d b5 09 01 ef ba a5 a7 9a b5 9f ce 73 3d
       -5.885284e-07 -0.0018234561 -1.1522685e-06 0.05952322
000390 c1 35 4c bb b4 73 b2 b8 e0 cd 7b b8 0d 9d 4c b8
       -0.003115997 -8.509253e-05 -6.00348e-05 -4.8783655e-05
0003a0 96 ef 19 bb 5f 9a 50 bc 1e d7 74 bc fd 34 19 11
       -0.0023488752 -0.012732117 -0.014943866 1.20859e-28
0003b0 ed 8b 45 3d b0 e7 2d bc ac 0c cc 3f eb 69 ef 3e
       0.048229147 -0.010614321 1.5941367 0.46760496
0003c0 13 31 2b 39 ce 6d 9d b7 b8 8d ef ba 7a 71 3f ba
       0.00016326112 -1.876699e-05 -0.0018276488 -0.0007302981
0003d0 fd 1c a9 b8 29 33 ad b7 ef 70 e2 b6 dd 10 3f 3f
       -8.0639475e-05 -2.064703e-05 -6.748472e-06 0.74635106
0003e0 6b 00 9f bc ab 62 2e ba 76 c6 83 b9 f8 64 5b 3d
       -0.019409379 -0.0006652276 -0.00025134132 0.05356309
0003f0 24 36 eb ba 84 d2 55 ba 52 73 83 b9 26 86 07 3f
       -0.0017945212 -0.00081566744 -0.00025072187 0.5293907

bn1.bias f4 [400]
000000 1f c5 fd 3c 5a 41 49 bc 09 10 a3 bc 37 e6 10 ba
       0.030977784 -0.012283647 -0.019905107 -0.0005527469
000010 18 50 20 b9 8e ca 40 b9 27 93 92 3c d9 ce ba 3d
       -0.00015288626 -0.00018386004 0.017892433 0.09121484
000020 3d f6 25 bb f8 6b 81 3b a0 ab c3 3d a9 9f 5b bc
       -0.0025323771 0.0039496385 0.09554219 -0.013404765
000030 c5 19 ed bb 8b a9 51 bc c5 99 76 bc ec 31 c2 b6
       -0.007235738 -0.01279677 -0.01505131 -5.787462e-06
000040 46 ed 1d bc 6b 2e 26 b9 23 3c 3b b9 51 e1 67 ba
       -0.00963909 -0.00015848286 -0.00017856112 -0.00088455254
000050 cf 86 b0 bc 9a 24 dd bc 25 c4 23 bb 48 1f 95 ba
       -0.021548657 -0.026994992 -0.0024988737 -0.001137712
000060 a0 a9 5e 3d 2a c9 76 bc 5d 7d 91 3c bd ae bb b8
       0.054360986 -0.01506261 0.017759973 -8.9494024e-05
000070 14 ce c8 b6 54 24 82 3e 6b 92 91 bb 54 a6 a2 ba
       -5.984455e-06 0.2541834 -0.004442503 -0.0012409189
000080 c3 78 b2 ba 05 f2 3a b8 1f a6 94 b8 23 74 1f bb
       -0.0013616312 -4.4571254e-05 -7.0881324e-05 -0.0024330697
000090 f0 2a 49 b7 49 16 0d bb 0c fc 5f 39 65 ee 1c bc
       -1.1990531e-05 -0.0021528176 0.00021360832 -0.009578322
0000a0 ce 7d 5d ba 8d 95 e1 3d 7e 06 4b bb 64 1b 0e b9
       -0.00084492273 0.11014853 -0.0030979211 -0.00013552379
0000b0 c4 63 9b b7 89 11 c6 bc d6 5e 5b 3e c3 65 4e bc
       -1.8523897e-05 -0.024178283 0.21422896 -0.012597504
0000c0 49 22 87 bc ba 11 04 bc a7 28 fc b7 59 6d 0c b8
       -0.01649584 -0.008060867 -3.0059671e-05 -3.348044e-05
0000d0 6f 17 98 bc 4b f3 01 b8 75 49 06 b8 cd e6 9f bb
       -0.018565862 -3.098258e-05 -3.20165e-05 -0.0048798085
0000e0 e6 22 ce bb 0e 16 aa b7 d6 4e 86 bc b1 15 3e b9
       -0.0062907813 -2.027585e-05 -0.016395014 -0.00018127893
0000f0 cb e4 69 96 f2 a6 8d bc 3a 63 3a 3d 3a c9 1f bc
       -1.8893784e-25 -0.01729152 0.045504786 -0.009752566
000100 51 b5 01 3e 1b 8d 40 bb b2 ab af b9 c1 2c 97 bc
       0.12666823 -0.002938098 -0.00033506524 -0.018453958
000110 2f ed 38 bc 66 d8 22 bc d5 3b a6 bc 90 9e 2d 3d
       -0.011287018 -0.009939289 -0.020292202 0.042387545
000120 c1 bc ea b9 af a3 18 bd 31 10 2e bc 67 6b 6a ba
       -0.0004477259 -0.037265476 -0.0106239775 -0.0008942396
000130 cf af 36 bb 20 f9 8e b8 ea 55 a1 bc f8 d1 e8 bc
       -0.0027875786 -6.817491e-05 -0.019694287 -0.028420433
000140 e9 9c 91 bc 45 58 f7 bb 62 da d2 3d 34 ba b3 b9
       -0.017775016 -0.0075483643 0.102955595 -0.00034280273
000150 22 07 b2 bb be f3 b3 b7 dd a0 10 bd e3 b5 d9 bc
       -0.005432979 -2.1451964e-05 -0.03530966 -0.026575988
000160 95 8e 9a bb 11 06 6e b6 c7 eb 87 bb 33 5b 45 bc
       -0.004716704 -3.5468295e-06 -0.00414798 -0.012045669
000170 51 ae 7f bb b2 22 e5 3c 4a ac d8 bc f9 08 58 bc
       -0.0039013813 0.027970646 -0.026449341 -0.013185733
000180 4f d1 12 b9 27 6e 95 3b 1c 0d 03 bd b7 b9 c4 bc
       -0.00014001619 0.0045602503 -0.031994924 -0.024014337
000190 5f 8e 24 bc da e2 b3 bc 52 4f 9a b9 1d 92 1e 3d
       -0.01004371 -0.021958757 -0.00029432267 0.038713563
0001a0 7a b0 28 bb 29 ed 60 bc 85 15 8b bc 45 df 03 bb
       -0.0025739954 -0.013728418 -0.016978035 -0.0020122093
0001b0 6a 02 dc bb 9f e8 69 3d 0f ea cd bb a8 b5 a9 bc
       -0.006714155 0.05710661 -0.0062840055 -0.020716503
0001c0 15 68 bf bc b6 e4 0a b9 12 bf 49 bb 0b f3 c0 bc
       -0.02336506 -0.00013245907 -0.0030784053 -0.023553392
0001d0 12 4c be bb f9 7a 91 3e eb 29 d6 bb b8 ec 3e b7
       -0.005807408 0.28414133 -0.0065357587 -1.1379998e-05
0001e0 e1 74 cd bb 8d 76 59 bc 90 14 7b ba 0c b9 8c b8
       -0.0062700366 -0.013272894 -0.0009577954 -6.710188e-05
0001f0 e6 d7 3b bc 00 4a 0e bd 7c 86 4d b9 ff b5 f9 bb
       -0.011465048 -0.03473854 -0.00019600423 -0.0076205726
000200 a1 5e eb bb 00 01 99 b8 68 a5 78 b9 f7 69 c5 b7
       -0.0071829115 -7.295795e-05 -0.00023712742 -2.3533574e-05
000210 43 1d 2a bb 08 1b e9 b9 51 3b 2c bb 8e 36 da bb
       -0.0025957383 -0.00044461363 -0.0026280473 -0.0066593355
000220 8c 19 26 9b ce e4 3b bd a9 b7 67 b8 1d eb 6b b9
       -1.3739453e-22 -0.045872502 -5.524574e-05 -0.00022498933
000230 d3 7f 31 bc ad 6f e4 bb f1 0f b3 bc e9 b4 12 3e
       -0.010833698 -0.0069713206 -0.021858187 0.14326824
000240 da 3b 2b bc b7 62 99 bc 03 6c bd bb 17 6b fc b7
       -0.010451281 -0.018723829 -0.0057806983 -3.0090609e-05
000250 6f 81 71 bc da c7 db bc fe 82 20 b9 5f 99 a3 b9
       -0.014740332 -0.026828695 -0.00015307587 -0.00031204053
000260 23 00 d6 b8 9a 68 d3 b9 7a 21 a8 bb 0b a5 49 b8
       -0.00010204341 -0.0004032299 -0.005130944 -4.8075843e-05
000270 3c 0d 83 ba ba c3 bb bc 10 f9 3e b8 2a 3f e5 b9
       -0.0009998451 -0.022920478 -4.5531488e-05 -0.00043725345
000280 17 89 cb bc a3 5c 8d b8 fe 44 e2 ba 27 2e 20 ba
       -0.024845643 -6.740659e-05 -0.0017262993 -0.0006110393
000290 39 62 ae bc 8a f6 f1 b9 2d 08 14 bc 6c 3e cb b8
       -0.02128707 -0.00046150788 -0.009035152 -9.691421e-05
0002a0 57 58 93 bc 91 f7 58 bc bb 5d cd bc e3 5f 2c 3d
       -0.01798646 -0.013242618 -0.025069108 0.042083632
0002b0 fc 44 b8 bc 4c 23 6e b6 c6 fc d0 b8 72 4d e0 ba
       -0.022493832 -3.548531e-06 -9.9652956e-05 -0.0017112924
0002c0 77 b3 bc bc f1 6b b4 b7 11 23 24 bc ac 28 5b bc
       -0.023034794 -2.1507936e-05 -0.010018126 -0.013376396
0002d0 dc fd 81 bc 64 13 c1 b9 0f fe 0c bc d7 49 ea bb
       -0.01586812 -0.00036826276 -0.008605494 -0.0071499157
0002e0 33 1f 2c 3d fe c1 d3 b8 95 b9 18 bb b7 67 a1 bc
       0.04202194 -0.00010097398 -0.0023303975 -0.019702775
0002f0 29 17 07 b9 5a a6 34 b8 46 f6 30 bb 18 0f b7 b9
       -0.00012883231 -4.307027e-05 -0.002700226 -0.00034915726
000300 a7 7b 94 bc e0 3f 3f bc 34 5e b3 bb 06 13 be b7
       -0.018125368 -0.011672944 -0.0054738764 -2.2658623e-05
000310 a0 a8 0a b7 0d 5f 9b bc cd d7 1c bb 97 a9 1b 3d
       -8.264702e-06 -0.018966222 -0.0023932338 0.03800353
000320 c3 bf 77 bb 57 20 a8 b9 82 f8 6d b9 6e 51 2c bc
       -0.0037803508 -0.00032067552 -0.00022694658 -0.010517461
000330 5c 12 8a bc 42 4b 60 b9 56 f6 47 b9 ea 96 ab bd
       -0.016854458 -0.0002139034 -0.00019069886 -0.08378394
000340 6e 21 40 bc cd 4a be b8 ee 5f b6 3d b6 b0 31 bb
       -0.01172672 -9.073839e-05 0.08905016 -0.0027113385
000350 9d de e2 bc d4 85 60 bc 9d 3b f2 bb 88 1f bb 3d
       -0.02769404 -0.013703782 -0.0073923604 0.091368735
000360 ad d2 55 b8 f7 b2 25 ba 99 7f e2 bc 92 c6 24 b7
       -5.0979364e-05 -0.00063209183 -0.027648734 -9.821395e-06
000370 6e 0f 22 ba 9a 51 9f bb 27 df e8 ba 70 47 16 3d
       -0.0006182109 -0.0048620226 -0.00177667 0.03668922
000380 08 aa c5 b7 c2 c5 c2 39 12 c9 24 b8 de 30 79 3d
       -2.3563407e-05 0.00037149905 -3.928791e-05 0.06083762
000390 e9 43 9b bc 45 51 15 ba 00 f3 47 ba a1 96 3d ba
       -0.01895328 -0.0005696009 -0.00076274574 -0.0007232223
0003a0 63 aa 21 bc bc 85 23 bc 82 bc db bc 86 8c 23 91
       -0.0098672835 -0.009980615 -0.026823286 -1.2901735e-28
0003b0 b6 1d c8 bc c0 90 ab bb fe ca d5 3e f6 34 5c 3e
       -0.02442823 -0.0052357614 0.41756433 0.21504578
0003c0 0c 04 b4 bb c3 9e e2 b9 08 e4 c6 bb 4b 38 eb bb
       -0.0054936465 -0.00043224366 -0.006069664 -0.0071783415
0003d0 f5 f7 04 ba ee 41 c9 b9 0b 39 cf b8 bd 10 94 3e
       -0.0005072349 -0.0003838683 -9.881154e-05 0.2891902
0003e0 86 48 45 3a 23 c8 d8 bb ed a5 4c bb 26 33 20 3d
       0.00075257604 -0.006615655 -0.003122683 0.03911128
0003f0 f0 0b 3a bc 7c 76 20 bc dd 57 88 bb 7a d3 f5 3d
       -0.011355385 -0.009793874 -0.0041608647 0.120032266
