tmp/ddpg/target_critic_ddpg.pth (torch, 507042 bytes, 11 tensors)

fc1.weight f4 [400, 6]
000000 ce 4b 6e 3d ab a8 2f 3c 97 80 51 3d 2b 26 ae be
       0.05817776 0.010721366 0.051148023 -0.34013495
000010 7f 9d 67 be 02 bd a0 be 0f c9 c3 3c 22 40 f2 3c
       -0.22618674 -0.31394202 0.023899583 0.029571597
000020 e7 8a c4 3d e2 ce 59 3e 47 4c 72 be b6 24 29 be
       0.09596806 0.21270326 -0.2366191 -0.1651791
000030 e8 ae 18 3d 01 b9 09 3d d3 00 3b be 28 30 2b be
       0.03727618 0.0336237 -0.18262033 -0.16717589
000040 c4 1c c6 be 73 cf df bf af 75 29 3d d8 2c 87 3c
       -0.3869382 -1.7485183 0.041371997 0.016500875
000050 c9 c6 2e 3e ac 22 1f be 46 ca 3d 3e 23 aa 98 be
       0.17068018 -0.1554057 0.18534192 -0.29817304
000060 4e 4d ba bb 75 3d 52 3d 7f 76 ba 39 af 8d 33 3e
       -0.005685485 0.05132814 0.0003556497 0.17534517
000070 a7 46 3a 3e 53 7e 98 3f 40 2d 13 3d c3 ae f0 3c
       0.18191014 1.1913551 0.035931826 0.029380208
000080 5c 77 cf 3b 2b d2 52 3e 12 a5 c1 be 75 a5 c8 be
       0.0063313674 0.20587985 -0.3782125 -0.39188734
000090 67 4f 05 3d 87 a6 b9 3c de 5c 09 3d d4 1b 55 3d
       0.032546427 0.022662414 0.03353583 0.052028492
0000a0 a0 19 47 3e c5 e7 9b bf 5c 78 3f 3d 73 54 2b 3c
       0.19443369 -1.2180105 0.046745643 0.010457146
0000b0 93 f2 8f bd 80 16 02 3e 53 8a 53 3e e0 7b 39 3f
       -0.07028689 0.12703896 0.20658235 0.72454643
0000c0 56 6b 2c 3d b9 06 90 3c 33 e4 64 3d e0 5a 86 3d
       0.04209455 0.01758133 0.05588169 0.06560302
0000d0 f7 4d a9 be 66 9b 73 be e9 d1 42 3d 8d eb a5 3c
       -0.33067295 -0.23789749 0.047563467 0.02025392
0000e0 4d c9 20 3e e0 82 64 3e b7 76 08 be 10 18 a2 be
       0.1570179 0.2231555 -0.13326536 -0.31658983
0000f0 bc ed 82 3d 64 48 a6 39 df 48 14 bc 35 04 d7 3d
       0.063930005 0.00031715923 -0.009050577 0.10498849
000100 17 03 14 3e 1a 9e 16 3f 17 e0 17 3d 70 08 90 3c
       0.14454304 0.58834994 0.037078943 0.017582148
000110 14 3d 51 3d e9 76 71 3d 8c fa 7b 3e 13 1a 91 3f
       0.05108364 0.058951292 0.24607295 1.1336082
000120 49 8b 75 bc 05 83 5f 3d 1c 8e 84 3e 0d c8 a7 3d
       -0.014986821 0.05456831 0.2588967 0.081924535
000130 fe 25 83 3e 80 81 6f bf 90 e0 66 3d 77 f8 3c 3b
       0.25614923 -0.93556976 0.056366503 0.002883462
000140 c7 5b 71 be ab b0 16 be 73 69 f6 bd 4c 0d 24 bf
       -0.23570167 -0.14715831 -0.120318316 -0.6408279
000150 64 42 7a 3d 96 32 bc 3c 46 29 51 be 94 3a 4d 3e
       0.06109847 0.02297334 -0.20425901 0.20041877
000160 52 5e 71 3d e4 5e e9 be 42 62 93 bc f2 96 8b 3d
       0.05892784 -0.45580208 -0.017991189 0.068159
000170 91 31 1d bd f1 45 31 be 6b 13 c2 3d 47 4a c5 be
       -0.03837735 -0.17311837 0.0947636 -0.38533232
000180 0e 44 16 3c 34 39 04 3d 21 7a ab 3d 8d f2 3c 3e
       0.009171499 0.032281116 0.083729036 0.18451901
000190 b1 7c 66 3e 8a d6 42 bf 71 37 3f 3d 6a 9e 8e bc
       0.22508503 -0.7610861 0.046683732 -0.017409522
0001a0 9b dc 85 3e 57 e1 04 3d 28 da cc be 8b e5 01 3f
       0.2614487 0.032441463 -0.4001019 0.5074088
0001b0 e3 ad 26 bb 02 a8 4a 3d ef 11 1c 3e 1a dc 90 be
       -0.0025433234 0.04947663 0.15241216 -0.28292924
0001c0 27 0e 26 3e 29 4d eb 3d a5 2a 90 3d 52 e5 31 bc
       0.16216336 0.114893265 0.07039384 -0.010857897
0001d0 8d bf 82 be 78 ca b0 bc 3c 24 8b bd db 74 36 bf
       -0.25536767 -0.02158092 -0.067940205 -0.7127206
0001e0 16 a2 62 3d 33 d9 8c 3c 27 57 17 3e c4 03 93 3e
       0.05533036 0.017193412 0.1477934 0.2871381
0001f0 be b4 00 be 06 a7 14 3f c4 3b 9f bc 10 d4 2d 3d
       -0.12568948 0.5806736 -0.019437678 0.042438567
000200 34 9e 28 be 57 76 a4 be 8a 33 3d 3e 15 95 88 3e
       -0.164666 -0.32121536 0.18476692 0.2667624
000210 99 e8 11 bc 48 01 85 3d e1 f4 c1 3d 14 20 43 be
       -0.008905553 0.06494385 0.09470535 -0.19055206
000220 6d a8 e3 bd 11 7d b2 bd 26 71 15 3d fa ce a1 3c
       -0.11116109 -0.08715261 0.03648486 0.019752014
000230 43 2a 5a bd 9a 17 b7 3e 39 13 03 bc cc 41 bf be
       -0.05326296 0.35760194 -0.0080001885 -0.37354887
000240 96 5a 95 3d 6a d7 01 bc 23 4d 1f be a8 59 84 3c
       0.072926685 -0.007924894 -0.15556769 0.016156033
000250 bb a4 59 bd b0 8a ec be c1 b5 cb bc 58 85 9a 3d
       -0.053135615 -0.4619956 -0.02486694 0.075449646
000260 7f a4 f4 bd b0 a6 8b bc 13 90 0a 3e 6f 2a ed 3e
       -0.11945438 -0.017047256 0.13531522 0.46321437
000270 03 48 44 3b 01 1f 59 3d 64 ab 45 be 7c d7 64 be
       0.002995015 0.053008083 -0.19303662 -0.22347826
000280 5c 4f 8a bd 9e 71 dc bf a8 26 18 3d 20 f6 d9 3c
       -0.06753418 -1.7222173 0.03714624 0.02660662
000290 0d fa 3b bd 4b 31 c5 3e 9e 0a 26 be ca 70 f9 3e
       -0.045892764 0.3851417 -0.16214988 0.48718864
0002a0 e0 f0 8b bb 15 84 5a 3d 89 21 ad 3d 12 19 d4 be
       -0.004270658 0.05334862 0.08453662 -0.41425377
0002b0 0b d0 64 3e a8 04 1b be a7 9b 1a 3d b3 17 9b 3c
       0.22344987 -0.15138495 0.037746098 0.0189322
0002c0 89 f7 67 bb df dd 1e 3e e7 c5 48 3e 3b 6d 8f 3e
       -0.0035395345 0.15514325 0.19606744 0.28013024
0002d0 19 a3 2d 3d 02 ea 83 3c ba e2 cd be 0f 98 83 3d
       0.04239187 0.016102795 -0.4021204 0.06425487
0002e0 2b 97 82 3d 7f 37 c0 be bb 23 22 3d 2b 3f 85 3c
       0.06376489 -0.3754234 0.039584856 0.016265472
0002f0 5b 0e ec 3d 90 2e 13 be f6 b5 a7 3e 1c 45 cb 3e
       0.115261756 -0.14373231 0.32756013 0.39701164
000300 06 cd 57 3d d6 a4 7a 3c a5 21 1f be d3 ec c6 3d
       0.05268576 0.015298089 -0.15540178 0.097131394
000310 1c 89 88 3d e2 a1 28 be 97 43 92 3d f8 dc 44 3c
       0.066667765 -0.16468003 0.07141798 0.012015574
000320 fb 93 84 be 54 be 7d 3e b1 34 d4 be b4 95 a9 3e
       -0.2589415 0.24779636 -0.4144645 0.33122027
000330 e2 6c 33 3d f3 a1 a8 3c 73 5d c5 be af d3 43 be
       0.04380501 0.020585036 -0.3854786 -0.1912372
000340 d0 6d 14 be 47 b2 8a 3d 9f 3f 12 3d e7 db 40 3c
       -0.14495015 0.06772285 0.035705205 0.011771179
000350 7e 32 ea be 8b d0 02 bd 79 1e f6 be f0 75 d9 be
       -0.45741647 -0.031937163 -0.48070124 -0.42472792
000360 48 5f dc 3b d1 cc 4b 3d 10 bd e4 3e fe ca 1e 3e
       0.0067252256 0.049755875 0.44675493 0.15507123
000370 11 56 0a bf 50 c2 c0 3c 98 31 08 3d 24 e8 b5 3c
       -0.54037577 0.023530155 0.03325042 0.02220542
000380 99 d9 0d bd 5f 91 81 be 78 ad 38 bd c5 43 0f 3f
       -0.034631345 -0.25306222 -0.045087308 0.55962783
000390 fd 00 92 bc 91 13 89 3d 66 93 ea 3d 4e 9e 18 3d
       -0.017822737 0.06693185 0.11453895 0.037260346
0003a0 3e a0 58 3b b9 16 8f 3e 16 6f 17 3d 87 34 c7 3c
       0.0033054496 0.27947024 0.036971174 0.02431704
0003b0 76 9a 7c 3d b6 5c b6 3e e0 49 9e bd e9 dc 3f 3f
       0.061670743 0.35617608 -0.07728934 0.7494646
0003c0 65 25 6d 3d 36 ca 9f 3b 87 2c 7e bd 23 b4 c9 bd
       0.05789699 0.0048764003 -0.062054183 -0.098488115
0003d0 c6 01 17 3e 84 81 ab bd 6e fd 45 3d 85 b2 9d 3c
       0.1474677 -0.083743125 0.048337393 0.019250164
0003e0 be ea bc bd 72 cb ad 3e 80 d8 f3 bc 01 ca 37 bf
       -0.09224461 0.3394428 -0.029766321 -0.7179261
0003f0 37 00 03 3d f5 cb b4 3c 2d e5 b5 3e 23 26 cb bd
       0.031982627 0.02206991 0.3552641 -0.099193834

fc1.bias f4 [400]
000000 8f 84 92 be c6 f2 ce 3e d6 cd 40 be 73 bb 42 3d
       -0.2861676 0.40419596 -0.1882852 0.047542047
000010 b2 20 b1 3e 5f fe 5e 3e aa 9d fe 3d d2 42 94 bb
       0.34595257 0.21776722 0.12432416 -0.004524567
000020 74 62 bb bd 54 a0 8e bc fc e9 c0 be de 42 c4 3e
       -0.09149638 -0.017410435 -0.37678516 0.38332266
000030 4b a9 33 3e ed cc 84 3e d4 5a e9 bc d0 d0 48 bf
       0.17545049 0.25937596 -0.028485693 -0.7844362
000040 f5 fb bc 3d 3f fd e1 3e ad f2 91 bd eb e0 2c 3e
       0.092277445 0.44138524 -0.07126365 0.16882674
000050 aa 2e cd bc a1 e4 7d 3d bb 8b 43 be f8 e9 bb be
       -0.025046665 0.061985616 -0.19096272 -0.36701941
000060 d0 b0 89 3e 45 49 12 be ec f7 04 3e 48 1a d9 3e
       0.2689271 -0.14285763 0.129852 0.42402864
000070 26 dd 8a 3c 39 9a 9d 3d 3a 38 87 3e ad 26 98 3c
       0.016951155 0.07695431 0.26410085 0.01857313
000080 7c c2 2e bf 49 34 27 3e 23 29 0f 3f a5 b5 aa 3e
       -0.6826551 0.16328539 0.55922145 0.3334171
000090 4e c3 0c be 02 54 7e be 6f 36 a2 be 6e 42 eb 3d
       -0.13746378 -0.24836734 -0.31682155 0.1148728
0000a0 e3 14 e3 be 01 d2 39 3e 71 80 a1 3e d1 90 3b 3b
       -0.44351873 0.18146516 0.31543306 0.0028620253
0000b0 e4 31 2e 3e df 62 9a bd c8 8e 9d bd 7f 78 e7 3d
       0.1701122 -0.075383894 -0.07693249 0.1130228
0000c0 55 0b a1 3e 68 f2 da 3e 5a 39 9c 3e 2a b3 6e be
       0.31453958 0.42763066 0.30512506 -0.23310533
0000d0 a8 69 ac be f9 bf 90 3e 8b 15 92 3e 77 95 01 be
       -0.3367436 0.28271464 0.2853206 -0.12654673
0000e0 d1 61 a7 3d 3f f8 41 3e b4 43 6b be a5 b5 56 bd
       0.08172954 0.18942355 -0.22975045 -0.052419323
0000f0 16 d5 53 3e da 1e 01 3e 88 e1 71 bd da 1e 22 3e
       0.20686755 0.12609425 -0.059052974 0.15832081
000100 d7 05 b9 bd 07 c5 20 3d 7d 9c 48 3e 7b 7f d5 3e
       -0.09034317 0.0392504 0.19590946 0.41698822
000110 5c b0 e8 3e 5e 2c 98 be c9 14 49 be b5 8a 66 be
       0.45447052 -0.2972135 -0.19636835 -0.2251385
000120 e9 0d 8c bd e5 ae 4c be 61 f4 5d bd 13 6b 8f 3e
       -0.06838591 -0.19988592 -0.054188136 0.2801138
000130 14 91 90 3e 36 bc 9d 3e b7 70 18 bf e4 3b d9 be
       0.28235686 0.30807656 -0.5954699 -0.42428505
000140 40 91 13 3e 33 bb e6 bb 10 27 8d 3e 60 0c b4 bd
       0.14410877 -0.007041359 0.27568865 -0.08791423
000150 b5 9d ef 3c 54 9b a6 be ba 92 65 bd 0d 63 d4 3e
       0.029250005 -0.3254038 -0.056048132 0.4148182
000160 71 57 56 3e 58 21 a6 3d bc 69 64 be a4 b5 0c bf
       0.20931794 0.081118286 -0.2230596 -0.5496466
000170 b8 9c 90 be c7 56 ef 3e b5 84 12 3e 7f e8 ab bd
       -0.28244567 0.46745893 0.14308436 -0.083939545
000180 37 83 ea be 05 78 4b 3e 5f 4f 97 be 11 dd ca 3e
       -0.45803234 0.19870003 -0.29552743 0.39621785
000190 a5 5c a7 3c 46 5d 7d be a8 75 bf bd dd cd fb 3e
       0.020429919 -0.24742612 -0.09348613 0.491805
0001a0 56 ab 24 3e b5 f1 fb 3d 70 59 55 be 88 43 56 3d
       0.16080984 0.12301961 -0.20834899 0.052310497
0001b0 ad 4e ee be de 3c 57 bd ad 11 55 be 7f c7 55 3e
       -0.465444 -0.05254828 -0.20807524 0.20876883
0001c0 e2 2e 98 3e be 8f 30 3e d7 3f 6d 3d 50 aa 47 3e
       0.2972327 0.17242333 0.05792221 0.19498563
0001d0 25 0d c0 3e 3d 22 5a 3e bc c9 04 be fa 83 d7 3e
       0.37510028 0.21302123 -0.1296758 0.42092878
0001e0 07 46 ec 3d 49 09 7f 3d 5c d3 3e be 9b 42 1d be
       0.11536794 0.062264714 -0.18635315 -0.15357439
0001f0 11 b0 6d 3c 21 7f 97 3e 2a 18 b9 bd da a6 50 bd
       0.0145073095 0.2958918 -0.09037812 -0.050940372
000200 3e d1 01 bf 3b 1a 59 be f4 cd 7d be c6 e0 c2 3e
       -0.50709903 -0.21201412 -0.24785596 0.38062114
000210 8b 04 07 bf 43 fa 9e be 7e c8 a7 3d eb ee cf 3e
       -0.5274131 -0.3105031 0.08192538 0.40611967
000220 c8 1c d7 be bd 97 9e 3e 43 c4 a2 3b 86 99 46 3e
       -0.42014146 0.30975142 0.004967244 0.19394502
000230 c4 1b 96 3e bb 50 f3 be a7 c6 7e 3d c6 0d ae 3e
       0.29318058 -0.4752253 0.06220117 0.33994883
000240 c5 8d 79 bc 26 af 59 3e b2 ca 48 be bb f2 21 bf
       -0.015231554 0.2125822 -0.19608572 -0.63261
000250 12 4f b2 3d 35 1a 8e 3e 18 79 9d be 98 e3 01 3f
       0.08706488 0.2775437 -0.3075645 0.50737906
000260 35 4a 29 3e e0 21 00 3e 21 12 1e 3e 37 a3 37 be
       0.16532214 0.12512922 0.15436603 -0.17933355
000270 85 ad 18 be 8b 8e d5 bb 46 c7 15 be d0 18 09 bf
       -0.14909942 -0.0065172366 -0.14626798 -0.53553486
000280 df 96 c7 3c 7a 10 e9 3d b1 77 cf 3e 16 7a c7 3d
       0.024363933 0.11380096 0.40521005 0.09740083
000290 42 f9 00 3f 0f 7c 96 be de 6b 27 be a5 39 c5 be
       0.5038034 -0.29391524 -0.16349742 -0.38520542
0002a0 e5 2c 29 3e 26 6f 3f 3e 06 a1 da be bf 53 15 bf
       0.16521032 0.18694744 -0.42700976 -0.5833091
0002b0 dd b5 58 bd 9c a2 c2 3e f5 0a 8e bd f3 d1 31 bd
       -0.052907813 0.38014686 -0.06935684 -0.043413114
0002c0 ae 8f 8e 3d b9 c4 2d 3e af ae 9a 3e 7a 7c 2c 3e
       0.069609985 0.16969575 0.30211398 0.16844359
0002d0 88 ce 30 be 9e 4b 1a 3d 27 f8 d2 3e 3f aa 5f 3e
       -0.17266285 0.03766977 0.4120495 0.21842287
0002e0 d0 f4 9d 3d 25 eb 72 3e 2a e4 aa bd 73 63 78 3e
       0.0771271 0.23722513 -0.083443 0.24256687
0002f0 75 3b f7 3e ed d5 23 3e 8c 65 0f bd f0 b7 04 3e
       0.4828755 0.15999575 -0.035008952 0.12960792
000300 18 1d c3 3e 48 b9 9f 3c 3a ae e5 3e 78 97 c5 be
       0.38108134 0.019497529 0.44859487 -0.38592124
000310 cc 3e d7 3d af ea 1e be 34 94 49 be 83 2d 5d 3e
       0.105100244 -0.15519212 -0.19685441 0.21599393
000320 d2 89 9c 3e 9f 90 a7 3e 14 94 5b 3d 44 03 b3 3c
       0.305739 0.32727525 0.053608015 0.021852143
000330 7b fc a3 be f0 78 d7 bd 00 6c 13 bd 88 37 15 bd
       -0.32028565 -0.10521114 -0.03599167 -0.03642991
000340 a7 6f 53 be 0c 25 64 be 4a 46 f9 3e 34 1d 44 3e
       -0.2064806 -0.22279757 0.4868644 0.19151765
000350 6c 18 43 bd 6d 51 82 be 15 0d a5 be be 23 54 be
       -0.047630712 -0.25452748 -0.32236543 -0.2071676
000360 af d2 5c 3d f0 08 fa 3c bc ee d2 bd 6f fa 83 3d
       0.05391186 0.03052184 -0.10299441 0.06444251
000370 33 13 64 be 4c 3c 4f 3e ac 64 0c 3f 08 8b 26 be
       -0.22272949 0.20237845 0.54841113 -0.16263974
000380 b2 b2 8e 3d b3 cb 85 3e 1e 1f 72 bd b0 cc cf be
       0.06967677 0.26131973 -0.059111707 -0.40585852
000390 e4 00 8d 3e f8 89 22 be fa bd ed bd 5e 11 a0 3c
       0.27539742 -0.15872943 -0.11608501 0.019539531
0003a0 69 38 bb 3e 22 14 ca 3e 72 70 c7 be 08 42 9d bc
       0.36566475 0.39468485 -0.38952976 -0.019196525
0003b0 d0 9c 88 bd cc 7e e0 bd 2f da 97 bd 48 31 0e bd
       -0.066705346 -0.109616846 -0.07414662 -0.034714967
0003c0 46 4c 00 3f eb da ee b9 a5 78 e0 bd e6 c7 38 be
       0.50116384 -0.00045558004 -0.10960511 -0.18045005
0003d0 a0 3e c4 be 1c 73 a9 3e 0e b6 71 be 83 58 f2 bc
       -0.3832903 0.33095634 -0.23604605 -0.029583221
0003e0 02 99 2a be c4 ec 15 be 13 44 92 3e a7 b0 08 bf
       -0.1665993 -0.146411 0.28567562 -0.5339455
0003f0 7c a0 45 3d d8 1e 2e be ee 7a e1 bc 08 8f 48 3e
       0.048248753 -0.17003953 -0.027524438 0.19585812

fc2.weight f4 [300, 400]
000000 c4 f5 50 3d 65 63 9c bd 98 13 98 3c af 28 7c 3d
       0.05101563 -0.076361455 0.01856403 0.061562236
000010 71 6c f1 3c 8d 83 23 3d 20 43 50 bc b7 4d fc 3d
       0.029470654 0.03992038 -0.012711316 0.123195104
000020 72 cc 93 bd 54 5d d0 3c 1f 2b 8e 3d cf 14 65 bc
       -0.07216729 0.025435127 0.069418184 -0.013982012
000030 63 2b 86 3d d8 dc 3f bd 5f d5 b8 bc b2 34 9f 3e
       0.06551244 -0.046841472 -0.02256268 0.3109489
000040 39 d4 cf bb c7 c6 ed 3d 81 f1 e1 bd 36 00 0e bd
       -0.0063424376 0.116101794 -0.11032391 -0.03466817
000050 28 f0 15 3d 24 6b 17 3e e0 5b 0d b9 64 c8 06 bd
       0.036605984 0.14786965 -0.00013481034 -0.03290595
000060 8e b5 6b bd e8 ad dd bc fe af 3f 3d dc 55 08 3d
       -0.05754619 -0.027060464 0.0467987 0.033285007
000070 3f e2 19 be 03 0f 54 3c 6f 9f 86 bd 49 cc e5 3c
       -0.15027712 0.012943032 -0.06573378 0.028051512
000080 bb a5 e1 3b 8f 2b 28 bd da f8 58 bd 8b 84 f4 bc
       0.0068862117 -0.041057166 -0.0529717 -0.029848358
000090 98 60 3a bc 5a 1f c1 bd 16 b9 4a 3d 95 a4 87 3d
       -0.011375569 -0.09429808 0.049492918 0.066231884
0000a0 50 56 c5 3c fc 31 83 ba 2a 21 b6 bc af 7e b2 3c
       0.024089009 -0.0010009403 -0.02223261 0.021788923
0000b0 b8 c3 d2 3c 3c 7d 24 3b 53 8a de bc 5e 4d 06 3e
       0.025728092 0.002509906 -0.027165568 0.1311545
0000c0 bb c5 d1 3d c0 21 69 3d 3e 73 22 3c 32 7f ef 3c
       0.10242792 0.056916952 0.009915171 0.029235456
0000d0 77 cc 84 3d 2f d1 cb bb c1 ab 82 bd 72 98 c7 3d
       0.06484311 -0.006220005 -0.06380416 0.097458735
0000e0 d9 52 ad 2e 7c a7 9c bc 08 7a c7 bd cf 55 27 3e
       7.881846e-11 -0.019122832 -0.097400725 0.16341327
0000f0 40 7c bf bc 9a 86 2d bd 91 b5 c0 37 e1 c9 28 bc
       -0.023374677 -0.042364694 2.2972732e-05 -0.010302038
000100 5c a4 a9 3d a5 3d 0f 3e ae ed ac 3d da c1 f7 bd
       0.08283302 0.1398836 0.08443771 -0.12097521
000110 b9 2b 74 3c 61 1a 7f 3e 36 49 77 bd f0 56 4a bd
       0.014903002 0.24912407 -0.060372554 -0.049399316
000120 a2 89 33 34 7f dc 17 3e 96 35 12 b7 3d fe 9a bd
       1.6720745e-07 0.14830206 -8.714755e-06 -0.07568023
000130 66 7d b4 3d 27 fd 70 bb 1c ee 7c 3e 1e d0 b3 bb
       0.0881298 -0.0036771984 0.24700207 -0.005487456
000140 5a 36 30 3d 44 4f 56 bb 1e 32 07 3d 58 af 4e 3e
       0.043020584 -0.0032701055 0.03300678 0.20184076
000150 6c 72 74 bc a4 d3 8d 3d 5d e5 b0 3c 6d 85 57 bb
       -0.014919858 0.06925133 0.021593744 -0.0032885924
000160 49 db 5f 3e 7c 89 2a 3c 74 d5 65 bc d0 52 36 3d
       0.21860994 0.010408755 -0.014027942 0.04451257
000170 86 ee c8 bd 4d 20 01 bd 5d 01 0f bc 5b a4 0a bd
       -0.0981112 -0.031524945 -0.008728352 -0.033848148
000180 a5 38 d3 3c 72 bb 17 bd 60 3a e8 3d 29 08 db 37
       0.025783846 -0.037043996 0.11339259 2.6110634e-05
000190 ef d5 33 3d 76 1d 03 bc 23 de 01 3d b3 bd af 3c
       0.043905195 -0.0080026295 0.031705987 0.02145276
0001a0 44 d3 64 bd e9 48 8d 3c a8 d8 2a be eb 3b 00 3d
       -0.05586554 0.01724668 -0.1668421 0.031307142
0001b0 b4 b4 e1 3c 59 23 34 37 45 9b 1b be 8d 2d 0f bd
       0.027551986 1.0737066e-05 -0.1519595 -0.03495555
0001c0 4d 85 3d bc f8 de 19 3c 3f e3 91 3d f7 4d 36 3d
       -0.011567426 0.009391539 0.07123422 0.044507947
0001d0 dc cf 83 bd 36 d9 1a 3d 69 8c de 3c 64 59 e9 3d
       -0.064361304 0.037804805 0.027166562 0.11394003
0001e0 b4 2b 5a 3d 2c db 24 3c eb c7 03 3d 63 00 0b be
       0.053264335 0.01006202 0.03217308 -0.13574366
0001f0 a8 a8 81 3d 73 95 b2 ba 32 97 c0 3d ef b7 85 3c
       0.06330997 -0.0013624862 0.09403838 0.016323058
000200 f4 ef 3f 3d 21 f4 f7 3c 62 c0 cb 3c b3 36 95 bd
       0.046859697 0.030267777 0.024872009 -0.07285824
000210 45 20 e0 3b a6 4c 30 38 1f 21 e3 bc e9 11 88 bd
       0.0068397843 4.2033054e-05 -0.027725754 -0.06644041
000220 ff 2b 74 bd 0d ca 2e 3e 7d d1 fa 3a ed bd a6 3d
       -0.05961227 0.17069264 0.0019135919 0.08141694
000230 d7 b8 71 3c a1 b6 b4 3d 62 9c 7c be e0 c6 8c bd
       0.014753542 0.08823896 -0.2466903 -0.0687387
000240 7b 50 fc 3c 2c ae 08 bc 7a c9 9b bc d3 9c 51 3d
       0.030800095 -0.008342307 -0.01901697 0.05117495
000250 95 f8 c7 3c e0 1f 9b 3d 2e 88 82 3c 6b e9 6c bc
       0.024410525 0.07574439 0.015934076 -0.014459948
000260 8b 7a 0b bd 5f c1 2b 3d 58 19 ca bc e2 d5 de bd
       -0.034052413 0.04193246 -0.024670288 -0.10880639
000270 b9 ce c0 bd 84 c8 a9 3d d5 c9 cd 3d f4 df a8 3d
       -0.09414429 0.082901984 0.10048262 0.08245841
000280 72 e2 a3 bd bc 8f 02 be 24 77 38 3d ed b3 63 3d
       -0.080021754 -0.12750143 0.045035496 0.055591512
000290 8c c6 47 bc 6e 79 e5 3d b5 8a e5 3d 79 92 f8 3d
       -0.012193333 0.112048015 0.11208097 0.121373124
0002a0 46 72 02 3e 48 4c 5c 3d 30 ef 0b 3e 30 27 a5 3c
       0.12738904 0.053783685 0.13665462 0.020160288
0002b0 8c 47 42 3b 89 c6 10 3d c2 f4 2e 3d b7 9f 61 bb
       0.0029644696 0.035345588 0.042713888 -0.0034427473
0002c0 1d e2 20 3e 5e e3 cd 3d c1 23 a2 bc e6 4d 7c bd
       0.15711255 0.100531325 -0.01979244 -0.061597727
0002d0 2c ab e7 3d 10 ec 0f bc d3 86 50 3e 20 3d 2a 3e
       0.11311945 -0.008784309 0.20363931 0.1662488
0002e0 7f b7 79 3d 36 d0 a1 bc c7 f5 93 b9 a7 e1 c3 bc
       0.06096601 -0.019752603 -0.00028221143 -0.02391131
0002f0 0f 4d 24 bd f1 34 2f bd 08 fb e0 2a 9b 08 6e bc
       -0.04011255 -0.0427751 3.996458e-13 -0.014528419
000300 a1 46 45 3d b0 b6 ca bc b3 70 9a 3d c7 19 8b 3d
       0.04816306 -0.024745315 0.07541027 0.06792026
000310 60 08 a0 bb ea 91 85 3c 62 32 a7 3d 6e 3b 7c bd
       -0.004883811 0.016304929 0.08163907 -0.061580114
000320 2c 27 10 3d 73 fe 78 3e 1d f7 32 3c b8 48 c5 bc
       0.035193607 0.24315815 0.010923174 -0.024082527
000330 0e 4d 87 3c 65 2e 62 3c aa 12 b1 3c 40 72 b2 3d
       0.016516235 0.013805007 0.021615345 0.08713198
000340 ec 88 82 bc 75 bd 24 bc 64 d4 9e bc e5 c0 e0 bb
       -0.01593443 -0.010054936 -0.019388385 -0.0068589323
000350 bc d2 ac 3c 7f fd 20 3c 21 ac b5 bc 00 8d 5c bd
       0.02109658 0.009826063 -0.022176804 -0.053845406
000360 f0 0a aa bc 25 b1 7b bd 50 15 5d 3c f1 d3 0a bc
       -0.020757169 -0.061448235 0.013493851 -0.008473382
000370 1b 7b 20 3e 5a 9c 5c bd 5c 45 2b bc 8a 51 e0 3a
       0.15671961 -0.053860046 -0.010453548 0.0017114144
000380 58 5f 83 3c 52 d9 c9 bd 1d b3 9b 3e 87 3c 45 bd
       0.016036674 -0.09855904 0.3041009 -0.048153426
000390 34 e7 0e 3e 69 46 02 3d 3b 37 42 be 64 26 8c 3b
       0.13955384 0.03180543 -0.18966381 0.0042770375
0003a0 ca 17 73 3d 7e cb 36 3d 8b d9 43 3e 42 2f 6a 3c
       0.05934886 0.04462766 0.19125955 0.014293494
0003b0 74 a1 43 37 96 2f 49 3c e2 41 f7 38 47 81 ca bd
       1.1660497e-05 0.012279412 0.000117901494 -0.09887939
0003c0 8a 4c c2 3c 18 09 43 3c fa 2f 4b 3c 16 5d 2e 3e
       0.023718137 0.011904024 0.012401575 0.17027697
0003d0 b8 05 25 bd cb 7c b3 bd ea 55 c8 3d 17 b5 d2 3c
       -0.040288657 -0.08764037 0.09782012 0.025721116
0003e0 05 e0 00 3e a9 68 8c bc cc 31 06 bd 71 10 8f 3d
       0.12585457 -0.01713975 -0.032762334 0.06985558
0003f0 41 23 78 3d 27 00 02 bd 8f 51 45 3d 6c 87 05 3d
       0.060580496 -0.031738427 0.048173483 0.03259985

fc2.bias f4 [300]
000000 3c bd aa 3c a7 be 8f 3c 2f bb ba 3c bd 23 8f 3b
       0.020842187 0.017546965 0.022794334 0.004368274
000010 01 90 80 3c e2 e5 1a 3c b1 38 2d 3c 00 b2 b1 3b
       0.015693666 0.009454222 0.010572598 0.0054228306
000020 7b a7 1c bb eb 64 20 3c 39 24 fd 3c e4 f8 d1 3c
       -0.0023903537 0.009789686 0.030901061 0.025631376
000030 68 ca e5 3c 95 a8 ba 3c 85 f8 61 3c be c8 24 3d
       0.028050616 0.022785464 0.013792162 0.040230505
000040 ae 30 88 3c ba 01 d5 3c 18 a3 2f 3d 28 5f e7 3c
       0.016624775 0.0260018 0.042880148 0.028243616
000050 70 53 82 b7 bb 36 24 3d 21 cf a7 3c 44 0c 5d b9
       -1.5536061e-05 0.040091258 0.020484509 -0.00021080772
000060 75 91 3a 38 64 c5 08 3d ba 40 a3 3c dd 17 04 3c
       4.4481323e-05 0.03339137 0.019928325 0.00806233
000070 98 59 31 3d a4 ad 06 3c 0f 22 95 3c 0b fb dd 38
       0.043298334 0.00822011 0.018204717 0.000105848616
000080 f9 2e 45 3c e5 7c ef 3c 62 8b 9c 3c 64 91 e0 3c
       0.012035125 0.029234359 0.019109432 0.027413078
000090 ce 05 d0 3b 98 44 86 3c c8 db e2 3c 4a 45 26 3d
       0.006348348 0.01639013 0.02769269 0.040593423
0000a0 eb c3 ba 3c 03 6a a8 3c 12 18 0f 3c bd c4 d4 3c
       0.0227985 0.020558363 0.008733766 0.025972718
0000b0 52 4a ff 3c 58 fb 90 3c ee 2e 90 3c bf 08 05 3d
       0.031163368 0.017697975 0.017600503 0.032479044
0000c0 5e ba af 3c 5a a3 07 3d af 5d f6 3b 7d 63 17 3d
       0.021451171 0.03311477 0.007518492 0.036960114
0000d0 7a 21 b0 bc c7 7c 4b 3c 45 93 df 3b 03 28 f1 3b
       -0.021500338 0.012419886 0.006822976 0.007359506
0000e0 6f ed f2 3c 83 dd a8 3c 2f b4 45 3c 3b 16 d6 3b
       0.029654233 0.020613438 0.012066885 0.006533412
0000f0 96 1b 7f 3c 44 6d 17 3d b0 4c 91 3c c4 35 ca 3b
       0.015570542 0.03696944 0.017736763 0.00617096
000100 52 f0 6f bc a0 ee c7 3b 72 62 a3 3c 32 42 36 3d
       -0.014644699 0.0061014444 0.019944403 0.044496723
000110 d7 07 ca 3c 43 5e c7 3c c5 0a 98 ba 57 83 ff bb
       0.024661941 0.02433694 -0.0011599889 -0.0077976394
000120 70 19 c0 3c e5 3d b6 3c ef e3 9a 3c 71 fd ff 3c
       0.02344963 0.02224631 0.018907515 0.03124878
000130 fb 5b 24 3d 69 96 18 3c 04 74 e7 3c 6a c9 0c 3d
       0.040126782 0.009313204 0.028253563 0.03437177
000140 70 1a 5c 3c 36 80 26 3d 5b 96 f2 3c 15 02 a7 3c
       0.013434038 0.040649615 0.02961271 0.020386735
000150 12 df 46 3c 34 ad 25 3c 2e ae d0 3c 2b 83 1d 3c
       0.012138145 0.010112096 0.02547368 0.009613792
000160 12 5b d4 3c 38 08 1b 3c ad ed f1 3c 23 ed 97 3b
       0.025922332 0.009462409 0.029532278 0.004636423
000170 83 66 86 bb 6a 3a 8d 3b 6d 57 5c 3c 81 f7 fa 3c
       -0.004101576 0.004309942 0.013448578 0.030635597
000180 3f 3a a3 ba 09 3d 14 3d 59 d1 02 3d b7 55 0f 3d
       -0.0012453272 0.03619102 0.03193793 0.034993853
000190 97 4c a4 3c ff 0b bc 3a 61 26 17 3d 36 69 5f bc
       0.020056052 0.0014346837 0.036901835 -0.013635924
0001a0 98 c9 c1 3c f3 64 ab 3c 6a 07 6d 3c c8 ee 51 3b
       0.023655698 0.02092216 0.0144671 0.0032033194
0001b0 e9 0a 4a 3c c7 d9 ae 3c 4c a8 98 3c d1 85 b6 3c
       0.012331703 0.021344079 0.018634938 0.022280606
0001c0 55 3c b7 3b 64 60 8e 3c ba 79 8a 3c cc 28 a9 3c
       0.005591909 0.017379947 0.016903747 0.020649336
0001d0 84 18 d3 3c 73 46 22 3c af e5 04 3d de e1 01 3d
       0.025768526 0.009904492 0.032445606 0.031709544
0001e0 a5 80 04 3c 98 37 dd 38 39 63 88 3c aa 8d 68 3b
       0.008087312 0.00010548456 0.016648876 0.003548483
0001f0 a0 3b 97 3c 23 c8 e2 3b e0 fb e4 3c a9 91 47 3c
       0.018461049 0.006920831 0.027952135 0.012180724
000200 cf c5 05 3d 00 09 5e 3c 74 28 30 3d f1 d8 b0 3c
       0.032659348 0.01355195 0.04300733 0.02158782
000210 e0 fa 66 3c 72 f0 0b 3d f2 dc 84 bb e1 fa 67 3c
       0.014097899 0.034164853 -0.004054659 0.014158935
000220 59 c6 d2 3c e8 34 b1 3c d4 8b 04 3c 80 91 23 3c
       0.025729345 0.021631673 0.008089978 0.00998342
000230 a9 5c ed 3c 50 60 0f 3d 93 d5 df 3c af d6 1e 3d
       0.028974848 0.03500396 0.02732352 0.038778957
000240 cb 76 db 3c cc 2e 00 3d 3c 1d 04 3d 09 72 b4 3c
       0.026790043 0.03129463 0.032254443 0.022027032
000250 92 7f 3d 3c f0 81 c4 3c 79 b7 ba 3c 09 7f 93 3b
       0.01156606 0.02398774 0.022792565 0.0045012278
000260 71 e5 02 3c de 67 e9 3c 6d 41 01 3d c0 fe 58 3b
       0.007989273 0.02849191 0.031556536 0.0033110827
000270 74 cf bf 3c 78 e4 49 3c 94 d0 d1 3c 67 23 1c bc
       0.023414351 0.012322538 0.025612153 -0.009529925
000280 d5 19 bf 3c 21 80 54 3c f2 3a d9 3c e6 84 88 3c
       0.023327747 0.012970001 0.026517365 0.016664933
000290 e9 b7 99 3c 27 12 9b 3c db 86 98 3c 59 7f 44 3d
       0.018764453 0.018929554 0.018618992 0.04797301
0002a0 fc 8d 29 3d 81 cc d6 3c 53 ae e6 3c c0 b0 17 3d
       0.041395172 0.026220562 0.028159296 0.037033796
0002b0 86 1f 02 bc a7 a7 d8 3c d5 68 d8 3c 4c 9a 46 3a
       -0.007942086 0.02644713 0.026417175 0.00075760926
0002c0 54 ef 95 3c 91 bc 9f 3c a8 e5 75 3c c5 c6 6b 3c
       0.018302597 0.019499095 0.015008368 0.014390652
0002d0 35 88 0b 3d c6 d9 ce 3c 50 98 b4 bc c6 00 b4 3c
       0.034065444 0.025250327 -0.022045285 0.021973025
0002e0 ff 24 84 3c 40 4e ba 3c 0d 62 69 3c 57 31 e0 3c
       0.016130922 0.02274239 0.0142445685 0.027367277
0002f0 90 0c 61 3c 92 80 fb 3c bc 2e 08 3d cd cf 84 3b
       0.013735905 0.030700956 0.033247694 0.004053092
000300 bc 32 fa 3b c6 ac 16 3c b7 05 8e 3c 5c 31 0d 3d
       0.0076354425 0.009196466 0.01733671 0.0344709
000310 50 f9 74 3c ae 77 f4 3c 40 e9 e0 3c 6e e0 bc 3c
       0.014952019 0.029842224 0.027454972 0.023056235
000320 2a d3 9b 3c ef ba 05 3d 21 ae 74 3c c1 b1 f9 3c
       0.01902159 0.032648977 0.014934094 0.030480267
000330 94 7b 10 3d 38 ac da 3c fb 2e ef 3c 19 ca a6 3c
       0.035274103 0.026693448 0.029197207 0.02036004
000340 8a 22 9b bb 7f c8 2e bb 5f 1c 2d 3d 07 7f f7 3a
       -0.004734342 -0.0026669798 0.042263385 0.0018882462
000350 03 37 db 3b 9e 62 d6 3c c8 19 24 3b 96 86 d2 3c
       0.0066899075 0.026170071 0.002503978 0.025698941
000360 40 d8 15 3d 7c 8f 9f 3c dd 2c 10 bb 0e bb 7f ba
       0.036583185 0.019477598 -0.0021999397 -0.00097553513
000370 97 70 2f 3d 81 16 1a 3d fe d7 f6 3c e2 9a 12 3c
       0.042831983 0.037619118 0.03013229 0.00894806
000380 8f a3 00 3b d8 bf 96 3c ee d8 1f 3c 76 cb 81 3b
       0.0019628739 0.018402025 0.00975631 0.003961022
000390 d3 67 87 3c ac 1e ed 3c d9 ac 59 3b 62 42 8c 3c
       0.016529 0.02894529 0.0033214597 0.017121498
0003a0 2c 37 5f 3c df 6c ab 3c 4b a6 4f 3b 54 d9 fb 3c
       0.013623994 0.020925937 0.0031684812 0.030743279
0003b0 4d 62 6e bc e2 61 7f 3c 11 72 e9 3c ea 35 d6 3c
       -0.014549804 0.015587302 0.028496774 0.026148755
0003c0 b0 55 ce 3c 02 95 82 bb f3 ca 94 3c f0 ca 9e 3c
       0.025187343 -0.0039850483 0.01816318 0.019383878
0003d0 78 92 e1 3c 7f c8 cb 3c 44 87 bc 3c 3b 37 43 3a
       0.027535662 0.024875877 0.023013718 0.00074468896
0003e0 86 21 c1 3c 5a 95 1f 3d d4 15 0c 3c 52 6c 13 3c
       0.023575556 0.038960792 0.008550126 0.008997994
0003f0 09 0b f2 3c b1 a4 3e bb da 76 50 3c ab 22 88 3b
       0.029546278 -0.0029089863 0.012723649 0.0041545234

bn1.weight f4 [400]
000000 4d ca 37 3f d8 e2 fe 3e 67 5b 09 3f e5 94 57 3f
       0.7179306 0.49782443 0.53655094 0.8421157
000010 86 c6 5e 3f 88 36 dc 3e df 45 53 3f 55 38 0d 3f
       0.8702167 0.43010354 0.8252849 0.5516408
000020 19 5b 30 3f 97 d9 00 3f 06 33 0a 3f 33 a6 4d 3f
       0.68889004 0.50332016 0.53984106 0.80331725
000030 a3 02 54 3f 18 76 42 3f 8e 01 69 3e 17 ad 76 3f
       0.82816523 0.75961447 0.227545 0.96357864
000040 6c 68 2f 3f f1 9b 48 3f 4e c3 1c 3f 51 41 52 3f
       0.6851871 0.7836295 0.6123551 0.82130915
000050 3a bf 76 3e 9e 35 a9 3f ab ff 09 3f 28 6b 34 3f
       0.24096385 1.3219488 0.53905743 0.7047601
000060 7d 7c 40 3f 9f ca 47 3f cb 05 1f 3f 4e 81 bf 3e
       0.75189954 0.7804355 0.62118214 0.3740334
000070 74 a2 42 3f 32 64 b4 3e 70 d5 1b 3f 9d 3a 43 3f
       0.76029134 0.35232693 0.60872555 0.7626131
000080 82 4e e1 3e 04 94 7d 3e 8a 6a 24 3f 37 03 70 3f
       0.4400521 0.24763495 0.64225066 0.93754905
000090 4d 84 27 3f df b7 62 3f a5 63 3d 3f e0 21 8a 3e
       0.6543625 0.88561815 0.7398017 0.2697897
0000a0 01 9f 56 3f 52 ad b2 3e 3d ac 41 3f f4 6b 2c 3f
       0.8383637 0.34897858 0.7565344 0.67352223
0000b0 cd bc 3e 3e 9f 8e 51 bb cf cc 96 3e 53 c2 52 3f
       0.1862671 -0.0031975878 0.29453132 0.82327765
0000c0 02 92 95 3e 52 da 0b 3f d4 d7 1b 3f e4 b7 13 3f
       0.29212958 0.54630005 0.608762 0.5770247
0000d0 47 dd 1b 3f 08 8f 10 3f 30 ff 24 3f df 86 2a 3f
       0.6088452 0.5646825 0.64451885 0.66612047
0000e0 35 ce c7 b9 00 e7 0d 3f 36 29 0d 3f a5 e3 4c 3f
       -0.00038109874 0.55430603 0.5514101 0.8003486
0000f0 85 b1 4e 3f fa a3 03 3f 52 af 24 3d de 13 4d 3f
       0.80739623 0.51422083 0.04020626 0.8010844
000100 6a 32 58 3f bb 5c 58 3f 62 b0 18 3f ea 83 2b 3f
       0.84451926 0.84516495 0.5964414 0.6699816
000110 97 0f ea 3e 31 53 3f 3f a5 47 3d 3f 83 67 21 3f
       0.4571502 0.74736315 0.73937446 0.6304857
000120 a2 32 c2 39 bb 78 91 3f 79 f5 91 3c d2 99 26 3f
       0.00037040288 1.1364969 0.017817246 0.6507846
000130 9e 26 d7 3e 74 fb 18 3f a9 de 82 3f fa 54 4e 3f
       0.4202165 0.59758687 1.02242 0.80598414
000140 f4 13 d8 3e e8 5b 17 3f 9e 09 83 3f ff fa 87 3f
       0.42202723 0.5912461 1.023731 1.0623473
000150 1d 2a a5 3e 5c dc 3f 3f 1b 8c f4 3e 6b c6 39 3e
       0.32258692 0.74945617 0.47763142 0.18142097
000160 b7 62 ed 3e 0f f4 16 3f 8c b6 2b 3f 21 7f 3d 3f
       0.46364376 0.58966154 0.6707542 0.7402211
000170 e4 2d 1e 3f 2d 12 6a 3f 33 fa 29 3f 22 9f cd 3e
       0.61788774 0.91433984 0.663974 0.4016047
000180 65 c7 4d 3f b4 d3 3e 3f 3d 18 47 3f 0a 8d 03 3f
       0.80382377 0.74541783 0.7777136 0.51387084
000190 8c 15 75 3f 9c 03 0b 3f 8e 83 ff 3e e4 1c 21 3f
       0.95736 0.5430238 0.49905056 0.6293471
0001a0 d5 26 51 3f f5 bc ea 3e 5c 66 46 3f 06 94 e2 3e
       0.8169988 0.45847288 0.7749994 0.44253558
0001b0 8f b8 52 3f f9 19 39 bb 44 5e 79 3f ca 83 3f 3f
       0.82312864 -0.002824424 0.9740946 0.7481047
0001c0 ed 5b 3c 3f 66 26 18 3e 63 cc ec 3e 47 06 1d 3f
       0.7357777 0.14858398 0.46249685 0.61337703
0001d0 27 58 2e 3f b5 dd 3e 3f 5e 66 12 3f 55 65 69 3f
       0.6810326 0.7455705 0.5718745 0.91170245
0001e0 c2 36 e5 3e 2d 7c 34 3f 47 41 06 3f ee e2 0d 3f
       0.4476834 0.7050198 0.52443355 0.5542439
0001f0 4d 3d 36 3f 6d 46 5c 3f 53 a7 14 3f ab 45 24 3f
       0.7118729 0.8604496 0.58067816 0.64168805
000200 db c7 ec 3e 92 0a 28 3f fe 13 52 3f 28 e2 28 3f
       0.46246228 0.6564113 0.82061756 0.6597009
000210 b5 72 dc 3e 90 91 3a 3f 9f 9d fc 3e 53 40 09 3f
       0.43056265 0.7287836 0.49339005 0.53613776
000220 15 4d 60 3f 60 84 46 3f 89 2e 5c 3d 6b c2 54 3f
       0.8761762 0.7754574 0.053755317 0.8310916
000230 49 bd bb 3e 90 08 4b 3f 09 fc 0f 3f 5e ab 53 3f
       0.3666785 0.7930994 0.5624395 0.8268336
000240 02 8a 2d 3f e8 31 6b 3f 19 c8 e5 3e c6 76 2c 3f
       0.6778871 0.91873026 0.44879225 0.67368734
000250 21 23 f1 3e da e8 ea 3e 03 b2 28 3f 0e 6a 77 3f
       0.47097114 0.45880777 0.65896624 0.966462
000260 04 f5 b6 3e 45 57 36 3f 7d 66 05 3f c2 24 47 3f
       0.35733807 0.7122691 0.5210951 0.7779046
000270 00 84 0f 3f 16 58 36 3f ce 74 10 3f 2c bf 44 3f
       0.5606079 0.7122816 0.5642823 0.76854205
000280 26 42 81 3f e1 2f 77 3f c3 e8 12 3f b5 24 fa 3e
       1.0098312 0.9655743 0.57386416 0.4885613
000290 5d 65 7d 3e ab 5c 8e 3f e8 c9 44 3f 8c cd c5 3e
       0.24745698 1.112203 0.76870584 0.38633382
0002a0 8d 80 39 3f 67 46 21 3f cd ba 28 3f 57 15 ef 3e
       0.7246178 0.6299805 0.65910035 0.46695969
0002b0 b2 91 1a 3f ea b7 86 3f b4 20 57 3f e3 09 36 3f
       0.60378563 1.0524876 0.84034276 0.71108836
0002c0 cd 76 3b 3f 6e b4 2d 3f b3 05 5f 3f ac 57 cd 3e
       0.7322815 0.6785344 0.8711807 0.4010595
0002d0 a7 53 27 3f 5e 4b 9a 3e 20 3f 66 3f 23 1c 96 3f
       0.6536202 0.30135626 0.8994007 1.1727337
0002e0 54 d1 09 3f 91 48 3e 3f 28 de ea ba e7 1e 3e 3f
       0.53835034 0.7432948 -0.0017918991 0.74265903
0002f0 ba 91 32 3f a8 0e 02 3f 9a 68 2c b8 84 f9 cd 3e
       0.6975361 0.50803614 -4.1105413e-05 0.40229428
000300 2d 76 9a 3e 45 2c ae 3e 33 10 62 3f 31 e8 40 3f
       0.30168286 0.3401815 0.8830597 0.75354296
000310 bc 93 cf 3e 2e d0 6e 3f 74 b4 09 3f 14 d3 2c 3f
       0.405424 0.93286407 0.53790975 0.6750958
000320 cd 0b 29 3f af aa 59 3f 1f 1b 48 3f 6c d3 10 3f
       0.6603363 0.8502607 0.78166384 0.56572604
000330 19 12 36 3f 9f 7a 2c 3f 09 29 9f 3e 05 a7 a8 3f
       0.71121365 0.67374605 0.31085995 1.317597
000340 a2 44 51 3f 84 2c 5f 3e 28 42 20 3f a7 92 1a 3f
       0.8174535 0.21794325 0.62600946 0.60380024
000350 66 09 33 3f 7d 62 39 3f 8a 0c b2 3e 46 dc 1f 3f
       0.69936216 0.72415906 0.34775192 0.62445486
000360 60 06 13 3f 79 57 89 3e 42 a2 28 3f 32 f6 84 3f
       0.574316 0.2682455 0.65872586 1.0387633
000370 12 d6 53 3f bd 1a 2d 3f 23 78 dd 3e b7 b1 08 3f
       0.8274852 0.67618924 0.4325572 0.5339617
000380 8b ac 0a 3f 13 e3 0d 3f 96 7b 29 3f 8c 07 53 3f
       0.5416953 0.5542461 0.662042 0.8243339
000390 a2 a6 89 3f eb 98 1c 3f 9d a8 75 3f 7b b3 4d 3f
       1.0753977 0.61170834 0.9596041 0.8035199
0003a0 cb b9 45 3f 29 a5 31 3f bc 4d 8d 3f 7d 07 14 3f
       0.7723662 0.6939264 1.1039348 0.57823926
0003b0 a3 97 43 bb 1e 86 33 3f 9a 42 0c 3d 09 35 51 3f
       -0.0029845021 0.7012652 0.034243204 0.8172155
0003c0 02 df 77 3f 37 86 e3 3e 88 26 4b 3e 59 60 99 3e
       0.9682466 0.44438335 0.19838917 0.2995632
0003d0 96 49 2a 3f ec d1 4f 3f 69 3c d4 3e 87 96 66 3e
       0.66518533 0.8117969 0.4145234 0.22518359
0003e0 a6 cf 49 3f 32 dd 2f 3f db f6 5f 3f 87 32 4a 3f
       0.7883247 0.6869689 0.87486047 0.7898335
0003f0 8a c8 4d 3f 81 08 fb 3e 36 f2 37 3e 15 4c 3a 3f
       0.80384123 0.49029925 0.1796349 0.7277234

bn1.bias f4 [400]
000000 26 c2 94 bd 12 19 12 bd 07 6b 85 bd 07 ef ec bd
       -0.072635934 -0.03566844 -0.065145545 -0.11569028
000010 5f 40 81 bd 78 61 0d be 65 de 5c bd 73 a3 0d be
       -0.06311106 -0.13806713 -0.05392303 -0.13831882
000020 9a c2 e1 bd 4b f6 38 be 81 7b a6 bd c9 17 5c bd
       -0.110234454 -0.18062703 -0.08129025 -0.05373362
000030 ec 49 60 3c e6 ed 93 bd 52 1b 3e be 51 2a 46 bc
       0.013689499 -0.0722311 -0.1856511 -0.01209505
000040 3f 88 78 bd da 8e ca bb 43 e1 68 bc 00 d0 d5 bc
       -0.06067681 -0.00618158 -0.014213863 -0.026100159
000050 2d 93 d9 bd 21 9a 82 3c bf 8c 44 bd 6a d7 0a bd
       -0.10623775 0.015942635 -0.04798579 -0.03389684
000060 e0 d6 00 bd 60 99 39 bc 5e ad 13 bc 77 fd 80 bd
       -0.03145492 -0.011328071 -0.009013502 -0.062983446
000070 46 1c ef bc 01 1e a2 bc 7f f7 70 bd 11 cf 51 bd
       -0.029188287 -0.019789698 -0.05882978 -0.051222865
000080 0c a8 22 3b d0 1e 46 be 25 68 b5 bd 46 72 55 bc
       0.0024819402 -0.19347692 -0.088577546 -0.013027733
000090 d1 f7 77 bc b6 33 c3 bd ee 36 8b bc ac 36 14 bd
       -0.015134768 -0.095313475 -0.016993966 -0.03618495
0000a0 a9 d7 35 bd 3d 0b dc bd f9 36 85 bd 94 c9 98 bd
       -0.044395123 -0.10744331 -0.06504626 -0.07460323
0000b0 76 b8 25 be 6c eb 51 bb db 5f 69 be a2 6e ea bd
       -0.16183648 -0.0032031192 -0.22790472 -0.11446883
0000c0 66 07 05 be 7e 01 63 bd 97 f5 8d bc 4c ea e1 bd
       -0.12991104 -0.055421345 -0.01732902 -0.11031017
0000d0 bd 8b 96 bd 15 32 86 bc 3c e3 33 bb ef 3c 1f be
       -0.07350872 -0.016381303 -0.0027448675 -0.15550588
0000e0 3b 15 eb b8 8a f5 b1 bd f5 b3 23 be 93 a6 2a bd
       -0.00011209628 -0.08689411 -0.15986617 -0.041662764
0000f0 b7 3f 59 bd fa 78 ca bd 56 ec 0b be e8 27 01 bd
       -0.05303928 -0.09886356 -0.13664374 -0.0315322
000100 7f 24 f0 3c 56 f6 cf bd 23 d3 10 be cc af 0e bd
       0.029314278 -0.10154407 -0.14143042 -0.03483562
000110 41 8d ad bd cc b7 11 be 94 f4 a1 bd c0 18 20 bd
       -0.08474208 -0.14230269 -0.07907978 -0.039086103
000120 38 f9 88 bc 9f 95 f5 3c 79 71 9a bd 1c c7 ee 39
       -0.0167204 0.029978571 -0.075411744 0.00045543246
000130 3f b6 c6 bd 14 66 0a bd 83 db 6d bd ba 81 4d bd
       -0.097027294 -0.033788756 -0.05807067 -0.050172545
000140 98 38 ce bd 77 11 c0 bd 99 10 e2 3c d9 b8 2e bd
       -0.10069388 -0.09378331 0.027595805 -0.042656753
000150 4e 6f de bd 24 b5 c3 bc c2 ce 40 be 7a f7 22 be
       -0.108610734 -0.023890086 -0.18828872 -0.15914717
000160 84 de 99 bd 18 ee 43 bd 33 32 4b bd 2f 77 38 bb
       -0.075131446 -0.047834486 -0.04960842 -0.002814721
000170 c3 fe 4a bd 54 be 03 bd ec 77 ff bd be e1 0c be
       -0.049559366 -0.032163933 -0.12474045 -0.13757989
000180 a3 eb 8b bd 20 5a 08 bd aa cd ad bc ac f9 cd bd
       -0.068320535 -0.033289075 -0.021216232 -0.10057387
000190 b1 48 79 bd cc e6 2d be 90 0e 5b be 6d a0 b2 bd
       -0.06086034 -0.16982573 -0.21392274 -0.08722005
0001a0 d3 53 ca bd e3 51 48 be 86 e4 59 bd bb 98 18 be
       -0.098792695 -0.19562487 -0.053196453 -0.14902012
0001b0 d8 03 94 bd 50 01 0d bb 1e dd a3 bc 07 44 ab bd
       -0.07227296 -0.0021515675 -0.020002898 -0.083625846
0001c0 bc 66 8e bc 86 56 65 bd 68 11 5f bd 03 b6 28 bc
       -0.017382972 -0.05599072 -0.05445996 -0.010297301
0001d0 c3 f7 82 bd 25 99 4d bd 6b a0 02 bd b8 03 bd bc
       -0.06394913 -0.050194878 -0.031891268 -0.023073062
0001e0 81 12 0d be 21 5f 15 bd 76 32 cd bd 6e 2f 03 be
       -0.1377659 -0.036467675 -0.1001939 -0.12811062
0001f0 94 45 1d be 99 5c 9b bd 15 f5 04 bd f1 4f 2c bb
       -0.15358573 -0.07586021 -0.03246029 -0.0026292766
000200 42 d4 7b bd 28 eb 03 be 56 2c 85 bd cb ed 8e bc
       -0.06148172 -0.12882674 -0.06502597 -0.017447373
000210 a3 1b 58 bd 6c f4 33 bb 8b 6e 83 bc 22 0f c2 bd
       -0.05276073 -0.002745892 -0.016043922 -0.094755426
000220 77 32 30 bd d0 54 e1 bc 80 32 fe bd cb ec a1 bd
       -0.043016877 -0.027506262 -0.12411976 -0.07906493
000230 f8 3b 6f bd 78 a0 47 bd 1a 6d 32 be 09 57 80 bd
       -0.0584068 -0.04873702 -0.17424431 -0.06266601
000240 9d 3e 5f bc e8 05 c9 3c 3f 98 0d be 07 ac 0f bd
       -0.013625768 0.02453895 -0.13827609 -0.035076167
000250 bb aa 40 be c4 1b a8 bd 37 85 67 3b dc 67 04 bd
       -0.18815129 -0.08208421 0.0035327205 -0.03232561
000260 79 73 b4 bd 41 91 a6 bd 0f 49 8b bd c7 aa 95 bd
       -0.08811087 -0.08133174 -0.06801044 -0.07307964
000270 f2 de 49 bd ca 6f 8a 3d 9e 5e 8e bd cf 53 4e bc
       -0.049284883 0.06759603 -0.069516405 -0.012593224
000280 6e 6e d2 bd 33 8e 32 bd bf e6 3a bd 74 67 1f bd
       -0.10274969 -0.043592643 -0.045630213 -0.03891702
000290 89 4c 50 be 49 b4 c5 3b 49 ab 06 be f3 ea e5 bd
       -0.20341696 0.0060334546 -0.13151278 -0.11226454
0002a0 47 7c b1 bd 35 a5 15 bd b8 fe f0 bd 66 31 24 bd
       -0.08666282 -0.036534507 -0.11767334 -0.040086173
0002b0 93 c9 c5 bd 22 b6 29 3d 09 1e 6f bd 84 6d b3 bc
       -0.09657588 0.04143346 -0.058378253 -0.021902807
0002c0 06 4c 32 bd d7 26 f0 bc e3 85 fa 3b 1c 42 2c be
       -0.043529533 -0.029315395 0.007645355 -0.16822094
0002d0 bb d1 18 be 83 13 0d 3d 58 79 84 bd 83 90 42 bc
       -0.14923756 0.034442436 -0.06468457 -0.011875275
0002e0 8f e6 ac bd cc b2 3f bd ae f7 ee ba 85 5a 89 bd
       -0.08442413 -0.046801373 -0.0018231773 -0.06706718
0002f0 20 00 68 bd a1 79 09 be 66 8b 13 b7 66 c8 0b be
       -0.056640744 -0.13425304 -8.794339e-06 -0.13650665
000300 7d a6 d2 bd a0 ca f8 bd 43 6d 14 bc f1 1a 96 bd
       -0.10285661 -0.12148023 -0.009059253 -0.073293574
000310 69 10 84 bd 28 d7 43 bd b8 35 c5 bd 84 0b 52 bd
       -0.064484425 -0.04781261 -0.09629387 -0.051280513
000320 6b a8 47 bd ca 6d a7 3b 42 ed c6 bd 59 66 d5 bc
       -0.0487446 0.0051095234 -0.09713222 -0.02604978
000330 48 f6 02 bd b1 4a 59 3c 93 54 e1 bd a5 ee 0e 3d
       -0.031973153 0.013262437 -0.110024594 0.034895558
000340 1b 8d 1b 3c e4 ff 88 bd d6 fd 81 bd 5b 93 5f bd
       0.009494091 -0.06689432 -0.063472435 -0.05458389
000350 b9 5e 86 3c 6b 63 b3 bd 68 8a 12 be 64 43 a3 bd
       0.01640259 -0.08759197 -0.1431061 -0.07971838
000360 66 8a 55 bc de b0 f3 bd 03 73 11 be 7f 61 6a 3c
       -0.013033485 -0.11898969 -0.1420403 0.014305471
000370 2f ee 90 bd 14 57 88 bd c0 55 be bd be c7 15 be
       -0.0707668 -0.06657234 -0.09293699 -0.14626977
000380 f8 05 fa bd 77 3c a5 bd 10 33 e7 bd 40 df b8 bd
       -0.1220817 -0.080681734 -0.11289036 -0.090269566
000390 5a c0 6f be 4a e1 78 bc b6 00 8d bd 64 fd 8a 3c
       -0.2341322 -0.015190432 -0.06884901 0.01696653
0003a0 3e 7a 0c bc 02 80 92 bd 71 60 be bc 3b 59 fc bc
       -0.008574067 -0.07153322 -0.023239346 -0.030804267
0003b0 60 5d 00 bb 02 88 b0 bb fc c0 fb bd 0f 40 bc bd
       -0.0019586906 -0.005387307 -0.12292668 -0.09191906
0003c0 8c 83 08 bd ba 60 9e bd e7 e6 02 be 59 cd 54 be
       -0.033328578 -0.07733293 -0.12783395 -0.20781459
0003d0 97 c1 f1 bd d7 43 7a bd 1d ae 10 be 34 c2 e0 bd
       -0.118045025 -0.061099853 -0.14128919 -0.10974541
0003e0 fb 7b 69 bb 27 e8 fe 3b 8a 47 8d bd 3a 2d 8f bc
       -0.0035626877 0.0077791396 -0.068984106 -0.01747762
0003f0 9e 3b 81 3d f6 18 a6 bd dc ce 07 be 0c 6a 82 bd
       0.06310199 -0.0811023 -0.13262504 -0.06367883

bn2.weight f4 [300]
000000 50 10 fd 3f ef 8a 05 40 95 75 83 3f 18 63 e9 3f
       1.9770603 2.0866048 1.0270258 1.8233366
000010 2d 6b c8 3f 3e 1a 8e 3f 14 9d 67 40 03 50 0e 40
       1.5657707 1.1101758 3.6189623 2.2236335
000020 92 09 fc 3f 77 51 1d 40 a3 47 f9 3f c6 d8 63 40
       1.9690421 2.4580972 1.9474987 3.5601058
000030 68 44 65 40 1b 40 ed 3f 4c 51 fa 3f 12 4c b6 3f
       3.5823002 1.8535188 1.955606 1.4241965
000040 7b 22 fa 3f 43 04 fc 3f 99 5a 7c 40 34 ae f3 3f
       1.9541773 1.96888 3.9430296 1.9037538
000050 c3 e8 bb 3f c5 38 d6 3e 98 38 84 40 d2 0b fa 3f
       1.4680408 0.41840187 4.1319084 1.9534857
000060 1b 9b 14 40 3b 54 bd 3e 4c 0f 19 3f 84 ec 14 40
       2.321967 0.36978325 0.59788966 2.3269358
000070 a3 db a5 3f 4d 07 8c 3f 46 81 98 3f 06 1f 6a 40
       1.2957653 1.0939728 1.1914451 3.6581435
000080 cb 42 6e 40 1c db 04 40 42 5d 83 40 1c f3 e2 3f
       3.7228267 2.0758734 4.105134 1.7730441
000090 3c 08 74 40 11 43 81 40 f7 4e 78 40 05 3c 6f 40
       3.8130026 4.039437 3.8798196 3.7380383
0000a0 9f ff e2 3f a5 2e 6f 40 bc 1b 01 40 47 bf 01 40
       1.7734259 3.737222 2.0173178 2.0272996
0000b0 2d 19 05 3f 3a da ba 3f ba bb 86 3f 02 4f 6e 40
       0.5199154 1.4597847 1.052604 3.7235723
0000c0 36 25 73 40 96 e3 f4 3f b1 04 f0 3f 20 91 68 40
       3.7991462 1.9131954 1.8751432 3.6338577
0000d0 69 41 0c 40 75 7e ef 3f 00 fe 73 40 ba c4 09 40
       2.1914923 1.8710467 3.812378 2.1526322
0000e0 39 61 73 40 a8 e4 a6 3f 55 4d 70 40 ed 28 76 40
       3.802809 1.303853 3.75472 3.846248
0000f0 d6 57 f2 3f 72 62 b2 3f c1 2a ff 3f 59 0a 88 3f
       1.8933055 1.3936293 1.9934922 1.0628158
000100 60 b9 f4 3f f4 ea 72 40 b2 08 0b c0 cc ac a1 3f
       1.9119072 3.7955904 -2.1724057 1.2630858
000110 6a 42 00 c0 19 91 ec bf 97 46 da 3f 77 91 6a 40
       -2.0040536 -1.848178 1.7052792 3.6651285
000120 29 9a ff 3f 62 ca f5 bf 4a 98 f4 3f 05 55 79 40
       1.9968921 -1.9202387 1.9108975 3.8958142
000130 bf c8 56 40 4d c3 71 40 cf 66 d3 3f 91 ad 6d 40
       3.3560026 3.7775452 1.651575 3.7137187
000140 2c d7 fe 3f 1f 26 7f 3f 64 4f 13 3f a2 d3 df 3f
       1.9909415 0.99667543 0.57543015 1.748646
000150 06 c9 e2 3f 0a 0c cf 3f 96 7c 04 40 fb 16 01 40
       1.7717597 1.6175549 2.0701041 2.0170276
000160 16 aa 5b 40 43 09 6e 40 a0 5f 85 40 64 8e 0e 40
       3.4322562 3.7193153 4.167923 2.2274408
000170 c6 7d f6 3f 84 44 84 40 cc 04 0e 40 7b 6f 7c 40
       1.9257133 4.1333637 2.2190428 3.9443042
000180 63 c8 b0 3f 0b 7a 5d 40 fe e4 c6 3f 8c b4 68 40
       1.3811153 3.460574 1.5538633 3.6360197
000190 29 18 f7 3f 3f 3a b1 3f e3 e1 93 3e 3b 54 c6 3f
       1.9304248 1.38459 0.28883275 1.5494455
0001a0 4d a2 b3 3f 0d dc 72 3f 87 04 11 40 77 8b 82 40
       1.4033905 0.9486702 2.2659013 4.0795245
0001b0 1d b7 f9 3f d4 99 6d 40 e7 4e 7d 40 92 1f f8 3f
       1.9509007 3.712514 3.9579408 1.9384634
0001c0 bd 5c 17 40 1e f4 fc 3f cf bf 0d 40 4b 5c ed bf
       2.3650353 1.9761999 2.214832 -1.854379
0001d0 91 61 62 3f 0b 09 a7 3f f8 45 4f 40 c8 0f 61 40
       0.88430125 1.3049635 3.2386456 3.5165882
0001e0 a1 1c 00 40 23 10 0b 40 64 05 f0 3f da cf 71 40
       2.0017474 2.17286 1.8751645 3.7783113
0001f0 93 67 0d 40 cb 38 3f 3f 1a 1b b9 3f a7 d8 f4 3f
       2.2094467 0.74696034 1.4461396 1.9128617
000200 98 bf 56 40 29 d3 53 40 8c 90 81 40 da 61 df bf
       3.355444 3.3097632 4.048895 -1.7451737
000210 04 e8 91 3f e3 e6 59 40 86 b3 19 40 92 b8 81 40
       1.139893 3.4047172 2.4015822 4.0537806
000220 20 24 b6 bf 8e c6 09 40 e1 05 01 40 b0 5a 80 40
       -1.4229774 2.1527438 2.0159838 4.0110703
000230 dc a6 00 40 9e 44 53 40 b0 ac 18 c0 21 19 71 40
       2.0101843 3.301063 -2.38554 3.7671587
000240 26 c9 59 40 05 60 65 3e 8f 0d 04 40 b1 78 05 c0
       3.4029021 0.2239991 2.0633276 -2.0854914
000250 78 e6 09 40 09 24 08 40 49 bf 01 40 cc 5b 7c 40
       2.1546917 2.1271994 2.0273001 3.9431028
000260 6b a4 85 40 09 32 e4 3f ce 05 d7 3f ed cf 98 3f
       4.1763206 1.782777 1.6798646 1.1938454
000270 4b 24 0b c0 90 15 6e 40 65 60 f1 3f cd 0e be 3f
       -2.1740901 3.720066 1.8857542 1.4848267
000280 f4 66 70 3f 7a 3a 8b 3f 04 2b 60 40 75 4c c4 bf
       0.93907094 1.0877221 3.5026255 -1.5335833
000290 07 e8 7d 40 7d 06 ed 3f 62 e9 f5 3f a6 4c 93 3f
       3.9672868 1.8517605 1.9211848 1.1507766
0002a0 7d 90 73 40 bc 4c 55 40 ff 9a 09 40 05 26 68 40
       3.8056939 3.3328085 2.1500852 3.6273205
0002b0 b9 50 cf 3f d0 0e 0b 40 ef c4 6c 40 df 08 8a 3f
       1.619651 2.172779 3.6995199 1.0783957
0002c0 db 39 6d 40 8e a9 fc 3f 1a c2 90 3f dc 0c 04 40
       3.7066562 1.9739244 1.1309235 2.0632849
0002d0 f3 4b cf 3f 11 d9 03 40 75 a6 06 40 d1 f5 5d 3f
       1.6195053 2.0601237 2.1039097 0.8670321
0002e0 b8 11 fe 3f 99 39 19 40 c1 03 db 3f a6 f4 f1 3f
       1.9849157 2.3941405 1.7110521 1.8902786
0002f0 73 c3 7b 40 1e 4d 03 40 9a 67 69 40 e2 3c 93 3f
       3.9338043 2.0515819 3.6469483 1.1502955
000300 9b e0 a4 3f 3d c5 42 3f 68 5e 0a 40 0a e5 55 40
       1.2881044 0.7608221 2.162012 3.3421044
000310 e2 6b 7d 40 e2 4c 6b 40 ca 00 17 c0 9c e1 de 3f
       3.9597096 3.6765676 -2.3594232 1.74126
000320 18 d5 f9 3f 20 ea 72 40 10 77 9c 3f e5 d0 65 40
       1.9518156 3.7955399 1.2223835 3.590875
000330 c9 e3 66 40 4d c0 e1 3f 0e 43 73 40 56 5b f2 3f
       3.607653 1.763681 3.8009677 1.8934124
000340 b0 44 d4 3f c9 e9 66 40 7a bf 7e 3f 09 8a 5c 40
       1.6583462 3.608019 0.9951092 3.445925
000350 ac 1d 84 40 c0 be a1 3f 8d 97 10 40 b8 10 6e 3f
       4.128622 1.2636337 2.25925 0.9299426
000360 18 9a e8 bf d6 31 10 40 62 98 80 40 9d 9b ba 3f
       -1.8172026 2.2530417 4.0186014 1.457874
000370 9e d3 94 3f 70 e9 54 40 ff ad 00 40 9a 18 75 40
       1.162708 3.326748 2.0106199 3.8296266
000380 be 9a eb 3f 89 b7 25 3f 61 70 a8 3f b3 65 0f 40
       1.8406599 0.6473318 1.3159295 2.2405822
000390 68 e2 18 c0 95 18 3f 40 d2 8c 15 40 05 60 0c 40
       -2.3888187 2.9858754 2.33672 2.1933606
0003a0 22 5c fb 3f 2d 2e 01 c0 20 a5 6c 40 c2 45 03 40
       1.9637492 -2.0184433 3.6975784 2.0511327
0003b0 16 d6 c3 3f f3 d5 04 40 d8 ba 66 40 00 d5 00 40
       1.5299709 2.0755584 3.605154 2.0130005
0003c0 d6 cf 70 40 d5 44 6f 40 52 e6 f5 3f f1 b7 85 40
       3.7626853 3.7385762 1.9210913 4.178704
0003d0 05 7f 6b 40 be 72 01 40 de 79 09 40 17 44 8d 40
       3.6796277 2.0226283 2.1480632 4.4145617
0003e0 62 dc 6e 40 fa 8a a6 3f 05 e4 93 3f cf d9 77 40
       3.732201 1.3011162 1.1553961 3.872669
0003f0 8b 6e eb 3f 2c 8c d5 3f 68 19 0a 40 91 bb 00 40
       1.839311 1.6683402 2.1578007 2.0114481
