tmp/ddpg/target_actor_ddpg.pth (torch, 504132 bytes, 10 tensors)

fc1.weight f4 [400, 6]
000000 23 86 0a 3d 13 c8 63 bc 74 77 a7 bd b2 99 36 3d
       0.03381933 -0.013902682 -0.08177081 0.04458017
000010 4c 9f 5b bb 2e ea d4 bd c3 9d 58 3c 5f 6e 2a bc
       -0.0033511696 -0.10396229 0.013221207 -0.010402291
000020 cb 49 ee 3c ff c2 a6 3d 11 be ec 3d 68 27 7a bc
       0.029087922 0.08142661 0.1155969 -0.015268184
000030 07 b8 28 3c 85 16 93 bc a3 07 c0 bd 2a 2b 2e 3d
       0.010297782 -0.017955074 -0.093764566 0.042521633
000040 74 86 a1 3c b0 27 e7 bd 98 1e 9f bb 3f 0d 89 3c
       0.019717433 -0.11286867 -0.004855942 0.016729949
000050 2c ac ab 3d 93 e5 1a 3d 20 d6 d2 3d 67 68 24 bd
       0.083824486 0.037816595 0.10294747 -0.04013863
000060 bd 64 e6 3b a1 86 ef bc 5b f1 04 be 8c 69 d6 bc
       0.007031052 -0.029239 -0.12982695 -0.026173376
000070 60 7d 93 bc aa 02 01 be 83 f4 80 39 02 ee 8a 3c
       -0.01800412 -0.12598673 0.00024596238 0.016959194
000080 af 25 db bb b1 dc 1f bd 39 a7 aa bc d2 82 04 3e
       -0.006687842 -0.039028827 -0.020831691 0.12940529
000090 35 04 ed bc 15 c0 37 3c fb 31 70 bd 99 b5 cb 3c
       -0.02893267 0.0112152295 -0.058641415 0.024866866
0000a0 94 8f d2 bc 3e 1c 02 be 57 3a 00 bd a3 22 01 3d
       -0.025703229 -0.12706086 -0.031305637 0.031527173
0000b0 70 a6 1b 3d 8a 1c ea bd 6a 35 1a 3e 3e 5c e8 3e
       0.038000524 -0.11431225 0.15059438 0.45382875
0000c0 17 d2 0c 3d 4d 06 cd bc 80 c4 b6 3a f1 f3 68 3d
       0.034380045 -0.025027419 0.001394406 0.056873266
0000d0 69 a2 9d 3c 44 e5 2a 3e 59 4b 99 bc ef cd 68 bc
       0.019242482 0.1668902 -0.018712686 -0.014209255
0000e0 1e 09 22 be 5e 8d 22 3b 8f c9 12 3d 55 ea 1a be
       -0.1582379 0.00248035 0.035836753 -0.15128453
0000f0 e2 85 1e bc d3 54 3c 3c 08 ae 0e bd 89 b2 71 bd
       -0.009675475 0.011494833 -0.034833938 -0.059008155
000100 86 45 e5 3d 87 3d d3 bd 8a b6 ce bc c7 f7 36 bc
       0.11194901 -0.1031447 -0.025233526 -0.011167473
000110 9a 2a e4 bd 8f 90 da bb fb 06 25 3d bc 72 4d be
       -0.11140938 -0.0066700648 0.04028986 -0.20063299
000120 ae b2 6e bc db 45 5d bc 6f 17 de bd 1d 36 82 3d
       -0.014568968 -0.013505424 -0.10844313 0.063579775
000130 8e 99 74 3d 44 f7 39 be 5c 53 05 3d bf 37 44 3d
       0.059716754 -0.1816073 0.0325502 0.047904726
000140 82 ef 9c bc e9 63 c3 3c 08 dd 9a 3d 3e d5 b6 bc
       -0.019157175 0.023851352 0.075616896 -0.022318479
000150 6b b1 45 3d 0a 79 a1 bc 7f af cc bd 98 0d 1a bd
       0.048264902 -0.019711036 -0.09994411 -0.03761062
000160 3d e7 3e 3d 84 c5 74 3d ce 3b ea 3c 7e 10 35 bd
       0.046607245 0.059758678 0.02859297 -0.04420518
000170 a7 18 fd bd e8 5b 80 3d 5f 5f e7 3b f6 d1 08 3e
       -0.12358218 0.0626753 0.0070609297 0.13361344
000180 8e b9 0e 3c 57 97 85 3b 7e 7a 0e bd 3b 50 8e 3c
       0.008711232 0.004076879 -0.034784786 0.017372241
000190 ef f2 8c 3d af a2 cc bd b7 af fb 3b 8a bc a3 bc
       0.068822734 -0.09991967 0.007680859 -0.019987363
0001a0 21 a6 aa 3d 0d 20 f0 bd eb 4d f7 bd 4b 5b 8a 3e
       0.08332468 -0.11724863 -0.120754085 0.27022776
0001b0 a2 9b 7c bc cd 7a af 3c 37 c5 67 bd c2 71 a0 bd
       -0.015417965 0.02142086 -0.056584563 -0.078341976
0001c0 09 35 8d bd 33 f7 86 3c fe 0e ed 3c 3d 0f 8e bc
       -0.06894881 0.016475296 0.028937813 -0.01734125
0001d0 83 55 85 bd 8a 22 8b 3d 8b db 89 3d 2b 9c d2 3d
       -0.06510451 0.06793697 0.067313276 0.10283693
0001e0 75 be 80 3b 0c 53 98 bc 9c f8 0a be 94 9d 47 3e
       0.0039289542 -0.018594287 -0.135714 0.19493705
0001f0 f1 39 6f be 3a 56 17 3d d8 a3 db bc 0d 84 e5 bc
       -0.23361947 0.036947466 -0.026811525 -0.028017068
000200 87 bc f3 bd f5 72 a8 3c 5c 61 dc bc f0 99 da bd
       -0.11901193 0.020562628 -0.026901893 -0.106738925
000210 85 5d e2 bb 03 87 1a 3d 45 5e 0c 3c a8 f9 5e bd
       -0.006908121 0.037726413 0.0085673975 -0.05443731
000220 bf 19 92 3d 77 b9 dc 3d 7c 0e be bc f1 91 c2 3c
       0.07133817 0.10777562 -0.023200266 0.02375123
000230 7f e3 3d 3d 1c 15 fd bd d1 6a b4 3d 65 60 d8 bc
       0.046359535 -0.12357542 0.08809436 -0.026413152
000240 55 dc d5 bb 25 c6 60 3c 46 22 0a be bd 0a d4 bd
       -0.0065265098 0.013719116 -0.13489637 -0.10353611
000250 82 97 44 bd 12 a5 db bd a5 82 26 bd 2e a4 e2 3c
       -0.04799605 -0.10724844 -0.040651936 0.027666178
000260 ec ee 21 bd 59 32 92 bd c0 29 11 be f3 8f bf bc
       -0.039534494 -0.07138509 -0.14176083 -0.02338407
000270 15 e4 fa bb ef d2 9c bc b0 12 04 be f6 ad bf ba
       -0.007656584 -0.01914355 -0.12897754 -0.0014623988
000280 c8 b6 29 bc 61 89 1f be 97 da 78 bc 3b 18 01 bd
       -0.01035852 -0.1557975 -0.015188835 -0.03151725
000290 0a 61 f4 bd 2e 43 49 3b 3c b1 ce 3c db 12 1b be
       -0.11932571 0.0030710208 0.025230996 -0.15143912
0002a0 0d ea a0 bc 37 8d 72 bc 07 6d 24 be e9 45 f3 3c
       -0.019642854 -0.014804176 -0.16057216 0.029696422
0002b0 10 60 93 bc f6 89 38 be b1 c1 8e bc b8 ab 14 3d
       -0.017990142 -0.18021378 -0.017426344 0.036296576
0002c0 11 91 ca 3c 8e 23 49 3d 43 2b 38 3d 3f ed 72 3d
       0.024727376 0.049106173 0.044963133 0.059308287
0002d0 9e e5 08 3d da 83 a7 bc 10 70 12 be 8d f9 78 bb
       0.033422105 -0.020448614 -0.14300561 -0.003799054
0002e0 88 69 b8 bc 62 de 55 3e 5b 24 29 3b 42 16 25 bc
       -0.022511259 0.20885614 0.0025809023 -0.010076107
0002f0 97 62 e8 bd 80 03 64 3d 4b 5b 52 3d d8 fe df bd
       -0.113469295 0.0556674 0.051356595 -0.109372795
000300 8d c1 17 3d c7 5d 45 bd e9 e2 76 bd 12 5d 8e 3d
       0.03704982 -0.048185136 -0.060274992 0.069513455
000310 8e 25 8f 3d 0c c1 06 bc 30 41 31 bc 51 31 24 bb
       0.06989585 -0.008224737 -0.010818765 -0.002505381
000320 db a7 8a bd 3b a3 99 bc 9c fa 8c 3d a9 21 ff bd
       -0.06770297 -0.018754592 0.068837374 -0.12457592
000330 aa 19 d5 3b b6 8e 52 3c f4 4b d6 ba d4 14 37 3d
       0.0065033035 0.012851408 -0.001634954 0.044697598
000340 67 b5 6f 3d 43 4e 3f 3e bb a8 fe 3c 85 ae 04 bd
       0.058522608 0.18682198 0.031086316 -0.032392997
000350 2b 37 b4 ba 2f 24 5c bc 07 82 51 3b 7d 9e 8c bc
       -0.0013749351 -0.013436361 0.0031968371 -0.017165417
000360 19 9a 15 3c dd 90 a8 bc 43 6d ea bd c5 7c 18 bd
       0.009130978 -0.020576889 -0.11446621 -0.037228364
000370 4d d7 cc bb 07 0c 81 bd 06 60 6c bd 31 09 fd 3c
       -0.006251252 -0.06301122 -0.057708763 0.030888172
000380 23 e1 2b bd f4 d2 9e bd f3 1a 23 bd 38 b6 3a bd
       -0.041962754 -0.0775508 -0.039820623 -0.045583934
000390 60 49 74 3c b4 64 bd bb d7 3a 46 bd ea a9 52 3d
       0.014910072 -0.005779827 -0.048395958 0.051431574
0003a0 aa 33 1d 3b d3 ea c6 3c 8e 57 02 3d f7 c0 81 bc
       0.0023987093 0.024281895 0.03182178 -0.015839083
0003b0 cb 95 d4 bd 11 7a 15 3c 31 da 32 3d f8 86 61 3e
       -0.10380133 0.009123341 0.043665115 0.22024143
0003c0 df 42 04 3d a4 49 56 bc 97 29 1f bd ca 39 4c bb
       0.032290336 -0.013079081 -0.038858023 -0.0031162375
0003d0 ad 01 2f bd e6 e3 93 bd f0 c0 b0 bc 27 92 a4 3b
       -0.042726208 -0.072212026 -0.021576375 0.0050223055
0003e0 2a 5f 14 be 33 25 b6 3c 95 21 13 3c 7f 5d f2 bd
       -0.14489427 0.022234535 0.008980175 -0.11834239
0003f0 39 8f 06 3d 34 7b bf bb c6 f0 d7 bc 45 3e ec 3c
       0.03285143 -0.0058435444 -0.026359927 0.028838286

fc1.bias f4 [400]
000000 80 b1 83 3c a1 da 37 3c 6b 73 4a 3e 43 90 9a bd
       0.01607585 0.011221559 0.19770591 -0.07547047
000010 61 0f 28 be 06 28 35 3d 8b 13 3e bd c1 87 72 bd
       -0.16412117 0.044227622 -0.046405356 -0.059211496
000020 86 4d 66 bd 64 46 bb bd 07 74 bd bc c6 e1 16 be
       -0.056226276 -0.09144285 -0.023126615 -0.14734563
000030 82 5c b3 bd 7f 44 d0 bd 96 5b 50 b9 14 08 19 be
       -0.08757879 -0.101693146 -0.00019870544 -0.14944488
000040 38 e3 13 3e 5e 67 ab 3d f5 69 55 3d 25 68 18 be
       0.14442146 0.08369325 0.052103 -0.14883478
000050 65 0b 68 bd 8c 4a c2 bd a7 4f b5 bc 5f 07 d6 3b
       -0.05665149 -0.09486875 -0.022132708 0.0065316404
000060 cc b6 b9 bd 67 90 9b bd bf 3c 23 be d2 72 a7 bd
       -0.09068069 -0.07595902 -0.15941142 -0.08176197
000070 04 3b 9d bd f1 6f b7 3c 2b 10 08 be 38 38 a8 bd
       -0.07677272 0.022392245 -0.13287418 -0.08213848
000080 e1 04 f7 bc b5 36 da bd ab 5b 1c be 53 dd 25 bd
       -0.030153694 -0.10654966 -0.15269344 -0.040494274
000090 a4 74 1c bd ca 05 53 bd ed c0 83 bd d2 53 7b bd
       -0.038197175 -0.051519193 -0.06433282 -0.061359234
0000a0 62 f0 fc bd 66 3d 09 be 08 d4 88 bd b3 cb 90 bd
       -0.12350537 -0.13402328 -0.06681067 -0.070701025
0000b0 cd 56 da 3c 21 3d 49 bd de 04 fe bc 65 f7 2b 3d
       0.026652718 -0.049130563 -0.03100818 0.04198398
0000c0 99 12 7c 3d dd 40 df bd 44 c6 4e bd 8b 21 38 bd
       0.061541174 -0.109010436 -0.05048205 -0.044953864
0000d0 cb 22 ea 3d 5a 8f 21 be 8a 25 13 be ee 02 09 be
       0.114324175 -0.1577734 -0.14369789 -0.13380024
0000e0 84 19 81 bd e7 de 2f bd 4a 42 20 bc c5 b7 83 3d
       -0.06303695 -0.042937186 -0.00978143 0.06431536
0000f0 88 fd 75 3c 99 06 de 3d 63 18 e3 bd a2 67 cb bd
       0.01501406 0.10841102 -0.11088636 -0.09931876
000100 e2 75 63 bd 3e 48 b7 bd 35 88 74 bd 82 94 0d bd
       -0.055532344 -0.08949326 -0.05970021 -0.034565456
000110 82 ca a4 bd aa f0 cf bd 8f 29 6f 3d b0 29 fd bd
       -0.08046438 -0.10153325 0.058389243 -0.12361467
000120 a5 17 01 be b7 8a eb 3b 41 76 87 bd 0c a5 6b bd
       -0.12606676 0.007188167 -0.06614352 -0.057530448
000130 a9 ba 21 3b ac 11 2f bd 36 4b 34 bc ca 65 b2 3d
       0.0024677909 -0.042741463 -0.01100426 0.08710821
000140 4f a7 62 3c f0 a7 e0 bb 2c 24 b1 bd 06 bf 1c 3e
       0.013833835 -0.006855957 -0.08649477 0.15307245
000150 ba f5 68 bd fa b0 7c bd 5a ce 35 3e f0 28 3e 3d
       -0.056874968 -0.061692216 0.17754498 0.04642576
000160 85 1f 82 bd 18 9e 80 3d 79 ab 8d bd 52 ed 42 3d
       -0.06353668 0.06280154 -0.069174714 0.047589608
000170 51 03 4b bd 1f 7a 35 3d 69 4b ef 3d 6a 5c 8e bd
       -0.04956371 0.044305917 0.11684305 -0.0695122
000180 0d cc 9a 3c 02 70 84 bd 62 39 3b 3e 1c d2 cd bd
       0.018896127 -0.06466676 0.18283609 -0.10049841
000190 70 45 5b 3d eb c6 05 3e 39 db 5d 3d b2 09 ee 3c
       0.053533018 0.13064162 0.054164145 0.029057357
0001a0 bb 93 cf bd 63 7d 98 bd c1 07 8e 3c a9 bf 21 3d
       -0.10135599 -0.074457906 0.017337682 0.039489422
0001b0 42 4b 05 3d 91 7c 0b be 1d 57 f6 bd a8 05 da 3c
       0.032542475 -0.13621737 -0.12028334 0.026614025
0001c0 d0 61 a1 bd 19 02 89 bd 03 9a 1b be d3 11 84 bd
       -0.078799844 -0.06689853 -0.1519547 -0.06448712
0001d0 25 76 a7 bd 64 11 c9 3c 0b 4e 0a be 0d b3 5a bd
       -0.08176831 0.024544425 -0.13506334 -0.053393412
0001e0 f6 af 3b 3d e0 b1 45 3c e6 d9 f1 bd 1e 4c 28 bd
       0.045822106 0.0120663345 -0.11809139 -0.041088216
0001f0 2a 00 94 bd 45 6d 30 3d d3 f2 b6 bd 21 f0 f1 bd
       -0.07226594 0.043072958 -0.08933034 -0.11813379
000200 53 78 d0 bd a8 be 6a 3d 95 09 e5 bd bd 9e d4 bb
       -0.101792 0.05731073 -0.11183468 -0.0064886496
000210 a2 36 c8 3c 19 25 02 bd 06 25 87 bb 37 07 f8 3d
       0.024440113 -0.03177366 -0.0041242866 0.12110751
000220 5e 82 11 bd db b2 71 3d 9b 6e 1b 3e 82 7d b7 bd
       -0.03552472 0.05900846 0.15178911 -0.089594856
000230 9d b6 d0 bd 46 39 f8 bd 3b 37 a7 bd 9d 38 d3 bc
       -0.10191081 -0.12120299 -0.08164831 -0.025783831
000240 6f a9 40 bd ec 2b 69 3d 7d 79 94 3c f8 d5 35 3d
       -0.047036584 0.056926653 0.018124336 0.04439351
000250 fb ae 15 bd df cc 8c 3d 3c ec 87 bd 98 22 84 3d
       -0.036543828 0.068750136 -0.06636855 0.06451911
000260 33 b7 e0 bd 8e ba 22 bd a2 55 97 bd 37 b4 3a 3d
       -0.109724425 -0.039728694 -0.0738938 0.045582023
000270 b1 c2 03 be c4 ab c1 bd d8 6f 88 bc da 5f 06 3e
       -0.12867238 -0.0945659 -0.016654894 0.13122502
000280 5b c1 77 bd 95 6d 86 bc 93 ff 32 bd 4e c2 30 bd
       -0.060487133 -0.016409675 -0.043700766 -0.043154053
000290 f7 61 97 bd c6 15 03 be d5 28 a8 bd 62 cb 15 be
       -0.07391732 -0.12801275 -0.08210913 -0.14628366
0002a0 77 ae 63 bd 87 6e 06 be fa 35 4e 3e c5 70 67 bd
       -0.055586305 -0.131281 0.20137778 -0.05650403
0002b0 f2 f3 21 be b8 33 d6 3c ef 7c 5b 3c ae c5 e8 bd
       -0.15815714 0.026147708 0.013396486 -0.113658294
0002c0 8a b5 0d be b8 e5 21 3c 4e 34 38 3b 81 4f 22 be
       -0.13838783 0.009881429 0.0028107348 -0.15850641
0002d0 71 c3 03 bc 61 f9 f9 bd e1 c3 91 bb be 75 a0 3d
       -0.008042202 -0.122057684 -0.0044483994 0.078349575
0002e0 06 8e 77 3d 57 04 01 bd 0f a6 c3 bd 3b 21 44 bd
       0.06043818 -0.03149828 -0.095531575 -0.047883254
0002f0 c0 a7 b6 bd c9 23 13 3c 1f db cf bc d8 25 cb 3c
       -0.089187145 0.0089807 -0.02537304 0.024798319
000300 79 58 4b 3d ed 94 15 bd 4b 29 59 3d 91 59 bd 3d
       0.04964492 -0.03651898 0.053017896 0.09245599
000310 32 a5 1a 3d 32 ec 0e 3e fb 12 a1 3c b8 06 c2 bd
       0.0377552 0.13957289 0.01966237 -0.09473938
000320 34 23 90 bd 5c 4f a3 3d 43 83 4e be 5e 77 4b 3c
       -0.070379645 0.07974121 -0.2016726 0.012418596
000330 7e cb aa 3d 2c 6e 9d bc 91 12 99 3c 00 63 95 bd
       0.08339594 -0.019217573 0.018685611 -0.072942734
000340 ab 80 b5 3d ee d1 01 be 5f c9 25 3d f7 d9 21 bd
       0.08862432 -0.12677738 0.040475246 -0.039514508
000350 5d 0b a9 bd 9f 40 d4 bc 36 c5 1a 3c 3d 12 e2 bd
       -0.082541205 -0.02590972 0.009446433 -0.11038635
000360 f6 d8 4c 3d 36 1d 21 3d d8 f2 6a 3d a2 42 b9 bd
       0.050011598 0.0393345 0.0573605 -0.09045912
000370 43 13 a2 bc d2 d9 95 bb b5 2a 9a 3d d0 02 e6 bd
       -0.019784575 -0.0045730853 0.07527677 -0.11231005
000380 b0 06 8e bd e2 73 11 be 62 26 71 bc c4 83 87 3b
       -0.06934869 -0.14204362 -0.014718624 0.0041355807
000390 24 6a 07 3e a0 b8 10 be cf c3 49 3e af ac 18 bd
       0.13224083 -0.14132929 0.19703601 -0.03727406
0003a0 38 94 3f bc b3 09 4d bc 58 5c 75 bd 4c 4b c3 bd
       -0.011693053 -0.0125145195 -0.05990252 -0.09535846
0003b0 aa b1 08 3e 89 ac a3 bb 36 3c fd bd 9d be 44 3b
       0.13349023 -0.004994933 -0.12365 0.003002084
0003c0 22 28 0c be be 0e d5 bd 4e 29 ce bd 23 09 0e 3d
       -0.13687184 -0.104032025 -0.10066472 0.034676682
0003d0 db ae 29 3d ff e0 76 bd 51 f8 80 bd ca 27 87 bd
       0.04142652 -0.060273167 -0.062973626 -0.06599386
0003e0 bd 33 17 3d 79 19 db bc 9e 19 f5 bd bf 6b 18 be
       0.036914576 -0.026745545 -0.11967777 -0.14884852
0003f0 85 41 cf bd 5e 1c 07 bd eb 1c 0c be ee ae db bb
       -0.10119919 -0.032986037 -0.13682906 -0.006704203

fc2.weight f4 [300, 400]
000000 76 3a 1a bd 58 9e d9 bc 89 c8 fb 3c 18 fc 3a bb
       -0.03765341 -0.026564762 0.030735271 -0.0028531607
000010 81 09 42 bd f0 c7 86 bc 19 33 d7 3d a2 68 b4 3d
       -0.047372345 -0.01645276 0.10507793 0.088090196
000020 9b 9a c0 bc e7 54 24 3c fd 81 3e bd a3 d0 9f 3c
       -0.023511222 0.010030008 -0.046510685 0.019508665
000030 42 65 74 bc 0f 31 c8 bc a2 76 7d 3c fd d0 79 3d
       -0.01491672 -0.024437455 0.015470179 0.060990322
000040 68 34 f9 bc a1 56 09 bd d5 a4 16 3d 6b 62 25 bc
       -0.030420497 -0.03352988 0.03677829 -0.010094265
000050 19 05 98 3d ff b1 37 3b 7b c1 89 3d 77 ff 25 bd
       0.07422847 0.0028029678 0.067263566 -0.040526833
000060 e6 74 0b 3b 3c c0 d2 bc 74 c3 7f bc da d2 56 3d
       0.0021279394 -0.02572643 -0.0156105645 0.052447177
000070 d5 4a 18 bd ed 1b 0d 3d bb d0 fb bc ac d4 47 3d
       -0.03718074 0.03445046 -0.030739179 0.048786804
000080 b6 48 c5 3c 67 71 38 bc 84 c4 28 3d 19 1e 95 3c
       0.024082523 -0.011257506 0.041203037 0.018202828
000090 63 f1 0d 3d ff 5a 05 bc 50 5d 85 3d 36 08 43 3d
       0.034654032 -0.008139371 0.065119386 0.047615252
0000a0 bc 53 3e 3d 22 c7 56 3d 5a 3b 8a 3d 8a 2d 29 3d
       0.046466574 0.052436 0.06749602 0.041303195
0000b0 7a a4 0e 3d c0 3d 24 3c 19 95 48 bc db a0 11 bd
       0.034824826 0.010024488 -0.012242579 -0.035553794
0000c0 19 e0 37 bb bb f7 9b 3c e6 50 4f 3d 8f ac 7f bd
       -0.0028057157 0.019039026 0.05061426 -0.062420424
0000d0 0f 58 b3 bb 06 29 a9 3c be 41 6d 3b 2f 8e ca bc
       -0.005473144 0.020649444 0.0036202515 -0.024726002
0000e0 ee 60 c0 bd 4f b6 a1 3c bd 7a 10 bd f4 37 81 3d
       -0.09393488 0.019740252 -0.035273302 0.063095
0000f0 38 ad b5 3c d2 96 9b 3c f3 93 0c bd f7 73 a8 bd
       0.022177324 0.018992815 -0.034320783 -0.082252435
000100 2e d9 a4 bd 51 f2 80 bc 38 38 1e bd 81 88 00 3d
       -0.08049236 -0.015740545 -0.038627833 0.03138018
000110 87 6a 6f 3d 0b 74 33 bc 8c 44 34 bd f8 18 9d 3c
       0.0584512 -0.01095296 -0.044010684 0.019176945
000120 ff 70 17 ba 06 91 57 bc 98 ac 89 3b 5c f5 5d 3c
       -0.00057770306 -0.013157135 0.004201483 0.013547268
000130 10 18 1d bd f4 fe 05 3d cc 42 de bc fb fa b5 3c
       -0.038353026 0.032713845 -0.02713146 0.022214403
000140 b3 03 db bc e5 b8 8c 3d f5 cf 8c bc 3b 58 61 3c
       -0.026735162 0.06871203 -0.017189005 0.013753946
000150 b7 7f 35 3d 65 3c 1a be 5f 91 81 3c 5d b1 ee 3d
       0.04431125 -0.15062101 0.015816389 0.11654923
000160 f9 08 14 bd 8e 3a 71 3d 77 b4 51 bd 7b 25 19 3b
       -0.03614137 0.058893733 -0.051197495 0.0023368287
000170 ab e1 38 3d 2b a9 2c bc 22 42 51 3d 11 9c 38 3c
       0.04513709 -0.01053838 0.05108846 0.011267678
000180 0d e4 72 3d 8a ce 82 3d b6 c3 63 ba 0a 18 8e 3c
       0.059299517 0.063870504 -0.0008688526 0.017345447
000190 c5 39 2a 3d 25 b1 23 3d b1 ef db 3b 1f ca 92 3c
       0.041559 0.03996386 0.006711923 0.017918644
0001a0 52 f2 e7 bc 83 1d e2 3c 9f ea 99 3d 78 0b 88 3d
       -0.02831379 0.027601963 0.075154535 0.066428125
0001b0 e1 99 60 3c a4 2d 93 3d 24 70 33 3c e6 cf 28 3d
       0.013708563 0.0718644 0.010952029 0.041213892
0001c0 e2 1c 86 3d 44 83 1a 3c cb 40 3e 3d 0a a4 f8 3c
       0.06548478 0.00943071 0.04644851 0.030351657
0001d0 49 ab 7a 3d 6b f2 ff 37 25 75 70 bc 3c 4c cd 3d
       0.061198507 3.0511253e-05 -0.014676367 0.10024306
0001e0 26 49 7b bc 5a 88 0e 3c 7c 11 00 3d d1 e2 a5 bc
       -0.015337264 0.008699501 0.031266674 -0.020249756
0001f0 06 b7 85 3d 16 f2 d4 3c 06 3f 46 3d 64 1d aa 3c
       0.065290496 0.025994342 0.048399948 0.020765968
000200 3a 83 28 39 37 48 30 39 87 7b b5 bd 09 f8 53 3d
       0.00016070614 0.0001681157 -0.088614516 0.051750217
000210 ff af 58 3d 55 e2 e1 3c d6 ab 86 3c 00 0e 43 bc
       0.052902218 0.027573744 0.01643936 -0.011905193
000220 d4 4d 4b bc 97 23 6f 3c fe 30 40 3d a9 a6 26 bc
       -0.012408692 0.014595888 0.046921723 -0.010171571
000230 08 19 26 bd 91 05 ea bc 07 d6 90 3c f2 23 4f 3c
       -0.040551215 -0.028567107 0.017680181 0.012642847
000240 7a c8 ae 3c 85 5a 8f 3c b7 0e 6a 3d d9 35 71 3b
       0.021335829 0.017499218 0.05714294 0.0036805777
000250 86 e9 3c 3d 42 6d 83 3c 79 ce c2 3c 96 21 0f bc
       0.046121143 0.01604331 0.023780094 -0.008736035
000260 f5 a9 8e bc 0a 78 1b bc 1e ce a1 bd 6c 7c fe bc
       -0.017415026 -0.009489069 -0.07900642 -0.031065188
000270 a7 a7 2d 3c c9 b1 55 bd 41 2d 99 bc 12 c5 46 3d
       0.010599053 -0.052171502 -0.018698337 0.048527785
000280 51 5d 89 bb 5c 5a 03 bd 10 87 b5 bc d9 4a 5f 3d
       -0.0041920324 -0.032068595 -0.02215913 0.05451474
000290 03 c1 9f 3c 6d 10 47 bd 95 c4 b3 3c bf ae 24 bc
       0.019501215 -0.04859965 0.021944324 -0.010051428
0002a0 d8 78 52 3d f1 c3 df bc a7 ec 84 bd c6 27 52 3d
       0.051384777 -0.027315112 -0.0649045 0.051307462
0002b0 b2 48 44 bd d1 22 f0 3b 70 18 1d 3c 54 1a ba bc
       -0.04792089 0.007328369 0.009588346 -0.022717632
0002c0 f6 32 a6 bc e2 1b 95 3b d2 f3 23 3d a6 8a 2b bd
       -0.020287972 0.004550443 0.040027447 -0.041880272
0002d0 8c ee 15 bc 0f e1 6d 3d 0c c5 d3 3c 6f ea 8e bc
       -0.009151112 0.05807596 0.025850795 -0.017445771
0002e0 4a b7 5d 3c c1 6a 2a 3a 7e be 83 3d 4d 82 1b bd
       0.013532469 0.0006500893 0.06432818 -0.03796606
0002f0 60 e5 08 bc 79 66 2a 3d c2 c9 5f 3d 9f 93 1b 3d
       -0.0083554685 0.04160163 0.05463577 0.03798258
000300 5e 62 81 bc d9 59 8e bc 92 3c 7e 3c a3 78 02 3d
       -0.015793975 -0.017376827 0.015517371 0.03185333
000310 d6 18 d2 bc 45 0a b3 3c 15 b5 fc 3b 26 42 c9 3b
       -0.025646608 0.021855483 0.0077120163 0.0061419187
000320 ef 65 96 bb 50 54 1b 3d c4 6a 8e 3c 3e 29 0c bc
       -0.004589788 0.037922204 0.017384894 -0.008554755
000330 80 68 d3 3b bf b8 11 bc da 5c ae bb 9f 59 70 3c
       0.0064516664 -0.008894145 -0.0053211274 0.014669805
000340 f4 f4 08 3d 74 79 10 3b 61 cc 33 3b ee fd 17 3d
       0.03343673 0.0022045048 0.0027435052 0.0371074
000350 10 b4 85 bc f3 51 9a bc d2 79 42 3c 8e 7f b5 3c
       -0.016321212 -0.018837905 0.011869865 0.02215555
000360 f7 f5 68 3d 76 d1 22 3d 10 0f c1 3c c7 17 9a 3c
       0.056875195 0.03975054 0.023566753 0.018810166
000370 58 69 86 bb 15 cd 0b 3d 2c c2 2d bd 4a 94 ba bc
       -0.0041019134 0.03413113 -0.042421505 -0.022775788
000380 c1 2a 1e 3d 26 f5 d9 3a 82 5a e3 bc ae 52 20 bb
       0.038614992 0.0016628846 -0.027753118 -0.0024463343
000390 2c 61 30 3d 8b 64 6b 3d 16 ab c5 bc 05 71 87 bc
       0.04306142 0.057468932 -0.024129432 -0.016533384
0003a0 cb 0a 8a bd 0d e6 b8 3c 95 03 2a 3d 24 09 a1 3c
       -0.0674034 0.022570634 0.041507322 0.019657679
0003b0 aa 4f 97 3d 9a be ab 3c 32 47 16 bd 4d eb 4c 3d
       0.073882416 0.02096491 -0.03668899 0.050029088
0003c0 6a 16 ca bc 9a a8 56 bd 6c 26 0a 3d 32 fd 03 bd
       -0.024668891 -0.052406885 0.03372805 -0.032223888
0003d0 59 2f ae bc 68 eb f2 bc 34 b3 20 bd 0b 27 b4 bc
       -0.021262811 -0.029653266 -0.0392334 -0.021991273
0003e0 79 a2 6c 3d 3f 6f 2b bd aa 27 52 bd fc 8f 84 bb
       0.057772133 -0.04185414 -0.051307358 -0.0040454846
0003f0 ac 87 f2 ba 05 aa 45 bd df 30 55 3a 78 28 fb 3c
       -0.0018503568 -0.048257846 0.00081325875 0.030658945

fc2.bias f4 [300]
000000 79 d9 9c bb 64 98 d9 bc 59 67 1b bd ae 46 9c 3c
       -0.004786667 -0.026561923 -0.037940357 0.019076671
000010 de 11 12 bc 1c 48 8e 3c 40 a0 46 3b a8 5a 52 3c
       -0.008915393 0.017368369 0.0030307919 0.012838997
000020 58 a1 ed bc b1 2f e8 bc 29 b1 bc bb 4f f9 a5 3c
       -0.029007599 -0.028343054 -0.005758424 0.020260481
000030 42 1a 55 3d 09 65 0f 3d 33 28 ab bc 3f 3b 68 3d
       0.052026995 0.035008464 -0.020893192 0.056697126
000040 13 14 4c 3d 34 e9 1e 3a 05 47 b2 bc 55 65 ac 3c
       0.04982383 0.00060619717 -0.02176238 0.021044413
000050 f3 49 cc bb be ab 12 3d ba 25 2b bd dd c5 18 bd
       -0.0062344014 0.035808317 -0.041784026 -0.037298072
000060 c2 96 5c 3d 3e bc 13 bd cc cf 53 3d 87 5e 09 3b
       0.05385471 -0.036068194 0.051711842 0.0020960884
000070 b3 53 4c 3d a9 41 77 3d 82 9c 2f bc 94 eb 01 3b
       0.04988451 0.060365353 -0.010718467 0.0019824253
000080 61 e3 28 3d 1c 81 0d bd 87 19 78 bc 2f aa 0a bd
       0.04123247 -0.034546956 -0.015142805 -0.033853706
000090 b5 36 d6 bc 79 ab 3d 3d 6e 0e 1b 3d f4 86 1f 3d
       -0.026149133 0.046306107 0.037855558 0.03894706
0000a0 47 95 6d 3c 2b bb ec bc 4f ea 11 3d 89 d7 5b 3d
       0.0145009225 -0.028897842 0.035623845 0.053672347
0000b0 7f 45 f9 bc 61 a3 20 bc 64 b2 c9 bc 99 05 15 3c
       -0.030428646 -0.009804578 -0.024621196 0.009095573
0000c0 cd ca 77 3d fc 98 5c 3d 06 0e 19 bd ba 49 29 bd
       0.06049614 0.053856835 -0.03736689 -0.041330077
0000d0 86 21 9f 3b 7f 1d 38 bd b0 e4 f9 bb 36 33 20 bc
       0.004856291 -0.044950005 -0.0076261386 -0.009777835
0000e0 82 19 0d bb 34 af 19 3d 53 f8 70 3d e1 92 5e ba
       -0.0021530096 0.037520602 0.05883057 -0.00084905146
0000f0 cb 48 70 3d 58 e4 08 3d d9 55 ab bb 34 22 18 3d
       0.05866317 0.03342089 -0.0052287397 0.037141994
000100 0a 1b 39 3d 52 c0 21 3d 53 1b c2 bc 82 38 42 bd
       0.045191802 0.03949005 -0.02369467 -0.04741717
000110 5b 15 3e bd 66 60 ac 3c 4a bc b2 3c 29 61 26 bd
       -0.046407085 0.02104206 0.021818299 -0.040620003
000120 b7 1e c0 3c eb 18 7c 3d 65 2a 1d 3d 0f af 4c 3d
       0.023452146 0.0615472 0.03837051 0.049971636
000130 dc 54 80 3d d2 ca 00 bd ae 9a 4f 3d e7 e4 7f 3c
       0.06266186 -0.031443425 0.050684623 0.015618539
000140 05 0d 6a 3d b8 e2 ae bc 63 de 8a 3c 14 6a 23 bc
       0.057141323 -0.021348342 0.016951745 -0.009974021
000150 d8 63 41 3d d6 57 06 3d 2a 30 b2 bc 35 be 3f bc
       0.04721436 0.03279861 -0.021751482 -0.011703064
000160 13 58 96 3c 67 0d c5 3c 34 32 90 bc ef c8 bb bb
       0.018352544 0.024054242 -0.017602064 -0.0057307403
000170 9b 70 55 3d cb 3a ed 3c e3 7d 14 bd 33 f0 5f 3c
       0.052109342 0.028958699 -0.036252867 0.013668108
000180 c0 fa de bb 5a 2f 23 bd a1 6a 20 3d 67 64 6b bc
       -0.006804794 -0.03984008 0.03916419 -0.0143671995
000190 d9 09 71 3c 9f 8d db 3b 89 da d0 3b e6 1a 29 3d
       0.0147118205 0.006700232 0.0063737077 0.041285418
0001a0 e7 78 2c 3d ba 55 4e 3d f9 17 53 3d 05 27 62 3d
       0.04210749 0.050374724 0.051536534 0.055212993
0001b0 18 be 41 bd 26 c3 a5 3b 11 6d 4c bc 83 d6 14 3d
       -0.04730043 0.005058664 -0.012477175 0.036337387
0001c0 94 f8 3a bb e8 a4 28 bd d2 68 93 bc 77 43 7e bc
       -0.0028529512 -0.04117289 -0.017994318 -0.015519015
0001d0 c5 cd 48 3d a7 e2 13 bb d0 3f 60 3c 4f 91 ca 3c
       0.049024362 -0.0022565515 0.013687089 0.024727492
0001e0 58 6c fa bc 75 98 01 3c 54 d2 ba 3c f4 62 da 3c
       -0.03056924 0.007909884 0.02280537 0.026658513
0001f0 84 27 05 3d 8a 02 65 3d 70 28 02 3d d9 1f 50 bd
       0.03250839 0.055910625 0.031776845 -0.050811622
000200 f6 e9 3a 3c dd 4e 1c bd c4 28 26 bc 8e 5f 0e bd
       0.01140832 -0.038161147 -0.010141555 -0.034759097
000210 e1 34 22 bb 78 23 4c 3d 15 fc d9 bc 45 98 13 bc
       -0.0024750757 0.049838513 -0.02660946 -0.009008472
000220 39 f1 8c bc 08 55 0d 3d 56 18 de bc 4d 1d 82 3c
       -0.017204868 0.03450492 -0.027111214 0.015883112
000230 6e de 3d bd d7 96 3d bd 4b b2 a8 bc cc dd 80 3b
       -0.046354704 -0.04628643 -0.02059283 0.0039326902
000240 f0 d6 0c bb 09 6e 07 3d 49 72 87 3d 09 fc 5a 3c
       -0.0021490417 0.033063922 0.06613595 0.013365754
000250 a4 c6 47 3c 89 09 06 bc 16 1c 76 bc 91 9b b2 3c
       0.012193356 -0.008180984 -0.015021345 0.021802695
000260 5b f3 69 3c 87 a2 5f 3d be 08 e1 3c 6d 11 b9 3c
       0.014279212 0.054598358 0.027469989 0.022591317
000270 3a e1 92 3b 73 be 21 bd f9 55 65 bc 09 24 a4 bc
       0.0044824155 -0.039488267 -0.013997548 -0.020036714
000280 0a 5e a3 3c 14 2b 3e bd 31 be 72 3d fd 3b 76 3d
       0.019942302 -0.0464278 0.059263412 0.060115803
000290 69 cf 03 bd 04 92 f8 bc c9 76 4a bc 9f b0 ad 3c
       -0.032180224 -0.030343063 -0.012357422 0.021202384
0002a0 ba 17 6f 3d 72 74 be bc 7e 25 d5 ba 26 30 15 bd
       0.058372237 -0.023248885 -0.0016261784 -0.03642287
0002b0 73 fb 12 3d 1e 8d 64 3d d7 08 3c bd 2c 63 7a 3d
       0.035884332 0.055798642 -0.045906868 0.061129734
0002c0 82 12 1d 3d bc f2 dc bc 1f 7d fa bc 90 34 5b 3d
       0.03834773 -0.026971214 -0.03057724 0.053516924
0002d0 31 9a 61 3d f7 e9 c3 bb 94 8c e5 3b ba 93 2f bd
       0.05507869 -0.0059788185 0.0070052836 -0.042865492
0002e0 25 d6 c8 bc ca 93 56 3d f9 70 44 3d ac b9 31 bd
       -0.024516175 0.052387036 0.0479593 -0.04338996
0002f0 f8 81 c1 bc b0 2d 3d 3c 36 a5 62 b9 ab 99 9a bc
       -0.023621544 0.011546537 -0.00021614585 -0.018872103
000300 e1 07 c8 3c d1 96 37 bd b7 8f 2e 3d cf 2c b9 bc
       0.02441782 -0.044821564 0.042617526 -0.022604374
000310 9e 2e 2d bc aa 2c 4e bc 0c 54 a1 3b be 8e 49 3d
       -0.010570196 -0.012583891 0.0049233492 0.049208395
000320 b7 cf 58 3d 2d e9 c9 bc c5 6d 93 ba 48 19 7a bb
       0.052932467 -0.02464732 -0.0011247924 -0.0038162041
000330 1c f3 98 3b 27 67 a7 bc 45 50 14 bd 05 4b 0e 3a
       0.004667653 -0.020434929 -0.036209363 0.0005428049
000340 d8 cd 51 3d 00 82 17 bd 4f f2 7f 3d 03 0c 20 3d
       0.0512217 -0.036989212 0.062486943 0.039073955
000350 0f b6 67 3d 30 c0 0e 3d 99 f9 d8 bc f8 ab d3 bc
       0.05657011 0.034851253 -0.026486205 -0.025838837
000360 e1 4e 38 bd 92 fc 05 3d 3e e5 2f bd 40 e0 29 3d
       -0.0449971 0.032711573 -0.04294323 0.041473627
000370 83 f2 eb 3b 1c 71 19 3d 31 38 d8 bc f5 4c d2 3c
       0.0072005405 0.037461385 -0.026393982 0.025671462
000380 2d 03 c3 3c 58 c5 3e bd 90 d2 55 3d 9b 23 76 3d
       0.023805225 -0.04657492 0.05220276 0.06009255
000390 d9 52 9a 3c dc af c5 bc 94 af 01 bd 65 b4 5f bc
       0.018838333 -0.024131708 -0.031661585 -0.013653849
0003a0 86 92 51 3d 92 c9 08 ba e2 f5 5a bc 8f 93 1d bd
       0.051165126 -0.00052180246 -0.013364287 -0.0384708
0003b0 b9 40 61 3d 8c 44 c3 3c 24 b6 0f 3d 14 6f 13 bd
       0.054993365 0.023836397 0.035085812 -0.035994604
0003c0 b2 35 91 3d af 10 8f bc c3 aa 42 3d a9 e4 41 3d
       0.0709032 -0.01746401 0.047526132 0.047337208
0003d0 8f a8 46 3d 81 3d 32 3d 15 8f 13 3d 74 fb 58 3c
       0.048500594 0.043515686 0.036025126 0.013243545
0003e0 84 9f 81 3d 04 97 ac bc 8c 93 15 bd 5b 13 2f bc
       0.06329253 -0.021068104 -0.036517665 -0.010685767
0003f0 70 8b 42 3d a9 d3 2a bc 6b 88 01 3d 26 a7 b8 bc
       0.04749626 -0.01042644 0.03162424 -0.02254064

bn1.weight f4 [400]
000000 cd b4 7d 3f f6 d7 82 3f aa 1c 87 3f 68 4b 8a 3f
       0.99104005 1.0222156 1.0555623 1.0804262
000010 87 48 83 3f 39 73 7f 3f f6 cb 89 3f 7d b4 89 3f
       1.0256509 0.9978519 1.0765369 1.0758206
000020 bc 6b 81 3f 00 00 80 3f 8b 72 90 3f 00 00 80 3f
       1.0111003 1.0 1.1284956 1.0
000030 00 00 80 3f 3e 3e 80 3f 14 f6 7f 3f 27 55 81 3f
       1.0 1.0018995 0.9998486 1.0104111
000040 a0 60 7f 3f e2 83 95 3f 76 b6 84 3f e8 d2 7e 3f
       0.99756813 1.1680872 1.0368183 0.9954057
000050 a7 88 a3 3f 00 00 80 3f a9 5b 81 3f bf 94 8a 3f
       1.2776078 1.0 1.0106097 1.0826644
000060 97 06 89 3f f4 f0 8e 3f 00 00 80 3f 00 00 80 3f
       1.0705136 1.1167283 1.0 1.0
000070 00 00 80 3f 78 69 80 3f 0c e3 7d 3f 5c 93 81 3f
       1.0 1.0032187 0.9917457 1.0123096
000080 27 0d 81 3f 00 00 80 3f 0a 54 80 3f d0 02 82 3f
       1.0082139 1.0 1.0025647 1.0157108
000090 d0 12 86 3f e0 5c 86 3f 92 7e 7c 3f 5b 33 7f 3f
       1.0474491 1.0497093 0.9863063 0.9968774
0000a0 60 98 7e 3f 00 00 80 3f 97 b9 7d 3f 20 9e 7e 3f
       0.99451256 1.0 0.9911131 0.9946003
0000b0 6e 0d 81 3f 7a a7 8c 3f ab ca 7f 3f 1f 2a 83 3f
       1.0082223 1.098861 0.9991862 1.0247229
0000c0 f9 1e 82 3f 2b fb 84 3f 46 c2 86 3f 53 00 84 3f
       1.0165702 1.038915 1.0528038 1.0312599
0000d0 33 4c 81 3f c5 9f 81 3f 63 a1 88 3f 00 00 80 3f
       1.0101379 1.0126883 1.0674251 1.0
0000e0 d9 1b 8b 3f e2 9f 82 3f cb 41 80 3f b8 95 7e 3f
       1.0867873 1.0205042 1.0020078 0.994472
0000f0 ef 31 8c 3f 7d ad 81 3f e7 19 8f 3f e6 42 8d 3f
       1.0952739 1.013107 1.117978 1.1036041
000100 0c b1 90 3f 80 3a 80 3f 27 07 7e 3f 52 46 7f 3f
       1.130403 1.0017853 0.99229664 0.99716675
000110 b7 71 86 3f 00 00 80 3f 2b cb 80 3f 0d 48 86 3f
       1.0503453 1.0 1.0062002 1.0490738
000120 02 35 8e 3f 2f 5d 88 3f 00 00 80 3f bb f2 8f 3f
       1.1109927 1.0653437 1.0 1.124595
000130 19 f6 80 3f be 43 8b 3f 32 57 7c 3f 73 f8 80 3f
       1.0075103 1.0880048 0.9857055 1.0075821
000140 91 f8 7d 3f 2f 94 81 3f 29 e7 88 3f bb dd 85 3f
       0.9920741 1.0123347 1.0695544 1.0458292
000150 3a 3e 82 3f eb 4a 8e 3f 02 a9 80 3f a8 3b 89 3f
       1.017524 1.1116613 1.0051577 1.0721331
000160 00 00 80 3f 3c 2f 7d 3f ca 04 87 3f 92 54 93 3f
       1.0 0.989002 1.0548337 1.1510184
000170 7b d4 83 3f 80 05 81 3f c2 be 7e 3f e1 de 7e 3f
       1.0299219 1.0079803 0.99509823 0.99558836
000180 52 9f 89 3f af 5c 7d 3f 6a 8f 88 3f 8d 8d 80 3f
       1.0751746 0.9896955 1.0668766 1.0043198
000190 6f 56 85 3f 38 9e 81 3f 76 3e 81 3f 0c 0f 84 3f
       1.0417002 1.012641 1.0097187 1.0317092
0001a0 c8 06 7e 3f 00 00 80 3f 16 f6 7e 3f c9 a9 81 3f
       0.992291 1.0 0.9959425 1.0129939
0001b0 3c 9c 80 3f 80 fc 87 3f 00 00 80 3f 70 c9 8a 3f
       1.0047679 1.0623932 1.0 1.0842724
0001c0 1a 60 7c 3f da 10 7e 3f 05 d0 7c 3f 71 53 7d 3f
       0.9858414 0.99244463 0.9875491 0.98955446
0001d0 a2 0b 7f 3f 32 ec 81 3f 86 4f 97 3f 11 a5 94 3f
       0.99627125 1.0150206 1.1821144 1.1612874
0001e0 9b cd 7e 3f 5f 40 86 3f 8a 48 7e 3f 89 bf 85 3f
       0.9953248 1.0488394 0.99329436 1.0449077
0001f0 a3 0e 80 3f fe d2 83 3f fc 5e 7d 3f 00 00 80 3f
       1.0004467 1.0298765 0.9897306 1.0
000200 00 00 80 3f 50 39 81 3f e5 89 88 3f bf ea 7d 3f
       1.0 1.0095615 1.0667082 0.9918632
000210 06 df 9d 3f 11 2b 7d 3f 38 14 7e 3f e7 aa 85 3f
       1.2333686 0.9889384 0.992496 1.044278
000220 08 52 80 3f 4b 3b 80 3f b1 e5 82 3f 00 00 80 3f
       1.0025034 1.0018095 1.0226346 1.0
000230 f5 ce 81 3f 87 45 8a 3f 71 b5 8c 3f c4 58 86 3f
       1.0141283 1.0802468 1.0992872 1.0495839
000240 8f 60 8c 3f 89 0e 80 3f 83 33 84 3f 32 ec 7b 3f
       1.0966967 1.0004436 1.032822 0.9840728
000250 09 c9 81 3f 8b 01 83 3f 4b 6f 83 3f d6 6f 82 3f
       1.0139476 1.0234846 1.0268339 1.019038
000260 00 00 80 3f 48 18 7b 3f 77 50 90 3f 03 5f 7d 3f
       1.0 0.98083925 1.1274556 0.989731
000270 00 00 80 3f 00 00 80 3f 2c d3 80 3f 15 b0 82 3f
       1.0 1.0 1.0064445 1.0209986
000280 e0 fe 81 3f 7e 91 79 3f ac 19 7f 3f 2d 84 7f 3f
       1.0155907 0.9748763 0.9964855 0.9981106
000290 00 00 80 3f 51 70 93 3f ae dc 8a 3f 00 00 80 3f
       1.0 1.1518651 1.0848596 1.0
0002a0 2d cb 84 3f 00 00 80 3f b5 43 85 3f 3e 9b 80 3f
       1.0374504 1.0 1.0411288 1.0047376
0002b0 00 00 80 3f 75 b3 80 3f b8 64 83 3f 62 f4 84 3f
       1.0 1.0054766 1.0265112 1.038708
0002c0 83 8a 87 3f 8e f0 7c 3f 70 94 80 3f 67 eb 80 3f
       1.0589145 0.9880456 1.00453 1.0071839
0002d0 c2 e6 7d 3f e4 5c 80 3f d7 c8 7d 3f ee 5c 7e 3f
       0.99180233 1.0028348 0.9913458 0.9936055
0002e0 82 18 89 3f 3a ec 7e 3f 4a a2 81 3f 07 81 7f 3f
       1.0710604 0.99579203 1.0127652 0.99806255
0002f0 00 00 80 3f 10 e7 7c 3f 75 73 7f 3f 7b a9 7e 3f
       1.0 0.98790073 0.9978555 0.99477357
000300 0e 14 7e 3f 1c 40 83 3f 21 95 7b 3f 03 a4 80 3f
       0.9924935 1.025394 0.9827443 1.0050052
000310 02 a3 7f 3f 0e a8 7e 3f d2 cb 7f 3f 00 00 80 3f
       0.99858105 0.9947518 0.9992038 1.0
000320 3f 51 7f 3f 2c ae 7f 3f 20 1d 81 3f b5 ec 7e 3f
       0.99733347 0.9987514 1.0087013 0.99579936
000330 56 d4 7f 3f 31 99 7b 3f 8e 85 87 3f 30 c9 82 3f
       0.99933374 0.98280627 1.0587633 1.0217648
000340 30 0b 83 3f 7b e4 80 3f f3 cc 90 3f a5 e1 80 3f
       1.0237789 1.0069727 1.1312546 1.0068861
000350 b8 cc 85 3f 31 fd 82 3f 28 1d 81 3f 71 8b 85 3f
       1.04531 1.0233518 1.0087023 1.0433179
000360 ae d8 7d 3f 29 1d 81 3f 01 fa 80 3f 00 00 80 3f
       0.9915875 1.0087024 1.0076295 1.0
000370 be b6 7d 3f 03 a4 7c 3f b7 05 80 3f 00 00 80 3f
       0.9910697 0.9868776 1.0001744 1.0
000380 00 00 80 3f d8 d3 95 3f 7f 38 7e 3f 5b e7 81 3f
       1.0 1.1705275 0.99304956 1.0148729
000390 85 b4 84 3f 00 00 80 3f f5 bd 84 3f 91 68 8a 3f
       1.036759 1.0 1.037047 1.0813161
0003a0 dc 9e 8e 3f ed 4b 90 3f c0 a7 80 3f 00 00 80 3f
       1.114223 1.1273171 1.0051193 1.0
0003b0 0b 29 85 3f 75 3c 7e 3f 00 00 80 3f 59 e8 81 3f
       1.040315 0.99311 1.0 1.0149032
0003c0 c6 08 86 3f 61 9b 89 3f 04 ce 83 3f d1 84 80 3f
       1.0471427 1.0750543 1.0297246 1.0040532
0003d0 f3 11 81 3f 12 66 89 3f 00 00 80 3f e9 5a 81 3f
       1.0083603 1.0734274 1.0 1.0105869
0003e0 71 d2 7d 3f 02 21 7e 3f 4d 78 88 3f 00 00 80 3f
       0.99149233 0.99269116 1.0661713 1.0
0003f0 51 3f 8d 3f 90 06 7f 3f 00 00 80 3f 59 00 81 3f
       1.1034948 0.9961939 1.0 1.0078231

bn1.bias f4 [400]
000000 36 f7 1c bc 42 f9 89 39 24 fe 6d bb b7 80 25 3d
       -0.009580424 0.00026316388 -0.003631481 0.040405955
000010 49 71 40 3c 27 04 aa bb ad 31 93 bc 8b 43 38 bc
       0.011745759 -0.0051884833 -0.017968023 -0.011246572
000020 1d 17 84 3c 00 00 00 00 80 86 43 3c 00 00 00 00
       0.016124303 0.0 0.011933923 0.0
000030 00 00 00 00 05 39 1e 3a d1 67 cd 38 23 48 2b bc
       0.0 0.0006035718 9.794499e-05 -0.01045421
000040 1b 33 29 bc f3 2e 36 3b 93 c7 52 bc 0f 75 4a bc
       -0.010327126 0.002779898 -0.012864965 -0.0123570105
000050 93 f9 47 3c 00 00 00 00 38 5a e3 3b ef 92 0b bc
       0.012205499 0.0 0.006938245 -0.008518918
000060 96 b5 9b 3c ad 79 e7 3c 00 00 00 00 00 00 00 00
       0.019007485 0.028256262 0.0 0.0
000070 00 00 00 00 b0 7e fe bb 7e 32 db 3b 88 bc 3c 3c
       0.0 -0.007766567 0.0066893687 0.011519559
000080 4d 94 6c bb 00 00 00 00 4a e8 23 bb b1 12 c8 3b
       -0.0036099136 0.0 -0.0025010281 0.006105744
000090 3d ef a4 3b f2 d1 46 3c f9 d2 6b bc a0 a5 00 bc
       0.0050334022 0.012135016 -0.0143935615 -0.007851988
0000a0 e4 ad 1f bc 00 00 00 00 2d c1 19 bc f3 0d 06 bc
       -0.009746049 0.0 -0.009384436 -0.008182037
0000b0 86 eb e2 3c e4 4b 2d 3d 01 41 02 bc 19 1d 13 3c
       0.027700197 0.042308703 -0.007950068 0.008979105
0000c0 10 ad 5b 3b 88 3d 60 3c 83 7b 93 ba 96 5a 14 bc
       0.0033519901 0.013686545 -0.0011252019 -0.0090548005
0000d0 6d f4 8b 3b c8 97 70 3b 4e 1c cb bb 00 00 00 00
       0.004271081 0.0036711562 -0.0061984425 0.0
0000e0 47 c1 f6 3c 4c df a7 3c b6 f2 cc 3a b2 e8 e2 bb
       0.030121459 0.020492218 0.0015636298 -0.006924712
0000f0 e3 38 83 3c d2 78 c0 bb ce 2b 46 3c b2 48 f0 3c
       0.016018337 -0.005873778 0.012095405 0.029331539
000100 a4 0d 4e bc 7b 0b e0 bb bc ba 02 bc 65 07 89 bb
       -0.012576494 -0.006837306 -0.007979091 -0.0041817897
000110 c4 da 22 3c 00 00 00 00 28 a0 ad bb 27 cc 4a 3b
       0.009939853 0.0 -0.005298633 0.0030944438
000120 04 f7 61 3c a9 f0 b4 3b 00 00 00 00 fb dd 90 bc
       0.013791803 0.005521853 0.0 -0.017683974
000130 62 d5 5d ba a0 d7 4b 3c 6d c6 86 bc ce c0 fb ba
       -0.00084622775 0.012441546 -0.016452039 -0.001920724
000140 a4 5e 10 bb 76 fa dd ba c1 d0 32 3d 47 c0 54 bb
       -0.0022029066 -0.0016935605 0.043656114 -0.003246324
000150 fd 3c 46 3c 94 e7 a7 3b b3 2f 48 bc 04 63 18 3b
       0.012099502 0.005124042 -0.012218404 0.0023252377
000160 00 00 00 00 bc e3 64 bc e9 3e 94 ba 40 e7 9c 3c
       0.0 -0.013970312 -0.0011310253 0.019153237
000170 c2 a6 5d 3b 63 e9 81 3b 4a 4b 10 bc 0b bd b7 bb
       0.003382132 0.0039645894 -0.008807013 -0.0056072525
000180 71 40 c4 ba 2e 56 81 bc ee ac 3a bc 6f f9 03 bc
       -0.0014972818 -0.015788164 -0.011393769 -0.008055075
000190 ff 4e f9 bb 80 a1 c7 3a c1 28 f8 3b 4d 6e 28 3c
       -0.007608294 0.0015230626 0.0075732176 0.010280204
0001a0 ea f9 2f 3a 00 00 00 00 54 db ad bb 08 42 10 3c
       0.00067129603 0.0 -0.005305687 0.008804806
0001b0 d9 f4 e8 3b 3b de 12 bc 00 00 00 00 76 59 45 3b
       0.0071092662 -0.008964117 0.0 0.0030113137
0001c0 6e 4d 5b bc 4d cc bc bb c7 e3 61 bc 42 54 eb bb
       -0.01338516 -0.0057616592 -0.0137872165 -0.007181675
0001d0 82 61 5d bb 81 7d 26 3c 86 19 8e 3a a5 32 43 3c
       -0.0033780043 0.010161758 0.0010841347 0.01191393
0001e0 ee 9f a3 bb 9c 70 88 3c 17 a5 25 bc d5 6f 7a 3c
       -0.0049934303 0.016655259 -0.010110161 0.015285452
0001f0 ed ca 2c ba ad ee 8b 3c 58 9e 3d bc 00 00 00 00
       -0.00065915176 0.017081583 -0.011573397 0.0
000200 00 00 00 00 1e d3 f8 3a 9d b7 ea bc d9 02 11 bc
       0.0 0.0018983816 -0.028652007 -0.008850777
000210 e7 8b 33 3c 31 bc 5b bc 83 d3 5b bc fa e4 c6 bb
       0.010958648 -0.013411568 -0.013417128 -0.0060697766
000220 8e d4 3a 3b 55 65 85 bb ba 6d b9 3b 00 00 00 00
       0.002850804 -0.0040709176 0.0056588324 0.0
000230 5a fb 8d bb 7b 77 d3 3c dd c5 f0 3a 37 e5 4c 3b
       -0.004332942 0.025813809 0.0018369515 0.0031264552
000240 b6 96 4e 3c 57 24 c3 3b bc ad cc 3b cd 69 a7 bc
       0.0126091745 0.00595526 0.0062462967 -0.020436192
000250 0d 58 e2 3b da d3 63 3c 37 42 d2 ba 2b 2c 13 bb
       0.006907469 0.01390549 -0.0016041462 -0.0022456746
000260 00 00 00 00 42 33 a9 bc b2 1d 39 3c 86 a0 36 bc
       0.0 -0.020654324 0.011298584 -0.01114667
000270 00 00 00 00 00 00 00 00 39 0a 7c 3c 7d dd e7 3a
       0.0 0.0 0.015383297 0.001768991
000280 3c 28 8c 3c 27 c0 94 bc 2e 91 65 bb da d4 23 bb
       0.017109029 -0.018158032 -0.003502916 -0.0024998696
000290 00 00 00 00 63 ca 41 3c 04 b5 19 bd 00 00 00 00
       0.0 0.011828038 -0.037526146 0.0
0002a0 ee 0e 26 3d 00 00 00 00 6d 92 39 3a 0a 90 ec 3a
       0.04054158 0.0 0.0007079009 0.0018048298
0002b0 00 00 00 00 aa cf 1f b9 18 a2 6f 3c 53 6e 97 3c
       0.0 -0.00015240783 0.0146260485 0.018485224
0002c0 1e 48 0f 3c 59 5e 05 bc 64 3f 45 3c 04 a3 46 3b
       0.008745221 -0.00814017 0.012039039 0.0030309567
0002d0 5a 6e 26 bc 3e 7d 0a bc cd f4 24 bc 32 1b 15 bc
       -0.010158146 -0.008452712 -0.010068131 -0.009100722
0002e0 9b 97 9c 3c d6 97 9f bb 3f 43 fe 3c 07 c3 fd 3b
       0.01911526 -0.004870395 0.031037925 0.0077441963
0002f0 00 00 00 00 74 f5 14 bb 51 db c4 bb 84 58 1f bb
       0.0 -0.002272931 -0.00600759 -0.0024314234
000300 70 64 14 bc 69 b1 e1 3c e8 c3 bd bc 27 3b f8 3b
       -0.009057149 0.027550416 -0.023164704 0.007575411
000310 00 a0 55 bb 72 ed 1b bc 6a 49 0c bb 00 00 00 00
       -0.0032596588 -0.009517061 -0.0021406063 0.0
000320 1d cb 17 bc 2f 9c 0e bb 3c ef c1 bb 3e 36 a6 bb
       -0.009264735 -0.0021760573 -0.0059184115 -0.005072384
000330 ed 71 a3 bb b1 c0 f5 bb 4a ee 91 3c 94 f0 43 3c
       -0.0049879462 -0.0074997772 0.01781382 0.011959214
000340 80 7f 52 bb 61 cf 6a 3b 73 80 a6 3b 29 e9 e9 3b
       -0.0032119453 0.0035829174 0.0050812303 0.0071383906
000350 d2 40 33 3c 12 22 0f 3c 5e d0 ae 3b 87 e0 39 bc
       0.010940747 0.00873615 0.005334898 -0.011345035
000360 b6 a5 2e bc a5 60 db bb a4 3a 91 3b 00 00 00 00
       -0.010659626 -0.0066948705 0.0044320393 0.0
000370 06 43 1a bc 1a bc 75 bc df 10 2a bc 00 00 00 00
       -0.009415394 -0.01499846 -0.010379999 0.0
000380 00 00 00 00 a1 84 00 bb 27 75 e9 bb d9 57 7d bb
       0.0 -0.0019610303 -0.0071245614 -0.0038657098
000390 e8 90 b4 3b 00 00 00 00 51 8e 57 3b 91 9e 9a 3a
       0.0055104382 0.0 0.0032891224 0.0011796524
0003a0 a7 d6 99 3c 2a 7f 05 3c 94 73 80 3b 00 00 00 00
       0.018779112 0.008147994 0.003920028 0.0
0003b0 25 94 03 bc 32 20 f4 bb 00 00 00 00 6b 3f db bb
       -0.008030926 -0.007450127 0.0 -0.0066909096
0003c0 c3 11 78 3c ef ca 3a 3b 6a 6a 05 3c d4 a1 11 3b
       0.0151409535 0.0028502306 0.008143047 0.0022221701
0003d0 40 75 c3 bb 3a 84 bb bb 00 00 00 00 5b b1 4d ba
       -0.005964905 -0.0057225497 0.0 -0.00078465574
0003e0 39 89 a5 b9 ee 29 01 bc d5 6e b8 bc 00 00 00 00
       -0.0003157349 -0.007883532 -0.022513786 0.0
0003f0 d9 2b de bb 5c 51 41 3c 00 00 00 00 36 9f ea bb
       -0.0067801294 0.011799183 0.0 -0.0071600927

bn2.weight f4 [300]
000000 f7 d6 8d 3f 8b f4 7a 3f 52 c7 81 3f 7a 84 83 3f
       1.1081227 0.9802939 1.0138953 1.0274804
000010 7d b5 8c 3f dd 9d 80 3f 1d a3 92 3f 02 df 8b 3f
       1.0992886 1.0048176 1.1456028 1.0927432
000020 de f7 93 3f 41 86 8c 3f 17 96 89 3f f2 99 8a 3f
       1.1560018 1.0978471 1.0748929 1.082823
000030 91 04 8e 3f 49 dc 91 3f 2f f6 86 3f 54 89 98 3f
       1.1095144 1.1395351 1.0543879 1.1916909
000040 41 27 93 3f 9f 53 97 3f d9 bf 8b 3f de 0b 83 3f
       1.1496354 1.1822394 1.0917922 1.0237997
000050 5c 03 84 3f 77 72 94 3f 4a e2 82 3f da 85 83 3f
       1.0313525 1.1597432 1.0225308 1.0275223
000060 6f 52 a0 3f 82 75 96 3f 16 0c 8d 3f a6 a7 96 3f
       1.2525157 1.175461 1.1019313 1.1769912
000070 f6 47 8d 3f 03 a0 8b 3f b4 a4 8a 3f 80 0b 86 3f
       1.1037586 1.0908207 1.0831513 1.047226
000080 22 ab 95 3f d3 9e 7f 3f 7c c8 85 3f 54 eb 83 3f
       1.169285 0.9985172 1.0451808 1.0306191
000090 cf a7 8e 3f ff ef 90 3f 05 f1 98 3f af 9f 95 3f
       1.1144961 1.1323241 1.1948553 1.1689357
0000a0 ef 67 96 3f 88 34 90 3f c5 51 8f 3f 9d 08 8f 3f
       1.1750468 1.1266031 1.1196829 1.1174504
0000b0 1e c1 8e 3f a4 68 91 3f c4 aa 8a 3f aa 2b 89 3f
       1.1152685 1.1360059 1.0833364 1.071645
0000c0 65 a2 91 3f ec e4 96 3f ba 29 7f 3f f5 93 98 3f
       1.1377684 1.1788611 0.99673045 1.1920153
0000d0 19 24 8c 3f 10 9e 97 3f 5f 33 93 3f 33 9d 83 3f
       1.0948516 1.1845112 1.1500052 1.0282348
0000e0 eb bc 82 3f 31 7e 90 3f b8 52 8a 3f b5 08 85 3f
       1.0213903 1.128851 1.0806494 1.0393282
0000f0 1e d2 85 3f 60 b9 83 3f c6 08 87 3f 46 90 92 3f
       1.0454748 1.0290947 1.0549552 1.1450279
000100 0c a5 8b 3f b9 e5 8d 3f a3 da 8f 3f c8 d5 97 3f
       1.0909743 1.1085731 1.1238598 1.1862116
000110 05 bc 8f 3f ce 8e 88 3f 75 ad 9e 3f ff 6b 8a 3f
       1.1229254 1.066858 1.2396685 1.0814208
000120 d0 88 8f 3f df 42 89 3f fd 21 a7 3f 7a 1f 88 3f
       1.1213627 1.0723532 1.3057247 1.0634606
000130 bd ba 89 3f 30 e8 9d 3f 5b 24 88 3f 59 4f a8 3f
       1.0760113 1.2336483 1.0636095 1.3149215
000140 1e d9 96 3f 99 2e 82 3f 4b e3 a2 3f 32 42 9e 3f
       1.1785009 1.017047 1.2725614 1.2363951
000150 98 5a 86 3f af 92 8c 3f ae 66 8e 3f 3e 32 84 3f
       1.0496397 1.0982264 1.1125085 1.0327833
000160 64 78 87 3f d8 c8 8b 3f f1 40 9c 3f 15 21 93 3f
       1.0583615 1.0920668 1.2207319 1.1494471
000170 58 24 92 3f be fb 89 3f 1e 59 8d 3f 07 a9 98 3f
       1.1417341 1.0779951 1.1042821 1.1926583
000180 b5 8e 8a 3f ae 3d 86 3f d5 6f 8a 3f dc 4f 8e 3f
       1.0824801 1.0487573 1.0815378 1.1118121
000190 27 ac 9c 3f b7 02 95 3f 25 86 90 3f 27 4b 94 3f
       1.2240037 1.1641454 1.1290938 1.1585435
0001a0 c7 f6 95 3f 17 a6 91 3f 8b 2e 87 3f c2 42 98 3f
       1.1715935 1.1378812 1.0561079 1.1895373
0001b0 a7 83 85 3f 7d c4 8e 3f 77 f3 86 3f 14 0c 94 3f
       1.0430802 1.1153713 1.054305 1.1566186
0001c0 a8 61 80 3f f2 04 90 3f e9 56 90 3f 14 89 af 3f
       1.0029802 1.1251509 1.1276523 1.3713708
0001d0 d4 59 7f 3f a2 33 83 3f 65 a8 81 3f ae 71 9a 3f
       0.9974644 1.0250132 1.0129515 1.2065942
0001e0 05 72 9b 3f 28 7a 90 3f 9e 09 95 3f 54 f6 86 3f
       1.2144171 1.1287279 1.164356 1.0543923
0001f0 bf 43 88 3f 31 6d 9c 3f 4a 5f 83 3f 33 97 99 3f
       1.0645674 1.2220823 1.0263455 1.1999267
000200 6a 37 96 3f 81 e5 8c 3f 7f 17 9c 3f 0c 58 86 3f
       1.1735661 1.1007539 1.219467 1.049562
000210 5a c0 98 3f 4c 2a 8d 3f 07 32 9a 3f a1 b9 a9 3f
       1.1933701 1.1028533 1.2046517 1.3259774
000220 79 bd 82 3f 53 fe 88 3f f9 13 8b 3f d4 b0 8d 3f
       1.0214072 1.0702614 1.086547 1.1069589
000230 03 19 99 3f 07 d7 88 3f 18 58 9b 3f 89 0d 81 3f
       1.1960758 1.0690621 1.2136259 1.0082256
000240 f5 39 9c 3f 69 5f 8d 3f a8 03 8c 3f 71 31 97 3f
       1.2205187 1.1044742 1.0938616 1.1811963
000250 0f 1e 7f 3f 27 45 90 3f b0 db 90 3f 85 c3 8b 3f
       0.9965524 1.1271104 1.1317043 1.0919043
000260 24 f3 94 3f be ef 9b 3f 16 ee 99 3f a5 5f 9d 3f
       1.1636701 1.2182539 1.2025783 1.2294813
000270 8e ce 97 3f 3e c5 91 3f 1c 05 8a 3f a2 21 93 3f
       1.185991 1.1388319 1.0782809 1.1494639
000280 e9 72 96 3f 8c f5 84 3f 24 02 8e 3f 40 d2 8d 3f
       1.1753818 1.0387435 1.1094403 1.1079788
000290 47 f0 98 3f 61 7c 8c 3f df 31 93 3f 6a 6e 8a 3f
       1.1948327 1.0975457 1.1499594 1.0814946
0002a0 5a cb 8b 3f 4b 2e 85 3f f9 eb 85 3f fb 95 83 3f
       1.0921433 1.0404752 1.0462638 1.0280145
0002b0 cc e5 95 3f a5 82 a1 3f f9 a6 93 3f fb 01 8e 3f
       1.1710753 1.2617995 1.1535331 1.1094354
0002c0 4f b7 89 3f 97 d1 8e 3f 87 fb 86 3f 5a 6a 85 3f
       1.0759066 1.1157712 1.054551 1.0423081
0002d0 26 4a 8e 3f f3 6c 82 3f b1 2e 8c 3f a3 b9 87 3f
       1.1116378 1.0189499 1.0951749 1.0603527
0002e0 f7 cf 96 3f e4 24 9b 3f 27 9b 88 3f 24 03 84 3f
       1.1782216 1.2120633 1.0672349 1.0313458
0002f0 a2 28 95 3f e1 c2 9e 3f 28 57 87 3f b4 a2 88 3f
       1.1653025 1.2403222 1.0573473 1.0674653
000300 6b bc 84 3f 2f 14 87 3f 63 74 84 3f 6e dd 96 3f
       1.0370001 1.0553035 1.0348018 1.1786325
000310 e4 36 82 3f f5 03 82 3f a3 8d 9c 3f 97 bd 83 3f
       1.0173001 1.0157458 1.2230724 1.0292233
000320 9a a3 93 3f 72 40 95 3f 79 e1 8d 3f 6e fd 9c 3f
       1.1534302 1.1660292 1.1084434 1.2264841
000330 f6 4b 94 3f 1c 77 9c 3f cc a2 87 3f f9 9c 89 3f
       1.1585681 1.2223849 1.0596557 1.0751029
000340 e1 75 83 3f 2e bb 88 3f ae 05 95 3f ba 64 97 3f
       1.0270349 1.0682123 1.1642358 1.1827614
000350 bc 96 94 3f ce 81 8e 3f 32 5e 96 3f 6f 9f 8e 3f
       1.16085 1.1133363 1.1747496 1.1142405
000360 12 98 82 3f 6d d0 8e 3f 42 7c 8b 3f 96 02 88 3f
       1.0202658 1.1157357 1.0897295 1.0625789
000370 1c 71 9a 3f b4 80 89 3f 51 47 9a 3f 34 93 98 3f
       1.2065768 1.0742402 1.2053014 1.1919923
000380 47 fc 9c 3f 2f d2 93 3f ac f3 9a 3f 70 85 9e 3f
       1.2264489 1.1548518 1.2105613 1.2384472
000390 44 12 92 3f 26 b9 90 3f a4 6d 82 3f 94 77 8b 3f
       1.1411824 1.1306503 1.018971 1.0895867
0003a0 43 94 9a 3f 84 5b 9c 3f 3a b6 8e 3f b8 62 8a 3f
       1.2076496 1.2215428 1.1149361 1.0811377
0003b0 aa 59 9a 3f 50 44 9a 3f 52 18 8d 3f 60 49 8b 3f
       1.2058613 1.2052097 1.1023047 1.0881767
0003c0 a3 21 90 3f 7a 6e 81 3f a5 12 82 3f 8e f5 88 3f
       1.1260265 1.011184 1.016194 1.0699937
0003d0 d4 00 8e 3f 28 59 88 3f c9 2e 9b 3f 28 e4 90 3f
       1.1094003 1.0652208 1.2123653 1.1319628
0003e0 f7 21 80 3f b0 1c 85 3f 13 04 8d 3f 8b 97 95 3f
       1.0010365 1.039938 1.1016868 1.1686872
0003f0 4a 05 87 3f a4 ad 93 3f d5 b5 98 3f a2 42 8d 3f
       1.0548489 1.1537366 1.1930491 1.103596
